results/packaging_fix_test_04/RobotAgent/RobotAgent-0.onnx (onnx, 357277 bytes, 8 tensors)

network_body.observation_encoder.processors.0.normalizer.running_mean f4 [74]
00000000: 0000 0000 0000 0000 0000 0000 0000 0000
00000010: 0000 0000 0000 0000 0000 0000 0000 0000
00000020: 0000 0000 0000 0000 0000 0000 0000 0000
00000030: 0000 0000 0000 0000 0000 0000 0000 0000
00000040: 0000 0000 0000 0000 0000 0000 0000 0000
00000050: 0000 0000 0000 0000 0000 0000 0000 0000
00000060: 0000 0000 0000 0000 0000 0000 0000 0000
00000070: 0000 0000 0000 0000 0000 0000 0000 0000
00000080: 0000 0000 0000 0000 0000 0000 0000 0000
00000090: 0000 0000 0000 0000 0000 0000 0000 0000
000000a0: 0000 0000 0000 0000 0000 0000 0000 0000
000000b0: 0000 0000 0000 0000 0000 0000 0000 0000
000000c0: 0000 0000 0000 0000 0000 0000 0000 0000
000000d0: 0000 0000 0000 0000 0000 0000 0000 0000
000000e0: 0000 0000 0000 0000 0000 0000 0000 0000
000000f0: 0000 0000 0000 0000 0000 0000 0000 0000
00000100: 0000 0000 0000 0000 0000 0000 0000 0000
00000110: 0000 0000 0000 0000 0000 0000 0000 0000
00000120: 0000 0000 0000 0000
0.0 0.0 0.0 0.0 0.0 0.0 0.0 0.0
0.0 0.0 0.0 0.0 0.0 0.0 0.0 0.0
0.0 0.0 0.0 0.0 0.0 0.0 0.0 0.0
0.0 0.0 0.0 0.0 0.0 0.0 0.0 0.0
0.0 0.0 0.0 0.0 0.0 0.0 0.0 0.0
0.0 0.0 0.0 0.0 0.0 0.0 0.0 0.0
0.0 0.0 0.0 0.0 0.0 0.0 0.0 0.0
0.0 0.0 0.0 0.0 0.0 0.0 0.0 0.0
0.0 0.0 0.0 0.0 0.0 0.0 0.0 0.0
0.0 0.0

network_body._body_endoder.seq_layers.0.weight f4 [256, 74]
00000000: 3d67 cb3c 931b 83bc 0fa7 023e f0df 6a3d
00000010: 5475 123d cd2c 533e eb55 353e 443b 42bc
00000020: 4e86 4abc 5d8e 9bbd 289a 873c 2b2a 2d3e
00000030: a808 77bd c2a2 20be 20a7 893e d489 69bd
00000040: 6b90 b13d 1ed1 f8bd e7e8 a33d 44e0 fe3d
00000050: 4aaa 24be 42d4 12bd 32a6 173e 9a22 1c3e
00000060: acf0 d3bd 93c2 143d ccbf 393e 3cc0 be3c
00000070: fa0c 683e fcc1 4abd d520 c8bd 637d a4bd
00000080: 93f2 82be 92e3 b33d ea42 053e 8705 5fbd
00000090: a989 f8bc 9816 fdbc a751 febd 9222 0e3e
000000a0: b74b 8c3d 9371 863e f214 083d bdd3 09be
000000b0: 1c40 cebd c8cc 473e 36d2 5bbe 019c ea3d
000000c0: 779b 7abd 70cd 6dbe 0d52 02bc 37ef 003e
000000d0: dc47 2a3c 7894 843d 6058 acbd 9cbe e4bd
000000e0: 3a46 c93d b45b 06be b10d 863d 76c8 a0bd
000000f0: d3f9 8cbe 55a1 5b3d 12fa f835 1b45 983d
00000100: 909e e8bc 398d f73c 72bf 2b3c 8ec6 073e
00000110: 6656 30be 6a48 1cbe 0945 973d 4ad1 1f3d
00000120: 9a7c 15bd df1d 26be a40a c03d 3132 84bd
00000130: feee 193e 1e5e cfbd fce1 5fbd 52d3 483d
00000140: aa51 9bbd 188c 2ebe 3e41 d53d 67c3 503d
00000150: 5b93 d3bc cfd3 8dbd 8afa 9f3d 49ba 8c3c
00000160: 1863 033e 343e f6bd 19f8 d33c 45f6 eabc
00000170: fd94 2abe 7f43 a73d 1f27 3f3e 8032 df3c
00000180: 4985 9b3a ce5e fdbc 8d37 cfbd 7c64 3cbe
00000190: 1917 06be c3a8 3d3e e0eb 0abc 7a31 443e
000001a0: ed54 54bd 0fe0 973d 1d39 1f3e c1f4 cd3d
000001b0: 3ad1 063e 1db0 153e 1bb5 8dbd bd08 75bd
000001c0: f23c 0bbe 51ae a6bc b2f3 b13d 600d 5b3d
000001d0: 1c0c 173d d383 a43d 3d20 e3bd f6a2 6b3e
000001e0: 7952 01be 6132 433e 9871 29bd b27f 5bbc
000001f0: 8297 b83e 918e 203c ebd6 e7bd 3159 e93c
00000200: 355b 94bc 220f 79be 5639 2bbe 6057 45bb
00000210: 56b1 aebd c6da 503e 9c19 c5bd fda0 373e
00000220: 58ff 003e 8e46 c4bd 684e 4c3e 618a 693d
00000230: ac13 28bd 1209 cb3c 174d 323d 1752 f43c
00000240: f537 453e 965e 60bd 2a15 d83d e91b 63be
00000250: 4854 853d 81af 18be 5301 8fbe 92bf f2bd
00000260: 5c1f 2bbe 17e1 9dba 6ed8 fcbd afe7 9c3e
00000270: 08ed a8bd b329 5f3e c9a7 1abe 605c e6bd
00000280: 63cb 123e 7466 073d 641e 293e bc77 24be
00000290: 680a 26bc c325 3d3d ad78 263e 14c8 97bd
000002a0: 642c 61bd 5ceb 9fbd 4359 923c 98c3 943c
000002b0: 4a28 84bd 6cae 90be 0efa fc3c 62cc edbd
000002c0: 0958 07be 8d54 cbbd 5658 15be 22b3 bf3d
000002d0: 2189 1ebd e961 58bd f874 06be c324 a1bc
000002e0: 46d4 863c ee39 93bc 7340 00be b7c1 a9bb
000002f0: 64cf 3d3e a749 a63c 0fb8 c2bd b5f3 e03d
00000300: 06d9 a03d cb98 3e3d 7966 373e 1e0c 43bd
00000310: 3f3a 793d 978d fa3d 9444 79be 69eb bf3c
00000320: 4109 d4bd 97b1 013d 420c be3d a827 2cbe
00000330: 411e 063c bd42 593d ea76 57be 77ca a93d
00000340: be3d 38be c32a 2abe 2d3b 17be d1d8 27bd
00000350: bf42 063e ff81 47bd 9fe3 d9bd e6dc 12be
00000360: 7164 aebc 8717 1fbe d0a0 48bd e680 553e
00000370: aba5 3e3e 9b48 fe3c 5f5e 8f3d 1882 7abd
00000380: 5cf6 c13c 2eb5 62be 17bd 63bd 09d4 d7bc
00000390: aef0 f73c fd9f 043e e125 13be af20 39bd
000003a0: 0fa1 bd3d 8471 0f3d 0f39 14bd bb43 123d
000003b0: d82f 88bd 2254 2a3d 43e1 ca3c a034 f13d
000003c0: fe40 973b 86ac babd e813 b0bd 33e1 2abd
000003d0: 0389 263e c0dc d63d f4b8 d53d 7e0a 6dbc
000003e0: 85e7 22be ce08 fa3c 08f3 9a3d 0d51 ed39
000003f0: f069 14be 660f 25be b76f 613d e437 32be
0.024829501 -0.01600436 0.1275904 0.05734247 0.035756424 0.20622559 0.17708556 -0.01185495
-0.012361122 -0.07595513 0.016553 0.16910617 -0.06031099 -0.15687087 0.2688532 -0.05701621
0.08670124 -0.12149261 0.08003407 0.12445119 -0.16080585 -0.035846956 0.14809492 0.15247574
-0.10348639 0.036318373 0.18139571 0.023285024 0.226612 -0.049501404 -0.09771887 -0.08031728
-0.25575694 0.0878364 0.13013807 -0.05444863 -0.030339079 -0.030894563 -0.12417918 0.13880375
0.06850379 0.26258525 0.0332231 -0.13459678 -0.10070822 0.19511712 -0.21466908 0.11455537
-0.06118342 -0.232229 -0.007954133 0.12591253 0.010393109 0.06473631 -0.08415294 -0.11169168
0.09827848 -0.1312092 0.0654558 -0.07850735 -0.2753435 0.053620655 1.855022e-06 0.07435056
-0.028395921 0.030218707 0.010482656 0.13259336 -0.17220458 -0.15261999 0.07386214 0.039017953
-0.036495782 -0.16222332 0.093770295 -0.06454886 0.15032575 -0.10125373 -0.054658875 0.049029656
-0.075839356 -0.17045629 0.104128346 0.0509676 -0.0258271 -0.06925165 0.078114584 0.017178671
0.1283077 -0.12023583 0.025875138 -0.028681884 -0.16658397 0.08167171 0.18667267 0.02724576
0.0011865284 -0.030928995 -0.10118017 -0.18397707 -0.13094749 0.18521409 -0.008479089 0.19159499
-0.051838804 0.07415783 0.1554913 0.10056449 0.13165751 0.14617963 -0.06919309 -0.059822787
-0.13597468 -0.020346792 0.08689059 0.053479552 0.036876783 0.08032956 -0.11090133 0.23011383
-0.12629117 0.19062187 -0.041368097 -0.013397144 0.3605309 0.0097996155 -0.11320289 0.028484913
-0.018109897 -0.24322179 -0.1672109 -0.0030111894 -0.08529918 0.20395955 -0.09624025 0.17932506
0.12597406 -0.0958377 0.19951785 0.057016734 -0.041034386 0.024784598 0.04353055 0.0298243
0.19259627 -0.054777704 0.10550912 -0.22178616 0.06510216 -0.149107 -0.27930698 -0.118529454
-0.16711181 -0.0012045231 -0.12345968 0.3064551 -0.08248335 0.2179325 -0.15103067 -0.11248088
0.14335398 0.03305669 0.165155 -0.160613 -0.010134317 0.04617859 0.16256972 -0.07411209
-0.054973975 -0.07808563 0.017864829 0.018159673 -0.06452997 -0.28258073 0.030880954 -0.116112486
-0.13217176 -0.09928236 -0.14584479 0.09360339 -0.038704995 -0.05282775 -0.13130558 -0.01967085
0.016458642 -0.017971959 -0.12524585 -0.0051805633 0.18536144 0.020298792 -0.09507763 0.109839834
0.07853894 0.046532433 0.17910184 -0.047618978 0.060846563 0.12234037 -0.24342567 0.023427682
-0.103533275 0.031663503 0.09279682 -0.16812003 0.008185924 0.053042162 -0.21041456 0.0829057
-0.17992303 -0.16617875 -0.14768668 -0.040978257 0.13111399 -0.04870796 -0.106391184 -0.14342079
-0.021288129 -0.15536319 -0.048981488 0.20849952 0.18617885 0.03104048 0.07000422 -0.061159223
0.023677044 -0.22139427 -0.055600252 -0.026346223 0.030266132 0.12951656 -0.14369918 -0.045197185
0.09259235 0.035020366 -0.036187228 0.035709124 -0.066497505 0.04158414 0.024765616 0.117776155
0.004615902 -0.091149375 -0.08597547 -0.041718673 0.16263203 0.104913235 0.10435668 -0.014467834
-0.1590863 0.030521777 0.07565886 0.0004526455 -0.14493537 -0.16119155 0.05503818 -0.17404133

network_body._body_endoder.seq_layers.0.bias f4 [256]
00000000: 0000 0000 0000 0000 0000 0000 0000 0000
00000010: 0000 0000 0000 0000 0000 0000 0000 0000
00000020: 0000 0000 0000 0000 0000 0000 0000 0000
00000030: 0000 0000 0000 0000 0000 0000 0000 0000
00000040: 0000 0000 0000 0000 0000 0000 0000 0000
00000050: 0000 0000 0000 0000 0000 0000 0000 0000
00000060: 0000 0000 0000 0000 0000 0000 0000 0000
00000070: 0000 0000 0000 0000 0000 0000 0000 0000
00000080: 0000 0000 0000 0000 0000 0000 0000 0000
00000090: 0000 0000 0000 0000 0000 0000 0000 0000
000000a0: 0000 0000 0000 0000 0000 0000 0000 0000
000000b0: 0000 0000 0000 0000 0000 0000 0000 0000
000000c0: 0000 0000 0000 0000 0000 0000 0000 0000
000000d0: 0000 0000 0000 0000 0000 0000 0000 0000
000000e0: 0000 0000 0000 0000 0000 0000 0000 0000
000000f0: 0000 0000 0000 0000 0000 0000 0000 0000
00000100: 0000 0000 0000 0000 0000 0000 0000 0000
00000110: 0000 0000 0000 0000 0000 0000 0000 0000
00000120: 0000 0000 0000 0000 0000 0000 0000 0000
00000130: 0000 0000 0000 0000 0000 0000 0000 0000
00000140: 0000 0000 0000 0000 0000 0000 0000 0000
00000150: 0000 0000 0000 0000 0000 0000 0000 0000
00000160: 0000 0000 0000 0000 0000 0000 0000 0000
00000170: 0000 0000 0000 0000 0000 0000 0000 0000
00000180: 0000 0000 0000 0000 0000 0000 0000 0000
00000190: 0000 0000 0000 0000 0000 0000 0000 0000
000001a0: 0000 0000 0000 0000 0000 0000 0000 0000
000001b0: 0000 0000 0000 0000 0000 0000 0000 0000
000001c0: 0000 0000 0000 0000 0000 0000 0000 0000
000001d0: 0000 0000 0000 0000 0000 0000 0000 0000
000001e0: 0000 0000 0000 0000 0000 0000 0000 0000
000001f0: 0000 0000 0000 0000 0000 0000 0000 0000
00000200: 0000 0000 0000 0000 0000 0000 0000 0000
00000210: 0000 0000 0000 0000 0000 0000 0000 0000
00000220: 0000 0000 0000 0000 0000 0000 0000 0000
00000230: 0000 0000 0000 0000 0000 0000 0000 0000
00000240: 0000 0000 0000 0000 0000 0000 0000 0000
00000250: 0000 0000 0000 0000 0000 0000 0000 0000
00000260: 0000 0000 0000 0000 0000 0000 0000 0000
00000270: 0000 0000 0000 0000 0000 0000 0000 0000
00000280: 0000 0000 0000 0000 0000 0000 0000 0000
00000290: 0000 0000 0000 0000 0000 0000 0000 0000
000002a0: 0000 0000 0000 0000 0000 0000 0000 0000
000002b0: 0000 0000 0000 0000 0000 0000 0000 0000
000002c0: 0000 0000 0000 0000 0000 0000 0000 0000
000002d0: 0000 0000 0000 0000 0000 0000 0000 0000
000002e0: 0000 0000 0000 0000 0000 0000 0000 0000
000002f0: 0000 0000 0000 0000 0000 0000 0000 0000
00000300: 0000 0000 0000 0000 0000 0000 0000 0000
00000310: 0000 0000 0000 0000 0000 0000 0000 0000
00000320: 0000 0000 0000 0000 0000 0000 0000 0000
00000330: 0000 0000 0000 0000 0000 0000 0000 0000
00000340: 0000 0000 0000 0000 0000 0000 0000 0000
00000350: 0000 0000 0000 0000 0000 0000 0000 0000
00000360: 0000 0000 0000 0000 0000 0000 0000 0000
00000370: 0000 0000 0000 0000 0000 0000 0000 0000
00000380: 0000 0000 0000 0000 0000 0000 0000 0000
00000390: 0000 0000 0000 0000 0000 0000 0000 0000
000003a0: 0000 0000 0000 0000 0000 0000 0000 0000
000003b0: 0000 0000 0000 0000 0000 0000 0000 0000
000003c0: 0000 0000 0000 0000 0000 0000 0000 0000
000003d0: 0000 0000 0000 0000 0000 0000 0000 0000
000003e0: 0000 0000 0000 0000 0000 0000 0000 0000
000003f0: 0000 0000 0000 0000 0000 0000 0000 0000
0.0 0.0 0.0 0.0 0.0 0.0 0.0 0.0
0.0 0.0 0.0 0.0 0.0 0.0 0.0 0.0
0.0 0.0 0.0 0.0 0.0 0.0 0.0 0.0
0.0 0.0 0.0 0.0 0.0 0.0 0.0 0.0
0.0 0.0 0.0 0.0 0.0 0.0 0.0 0.0
0.0 0.0 0.0 0.0 0.0 0.0 0.0 0.0
0.0 0.0 0.0 0.0 0.0 0.0 0.0 0.0
0.0 0.0 0.0 0.0 0.0 0.0 0.0 0.0
0.0 0.0 0.0 0.0 0.0 0.0 0.0 0.0
0.0 0.0 0.0 0.0 0.0 0.0 0.0 0.0
0.0 0.0 0.0 0.0 0.0 0.0 0.0 0.0
0.0 0.0 0.0 0.0 0.0 0.0 0.0 0.0
0.0 0.0 0.0 0.0 0.0 0.0 0.0 0.0
0.0 0.0 0.0 0.0 0.0 0.0 0.0 0.0
0.0 0.0 0.0 0.0 0.0 0.0 0.0 0.0
0.0 0.0 0.0 0.0 0.0 0.0 0.0 0.0
0.0 0.0 0.0 0.0 0.0 0.0 0.0 0.0
0.0 0.0 0.0 0.0 0.0 0.0 0.0 0.0
0.0 0.0 0.0 0.0 0.0 0.0 0.0 0.0
0.0 0.0 0.0 0.0 0.0 0.0 0.0 0.0
0.0 0.0 0.0 0.0 0.0 0.0 0.0 0.0
0.0 0.0 0.0 0.0 0.0 0.0 0.0 0.0
0.0 0.0 0.0 0.0 0.0 0.0 0.0 0.0
0.0 0.0 0.0 0.0 0.0 0.0 0.0 0.0
0.0 0.0 0.0 0.0 0.0 0.0 0.0 0.0
0.0 0.0 0.0 0.0 0.0 0.0 0.0 0.0
0.0 0.0 0.0 0.0 0.0 0.0 0.0 0.0
0.0 0.0 0.0 0.0 0.0 0.0 0.0 0.0
0.0 0.0 0.0 0.0 0.0 0.0 0.0 0.0
0.0 0.0 0.0 0.0 0.0 0.0 0.0 0.0
0.0 0.0 0.0 0.0 0.0 0.0 0.0 0.0
0.0 0.0 0.0 0.0 0.0 0.0 0.0 0.0

network_body._body_endoder.seq_layers.2.weight f4 [256, 256]
00000000: 7e38 85bc 6d51 d53d de9c db3d 22ab a0bd
00000010: e91b df3c 326a 453d d7fc 44bc c2b5 823c
00000020: 1139 323d 809f 063c d35d febb f2fe bcbc
00000030: 639c d1bc 0072 613d 3930 06be 01d6 d2bd
00000040: 6712 7dbd d072 2bbd 3e49 b2bc 3fff 6cbc
00000050: 127a 05be 4086 4d3d 0381 7dbd ac7e 85bd
00000060: 18d3 993d cab3 e2bb 6111 493d 3493 093d
00000070: e129 00be 1a9c 68bc 27f4 19bd 01c4 cfbc
00000080: ea84 0a3d eb6d 33bc 02ac 873a 49a5 2b3d
00000090: 5896 86bd 9cd9 633d 4a35 82bd 8988 473d
000000a0: 6b15 0abc ff90 ed3c 5630 a83b e042 c13b
000000b0: f351 77bd e373 7dbd 4a00 df3d d8a0 65bd
000000c0: 0104 723b 2ca5 353d c307 36bd 4341 a63c
000000d0: 4658 edbd 3f4b ef3c 82e8 963d a8cf e0bd
000000e0: af2a 9f3d abf7 eebc 03c2 7ebd 622b 0abe
000000f0: b153 9fbd f519 85bd 45f9 653d 01ea 8cbd
00000100: 8b62 323d e639 b43d 3065 acbc 065f 883b
00000110: 7256 b0bc 7d93 9ebd 9083 2a3e 837a 983d
00000120: ee29 d23d 1c22 e63d 4682 d53d 30bc bf3d
00000130: 266c ad3a 7ece a03b c4ff 133d 8830 8dbb
00000140: f6cf 3ebd 5a81 4f3d b147 cebc ca51 603d
00000150: 4af0 82bd 6902 f2bd 2f0c 32bd 597e 723d
00000160: fc7f 7d3d af00 da3d 2e93 b43c 7647 aa3a
00000170: f586 bc3c 86f8 92bb 5656 d43a 97f0 293d
00000180: 0a9f 2e3d d9d5 34bc 05e0 b63a f6a2 7fbd
00000190: 0f4c f83d ee30 0a3d 4e82 2c3c 39f7 edbd
000001a0: edbc 21bd 692c 41bd e99d b53c d277 4c3d
000001b0: cb52 2a3d 46c9 0b3d a458 b63d 9408 4abc
000001c0: 04ae 173d 0aaa 143d 2be8 d4b9 f94f cdbc
000001d0: 7b24 ebbd 2052 823d 721c 4f3d 8417 7d3c
000001e0: adef 25bd 71ef 963d eeaf b3bd b838 83bd
000001f0: 6975 ef3d 54ca a43c 1e64 1bbd 3190 e0bd
00000200: 7e68 273c 8645 0cbe 27a5 41bd a06e 1e3d
00000210: 350b 13bb 94f1 253d 038b a2bd 39bd 633d
00000220: 2464 b53d 55cc 2e3c b578 8c3d 7c6e 55bd
00000230: 7622 063c 32ea c13d e153 86bc 2cd8 07bc
00000240: 62b8 8fbc b0c2 b4bd bb6b ba3d ea80 bbbd
00000250: a591 8e3d 6157 60bd e662 61bd 1290 493c
00000260: 59f9 8bbc 779a 563d c0e2 da3d be52 2f3d
00000270: 2bbf 2bbc fe3b acbc bb67 3dbc 34c3 83bb
00000280: 5bbd 143e a7fa f83c 4586 26bd 9b23 90bd
00000290: c5cb 5f3d 980e 67bd 2d58 49bd f2aa a1bd
000002a0: f8be babd 6117 37bd 18f4 98bd 7478 bd3c
000002b0: 1d14 cbbb 61e6 83bc 5a8c 343d 98f4 bc3c
000002c0: 3e56 9abc cfe9 c43c a38a 48bd ef21 873c
000002d0: 053e 543d a249 c43c fbbd 083e ec16 11bc
000002e0: 5fd9 d5bd 911e d5bc ee07 c33a 689f 1d3c
000002f0: 3b79 9a3d 1112 8e3d ec18 0c3c 8ee3 acbc
00000300: 01dd 6b3b 0927 773d 2a3d 25bd e2a0 56bc
00000310: 1784 81bd f3ab af3b 922e 31bd 3720 9ebd
00000320: 8951 163d f88d 7bbd 313c ed3c 8e74 0cbe
00000330: 9de2 3fbc 856c cf3d 4b43 c53d 5722 44bd
00000340: 367e 2abd 245b dd3c 3a4f 63bd 3202 52bd
00000350: ccc4 36bd 301b 2b3d c00b 063c 5f83 b63c
00000360: 502e bbbd 1ea5 efbc fba6 18bc 33ea b03d
00000370: 7e4b c5bd ff7b 83bd 79ea 503d e52c 5c3d
00000380: e217 c1bd 7f6d d2bd ec68 cd3c c526 d83c
00000390: 260f 49bd f904 b73c 7a29 06be 7df3 50be
000003a0: 35f8 d83d 992c 3b3d c37d 713d 9850 3abd
000003b0: 0cac 18bd 63a1 903c ba2e b7bd 96d2 6f3d
000003c0: ac26 74bd e9b0 91bd 0c58 e1bc 9aae 9b3d
000003d0: aade 02be 1d87 01bd 14d3 823c eeac 55bd
000003e0: 4114 c33d 3652 0c3e 220c 553c 9b84 bb3c
000003f0: 296e a23d cff2 b43b 5785 ca3d eca9 8dbd
-0.01626229 0.10415921 0.107232794 -0.07845141 0.027234988 0.04819698 -0.012023172 0.01595581
0.043511454 0.008216739 -0.0077626496 -0.023070786 -0.025587266 0.05504036 -0.13104333 -0.10294724
-0.061785128 -0.04185754 -0.02176344 -0.014465152 -0.13034847 0.05017686 -0.061890613 -0.06518301
0.07510966 -0.006918405 0.04908884 0.03358765 -0.12515976 -0.014197374 -0.037586357 -0.025362017
0.033818163 -0.010951499 0.0010350945 0.041905675 -0.065716445 0.05562745 -0.0635782 0.048714194
-0.008427958 0.028999804 0.005132715 0.0058978647 -0.060380887 -0.061878096 0.10888727 -0.056061596
0.0036928656 0.044346973 -0.044440996 0.020294791 -0.115891024 0.029210685 0.07368566 -0.10977107
0.07771813 -0.029170832 -0.062196743 -0.13493112 -0.07779635 -0.064990915 0.056145925 -0.0688057
0.04355101 0.08800106 -0.021044344 0.0041617183 -0.021525595 -0.07742975 0.1665175 0.07445242
0.10261904 0.112369746 0.10425238 0.09362066 0.0013231083 0.0049074283 0.03613259 -0.004308764
-0.046585046 0.05066047 -0.02518067 0.0547655 -0.06393488 -0.11816866 -0.04346865 0.059202526
0.061889634 0.10644662 0.022042837 0.0012991268 0.023013571 -0.0044851927 0.0016200047 0.04148921
0.04263214 -0.011037313 0.0013952261 -0.06241127 0.12123882 0.03373807 0.010529114 -0.116194196
-0.039486814 -0.047161493 0.022170024 0.049918957 0.041582864 0.034127496 0.089036256 -0.012331147
0.03703119 0.036294974 -0.0004060877 -0.025062548 -0.114815675 0.0636332 0.050564237 0.015447501
-0.040511776 0.073698886 -0.0877379 -0.064073026 0.11692316 0.020116009 -0.037937276 -0.10965002
0.010217784 -0.13698396 -0.047276642 0.03867972 -0.00224371 0.04051359 -0.07936671 0.05560038
0.08856991 0.010668834 0.068589605 -0.05210732 0.008186927 0.09468497 -0.016397418 -0.0082912855
-0.017543975 -0.08826196 0.09102579 -0.09155448 0.06961373 -0.05477083 -0.055025958 0.012302415
-0.017086672 0.052393403 0.106877804 0.04280352 -0.01048259 -0.0210247 -0.011560376 -0.0040210728
0.14525358 0.030392958 -0.040655393 -0.07038041 0.05463769 -0.056410402 -0.049156357 -0.07893933
-0.09118456 -0.04470003 -0.07468432 0.023128726 -0.006197466 -0.016101064 0.044079162 0.02306585
-0.018839952 0.02403727 -0.04896034 0.016495673 0.05181696 0.023960892 0.13353722 -0.008855563
-0.10441851 -0.026015552 0.0014879683 0.009620525 0.07542654 0.0693704 0.008550864 -0.0211046
0.0035989883 0.06033996 -0.040341534 -0.013099881 -0.06324022 0.005361074 -0.043257304 -0.07720988
0.03669885 -0.06141469 0.028959366 -0.13716337 -0.011711744 0.1012812 0.09631976 -0.04788431
-0.04162427 0.027020998 -0.05549548 -0.051271625 -0.044621274 0.041773975 0.008181512 0.02227944
-0.09139693 -0.029253539 -0.009317155 0.0863842 -0.096335396 -0.06420135 0.05100486 0.053753752
-0.094283834 -0.10274791 0.025074445 0.026385674 -0.049086712 0.022341238 -0.1310176 -0.20405383
0.10594217 0.04569683 0.058957826 -0.045487016 -0.03727345 0.01765508 -0.08944459 0.05855044
-0.059607193 -0.07113821 -0.027507804 0.07601662 -0.12780252 -0.031622995 0.01596979 -0.05216687
0.095253475 0.13703236 0.013003381 0.02289038 0.07931168 0.005522109 0.09888714 -0.06917176

action_model._continuous_distribution.log_sigma f4 [1, 12]
00000000: 0000 0000 0000 0000 0000 0000 0000 0000
00000010: 0000 0000 0000 0000 0000 0000 0000 0000
00000020: 0000 0000 0000 0000 0000 0000 0000 0000
0.0 0.0 0.0 0.0 0.0 0.0 0.0 0.0
0.0 0.0 0.0 0.0

action_model._continuous_distribution.mu.weight f4 [12, 256]
00000000: 04d8 033d c068 fe3a c38f 5b3c 43df b63b
00000010: 9712 99bc d33d afbc 5dfd 7f3b 508d f43b
00000020: 8800 743c 9099 0b3c 7a4a 393c 1f11 3f3c
00000030: c7c2 7cbc cf39 163c 2cc6 1abb cf5d cd3c
00000040: 9d5f ca3b aebc 2c3c 1d79 4bbc f39a 033c
00000050: f20f febc 577f e9bb 3805 f0bc ccf7 86bb
00000060: 6d58 583c b088 55bc 879b 923b 9f1d a9b9
00000070: e6e6 3a3c 963c 1cbc 904b 53bb 7592 6a3a
00000080: 130d 3fbc cfab e93a ff8e afbc ab98 623b
00000090: 7347 86bc 7076 4bba eab7 dbbb 25bb 74bb
000000a0: f731 4b3c 9fff 64bb bf66 b9bb 934e 91bc
000000b0: c876 3fbc 9184 013c 15b0 7b3c ed00 a7bb
000000c0: f70a 3f3c 2a12 99bb 0adb e53c 4b4b 213c
000000d0: 43cc 04bd fc54 2e3b b29c d8bc ea0b 513c
000000e0: 821e 7d3c 22c9 c53c b590 603c 666d 823c
000000f0: 6fa3 5fbc ff11 e5bb cb5f 02bc 178e 503b
00000100: 6628 b7bc dfc7 06ba 50de adbc b472 a639
00000110: 1b0a 743b 07a7 3b3a bc24 1b3b d536 dcbb
00000120: 951b 5bbb b03e 8e3b 4754 8d3b b7dd aeba
00000130: b21e d5bc a7cd 00b9 e349 a4bc 285d afba
00000140: bf99 193c c38c 49bc 5636 0c3c 4758 a2bb
00000150: 24a5 8b3c 3091 0c3c 9b0f 85bc 5f08 04b8
00000160: 4bdf 8dba e39a 23bc 6466 36ba 8fca e73b
00000170: 00cd 603b 93e2 b5bb af48 05bb 43a2 853a
00000180: ad1a 76bc df44 98bc cba0 2f3c b1b5 143c
00000190: d7c2 88bc 0bc1 b0bc bdf5 7f3b 88b6 c33c
000001a0: 0abc babb c612 25bb dbfa e3bb cc06 943c
000001b0: 0f9a fcba 159e 13bc 77a8 80bc 06b9 9eba
000001c0: fbca 843c 9f6d b4bc d8e8 f7b9 9481 1f3c
000001d0: ebcb 3eba 753f 4bbc 2742 ebbb c75e 0d3c
000001e0: 5b12 993b 1405 c6bc 35da 7ebc 0f37 a03b
000001f0: b5cb da3b ba5d 653b e5e3 6cba 5720 a43c
00000200: 3461 3dbc b73a c53c 2789 d0bb 27e9 583c
00000210: 9729 253c fc4b b7bb db57 71bb 62f8 74bc
00000220: 4f19 393b 284f 33bc fb05 8c3c a24c d83b
00000230: eb12 2bbc 4ef8 8c3c 381f 1cbb 3891 bcbb
00000240: 58a3 283b 5e08 4abc abd6 2dbc 9b0a c1bc
00000250: 7937 943c 5211 d03c 0294 563c 8aaf f6bb
00000260: e36f d83c 7af2 1d3c 05e6 e13c 3e55 91bc
00000270: 8d58 2bbb bf66 1c3c 9931 493c 5f82 09bc
00000280: d8ef c8ba b811 823b 55a7 00bc 4716 a33c
00000290: 0b66 1d3c ff17 4f3b e0f9 53bc 37ce c5b9
000002a0: 4f4a 45bc bd6b 933c cfe7 67bb 23e0 8e3c
000002b0: 0bbd 5b39 c5ee b53a dfbd 0a3b b2c3 323c
000002c0: 2e4c 883c 0b97 b2bc 629a ad3b d399 f73b
000002d0: 9d15 60bc 1252 62bb af29 13bb 4d5d c3bb
000002e0: ffdb adbc cdcd aabb 6e2f 043c fcb9 3cbc
000002f0: b071 a9bb 33a9 b0bb 6649 92bc dd86 653c
00000300: 93e5 b83c 108c 6cbb 6bbb c9bc 05be f53a
00000310: cbd2 1abc 20d2 b23b 5e70 303c 7b40 d6bb
00000320: d39e b2bb a1c5 8d3c c074 223c a2c6 d73b
00000330: f606 b0bb ef67 d4ba 8544 d93c 5e66 10bc
00000340: 4733 9c3a 47f9 783b cbf9 78bc f010 aaba
00000350: 202b 873b 54d0 28bc f223 4e3c e9ad 403c
00000360: a201 dbbb 45cc 5c3c 9d5b a1bc d5e6 a2bb
00000370: 9324 323c 0aa4 263c 679d 1d3c 2fa8 70bb
00000380: dffa a6bc 2f8a 0ebc e333 e4ba ca3a e23b
00000390: 6344 95bb dc08 a13c 0bde d5bb 6429 bdbb
000003a0: af79 343c bde0 443b 4c60 1bb7 0f24 8bb9
000003b0: f93d a43b 6ab9 25bb 733c 103c ee18 b83b
000003c0: 444c 2c3c d373 1d3c 4fe4 3d3c 7d56 e4ba
000003d0: 1365 1b3c 789c fdbb 2fdb 91bc bb9c ae3c
000003e0: 5c90 80bc 246a 11bc 500e 6cbc cde7 5d3b
000003f0: cf49 78b9 8797 813c 50b6 0dbc 5d76 08bc
0.03218843 0.001940988 0.013400975 0.005580814 -0.018685622 -0.021391785 0.0039060928 0.007463135
0.014892705 0.008520499 0.0113092605 0.011661797 -0.015427298 0.009169056 -0.0023616655 0.025069145
0.006175949 0.010543032 -0.012419012 0.008032548 -0.031013463 -0.007125776 -0.029299363 -0.004118895
0.013204676 -0.013033077 0.0044741067 -0.0003225626 0.01140759 -0.009535929 -0.0032241084 0.00089482154
-0.011660832 0.0017827692 -0.02143049 0.003457586 -0.016391492 -0.0007761484 -0.006705274 -0.0037342992
0.012402049 -0.00349424 -0.0056580002 -0.017737662 -0.0116860345 0.007905141 0.015361805 -0.005096546
0.011660329 -0.004671355 0.028058548 0.009844611 -0.03242136 0.0026600948 -0.026441906 0.012759188
0.015449168 0.02414376 0.013706376 0.015921306 -0.013649805 -0.0069906707 -0.007957409 0.0031822973
-0.02235813 -0.00051414774 -0.02122417 0.00031747448 0.0037237469 0.0007158373 0.0023673018 -0.0067204037
-0.0033433188 0.004340969 0.004313025 -0.0013341223 -0.026015613 -0.00012283643 -0.020054763 -0.0013379203
0.009375035 -0.012301627 0.008557877 -0.004954371 0.017046519 0.008579537 -0.016242793 -3.147905e-05
-0.0010823993 -0.009985658 -0.00069580064 0.0070737074 0.0034301877 -0.0055506914 -0.0020337512 0.0010195452
-0.015021008 -0.018587528 0.010719488 0.009076522 -0.01669447 -0.021576425 0.0039056384 0.023890749
-0.0056986855 -0.0025188192 -0.0069573945 0.018069647 -0.0019271987 -0.009009858 -0.01570533 -0.0012109585
0.01621007 -0.022024928 -0.00047284993 0.009735484 -0.0007278311 -0.012405266 -0.007179517 0.008628554
0.0046713776 -0.024172343 -0.015554954 0.004889376 0.006677116 0.0034998492 -0.00090366445 0.020034952
-0.01155882 0.024075849 -0.006364006 0.013239182 0.010080717 -0.005593775 -0.0036826048 -0.014951797
0.0028243845 -0.010944165 0.017092695 0.006600932 -0.010441522 0.017208245 -0.0023822319 -0.005754616
0.0025732126 -0.012331096 -0.010610263 -0.023564627 0.018092858 0.025398884 0.013096811 -0.00752825
0.02642054 0.00964033 0.027575502 -0.017740842 -0.002614531 0.009545981 0.012279891 -0.008392899
-0.0015330268 0.0039693974 -0.007852395 0.019908084 0.0096068485 0.0031599996 -0.012937993 -0.0003772841
-0.012041642 0.01799571 -0.0035385971 0.017440861 0.00020955892 0.0013880363 0.00211703 0.010910915
0.016637888 -0.021800539 0.005297945 0.007556179 -0.013677028 -0.003453378 -0.0022455265 -0.00596205
-0.021223066 -0.0052125216 0.008067949 -0.0115189515 -0.0051710233 -0.005391264 -0.017857265 0.014009205
0.022570407 -0.0036094226 -0.0246255 0.0018748647 -0.009449671 0.0054571778 0.010768978 -0.0065384484
-0.005451062 0.01730615 0.009915531 0.006584958 -0.0053719236 -0.0016205291 0.02652193 -0.008813469
0.0011917137 0.0037990378 -0.015196274 -0.0012975018 0.004125014 -0.010303576 0.012581812 0.011760213
-0.0066835443 0.013476436 -0.019697005 -0.004971365 0.010872978 0.010170946 0.009620047 -0.003672134
-0.020383297 -0.008699938 -0.0017410483 0.006903981 -0.0045552715 0.019657545 -0.0065267137 -0.0057727564
0.01101534 0.003004118 -9.261141e-06 -0.00026539012 0.0050122705 -0.0025287517 0.008803475 0.005618206
0.01051623 0.009610134 0.011590078 -0.0017420795 0.009484547 -0.0077396 -0.01780471 0.02131497
-0.015693836 -0.008875404 -0.014407709 0.0033860088 -0.00023678619 0.015819324 -0.008649424 -0.008329001

action_model._continuous_distribution.mu.bias f4 [12]
00000000: 0000 0000 0000 0000 0000 0000 0000 0000
00000010: 0000 0000 0000 0000 0000 0000 0000 0000
00000020: 0000 0000 0000 0000 0000 0000 0000 0000
0.0 0.0 0.0 0.0 0.0 0.0 0.0 0.0
0.0 0.0 0.0 0.0

onnx::Div_51 f4 [74]
00000000: 0000 803f 0000 803f 0000 803f 0000 803f
00000010: 0000 803f 0000 803f 0000 803f 0000 803f
00000020: 0000 803f 0000 803f 0000 803f 0000 803f
00000030: 0000 803f 0000 803f 0000 803f 0000 803f
00000040: 0000 803f 0000 803f 0000 803f 0000 803f
00000050: 0000 803f 0000 803f 0000 803f 0000 803f
00000060: 0000 803f 0000 803f 0000 803f 0000 803f
00000070: 0000 803f 0000 803f 0000 803f 0000 803f
00000080: 0000 803f 0000 803f 0000 803f 0000 803f
00000090: 0000 803f 0000 803f 0000 803f 0000 803f
000000a0: 0000 803f 0000 803f 0000 803f 0000 803f
000000b0: 0000 803f 0000 803f 0000 803f 0000 803f
000000c0: 0000 803f 0000 803f 0000 803f 0000 803f
000000d0: 0000 803f 0000 803f 0000 803f 0000 803f
000000e0: 0000 803f 0000 803f 0000 803f 0000 803f
000000f0: 0000 803f 0000 803f 0000 803f 0000 803f
00000100: 0000 803f 0000 803f 0000 803f 0000 803f
00000110: 0000 803f 0000 803f 0000 803f 0000 803f
00000120: 0000 803f 0000 803f
1.0 1.0 1.0 1.0 1.0 1.0 1.0 1.0
1.0 1.0 1.0 1.0 1.0 1.0 1.0 1.0
1.0 1.0 1.0 1.0 1.0 1.0 1.0 1.0
1.0 1.0 1.0 1.0 1.0 1.0 1.0 1.0
1.0 1.0 1.0 1.0 1.0 1.0 1.0 1.0
1.0 1.0 1.0 1.0 1.0 1.0 1.0 1.0
1.0 1.0 1.0 1.0 1.0 1.0 1.0 1.0
1.0 1.0 1.0 1.0 1.0 1.0 1.0 1.0
1.0 1.0 1.0 1.0 1.0 1.0 1.0 1.0
1.0 1.0
