results/packaging_fix_test_16/RobotAgent.onnx (onnx, 357277 bytes, 8 tensors)

network_body.observation_encoder.processors.0.normalizer.running_mean f4 [74]
0.0 0.0 0.0 0.0 0.0 0.0 0.0 0.0
0.0 0.0 0.0 0.0 0.0 0.0 0.0 0.0
0.0 0.0 0.0 0.0 0.0 0.0 0.0 0.0
0.0 0.0 0.0 0.0 0.0 0.0 0.0 0.0
0.0 0.0 0.0 0.0 0.0 0.0 0.0 0.0
0.0 0.0 0.0 0.0 0.0 0.0 0.0 0.0
0.0 0.0 0.0 0.0 0.0 0.0 0.0 0.0
0.0 0.0 0.0 0.0 0.0 0.0 0.0 0.0
0.0 0.0 0.0 0.0 0.0 0.0 0.0 0.0
0.0 0.0
00000000: 0000 0000 0000 0000 0000 0000 0000 0000
00000010: 0000 0000 0000 0000 0000 0000 0000 0000
00000020: 0000 0000 0000 0000 0000 0000 0000 0000
00000030: 0000 0000 0000 0000 0000 0000 0000 0000
00000040: 0000 0000 0000 0000 0000 0000 0000 0000
00000050: 0000 0000 0000 0000 0000 0000 0000 0000
00000060: 0000 0000 0000 0000 0000 0000 0000 0000
00000070: 0000 0000 0000 0000 0000 0000 0000 0000
00000080: 0000 0000 0000 0000 0000 0000 0000 0000
00000090: 0000 0000 0000 0000 0000 0000 0000 0000
000000a0: 0000 0000 0000 0000 0000 0000 0000 0000
000000b0: 0000 0000 0000 0000 0000 0000 0000 0000
000000c0: 0000 0000 0000 0000 0000 0000 0000 0000
000000d0: 0000 0000 0000 0000 0000 0000 0000 0000
000000e0: 0000 0000 0000 0000 0000 0000 0000 0000
000000f0: 0000 0000 0000 0000 0000 0000 0000 0000
00000100: 0000 0000 0000 0000 0000 0000 0000 0000
00000110: 0000 0000 0000 0000 0000 0000 0000 0000
00000120: 0000 0000 0000 0000

network_body._body_endoder.seq_layers.0.weight f4 [256, 74]
-0.08937271 0.12845273 -0.045298524 -0.064103514 0.21222293 0.00603263 0.1498715 0.17062314
-0.04600605 -0.018287776 -0.019690782 0.063287094 0.24213384 0.17544974 0.014951801 -0.14799726
-0.17815413 -0.18034114 0.103296176 0.11446762 0.003764933 -0.008205098 -0.041514322 0.025164254
-0.07286204 0.08604786 -0.09334525 0.040071808 -0.12956248 0.025806837 -0.16174734 -0.14707173
0.063127354 0.10325377 -0.038767703 0.084054984 -0.13601656 0.03617154 -0.03058546 0.0672667
-0.076474845 -0.049084514 0.26111194 0.0234419 -0.13782598 -0.021465914 0.021217287 -0.09265792
-0.19044659 -0.009668514 0.053623747 0.21674623 -0.054487016 0.040072717 -0.01577719 0.121235184
0.063369974 0.19717655 0.07158833 0.119285725 0.00091669336 -0.114669114 0.0004972464 0.076647006
0.011300522 -0.19045368 -0.2039105 0.20529601 -0.047434367 -0.021142 0.018020432 -0.025061728
0.08804509 -0.17989266 -0.110364296 -0.02851285 -0.031884953 -0.14567891 -0.0237033 -0.11085845
0.14342736 0.010607391 0.06298612 0.0026749927 -0.062102053 -0.048946425 -0.06881815 0.027557958
-0.17398559 -0.099500865 -0.0073870597 -0.14911844 -0.053334758 0.036501367 -0.03549418 0.050368503
0.05640097 -0.05566969 0.0879995 0.10485593 -0.055073205 -0.020507196 -0.06662597 0.049981825
0.1337692 0.19401556 -0.0030671475 0.004779604 0.07152658 0.024264526 -0.026573386 -0.30220148
0.039024465 -0.07571515 0.20805328 0.019279083 0.3699834 0.20663393 0.0018355306 0.0855424
0.03758709 -0.17374027 -0.19870211 0.23325837 -0.1773876 -0.005140801 0.0023858617 0.06298278
0.13847587 -0.123905115 -0.113346525 -0.10609435 -0.028026998 -0.1036541 -0.13244969 0.302525
0.34058908 0.154376 0.060322337 0.061402068 -0.08756364 -0.11875382 -0.013610122 0.1041813
0.10576301 -0.12340636 0.0029368233 0.020285422 0.07983234 0.05254757 -0.18982853 0.024634726
-0.0032387108 -0.065363154 0.16043071 -0.116643816 0.18079397 -0.12344068 0.00075309834 0.0021529603
0.07128814 -0.058551528 0.022226738 -0.34674034 0.043717686 -0.25017697 0.006394383 -0.033040278
-0.0060241222 0.015711602 -0.11327919 -0.25780955 -0.08238017 -0.17051414 0.014514717 -0.11848207
0.013653781 0.08475812 -0.00475398 -0.058775682 0.0863437 -0.07146703 0.06519617 -0.10664641
-0.10602791 0.1318875 0.05344454 -0.084730245 -0.14374092 -0.01044817 -0.103343405 0.026520541
-0.057325624 -0.28002903 -0.11659745 0.07630262 -0.06330463 0.11009505 -0.017909562 0.051506225
-0.052434996 -0.09274715 -0.26557624 -0.096869364 -0.029184416 0.084543854 0.09358703 0.02647557
0.21779485 0.061461844 -0.044814136 -0.13745335 -0.12078253 -0.03326889 0.050805725 0.19044296
0.00169848 -0.013908212 0.37193507 -0.1302989 -0.08889936 0.10497888 -0.13284622 0.13243966
-0.19191091 0.07488848 0.11110727 -0.12879182 0.09617873 -0.12264106 -0.06441005 -0.114127465
0.019486636 -0.14229423 0.14956833 -0.26867044 -0.046891943 -0.22595389 -0.048758287 0.22732954
0.03793971 0.042217094 -0.00831381 0.032047797 0.18407024 -0.07735588 0.08750343 -0.057803553
0.07706825 0.0702991 -0.15865543 -0.05230967 -0.032929588 -0.17702031 0.03933681 0.0016639256
00000000: 0a09 b7bd 1d89 033e f28a 39bd b448 83bd
00000010: f850 593e 5ead c53b ea77 193e d5b7 2e3e
00000020: d770 3cbd 3fd0 95bc 904e a1bc aa9c 813d
00000030: eff1 773e 19a9 333e 66f8 743c 988c 17be
00000040: 096e 36be 59ab 38be f28c d33d 006e ea3d
00000050: 18bd 763b ad6e 06bc ec0a 2abd 4425 ce3c
00000060: b138 95bd dc39 b03d cb2b bfbd 5622 243d
00000070: 07ac 04be dc68 d33c 18a1 25be f999 16be
00000080: ea48 813d b676 d33d e2ca 1ebd 0525 ac3d
00000090: ed47 0bbe 9c28 143d 5c8e fabc 20c3 893d
000000a0: d89e 9cbd d80c 49bd 77b0 853e 3a09 c03c
000000b0: 4122 0dbe 49d9 afbc e0cf ad3c 70c3 bdbd
000000c0: 6e04 43be b068 1ebc 93a4 5b3d b9f2 5d3e
000000d0: c72d 5fbd 4a23 243d 2a3f 81bc 274a f83d
000000e0: 1ec8 813d a6e8 493e e79c 923d 134c f43d
000000f0: 404e 703a a4d7 eabd a459 023a 1bf9 9c3d
00000100: d325 393c 4a06 43be eacd 50be 1e39 523e
00000110: 8a4a 42bd fd31 adbc 969f 933c 414e cdbc
00000120: fc50 b43d c835 38be ad06 e2bd c893 e9bc
00000130: cc99 02bd da2c 15be 6c2d c2bc c109 e3bd
00000140: 9fde 123e 9fca 2d3c defe 803d ee4e 2f3b
00000150: b95e 7ebd 0c7c 48bd 88f0 8cbd 3ac1 e13c
00000160: 4729 32be 1cc7 cbbd 260f f2bb 81b2 18be
00000170: 8c75 5abd 7582 153d 5862 11bd 344f 4e3d
00000180: b404 673d e705 64bd 1539 b43d b5be d63d
00000190: 7194 61bd b5fe a7bc 3273 88bd beb9 4c3d
000001a0: cbfa 083e 04ac 463e 3202 49bb 399e 9c3b
000001b0: 877c 923d 66c6 c63c 6eb0 d9bc 27ba 9abe
000001c0: 1ed8 1f3d 8b10 9bbd eb0b 553e 2bef 9d3c
000001d0: 776e bd3e d897 533e 3096 f03a db30 af3d
000001e0: ecf4 193d f8e8 31be 9178 4bbe 48db 6e3e
000001f0: 18a5 35be 2a74 a8bb 1e5c 1c3b 1efd 803d
00000200: 9ecc 0d3e f7c1 fdbd 3922 e8bd ff47 d9bd
00000210: e098 e5bc 9a48 d4bd e4a0 07be 8fe4 9a3e
00000220: b161 ae3e be14 1e3e 8e14 773d bc80 7b3d
00000230: 9154 b3bd 3435 f3bd fdfc 5ebc 015d d53d
00000240: 479a d83d 79bc fcbd b877 403b 9d2d a63c
00000250: 237f a33d 1f3c 573d 6962 42be c4ce c93c
00000260: 8d40 54bb 1edd 85bd f347 243e f4e2 eebd
00000270: 0e22 393e 78ce fcbd 936b 453a ae18 0d3b
00000280: 84ff 913d bad3 6fbd d914 b63c f387 b1be
00000290: 5111 333d 3217 80be f987 d13b 3e55 07bd
000002a0: 0066 c5bb 9eb5 803c ecfe e7bd 9dff 83be
000002b0: efb6 a8bd 429b 2ebe 23cf 6d3c baa6 f2bd
000002c0: 1cb4 5f3c aa95 ad3d 46c7 9bbb c5be 70bd
000002d0: f7d4 b03d 4e5d 92bd 9285 853d 6f69 dabd
000002e0: 2925 d9bd 840d 073e a9e8 5a3d 0d87 adbd
000002f0: d230 13be cd2e 2bbc b5a5 d3bd 9b41 d93c
00000300: 46ce 6abd f75f 8fbe a5ca eebd 8c44 9c3d
00000310: dca5 81bd 8379 e13d 13b7 92bc 31f8 523d
00000320: 14c6 56bd 38f2 bdbd 9cf9 87be 7263 c6bd
00000330: 2814 efbc 5425 ad3d 8faa bf3d 4be3 d83c
00000340: 9d05 5f3e 6abf 7b3d 078f 37bd 92c0 0cbe
00000350: d55c f7bd f644 08bd aa19 503d 7b03 433e
00000360: 889f de3a 45df 63bc 466e be3e 136d 05be
00000370: de10 b6bd 2bff d63d d708 08be 439e 073e
00000380: 4b84 44be 225f 993d 358c e33d 01e2 03be
00000390: 5bf9 c43d 3c2b fbbd 6be9 83bd a9bb e9bd
000003a0: 70a2 9f3c 94b5 11be 7128 193e 2c8f 89be
000003b0: c411 40bd 7560 67be c5b6 47bd 13c9 683e
000003c0: ab66 1b3d d5eb 2c3d a636 08bc 8d44 033d
000003d0: e97c 3c3e c26c 9ebd 0035 b33d 6bc3 6cbd
000003e0: f5d5 9d3d f9f8 8f3d 9276 22be aa42 56bd
000003f0: 2de1 06bd d044 35be a31f 213d 1418 da3a

network_body._body_endoder.seq_layers.0.bias f4 [256]
0.0 0.0 0.0 0.0 0.0 0.0 0.0 0.0
0.0 0.0 0.0 0.0 0.0 0.0 0.0 0.0
0.0 0.0 0.0 0.0 0.0 0.0 0.0 0.0
0.0 0.0 0.0 0.0 0.0 0.0 0.0 0.0
0.0 0.0 0.0 0.0 0.0 0.0 0.0 0.0
0.0 0.0 0.0 0.0 0.0 0.0 0.0 0.0
0.0 0.0 0.0 0.0 0.0 0.0 0.0 0.0
0.0 0.0 0.0 0.0 0.0 0.0 0.0 0.0
0.0 0.0 0.0 0.0 0.0 0.0 0.0 0.0
0.0 0.0 0.0 0.0 0.0 0.0 0.0 0.0
0.0 0.0 0.0 0.0 0.0 0.0 0.0 0.0
0.0 0.0 0.0 0.0 0.0 0.0 0.0 0.0
0.0 0.0 0.0 0.0 0.0 0.0 0.0 0.0
0.0 0.0 0.0 0.0 0.0 0.0 0.0 0.0
0.0 0.0 0.0 0.0 0.0 0.0 0.0 0.0
0.0 0.0 0.0 0.0 0.0 0.0 0.0 0.0
0.0 0.0 0.0 0.0 0.0 0.0 0.0 0.0
0.0 0.0 0.0 0.0 0.0 0.0 0.0 0.0
0.0 0.0 0.0 0.0 0.0 0.0 0.0 0.0
0.0 0.0 0.0 0.0 0.0 0.0 0.0 0.0
0.0 0.0 0.0 0.0 0.0 0.0 0.0 0.0
0.0 0.0 0.0 0.0 0.0 0.0 0.0 0.0
0.0 0.0 0.0 0.0 0.0 0.0 0.0 0.0
0.0 0.0 0.0 0.0 0.0 0.0 0.0 0.0
0.0 0.0 0.0 0.0 0.0 0.0 0.0 0.0
0.0 0.0 0.0 0.0 0.0 0.0 0.0 0.0
0.0 0.0 0.0 0.0 0.0 0.0 0.0 0.0
0.0 0.0 0.0 0.0 0.0 0.0 0.0 0.0
0.0 0.0 0.0 0.0 0.0 0.0 0.0 0.0
0.0 0.0 0.0 0.0 0.0 0.0 0.0 0.0
0.0 0.0 0.0 0.0 0.0 0.0 0.0 0.0
0.0 0.0 0.0 0.0 0.0 0.0 0.0 0.0
00000000: 0000 0000 0000 0000 0000 0000 0000 0000
00000010: 0000 0000 0000 0000 0000 0000 0000 0000
00000020: 0000 0000 0000 0000 0000 0000 0000 0000
00000030: 0000 0000 0000 0000 0000 0000 0000 0000
00000040: 0000 0000 0000 0000 0000 0000 0000 0000
00000050: 0000 0000 0000 0000 0000 0000 0000 0000
00000060: 0000 0000 0000 0000 0000 0000 0000 0000
00000070: 0000 0000 0000 0000 0000 0000 0000 0000
00000080: 0000 0000 0000 0000 0000 0000 0000 0000
00000090: 0000 0000 0000 0000 0000 0000 0000 0000
000000a0: 0000 0000 0000 0000 0000 0000 0000 0000
000000b0: 0000 0000 0000 0000 0000 0000 0000 0000
000000c0: 0000 0000 0000 0000 0000 0000 0000 0000
000000d0: 0000 0000 0000 0000 0000 0000 0000 0000
000000e0: 0000 0000 0000 0000 0000 0000 0000 0000
000000f0: 0000 0000 0000 0000 0000 0000 0000 0000
00000100: 0000 0000 0000 0000 0000 0000 0000 0000
00000110: 0000 0000 0000 0000 0000 0000 0000 0000
00000120: 0000 0000 0000 0000 0000 0000 0000 0000
00000130: 0000 0000 0000 0000 0000 0000 0000 0000
00000140: 0000 0000 0000 0000 0000 0000 0000 0000
00000150: 0000 0000 0000 0000 0000 0000 0000 0000
00000160: 0000 0000 0000 0000 0000 0000 0000 0000
00000170: 0000 0000 0000 0000 0000 0000 0000 0000
00000180: 0000 0000 0000 0000 0000 0000 0000 0000
00000190: 0000 0000 0000 0000 0000 0000 0000 0000
000001a0: 0000 0000 0000 0000 0000 0000 0000 0000
000001b0: 0000 0000 0000 0000 0000 0000 0000 0000
000001c0: 0000 0000 0000 0000 0000 0000 0000 0000
000001d0: 0000 0000 0000 0000 0000 0000 0000 0000
000001e0: 0000 0000 0000 0000 0000 0000 0000 0000
000001f0: 0000 0000 0000 0000 0000 0000 0000 0000
00000200: 0000 0000 0000 0000 0000 0000 0000 0000
00000210: 0000 0000 0000 0000 0000 0000 0000 0000
00000220: 0000 0000 0000 0000 0000 0000 0000 0000
00000230: 0000 0000 0000 0000 0000 0000 0000 0000
00000240: 0000 0000 0000 0000 0000 0000 0000 0000
00000250: 0000 0000 0000 0000 0000 0000 0000 0000
00000260: 0000 0000 0000 0000 0000 0000 0000 0000
00000270: 0000 0000 0000 0000 0000 0000 0000 0000
00000280: 0000 0000 0000 0000 0000 0000 0000 0000
00000290: 0000 0000 0000 0000 0000 0000 0000 0000
000002a0: 0000 0000 0000 0000 0000 0000 0000 0000
000002b0: 0000 0000 0000 0000 0000 0000 0000 0000
000002c0: 0000 0000 0000 0000 0000 0000 0000 0000
000002d0: 0000 0000 0000 0000 0000 0000 0000 0000
000002e0: 0000 0000 0000 0000 0000 0000 0000 0000
000002f0: 0000 0000 0000 0000 0000 0000 0000 0000
00000300: 0000 0000 0000 0000 0000 0000 0000 0000
00000310: 0000 0000 0000 0000 0000 0000 0000 0000
00000320: 0000 0000 0000 0000 0000 0000 0000 0000
00000330: 0000 0000 0000 0000 0000 0000 0000 0000
00000340: 0000 0000 0000 0000 0000 0000 0000 0000
00000350: 0000 0000 0000 0000 0000 0000 0000 0000
00000360: 0000 0000 0000 0000 0000 0000 0000 0000
00000370: 0000 0000 0000 0000 0000 0000 0000 0000
00000380: 0000 0000 0000 0000 0000 0000 0000 0000
00000390: 0000 0000 0000 0000 0000 0000 0000 0000
000003a0: 0000 0000 0000 0000 0000 0000 0000 0000
000003b0: 0000 0000 0000 0000 0000 0000 0000 0000
000003c0: 0000 0000 0000 0000 0000 0000 0000 0000
000003d0: 0000 0000 0000 0000 0000 0000 0000 0000
000003e0: 0000 0000 0000 0000 0000 0000 0000 0000
000003f0: 0000 0000 0000 0000 0000 0000 0000 0000

network_body._body_endoder.seq_layers.2.weight f4 [256, 256]
0.019497639 0.12690239 -0.058853474 0.0011541768 0.056286182 0.011766724 0.024380581 -0.058070857
-0.056910954 0.0062852968 -0.034872293 0.022667348 0.0740061 -0.03521632 -0.028035985 0.09312289
-0.018753922 -0.09499379 0.048853725 0.014528085 -0.009283848 0.11031309 -0.036680076 -0.03388254
0.030993909 0.003602446 -0.13104081 0.08108382 0.048739236 0.0022469137 0.046378713 0.06460329
0.0837161 -0.080243215 -0.07767887 -0.060792003 0.02046318 0.103006154 0.026310464 0.040421244
0.10795788 0.08872129 0.06977644 0.073966585 -0.03737779 0.040941592 0.106978156 -0.08375435
0.045311872 0.00777334 -0.039062373 0.055198926 0.07086699 -0.05589331 0.07944525 0.080303065
-0.0147895105 -0.03758123 -0.0394025 0.007851329 0.041546036 0.100865476 -0.1378334 0.09283526
0.009482546 -0.038978733 -0.08552601 -0.0038245914 -0.026442839 -0.06728505 0.0017979786 0.008428318
-0.06624691 -0.008884367 0.028249409 0.06418094 0.07164648 0.02703457 0.06889593 -0.025745668
-0.008293727 -0.0035340765 0.09341436 -0.056942776 -0.040739447 -0.03291799 -0.027567146 0.070855714
-0.034365337 0.13667916 -0.036946777 0.04586137 -0.10100974 0.09791056 -0.0060358252 0.0107905045
-0.019555656 -0.05981014 -0.05131705 -0.035657894 -0.04457322 0.011391848 -0.07524225 0.030749612
-0.049480267 -0.11497663 -0.029864065 0.048769373 -0.10480839 -0.021581208 0.029540142 0.014741381
0.08647825 0.03640268 -0.020284751 0.058914404 0.078564666 0.013028119 0.12975438 -0.15420282
-0.0522569 0.115261555 0.08379133 0.06398775 0.030781033 -0.06665103 -0.07795893 -0.013108933
0.0064414605 -0.08156123 -0.08197695 0.02175346 0.052794043 0.033618063 -0.010004728 0.038498845
0.03803477 0.02523323 -0.015799785 -0.058797862 0.09164483 -0.043261733 -0.110602655 -0.003416089
0.018126575 -0.021093074 0.10307236 -0.112160325 -0.032305438 -0.053353995 0.0083208615 -0.09560343
0.009364809 -0.07748754 0.001613746 -0.08015656 0.02388288 -0.03854271 0.10182657 0.00041363318
0.002058637 -0.07132728 0.056250032 -0.0013289806 -0.02365026 0.1421055 0.07300184 0.100989714
0.03551769 -0.022923503 0.004437852 -0.027805366 -0.017826602 -0.03449022 -0.051862303 -0.03670282
0.13058603 -0.02300828 -0.052523267 -0.08227089 0.012979371 -0.048743516 0.0024676626 -0.019509181
0.0050695953 0.02393212 0.08729364 0.008311457 0.06621043 -0.08506146 0.005972503 0.05353661
-0.06353184 -0.0106784385 0.040427193 0.035027236 -0.075510174 -0.032646775 0.0763501 0.09325454
-0.014810983 -0.0700969 0.06739009 0.0413437 0.12928124 -0.03419935 -0.0011505028 0.056090277
0.029673012 -0.02412038 0.022575602 0.017340377 0.05374565 0.07654872 0.043066923 -0.059335425
-0.001997607 0.11884074 0.039325062 0.034079228 -0.01837102 -0.0035840278 0.029075004 0.05853878
0.09641515 0.036112558 -0.05173943 -0.009878543 -0.005150212 -0.06041128 0.03290544 0.033897184
-0.052180756 -0.070988625 0.024468321 0.04923526 -0.1297622 0.018860066 -0.02561965 -0.013090339
0.074308306 0.027623918 -0.09215669 -0.07550841 0.021862421 -0.07132081 -0.025312927 0.02496983
0.018325465 -0.029173538 -0.068274684 0.11391227 0.03217478 -0.10564726 0.023088116 0.11527076
00000000: 83b9 9f3c b3f2 013e 5710 71bd bf47 973a
00000010: 578c 663d 38c9 403c c9b9 c73c b5db 6dbd
00000020: 761b 69bd e4f4 cd3b 40d6 0ebd e0b0 b93c
00000030: 8390 973d fd3e 10bd b9ab e5bc 37b7 be3d
00000040: d3a1 99bc 1b8c c2bd d81a 483d 3407 6e3c
00000050: 481b 18bc d4eb e13d d93d 16bd 6bc8 0abd
00000060: f0e6 fd3c 0417 6c3b 902f 06be 460f a63d
00000070: cba2 473d f540 133b 9bf7 3d3d bb4e 843d
00000080: 5973 ab3d 8e56 a4bd 1916 9fbd 0901 79bd
00000090: 66a2 a73c e4f4 d23d 0b89 d73c bf90 253d
000000a0: 0519 dd3d 82b3 b53d f3e6 8e3d cb7b 973d
000000b0: 7419 19bd 5fb2 273d 5d17 db3d 6787 abbd
000000c0: f198 393d 81b7 fe3b deff 1fbd 4518 623d
000000d0: b622 913d 62f0 64bd 31b4 a23d ef75 a43d
000000e0: b44f 72bc c7ee 19bd 8464 21bd dca2 003c
000000f0: 2d2c 2a3d 8f92 ce3d 3324 0dbe 6a20 be3d
00000100: ae5c 1b3c 2aa8 1fbd 4328 afbd ffa5 7abb
00000110: a79e d8bc bfcc 89bd 27aa eb3a ee16 0a3c
00000120: 76ac 87bd bc8f 11bc 4e6b e73c 4c71 833d
00000130: 64bb 923d 9a77 dd3c 4f19 8d3d 94e8 d2bc
00000140: 6ae2 07bc f79b 67bb 0750 bf3d d43c 69bd
00000150: 68de 26bd 04d5 06bd 7fd4 e1bc cd1c 913d
00000160: abc2 0cbd 9ff5 0b3e 8155 17bd 22d9 3b3d
00000170: 32de cebd 5585 c83d 2cc8 c5bb a8ca 303c
00000180: 2f33 a0bc 7afb 74bd d431 52bd 030e 12bd
00000190: 6992 36bd e0a4 3a3c 9c18 9abd 9ce6 fb3c
000001a0: d2ab 4abd de78 ebbd 7ca5 f4bc 65c2 473d
000001b0: c8a5 d6bd 13cb b0bc 2bfe f13c d585 713c
000001c0: 821b b13d fa1a 153d 352c a6bc 3b50 713d
000001d0: 83e6 a03d e473 553c 55de 043e 58e7 1dbe
000001e0: 550b 56bd 400e ec3d ca9a ab3d 020c 833d
000001f0: 8128 fc3c 5680 88bd eea8 9fbd dac6 56bc
00000200: e312 d33b 9309 a7bd 88e3 a7bd 5034 b23c
00000210: 913e 583d 18b3 093d dfea 23bc f7b0 1d3d
00000220: 59ca 1b3d ebb5 ce3c 8d6e 81bc 07d6 70bd
00000230: 49b0 bb3d 3733 31bd a583 e2bd 77e0 5fbb
00000240: 2f7e 943c 62cb acbc 9a17 d33d 50b4 e5bd
00000250: b552 04bd b889 5abd 3954 083c bbcb c3bd
00000260: db6e 193c cab1 9ebd 5584 d33a 1f29 a4bd
00000270: 08a6 c33c f6de 1dbd 738a d03d e8dc d839
00000280: 33ea 063b 0914 92bd 6f66 663d 3031 aeba
00000290: 31be c1bc 1b84 113e fd81 953d b2d3 ce3d
000002a0: ff7a 113d 12ca bbbc 676b 913b 14c8 e3bc
000002b0: 1809 92bc 9e45 0dbd 916d 54bd b255 16bd
000002c0: 58b8 053e dc7b bcbc a322 57bd a47d a8bd
000002d0: 6da7 543c 48a7 47bd 82b8 213b b8d1 9fbc
000002e0: d91e a63b 4b0d c43c 02c7 b23d c72c 083c
000002f0: 5599 873d b434 aebd fdb4 c33b 3449 5b3d
00000300: fb1c 82bd 9ef4 2ebc fc96 253d b878 0f3d
00000310: 14a5 9abd a0b8 05bd 715d 9c3d 3cfc be3d
00000320: c4a9 72bc f78e 8fbd d103 8a3d 0358 293d
00000330: 4d62 043e 9e14 0cbd 78cc 96ba ebbe 653d
00000340: d114 f33c 1a98 c5bc 78f0 b83c 680d 8e3c
00000350: 6624 5c3d 93c5 9c3d f166 303d b409 73bd
00000360: 49ea 02bb c662 f33d 5113 213d a996 0b3d
00000370: d27e 96bc 02e2 6abb b42e ee3c 5cc6 6f3d
00000380: 4e75 c53d c3ea 133d b9ec 53bd 9dd9 21bc
00000390: 1cc3 a8bb d171 77bd dbc7 063d c6d7 0a3d
000003a0: 7dbb 55bd 7c62 91bd ca71 c83c e9aa 493d
000003b0: 62e0 04be 6d80 9a3c 4de0 d1bc dc78 56bc
000003c0: f42e 983d 8e4b e23c a6bc bcbd 27a4 9abd
000003d0: d218 b33c a510 92bd 0e5d cfbc 878d cc3c
000003e0: 491f 963c 58fd eebc 99d3 8bbd d64a e93d
000003f0: b4c9 033d 975d d8bd 4a23 bd3c 1413 ec3d

action_model._continuous_distribution.log_sigma f4 [1, 12]
0.0 0.0 0.0 0.0 0.0 0.0 0.0 0.0
0.0 0.0 0.0 0.0
00000000: 0000 0000 0000 0000 0000 0000 0000 0000
00000010: 0000 0000 0000 0000 0000 0000 0000 0000
00000020: 0000 0000 0000 0000 0000 0000 0000 0000

action_model._continuous_distribution.mu.weight f4 [12, 256]
-0.012968651 -0.007033468 0.00035070023 -6.4226835e-05 2.0844236e-05 -0.010637524 0.009213616 -0.004468022
-0.014548306 -0.008433673 -0.009115758 -0.0014961597 0.011036436 -0.0011957097 0.0012026918 0.014961417
-0.015222658 -0.025992507 -0.0023104136 -9.908403e-05 0.003287593 0.004894572 -0.000986743 -0.00057329575
-0.0041873953 0.0221764 -0.0007332835 0.00895193 -0.0056051943 -0.0076846257 -0.0024389706 0.012809246
-0.011665921 -0.0075733005 0.026332632 -0.008830117 -0.00442633 -0.022774024 0.011011376 0.0097511485
-0.010909866 -5.7761292e-05 -0.0011946628 -0.004541493 0.004213483 0.0032719963 -0.006789428 -0.013451089
0.009604832 0.005287671 0.0008281241 -0.0094814515 -0.01624502 0.004899975 0.0021425574 -0.0010465885
0.020689752 -0.028784422 -0.022622172 2.0505928e-05 -0.0006861637 -0.0012072606 -0.012448089 0.03511133
0.010104212 -0.0022521655 0.014094281 -0.027224137 -0.0072427588 -0.008007969 0.003403247 -0.016238634
-0.012899387 0.017672578 0.004232162 -0.0053101243 -0.002151262 -0.0058851223 0.021772048 -0.0112749
0.013576107 -0.0063848174 -0.019815609 -0.014169759 -0.008149171 -0.0055194586 0.030498171 -0.0033647586
-0.015478949 -0.013186032 -0.013977054 -0.007051874 -0.010155299 -0.0127258 0.0047432366 -0.0021377217
0.026467536 0.009685653 0.018465403 0.006009265 0.01648486 -0.020614441 0.004074387 0.0016329134
0.014670171 0.0045636804 0.00070791447 -0.0058011333 -0.010436497 0.0026077656 0.0020196447 0.014677373
0.008461479 0.004240615 -0.0059600435 -0.0014372858 -0.022909464 0.015959268 0.008766188 0.0023435769
0.0071874033 -0.0026458611 -0.002097938 0.005834486 -0.009160282 -0.0052644634 0.00013458256 0.022003626
0.0022006305 -0.018476574 0.01628398 -0.007532818 0.004683219 -0.024360806 -0.020206401 -0.015079421
0.018191276 0.005822571 -0.015861547 0.0014214476 -0.016384715 0.0013210474 0.006429367 0.0037107493
-0.002156257 -0.00948978 -0.0033141028 0.0047459765 0.050926477 -0.018059496 -0.00410819 -0.016426222
0.0039913342 -0.012564412 -0.004673182 0.00093095296 -0.0129004335 -0.005383725 -0.0053095706 0.0011132509
-0.012020542 -0.015005949 0.0043819486 0.023311896 -0.008314487 0.0029882558 0.003711444 0.010634883
-0.008305158 -0.009619823 -0.011067657 -0.010102997 0.0011112554 -0.00012689612 -0.01832729 -0.009724407
-0.0076613547 -0.0072925794 -0.0077574286 -0.020552646 0.0053481585 -0.0044027213 -0.011121138 -0.0034353489
-0.00482768 0.020605471 0.013257891 0.0024495425 0.0032776382 -0.004919061 0.012776533 -0.015894787
-0.017437387 0.002370994 0.022876093 0.02195263 0.0023044702 -0.0072871335 -0.018470427 0.0045270487
0.0046559437 -0.008390244 0.0015561417 -0.0083186645 -0.0071382592 -0.0010165053 -0.018721243 0.01002708
-0.0021649646 0.0048558884 -0.0110628195 -0.013048847 0.020217318 0.004942869 0.022191295 -0.03239083
0.012605342 -0.0014502432 -0.013736658 -0.010930833 -0.007830658 -0.017236639 -0.0045000836 -0.009824476
-0.005152318 0.011782463 -0.0031701475 -0.0011207096 -0.015328631 -0.015482194 0.0002243279 0.016775912
0.0033716753 -0.003204335 0.005433118 0.004487974 -0.0128033105 -0.010258539 0.01325413 0.0072063217
-0.0028692214 -0.011063513 0.008262104 0.0105483895 0.01944915 -0.003729082 0.007312441 0.0018991561
0.0030067116 -0.016787637 -0.010782467 0.018579187 -0.018370029 0.0112372795 -0.009956472 0.004985112
00000000: 777a 54bc 0279 e6bb 30de b739 85b1 86b8
00000010: a8da ae37 0249 2ebc b5f4 163c 7c68 92bb
00000020: 055c 6ebc 632d 0abc 435a 15bc ca1a c4ba
00000030: 2bd2 343c 5cb9 9cba a4a3 9d3a bb20 753c
00000040: 7568 79bc 3dee d4bc 4f6a 17bb 55cb cfb8
00000050: a874 573b a562 a03b 9a55 81ba 3a49 16ba
00000060: 6b36 89bb 48ab b53c d339 40ba 1eab 123c
00000070: c7ab b7bb 50cf fbbb 23d7 1fbb dfdd 513c
00000080: 6b22 3fbc 7329 f8bb 88b7 d73c 32ac 10bc
00000090: bf0a 91bb 9790 babc 0f69 343c 48c3 1f3c
000000a0: 4bbf 32bc b744 72b8 3b96 9cba ced0 94bb
000000b0: 4211 8a3b fd6e 563b da79 debb f561 5cbc
000000c0: 965d 1d3c 3344 ad3b 7816 593a 1758 1bbc
000000d0: 4714 85bc f88f a03b 266a 0c3b af2d 89ba
000000e0: 8e7d a93c 4fcd ebbc 2252 b9bc 2504 ac37
000000f0: abdf 33ba f23c 9eba 12f3 4bbc e6d0 0f3d
00000100: 238c 253c 1199 13bb b3eb 663c 2705 dfbc
00000110: aa54 edbb db33 03bc 0309 5f3b e206 85bc
00000120: f357 53bc 15c6 903c f3ad 8a3b 8d00 aebb
00000130: 30fc 0cbb fcd7 c0bb 4b5b b23c 5cba 38bc
00000140: 526e 5e3c bb37 d1bb 5854 a2bc 4728 68bc
00000150: 1a84 05bc 93dc b4bb 4dd7 f93c 4883 5cbb
00000160: 6b9b 7dbc 3a0a 58bc 0300 65bc 6813 e7bb
00000170: 6962 26bc e07f 50bc 276d 9b3b 0519 0cbb
00000180: 72d2 d83c 93b0 1e3c c244 973c 5ee9 c43b
00000190: 420b 873c 9edf a8bc 6f82 853b 7b07 d63a
000001a0: 285b 703c ed8a 953b 5693 393a 6f17 bebb
000001b0: d7fd 2abc 0ce7 2a3b 045c 043b 5d79 703c
000001c0: 04a2 0a3c dbf4 8a3b 784c c3bb 4f63 bcba
000001d0: a1ac bbbc 03bd 823c 0fa0 0f3c b296 193b
000001e0: 4f84 eb3b 2f66 2dbb 8f7d 09bb 372f bf3b
000001f0: 0215 16bc 8581 acbb bb1e 0d39 f340 b43c
00000200: 7438 103b 2f5c 97bc fb65 853c dbd5 f6bb
00000210: b075 993b 5090 c7bc e587 a5bc ad0f 77bc
00000220: df05 953c 44cb be3b 13f0 81bc de4f ba3a
00000230: 3d39 86bc ff26 ad3a 70ad d23b 0b30 733b
00000240: fd4f 0dbb 067b 1bbc 6b31 59bb 2384 9b3b
00000250: 4898 503d 82f1 93bc ff9d 86bb 4990 86bc
00000260: bdc9 823b f7da 4dbc 7e21 99bb 320b 743a
00000270: 575c 53bc f569 b0bb e8fb adbb 80ea 913a
00000280: cff1 44bc 83db 75bc 7396 8f3b 97f8 be3c
00000290: 7c39 08bc 9dd6 433b b33b 733b ef3d 2e3c
000002a0: 5b12 08bc 769c 1dbc 1e55 35bc 0a87 25bc
000002b0: 8ba7 913a 6b0f 05b9 1d23 96bc 1f53 1fbc
000002c0: 1a0c fbbb 97f6 eebb 0732 febb 065e a8bc
000002d0: 9b3f af3b b444 90bb 6f35 36bc 9723 61bb
000002e0: 8431 9ebb cecc a83c a037 593c 8188 203b
000002f0: a5cd 563b 1330 a1bb aa54 513c c935 82bc
00000300: dad8 8ebc ae62 1b3b a566 bb3c 00d6 b33c
00000310: 9806 173b e8c8 eebb 4b4f 97bc a357 943b
00000320: e390 983b 3c77 09bc 73f7 cb3a 024b 08bc
00000330: 0fe8 e9bb 423c 85ba 4b5d 99bc 9f48 243c
00000340: 14e2 0dbb 251e 9f3b d440 35bc d5ca 55bc
00000350: ca9e a53c caf7 a13b 85ca b53c 3fac 04bd
00000360: a386 4e3c 1616 beba b80f 61bc 3d17 33bc
00000370: 294c 00bc da33 8dbc 7075 93bb d7f6 20bc
00000380: c7d4 a8bb 3b0b 413c 40c2 4fbb c6e4 92ba
00000390: f024 7bbc 07a9 7dbc 9039 6b39 a36d 893c
000003a0: 53f7 5c3b d2ff 51bb 4c08 b23b db0f 933b
000003b0: fac4 51bc 6e13 28bc da27 593c 0223 ec3b
000003c0: 8c09 3cbb bd43 35bc c75d 073c 27d3 2c3c
000003d0: d353 9f3c 9d63 74bb 339d ef3b 1bed f83a
000003e0: 400c 453b 3a86 89bc f2a8 30bc 6133 983c
000003f0: be7c 96bc 911c 383c 7820 23bc 275a a33b

action_model._continuous_distribution.mu.bias f4 [12]
0.0 0.0 0.0 0.0 0.0 0.0 0.0 0.0
0.0 0.0 0.0 0.0
00000000: 0000 0000 0000 0000 0000 0000 0000 0000
00000010: 0000 0000 0000 0000 0000 0000 0000 0000
00000020: 0000 0000 0000 0000 0000 0000 0000 0000

onnx::Div_51 f4 [74]
1.0 1.0 1.0 1.0 1.0 1.0 1.0 1.0
1.0 1.0 1.0 1.0 1.0 1.0 1.0 1.0
1.0 1.0 1.0 1.0 1.0 1.0 1.0 1.0
1.0 1.0 1.0 1.0 1.0 1.0 1.0 1.0
1.0 1.0 1.0 1.0 1.0 1.0 1.0 1.0
1.0 1.0 1.0 1.0 1.0 1.0 1.0 1.0
1.0 1.0 1.0 1.0 1.0 1.0 1.0 1.0
1.0 1.0 1.0 1.0 1.0 1.0 1.0 1.0
1.0 1.0 1.0 1.0 1.0 1.0 1.0 1.0
1.0 1.0
00000000: 0000 803f 0000 803f 0000 803f 0000 803f
00000010: 0000 803f 0000 803f 0000 803f 0000 803f
00000020: 0000 803f 0000 803f 0000 803f 0000 803f
00000030: 0000 803f 0000 803f 0000 803f 0000 803f
00000040: 0000 803f 0000 803f 0000 803f 0000 803f
00000050: 0000 803f 0000 803f 0000 803f 0000 803f
00000060: 0000 803f 0000 803f 0000 803f 0000 803f
00000070: 0000 803f 0000 803f 0000 803f 0000 803f
00000080: 0000 803f 0000 803f 0000 803f 0000 803f
00000090: 0000 803f 0000 803f 0000 803f 0000 803f
000000a0: 0000 803f 0000 803f 0000 803f 0000 803f
000000b0: 0000 803f 0000 803f 0000 803f 0000 803f
000000c0: 0000 803f 0000 803f 0000 803f 0000 803f
000000d0: 0000 803f 0000 803f 0000 803f 0000 803f
000000e0: 0000 803f 0000 803f 0000 803f 0000 803f
000000f0: 0000 803f 0000 803f 0000 803f 0000 803f
00000100: 0000 803f 0000 803f 0000 803f 0000 803f
00000110: 0000 803f 0000 803f 0000 803f 0000 803f
00000120: 0000 803f 0000 803f
