results/packaging_fix_test_24/RobotAgent/RobotAgent-10353658.onnx (onnx, 359274 bytes, 9 tensors)

network_body.observation_encoder.processors.0.normalizer.running_mean f4 [75]
000000 f9 6c 11 3f 4f fc 3b bf d0 6b 08 40 02 f4 06 3f
       0.56806904 -0.7343187 2.1315804 0.52716076
000010 b1 a3 93 3f 87 f1 63 3f aa 81 49 3f 7a 7a 39 42
       1.153433 0.89040416 0.78713477 46.369606
000020 26 e7 8b bf 25 0f c4 be b7 d9 da 3f 1b 70 d0 3d
       -1.0929916 -0.38292804 1.7097691 0.101776324
000030 91 fe 08 bc c4 56 f5 3c fd 25 7a 3f 09 54 55 3e
       -0.008361475 0.0299486 0.97714216 0.20832838
000040 2a ad 9b bd f6 9c d0 3b 2b 7f dc 3c 73 37 de 3d
       -0.07601388 0.0063663675 0.026916107 0.1085042
000050 2c 24 1c 3d 9d b4 d5 bc d3 36 76 3f 24 bb 79 3e
       0.038120434 -0.0260871 0.96177405 0.24387795
000060 1c 3c 83 bd 54 0f 77 bc cd 8d 6c 3d d4 51 86 3d
       -0.06407949 -0.015079338 0.05775242 0.06558576
000070 b7 f6 81 bc a7 08 d5 3d 52 83 76 3f 9c 9f 80 3e
       -0.015864713 0.10402041 0.9629413 0.25121772
000080 f7 33 01 be c6 3c 80 3b b2 99 11 bd e0 85 9f 3d
       -0.1261748 0.0039134948 -0.035546966 0.077892065
000090 95 b8 d8 3d 50 ff c7 3b 03 4c 71 3f f5 80 8c 3e
       0.10582081 0.0061034337 0.9425661 0.27442136
0000a0 1e 2d 04 bd f9 9e 91 bd 40 6b f9 bc 5e 34 b4 3d
       -0.03226959 -0.071104 -0.030446649 0.08799051
0000b0 19 0a 8f 3a 4c fa 63 bd d8 6e 77 3f 5d 64 67 3e
       0.0010913044 -0.055658624 0.9665351 0.2259688
0000c0 2c ac 2c 3d 47 d2 0c 3c 16 81 ab 3d 86 6e 59 3d
       0.042156383 0.008595056 0.083742306 0.05308392
0000d0 29 a1 6b bd 4f a8 94 3d 45 d5 74 3f 69 d7 92 3e
       -0.05752674 0.07258665 0.95637923 0.2867997
0000e0 47 02 09 bd 45 ea 3f 3d 81 ab 05 be 34 18 c0 bd
       -0.033449437 0.046854276 -0.13053705 -0.093796164
0000f0 3e 2c bb bc 75 ec be 3b d4 09 75 3f 81 69 9e 3e
       -0.022848245 0.0058265277 0.9571812 0.30939868
000100 5d 39 a1 3d cb d8 ad 3c 62 a0 f1 bd a1 fd 35 be
       0.07872269 0.021221539 -0.11798169 -0.17772533
000110 9a 96 95 3b c4 03 47 3c 32 d7 69 3f 32 41 99 3e
       0.0045650722 0.012146894 0.91343987 0.29932553
000120 81 2b f0 3d ba 4f c9 3c 01 f3 ca bd
       0.11727048 0.02457415 -0.099096306

network_body._body_endoder.seq_layers.0.weight f4 [256, 75]
000000 07 03 01 be af e7 ff 3d 60 2c 38 ba 14 8b ce bd
       -0.12598811 0.12495362 -0.00070256554 -0.10085121
000010 42 ea 01 bc 6a b2 31 3d 2c 7a e6 bc df b6 e3 bb
       -0.007929387 0.04338304 -0.028134428 -0.00694929
000020 db 2f 61 be 7c f0 54 3e d1 77 3f 3c 01 4c 33 bc
       -0.21990912 0.20794863 0.011686281 -0.010943414
000030 49 b5 52 3d 00 4d b2 3e 0e 76 eb bd 65 20 95 3c
       0.05144242 0.3482437 -0.114971265 0.018203923
000040 07 78 09 3e a8 d5 19 3d a0 54 cd bd b4 1e 3c bd
       0.13424693 0.037557274 -0.100259066 -0.04592772
000050 4e 1a be 3d 2c 0b 53 be f4 db 33 3e 40 a2 80 3e
       0.09282361 -0.2060973 0.17564374 0.25123787
000060 92 95 88 3c 73 c8 ac 3c 59 f0 3d 3d 1b 53 19 be
       0.016672883 0.021091675 0.04637179 -0.14973108
000070 92 06 36 3e c9 33 ab bd 3c 21 ec 3d 82 e6 b5 bd
       0.17775944 -0.083594866 0.115297765 -0.088818565
000080 88 b6 c4 bd b3 aa cf bc 53 00 5a bd e4 cd 35 3e
       -0.096051276 -0.02534995 -0.053222965 0.17754322
000090 2c 8c 22 be 46 e3 eb 3d 15 51 81 bc 7d 0d ab 3d
       -0.15873784 0.11517958 -0.015785733 0.08352182
0000a0 c5 b0 1a 3e 1f a3 2b 3e 93 20 5b bd 50 0d 49 be
       0.15106495 0.16761445 -0.053497862 -0.19633985
0000b0 cb df b5 be 0a ce ed 3d 13 b1 91 be cc 2a 4c 3e
       -0.35522303 0.116115645 -0.2845541 0.199382
0000c0 4f a1 a9 3d 91 a5 61 bc 83 2a 8c bd 83 6f 65 3d
       0.0828272 -0.013772384 -0.06844046 0.05601455
0000d0 bd bc 26 be 5d 86 a2 3e a8 6c ee bc 50 93 83 3d
       -0.16282935 0.31743136 -0.029104546 0.06424582
0000e0 ba bd 62 bc d5 4e 0d 3c 32 44 46 be 17 20 48 3d
       -0.01383918 0.008624752 -0.19361952 0.04885873
0000f0 34 4d 67 3d b9 93 0b 3e c9 9c 30 bd ca a9 02 3e
       0.05647011 0.1363057 -0.043118272 0.12760082
000100 0c fe e2 bd f8 1e 44 3e 69 b4 e5 bd f8 02 21 bc
       -0.11083612 0.19152439 -0.11216051 -0.009827368
000110 64 21 c7 3d 0a d2 9f bc 34 c5 ba bd 63 4c fd 3c
       0.09723166 -0.019509334 -0.09119645 0.030920213
000120 6b ba 53 3d 0d 34 a2 3c bd 40 36 3e b2 56 38 3d
       0.051691454 0.01980021 0.17798133 0.045004554
000130 46 1d e4 3c c7 9b 0f bc 60 42 8a 3e eb e2 93 bd
       0.02784599 -0.008765168 0.27003765 -0.072210155
000140 1e 9c 86 be 8c 3e cd 3c cb 8a b5 bd 73 8a 71 3e
       -0.26290983 0.025054239 -0.08864363 0.2358797
000150 58 6f 8b 3d db b2 4b bc 70 60 d9 bd 52 9b 82 be
       0.068083465 -0.012432779 -0.10614097 -0.25509125
000160 16 48 bb 3d 03 b3 0d be 6c 1c 0e bd 88 52 3d be
       0.09144609 -0.13837819 -0.034695074 -0.18488514
000170 44 07 da bd 98 d7 7e bd ed 52 ce bd 42 b0 46 3e
       -0.10645917 -0.062217325 -0.100744106 0.19403175
000180 e1 8b 94 bd 2d 02 9e bd ec 42 56 be cd 0a 48 be
       -0.07253242 -0.07715259 -0.20923966 -0.1953537
000190 5c 1c 59 be 76 90 42 be ab b4 a8 bd 6b a5 83 bd
       -0.21202224 -0.1900042 -0.08237585 -0.06428035
0001a0 7a 83 80 3c 3f 2c 1f bd 50 8e eb bc 26 f1 46 3e
       0.015687693 -0.038860556 -0.028754383 0.19427928
0001b0 39 de 26 be dd 9b fe 3d aa 9d e8 3d 1d f5 05 3e
       -0.16295709 0.12432072 0.11358197 0.13081785
0001c0 13 6f 4e 3d ff 05 88 3d 8d 20 58 3d c4 d1 93 bd
       0.050398897 0.06641769 0.052765418 -0.07217744
0001d0 10 66 15 bd f1 23 0d 3c 17 3e 87 be f6 36 78 bd
       -0.036474288 0.008614526 -0.26414558 -0.06059929
0001e0 e4 2b 2b bd 9e 37 09 be 2a 42 09 be 7d 78 84 3d
       -0.041789904 -0.13400123 -0.13404146 0.06468294
0001f0 56 87 bd be 8b 9d 27 be ca cf a8 bd e8 61 23 3c
       -0.37017316 -0.16368692 -0.082427576 0.009972073
000200 e0 12 76 3d 31 88 40 3e 9c b6 de 3d 0d 8f 12 3e
       0.060076594 0.18801953 0.10874674 0.14312382
000210 03 59 df 3b 5c 70 ff bd 7a b6 f5 3b 34 73 71 3d
       0.006816031 -0.12472603 0.0074985595 0.058947757
000220 11 cd 08 be 70 7f 97 be 5b 55 e5 3d 78 61 69 3d
       -0.13359477 -0.29589415 0.11197921 0.05697772
000230 eb 2d 54 be 75 a1 fb bb 9b fe 36 3d fc dc a0 bc
       -0.20720641 -0.0076791593 0.044676404 -0.019636624
000240 ca 4c 40 be 52 24 3c be cd 83 b5 bc ba b5 a0 3d
       -0.18779293 -0.1837323 -0.022157574 0.078471616
000250 af 54 63 3d 73 cd a4 3e ad 86 b0 bc 9b 3e 22 3e
       0.055500682 0.32187995 -0.021548593 0.15844195
000260 71 79 e9 bc c7 8d 01 bb 40 77 85 bb 27 b3 8b bc
       -0.02850029 -0.0019768344 -0.0040730536 -0.0170532
000270 37 68 f9 3d 11 63 aa 3d 89 be cb bd 9e b5 3e 3e
       0.121780805 0.08319677 -0.09948451 0.18623969
000280 b9 f9 a7 3d b8 2d c4 3d 21 19 fe bd 9c 7f cf 3d
       0.08201928 0.09579033 -0.12407137 0.101317614
000290 fe 2f 6b 3e a4 30 3e bd 28 0a d5 3d c7 29 2c be
       0.22967526 -0.046433106 0.10402328 -0.16812812
0002a0 47 7b f3 bd 1c 00 c3 3d ac 31 ce 3d 8d cb 07 3e
       -0.11888748 0.09521505 0.10068068 0.13261242
0002b0 a2 78 9e 3e 8e 38 d1 bd 84 a7 de bd b3 4f 6d bd
       0.3095141 -0.10215865 -0.10871795 -0.057937335
0002c0 88 77 59 bd 80 72 f9 3c 14 79 80 3c 4d 69 81 bd
       -0.05309251 0.030450106 0.015682735 -0.06318913
0002d0 d6 f4 71 bd d8 c8 d9 3c 1f 46 38 be 12 40 9b be
       -0.059071384 0.026585028 -0.17995499 -0.3032232
0002e0 f9 db 02 3d b4 34 3a be 58 c6 38 be 84 81 09 bd
       0.031948064 -0.18184167 -0.18044412 -0.03357078
0002f0 21 aa 2f be 09 94 b3 bc 4f 61 5e bd c1 7a 9b 3e
       -0.17154743 -0.021921175 -0.05429202 0.3036709
000300 24 16 91 3c 98 41 2e 3e 75 10 40 3e a5 7e d3 bd
       0.017710753 0.1701721 0.18756278 -0.1032689
000310 b6 89 dc bd 54 b4 e6 3d 1f da 88 3d 90 6c 44 bd
       -0.10768454 0.112648636 0.06682228 -0.047955096
000320 8a 50 1a be b7 b3 24 bd 3e 9c 22 bd b0 c1 44 be
       -0.15069786 -0.040210452 -0.039699785 -0.19214511
000330 44 7b 83 3d 0a a0 4f be 0c eb 21 be 13 96 55 3d
       0.064199954 -0.20275894 -0.1581232 0.052145075
000340 41 15 10 bc b7 db d9 3d 45 85 30 bd 39 28 8b 3d
       -0.00879413 0.106376104 -0.043095846 0.06794781
000350 49 1b 55 bd a5 4a 62 bd 38 d2 1f 3c 5a a3 36 3d
       -0.052027974 -0.055246968 0.00975471 0.044589378
000360 8a 1b 3c bd a7 ad 75 3d 24 76 c1 3d 75 71 cc bc
       -0.0459247 0.05998006 0.09446362 -0.024956444
000370 a9 99 0d 3e 6e 8e 5f be 1c cc 1f 3e b3 b0 d1 3d
       0.13828148 -0.21831676 0.15605205 0.10238781
000380 be ec 81 be 09 5e 09 be ac 73 a6 bd 1d 89 5b 3d
       -0.25375932 -0.13414778 -0.081275314 0.05359756
000390 03 c3 a6 be a9 69 c5 bd d3 d7 ea bd a4 d5 2b be
       -0.32570657 -0.09639294 -0.114669465 -0.16780716
0003a0 50 e7 1a be eb 23 50 be 40 93 b4 3d 8f bf ef bd
       -0.15127301 -0.20326202 0.08817148 -0.11706459
0003b0 09 d5 b6 be 8f 6e 71 3d bc 46 11 be 32 b2 0c bd
       -0.35709408 0.058943328 -0.1418714 -0.034349628
0003c0 3b 09 5e 3e cc fa dc bc f0 9d 0e 3d d8 a9 2b be
       0.21683209 -0.026975058 0.03481859 -0.16764009
0003d0 9b c0 cf bc a9 8c 83 3d 3f 08 19 bd a5 f3 7c 3d
       -0.025360396 0.06423313 -0.03736138 0.061755795
0003e0 17 eb f9 bd 47 ef a2 3d 74 fc 68 bd d5 c9 0c bc
       -0.12203043 0.07955795 -0.056881383 -0.008593042
0003f0 b2 fb 5c be e2 73 f2 bd 38 8d 82 bd c2 25 a1 bc
       -0.21580389 -0.11838509 -0.063745916 -0.019671325

network_body._body_endoder.seq_layers.0.bias f4 [256]
000000 a9 a5 50 bc 4c 68 4f 3b c6 62 7c bd bc bf 5e 3d
       -0.012734809 0.003164786 -0.061617635 0.05438207
000010 66 05 00 bd b4 fd c1 3d be 29 58 bd 7e ac e6 3c
       -0.03125515 0.09472218 -0.052774183 0.028158423
000020 34 6a 24 bc 09 be ab 3d ea af a9 3c c8 5c 7b bd
       -0.010035086 0.08385856 0.020713765 -0.06136778
000030 48 05 ce 3c 58 b7 9a 3c 54 cc 56 3d e9 c5 08 3d
       0.025149003 0.018886253 0.052440956 0.033391867
000040 a4 22 d4 3b 89 17 06 bb 8e 90 11 bc 2b 93 01 3d
       0.006473856 -0.0020460805 -0.008884562 0.03163449
000050 12 2a ad 3a d8 61 05 3d 02 4a 3d bc 7b 9f 60 bb
       0.001321139 0.032564014 -0.011553289 -0.0034274745
000060 7e 19 df bb 77 63 df bb 47 05 96 bc be 5f 8e 3c
       -0.006808459 -0.006817277 -0.018313063 0.017379638
000070 38 24 ed bb ce 7d cb 3b 73 87 c3 bc a9 f1 b0 3c
       -0.0072369836 0.0062100654 -0.023868298 0.021599608
000080 c9 2f 63 bd 0d b0 c1 bd 0b 44 59 bd 25 02 4b 3d
       -0.055465493 -0.09457407 -0.053043406 0.049562592
000090 f4 b1 c4 3a aa f3 64 39 b9 8c f5 3c 24 1b a5 3b
       0.0015006647 0.00021834546 0.029974328 0.005038636
0000a0 f7 a6 be 3c d4 1b 43 bd ad 77 37 bb 08 d1 16 3d
       0.023272974 -0.04763396 -0.0027994916 0.03682044
0000b0 d6 33 0e 3d 66 ed 2e 3d fa 91 a2 bc 98 26 64 3c
       0.034717403 0.04270687 -0.019844998 0.013925217
0000c0 2f 42 9a 3c 42 e2 05 3d 46 ad 35 bc c6 e8 4e 3c
       0.018830387 0.03268648 -0.011088675 0.01262874
0000d0 fc 68 ee bc 1c d8 63 3d d2 f0 76 3d 5e ba 09 3d
       -0.029102795 0.05562602 0.060288258 0.033625
0000e0 9d 25 13 bc 57 53 46 bd 96 9b c2 bc 5f 91 3c bd
       -0.008981136 -0.048419323 -0.02375583 -0.046037074
0000f0 04 3e 33 bd d7 c3 be 3d c1 c2 d1 bb 33 05 94 bd
       -0.043760315 0.09314697 -0.0064013903 -0.07227554
000100 8d bd 82 bb fc 48 5e 3d 2d 3b 4d bd c9 43 0e 3d
       -0.0039898814 0.054268822 -0.050105263 0.034732614
000110 64 3e f8 3c 2f c3 8e 3d 95 49 d3 3c 59 4b c1 3b
       0.030303188 0.06970822 0.025791923 0.0058988747
000120 ed e2 34 3d 6c 9c 4b 3d 8a 0b 92 3b 98 24 91 3d
       0.044161726 0.049709722 0.004456942 0.07087058
000130 df c0 a7 3d 7f c9 53 bc 68 9d ff 3c 0b de ed 3c
       0.08191084 -0.012926458 0.031202987 0.029036542
000140 ea 75 ac 3d 9c 5c 31 bb 21 9e 63 bb 00 ea 83 3c
       0.08420928 -0.0027063256 -0.0034731703 0.01610279
000150 ef 9f 71 3d 92 95 4c 3d ed 90 1a bd ad f6 99 3d
       0.058990415 0.04994733 -0.03773587 0.07517753
000160 51 86 68 3c cb 4d c9 39 6f 97 6c bc b8 0a 1d 3d
       0.01419218 0.00038395668 -0.014440401 0.0383403
000170 0a a4 ae 3a d8 0d 69 bd 3c 9d 2b bd 6b 91 f3 3c
       0.0013324034 -0.056897968 -0.041897997 0.029732427
000180 94 8f 18 3b 2a 1d 5e bd d1 d5 90 3d 5b e5 ff 3c
       0.0023278939 -0.05422703 0.07072032 0.031237295
000190 58 f0 94 bc a7 20 f3 3c cc be 94 bd f4 4a 05 3d
       -0.018181011 0.029678656 -0.07262954 0.032542184
0001a0 de 1d 21 bd a5 95 13 3d ff 60 ae 3b e2 41 1d 3d
       -0.039335124 0.036031384 0.0053216214 0.03839291
0001b0 f4 69 8b bc f6 8d 63 3d db 01 2a bd 46 a0 a0 bd
       -0.017018296 0.055555306 -0.041505676 -0.0784307
0001c0 6c c2 03 3d b9 a0 28 bb e6 47 c1 3c 17 79 4b 3c
       0.032167837 -0.0025730564 0.023593854 0.012419007
0001d0 db 9d b9 bb 86 45 04 bc 86 20 98 bb e2 25 62 3d
       -0.00566457 -0.008073216 -0.004642549 0.05521191
0001e0 9b 37 b7 3c 83 6e 08 3c 1d f9 ac 3c 5b 5c fa bc
       0.022365382 0.008327129 0.02111488 -0.030561617
0001f0 e0 19 6b bb 7d 97 20 3d 10 98 3d 3c 8f 90 bc 3c
       -0.0035873577 0.03920697 0.011571899 0.02301815
000200 67 96 27 bd 26 51 4c bd b9 3d 9a 3d b2 e4 4c 3d
       -0.04091492 -0.049882077 0.07531304 0.05002279
000210 b1 c9 a1 bd f7 d8 f7 3c a4 5b c9 3c 09 28 51 3d
       -0.07899798 0.030254824 0.02457983 0.05106357
000220 f3 c3 8b 3b ad 91 b2 3c fe 41 12 bd 73 f3 98 3d
       0.0042653023 0.02179798 -0.035707466 0.07468309
000230 54 df 46 bd 14 71 11 3d f2 86 06 3c 64 df 07 bd
       -0.048552826 0.03550823 0.008210884 -0.033172026
000240 f1 40 1a 3d 93 2e 87 bc c5 ba de bb 56 79 f3 bc
       0.03765959 -0.0165017 -0.006797167 -0.029720943
000250 96 ef 07 bd cd 21 cf 38 eb b3 61 3d 8e 93 a2 3c
       -0.03318747 9.876825e-05 0.055103224 0.01984575
000260 52 e4 06 3c c4 fa 90 3c 7c 74 39 3d c4 64 07 3d
       0.008233147 0.0176977 0.045277104 0.033055082
000270 23 ca b9 bb 8b 01 ba bc c4 03 9e 3c 8f af 9d bc
       -0.0056698485 -0.022705814 0.019288905 -0.019248752
000280 29 05 9a 3c 65 66 75 3c 31 b8 11 3d 83 3f 12 3d
       0.018801289 0.014978026 0.03557605 0.0357051
000290 36 60 ac b9 fc f1 e1 3c 1c b1 d0 3c 97 b2 31 3b
       -0.0003287808 0.027581207 0.025475077 0.0027114504
0002a0 96 3d 3f 3d d9 67 74 bb 13 98 54 bd f1 a2 08 bd
       0.046689592 -0.0037293343 -0.05190284 -0.033358518
0002b0 fb 0f 96 bb ad da 76 3d 5f 6d fe 3c 36 b6 6b 3c
       -0.0045795417 0.06026714 0.031058012 0.014386704
0002c0 03 0f bb 3c 5a 2b 51 3c c4 e0 13 3c b9 58 8c 3d
       0.022834307 0.0127666835 0.009025756 0.0685286
0002d0 92 60 a9 bc 9e 06 87 bd 79 24 72 bc 63 2a 24 bd
       -0.020675931 -0.06593059 -0.014779204 -0.040079486
0002e0 67 cf 33 3c 36 a6 1c bd 86 32 84 3a b8 67 77 3c
       0.010974742 -0.03824445 0.0010085858 0.015100412
0002f0 d2 9d b3 3a a2 17 e1 3c 8b 4a ad 3d f5 3d 10 3b
       0.001370365 0.02747709 0.084614836 0.0022009586
000300 c6 b9 4a bc 06 a6 db bb 0f e1 88 3c d6 fb 0a 3d
       -0.012373393 -0.006703141 0.016708879 0.033931576
000310 67 99 47 bc 1e 82 8e 3c 84 b9 d4 3c e3 8e cc bc
       -0.01218257 0.01739603 0.025967367 -0.024970477
000320 15 a7 64 3d 71 96 df bc 65 4a 34 3d e8 f4 2a 3d
       0.055823404 -0.027293416 0.04401626 0.041737467
000330 d0 8b 86 bc 6c 6d 93 3d 91 2f 9c 3b ca d6 a3 3d
       -0.01642409 0.07198605 0.0047664125 0.07999952
000340 74 86 9c bc e4 d4 05 3d 72 ba 99 3d 20 cb 01 3d
       -0.019107081 0.03267373 0.07506265 0.031687856
000350 cc 4e b5 3b 16 70 18 3d fb e5 b7 ba 97 be 68 bd
       0.005533075 0.03721627 -0.0014030332 -0.056822386
000360 71 e1 17 bd 6a 5e 82 3d 8f c1 91 3d 01 39 26 3d
       -0.037080232 0.06365664 0.071169965 0.040581707
000370 77 a2 21 3c 78 1c 96 3b 01 d9 98 bc de fb 7c 3d
       0.009865395 0.0045810305 -0.018658163 0.061763637
000380 fb ef 43 3d 08 26 aa bc 5d e4 35 3d 0c 8d 0f 3d
       0.047836285 -0.020770088 0.044407237 0.035046622
000390 2d e7 ae bc 90 46 8b bd 44 33 97 3c b0 b4 14 3d
       -0.021350468 -0.06800568 0.018457063 0.03630513
0003a0 38 87 06 bd 5f 28 f7 bc 1c ef cc bb 01 95 23 3d
       -0.0328438 -0.030170618 -0.00625409 0.039937023
0003b0 1c 79 00 3d c5 0a 99 3c 92 c2 6b bc d5 54 68 3d
       0.0313655 0.018681893 -0.014389651 0.056721527
0003c0 02 db f8 3b 53 17 79 3d 7e 57 b5 bb 3b 88 58 bc
       0.007594467 0.06081326 -0.0055341115 -0.013216074
0003d0 d5 d9 2a bd 78 96 16 bc cb 14 11 3d df 63 e0 3b
       -0.041711647 -0.009191148 0.03542022 0.006847843
0003e0 73 4e b3 3d 3e 94 36 3d 96 cf bd bb bd 1b 6c bc
       0.087551974 0.04457497 -0.0057925684 -0.01441091
0003f0 0e c7 d0 bc 8e 67 6a bc fe 93 89 3c 4e ab 4d 3d
       -0.025485542 -0.014306916 0.016794201 0.050212197

network_body._body_endoder.seq_layers.2.weight f4 [256, 256]
000000 31 fc 02 bd fa 6f c3 3d 98 0e 28 be 82 e2 a5 bc
       -0.03197879 0.09542842 -0.16411817 -0.020249609
000010 0b 9b fa 3c c1 3f 39 3d a7 38 86 3d f6 72 f1 bb
       0.030591508 0.045226816 0.06553774 -0.0073684407
000020 5b 12 e8 3d 43 44 b3 bd 75 79 03 bd 18 f2 0d 3d
       0.11331626 -0.08753254 -0.032098252 0.034654707
000030 1b 4c 16 3d 87 2e fd 3a a1 88 e6 3c 8a 8e 02 3d
       0.036693674 0.0019316234 0.028141322 0.031874217
000040 24 92 1d be 07 aa 8e bd 99 4b 33 bd df 50 99 3d
       -0.1538778 -0.06966024 -0.043773267 0.07486128
000050 44 95 81 bd 38 5d 27 3d 54 f1 c7 bb 53 f8 d0 bd
       -0.06327298 0.040860385 -0.0061017666 -0.10203614
000060 b4 bf 06 3e dd fd 46 bd 28 f1 f7 bd 93 b0 8c 3d
       0.13159066 -0.048581947 -0.12106544 0.06869616
000070 23 9b dc 3c dd 2d 57 3d 76 ff 62 3d cb 39 4f 3d
       0.026929444 0.052533973 0.055419408 0.050592225
000080 96 e2 b5 bd c4 00 ca 3d 40 cd 8d 3d 3c c2 f6 bc
       -0.088811085 0.09863427 0.06923914 -0.030121915
000090 f1 bf b2 3d 01 b4 f2 bc 43 b0 8a bb bf df 0f be
       0.08728016 -0.029626848 -0.004232438 -0.14050196
0000a0 d6 e8 92 3c 7d 35 f6 3d e0 50 22 3d e9 a7 1f 3d
       0.01793329 0.12021921 0.03962791 0.03897849
0000b0 c2 c3 57 3d d6 fb e0 3a cc 3b 8a bd bf 8f 29 3d
       0.052676924 0.0017164897 -0.067496866 0.041396853
0000c0 be 4d ee bc 81 0f bd bd d9 4c ca 3c da a5 53 3d
       -0.029089805 -0.09231473 0.024694847 0.05167184
0000d0 fe 2c 22 be 18 44 c6 bd a4 77 f0 bd 59 45 03 3d
       -0.15837476 -0.096809566 -0.1174157 0.032048557
0000e0 19 43 1c bd 1a b6 c6 3d db f3 17 bd f7 35 9e bd
       -0.038149927 0.09702702 -0.037097793 -0.07725137
0000f0 b2 12 66 bd d1 95 3d 3d 73 dc 2f 3d aa 11 45 3d
       -0.056170173 0.046285454 0.042934846 0.04811255
000100 3d 35 07 3d 4b 0a 86 3c 13 ab 8a 3b 8e 9f bf 3d
       0.033009756 0.01636233 0.0042318194 0.093566045
000110 5b e2 bd bc 38 96 38 3e 48 46 88 3d 85 06 79 bd
       -0.023179224 0.18026054 0.0665403 -0.060797233
000120 64 c5 cf bd 92 55 c1 3c 9b b0 f5 3d 34 9e 63 be
       -0.10145071 0.023600373 0.119965754 -0.22228318
000130 93 8d 76 3d 36 93 68 bd 47 67 bf bd 49 00 3b 3c
       0.06019361 -0.056781016 -0.093458705 0.011413642
000140 83 29 04 bc 6c 8d 9f 3d f4 5c 3d 3e 32 44 b2 3d
       -0.008066538 0.07790646 0.1849249 0.087044135
000150 6d 46 5c 3d 0c ce a3 bd f7 fa b1 bd 59 fe fd bd
       0.0537781 -0.07998285 -0.08690446 -0.124020286
000160 14 9a 61 3d 08 9b d0 3d 8a 46 fc 3c fc 52 ea 3c
       0.05507858 0.1018582 0.030795354 0.028604023
000170 9b 79 2d bd 05 25 53 3c 15 3e 48 be b5 ea a2 3c
       -0.0423523 0.012887244 -0.19554932 0.019887308
000180 ba 6b ae 3d 91 44 40 bd 47 93 d1 bd 71 3c f9 bc
       0.08516641 -0.04694039 -0.10233169 -0.030424329
000190 32 72 f5 3d 27 81 1d 3d 4f 8b 88 3d a1 63 a7 bd
       0.11984672 0.038453247 0.06667196 -0.081732996
0001a0 44 fe 0f bd 92 f3 21 bd 3b b4 7c bd 49 14 9c bd
       -0.035154596 -0.039538927 -0.06169532 -0.076210566
0001b0 2d 36 6f 3c b4 8d 9d 3d 81 b4 2b 3d d2 73 c9 3d
       0.014600319 0.07693043 0.04192019 0.09836544
0001c0 f1 75 04 be cf 6e 68 3e d7 49 00 3e 25 6a 9c bd
       -0.12935616 0.2269852 0.12528168 -0.07637433
0001d0 d4 d6 2e bd cf b7 21 bd 34 e2 32 bd ba 52 cb bd
       -0.042685345 -0.039481934 -0.043672755 -0.09927888
0001e0 98 82 d2 bc df 66 b7 3d 6e 9f cb bc 9e dc d7 bb
       -0.025697038 0.08955168 -0.024856295 -0.006587579
0001f0 b8 23 69 bc d9 c0 84 3d f5 6b eb bc 8f eb 01 3a
       -0.014229707 0.06482095 -0.028738001 0.00049560604
000200 34 79 0c 3d a6 2c f8 3b 41 cb c0 bc b4 d9 9c bd
       0.034295276 0.007573682 -0.023534419 -0.07658711
000210 67 c5 d8 3c 0b 5f cf bc e5 58 29 3b 13 15 87 be
       0.026461316 -0.025313875 0.0025840339 -0.26383266
000220 93 cc 88 bd 49 68 10 be 99 d2 d5 3d f6 98 92 bd
       -0.066796444 -0.14102282 0.10440559 -0.07158081
000230 67 35 1e 3d 3b 93 a9 3c fa 9e e2 bd e2 28 18 be
       0.038625147 0.020700088 -0.110654786 -0.14859346
000240 8f 4e 35 be 0e 7d 03 3d 18 35 14 3e 97 71 59 3d
       -0.17705749 0.032101683 0.14473379 0.053086843
000250 28 de c4 bc 01 a0 06 be 44 24 ef 3b 74 4a 09 bb
       -0.024031714 -0.13146974 0.0072980244 -0.0020948919
000260 0b 12 5b be b9 98 ae bd fe a3 dd bc a3 2c 14 bc
       -0.21393602 -0.08525223 -0.027055737 -0.009043845
000270 53 e7 b7 bd 40 f4 a7 3c 9e 06 d9 3b fb 9c 50 bd
       -0.089796685 0.02050221 0.0066231033 -0.05093096
000280 05 80 11 be 01 eb e8 bd a1 b7 2e bd 71 fd 0e be
       -0.14208992 -0.113729484 -0.04265559 -0.13963868
000290 2d ab c2 3c 6e fc 5f 3d af 2c b4 3c 8e 30 db bd
       0.023763264 0.054684095 0.021993963 -0.107026204
0002a0 ad 4b 3f 3d 2a 3c 23 3d 17 a0 48 bd 50 b6 7d bd
       0.04670303 0.0398523 -0.0489808 -0.061941445
0002b0 39 65 d0 3d 4b 22 ee ba c2 98 28 bd c9 7b 04 3e
       0.10175557 -0.0018168179 -0.041161306 0.12937845
0002c0 b8 d1 67 bd 57 58 41 3d e6 e8 84 bd dd 93 01 bd
       -0.056596488 0.047203388 -0.06489734 -0.031635154
0002d0 45 d6 8b bc f5 1e fa 3d 89 6f 9a bc de 97 12 3e
       -0.017069945 0.12212936 -0.018852012 0.14315745
0002e0 a9 12 55 be 32 70 ba bc c1 83 1f be 15 28 c8 bd
       -0.208079 -0.022758577 -0.15577604 -0.0977327
0002f0 04 28 85 3c 30 60 3f 3d 84 d2 00 3d 1e 5c 81 bd
       0.016254432 0.04672259 0.031450763 -0.06316398
000300 28 ac 86 bd 8d 89 94 3c 67 bf 36 be 1a e0 a1 bc
       -0.06575805 0.018131996 -0.17846452 -0.01976018
000310 ee 85 30 3d 63 48 0a 3d 36 33 1e be 2d 54 1d bc
       0.043096475 0.03376044 -0.15449223 -0.009602589
000320 69 04 4d bc d8 94 ea 3d 04 cc 97 3d e2 7b c0 3d
       -0.0125132585 0.11454171 0.0741196 0.09398629
000330 b2 8b df 3c 2e 62 03 be af a8 c0 bd 3b aa 98 bc
       0.027288292 -0.12830421 -0.09407174 -0.01863586
000340 bd 60 3b 3d 2a 4d a0 bd 9a 34 df 3d da da 41 bc
       0.045746554 -0.07827218 0.10898705 -0.011831963
000350 94 59 2d bd ae 87 88 3d 67 da dc 3d ab ea 82 bd
       -0.042321756 0.06666504 0.107838444 -0.063924156
000360 4c fb 00 3e c8 b1 9d bd 7a 64 3d 3d c6 e8 b4 3d
       0.12595862 -0.07699925 0.0462384 0.088334605
000370 44 1a 61 3d 06 1f 5c bd 3d 1e a8 3d fc db cd bc
       0.05495669 -0.053740524 0.082088925 -0.02512931
000380 c1 8d 10 bd d1 72 9e bd cc 28 71 bd 8e 84 3d 3d
       -0.035291437 -0.07736743 -0.058876798 0.046268992
000390 07 c1 94 3d 41 f9 a5 bd dc 2d 07 3d f6 36 22 bc
       0.072633795 -0.08104182 0.03300272 -0.009900799
0003a0 13 76 8a 3d 59 93 53 3e c9 93 87 bd 83 c9 ba bc
       0.06760802 0.20661677 -0.06619985 -0.022801166
0003b0 81 14 78 3d 30 0b f1 bc 3d b2 41 bc 63 f3 71 bc
       0.06056643 -0.02942428 -0.0118222805 -0.014767501
0003c0 63 4f ff bc 4c e7 91 bd d3 ce 32 3e ad ae d5 bc
       -0.031165784 -0.071241945 0.1746171 -0.026084268
0003d0 96 d9 16 be 88 09 ce 3c 0d 66 29 3e 86 75 c6 3d
       -0.1473144 0.02515103 0.16542836 0.096903846
0003e0 de ac 5d 3d 5d b3 9a bd 4b 6f c5 3d c6 b2 5e bc
       0.054119937 -0.07553742 0.09640368 -0.013592428
0003f0 64 d2 83 3d d1 f1 59 3d 6b de fa bc a5 de 04 3e
       0.06436613 0.05320913 -0.030623635 0.12975557

network_body._body_endoder.seq_layers.2.bias f4 [256]
000000 b2 9a 46 3c 32 5d 08 bc 8a 43 40 3d 48 57 ba bc
       0.012121843 -0.008323001 0.04693941 -0.022746697
000010 fe 1b be 3b 3c f9 dd bc cf 36 a7 3c 93 60 34 3d
       0.005801677 -0.027096383 0.020411877 0.044037413
000020 9e 01 0f 3b d0 5c 11 3c 69 38 17 bd 64 be 15 3d
       0.0021821032 0.008872226 -0.03691903 0.036558524
000030 21 b8 68 bc a9 5e fa 3c 5e 18 b4 3a df d6 8d b9
       -0.014204056 0.030562716 0.0013740172 -0.00027053707
000040 85 e6 38 bc 0d d6 eb 3c e8 0e cf bc 32 f8 01 ba
       -0.011285429 0.02878859 -0.025275663 -0.00049579435
000050 80 a8 b5 bc fc 10 89 3d cb 59 9e bc 19 09 13 3d
       -0.022175074 0.06692693 -0.019329926 0.035897348
000060 59 78 e5 3c ea 18 4d 3c 8d 1d 71 3c 40 d9 da bb
       0.028011488 0.012518147 0.014716518 -0.0066787302
000070 28 da 07 bd 56 bf be 3b d0 f8 7b 3b 7f 39 23 3d
       -0.033167034 0.005821149 0.0038447864 0.039849754
000080 d2 01 50 3d 93 c2 45 bb 1e 94 cd 3c db 33 43 bd
       0.050782986 -0.003017579 0.025095042 -0.047656875
000090 39 d8 84 3d 67 b3 67 bb 82 a5 7e 3c 9c fb 2a bd
       0.06486554 -0.0035354735 0.01554239 -0.04174386
0000a0 97 6f ea bc 08 95 f7 3b fa b8 84 3c 22 1b 7d bc
       -0.028617663 0.0075556077 0.016201485 -0.0154483635
0000b0 6d 64 4a bc 5e 88 c9 3c 1d 9e 0f bd b4 b8 c2 bb
       -0.012353045 0.024601158 -0.035062898 -0.0059424285
0000c0 6c 66 00 bd cd bb 85 3c 9f e4 5f bc 22 dd 3a bc
       -0.031347677 0.016324902 -0.013665347 -0.011405261
0000d0 f3 1b 05 bd 4f 60 26 bd e3 3b c1 3c 50 ed 89 3c
       -0.032497358 -0.04061919 0.023588127 0.016836792
0000e0 c3 10 94 bc 92 46 64 3c ec bd 8b 3c 17 2a 49 3a
       -0.018074399 0.013932841 0.017058335 0.00076738134
0000f0 e7 e4 aa bc 36 02 25 bd b3 ad e3 3b df 32 07 3d
       -0.020861102 -0.04028531 0.006948197 0.0330075
000100 d2 b4 5d 3d b3 0f 54 3c 8b c1 97 ba d0 06 67 38
       0.05412752 0.012943196 -0.0011578066 5.5081036e-05
000110 85 2c 64 3d ea cc 0f bc 1e 65 da 3c 9c 8e e2 bb
       0.05570652 -0.008776883 0.026659545 -0.006913973
000120 dc 04 4d 3d fc 38 3c 3b d3 ae f4 bb 8f 5a 6f 3b
       0.050053462 0.0028720489 -0.0074671297 0.0036522483
000130 57 f3 c8 bc 37 04 c8 3b 0d 78 d0 3b a0 d5 37 3b
       -0.024530096 0.006104018 0.0063619674 0.0028050914
000140 e0 1d b7 bc 25 f3 31 bc a4 83 3e bd 33 0c ea 3c
       -0.022353113 -0.010861193 -0.04651226 0.02857027
000150 d1 2c a9 3d ff 92 d7 bc ac d6 3c 3d 8b a4 a3 3c
       0.08260501 -0.02631521 0.046103165 0.019975921
000160 8e b8 22 3d cc be f9 3b 76 df 36 3d 66 ed 43 bc
       0.039726786 0.0076216217 0.044646703 -0.011958456
000170 66 7d 9f 3c b7 ce 57 bc d9 1e 4e 3b 7f 02 21 3c
       0.019468974 -0.013171843 0.0031451492 0.009827255
000180 09 a9 fd 3b 35 26 01 bc 9a 96 c6 bb 6d 78 b5 3a
       0.007741098 -0.007882644 -0.0060604336 0.0013845094
000190 63 a8 2b 3c 26 48 0e 3d a5 73 97 bb a6 41 50 bc
       0.010477158 0.034736775 -0.00462194 -0.012710964
0001a0 3c ae 11 bc 5c 1d 9c bc 04 fb c7 bc 0b a1 06 bd
       -0.008891638 -0.019056968 -0.024411686 -0.032868426
0001b0 4d 9e 2b bd 2b 00 ed bc 92 c7 e8 bc 4a 46 10 3d
       -0.041899014 -0.028930744 -0.028415475 0.035223283
0001c0 cd e7 28 3c 22 7e 43 bd 23 c9 01 bd 4b 5d 00 3b
       0.010309172 -0.04772771 -0.03168596 0.0019586857
0001d0 c5 35 e2 3c 85 9a cd bc f9 85 be 3c 9c 35 7f bd
       0.02761353 -0.025098095 0.023257243 -0.062306985
0001e0 b9 24 bb 3c e2 1a 91 3c 9e 3a 65 3c f6 bb 5b 3c
       0.02284466 0.017713014 0.013991026 0.013411513
0001f0 5a 26 a7 3c a1 ac a0 3c 7b 8d 7e bc b2 33 a0 bc
       0.02040403 0.019613566 -0.015536661 -0.0195559
000200 ea d7 08 bd 0e ee 53 3d 84 15 bb bc 5a 21 40 bc
       -0.033409037 0.0517407 -0.022837408 -0.011726702
000210 33 81 ff ba 01 08 a8 3c a1 c4 ab 3c b9 27 c1 3c
       -0.001949346 0.020511629 0.020967783 0.023578512
000220 42 f8 4d bc 0f 74 77 bc 3c 5b 40 bb d6 37 2f bd
       -0.012571396 -0.015103354 -0.0029351255 -0.04277786
000230 45 99 cb 3b 43 2b 0d bd 59 6f a1 bc a5 ef 8d bc
       0.0062133395 -0.034465086 -0.019706415 -0.017326185
000240 53 d6 db bc 88 4c 35 3c 1f 54 96 bc 07 25 fb 3b
       -0.026835596 0.01106561 -0.018350659 0.007664326
000250 d6 d8 ad bc 72 66 62 3c aa 2d 3a bc 5d 08 47 bb
       -0.02122156 0.01381837 -0.011363426 -0.0030369975
000260 88 34 3f 3d b6 de f5 3b 69 0d 5c 3c a7 27 a2 3b
       0.046680957 0.007503356 0.013430932 0.0049485746
000270 d6 06 88 bc f4 97 bb 3b fa bc 42 bd ab 41 c9 bc
       -0.016604822 0.0057249013 -0.047543503 -0.024567446
000280 1f 94 38 3d a0 aa 4d bc 0f ae 9c 3c 80 cb 17 bd
       0.045063134 -0.012552887 0.019125966 -0.037059307
000290 b0 a4 6e bd 47 85 0f bd 9b 51 1f 3d 1e 44 85 3d
       -0.058262527 -0.035039213 0.038896184 0.06507133
0002a0 6c 21 e0 bb 99 37 05 bd 26 60 37 3d 9f 98 84 3b
       -0.0068399217 -0.032523725 0.04476943 0.004046514
0002b0 a4 08 11 3d 85 c2 c2 bc 69 17 ad 3c 30 15 c8 3b
       0.03540863 -0.023774395 0.021129327 0.0061060414
0002c0 c7 2d 86 3d b2 d7 e9 bc 9e 05 02 bd a5 f2 80 bd
       0.065517 -0.028545234 -0.03174364 -0.06296281
0002d0 ce 90 f4 3b 6e c9 2c 3d 44 0f b6 b9 db 20 3b 3b
       0.007463551 0.042184286 -0.0003472512 0.002855352
0002e0 d1 67 5e bb c4 71 05 3c e1 ea 02 bd bf 9f 87 3d
       -0.003393639 0.0081448 -0.03196228 0.06622266
0002f0 8c af 23 bc 38 ed a7 bc 3d 49 23 3d db 75 a4 bc
       -0.009990584 -0.020498857 0.039864767 -0.02007573
000300 d7 14 07 bc fd ac 2c 3d a7 56 92 3b 1d 56 de 3a
       -0.008244715 0.042157162 0.004465896 0.001696292
000310 4c 3f a5 ba 82 7a 62 3b 8f a7 e9 bc 69 90 ef bc
       -0.0012607365 0.0034557884 -0.028522281 -0.029243665
000320 f6 d2 71 bd 38 d7 66 bc bc 91 e5 bb 3c bb 76 3d
       -0.05903908 -0.014089398 -0.0070058983 0.060237154
000330 8b f2 5c bb 9d 78 00 3c fe e9 90 bd df 1c bc bc
       -0.0033713903 0.007841256 -0.070758805 -0.022962986
000340 8e ec 8c bc 58 2e 21 bc 77 f8 8b 3c c6 0f 31 3c
       -0.017202642 -0.009837709 0.01708625 0.010806983
000350 de bb 72 bb b3 03 d7 3c f8 c6 b7 ba 1f 15 83 3d
       -0.0037038247 0.026246881 -0.0014021089 0.06400513
000360 8b c5 af 3c 88 72 25 3c 6e da d6 3b 07 bf b7 bc
       0.0214565 0.010098107 0.0065568006 -0.022429956
000370 3e 32 33 3d a6 62 fe bc df 9c b8 3b ff 40 c2 bc
       0.043749087 -0.031052899 0.005633935 -0.023712633
000380 cb e9 32 3d 19 6c 6a bc 68 f3 3e bb 3f 01 41 3c
       0.043679994 -0.014307999 -0.002913678 0.011780082
000390 68 f0 29 bc f4 a8 3f bb 7b 5f e6 3c 2d b3 d2 3c
       -0.010372259 -0.002924499 0.0281217 0.025720203
0003a0 f7 df 4d bc b7 f4 29 bc 83 80 b4 3c 14 f3 88 3c
       -0.012565604 -0.010373286 0.022033935 0.016717471
0003b0 f7 e8 fc 3b 41 6d f9 3c 9e 7f 27 3d 4f 3c 02 3d
       0.0077182013 0.030447604 0.04089319 0.031795796
0003c0 a4 96 20 bd 04 82 36 bc e3 aa 68 bd 09 90 8a 3c
       -0.039206162 -0.011139397 -0.056803595 0.016914384
0003d0 4e 59 19 bd 80 66 82 3d 57 ad e0 3c 31 52 fd 3c
       -0.037438683 0.063672066 0.027426405 0.030922981
0003e0 8f 35 95 bc 15 02 5f bc 30 1d 00 3d 4b 26 ac bb
       -0.018214015 -0.013611336 0.031277835 -0.0052535883
0003f0 1c 65 49 3c 7f 38 5a bd 5a c8 35 3c 5a 44 fc 3c
       0.012292173 -0.053276535 0.011095131 0.030794311

action_model._continuous_distribution.log_sigma f4 [1, 12]
000000 da 8f d1 bf fb 12 eb bf 85 10 e6 bf 96 ff ea bf
       -1.6372025 -1.8365167 -1.7973791 -1.8359249
000010 39 a5 d4 bf d4 c1 e2 bf 87 8e df bf 04 6f e9 bf
       -1.6612922 -1.7715402 -1.7465371 -1.8237004
000020 31 ce e3 bf 0b c2 e2 bf 90 4d ec bf ae 86 dc bf
       -1.77973 -1.7715467 -1.846117 -1.7228601

action_model._continuous_distribution.mu.weight f4 [12, 256]
000000 7b 5a 63 bd 25 cd 4b 3d 4f ff 86 bc c2 da 60 bc
       -0.05550621 0.049756188 -0.016479162 -0.013724031
000010 9d 84 25 bd 31 ff 40 3d e6 40 a7 3d 63 4c 68 3d
       -0.040409673 0.04711837 0.08166675 0.056713473
000020 82 76 0e 3d aa a4 37 3c ea 6a 14 3d ed f5 a6 bd
       0.034780987 0.011208693 0.036234774 -0.08152375
000030 fd 8b f7 b9 f0 a2 ca 3d 1f 8e 86 bc 47 1d 17 be
       -0.0004721581 0.09894359 -0.01642519 -0.14757262
000040 8a 56 56 bd ba 7d 4d bd 92 05 11 be 40 e5 ac bd
       -0.052328624 -0.05016873 -0.14162281 -0.084421635
000050 7b bc 93 3d bb e2 5a bb c9 a0 34 bd 58 7f 61 bd
       0.07213684 -0.0033399302 -0.04409865 -0.055053085
000060 94 7e 4b be 5c 2c 0b be 3f e5 b7 3d f1 22 83 3d
       -0.19872504 -0.1359114 0.08979272 0.06403149
000070 86 41 f6 bc b1 28 b7 bd 57 e4 94 3d 1a 18 74 bc
       -0.03006054 -0.08943308 0.07270115 -0.014898324
000080 3d f1 4e 3d 2e 70 b7 bd b0 16 ea 3c 30 38 12 bc
       0.05052303 -0.089569435 0.028575271 -0.008924529
000090 b0 d5 b0 bc 2e cc 96 bb 3b 62 9c 3c 62 3a 31 bd
       -0.02158627 -0.004601977 0.019089809 -0.04326857
0000a0 ba 83 a2 bc e4 9e 43 bc 4a c9 8f 3b 35 52 40 bd
       -0.019838203 -0.011939738 0.004388009 -0.0469534
0000b0 61 61 bd 3b 7d 95 14 3d 90 6f 5f bd dc 36 02 3d
       0.0057794307 0.036275376 -0.054549754 0.0317906
0000c0 e5 4b 44 bd c7 c6 9a 3d 2b f9 a7 3a f4 ba 45 bd
       -0.04792394 0.07557445 0.0012815347 -0.048273996
0000d0 a4 57 a5 bc f7 6b 7b 3c 04 b2 8d bd e1 88 29 bd
       -0.020183392 0.015345565 -0.069187194 -0.041390304
0000e0 33 11 49 bd 39 3d f0 3c 86 e3 a7 bd 68 e7 0a 3e
       -0.049088668 0.029326068 -0.081976935 0.13564837
0000f0 ee 52 da bd d5 72 88 3d ea 8a 8b 3c fa 38 18 3e
       -0.10660349 0.066625275 0.017034013 0.14865485
000100 9b 06 df bc 69 0c 3a bd dd c3 1b 3d 81 dd 8d bc
       -0.02722483 -0.04542199 0.038028587 -0.017317535
000110 fd 9c 19 3d a3 02 4e 3a 1e c4 50 bd eb 7a 3c 3d
       0.03750323 0.0007858669 -0.050968282 0.04601566
000120 f7 d1 63 bc 4b 3a 8a 3d 5c e8 c8 bd 9b e7 58 3d
       -0.01390504 0.067494 -0.09809944 0.05295525
000130 52 22 af 3c f0 d5 29 3d 8f 38 84 3d da 53 36 bd
       0.02137867 0.041463792 0.064561 -0.04451356
000140 fa e5 18 be 24 2b 11 3e 1f 1e 88 3a fd f3 59 3c
       -0.14931479 0.14176613 0.0010384953 0.0133028
000150 6b b8 39 bd e3 40 fe 3c cd 61 b3 bc 85 88 a9 bd
       -0.04534189 0.0310368 -0.021897221 -0.08277992
000160 66 11 9f bd b8 0d 8d bd d0 fd e8 3c d8 af 52 bd
       -0.0776699 -0.06887382 0.02844134 -0.05143723
000170 65 85 b4 3b ce 15 bf 3a d0 d8 6b 3d 03 1c 92 3d
       0.005509066 0.0014578642 0.057579815 0.07134249
000180 23 7e a5 3c 06 54 22 3d 89 e0 70 bd cc 97 a3 bc
       0.020201748 0.039630912 -0.058807883 -0.019969843
000190 76 c8 b2 bd 0a a5 a4 bc 71 fc ed bb cc 6c 9b bd
       -0.08729641 -0.020098228 -0.0072627594 -0.07589111
0001a0 7b 12 87 3d fe 00 49 3e 16 64 39 3c 99 1b 83 bd
       0.06595322 0.19629285 0.011315366 -0.06401748
0001b0 53 2f 27 3d 7b dc d7 3c 2e a8 85 3a e8 c9 33 bd
       0.040816616 0.02635025 0.0010197216 -0.043893725
0001c0 a7 9b 12 bb 99 97 03 3e fc e0 ad bd 48 c3 2f 3d
       -0.0022370608 0.12850799 -0.08490178 0.042910844
0001d0 06 60 b7 3c 45 a7 56 3c bf 1c 47 bd bd ee 3d 3d
       0.022384655 0.013101404 -0.0486114 0.046370257
0001e0 64 63 86 bd 2f a0 83 3d 1b 1b ef bc cb f8 58 bc
       -0.06561926 0.06427037 -0.02918773 -0.013242911
0001f0 4d dc ed 3c 6c 5a d1 bd 63 79 c1 3d 1d 8a d8 bd
       0.029035712 -0.10222325 0.09446981 -0.10573218
000200 9e c8 44 bd dd 61 63 bd a3 38 0f bc 93 df 67 3d
       -0.048042886 -0.05551325 -0.008741531 0.0566097
000210 38 15 3d 3d 41 0b 24 bd 17 4c ed bb 1b bc e9 3d
       0.046162814 -0.040049795 -0.0072417366 0.114128314
000220 4d 83 bf bd 73 7d 7b bd 3a 55 bd 3d 94 61 01 bd
       -0.093512155 -0.061398935 0.09244771 -0.0315872
000230 55 51 74 bd ea 4c 1f 3d 81 f6 01 3d ef fb df bc
       -0.059647877 0.03889171 0.031729225 -0.027341811
000240 08 d6 f1 3d 76 eb 50 3e 90 5b 0d bd 2d 7b c8 bd
       0.11808401 0.20402321 -0.03451115 -0.09789119
000250 50 c7 db 3c 21 ea 68 bd 81 6c fe bd fa e8 6a bd
       0.026828438 -0.056863908 -0.12423039 -0.05735109
000260 94 15 31 bd f6 af ff 3d fb e1 ab ba 03 c7 8a bd
       -0.04323347 0.12484734 -0.0013113612 -0.0677624
000270 66 97 90 3c 27 97 84 bd 4f e3 80 3b f1 df 2e bd
       0.017650317 -0.064741425 0.0039333473 -0.042694036
000280 8d 73 65 bd e9 c4 ee bc 82 3c b8 bd 29 b9 a8 3c
       -0.0560184 -0.029146628 -0.08995916 0.020596104
000290 f2 41 8f 3d 4b 10 58 bd 50 8c 10 bd 8f 97 ed bd
       0.06995 -0.052749913 -0.035290062 -0.11601173
0002a0 3a b1 69 bd 40 1e 91 bc 9e a1 38 3c 33 ed 18 bd
       -0.057053782 -0.01771462 0.011269001 -0.037335586
0002b0 49 50 79 3d fc 77 a9 3c b1 b0 53 bc 7f a4 66 b9
       0.06086758 0.020687096 -0.0129205445 -0.00021995789
0002c0 7b 5a 0a 3d c2 f4 54 3d bc d7 9c 3d 5b af 63 bd
       0.033777695 0.05199123 0.076583356 -0.055587154
0002d0 32 4a f7 3c fd e6 b2 3c 3e 12 04 bd fe f0 20 bd
       0.030186746 0.02183866 -0.03224396 -0.039292328
0002e0 ad d0 85 bc 3c f3 65 3c b2 f3 62 bd bb 1f 8b bc
       -0.016334856 0.014035042 -0.055408187 -0.016982904
0002f0 c3 e5 0f 3d f2 b9 43 bb 9c fa d9 bd ae ed 4d bc
       0.035131227 -0.002986547 -0.10643503 -0.012568874
000300 25 24 82 3c 27 91 e1 3c 34 a7 c7 bd b6 12 f3 bd
       0.015886376 0.027535034 -0.09748688 -0.11868803
000310 b0 d3 ca 3d f2 b9 e0 bc 23 67 6e bd cf f3 50 3d
       0.099036574 -0.027432416 -0.058203828 0.051013764
000320 10 82 0b 3d a8 f2 22 3c d0 c3 c9 3d 89 39 cd bd
       0.034059584 0.009945549 0.098518014 -0.100207396
000330 ea 2f 0d bd cf ff d3 3d d4 f8 87 3d 88 50 b3 3c
       -0.034469523 0.10351526 0.06639257 0.021888986
000340 44 a0 51 3d 2f 91 5c 3d 6e ab a6 bd 4f 18 a3 3c
       0.05117823 0.053849395 -0.08138166 0.019909052
000350 18 4e 3a 3d 82 fc 4a bd f6 69 ae bc ce a4 be bd
       0.045484632 -0.049557216 -0.02129076 -0.09308778
000360 34 4b 99 3d 5d a6 11 3d 8f 88 78 3d 95 05 b9 3d
       0.07485047 0.035559047 0.060677107 0.09034268
000370 c5 9d a1 bd af 2b 4a 3d 25 62 e9 3c 70 e9 62 3d
       -0.0789142 0.049358066 0.028489182 0.055398405
000380 8e c3 53 3d b4 88 e1 3c 32 31 02 bd c0 d2 ca bd
       0.051700167 0.027531005 -0.031785198 -0.099034786
000390 df e2 5b bd bd 89 59 bd d4 e6 fb 3c 6d 57 8e bd
       -0.053683158 -0.053109873 0.030749716 -0.06950269
0003a0 96 ee 7a bc b8 7a dc 3d 43 a5 9e bc 75 18 88 3a
       -0.015315672 0.10765594 -0.019365912 0.0010383265
0003b0 d8 73 33 3d 53 06 d9 bd 85 a5 77 bb 79 95 a0 bd
       0.04381165 -0.105969094 -0.0037787866 -0.0784101
0003c0 ff e9 c7 3d f3 f4 ba ba cc 99 0d 3d 93 09 20 3d
       0.09761428 -0.0014263674 0.0345705 0.03907163
0003d0 f5 78 f9 bd 8c c7 be bd b0 01 04 3d 45 c3 4d 3d
       -0.12181274 -0.09315404 0.03222817 0.05023505
0003e0 3b 57 7f bd c5 ac d9 38 6c 58 39 bc 39 b9 64 bd
       -0.06233905 0.00010379547 -0.011312585 -0.055840705
0003f0 63 be 04 bd fb 83 1b 3d 7c ee da bd 24 21 ea 3d
       -0.03240813 0.037967663 -0.106900185 0.11432102

action_model._continuous_distribution.mu.bias f4 [12]
000000 ce fa 58 bc 4e 60 30 3c 07 1f ad 3c e8 fd 4a bd
       -0.01324339 0.010765148 0.021132959 -0.04955855
000010 c6 ba a0 3b eb 99 9e bc e4 e9 20 3d 27 8e 88 3c
       0.0049050776 -0.019360503 0.039285555 0.016669346
000020 55 c9 86 bd 9e 4e ff b9 5a ce 93 bd df 8c 6e bd
       -0.0658137 -0.00048695965 -0.07217093 -0.058239814

onnx::Div_51 f4 [75]
000000 3e c0 41 40 62 e1 dc 3f f9 0c 11 40 9c ff 60 40
       3.0273585 1.7256281 2.2664168 3.5156012
000010 f4 c1 76 40 ea c1 74 40 e7 94 87 3e 7c 52 48 41
       3.855588 3.8243356 0.2648079 12.520138
000020 db 8a da 3e 17 e6 4c 40 5f 83 cf 3e 01 b1 f2 3d
       0.42684063 3.2015436 0.40529916 0.11850167
000030 95 62 cc 3c 45 5a 0f 3e a8 58 a6 3c fc ec d4 3d
       0.024949351 0.13999279 0.020305946 0.10396764
000040 24 dd 32 3e bb a0 64 3d b0 d0 f7 3d 0c 17 ec 3d
       0.17467171 0.055817347 0.12100351 0.11527833
000050 ca 5e 0e 3e 10 ef 26 3e e7 4d 0f 3d 0c 1e 04 3e
       0.13903347 0.16302133 0.034986403 0.12902087
000060 da f1 96 3d 0a bb ed 3d dd d0 63 3e 7c c9 27 3e
       0.07370348 0.116079405 0.22247644 0.16385454
000070 05 32 75 3d 44 f0 1e 3e 69 bf 59 3d 46 69 0b 3e
       0.059862155 0.15521342 0.05316106 0.13614377
000080 8a 1e 39 3e cc 47 74 3d 81 86 2f 3e f6 d4 2e 3e
       0.18078056 0.059638783 0.17141153 0.17073426
000090 6d 77 11 3e 06 39 4e 3e e1 7a 87 3d 66 11 10 3e
       0.14205714 0.2013894 0.06615234 0.14069137
0000a0 02 1e be 3d e3 c7 09 3e 28 16 83 3e 97 04 26 3e
       0.09283067 0.13455157 0.2560284 0.16212688
0000b0 c2 46 19 3d 6e b8 24 3e 9a 25 ca 3c 75 40 de 3d
       0.037420996 0.1608598 0.024676133 0.10852138
0000c0 33 b9 18 3e c5 df 6d 3d 1c fe 30 3e f5 1a 2a 3e
       0.14914398 0.05807473 0.17284435 0.16611846
0000d0 f0 24 1e 3e 5e 54 15 3e 84 e3 16 3d eb 22 11 3e
       0.15443778 0.14582965 0.03683807 0.14173476
0000e0 ca 2c de 3d c3 ff f0 3d 0a 05 7a 3e 7e 34 12 3e
       0.108483866 0.11767533 0.24415985 0.14277837
0000f0 07 a8 22 3e a1 38 2c 3e 6b 0b 12 3d 84 47 09 3e
       0.1588441 0.16818477 0.03565542 0.13406187
000100 ee b1 5f 3e 95 c1 dc 3d fc 19 41 3e f7 83 88 3e
       0.21845219 0.1077911 0.18857569 0.2666318
000110 11 a9 28 3e a7 b8 28 3e 34 ce bc 3d 6d 14 1f 3e
       0.16470744 0.1647669 0.092190176 0.15535136
000120 1c 95 2c 3e 65 b7 5b 3e c2 44 83 3e
       0.16853756 0.21456678 0.25638396
