results/packaging_fix_test_24/RobotAgent/RobotAgent-10379252.onnx (onnx, 359274 bytes, 9 tensors)

network_body.observation_encoder.processors.0.normalizer.running_mean f4 [75]
0	0x3f1045e9	0.56356674
1	0xbf4cf92c	-0.80067706
2	0x4007ba1a	2.1207337
3	0x3f06ae24	0.5260947
4	0x3f93574b	1.1511015
5	0x3f63a2a8	0.8892007
6	0x3f493dd7	0.78609985
7	0x42399bc2	46.402107
8	0xba5d5756	-0.0008443495
9	0xbe472bf0	-0.19450355
10	0x3fdaba17	1.708804
11	0x3dd0a95e	0.10188554
12	0xbc08e626	-0.008355653
13	0x3cf4e1e9	0.029892879
14	0x3f7a0d7b	0.9767682
15	0x3e5565ff	0.2083969
16	0xbd9ba4eb	-0.07599815
17	0x3bd0dbe5	0.0063738697
18	0x3cdd4c21	0.02701384
19	0x3dde6b70	0.10860336
20	0x3d1bd0e9	0.03804103
21	0xbcd4e84c	-0.025989674
22	0x3f762030	0.96142864
23	0x3e79d166	0.24396285
24	0xbd83733a	-0.06418462
25	0xbc75e3c8	-0.015007921
26	0x3d6d2af6	0.0579023
27	0x3d86afd6	0.06576507
28	0xbc8268f6	-0.01591919
29	0x3dd55394	0.10416332
30	0x3f766314	0.9624493
31	0x3e80c538	0.25150466
32	0xbe01830d	-0.12647648
33	0x3b7f97ed	0.0039000467
34	0xbd11615f	-0.03549325
35	0x3d9ff792	0.07810892
36	0x3dd91c69	0.10601122
37	0x3bcbebea	0.0062231915
38	0x3f71398b	0.9422843
39	0x3e8c8d1b	0.27451405
40	0xbd04bec1	-0.03240848
41	0xbd91e76c	-0.07124218
42	0xbcfadbf0	-0.030622452
43	0x3db3e56f	0.08783995
44	0x3a9062b6	0.0011015746
45	0xbd632a87	-0.05546048
46	0x3f775faa	0.96630347
47	0x3e677082	0.22601512
48	0x3d2bf06a	0.041977324
49	0x3c0c6451	0.008568839
50	0x3dab2778	0.083571374
51	0x3d58c2b5	0.052920062
52	0xbd6ad24d	-0.057329465
53	0x3d946aa9	0.07246906
54	0x3f74ca83	0.9562151
55	0x3e92c873	0.28668556
56	0xbd089b6a	-0.03335134
57	0x3d3f60b7	0.046723094
58	0xbe057644	-0.13033396
59	0xbdc04775	-0.09388629
60	0xbcbb4d0e	-0.022863891
61	0x3bb7c367	0.0056080106
62	0x3f74f178	0.9568095
63	0x3e9e70bb	0.30945382
64	0x3da1da74	0.07902995
65	0x3cad9d5b	0.021193197
66	0xbdf14c22	-0.11782099
67	0xbe366dca	-0.17815319
68	0x3b8c8871	0.004288726
69	0x3c46110b	0.012089024
70	0x3f69c1ce	0.9131135
71	0x3e996646	0.2996084
72	0x3df0b9f7	0.1175422
73	0x3ccc326e	0.02492639
74	0xbdcbb6e4	-0.09946993

network_body._body_endoder.seq_layers.0.weight f4 [256, 75]
0	0xbe038a86	-0.12845811
1	0x3e07e500	0.1327095
2	0x3adbab94	0.0016759508
3	0xbdd7b283	-0.10532095
4	0xbbdf6fdf	-0.006818756
5	0x3d0db718	0.03459844
6	0xbceb9769	-0.028758721
7	0xbbe58f55	-0.007005612
8	0xbe676dfd	-0.22600551
9	0x3e4df860	0.20114279
10	0x3c5beabb	0.013422663
11	0xbc5cfacb	-0.013487528
12	0x3d4bced5	0.049757797
13	0x3eb36290	0.35036135
14	0xbdf423f7	-0.11920922
15	0x3cb77967	0.022396756
16	0x3e04966c	0.12948006
17	0x3d4672ba	0.048449256
18	0xbdcff40e	-0.101539716
19	0xbd42cae6	-0.04755678
20	0x3dc2c856	0.09510867
21	0xbe4f8e07	-0.20269023
22	0x3e2eacbd	0.17058082
23	0x3e82072e	0.25396103
24	0x3c8cb173	0.017174458
25	0x3cca1f98	0.024673268
26	0x3d3aee76	0.04563757
27	0xbe159dc0	-0.14610958
28	0x3e390f6c	0.18072289
29	0xbdae67b3	-0.08515873
30	0x3de1873b	0.11012121
31	0xbda5c20d	-0.08093653
32	0xbdc6e40b	-0.097114645
33	0xbd092628	-0.033483654
34	0xbd6a0f19	-0.057143304
35	0x3e340f60	0.1758399
36	0xbe1f76ff	-0.15572737
37	0x3df1e54d	0.11811314
38	0xbca7b2fa	-0.020471085
39	0x3db3e3f6	0.087837145
40	0x3e1ea71b	0.15493433
41	0x3e22fd58	0.15916955
42	0xbd60de96	-0.054899774
43	0xbe4b52e9	-0.19855846
44	0xbeb62a90	-0.35579348
45	0x3de788c4	0.11305383
46	0xbe93ed0c	-0.2889179
47	0x3e4d233f	0.20032977
48	0x3db04c63	0.086083196
49	0xbca04ffa	-0.019569386
50	0xbd89741f	-0.067116015
51	0x3d43bcc5	0.047787447
52	0xbe25c779	-0.16189374
53	0x3ea5d1cd	0.32386628
54	0xbd0959b0	-0.0335328
55	0x3d902804	0.070388824
56	0xbc798e6c	-0.01523171
57	0x3c43d9e7	0.011953807
58	0xbe43d5ec	-0.19124573
59	0x3d605720	0.05477059
60	0x3d751f20	0.059844136
61	0x3e092073	0.13391285
62	0xbd43506e	-0.047684126
63	0x3e044589	0.1291715
64	0xbde54308	-0.11194426
65	0x3e49240d	0.19642659
66	0xbde2d292	-0.11075319
67	0xbbb726ba	-0.0055893334
68	0x3dbcc686	0.09217553
69	0xbc9c4e84	-0.019080408
70	0xbdc15f4e	-0.09442006
71	0x3cffe732	0.031238172
72	0x3d49e099	0.04928646
73	0x3c8ee9d3	0.01744548
74	0x3e350977	0.17679392
75	0x3d3bc22c	0.045839474
76	0x3cea5b68	0.028608039
77	0xbc0e291d	-0.008676794
78	0x3e89096f	0.2676501
79	0xbd8d55f2	-0.069011584
80	0xbe884700	-0.2661667
81	0x3cc70e6a	0.024298865
82	0xbdb72b41	-0.08943797
83	0x3e72375a	0.23653927
84	0x3d8fc0ef	0.07019221
85	0xbc546647	-0.012963838
86	0xbdd5fc12	-0.10448469
87	0xbe823365	-0.25429836
88	0x3db82249	0.089909144
89	0xbe0fc838	-0.14041221
90	0xbd0bf879	-0.03417251
91	0xbe3e2f26	-0.18572673
92	0xbdd78ec4	-0.10525277
93	0xbd7451f8	-0.059648484
94	0xbdcf7950	-0.101305604
95	0x3e47d310	0.19514108
96	0xbd91bcfd	-0.07116125
97	0xbd9ea382	-0.077460304
98	0xbe562747	-0.2091342
99	0xbe482f28	-0.19549239
100	0xbe579ac7	-0.21055137
101	0xbe44632a	-0.19178453
102	0xbda68ebb	-0.081326924
103	0xbd867f32	-0.06567229
104	0x3c9544db	0.01822131
105	0xbd23adc1	-0.039960627
106	0xbcddc599	-0.027071761
107	0x3e464dcb	0.19365613
108	0xbe2a5d7a	-0.16637221
109	0x3dfa2676	0.12214367
110	0x3de93caf	0.113885276
111	0x3e091dff	0.13390349
112	0x3d5493af	0.051898655
113	0x3d83f2e0	0.06442809
114	0x3d61bfbf	0.055114504
115	0xbd934faf	-0.07192933
116	0xbd1b879e	-0.03797113
117	0x3bbe953b	0.0058161295
118	0xbe88e639	-0.26738146
119	0xbd851327	-0.06497794
120	0xbd2c9d69	-0.042142306
121	0xbe0983e1	-0.13429214
122	0xbe08ffa8	-0.13378775
123	0x3d810f39	0.063017316
124	0xbebde256	-0.37086743
125	0xbe283d37	-0.16429602
126	0xbdabf0ec	-0.083955616
127	0x3c350957	0.01104959
128	0x3d7c94c1	0.0616653
129	0x3e3f8119	0.1870159
130	0x3ddf17e3	0.10893228
131	0x3e14c02a	0.1452643
132	0x3be9ace1	0.0071312045
133	0xbdfff5d9	-0.124980636
134	0x3bec83cc	0.00721786
135	0x3d699505	0.05702688
136	0xbe09f7e8	-0.13473475
137	0xbe97d50e	-0.29654735
138	0x3de3f2b9	0.1113028
139	0x3d6d7043	0.05796839
140	0xbe5394b8	-0.206622
141	0xbbe93744	-0.007117184
142	0x3d364ce8	0.044506937
143	0xbca59ffa	-0.020217884
144	0xbe40069e	-0.18752524
145	0xbe3c76a8	-0.18404639
146	0xbcb51793	-0.022105968
147	0x3da12c3a	0.07869764
148	0x3d64f745	0.055899877
149	0x3ea474df	0.32120416
150	0xbca5b8a8	-0.020229653
151	0x3e1e33ad	0.154494
152	0xbced93f7	-0.02900122
153	0xbbca9fc9	-0.0061835987
154	0xbb513e95	-0.003192817
155	0xbc813829	-0.01577385
156	0x3dffc29c	0.12488291
157	0x3da670a9	0.08126957
158	0xbdc76930	-0.0973686
159	0x3e3d6a13	0.18497495
160	0x3da82981	0.08211041
161	0x3dc62f6f	0.09677016
162	0xbe015fe1	-0.12634231
163	0x3dd8fea6	0.10595445
164	0x3e69a3a9	0.22816338
165	0xbd3c2d82	-0.045941837
166	0x3dcfd81f	0.10148644
167	0xbe29e5f3	-0.16591625
168	0xbdf40107	-0.119142585
169	0x3dc95440	0.098305225
170	0x3dd856b7	0.105634145
171	0x3e068fbc	0.13140768
172	0x3e9e043b	0.30862603
173	0xbdcee9b9	-0.10103173
174	0xbddf29bc	-0.10896632
175	0xbd7806b4	-0.060553268
176	0xbd54c99e	-0.05195009
177	0x3cec9222	0.028878275
178	0x3c83c1ee	0.016083684
179	0xbd82bf94	-0.06384197
180	0xbd696fb4	-0.056991294
181	0x3ce0cfbd	0.027442807
182	0xbe38cbf2	-0.18046549
183	0xbe97b6ce	-0.29631656
184	0x3d04b0b6	0.032395087
185	0xbe389732	-0.18026426
186	0xbe39b346	-0.18134794
187	0xbd0597b8	-0.032615393
188	0xbe2e40e2	-0.17016938
189	0xbcae2935	-0.021259883
190	0xbd608b34	-0.054820254
191	0x3e9acfc4	0.30236638
192	0x3c9d3d54	0.019194283
193	0x3e2f9abf	0.17148875
194	0x3e3ead8c	0.1862089
195	0xbdd822a6	-0.10553484
196	0xbdd99a2e	-0.106251106
197	0x3de42453	0.11139741
198	0x3d8a2286	0.06744866
199	0xbd1b4ba3	-0.03791393
200	0xbe159b21	-0.14609958
201	0xbd2323bf	-0.039829012
202	0xbd33292f	-0.043740448
203	0xbe41177a	-0.18856612
204	0x3d83f56c	0.06443295
205	0xbe4f263d	-0.2022943
206	0xbe21a4aa	-0.1578547
207	0x3d68bd1a	0.056820966
208	0xbc276953	-0.010217982
209	0x3ddf889a	0.109147266
210	0xbd35b997	-0.044366445
211	0x3d88d817	0.06681841
212	0xbd5528e2	-0.052040942
213	0xbd5f3ed5	-0.05450328
214	0x3c1cc5d7	0.009568653
215	0x3d35ddc7	0.044400956
216	0xbd3babff	-0.045818325
217	0x3d78ae5e	0.060713165
218	0x3dbe46c3	0.092908405
219	0xbccd01b4	-0.025025226
220	0x3e0e8a0b	0.13919847
221	0xbe5d8b23	-0.21635108
222	0x3e1e0440	0.15431309
223	0x3ddc4e6f	0.107571475
224	0xbe82fb6e	-0.2558245
225	0xbe0ab06d	-0.13543864
226	0xbdb372f8	-0.08762163
227	0x3d6a02b8	0.0571315
228	0xbea9a00a	-0.33129913
229	0xbdbffc8a	-0.0937434
230	0xbdd91a75	-0.106007494
231	0xbe2e6207	-0.17029582
232	0xbe1bd6a6	-0.152186
233	0xbe52d257	-0.20588051
234	0x3dac0198	0.083987415
235	0xbdeca9d1	-0.115558274
236	0xbeb6453b	-0.35599694
237	0x3d6b7306	0.05748274
238	0xbe14712e	-0.144963
239	0xbd133ee6	-0.035948656
240	0x3e63dd0e	0.22252294
241	0xbcd40099	-0.025879191
242	0x3d0249db	0.031808715
243	0xbe2ff38b	-0.17182748
244	0xbce72bd1	-0.028219135
245	0x3d843b8b	0.064566694
246	0xbd1553b0	-0.036456764
247	0x3d6fbb49	0.05852822
248	0xbdf7e825	-0.12104825
249	0x3da1466d	0.07874761
250	0xbd6524e0	-0.05594337
251	0xbc5f0099	-0.013610982
252	0xbe5e037f	-0.21681021
253	0xbdfc07f9	-0.12306208
254	0xbd73aa0a	-0.059488334
255	0xbcb0b06c	-0.0215685

network_body._body_endoder.seq_layers.0.bias f4 [256]
0	0xbc42a6cf	-0.011880591
1	0x3b778009	0.0037765524
2	0xbd80fb4e	-0.062979326
3	0x3d609434	0.054828838
4	0xbcff10bd	-0.031135911
5	0x3dc2aca9	0.095055886
6	0xbd55d37e	-0.052203648
7	0x3ce2f032	0.027702425
8	0xbc23a665	-0.009988402
9	0x3dacc126	0.08435278
10	0x3ca398b2	0.019970272
11	0xbd809c9e	-0.06279872
12	0x3cc67024	0.024223395
13	0x3c9f9c8d	0.019483829
14	0x3d56ace2	0.052410968
15	0x3d088867	0.03333321
16	0x3bd4a431	0.0064892997
17	0x3a9a4174	0.0011768774
18	0xbc1db5c3	-0.009625855
19	0x3d04d344	0.03242804
20	0x3a441292	0.0007479574
21	0x3d0280bc	0.031861052
22	0xbc47298e	-0.0121559035
23	0xbb992258	-0.0046732835
24	0xbbd5a369	-0.006519724
25	0xbbc0fd27	-0.005889553
26	0xbc8b3042	-0.016990785
27	0x3c972bb6	0.01845346
28	0xbbcad227	-0.006189603
29	0x3bd066bc	0.006359903
30	0xbcb9e675	-0.022692898
31	0x3cab38bf	0.020901082
32	0xbd67de40	-0.05660844
33	0xbdc10774	-0.0942525
34	0xbd588f8e	-0.05287128
35	0x3d4cf332	0.050036617
36	0x3adda527	0.0016910181
37	0xb7180d4c	-9.063002e-06
38	0x3cf4bc22	0.029874865
39	0x3ba6979a	0.0050839903
40	0x3cbf7d69	0.02337523
41	0xbd4375c8	-0.047719747
42	0xbaee8ebf	-0.0018200501
43	0x3d182c23	0.037151467
44	0x3d0edb61	0.034877185
45	0x3d31ce0a	0.043409385
46	0xbca5d109	-0.020241277
47	0x3c64168d	0.013921392
48	0x3c91b667	0.017787172
49	0x3d0a969a	0.03383503
50	0xbc1f69c1	-0.009729804
51	0x3c37c079	0.011215323
52	0xbceeaa9b	-0.029134085
53	0x3d672ed0	0.05644113
54	0x3d723879	0.059135888
55	0x3d014725	0.03156199
56	0xbbf41760	-0.0074490756
57	0xbd47b4a9	-0.048756275
58	0xbcbddca2	-0.023176495
59	0xbd39f7af	-0.045402225
60	0xbd2db785	-0.042411346
61	0x3dc04312	0.09387793
62	0xbbd0bba7	-0.006370026
63	0xbd9589ab	-0.07301649
64	0xbb62abe7	-0.0034587325
65	0x3d5f21ce	0.054475598
66	0xbd4c32ad	-0.049853016
67	0x3d11dc8c	0.03561072
68	0x3cfd41bd	0.030915136
69	0x3d8f3832	0.0699314
70	0x3cd29278	0.025704607
71	0x3bbb4c63	0.005715893
72	0x3d349365	0.04408588
73	0x3d507ceb	0.05090038
74	0x3b8a3690	0.00421793
75	0x3d916c69	0.07100756
76	0x3da96ce9	0.08272726
77	0xbc5ce1cb	-0.013481568
78	0x3cfac0e1	0.03060955
79	0x3ce21fa7	0.027602984
80	0x3daeff24	0.08544758
81	0xbb6e779c	-0.003638721
82	0xbb54934d	-0.003243643
83	0x3c9176b4	0.017756797
84	0x3d6bea21	0.05759633
85	0x3d49ff72	0.049315877
86	0xbd1c63e3	-0.038181197
87	0x3d9a9839	0.075485654
88	0x3c77e540	0.015130341
89	0x396b88b6	0.00022462275
90	0xbc752720	-0.014962941
91	0x3d1dc2ca	0.038515843
92	0x3ab8ce70	0.0014099609
93	0xbd693e02	-0.0569439
94	0xbd2bc980	-0.041940212
95	0x3cefbf8a	0.029266138
96	0x3a893e86	0.0010470904
97	0xbd5c005f	-0.05371129
98	0x3d8ef196	0.069796726
99	0x3d014305	0.031558055
100	0xbca7fe7f	-0.020507095
101	0x3cf5cbaf	0.03000435
102	0xbd95e8ad	-0.0731977
103	0x3d0226b2	0.031775184
104	0xbd200e1c	-0.039075956
105	0x3d11c581	0.035588745
106	0x3bc0190e	0.0058623618
107	0x3d1f8551	0.0389455
108	0xbc89c046	-0.016815316
109	0x3d6b83c1	0.057498697
110	0xbd2bd99d	-0.04195558
111	0xbda16b24	-0.078817636
112	0x3d044322	0.032290585
113	0xba22f9c8	-0.000621703
114	0x3cbd4bbf	0.023107408
115	0x3c4e763f	0.012601434
116	0xbba5b779	-0.005057272
117	0xbc01528b	-0.007893215
118	0xbb674713	-0.0035290166
119	0x3d62fc52	0.055416413
120	0x3cc0724d	0.023492003
121	0x3c0f7b12	0.00875737
122	0x3cbb225a	0.022843529
123	0xbcf378ac	-0.029720627
124	0xbb75d9e4	-0.0037513906
125	0x3d25409e	0.040344827
126	0x3c3c38b4	0.011488128
127	0x3cbda7d4	0.023151316
128	0xbd2b48f7	-0.04181763
129	0xbd4cba10	-0.04998213
130	0x3d9a3b11	0.07530797
131	0x3d57d139	0.052689765
132	0xbda37da1	-0.07982946
133	0x3ce7ed3b	0.028311362
134	0x3cbf9b12	0.023389373
135	0x3d53a77d	0.0516734
136	0x3b7d1019	0.0038614331
137	0x3cb666dc	0.022265844
138	0xbd126e85	-0.03574993
139	0x3d97c54e	0.0741068
140	0xbd4904d0	-0.049076855
141	0x3d0be3d7	0.034152832
142	0x3bec9b08	0.0072206296
143	0xbd0415dd	-0.032247413
144	0x3d174350	0.03692943
145	0xbc8164a1	-0.015795054
146	0xbbde9ef8	-0.006793853
147	0xbcea4f43	-0.028602248
148	0xbd075019	-0.03303537
149	0x3a6e9ef0	0.0009102663
150	0x3d5c7218	0.053819746
151	0x3ca4aee1	0.02010292
152	0x3c048613	0.008088606
153	0x3c971310	0.018441707
154	0x3d360660	0.044439673
155	0x3d044826	0.03229537
156	0xbbafad97	-0.0053612697
157	0xbcac2ad7	-0.021016521
158	0x3ca4dd39	0.020125018
159	0xbca14084	-0.019684084
160	0x3ca7110c	0.02039387
161	0x3c872efd	0.016501898
162	0x3d16e096	0.036835276
163	0x3d11cfd1	0.03559858
164	0xb917c8b1	-0.00014475246
165	0x3cd75bff	0.026288984
166	0x3cd84ed8	0.026404783
167	0x3b195873	0.0023398667
168	0x3d3e958c	0.046529338
169	0xbb55509c	-0.0032549268
170	0xbd4f0cb3	-0.05054922
171	0xbd04f237	-0.032457557
172	0xbbcbb197	-0.0062162387
173	0x3d773948	0.060357362
174	0x3cfe6fa8	0.031059101
175	0x3c5862c9	0.013207146
176	0x3cc0d2bf	0.023537992
177	0x3c44240a	0.011971483
178	0x3c0b2c93	0.008494514
179	0x3d8cd347	0.068762355
180	0xbca7924f	-0.020455508
181	0xbd838e7c	-0.06423661
182	0xbc81b262	-0.01583213
183	0xbd1f3398	-0.038867563
184	0x3c422cf5	0.011851539
185	0xbd18cb91	-0.03730351
186	0x3ac93b72	0.0015352799
187	0x3c7bf7df	0.015378921
188	0x3b2e8a10	0.0026632585
189	0x3cd9848c	0.026552461
190	0x3db0d555	0.0863444
191	0x3b2f5536	0.002675367
192	0xbc3f677a	-0.011682386
193	0xbbeb8f52	-0.007188716
194	0x3c8c9c9d	0.017164523
195	0x3d136873	0.035988282
196	0xbc68a828	-0.014200248
197	0x3c927a19	0.017880486
198	0x3cd82b2c	0.026387773
199	0xbcd0d3df	-0.025491653
200	0x3d666a04	0.056253448
201	0xbcd9a762	-0.026569072
202	0x3d393c25	0.045223374
203	0x3d272126	0.040803097
204	0xbc917216	-0.017754596
205	0x3d9113e5	0.07083873
206	0x3b685c6d	0.003545548
207	0x3da3579e	0.07975696
208	0xbc9b5d6e	-0.01896545
209	0x3d08de80	0.033415318
210	0x3d9900ae	0.07470833
211	0x3d00d358	0.031451553
212	0x3bbe0b2a	0.0057996707
213	0x3d1e4df1	0.03864855
214	0xbb50f644	-0.0031885067
215	0xbd66ee3f	-0.056379553
216	0xbd1bcc35	-0.038036544
217	0x3d84a180	0.06476116
218	0x3d91b899	0.07115287
219	0x3d247d2f	0.040158447
220	0x3c1899cc	0.009314012
221	0x3b6920f4	0.003557262
222	0xbc925240	-0.017861485
223	0x3d7fc0db	0.06243978
224	0x3d3de844	0.046364084
225	0xbca405d3	-0.020022308
226	0x3d37e61b	0.04489718
227	0x3d12677b	0.035743218
228	0xbcaf5770	-0.021403998
229	0xbd85411c	-0.06506559
230	0x3c8a421e	0.01687723
231	0x3d193774	0.0374064
232	0xbd00a4ec	-0.03140728
233	0xbd0092c4	-0.031389967
234	0xbbe68db4	-0.0070359353
235	0x3d2891b4	0.04115458
236	0x3d083131	0.033250038
237	0x3c9304a1	0.017946543
238	0xbc5b78c0	-0.013395488
239	0x3d61f61a	0.05516634
240	0x3bf7e404	0.0075650234
241	0x3d71834d	0.05896311
242	0xbb976027	-0.0046196165
243	0xbc644c13	-0.013934153
244	0xbd2fbc7b	-0.04290436
245	0xbc23cf7b	-0.009998198
246	0x3d0f310c	0.034958884
247	0x3bf9e616	0.0076263053
248	0x3db8315c	0.089937896
249	0x3d32ab70	0.043620527
250	0xbbb95422	-0.0056557814
251	0xbc710ed9	-0.014713013
252	0xbccec552	-0.025240574
253	0xbc7c5db2	-0.015403198
254	0x3c8d490c	0.017246746
255	0x3d4ea09f	0.05044615

network_body._body_endoder.seq_layers.2.weight f4 [256, 256]
0	0xbcd9c064	-0.026580997
1	0x3dcde397	0.10053175
2	0xbe27063e	-0.16310975
3	0xbc5cea10	-0.013483539
4	0x3ce113df	0.027475296
5	0x3d2f5622	0.042806752
6	0x3d882883	0.06648352
7	0xbc1f407f	-0.009719967
8	0x3df6646b	0.12030872
9	0xbdc986b1	-0.098401435
10	0xbcfc1195	-0.030770103
11	0x3d0905e2	0.033452876
12	0x3d203814	0.03911598
13	0x39b3a602	0.00034265226
14	0x3ce5fe93	0.028075492
15	0x3cf521b9	0.029923307
16	0xbe20bbc7	-0.15696631
17	0xbd91789f	-0.07103085
18	0xbd2f96bb	-0.042868357
19	0x3d93ba56	0.07213275
20	0xbd81d8c4	-0.06340173
21	0x3d27d2d1	0.040972535
22	0xbba540fa	-0.005043146
23	0xbdcfce3a	-0.101467565
24	0x3e0416b9	0.12899293
25	0xbd36e4cc	-0.04465179
26	0xbdfa9394	-0.122351795
27	0x3d8db73e	0.06919716
28	0x3cc42d7b	0.023947468
29	0x3d4dd78e	0.050254397
30	0x3d4cd86b	0.05001108
31	0x3d630dcb	0.055433076
32	0xbdbc9a29	-0.09209091
33	0x3dccee5c	0.10006401
34	0x3d8c1229	0.06839401
35	0xbd13a1a5	-0.036042828
36	0x3db1e7d7	0.08686798
37	0xbcc45256	-0.023965042
38	0xbb1e6783	-0.0024170585
39	0xbe0fd0fc	-0.14044565
40	0x3c8655fe	0.016398426
41	0x3df36717	0.11884897
42	0x3d3a034a	0.045413293
43	0x3d1221b9	0.03567669
44	0x3d6cd3ae	0.05781906
45	0xbb87c33f	-0.004143148
46	0xbd8e28b6	-0.06941359
47	0x3d30b8a0	0.043144822
48	0xbcea5b62	-0.028608028
49	0xbdb42a90	-0.08797181
50	0x3cb1bec9	0.021697419
51	0x3d6333a0	0.055469155
52	0xbe230cde	-0.15922877
53	0xbdc5fbc4	-0.09667161
54	0xbde8e57e	-0.11371897
55	0x3d028523	0.03186525
56	0xbcfd7722	-0.030940596
57	0x3dc7bc77	0.09752744
58	0xbd109581	-0.035298828
59	0xbd9d3d5b	-0.07677718
60	0xbd70bee3	-0.058775794
61	0x3d5932c7	0.05302694
62	0x3d4d5d5d	0.050137866
63	0x3d39492b	0.045235794
64	0x3d07da15	0.033166964
65	0x3c837bc0	0.01605022
66	0x3c197625	0.009366547
67	0x3dbebadb	0.093129836
68	0xbcab1975	-0.020886162
69	0x3e36a8a6	0.17837772
70	0x3d89ae43	0.06722691
71	0xbd810964	-0.06300619
72	0xbdcc5e6f	-0.09978949
73	0x3cf17dea	0.029478986
74	0x3defe76d	0.11714063
75	0xbe6a781e	-0.22897384
76	0x3d521295	0.051287252
77	0xbd41b10f	-0.047287997
78	0xbdbecc49	-0.09316308
79	0x3c286970	0.0102790445
80	0xbb8dc79e	-0.0043267747
81	0x3d9dfa4a	0.077137545
82	0x3e3cc32a	0.18433824
83	0x3db66dff	0.08907699
84	0x3d5d2fd9	0.05400071
85	0xbda401f7	-0.08008187
86	0xbdb4b08f	-0.088227384
87	0xbdfcedf6	-0.12350075
88	0x3d718bcb	0.058971208
89	0x3dd18d60	0.10232043
90	0x3cf3407f	0.02969384
91	0x3cd2d653	0.025736963
92	0xbd36acbe	-0.044598334
93	0x3c47a62d	0.0121856155
94	0xbe45ea85	-0.19327743
95	0x3cacc526	0.021090101
96	0x3db44fd0	0.088042855
97	0xbd3f889b	-0.046761137
98	0xbdcf8021	-0.101318605
99	0xbcfb4be6	-0.03067584
100	0x3dfd05ed	0.12354646
101	0x3d21acfa	0.039471604
102	0x3d92fa74	0.071766764
103	0xbd9b7f46	-0.07592635
104	0xbd12e7cc	-0.03586559
105	0xbd1c39b5	-0.03814097
106	0xbd7e26be	-0.062048666
107	0xbd93b5e5	-0.07212428
108	0x3baf0536	0.0053411974
109	0x3da0b94f	0.07847845
110	0x3d19324a	0.037401475
111	0x3ddc3b92	0.1075355
112	0xbe068f15	-0.13140519
113	0x3e69f0ca	0.2284576
114	0x3e0103e8	0.12599146
115	0xbd9c30b0	-0.07626474
116	0xbd402d21	-0.04691804
117	0xbd2e2a9d	-0.042521108
118	0xbd11bdd8	-0.03558144
119	0xbdcbd618	-0.099529445
120	0xbcefa415	-0.029253045
121	0x3dc1a579	0.094553895
122	0xbcc7c8f8	-0.024387822
123	0xbbf88571	-0.007584267
124	0xbca27640	-0.019831777
125	0x3d80db69	0.06291849
126	0xbd0ed884	-0.034874454
127	0x3993cb57	0.00028189525
128	0x3d28a39a	0.041171648
129	0x3bd42671	0.006474309
130	0xbcbe556f	-0.023234097
131	0xbd999e5b	-0.07500907
132	0x3ccdedfc	0.025137894
133	0xbcdc2d16	-0.026876967
134	0x3bc84bc0	0.0061125457
135	0xbe87b396	-0.265042
136	0xbd904468	-0.070442975
137	0xbe0fac68	-0.14030612
138	0x3dce2924	0.10066441
139	0xbd938be6	-0.07204418
140	0x3d254c72	0.040356107
141	0x3c8dcdf4	0.01731012
142	0xbdd720d6	-0.1050431
143	0xbe19c735	-0.15017398
144	0xbe353135	-0.17694552
145	0x3cf8dc11	0.030378373
146	0x3e10a638	0.14125907
147	0x3d504363	0.050845515
148	0xbca6f061	-0.020378293
149	0xbe065ebd	-0.13122077
150	0x3c070293	0.00824036
151	0xbbaf9788	-0.00535864
152	0xbe5de6aa	-0.21670023
153	0xbdc03cd6	-0.093866035
154	0xbc9b1da1	-0.018935027
155	0xbc41abad	-0.011820716
156	0xbdb6159d	-0.08890841
157	0x3cbf0a64	0.023320384
158	0x3c518780	0.012788653
159	0xbd33df93	-0.04391439
160	0xbe0eb7ea	-0.13937345
161	0xbdf5d006	-0.12002568
162	0xbd3de597	-0.046361532
163	0xbe0fafec	-0.14031953
164	0x3cc20bac	0.023687206
165	0x3d59fce8	0.053219706
166	0x3ca9a46b	0.020708283
167	0xbddd73f7	-0.10813134
168	0x3d3c726a	0.04600755
169	0x3d1d09f0	0.038339555
170	0xbd4caea5	-0.04997124
171	0xbd75f68d	-0.060049582
172	0x3dce6cac	0.10079321
173	0xbac69dc7	-0.0015153222
174	0xbd33125e	-0.04371869
175	0x3e038d7e	0.12846944
176	0xbd4ee8de	-0.05051505
177	0x3d419293	0.047258925
178	0xbd89e4b5	-0.067330755
179	0xbcff0114	-0.031128444
180	0xbcc477b5	-0.023982862
181	0x3dfde84a	0.12397821
182	0xbc90fa8b	-0.017697593
183	0x3e179944	0.1480456
184	0xbe59c969	-0.21268238
185	0xbcebd0e5	-0.028786132
186	0xbe2461c1	-0.16052915
187	0xbdcbd51c	-0.09952757
188	0x3cc345d8	0.023837015
189	0x3d578b15	0.052622873
190	0x3d00fbe9	0.03149024
191	0xbd847cdd	-0.06469128
192	0xbd841b91	-0.064505704
193	0x3c9c6add	0.019093925
194	0xbe3cccea	-0.18437544
195	0xbc68f1e9	-0.014217832
196	0x3d13e09c	0.036102876
197	0x3d094e34	0.033521846
198	0xbe19e4db	-0.15028708
199	0xbbb4ee06	-0.0055215387
200	0xbc49036d	-0.012268883
201	0x3de19bb1	0.11016024
202	0x3d9a6c13	0.07540145
203	0x3dbfaebb	0.09359499
204	0x3ce7ec82	0.028311018
205	0xbe030f88	-0.12798893
206	0xbdbe2d4c	-0.092859834
207	0xbce2a7a7	-0.027667833
208	0x3d55ccb7	0.052197184
209	0xbd9fad70	-0.077967525
210	0x3de94e09	0.11391837
211	0xbc4949f9	-0.012285703
212	0xbd36ed72	-0.04466004
213	0x3d95f35b	0.07321807
214	0x3ddcac71	0.10775078
215	0xbd72b90f	-0.059258517
216	0x3df7ddbb	0.121028386
217	0xbd9c45c4	-0.07630494
218	0x3d406633	0.046972465
219	0x3db87c8f	0.09008133
220	0x3d60e4e8	0.054905802
221	0xbd5869c5	-0.052835245
222	0x3db837a2	0.08994986
223	0xbce0fafa	-0.027463425
224	0xbd0bd811	-0.034141604
225	0xbd9f2431	-0.07770575
226	0xbd701a22	-0.058618672
227	0x3d510916	0.051034056
228	0x3d972fe6	0.07382183
229	0xbd985cf0	-0.074396014
230	0x3d09b90e	0.033623748
231	0xbc843e22	-0.016142908
232	0x3d82e502	0.06391336
233	0x3e4f5f01	0.20251085
234	0xbd8d7b17	-0.06908243
235	0xbcb7d3b7	-0.02243982
236	0x3d77006f	0.060303148
237	0xbd101123	-0.035172593
238	0xbc58f864	-0.013242815
239	0xbbff84e3	-0.0077978238
240	0xbcd89abe	-0.026440974
241	0xbda01707	-0.07816892
242	0x3e2f447c	0.17115968
243	0xbcf5cdcf	-0.030005364
244	0xbe132349	-0.14368929
245	0x3cfce2a1	0.030869784
246	0x3e2a36a8	0.16622412
247	0x3dcc239e	0.09967731
248	0x3d7a896b	0.06116621
249	0xbd99cae3	-0.07509401
250	0x3dd06e4c	0.101772875
251	0xbc4ab083	-0.012371185
252	0x3d84c290	0.06482422
253	0x3d5d78b3	0.054070186
254	0xbd01c07d	-0.03167771
255	0x3e03cc95	0.1287101

network_body._body_endoder.seq_layers.2.bias f4 [256]
0	0x3c5d4143	0.013504329
1	0xbc043395	-0.008068939
2	0x3d422223	0.047395837
3	0xbcb1eba6	-0.021718811
4	0x3bc6a19f	0.006061747
5	0xbcdb5849	-0.026775496
6	0x3c9effb0	0.01940903
7	0x3d389a0a	0.045068778
8	0x3b2b6a29	0.0026155806
9	0x3bffa578	0.007801708
10	0xbd15af0c	-0.03654389
11	0x3d13b670	0.036062658
12	0xbc3d6ff1	-0.011562333
13	0x3cf79903	0.030224329
14	0x3b21279e	0.0024590264
15	0x3a18a412	0.0005822788
16	0xbc277608	-0.010221012
17	0x3cf4d3b6	0.029886108
18	0xbcdb3cb8	-0.026762351
19	0xba116cb7	-0.0005547511
20	0xbcaf2a82	-0.021382574
21	0x3d8ab7d8	0.06773347
22	0xbc970ca7	-0.01843865
23	0x3d12bdb9	0.035825465
24	0x3ce3a56a	0.027788837
25	0x3c416644	0.011804167
26	0x3c64aa81	0.013956667
27	0xbbc9b339	-0.006155398
28	0xbd069a60	-0.032862067
29	0x3c027848	0.007963248
30	0x3b94079d	0.004517509
31	0x3d1eb645	0.038748045
32	0x3d52bd0f	0.05144983
33	0xbb6ff66c	-0.0036615385
34	0x3ccfe28d	0.025376583
35	0xbd41fccd	-0.04736023
36	0x3d868aac	0.06569418
37	0xbb721f4f	-0.003694493
38	0x3c852917	0.016254945
39	0xbd281b25	-0.041041512
40	0xbce75756	-0.028239887
41	0x3bfb7c65	0.007674741
42	0x3c852615	0.01625351
43	0xbc631f11	-0.013862387
44	0xbc2cc72b	-0.010545532
45	0x3ccd9154	0.025093712
46	0xbd0d9f4b	-0.03457574
47	0xbbabe165	-0.005245375
48	0xbd024d0f	-0.03181177
49	0x3c82303f	0.015892146
50	0xbc7059fd	-0.014669892
51	0xbc0bd948	-0.008535691
52	0xbd01ff2f	-0.031737503
53	0xbd41e7e2	-0.04734028
54	0x3cbdf4c3	0.023188
55	0x3c859b63	0.016309446
56	0xbc8ea3eb	-0.017412147
57	0x3c68e2e2	0.014214249
58	0x3c84217d	0.01612925
59	0x3aed1f8d	0.0018091068
60	0xbcc4ca1c	-0.024022155
61	0xbd22928f	-0.03969055
62	0x3bf454c1	0.0074563925
63	0x3d0611f6	0.032731973
64	0x3d61826c	0.05505602
65	0x3c5009fb	0.012697692
66	0xbb45d479	-0.0030186458
67	0x3a5f9e94	0.0008530405
68	0x3d68d9b6	0.05684825
69	0xbc15df67	-0.009147502
70	0x3cdacf7b	0.026710263
71	0xbc45470a	-0.012040863
72	0x3d520735	0.051276404
73	0x3a52b67b	0.0008038056
74	0xbbe6772b	-0.007033249
75	0x3b90198d	0.004397577
76	0xbcc09ba4	-0.023511715
77	0x3bdfb452	0.006826916
78	0x3be4c2ca	0.0069812285
79	0x3b39baa8	0.0028340016
80	0xbcb8956d	-0.02253219
81	0xbc396730	-0.011316106
82	0xbd3e2c98	-0.046429247
83	0x3cf231ba	0.029564727
84	0x3da824a6	0.08210115
85	0xbcc44c6c	-0.023962222
86	0x3d3e9ad5	0.046534378
87	0x3ca62913	0.020283258
88	0x3d234c38	0.03986761
89	0x3bc23a34	0.0059273485
90	0x3d384ae5	0.0449933
91	0xbc53d476	-0.012929073
92	0x3ca3edae	0.020010795
93	0xbc50acc2	-0.012736501
94	0x3b91854f	0.0044409405
95	0x3c1a6d6a	0.0094255
96	0x3bd23015	0.006414423
97	0xbc0b0a6f	-0.008486374
98	0xbbbebcb2	-0.005820834
99	0x3ac41518	0.00149599
100	0x3c330c9a	0.010928297
101	0x3d0c2fc6	0.034225248
102	0xbbb673e9	-0.005568017
103	0xbc25fcf5	-0.01013111
104	0xbc0f69ab	-0.008753221
105	0xbc8fc315	-0.017549077
106	0xbcd19d13	-0.025587594
107	0xbd0acb05	-0.03388502
108	0xbd2ee8ea	-0.042702593
109	0xbce2b554	-0.027674355
110	0xbcec7bbb	-0.028867593
111	0x3d2278ec	0.0396661
112	0x3c1fcdb2	0.009753631
113	0xbd433a19	-0.047662828
114	0xbd0465a1	-0.032323483
115	0x3b20026d	0.0024415508
116	0x3cea9a65	0.028638074
117	0xbcd9a24f	-0.026566653
118	0x3cbf15d9	0.023325847
119	0xbd81eca9	-0.063439675
120	0x3cbb3586	0.02285267
121	0x3c8ed6ad	0.01743635
122	0x3c5efa45	0.013609474
123	0x3c821d51	0.01588312
124	0x3ca98380	0.020692587
125	0x3ca14417	0.019685788
126	0xbc83c8e0	-0.016086996
127	0xbc9d4c17	-0.019201322
128	0xbd0db6f7	-0.034598317
129	0x3d569058	0.05238375
130	0xbcb86989	-0.02251126
131	0xbc335fff	-0.01094818
132	0xbae23e28	-0.0017260956
133	0x3ca3e818	0.020008132
134	0x3cad382f	0.021144954
135	0x3cca4be1	0.024694385
136	0xbc4e6510	-0.012597337
137	0xbc7b587a	-0.015340919
138	0xbb34de27	-0.0027598233
139	0xbd347487	-0.04405644
140	0x3b82a427	0.0039868536
141	0xbd197c87	-0.037472274
142	0xbca2d5d1	-0.019877346
143	0xbc8b6bde	-0.017019209
144	0xbcdb15e8	-0.026743844
145	0x3c253293	0.010082859
146	0xbc8b8e91	-0.017035754
147	0x3be54d25	0.0069977217
148	0xbcb19e77	-0.021682007
149	0x3c4d429d	0.012528089
150	0xbc2a09b7	-0.010378293
151	0xbb2316cb	-0.0024885412
152	0x3d42929a	0.04750309
153	0x3bd7e37c	0.0065883975
154	0x3c54b29b	0.012982036
155	0x3ba560da	0.005046946
156	0xbc859b1b	-0.016309312
157	0x3bb145d8	0.0054099374
158	0xbd3f05a0	-0.046636224
159	0xbcc92cc4	-0.024557479
160	0x3d3900a8	0.04516664
161	0xbc68764d	-0.014188361
162	0x3ca2bbdd	0.01986497
163	0xbd221b3b	-0.03957675
164	0xbd733e96	-0.05938586
165	0xbd0f141e	-0.034931295
166	0x3d208a8c	0.03919463
167	0x3d84512f	0.06460797
168	0xbbd78432	-0.006577038
169	0xbd0655bc	-0.032796606
170	0x3d35c6f7	0.0443792
171	0x3b7c6847	0.0038514303
172	0x3d12a25f	0.03579938
173	0xbcb5e7cc	-0.022205256
174	0x3ca4255a	0.020037342
175	0x3be95767	0.007121015
176	0x3d879558	0.06620282
177	0xbcec6c02	-0.028860096
178	0xbd039f07	-0.032134082
179	0xbd77e1da	-0.060518123
180	0x3bd460c0	0.00648126
181	0x3d3362be	0.04379534
182	0xb90ca814	-0.00013414054
183	0x3aea8134	0.0017891289
184	0xbba72ae2	-0.0051015476
185	0x3bf70332	0.0075382227
186	0xbd0c9e81	-0.03433085
187	0x3d8638df	0.06553816
188	0xbc33aa58	-0.010965906
189	0xbc94b375	-0.018151978
190	0x3d2c0e57	0.042005863
191	0xbca93390	-0.02065447
192	0xbc09684d	-0.008386684
193	0x3d2edca6	0.042690895
194	0x3baa8fb9	0.0052051214
195	0x3b242e3d	0.0025051974
196	0xbaa29590	-0.0012404192
197	0x3c07e847	0.008295125
198	0xbceef02f	-0.029167263
199	0xbcf18e30	-0.029486746
200	0xbd6ea7c9	-0.05826548
201	0xbc7efde6	-0.015563464
202	0xbbc8dbf7	-0.0061297375
203	0x3d77730a	0.060412444
204	0xbb8eaace	-0.0043538576
205	0x3bfcba75	0.007712657
206	0xbd8ef438	-0.06980175
207	0xbcbb99d4	-0.0229005
208	0xbc9dbf27	-0.019256188
209	0xbc28e19c	-0.010307696
210	0x3c8ed0c5	0.017433533
211	0x3c2252aa	0.009907404
212	0xbb56f6b3	-0.0032800853
213	0x3ccb26c3	0.024798756
214	0xbb0600d1	-0.0020447264
215	0x3d8462a5	0.064641275
216	0x3ca3c1cd	0.019989872
217	0x3c1c19f0	0.009527668
218	0x3bbf53e8	0.00583886
219	0xbcb5cca6	-0.02219231
220	0x3d3334e8	0.043751627
221	0xbd025f8b	-0.031829398
222	0x3be3c167	0.0069505456
223	0xbcccc344	-0.024995454
224	0x3d2f4870	0.04279369
225	0xbc7e0537	-0.015504173
226	0xbb817713	-0.0039509623
227	0x3c39f20d	0.011349213
228	0xbc2a400e	-0.010391248
229	0xbb0ddaf8	-0.0021645408
230	0x3ce08311	0.027406247
231	0x3cd4e3d8	0.02598755
232	0xbc4ff953	-0.012693721
233	0xbc3aea00	-0.011408329
234	0x3cb8a1b6	0.022538047
235	0x3c8c19e3	0.017102187
236	0x3bf930fb	0.007604716
237	0x3cfc99c6	0.030835044
238	0x3d2b21a7	0.04178014
239	0x3cfb4ac8	0.030675307
240	0xbd1da51d	-0.038487542
241	0xbc41174a	-0.011785338
242	0xbd64a37f	-0.055819985
243	0x3c9101d7	0.017701073
244	0xbd14a5c5	-0.036290903
245	0x3d80e548	0.06293732
246	0x3ce2a3e3	0.027666038
247	0x3d032d20	0.032025456
248	0xbc8877c2	-0.016658667
249	0xbc597c0e	-0.013274206
250	0x3d13a142	0.03604246
251	0xbb56f99a	-0.0032802583
252	0x3c4c7e7d	0.012481329
253	0xbd5f3a5d	-0.05449902
254	0x3c3daef8	0.01157736
255	0x3cfcd444	0.030862935

action_model._continuous_distribution.log_sigma f4 [1, 12]
0	0xbfd024c0	-1.6261215
1	0xbfe9a476	-1.8253314
2	0xbfe48577	-1.785323
3	0xbfe9087a	-1.8205712
4	0xbfd3d8dc	-1.6550555
5	0xbfe18d79	-1.7621299
6	0xbfddaa5a	-1.7317612
7	0xbfe7f7f2	-1.8122542
8	0xbfe30461	-1.7735711
9	0xbfe1a323	-1.762791
10	0xbfeafc7d	-1.8358303
11	0xbfdb45b5	-1.7130648

action_model._continuous_distribution.mu.weight f4 [12, 256]
0	0xbd64c31d	-0.055850137
1	0x3d4e54c3	0.050373804
2	0xbc78b0aa	-0.015178839
3	0xbc8805a2	-0.016604248
4	0xbd27323d	-0.040819395
5	0x3d3c70bc	0.04600595
6	0x3da5f097	0.081025295
7	0x3d684fdf	0.056716796
8	0x3d1386a4	0.036017075
9	0x3c2f158c	0.0106862895
10	0x3d14cfd9	0.03633103
11	0xbda60d94	-0.081080586
12	0x3b197ff5	0.0023422216
13	0x3dc7b68a	0.097516134
14	0xbc83eb16	-0.016103309
15	0xbe195410	-0.14973474
16	0xbd5ddfe5	-0.0541686
17	0xbd4b48db	-0.049630027
18	0xbe0fa5cd	-0.14028092
19	0xbdb09bdb	-0.08623477
20	0x3d963a3e	0.073353276
21	0xbb3f7676	-0.0029214895
22	0xbd3434ad	-0.043995548
23	0xbd6053c2	-0.054767378
24	0xbe4b6bdc	-0.19865364
25	0xbe0a4223	-0.13501792
26	0x3db50af9	0.088399835
27	0x3d8313bd	0.06400249
28	0xbceb7edf	-0.02874702
29	0xbdb55fc7	-0.08856159
30	0x3d954a45	0.072895564
31	0xbc842b63	-0.01613397
32	0x3d52a3a4	0.05142559
33	0xbdb8309e	-0.08993648
34	0x3cefe67b	0.029284706
35	0xbc131c7b	-0.008978958
36	0xbcb15fb5	-0.021652082
37	0xbb828c80	-0.003984034
38	0x3ca11555	0.019663492
39	0xbd2fcb06	-0.042918228
40	0xbcb50ab5	-0.022099832
41	0xbc350e98	-0.011050843
42	0x3be1f8ff	0.0068961377
43	0xbd47dc79	-0.048794243
44	0x3a0cb18d	0.00053670333
45	0x3d16bfc3	0.036803972
46	0xbd639c19	-0.05556879
47	0x3d033b20	0.032038808
48	0xbd427a92	-0.047480173
49	0x3d9d2062	0.07672192
50	0x38a84aed	8.02482e-05
51	0xbd4b0aa5	-0.0495707
52	0xbca9a9a9	-0.020710783
53	0x3c31e95c	0.01085886
54	0xbd8a3912	-0.067491665
55	0xbd24edf5	-0.040265996
56	0xbd52df4d	-0.051482487
57	0x3cec1e35	0.028822998
58	0xbdacd500	-0.08439064
59	0x3e0ab2fb	0.13544838
60	0xbdd9dd5a	-0.106379226
61	0x3d877990	0.06614983
62	0x3c8aa1ac	0.016922794
63	0x3e176f17	0.14788471
64	0xbcd71371	-0.026254388
65	0xbd42cfc1	-0.04756141
66	0x3d10dd4e	0.035367303
67	0xbc931f7f	-0.017959354
68	0x3d1a9569	0.037740145
69	0x3a95226a	0.0011378054
70	0xbd5f7861	-0.05455816
71	0x3d400456	0.046879135
72	0xbc580aff	-0.013186215
73	0x3d87d7fc	0.066329926
74	0xbdc9bb09	-0.09850127
75	0x3d5bceba	0.053663947
76	0x3ca349cf	0.019932656
77	0x3d28da9d	0.04122411
78	0x3d82b5d9	0.06382341
79	0xbd399576	-0.045308553
80	0xbe18f501	-0.14937212
81	0x3e0e1bf6	0.13877854
82	0xb925fa7a	-0.00015828936
83	0x3c685a62	0.014181705
84	0xbd391361	-0.045184497
85	0x3cfd9818	0.030956313
86	0xbcaf6eec	-0.021415196
87	0xbda9a57b	-0.08283516
88	0xbd9e0bd9	-0.077171035
89	0xbd8df9f8	-0.069324434
90	0x3ce4aadd	0.027913505
91	0xbd4659b8	-0.048425406
92	0x3b883d17	0.004157673
93	0x3aab1f24	0.0013055545
94	0x3d74a8f7	0.05973145
95	0x3d8f93d9	0.070106216
96	0x3caa0ed8	0.020759031
97	0x3d201d0a	0.039090194
98	0xbd743dbe	-0.059629194
99	0xbcace82f	-0.021106808
100	0xbdb0f768	-0.08640939
101	0xbcaaf413	-0.020868337
102	0xbc045eb9	-0.008079224
103	0xbda098cf	-0.07841646
104	0x3d8d208c	0.068909734
105	0x3e497e46	0.19677076
106	0x3c4a9fde	0.012367217
107	0xbd832f6d	-0.0640553
108	0x3d3914ba	0.045185782
109	0x3cc5b87c	0.02413582
110	0x3ac0f0b2	0.001472017
111	0xbd31dcc3	-0.043423425
112	0xbaf3b0c8	-0.0018592114
113	0x3dffbd13	0.12487235
114	0xbdace7fd	-0.08442686
115	0x3d289ebc	0.041167006
116	0x3cb572bc	0.022149436
117	0x3c6ba374	0.014382232
118	0xbd4b2c24	-0.049602643
119	0x3d40c22e	0.047060184
120	0xbd8a570e	-0.067548856
121	0x3d8040a5	0.0626233
122	0xbcf7a06f	-0.030227868
123	0xbc774c48	-0.01509387
124	0x3cf28a1d	0.029606873
125	0xbdd1b03b	-0.102386914
126	0x3dbf9120	0.09353852
127	0xbdd8250b	-0.105539404
128	0xbd4cb162	-0.049973853
129	0xbd6b5c37	-0.05746099
130	0xbc239360	-0.009983867
131	0x3d7119de	0.05886256
132	0x3d3c7e9e	0.04601919
133	0xbd1b047b	-0.03784607
134	0xbbfd3c69	-0.0077281487
135	0x3de774c3	0.113015674
136	0xbdc101cd	-0.094241716
137	0xbd7ea277	-0.062166657
138	0x3dc00b81	0.09377194
139	0xbd03492f	-0.032052215
140	0xbd6865a3	-0.056737553
141	0x3d18ce46	0.037306093
142	0x3cf50a2a	0.029912073
143	0xbcddbd6d	-0.027067864
144	0x3df329e9	0.11873228
145	0x3e52c6ab	0.20583598
146	0xbd124c0a	-0.035717048
147	0xbdcb62dc	-0.09930965
148	0x3ce07702	0.027400497
149	0xbd647116	-0.05577191
150	0xbdfbd0b4	-0.12295666
151	0xbd6ffe93	-0.05859239
152	0xbd2ec903	-0.04267217
153	0x3dfecc41	0.12441302
154	0xbac31da4	-0.0014886153
155	0xbd8c8010	-0.068603635
156	0x3c916ed6	0.017753046
157	0xbd88fa95	-0.0668842
158	0x3b3f5381	0.002919406
159	0xbd33eba8	-0.04392591
160	0xbd65c1ba	-0.056092955
161	0xbcecd856	-0.02891175
162	0xbdb84ad3	-0.089986466
163	0x3c9c6195	0.0190895
164	0x3d8f7c03	0.07006075
165	0xbd5854ba	-0.052815177
166	0xbd157cc4	-0.03649594
167	0xbdf09a76	-0.11748211
168	0xbd78961f	-0.06069004
169	0xbc897f35	-0.01678429
170	0x3c36b699	0.011151933
171	0xbd141317	-0.036151018
172	0x3d7af97d	0.061273087
173	0x3c9f7bfe	0.019468304
174	0xbc4b0975	-0.012392391
175	0xbaaba3ea	-0.0013095115
176	0x3d0accb3	0.033886623
177	0x3d4d9ee7	0.05020037
178	0x3d9e1a27	0.07719832
179	0xbd6c0b5a	-0.057628013
180	0x3cfdacd0	0.030966192
181	0x3cb0dcbd	0.021589631
182	0xbd005609	-0.03133205
183	0xbd1d30dc	-0.038376674
184	0xbc7cbc26	-0.015425717
185	0x3c6d9ea9	0.01450316
186	0xbd675861	-0.05648077
187	0xbc882e39	-0.016623603
188	0x3d123b43	0.035701048
189	0xbbae0dde	-0.0053117117
190	0xbdd95c29	-0.10613281
191	0xbc6a7a7f	-0.014311432
192	0x3c6beede	0.014400212
193	0x3ce2e411	0.027696641
194	0xbdc6c7c6	-0.097060725
195	0xbdef42e2	-0.11682679
196	0x3dcd1724	0.10014179
197	0xbcef795c	-0.029232673
198	0xbd656957	-0.056008663
199	0x3d61bef3	0.055113744
200	0x3d0ba5b4	0.034093574
201	0x3c3840a8	0.011245884
202	0x3dca0fd0	0.09866297
203	0xbdcd8286	-0.10034661
204	0xbd1530bf	-0.03642344
205	0x3dd5eb13	0.104452275
206	0x3d88d794	0.06681743
207	0x3ca316ed	0.019908393
208	0x3d4428fa	0.04789064
209	0x3d571fe6	0.052520655
210	0xbda8acbf	-0.08236074
211	0x3c99191a	0.018688727
212	0x3d370f6b	0.044692438
213	0xbd4f3f8a	-0.050597705
214	0xbcad2e2e	-0.021140184
215	0xbdbd32c3	-0.09238198
216	0x3d97768b	0.07395657
217	0x3d097882	0.03356219
218	0x3d7f79fa	0.062372185
219	0x3db552ee	0.08853708
220	0xbda83185	-0.0821257
221	0x3d4712c7	0.04860189
222	0x3cd2dc57	0.025739832
223	0x3d683d38	0.056699008
224	0x3d52cce5	0.051464934
225	0x3cf01ef9	0.029311644
226	0xbd0acf84	-0.03388931
227	0xbdc7c86a	-0.09755023
228	0xbd5a65f4	-0.053319886
229	0xbd5b750a	-0.053578414
230	0x3d0410cc	0.03224258
231	0xbd92caf0	-0.071676135
232	0xbc81f4e7	-0.015863849
233	0x3dd99c83	0.10625555
234	0xbc9d1196	-0.019173425
235	0xba124fe4	-0.00055813626
236	0x3d35377e	0.044242375
237	0xbdd5bfc8	-0.1043697
238	0xbb474172	-0.0030403999
239	0xbda2b316	-0.07944314
240	0x3dc93854	0.09825197
241	0xbb2912e4	-0.0025798613
242	0x3d0cd3db	0.03438173
243	0x3d2232ca	0.039599217
244	0xbdfc3fee	-0.12316881
245	0xbdbf5d9e	-0.09344028
246	0x3d07e8d3	0.033181023
247	0x3d5200e8	0.051270396
248	0xbd7e885d	-0.062141765
249	0xbb35a475	-0.0027716432
250	0xbc2f86a5	-0.010713254
251	0xbd6c98a7	-0.057762768
252	0xbd02c459	-0.031925533
253	0x3d15a0d5	0.036530335
254	0xbdda4c35	-0.106590666
255	0x3de528f2	0.1118945

action_model._continuous_distribution.mu.bias f4 [12]
0	0xbc56b54b	-0.013104747
1	0x3c337059	0.010952079
2	0x3cb772f7	0.022393687
3	0xbd4e36aa	-0.0503451
4	0x3b9719ab	0.004611214
5	0xbc9926ec	-0.018695317
6	0x3d1ca148	0.038239747
7	0x3c8d12cc	0.017220877
8	0xbd85a60d	-0.06525812
9	0x3891063d	6.915301e-05
10	0xbd9472d5	-0.07248465
11	0xbd704d9d	-0.058667768

onnx::Div_51 f4 [75]
0	0x4042d94b	3.0445125
1	0x40b6d589	5.7135663
2	0x40169b3a	2.3532243
3	0x40630598	3.5472164
4	0x407914ab	3.8918865
5	0x40769e28	3.853403
6	0x3e886c65	0.26645198
7	0x416ee206	14.9301815
8	0x42d531af	106.59704
9	0x4163081e	14.189482
10	0x3ed02d3f	0.4065952
11	0x3df3346e	0.118752345
12	0x3cd2ab3b	0.025716415
13	0x3e0f8775	0.14016517
14	0x3d000999	0.031259153
15	0x3dd55c80	0.104180336
16	0x3e32d0ab	0.17462413
17	0x3d661ea3	0.05618156
18	0x3df86c63	0.12130048
19	0x3deccb28	0.115621865
20	0x3e0e7fef	0.1391599
21	0x3e271336	0.16315922
22	0x3d29d0f6	0.041459046
23	0x3e044cc6	0.12919912
24	0x3d971def	0.07378756
25	0x3dee3518	0.116312206
26	0x3e63ea61	0.22257377
27	0x3e282010	0.16418481
28	0x3d770a16	0.060312353
29	0x3e1f2433	0.15541153
30	0x3d72314d	0.05912905
31	0x3e0bba2a	0.13645235
32	0x3e395f7e	0.18102834
33	0x3d766b86	0.060161136
34	0x3e2fa124	0.17151314
35	0x3e2f14c5	0.17097767
36	0x3e11b309	0.14228453
37	0x3e4e369b	0.20138018
38	0x3d8c3b75	0.06847278
39	0x3e102538	0.14076698
40	0x3dbe6cca	0.092980936
41	0x3e0a0ffa	0.13482657
42	0x3e830e5f	0.25596902
43	0x3e2617b1	0.16219975
44	0x3d1bbeeb	0.03802387
45	0x3e24f27f	0.1610813
46	0x3cfe3873	0.031032776
47	0x3ddeacaa	0.10872777
48	0x3e18ce12	0.1492236
49	0x3d70045e	0.058597915
50	0x3e312cf2	0.17302302
51	0x3e2a3ce0	0.16624784
52	0x3e1e6320	0.154675
53	0x3e156cd8	0.14592302
54	0x3d22fcae	0.039791755
55	0x3e114986	0.14188203
56	0x3dde39d9	0.10850877
57	0x3df1a25f	0.11798548
58	0x3e7a0545	0.24416073
59	0x3e126c56	0.1429914
60	0x3e22b568	0.15889513
61	0x3e2c71d5	0.16840298
62	0x3d2e9bc9	0.042629037
63	0x3e096029	0.13415588
64	0x3e5fb5bd	0.21846671
65	0x3ddd5124	0.10806492
66	0x3e4135f9	0.18868245
67	0x3e88a73f	0.266901
68	0x3e28e7f9	0.1649474
69	0x3e28c0ad	0.1647975
70	0x3dbf2f3d	0.09335182
71	0x3e1f41ac	0.15552396
72	0x3e2cb204	0.16864783
73	0x3e5c15db	0.21492712
74	0x3e836e22	0.25669962
