results/packaging_fix_test_24/RobotAgent/RobotAgent-9999988.onnx (onnx, 359274 bytes, 9 tensors)

network_body.observation_encoder.processors.0.normalizer.running_mean f4 [75]
00000000: 6414 1a3f 555c 40bf 18e6 0b40 e4d7 0b3f
00000010: 1403 983f 0dae 683f c5d8 4f3f 3063 3e42
00000020: f4ba 8fbf e898 a5be f61a df3f 025a cd3d
00000030: 9cce 10bc 3abd 063d 531c 7a3f 3287 573e
00000040: 1346 a1bd b7e5 d33b 4cf1 c63c f855 db3d
00000050: ac7e 273d 3e45 d3bc 4a12 763f 12a8 7b3e
00000060: a942 81bd 6274 89bc d632 643d 71a4 6a3d
00000070: f40b 62bc d4c1 cd3d 3404 773f 0e45 7a3e
00000080: acc8 edbd 97fd 853b 518b 1ebd 0eb6 8f3d
00000090: 14c2 d03d 0386 993b 3ea2 713f 0d43 8c3e
000000a0: 2d62 e0bc 53dd 89bd fb87 e5bc 4e98 b83d
000000b0: 8deb 3b3a 9f9e 7dbd 3b4b 773f adb5 683e
000000c0: e20e 423d 748b 153c 1c58 b63d ba8c 613d
000000d0: 0dc1 82bd 00cf 993d 9daa 743f 5324 953e
000000e0: 04f1 0dbd 5e86 513d bf57 09be af34 b8bd
000000f0: a80b b5bc de91 423c 311a 753f d8a8 9e3e
00000100: 8846 953d ca67 b23c d356 f8bd 6ad8 28be
00000110: c724 2d3c 0384 613c 3302 6b3f 2d23 963e
00000120: 527e df3d 1926 7e3c c8c2 b3bd
0.60187364 -0.7514089 2.1859188 0.546263 1.1875939 0.9089058 0.8119014 47.596863
-1.1228929 -0.3234322 1.7430103 0.10026933 -0.008838322 0.032895304 0.9769947 0.21047667
-0.07874694 0.006466593 0.024284981 0.107097566 0.040892288 -0.025789853 0.96121657 0.24575832
-0.063115425 -0.016779128 0.055712543 0.05728573 -0.013796795 0.100467354 0.9649079 0.24440405
-0.11610541 0.004089068 -0.03870708 0.07017146 0.101932675 0.004685165 0.94388187 0.27394906
-0.027390564 -0.06731667 -0.028018942 0.09013425 0.00071685837 -0.06191885 0.9659917 0.22725554
0.047377475 0.0091274865 0.08903524 0.055065848 -0.06384478 0.07510185 0.95572835 0.29129276
-0.03465368 0.051153533 -0.13412379 -0.089944236 -0.022100285 0.011875598 0.9574309 0.30988193
0.072888434 0.021778006 -0.121259354 -0.16488805 0.01056785 0.013764384 0.9180023 0.29323712
0.109127656 0.015512013 -0.08777386

network_body._body_endoder.seq_layers.0.weight f4 [256, 75]
00000000: 4107 00be d994 fa3d 8223 1bbb bc9e d5bd
00000010: f098 e4bb 572a 203d 8f70 cabc 226d 3ebc
00000020: 667e 62be 5a54 543e 77a5 563c 7f3d 25bc
00000030: ea1c 4e3d 74a3 b33e a80c f0bd 472f 683c
00000040: 71f6 043e a682 183d 363f ccbd 8a97 37bd
00000050: e786 c53d 672f 50be b68e 323e 681d 813e
00000060: 8b84 7e3c b058 913c b9f4 3b3d dd54 18be
00000070: d2c6 343e be6a 9abd 97a2 e03d 643c aabd
00000080: 5a11 d3bd 6d8b c4bc c309 61bd 7f67 353e
00000090: b205 1abe 1496 eb3d 58a1 95bc a73d a63d
000000a0: 5ec7 1a3e ee0b 253e d2fc 58bd d7e1 4abe
000000b0: cf74 babe bce8 f23d b8d1 8cbe 1539 4a3e
000000c0: 78a6 b33d 24cb 20bc c7c2 8fbd 1f92 543d
000000d0: 3fb0 23be 0922 a63e e39b eebc fe45 763d
000000e0: e7ed 23bc 13a7 b53b 913f 49be 607f 343d
000000f0: 3d2c 5a3d 279e 0a3e b1e2 2ebd 1118 033e
00000100: ebb0 d4bd 89f8 463e 07de e7bd 14d7 83bc
00000110: 3bd2 c43d 83ce 7fbc add9 bdbd e388 113d
00000120: 7a24 6c3d 5755 a53c 233b 2f3e c922 213d
00000130: f9cd d53c d416 23bc 6d0b 873e ecf2 94bd
00000140: 5328 86be 059a eb3c d206 b7bd f442 6e3e
00000150: 0733 993d 1847 1ebc bf5f d8bd 85e9 81be
00000160: 567e b93d 06c0 0ebe 69f1 1cbd 8a9e 3dbe
00000170: 7df3 e7bd 3dbb 7cbd c42a cebd 3c46 483e
00000180: d964 a2bd 37ae a9bd eadc 4ebe 0d42 48be
00000190: 5b35 58be 1307 41be cc5e abbd f027 84bd
000001a0: f225 933c 481a 1bbd 04ae fcbc 2414 483e
000001b0: fd01 23be 5a8e f03d 1d8c e33d 5379 093e
000001c0: e709 353d a06f 8b3d 801e 463d 036a 8fbd
000001d0: 360c 1abd b23b 463c 20f8 87be 3424 71bd
000001e0: b4f7 2fbd 3247 06be f6be 0dbe b017 943d
000001f0: e441 c0be a2f9 27be fa1d a1bd 23f0 0e3c
00000200: 4298 703d aa4f 393e 219a e13d d75b 0e3e
00000210: 25af ff3b 0e60 fabd f408 a03b 33da 743d
00000220: 73f9 07be 2d7b 95be 3cbb e03d 0726 7b3d
00000230: 60a0 53be ce53 25bc e6e6 353d b7d5 8fbc
00000240: d756 3cbe f1df 39be 5c46 c3bc f7e5 9f3d
00000250: 7301 4e3d fa61 a53e 5530 a6bc bce3 1c3e
00000260: 253a 93bc 68f7 cbb7 6d8b 77bb d6f4 6cbc
00000270: 87b6 f03d 2ef3 b63d 10ca c1bd 60c8 3b3e
00000280: e0eb 9f3d 2ce5 c13d 39d4 04be c460 da3d
00000290: b142 683e cb71 2cbd a707 d93d 9201 28be
000002a0: ddc8 eabd 3a91 c13d aa96 d83d 8c76 073e
000002b0: aec6 9c3e ad75 cbbd 62da dabd caba 80bd
000002c0: 45c4 56bd 8954 f03c 2b4f 843c b8d8 80bd
000002d0: cdb5 71bd 18b5 d23c 0067 36be 884f 99be
000002e0: 17ef 0b3d a715 3abe d6e7 37be e7a5 0abd
000002f0: f87a 32be d901 a6bc 5a1a 5ebd 5d91 9b3e
00000300: b6f4 843c 75ef 313e ea95 413e a5ec cfbd
00000310: efd6 e4bd f13a ef3d 3a23 773d 69c1 3bbd
00000320: e560 18be 25a5 28bd 4681 1bbd c22d 46be
00000330: 9900 763d 17e3 4cbe b2e0 20be 87b5 4e3d
00000340: e6ae 27bc 82da e33d 33f7 30bd 5c80 8e3d
00000350: 6b33 54bd 638e 62bd ab29 243c 63e0 353d
00000360: f1fb 35bd 35af 683d 9a80 c73d d048 c9bc
00000370: ea3e 0b3e 4327 59be d52b 223e 3a65 ca3d
00000380: 4d81 83be 99b2 08be 3def aabd fd9c 7a3d
00000390: 043e a6be 2172 c3bd 9238 e8bd cd37 1fbe
000003a0: 69e0 0dbe 4295 5bbe 1eb5 c63d fe05 d9bd
000003b0: f0b3 b6be ba1d 713d ec54 13be f1c3 0bbd
000003c0: b542 5e3e 4e03 d5bc 8f5f 1c3d 2954 30be
000003d0: 76d5 aabc 5bc8 813d 7a94 31bd 58b9 6c3d
000003e0: b21e eebd e1d9 9b3d 2335 61bd b519 b5bb
000003f0: 66e1 5fbe da4c e1bd 1e70 91bd 55cd 4abc
-0.12502767 0.12235422 -0.0023672287 -0.10430667 -0.0069762394 0.03910288 -0.024711875 -0.011622699
-0.2211853 0.20735303 0.013100973 -0.010085463 0.050320543 0.35085642 -0.11721164 0.014171428
0.12984635 0.03723397 -0.09972994 -0.044822253 0.09644871 -0.20330583 0.17437252 0.25217748
0.01553453 0.017742485 0.045887683 -0.14876123 0.17653969 -0.07539891 0.109685116 -0.083123
-0.10306044 -0.023992265 -0.05494095 0.17715262 -0.15041235 0.115032345 -0.018265411 0.08117228
0.15115115 0.16117832 -0.052975483 -0.19812714 -0.36417243 0.11860797 -0.27503753 0.19748338
0.08771986 -0.0098140575 -0.07019573 0.051897164 -0.15985201 0.32447842 -0.029127067 0.060125344
-0.010005451 0.0055435984 -0.19653155 0.044066787 0.053264845 0.13536893 -0.04269666 0.1280215
-0.10385307 0.19430746 -0.11321645 -0.016093768 0.09610411 -0.015613201 -0.09270034 0.035530936
0.057651974 0.020182295 0.17112403 0.039339814 0.026099192 -0.009954173 0.26375905 -0.07272896
-0.2620264 0.028759966 -0.08936848 0.23267728 0.07480436 -0.009660505 -0.10565137 -0.25373474
0.090573 -0.13940439 -0.038316164 -0.18517509 -0.113257386 -0.061702 -0.10066751 0.19558042
-0.079293914 -0.08285182 -0.2020146 -0.19556446 -0.21114103 -0.18850355 -0.083676904 -0.0645293
0.01796243 -0.03786686 -0.030844696 0.19538933 -0.15918727 0.117459014 0.11110709 0.13425188
0.044198897 0.068084 0.04836893 -0.07002642 -0.0376093 0.012099193 -0.26556492 -0.058872417
-0.042960837 -0.13113096 -0.13842377 0.072310805 -0.3755027 -0.16403821 -0.07867046 0.008724245
0.058738954 0.18096796 0.11015726 0.13902222 0.0078028613 -0.12225352 0.00488388 0.059778403
-0.13278751 -0.29195538 0.10973212 0.061315563 -0.20666647 -0.010090781 0.044409655 -0.017557962
-0.18392502 -0.18151833 -0.02383726 0.07807534 0.05029435 0.32301313 -0.020286718 0.15321249
-0.017972061 -2.4314693e-05 -0.0037772313 -0.01446267 0.11753564 0.089331016 -0.094623685 0.18338156
0.078086615 0.09467539 -0.12971582 0.10662988 0.22681691 -0.04210071 0.10597163 -0.16406849
-0.11464093 0.09451528 0.10575612 0.13228816 0.3062033 -0.09934554 -0.106861845 -0.06285627
-0.05243327 0.029337185 0.016151031 -0.06291336 -0.05901127 0.025721118 -0.17812729 -0.2994349
0.03416356 -0.18172322 -0.17959532 -0.033849623 -0.17429721 -0.020264553 -0.05422435 0.3038434
0.016229969 0.17376502 0.18904844 -0.10152558 -0.11173808 0.11681164 0.06033633 -0.045838747
-0.14880712 -0.04117312 -0.03796508 -0.19353393 0.060059164 -0.20008503 -0.15710714 0.050466087
-0.01023457 0.111256614 -0.043204498 0.06958076 -0.05180685 -0.05531157 0.0100197 0.044403445
-0.044429723 0.056807715 0.09741326 -0.024570853 0.13598219 -0.21206383 0.15837033 0.09882589
-0.25684586 -0.1334938 -0.08346412 0.061184872 -0.3246919 -0.09543253 -0.11338915 -0.1554863
-0.13855137 -0.21443656 0.09702514 -0.10596846 -0.35684156 0.05886624 -0.14387864 -0.03412241
0.21705134 -0.026002552 0.03817707 -0.17219605 -0.02085374 0.06337043 -0.04335449 0.057793945
-0.116269484 0.076099165 -0.054982316 -0.005526746 -0.21863326 -0.110009864 -0.07101463 -0.0123780565

network_body._body_endoder.seq_layers.0.bias f4 [256]
00000000: 4ddf 28bc 49d5 453b 3db2 83bd e8a2 453d
00000010: 09c2 08bd 093d b73d c4fc 4abd dbe9 ec3c
00000020: 4d40 02bc 0d41 ab3d 9f82 aa3c 45f5 74bd
00000030: 6132 c43c 31cd ae3c d670 5b3d bc1f 083d
00000040: 263e 8c3b 7cf8 243b 7185 a4bb 546b fb3c
00000050: b8ea 8a3b 5674 033d fa8d 1dbc 9ba8 0cbb
00000060: 693b d1bb e218 d9bb 2dc0 7bbc 152f 923c
00000070: 352e 08bc 5db9 b13b a050 bebc 1bf8 b73c
00000080: ae78 5fbd a800 bfbd 82ef 5bbd fd76 4a3d
00000090: 536f 2a3b 96bf 8aba 9054 fe3c 25f6 1f3c
000000a0: c291 b43c d2a6 3fbd a747 4fbb b08e 1d3d
000000b0: 531c 113d 9d1d 373d f6ff 8abc da99 6c3c
000000c0: f5ce a23c 9d17 ff3c 47c7 18bc 3bd0 333c
000000d0: 9ee1 e0bc 45f6 5d3d 9a27 723d 8150 053d
000000e0: 0ba0 43bc 5d5a 3fbd dcd1 d4bc 0fae 3bbd
000000f0: 6bfb 30bd cbfc bf3d 64ce 30bb 3d46 93bd
00000100: 4d91 deba 171c 5a3d adae 46bd be21 0c3d
00000110: 161a ec3c 3e3c 8d3d af25 cb3c 99a2 a73b
00000120: 479f 333d c1a5 4b3d f05c ce3b bb2b 913d
00000130: d687 ab3d d237 82bc e2e0 ee3c 9cca 053d
00000140: a236 ad3d 8e04 a2bb 0a84 08bb 6c69 883c
00000150: 359a 6c3d cf1f 523d 765b 15bd bc9b 973d
00000160: 7bfa 8d3c 9630 cd3a 874e 79bc fe1b 1e3d
00000170: 286b 883a 43e3 65bd 8df1 2dbd a547 f73c
00000180: 3842 fc3a a0b5 56bd e049 953d bb7d 0b3d
00000190: 0b7f 7fbc b8d1 f53c 8c1c 96bd 39f4 e53c
000001a0: 99b5 19bd 3476 1f3d b9eb 023c 7fc0 163d
000001b0: 540b 8dbc 3438 653d 91bd 23bd 62b3 9cbd
000001c0: 8a0c f23c 9bb3 b7ba 340e c53c 56ee 843c
000001d0: dee1 89bb c80e f7bb 71d4 c9bb 6d3e 5e3d
000001e0: 39bb a03c 90dd d13b eb04 ca3c 4071 f0bc
000001f0: 7c46 e6ba 6f26 193d e30c 3a3c 0250 d33c
00000200: df7f 27bd 702c 43bd 7703 9b3d a918 4d3d
00000210: 3451 9ebd 1514 f43c e983 aa3c 5a48 5c3d
00000220: 8420 a83b aec8 bb3c d648 06bd 8d7c 993d
00000230: c141 45bd 2202 103d a3cf 133c 2b79 00bd
00000240: c765 0e3d 8a74 89bc e1d7 d0bb 3b60 f5bc
00000250: 0347 01bd e903 86bb 512a 583d c3b9 8e3c
00000260: aad5 383c 957f 8b3c 0572 433d 88d4 fd3c
00000270: 1095 97bb 2277 b3bc c7eb 933c 508d a5bc
00000280: 9bc5 973c 9f6b 803c 8cf7 103d 1850 153d
00000290: 8175 1139 26fb cd3c f373 c33c 4a3c 7b3b
000002a0: f58f 443d eb85 b2bb e67f 4bbd ea70 0fbd
000002b0: b587 2dbb d10f 763d 2223 f83c 5e70 723c
000002c0: 52a8 b03c 12da 273c 04c3 203c d8b0 893d
000002d0: 3d30 b6bc 4120 84bd 241d 2dbc 144f 1dbd
000002e0: 184d 303c 9350 22bd 166b 7d3b fad8 433c
000002f0: f4a3 b1b8 9d1e ee3c c666 a73d 78c1 813b
00000300: c396 3fbc 7ba7 ccbb 657d 8e3c 3754 083d
00000310: 64ff 65bc be47 853c 72b9 ce3c cf77 c7bc
00000320: 1ffe 6e3d 1676 e6bc 5ba9 353d eea1 2f3d
00000330: 608e 8abc d56a 923d 39da 883b f667 9e3d
00000340: ec30 9ebc c2a6 0b3d 4405 9c3d 7b02 0b3d
00000350: 608b 9e3b beb6 103d 352b 10bb 851e 63bd
00000360: b9d6 12bd e885 7f3d 6415 913d 37a1 2f3d
00000370: 5fd4 353c 011e da3b e23d 90bc 2d17 813d
00000380: 93d8 3a3d 8c4a 8fbc 617c 353d 4829 123d
00000390: c1d5 a1bc 2ad9 8cbd 3ca5 a73c 2b42 153d
000003a0: 966f f4bc 8f1f d8bc ccc8 34bb d242 1d3d
000003b0: ff69 f53c 8536 ae3c ad68 5abc 78f7 633d
000003c0: 9a36 e73b 9d14 713d 9bb1 a5bb b7ad 57bc
000003d0: 90d5 28bd 253a 0ebc a844 0a3d df80 d53b
000003e0: a2ba b13d ec6c 363d 516b cabb 69f0 58bc
000003f0: 5103 d6bc f038 2cbc 918c a93c 8e7a 413d
-0.010307145 0.0030186942 -0.06430481 0.048251063 -0.03338817 0.089471884 -0.049557462 0.028920105
-0.007949901 0.08362017 0.020814238 -0.05980422 0.023949804 0.021338077 0.053574406 0.03323339
0.0042798696 0.0025172522 -0.0050207903 0.030690826 0.0042394064 0.03209337 -0.009616369 -0.0021462801
-0.006385256 -0.0066252807 -0.0153656425 0.017844716 -0.008311798 0.0054237084 -0.023231804 0.022457173
-0.05455845 -0.09326297 -0.05369521 0.049429882 0.0026006296 -0.0010585662 0.031046182 0.009763275
0.022042159 -0.04678995 -0.0031628401 0.038466156 0.035427403 0.044705976 -0.016967755 0.014440978
0.019874075 0.03113919 -0.009324855 0.010974939 -0.027451333 0.05418994 0.0591198 0.032547478
-0.011940013 -0.046717037 -0.025978975 -0.045820292 -0.04320852 0.09374388 -0.0026978487 -0.07191131
-0.0016980559 0.053249445 -0.048506428 0.034211867 0.028821032 0.06896256 0.024798242 0.0051158187
0.04385307 0.049718622 0.0062977 0.07088419 0.08375518 -0.015895758 0.029159967 0.032663926
0.08457686 -0.0049443906 -0.0020830655 0.016651832 0.05776425 0.051299866 -0.036464177 0.07402751
0.017331352 0.0015654739 -0.015216476 0.038600914 0.0010407912 -0.056124937 -0.04246669 0.03018553
0.0019245809 -0.052419305 0.07289481 0.034055453 -0.015594254 0.030007228 -0.07329664 0.028070556
-0.0375267 0.038931087 0.007990771 0.036804672 -0.017217316 0.055961803 -0.039975706 -0.07651402
0.029546995 -0.0014015319 0.024054624 0.016226929 -0.0042078337 -0.007539604 -0.006159358 0.054258753
0.019620525 0.006404586 0.024660548 -0.029350877 -0.0017568613 0.03739017 0.0113556115 0.025794987
-0.04089343 -0.0476498 0.0756902 0.050072346 -0.07730332 0.029794732 0.020814853 0.053779937
0.0051308293 0.02292284 -0.032784306 0.07494459 -0.04815841 0.035158284 0.009021672 -0.031365555
0.03476503 -0.016779203 -0.006373391 -0.029953113 -0.031561863 -0.0040898216 0.05277473 0.017422562
0.01128141 0.01702861 0.04771616 0.030985132 -0.004625924 -0.021907393 0.018056763 -0.020208985
0.018526843 0.015676318 0.03539233 0.036453336 0.00013872051 0.025144171 0.023859 0.0038335496
0.04798885 -0.005448093 -0.04968252 -0.035019793 -0.0026478593 0.060073677 0.03029019 0.014797298
0.021564636 0.010244863 0.00981212 0.067231834 -0.022239799 -0.064514644 -0.01056603 -0.038405493
0.010760568 -0.039627623 0.0038668565 0.011953587 -8.470556e-05 0.029067332 0.08173899 0.003959831
-0.011693659 -0.006245551 0.017393777 0.03328344 -0.014037941 0.01626956 0.025234912 -0.024349121
0.058347818 -0.02813248 0.044350963 0.042879038 -0.016913593 0.07149283 0.004176405 0.07734673
-0.019310437 0.03409458 0.07618192 0.033937912 0.004838392 0.035330527 -0.002199841 -0.055449028
-0.035849307 0.062383562 0.07084158 0.042878356 0.0110979965 0.006656409 -0.017607633 0.063032486
0.045616698 -0.017491601 0.04430807 0.0356839 -0.019755246 -0.06877358 0.020464532 0.036440056
-0.029838365 -0.026382236 -0.0027585505 0.038393803 0.02995777 0.021266231 -0.013330621 0.055655926
0.0070560696 0.05885755 -0.0050565726 -0.013163975 -0.041219294 -0.008680855 0.033756882 0.006515607
0.086781755 0.04453747 -0.006177344 -0.013240912 -0.026124628 -0.010511622 0.02069691 0.047236018

network_body._body_endoder.seq_layers.2.weight f4 [256, 256]
00000000: b537 e6bc c754 cb3d d56e 2abe c66c 3abc
00000010: c7da 123d 556c 483d 59c6 793d 9f5d cb3b
00000020: 49f3 f53d 158f bdbd dac3 f4bc b105 183d
00000030: 72bd 243d daf6 a4ba 6f32 e23c f9ec 083d
00000040: 8247 1dbe d656 86bd eef6 1fbd 6165 a13d
00000050: 9a9f 6abd 24d0 293d 1b1a 84bb 48c9 dabd
00000060: 2e98 063e 9e09 53bd ab4f e6bd cf15 913d
00000070: 8055 083d 2b82 5e3d b9df 5f3d 02fc 3c3d
00000080: 622b a7bd 5230 c93d 4077 8e3d 3371 debc
00000090: 5ac8 ac3d 9331 efbc 752b 65bb ade9 15be
000000a0: a0ff 943c e493 fb3d 5068 213d f451 1a3d
000000b0: 7bbf 5b3d 416e d03b 404a 7dbd 9416 393d
000000c0: 7d9b 13bd 0173 c2bd b7e1 9e3c 4d36 5b3d
000000d0: 15af 27be 6aa2 c7bd c9bb f4bd 3770 e93c
000000e0: e59a 2bbd 3bee c73d dfb4 1bbd 68ce 93bd
000000f0: 3a0e 54bd 1a57 363d e3be 333d 59d6 3b3d
00000100: 2476 1b3d 4346 8b3c 0912 e73a ee3b c13d
00000110: 628b c2bc 620b 333e 4922 993d 4096 61bd
00000120: 5700 cabd 6e23 f83c 3872 f93d 24b0 5abe
00000130: 917f 773d 5018 68bd 50a8 b9bd f957 843c
00000140: d7d4 cdbb d77b 9e3d 1e71 3a3e 900e b03d
00000150: 9959 663d 43b7 a9bd 1bfc aabd 25d5 f7bd
00000160: 6f68 793d 1ffc cf3d 9c88 323d 9b4e 113d
00000170: e532 0cbd d348 443c f85e 48be 5387 593c
00000180: 13a1 a13d 8c0b 46bd 7d30 cebd 3c87 c2bc
00000190: d9e9 f63d 6861 203d a021 8b3d 055a a2bd
000001a0: 3ef6 05bd 1673 29bd 3233 88bd a632 9abd
000001b0: a95c 8b3c 56d3 a63d 0345 2a3d 3bac ca3d
000001c0: 7213 06be 16ef 673e e1d4 f33d fe33 87bd
000001d0: 72a7 24bd 1a9c 03bd 42ba 36bd 4ae6 c6bd
000001e0: f718 c7bc d517 ba3d 1464 d9bc 35b5 69bb
000001f0: 9c67 77bc 172d 723d ba88 c4bc 27f1 b03b
00000200: ecf6 003d 7521 f03b 463a bdbc 5fe7 9bbd
00000210: 2e3e b23c 90a2 b0bc 2c2d 2c3c 64ef 85be
00000220: 4a9c 8ebd 8a5d 0dbe 0238 da3d 0abf 89bd
00000230: 2bb9 0e3d b67a c23c c028 e2bd 50cb 11be
00000240: a3fd 34be 02d4 013d 1dec 123e dad4 683d
00000250: ea43 d7bc 8686 08be 4005 123c 43ec 46bc
00000260: c87c 5abe bfa4 aebd 0d06 e6bc fa40 d5bb
00000270: 1447 aebd 136b c33c a179 2b3c d756 37bd
00000280: 56ba 15be ba91 dbbd b0ce 05bd 1210 0ebe
00000290: 0b0a f23c f8dd 543d 1146 9f3c 568b d2bd
000002a0: eb7e 453d fdf7 093d 3d46 3fbd eb94 7abd
000002b0: 46b7 dc3d 89ab 55bb 3be8 13bd 1502 033e
000002c0: 2606 50bd 0126 3f3d 0417 88bd e007 08bd
000002d0: d9f8 46bc 8ecc 003e a702 55bc 0665 183e
000002e0: 8e01 54be b673 73bc 8b99 27be 7ad1 9fbd
000002f0: c074 8d3c 5e7f 413d 232b 303d 8691 7cbd
00000300: 9b1c 8abd 55a2 923c db41 2cbe 51f9 93bc
00000310: c14c 273d 87c1 2c3d 08a7 1bbe db54 fab6
00000320: 3454 72bc 75c2 ea3d 48e5 903d a4cd ba3d
00000330: de6d 083d ba7c 03be de59 bfbd 638f 74bc
00000340: 1dc5 4f3d 6bc4 aabd 0ff1 e53d ea2f 4ebc
00000350: 0b40 20bd 31e7 853d 1c05 de3d a97e 7dbd
00000360: a440 013e 7d0c 9abd 2f84 483d 8cad ae3d
00000370: e350 5d3d 8b06 66bd e1f6 b23d d995 00bd
00000380: 0880 0dbd 5b94 8fbd f246 58bd 824e 413d
00000390: d43e 923d 2d6c 9fbd e92f 023d 774a 28bc
000003a0: 051c 8c3d 3f91 5a3e e375 89bd 8268 b0bc
000003b0: 4743 7f3d c166 dfbc c05c 6fbc ebf8 4abc
000003c0: 4b96 0ebd b12a 91bd 1637 343e ee0b d4bc
000003d0: 6888 19be e2e4 b33c d00b 2a3e d4d3 cd3d
000003e0: 5fb4 553d 1313 86bd 48a6 bf3d 8fa9 38bc
000003f0: a3c4 8b3d eea5 4c3d 2623 02bd bee8 043e
-0.028102735 0.09928279 -0.16643842 -0.011378473 0.035853174 0.04893144 0.060980175 0.006206229
0.120092936 -0.09255806 -0.029878546 0.037114803 0.04021973 -0.0012585775 0.02761194 0.03342912
-0.1535931 -0.065595314 -0.03905385 0.078806646 -0.057281114 0.041458264 -0.0040314323 -0.106829226
0.1314399 -0.051522844 -0.11245664 0.07084238 0.033284664 0.054323357 0.054656718 0.04613877
-0.081625715 0.098236695 0.06956339 -0.027153587 0.084366515 -0.029198444 -0.003496853 -0.14639921
0.018188298 0.12284067 0.03940612 0.037675813 0.053649407 0.0063607995 -0.06183839 0.045187548
-0.036036957 -0.094945915 0.019394739 0.053518582 -0.16375382 -0.09747775 -0.1194988 0.028495891
-0.041895766 0.09762236 -0.03801429 -0.07217103 -0.05177138 0.04451666 0.043883216 0.045858715
0.037954465 0.017001277 0.0017629276 0.09435259 -0.023748104 0.17484811 0.074772425 -0.05507493
-0.09863346 0.030290332 0.121799886 -0.21356255 0.06042439 -0.05666381 -0.09065306 0.01615523
-0.006281476 0.07738464 0.18207213 0.085965276 0.05623779 -0.082869075 -0.083488666 -0.12101201
0.06089061 0.1015551 0.043587312 0.035475355 -0.034228224 0.011980253 -0.19567478 0.013276893
0.078920506 -0.048350856 -0.10067842 -0.023746125 0.12056322 0.039155394 0.06793523 -0.07927326
-0.032705538 -0.04136952 -0.0665039 -0.07529192 0.017011957 0.08145778 0.04156972 0.098961316
-0.13093355 0.22649798 0.11905838 -0.066017136 -0.04019875 -0.032131292 -0.044611223 -0.09711893
-0.024303896 0.09086577 -0.026536979 -0.0035660986 -0.015100386 0.059125032 -0.023990978 0.0053998413
0.031485483 0.007328207 -0.023099076 -0.0761249 0.021758165 -0.02156189 0.010508817 -0.26159203
-0.069634035 -0.13805214 0.10655214 -0.06725891 0.03484456 0.023740154 -0.11042929 -0.14237714
-0.1767488 0.031696327 0.14347883 0.056843616 -0.026277501 -0.13332567 0.0089123845 -0.01214129
-0.21336663 -0.085275166 -0.028079057 -0.00650799 -0.08509651 0.023854768 0.01046601 -0.04476055
-0.14621863 -0.107211545 -0.032667816 -0.13873318 0.029545804 0.0519695 0.01944259 -0.102804825
0.04821674 0.033683766 -0.046697844 -0.061177175 0.10777144 -0.0032603464 -0.036110144 0.12793763
-0.050787114 0.046667103 -0.06645015 -0.033210635 -0.012144291 0.12578031 -0.013001121 0.14882287
-0.20703718 -0.014859131 -0.16367166 -0.07803626 0.017267585 0.047240607 0.04300989 -0.06166222
-0.06743737 0.017899672 -0.16821997 -0.01806322 0.040844683 0.04217675 -0.15200436 -7.460459e-06
-0.014790583 0.11462871 0.07074982 0.09121254 0.033307903 -0.12840548 -0.09343313 -0.014926764
0.05072509 -0.08338245 0.11227619 -0.012584666 -0.039123576 0.06538237 0.10840818 -0.06188837
0.12622315 -0.07521913 0.048954185 0.08529195 0.054032218 -0.056158584 0.08738495 -0.031392906
-0.03454593 -0.070107184 -0.052802034 0.04719401 0.0714089 -0.07784305 0.031783972 -0.01027166
0.06841282 0.2134447 -0.06711938 -0.021534208 0.06232002 -0.027270677 -0.014609516 -0.012388448
-0.0348113 -0.07088221 0.17599139 -0.025884595 -0.14993441 0.021959726 0.16606069 0.10050169
0.05217397 -0.06546607 0.093578875 -0.011270895 0.06824615 0.04996293 -0.0317718 0.12979409

network_body._body_endoder.seq_layers.2.bias f4 [256]
00000000: cf74 593c 2432 85bb 57e8 3c3d 9003 b4bc
00000010: b553 fd3b d121 d4bc 7503 c63c 9fab 343d
00000020: a31c 6e3b 8e7f 223c 1ab7 0cbd 57fd 083d
00000030: 6de0 88bc 2d3f f13c bd93 01b6 c9a8 d0ba
00000040: 7966 16bc 0815 e63c 1268 c4bc 7616 8fb9
00000050: b37a b8bc a003 883d 67f4 9bbc 373a 143d
00000060: 7301 f33c 5a6c 773c a7d6 9d3c 6243 bebb
00000070: 6025 0cbd dbc9 633b 9f5f 743b 4da8 1b3d
00000080: 54be 4f3d 1d89 c8bb b6e9 bf3c f476 4bbd
00000090: a174 833d e4f6 a4bb 6169 543c 0e95 34bd
000000a0: 7325 dcbc f7d3 133c 4ed5 823c 311e 71bc
000000b0: 238a 38bc a3d1 c13c 7352 10bd 6fa3 dfbb
000000c0: 5a4d f1bc 92ca 8c3c b3d3 18bc bc22 d9bb
000000d0: 2617 edbc 5369 06bd 7a0d c23c f3a1 883c
000000e0: ca0b a0bc 2e06 8e3c fdeb 6e3c 09de d13a
000000f0: 3ff1 bcbc 4988 1abd 0af5 fe3b 90c7 0b3d
00000100: 83af 5d3d e414 773c dece 9cbb 45b0 103a
00000110: 0781 663d 19fc 25bc bca3 ef3c 2e2f 8abb
00000120: ff47 553d 53b5 3d3b bf2f c1ba e39a 823b
00000130: ae67 bbbc fdac ec3b e8d1 a63b 21e2 c33b
00000140: 48a4 c6bc b5bd 43bc bbdf 2fbd 46db e53c
00000150: 9559 a73d a8dc c0bc 7484 383d 0ebf a93c
00000160: d19f 283d a827 153c f23c 313d f721 4dbc
00000170: 7bd8 b63c c65f 26bc 2525 3e3b 8ecd 433c
00000180: 5688 0d3c 13d3 5abc d1c7 a4bb a48c 133a
00000190: 95f2 2e3c 35f6 133d aa02 c7bb 72c0 79bc
000001a0: f250 04bc dc0f a1bc 5669 b8bc b462 08bd
000001b0: 0e2f 1dbd 14e8 c6bc 9dfe d8bc bcd5 113d
000001c0: 6208 213c 3a5f 3dbd e96d 02bd 5905 b63a
000001d0: ed0c dc3c d028 ccbc 69d7 ba3c 7e41 80bd
000001e0: a2c9 9e3c fa41 933c edb6 703c 21c4 783c
000001f0: 5a0e 9d3c d66f 9c3c a743 7cbc 728c 9bbc
00000200: 86cb 0abd 20f5 5b3d 31cb b7bc dd73 43bc
00000210: 1b2c 0bbb bfee a73c b497 bc3c 9e4c da3c
00000220: 8a44 5cbc 1b80 65bc fd39 46b8 9d1b 2fbd
00000230: cf34 c63a 8800 23bd e732 92bc 7f7c 93bc
00000240: ca59 cbbc 2d69 3e3c 6846 9ebc 474f 113c
00000250: ddfb 87bc a3eb 633c bb87 43bc cbfb 49ba
00000260: bd90 333d f850 e83b df7f 983c 179d 873b
00000270: d531 85bc 5cbd 253b 6c19 39bd 0945 cfbc
00000280: 3cd5 343d 0a37 26bc 5f97 983c fc69 0ebd
00000290: 7fa8 6ebd 924c 0bbd 92ed 203d f584 773d
000002a0: 9717 02bc 2e1b 04bd 7415 363d 2934 173b
000002b0: 148a 113d 32dd 93bc 5f69 b53c 2b75 e03b
000002c0: acfe 853d 2563 08bd 7c6c e4bc 4745 7dbd
000002d0: c2af 2d3c c38c 363d 3cb6 413b 2117 923b
000002e0: dd19 5bbb ec62 123c 8331 e6bc ea27 843d
000002f0: c2b1 0fbc 801b b4bc 697b 223d e015 aabc
00000300: e4d8 d2bb 89c4 303d 5c47 963b ec88 fcb6
00000310: 1bb3 d639 3f1c 303b 6492 e1bc 9c86 e2bc
00000320: 5347 6ebd daaf 64bc 640d e1bb 9627 783d
00000330: e3bc 67bb c929 e83b 9b83 95bd bb3e b6bc
00000340: bfa1 9dbc 7411 0dbc 41c1 983c dd83 153c
00000350: 7d25 acbb 6312 d93c 94cf 913a e697 7d3d
00000360: ef46 be3c f560 0b3c b94d e93b b3cb 9abc
00000370: 3992 2b3d 4382 ecbc bf92 f93b 474a c2bc
00000380: 456b 2a3d 32dd 6cbc 1514 a3b9 49fb 473c
00000390: 70e2 0cbc 4626 ccba aaab e83c 25f6 b53c
000003a0: 6b70 41bc 8f07 42bc a3ba bd3c 03b9 873c
000003b0: 0001 2e3c 6e1d fd3c cdb6 293d 8e62 073d
000003c0: eefd 1cbd 7bb4 30bc e0da 67bd b61e 7a3c
000003d0: 7225 19bd f8cc 823d c94d de3c daad fb3c
000003e0: e39e 8bbc d83f 65bc 4dfa 053d e218 acbb
000003f0: e809 093c dbf1 5fbd d01e 423c efd8 0c3d
0.013272478 -0.004064815 0.046120014 -0.021974355 0.007730926 -0.025895031 0.02417157 0.044108983
0.0036332987 0.009918107 -0.034354307 0.03344473 -0.016708577 0.02944907 -1.9308493e-06 -0.0015919443
-0.009179705 0.0280862 -0.023975406 -0.0002729182 -0.022519445 0.066413164 -0.019037439 0.03618833
0.029663777 0.015101517 0.019267393 -0.0058063725 -0.03421533 0.0034757766 0.003728844 0.0380023
0.05071862 -0.006119861 0.023426872 -0.04967399 0.064187296 -0.0050343145 0.012964577 -0.044087462
-0.026873326 0.009022704 0.015970852 -0.014716671 -0.011263403 0.023659533 -0.03523488 -0.0068249027
-0.02945583 0.017186437 -0.009327817 -0.006626455 -0.028941702 -0.03281529 0.023688067 0.016678786
-0.019536871 0.017336931 0.014582631 0.0016011606 -0.023064254 -0.037727628 0.007780676 0.034125865
0.05412246 0.015080664 -0.0047854027 0.000551943 0.056275394 -0.010130906 0.02925288 -0.00421705
0.052070614 0.002894719 -0.0014738961 0.003985749 -0.022876587 0.0072227702 0.0050909407 0.0059778844
-0.024248257 -0.011947085 -0.042937975 0.02805866 0.08171383 -0.023542717 0.045048192 0.020720985
0.041168038 0.009103693 0.043271013 -0.012520305 0.022320023 -0.01015467 0.002901384 0.0119508635
0.008638462 -0.013355988 -0.005028703 0.0005628562 0.010677953 0.036123473 -0.0060733156 -0.015243636
-0.0080759395 -0.019660883 -0.022511166 -0.033297256 -0.038374953 -0.024280585 -0.026488597 0.035604224
0.009828659 -0.046233393 -0.0318431 0.0013887092 0.026861632 -0.024921805 0.022807794 -0.06262492
0.019383255 0.017975796 0.01469205 0.0151834795 0.019171882 0.019096296 -0.015396989 -0.018987868
-0.0338855 0.053700566 -0.022435756 -0.011929479 -0.0021236006 0.020499585 0.023021556 0.026647862
-0.013444075 -0.0140075935 -4.7260884e-05 -0.042750943 0.0015121939 -0.03979543 -0.017846538 -0.0180037
-0.024823088 0.011621756 -0.019320682 0.008868999 -0.01659959 0.013911161 -0.011934216 -0.00077050616
0.043839205 0.0070897304 0.018615661 0.0041385996 -0.016259113 0.002528987 -0.04519026 -0.025301473
0.04414867 -0.010144958 0.018626867 -0.034769043 -0.05826616 -0.03400857 0.039289065 0.060429532
-0.007940195 -0.032252483 0.044454053 0.0023071861 0.035532072 -0.01804981 0.022144971 0.006849905
0.065427154 -0.033297677 -0.02788376 -0.061833646 0.010600986 0.044567835 0.0029558083 0.0044583236
-0.0033432164 0.008934718 -0.02809978 0.064529255 -0.008770408 -0.02198577 0.039668474 -0.020762384
-0.006434547 0.04315618 0.0045861434 -7.526125e-06 0.00040950705 0.0026872305 -0.027535625 -0.027652077
-0.05817349 -0.013957942 -0.0068680514 0.060584627 -0.0035360388 0.0070850593 -0.073004924 -0.02224671
-0.019242166 -0.008610118 0.018646838 0.009125677 -0.0052534924 0.026498025 0.0011124485 0.06191244
0.023227183 0.008507003 0.007119861 -0.01889596 0.041887496 -0.028870707 0.0076163705 -0.023717059
0.041606206 -0.014457034 -0.00031104745 0.012205907 -0.008598909 -0.0015575371 0.028402168 0.022212097
-0.011806588 -0.011842622 0.023160284 0.016567713 0.010620356 0.030897822 0.041434098 0.033052973
-0.038328104 -0.010785217 -0.05660522 0.015266111 -0.037389226 0.06386751 0.0271367 0.030722547
-0.017043537 -0.013992272 0.03270941 -0.0052519897 0.008364178 -0.05467401 0.011848167 0.03438657

action_model._continuous_distribution.log_sigma f4 [1, 12]
00000000: 0009 d0bf 30a4 e7bf 59b9 e2bf 5b37 e9bf
00000010: 2793 d2bf 582c dbbf cbdf debf 2dc3 e5bf
00000020: 4ab3 e0bf 5c56 ddbf 93e0 e8bf 6eac dabf
-1.6252747 -1.8096981 -1.7712814 -1.8220018 -1.6451157 -1.7122908 -1.7412046 -1.7950188
-1.7554715 -1.729198 -1.8193535 -1.7083871

action_model._continuous_distribution.mu.weight f4 [12, 256]
00000000: e7ab 67bd 6357 423d 03b0 6dbc a6ae 85bc
00000010: f638 2cbd 239d 4b3d 58f7 a53d bf1d 743d
00000020: 25dd 163d 931a d93b ca14 0e3d 58f0 a7bd
00000030: 1442 c23a 2c20 c93d 72c1 83bc 4733 14be
00000040: 9068 77bd b346 4ebd 43ac 0dbe 3b2f acbd
00000050: 1260 923d 9b3c 84bb 159b 24bd 8684 67bd
00000060: 8a42 4abe 1f53 13be 70ae bd3d 3e27 833d
00000070: 0637 f3bc 8d58 98bd fc67 963d 3541 71bc
00000080: 77df 603d f420 bebd bbe0 f03c 044c 053a
00000090: 8762 b3bc 6b29 30bb 5d3f 9c3c ed7f 32bd
000000a0: 9874 8bbc c814 87bc 0461 703b 9ef5 50bd
000000b0: 7583 093c f81a 123d 559c 59bd 2c12 013d
000000c0: 3668 41bd 0efa 9d3d d98a 8dba c551 50bd
000000d0: 78d6 8ebc dd46 ab3c 77b4 8dbd 4d83 2dbd
000000e0: 253d 46bd 541d c13c 451c adbd 9048 0a3e
000000f0: bbdd d6bd 8989 8f3d 4978 8a3c dd6c 1b3e
00000100: 823b e2bc 0afe 2abd a778 233d c6a6 84bc
00000110: eec7 093d 3644 8d3b c2c2 59bd 9fdd 433d
00000120: b92f cdbb b34b 893d 66d5 c2bd b5d1 543d
00000130: 8f55 963c 0ad9 343d f32b 873d 5cdc 39bd
00000140: 2568 0fbe cf51 133e 847c 223b 549b 223c
00000150: bc32 2ebd 9ae9 053d 6193 c0bc 49f1 afbd
00000160: 40fc 9ebd 0772 88bd 3cf2 fc3c 612c 4dbd
00000170: b07e 3f3c 9905 8839 f40c 7e3d 6770 913d
00000180: c2b6 933c 2297 263d 93f8 6cbd b6ec a1bc
00000190: 5214 b9bd 99a1 b7bc 2027 9dbb b34b 93bd
000001a0: 24c1 843d 7d94 463e 9151 813c c0f5 66bd
000001b0: c6f3 223d fc98 fd3c 9019 c83a 1496 37bd
000001c0: b755 8dbb a8f8 073e 83de a6bd 07ea 153d
000001d0: 7c1f 9e3c 0b1f 903c 6e4c 1dbd dc23 2f3d
000001e0: d698 4ebd 2c13 833d 48d4 1abd 1378 67bc
000001f0: 0e59 e83c d267 cbbd eaee c13d 0d94 e8bd
00000200: ad16 4bbd b086 58bd d4c8 ecbb 6719 6f3d
00000210: 123d 3c3d 950d 2ebd f2ec cabb 6a0b ef3d
00000220: 5034 b3bd e46f 68bd 6f63 bd3d d447 f2bc
00000230: f0e4 52bd e324 123d 3366 203d ca55 0cbd
00000240: d835 ef3d d8db 4f3e 062d 01bd 1cb0 cebd
00000250: 6e8e ce3c 0be3 63bd 7461 ffbd 71fc 77bd
00000260: 10bf 35bd de20 fd3d 3838 3539 3abb 83bd
00000270: d737 7f3c a68f 89bd 943b e13a 612c 2ebd
00000280: ab57 58bd 083d d4bc 9cdd acbd b809 2a3c
00000290: b3c1 993d 9d37 6cbd 85e6 1bbd 3c26 e3bd
000002a0: 1d49 54bd 1f7c afbc 2c46 493c 78ff 1dbd
000002b0: d10a 7e3d 3e22 af3c bd17 5ebc 5e1e 9c3b
000002c0: 6ac3 033d e046 4c3d 5a68 a43d 541e 6bbd
000002d0: e5b6 e73c 2517 983c 26d1 1bbd fe17 00bd
000002e0: 8f56 b5bc 5b03 483c f961 4fbd 7e5a 9ebc
000002f0: ec49 133d cac1 69b9 b605 d3bd 7da7 13bc
00000300: 0eb4 a73c 2009 d33c 19b7 c1bd 6ea8 f2bd
00000310: 3f41 c63d 48f5 bfbc 7c2b 6dbd ce66 4e3d
00000320: 651b fa3c dbbb 203c 020b ca3d bcfb cabd
00000330: 5cdf 05bd 4c83 c93d 2098 9f3d eae8 bf3c
00000340: 6614 453d e4d1 693d fb9c a5bd 64bd b63c
00000350: d094 343d dc57 49bd a257 d9bc 556a babd
00000360: e430 8b3d e2a0 1d3d 9cd5 7b3d 7ef2 ba3d
00000370: 5af5 a7bd e3a3 583d 2849 f33c 36ac 673d
00000380: a49f 5a3d 59a7 f33c 5e4a eebc 3ea2 cdbd
00000390: dff3 5fbd 3977 67bd 5943 073d b821 7bbd
000003a0: da6a 86bc 55f3 d83d aa3f 89bc 52e5 bfba
000003b0: 1585 473d 6d59 ddbd 1e69 89bb ba98 9bbd
000003c0: 2936 d63d 5d64 61b8 3b68 0c3d 25d7 223d
000003d0: 88e7 f6bd a081 b9bd 799d ff3c be9f 553d
000003e0: bf4c 6bbd 3008 1d3c 85d6 54bc 7fbf 55bd
000003f0: f9ea fbbc 020f 1a3d 6979 d7bd af77 eb3d
-0.056560423 0.04744662 -0.0145072965 -0.01631863 -0.04204651 0.049710404 0.08103818 0.05959868
0.036831994 0.0066254823 0.034687795 -0.08200139 0.0014820718 0.098205894 -0.016083453 -0.14472686
-0.060402453 -0.050360393 -0.13835244 -0.08407446 0.0714723 -0.004035545 -0.04018696 -0.05652287
-0.19751945 -0.14387177 0.09261787 0.06403969 -0.029689323 -0.07438765 0.07344052 -0.014725019
0.054900613 -0.09283629 0.029404035 0.00050848746 -0.021897567 -0.0026880156 0.019073183 -0.04357903
-0.01702337 -0.016489401 0.003667892 -0.05101549 0.008393158 0.03567025 -0.053127605 0.03151147
-0.047218524 0.0771371 -0.0010798826 -0.05085923 -0.017436251 0.020907814 -0.069191866 -0.042361546
-0.048398156 0.023573555 -0.084526576 0.13504243 -0.104915105 0.070086546 0.01690306 0.15178247
-0.027616266 -0.041746177 0.039909985 -0.016192805 0.033637933 0.00431111 -0.05316425 0.047818776
-0.0062617925 0.067038916 -0.09513359 0.051957805 0.018351344 0.044152297 0.066001795 -0.045376167
-0.14004572 0.14386676 0.0024793455 0.009924728 -0.042528853 0.032693483 -0.023507776 -0.08590943
-0.077629566 -0.06662374 0.030877225 -0.05009115 0.0116879195 0.00025944112 0.06202407 0.07101517
0.018031482 0.040671475 -0.057854246 -0.019766193 -0.09037079 -0.022415923 -0.004795924 -0.07192173
0.06482151 0.19392581 0.015785964 -0.05638671 0.03978326 0.030956738 0.0015266407 -0.04482086
-0.0043131965 0.13278449 -0.081479095 0.03660014 0.019302122 0.017592927 -0.038402967 0.042758808
-0.050438724 0.06400141 -0.037800103 -0.014127749 0.028362777 -0.099319115 0.09469397 -0.113563634
-0.049582172 -0.052862823 -0.007226089 0.058373835 0.04595668 -0.04249342 -0.006192797 0.11672099
-0.08750212 -0.056747332 0.09247481 -0.029575266 -0.051487863 0.03567971 0.039159965 -0.034261502
0.11680192 0.20298707 -0.03153708 -0.10092184 0.0252144 -0.055636447 -0.124697596 -0.06054348
-0.044371665 0.123597845 0.00017282448 -0.06432195 0.015577278 -0.06716852 0.0017183893 -0.04252279
-0.05281798 -0.025908008 -0.08440706 0.010378294 0.07507648 -0.057670224 -0.038061637 -0.11091277
-0.05182754 -0.02142149 0.012284797 -0.038573712 0.062022034 0.021378633 -0.013555464 0.0047643622
0.032168783 0.04987228 0.08027716 -0.05740197 0.028285453 0.018565724 -0.038041256 -0.03127288
-0.022136 0.012207831 -0.050630543 -0.01933026 0.03595917 -0.00022292804 -0.10303824 -0.0090121
0.020471599 0.025761187 -0.09458751 -0.11848532 0.096804135 -0.023432389 -0.057902798 0.05039101
0.03053064 0.009810413 0.09865381 -0.09911296 -0.032683715 0.09839496 0.077926874 0.023426492
0.048115157 0.057084933 -0.08086582 0.022307105 0.04408723 -0.049156055 -0.026531044 -0.091023125
0.067964345 0.038483508 0.06148301 0.09128283 -0.08201094 0.05289067 0.02969797 0.056560718
0.0533749 0.029742884 -0.029088195 -0.10040711 -0.054675933 -0.056510184 0.033023212 -0.061311454
-0.016408373 0.10593287 -0.01675399 -0.0014640486 0.0487109 -0.10808072 -0.004193439 -0.0759749
0.10459549 -5.373765e-05 0.03427909 0.03975596 -0.1205588 -0.09057927 0.031203019 0.052154295
-0.057446238 0.009584472 -0.012990599 -0.052184578 -0.030751692 0.03761197 -0.10521204 0.11497437

action_model._continuous_distribution.mu.bias f4 [12]
00000000: 6dcb 5ebc c8d3 1a3c 1162 aa3c 2614 3fbd
00000010: 5d39 7d3b ae03 99bc b478 283d f990 8a3c
00000020: 5ade 88bd 8a4e 81b9 180b 8fbd 74c8 6dbd
-0.013598305 0.009449907 0.020798715 -0.046650074 0.0038638928 -0.018678512 0.041130736 0.016914831
-0.06683035 -0.00024663314 -0.06984538 -0.058052495

onnx::Div_51 f4 [75]
00000000: ef38 4440 7941 df3f a866 1140 13ed 6340
00000010: 130b 7a40 bcdf 7740 79d3 653e 71f4 2441
00000020: f902 ca3e 9fe3 4d40 ee8f b83e 7904 f53d
00000030: b9df cc3c 77d5 0f3e 58e2 a73c 35d3 d53d
00000040: c860 343e 5f6f 673d f9cc f83d 5268 ee3d
00000050: 1600 0f3e b82c 293e 3baa 103d 9841 053e
00000060: 875b 983d c2ab ef3d 4463 663e 18e2 213e
00000070: 3552 723d 85f1 1e3e 99eb 563d e5e3 063e
00000080: 1ef1 303e 8b4e 773d 3893 303e 616c 2a3e
00000090: eaaf 103e 7ff9 503e bb29 883d c206 123e
000000a0: 0273 b63d a029 093e efca 843e 28b4 273e
000000b0: 82c9 1a3d bbbf 223e e038 cb3c 8da4 df3d
000000c0: 13ed 163e 307e 703d 2c80 303e f022 2b3e
000000d0: 96d1 1b3e 2a2a 163e f6ce 173d fe3d 103e
000000e0: 488b df3d 4baa ee3d 4e4c 7c3e de7b 123e
000000f0: 02d8 243e 0743 2a3e 9abd 133d c784 0a3e
00000100: 51ad 5f3e d6bf df3d 7742 423e b10b 853e
00000110: b2ae 263e 9ec7 2a3e 4585 b63d 98f9 1c3e
00000120: 9028 283e 23a3 553e c91e 7f3e
3.065975 1.7441856 2.2718906 3.5613449 3.906926 3.8730307 0.22443952 10.309678
0.39455393 3.217018 0.3604731 0.11963744 0.025009023 0.14046274 0.020493671 0.10440675
0.17615044 0.056502696 0.121484704 0.11640991 0.13964877 0.16520965 0.035318594 0.13013303
0.074393325 0.11702682 0.22498804 0.15808904 0.05916043 0.1552182 0.052470777 0.13172872
0.17279479 0.06037764 0.1724366 0.16642906 0.14129606 0.20407675 0.066485845 0.1426039
0.08908655 0.13394785 0.25936076 0.16377318 0.03778983 0.15893452 0.024807394 0.109200574
0.14738874 0.05871409 0.17236394 0.16712546 0.1521667 0.14664522 0.037062608 0.14086148
0.10915238 0.116535746 0.24638483 0.14305064 0.16098025 0.16627131 0.03606949 0.13527213
0.21843459 0.10925262 0.18970667 0.25985482 0.16277578 0.1667771 0.08912138 0.15329587
0.16421723 0.20863013 0.24914087
