results/packaging_fix_test_24/RobotAgent/RobotAgent-10057543.onnx (onnx, 359274 bytes, 9 tensors)

network_body.observation_encoder.processors.0.normalizer.running_mean f4 [75]
0.5845113 -0.7551527 2.1917014 0.54140276 1.185243 0.9160476 0.81140953 47.617954
-1.1220572 -0.32229435 1.7421929 0.10024011 -0.008857635 0.0330346 0.976995 0.21043485
-0.07872563 0.006486395 0.024214797 0.107069194 0.040998098 -0.025580116 0.9612199 0.24569228
-0.06309316 -0.016840078 0.055590183 0.05725984 -0.013813081 0.10045635 0.9648637 0.24451882
-0.116185 0.0040854206 -0.038627498 0.07015356 0.10189526 0.0047483905 0.9438717 0.2738773
-0.027344115 -0.06731767 -0.028190345 0.09004045 0.00072224374 -0.06159362 0.966017 0.22721882
0.047284104 0.009136588 0.0887871 0.054935325 -0.06352972 0.07532147 0.95571893 0.2913021
-0.034569763 0.05097172 -0.134147 -0.09013892 -0.021984719 0.0119369915 0.95741487 0.31005335
0.073035546 0.021716151 -0.1214645 -0.16548532 0.0106194 0.013668524 0.9178017 0.29355317
0.10948254 0.0155179 -0.08782756
00000000: 88a2 153f b051 41bf d644 0c40 5f99 0a3f
00000010: 0bb6 973f 1882 6a3f 89b8 4f3f c978 3e42
00000020: 929f 8fbf c403 a5be 2d00 df3f b04a cd3d
00000030: 9d1f 11bc 4a4f 073d 581c 7a3f 3c7c 573e
00000040: e73a a1bd d38b d43b 1c5e c63c 1847 db3d
00000050: 9fed 273d 648d d1bc 8212 763f c296 7b3e
00000060: fd36 81bd 34f4 89bc 88b2 633d 4b89 6a3d
00000070: 4350 62bc 0fbc cd3d 4f01 773f 2463 7a3e
00000080: 67f2 edbd fede 853b de37 1ebd abac 8f3d
00000090: 76ae d03d 6398 9b3b 93a1 713f a539 8c3e
000000a0: c400 e0bc d9dd 89bd 70ef e6bc 2167 b83d
000000b0: f554 3d3a 9749 7cbd e44c 773f 0dac 683e
000000c0: faac 413d a1b1 153c 03d6 b53d dd03 613d
000000d0: df1b 82bd 2542 9a3d ffa9 743f 8d25 953e
000000e0: 0699 0dbd b9c7 503d d55d 09be c19a b8bd
000000f0: 4c19 b4bc 5f93 433c 2419 753f 50bf 9e3e
00000100: a993 953d 12e6 b13c 61c2 f8bd fc74 29be
00000110: fefc 2d3c f2f1 5f3c 0df5 6a3f 9a4c 963e
00000120: 6238 e03d ca3e 7e3c f0de b3bd

network_body._body_endoder.seq_layers.0.weight f4 [256, 75]
-0.12591551 0.123860896 -0.004256085 -0.10230195 -0.006186164 0.038657248 -0.025419008 -0.011782919
-0.22185265 0.21379003 0.013508866 -0.0113634635 0.051350765 0.3499764 -0.114996366 0.017646959
0.13175306 0.0383201 -0.09825439 -0.046330985 0.094565324 -0.20412713 0.17573558 0.25141132
0.01684091 0.020015404 0.04596499 -0.1480422 0.17876083 -0.080271624 0.11271118 -0.08433355
-0.10135323 -0.025542969 -0.05440942 0.17861672 -0.15517282 0.11419748 -0.017444227 0.08065057
0.1499216 0.16552983 -0.053103138 -0.19740726 -0.36025056 0.11716642 -0.2750946 0.19705565
0.08566184 -0.011968694 -0.06990862 0.053865835 -0.1610605 0.3213947 -0.026049787 0.06006133
-0.01218002 0.006676276 -0.19602777 0.044906706 0.053936493 0.13502617 -0.043033075 0.12730181
-0.10610052 0.19355217 -0.112786286 -0.0136710135 0.09573312 -0.01709038 -0.09234 0.03060304
0.055384424 0.020809086 0.17499462 0.03922793 0.024697311 -0.008299209 0.26483962 -0.07265565
-0.26268783 0.02808049 -0.089249104 0.23341914 0.07279807 -0.010278137 -0.1069211 -0.25152665
0.0896108 -0.13646623 -0.03670907 -0.1850299 -0.11563548 -0.06489936 -0.10156697 0.19397333
-0.07942467 -0.08139253 -0.20616356 -0.19496803 -0.20994191 -0.1915968 -0.08402092 -0.063170075
0.016076906 -0.037113205 -0.03109299 0.19525592 -0.1601101 0.119219944 0.11103935 0.13193868
0.04385547 0.070148475 0.048050426 -0.07014311 -0.035922345 0.010979382 -0.26907685 -0.058073916
-0.04214147 -0.13159937 -0.13727327 0.07104402 -0.37387484 -0.16558269 -0.08050329 0.010403153
0.057476565 0.1827241 0.10967443 0.14088638 0.0066390648 -0.121405646 0.004416342 0.059766144
-0.13090126 -0.2935248 0.11052618 0.058917638 -0.2069086 -0.011530965 0.04440527 -0.015667588
-0.18355267 -0.18169126 -0.023971014 0.07786698 0.04908602 0.32360476 -0.020944819 0.15495549
-0.023076879 -0.0011376982 -0.0031252427 -0.013686941 0.12016547 0.08980824 -0.09782696 0.1855015
0.08173272 0.09595862 -0.12902975 0.10443065 0.22646229 -0.04566426 0.10459427 -0.16542205
-0.117689885 0.09616049 0.10263476 0.13385679 0.30729452 -0.10054984 -0.10852777 -0.06038548
-0.05339556 0.028755596 0.0152549185 -0.06225595 -0.05688596 0.022421382 -0.17746635 -0.29924622
0.03235059 -0.18276137 -0.18011017 -0.029921679 -0.17003995 -0.02303598 -0.052894525 0.3035911
0.01467935 0.17447998 0.18739557 -0.102250144 -0.11040159 0.11727597 0.061746195 -0.045069978
-0.14906952 -0.03909665 -0.039031845 -0.19348139 0.06458918 -0.20275803 -0.15872556 0.051210802
-0.011595636 0.11102541 -0.041560717 0.06867401 -0.05123989 -0.057182506 0.008114567 0.043315824
-0.04390859 0.059642967 0.095651336 -0.026380178 0.13973333 -0.21775623 0.1559879 0.099974856
-0.25300413 -0.13420217 -0.0851612 0.058886316 -0.3232751 -0.09398695 -0.11517488 -0.15655966
-0.13837582 -0.21410891 0.099865116 -0.10576359 -0.3578008 0.05892963 -0.14302032 -0.031746734
0.21807446 -0.027624985 0.034924027 -0.17168097 -0.023624217 0.062210158 -0.041293856 0.06093217
-0.11864973 0.07853922 -0.055130415 -0.0042106044 -0.22049248 -0.10811417 -0.072713226 -0.010610518
00000000: ffef 00be c8aa fd3d a176 8bbb af83 d1bd
00000010: 4eb5 cabb 1057 1e3d 863b d0bc 250d 41bc
00000020: 572d 63be c6eb 5a3e 4a54 5d3c d22d 3abc
00000030: 2e55 523d 1b30 b33e 3783 ebbd 5b90 903c
00000040: 46ea 063e 8af5 1c3d 9939 c9bd 8fc5 3dbd
00000050: 77ab c13d b406 51be 07f4 333e fcb8 803e
00000060: f3f5 893c 58f7 a33c c945 3c3d 6098 17be
00000070: 140d 373e 7365 a4bd 1ed5 e63d 11b7 acbd
00000080: 4892 cfbd 7d3f d1bc 69dc 5ebd 4de7 363e
00000090: a0e5 1ebe 5ee0 e93d 32e7 8ebc 202c a53d
000000a0: 0c85 193e a780 293e ad82 59bd 2125 4abe
000000b0: c372 b8be f3f4 ef3d 33d9 8cbe f5c8 493e
000000c0: 7a6f af3d 5718 44bc 402c 8fbd 6ca2 5c3d
000000d0: 0bed 24be d98d a43e 5d66 d5bc df02 763d
000000e0: b58e 47bc aac4 da3b 81bb 48be 18f0 373d
000000f0: 83ec 5c3d 4d44 0a3e 7343 30bd 685b 023e
00000100: 3b4b d9bd 8a32 463e 7ffc e6bd 63fc 5fbc
00000110: ba0f c43d 2001 8cbc c11c bdbd 3ab3 fa3c
00000120: c7da 623d d177 aa3c ca31 333e 77ad 203d
00000130: 0452 ca3c 68f9 07bc 0f99 873e 7ccc 94bd
00000140: 057f 86be 0e09 e63c 3cc8 b6bd 6d05 6f3e
00000150: 2817 953d a265 28bc 73f9 dabd 1ac8 80be
00000160: de85 b73d cebd 0bbe 405c 16bd 7a78 3dbe
00000170: 4bd2 ecbd f5e9 84bd 5802 d0bd f2a0 463e
00000180: 67a9 a2bd 20b1 a6bd 8a1c 53be b3a5 47be
00000190: 03fb 56be f431 44be 2913 acbd 505f 81bd
000001a0: b7b3 833c 0404 18bd bab6 febc 2bf1 473e
000001b0: e7f3 23be 9629 f43d 9968 e33d ef1a 073e
000001c0: cba1 333d 01aa 8f3d 86d0 443d 31a7 8fbd
000001d0: 4f23 13bd dee2 333c 71c4 89be eade 6dbd
000001e0: 899c 2cbd fcc1 06be 5d91 0cbe 877f 913d
000001f0: 866c bfbe 828e 29be e9de a4bd fc71 2a3c
00000200: 8c6c 6b3d 071c 3b3e fd9c e03d 8544 103e
00000210: 838c d93b 86a3 f8bd f6b6 903b 58cd 743d
00000220: fb0a 06be e248 96be 8d5b e23d 9f53 713d
00000230: d9df 53be 5fec 3cbc 4de2 353d 5059 80bc
00000240: 3bf5 3bbe 460d 3abe dc5e c4bc b978 9f3d
00000250: 6c0e 493d 86af a53e 7894 abbc a7ac 1e3e
00000260: b90b bdbc d11e 95ba dfd0 4cbb 313f 60bc
00000270: 5019 f63d 62ed b73d 8059 c8bd 1bf4 3d3e
00000280: 7c63 a73d f485 c43d 6020 04be bddf d53d
00000290: bbe5 673e 720a 3bbd 8535 d63d 6664 29be
000002a0: 6507 f1bd caef c43d 2c32 d23d c111 093e
000002b0: b555 9d3e 13ed cdbd cf43 debd c456 77bd
000002c0: 4db5 5abd db90 eb3c c4ef 793c 1800 7fbd
000002d0: 4101 69bd 0cad b73c bdb9 35be cd36 99be
000002e0: 0d82 043d cc25 3bbe cd6e 38be 4f1e f5bc
000002f0: f41e 2ebe f4b5 bcbc eea7 58bd 4b70 9b3e
00000300: a881 703c e1aa 323e a0e4 3f3e 8668 d1bd
00000310: 3b1a e2bd 622e f03d 94e9 7c3d 4c9b 38bd
00000320: aea5 18be cf23 20bd dbdf 1fbd fc1f 46be
00000330: 5547 843d cd9f 4fbe f488 22be 6bc2 513d
00000340: 9ffb 3dbc 4a61 e33d 923b 2abd f6a4 8c3d
00000350: ebe0 51bd 3438 6abd f6f2 043c ef6b 313d
00000360: 7ed9 33bd 2f4c 743d d9e4 c33d 3e1b d8bc
00000370: 4116 0f3e 7dfb 5ebe 4bbb 1f3e 9ebf cc3d
00000380: c289 81be 4b6c 09be ff68 aebd c732 713d
00000390: 5084 a5be 3b7c c0bd cfe0 ebbd 2d51 20be
000003a0: 64b2 0dbe 5e3f 5bbe 1586 cc3d 959a d8bd
000003b0: ab31 b7be 3260 713d eb73 12be dd08 02bd
000003c0: e94e 5f3e cb4d e2bc 7f0c 0f3d 23cd 2fbe
000003d0: 9387 c1bc 14d0 7e3d bf23 29bd 0394 793d
000003e0: a1fe f2bd 2cd9 a03d 6ed0 61bd 1cf9 89bb
000003f0: c8c8 61be f66a ddbd acea 94bd bdd7 2dbc

network_body._body_endoder.seq_layers.0.bias f4 [256]
-0.011135739 0.0037879858 -0.06383163 0.047902558 -0.03185804 0.089783706 -0.049503487 0.028516317
-0.0067452844 0.08385482 0.019518675 -0.05970903 0.024425847 0.019850787 0.053314503 0.033261925
0.004657397 0.00254638 -0.0060764086 0.030545713 0.0032448662 0.031471364 -0.010588253 -0.0027167448
-0.006505492 -0.007503593 -0.014766007 0.018608946 -0.007911507 0.005842105 -0.022550805 0.021534171
-0.055428848 -0.09299368 -0.053760163 0.049399223 0.0018193941 0.00013809006 0.030146008 0.008496648
0.021069145 -0.04698423 -0.0040579676 0.038533658 0.035271842 0.044243198 -0.017506378 0.013316254
0.019478124 0.030641064 -0.009616014 0.011390187 -0.027650729 0.05517106 0.05877071 0.032583676
-0.012410807 -0.0461987 -0.025579775 -0.045310758 -0.044122063 0.09363546 -0.0032199041 -0.072438374
-0.00048917026 0.05329312 -0.048899923 0.03450102 0.029552449 0.070232324 0.026140073 0.0055006514
0.04396202 0.049857266 0.0076280753 0.070203215 0.08209938 -0.016008511 0.029376596 0.03199817
0.084901944 -0.0046415706 -0.0027249488 0.01572169 0.058769085 0.05099515 -0.037374023 0.07514118
0.016280418 0.0011173527 -0.015432846 0.0378392 -0.0002732729 -0.05760968 -0.043969497 0.02863614
0.0023524943 -0.053308934 0.072513625 0.032766316 -0.015299663 0.029483417 -0.07328077 0.029202277
-0.03824131 0.037838817 0.00665873 0.037162293 -0.016649649 0.057451848 -0.040360253 -0.075678825
0.03117537 -0.001399489 0.023604117 0.015237936 -0.0028944162 -0.0065330663 -0.004768136 0.05476451
0.0196396 0.007376845 0.023103354 -0.029999383 -0.0021491165 0.037645902 0.010672746 0.025748912
-0.04086864 -0.047202565 0.07601425 0.050135344 -0.07691291 0.029515456 0.020736828 0.05374009
0.0055099307 0.022059284 -0.03313874 0.07480203 -0.048232798 0.034974094 0.0076937485 -0.03134666
0.03825611 -0.017983837 -0.0068375645 -0.029033927 -0.0334189 -0.0015887055 0.05363898 0.018203406
0.010780113 0.017577723 0.04724041 0.031228343 -0.004243226 -0.021934768 0.019152047 -0.019247698
0.01919755 0.014766253 0.035644114 0.036856923 0.0008437041 0.024595382 0.024743993 0.0034008324
0.047150075 -0.005321185 -0.050099783 -0.035038486 -0.0019316988 0.06062065 0.031066315 0.016928693
0.022875456 0.010308898 0.01080661 0.06780932 -0.02242594 -0.065725975 -0.011798753 -0.038345564
0.009977419 -0.037635416 0.0030242582 0.012872504 -0.00012607854 0.028297631 0.082168475 0.0032381848
-0.011900562 -0.006731368 0.017398419 0.03286407 -0.01439122 0.017352112 0.024951711 -0.024917595
0.057848684 -0.02861845 0.04459989 0.042175125 -0.017811846 0.07171164 0.0041531986 0.07773591
-0.01839507 0.03283009 0.07513554 0.0324677 0.0048199086 0.03585693 -0.002167436 -0.0553203
-0.03657874 0.061454106 0.07076833 0.043706477 0.010907939 0.0066282195 -0.017422684 0.06226811
0.046722125 -0.01837131 0.043650404 0.034791183 -0.020799307 -0.06811544 0.021020012 0.035476822
-0.030104522 -0.026830181 -0.0032287538 0.03883344 0.030313695 0.022297055 -0.013679406 0.056436803
0.007181385 0.058893733 -0.0048795356 -0.01335732 -0.04164742 -0.010457148 0.034123655 0.006385306
0.08552628 0.044853248 -0.0067956643 -0.012025673 -0.025930094 -0.011150624 0.020092564 0.047873605
00000000: ad72 36bc db3f 783b 28ba 82bd 7935 443d
00000010: 937d 02bd 85e0 b73d 2bc4 4abd 0d9b e93c
00000020: 8c07 ddbb 13bc ab3d a1e5 9f3c 7591 74bd
00000030: b718 c83c 1e9e a23c 4f60 5a3d a83d 083d
00000040: 149d 983b 2be1 263b 9c1c c7bb 013b fa3c
00000050: d2a7 543b 1ee8 003d 5a7a 2dbc 6a0b 32bb
00000060: 062c d5bb b3e0 f5bb 1fed 71bc ca71 983c
00000070: 449f 01bc 216f bf3b 77bc b8bc 6e68 b03c
00000080: 5c09 63bd 7873 bebd 9e33 5cbd d756 4a3d
00000090: bc78 ee3a 45cc 1039 c3f4 f63c 8635 0b3c
000000a0: 3399 ac3c 8972 40bd b3f8 84bb 78d5 1d3d
000000b0: 3579 103d 5b38 353d 8969 8fbc 6b2c 5a3c
000000c0: 9690 9f3c f802 fb3c 7c8c 1dbc e89d 3a3c
000000d0: c883 e2bc 0dfb 613d 8eb9 703d 7676 053d
000000e0: b356 4bbc d93a 3dbd ad8c d1bc c697 39bd
000000f0: 56b9 34bd f3c3 bf3d 0705 53bb 925a 94bd
00000100: a93b 00ba e349 5a3d 494b 48bd f150 0d3d
00000110: fa17 f23c f7d5 8f3d b523 d63c cf3e b43b
00000120: 8511 343d 2237 4c3d eff4 f93b b4c6 8f3d
00000130: b823 a83d 4824 83bc 30a7 f03c 8310 033d
00000140: 12e1 ad3d 5118 98bb 0e95 32bb c6ca 803c
00000150: dab7 703d 4ae0 503d 8115 19bd 9ee3 993d
00000160: 835e 853c 2374 923a 0cda 7cbc 47fd 1a3d
00000170: 1146 8fb9 21f8 6bbd 5c19 34bd 5796 ea3c
00000180: 4e2c 1a3b 785a 5abd 0682 943d f935 063d
00000190: 70ab 7abc 3587 f13c 3a14 96bd 9d39 ef3c
000001a0: eba2 1cbd e0fc 1a3d 7a31 da3b 7d37 183d
000001b0: d864 88bc a152 6b3d cb50 25bd 80fd 9abd
000001c0: 7d63 ff3c 0f6f b7ba 6c5d c13c 89a8 793c
000001d0: 3fb0 3dbb 5513 d6bb 063e 9cbb c050 603d
000001e0: 3ae3 a03c 76b9 f13b 3f43 bd3c 44c1 f5bc
000001f0: 31d8 0cbb 9732 1a3d bedc 2e3c 62ef d23c
00000200: e065 27bd 7a57 41bd 5cad 9b3d b85a 4d3d
00000210: 8484 9dbd 66ca f13c 48e0 a93c 921e 5c3d
00000220: a68c b43b acb5 b43c 7dbc 07bd cf31 993d
00000230: c18f 45bd ff40 0f3d d71b fc3b 5b65 00bd
00000240: 70b2 1c3d d752 93bc a60d e0bb 8fd8 edbc
00000250: 42e2 08bd 1c3c d0ba 8cb4 5b3d 4f1f 953c
00000260: 129f 303c 28ff 8f3c 297f 413d 95d2 ff3c
00000270: c20a 8bbb 8bb0 b3bc c1e4 9c3c 59ad 9dbc
00000280: 2e44 9d3c 27ee 713c 90ff 113d 49f7 163d
00000290: 062c 5d3a 417c c93c eab3 ca3c 80e0 5e3b
000002a0: 7020 413d 565d aebb 6e35 4dbd 8484 0fbd
000002b0: 0e31 fdba 5c4d 783d c97e fe3c 0bae 8a3c
000002c0: 4f65 bb3c a7e6 283c 350e 313c 9ddf 8a3d
000002d0: 9bb6 b7bc 579b 86bd 8f4f 41bc 3d10 1dbd
000002e0: 5478 233c 9827 1abd a232 463b 32e7 523c
000002f0: f333 04b9 6fd0 e73c f247 a83d ba37 543b
00000300: 93fa 42bc cf92 dcbb 2187 8e3c 7a9c 063d
00000310: 27c9 6bbc 0426 8e3c 8867 cc3c fc1f ccbc
00000320: bef2 6c3d 3d71 eabc 60ae 363d d3bf 2c3d
00000330: 26ea 91bc 8ddd 923d 8e17 883b 0134 9f3d
00000340: 42b1 96bc d878 063d a9e0 993d dafc 043d
00000350: 53f0 9d3b b7de 123d 8b0b 0ebb 8a97 62bd
00000360: 97d3 15bd 4db7 7b3d fcee 903d 9005 333d
00000370: 36b7 323c 8931 d93b 04ba 8ebc d90c 7f3d
00000380: b35f 3f3d 6e7f 96bc c4ca 323d 3381 0e3d
00000390: 4f63 aabc 1c80 8bbd 2932 ac3c 2550 113d
000003a0: c29d f6bc f8ca dbbc 8099 53bb d00f 1f3d
000003b0: 6d54 f83c 50a8 b63c 961f 60bc 472a 673d
000003c0: d351 eb3b 8e3a 713d 83e4 9fbb a9d8 5abc
000003d0: 7c96 2abd 7554 2bbc 3fc5 0b3d d43b d13b
000003e0: 6728 af3d 0ab8 373d 2aae debb 5407 45bc
000003f0: 596b d4bc 1bb1 36bc 2999 a43c 1d17 443d

network_body._body_endoder.seq_layers.2.weight f4 [256, 256]
-0.02821464 0.09890056 -0.16547643 -0.013476827 0.038106874 0.046676088 0.06340264 0.004255182
0.121933445 -0.09091252 -0.02955525 0.037263304 0.04046432 0.0014841388 0.031298198 0.03248489
-0.15461546 -0.0655889 -0.037787262 0.079943515 -0.056180324 0.043156046 -0.0053430093 -0.10633265
0.13224171 -0.049155075 -0.11777936 0.068397485 0.031651113 0.055292495 0.053064056 0.048307247
-0.0793687 0.09891696 0.071088605 -0.030206133 0.08690906 -0.030464318 -0.002384492 -0.14451452
0.017053789 0.121820346 0.04005201 0.038894303 0.05221605 0.0058171437 -0.06262401 0.04423802
-0.035797328 -0.09368401 0.022878256 0.05315399 -0.16591825 -0.09609927 -0.12124661 0.031122254
-0.044358544 0.10035289 -0.03866887 -0.07543664 -0.055319175 0.045466144 0.0415926 0.04585582
0.03544768 0.017883454 0.00032496438 0.09356831 -0.024750892 0.17497437 0.07508202 -0.054797046
-0.095969096 0.03019857 0.12288191 -0.21361265 0.06009245 -0.055178076 -0.09101174 0.016231716
-0.0064010946 0.07953429 0.18081172 0.08729469 0.05619174 -0.083871566 -0.08306638 -0.12263835
0.061047744 0.10289811 0.03889412 0.035857737 -0.033443738 0.016718153 -0.1968576 0.015941013
0.078681014 -0.046500422 -0.1026989 -0.022770332 0.12025156 0.039053474 0.06705587 -0.08440025
-0.031634256 -0.03919616 -0.06335739 -0.07414059 0.014875651 0.08075492 0.042312007 0.10080875
-0.12604958 0.22720172 0.12052095 -0.064978026 -0.04178735 -0.033527065 -0.043448485 -0.09602836
-0.025868686 0.09156285 -0.026017306 -0.0032831146 -0.014545978 0.058335077 -0.020699002 0.0039418954
0.03375353 0.0062298835 -0.02195894 -0.07746695 0.022904973 -0.022369154 0.006671777 -0.26276475
-0.0665189 -0.13827106 0.10568563 -0.0689462 0.0369438 0.021276563 -0.11132266 -0.14340696
-0.17656995 0.032220565 0.14434862 0.057388514 -0.027365025 -0.1334598 0.01015699 -0.012601135
-0.21274862 -0.08375645 -0.027166376 -0.007072613 -0.08599921 0.022251716 0.01085716 -0.045042552
-0.14547643 -0.10828539 -0.033729445 -0.1404275 0.028861035 0.053526703 0.02183112 -0.1035203
0.044958536 0.031017024 -0.04457722 -0.061699223 0.1077531 -0.0023707952 -0.03314408 0.12965049
-0.051948223 0.047642108 -0.06606233 -0.031354062 -0.014134703 0.12447574 -0.012366488 0.1463026
-0.20736569 -0.0140931215 -0.15991521 -0.08248385 0.018086666 0.04851361 0.04205396 -0.06403041
-0.065470085 0.017675146 -0.1713473 -0.020747976 0.045378465 0.041697096 -0.15103747 -0.00080117065
-0.015279665 0.11294316 0.07167827 0.092595786 0.034674432 -0.12940368 -0.09201192 -0.016978292
0.050892122 -0.08057771 0.11171015 -0.011183356 -0.039866738 0.06364078 0.110110864 -0.061240394
0.1280887 -0.073029555 0.049917396 0.087404184 0.055635326 -0.05382952 0.086662225 -0.029054498
-0.033813704 -0.06995683 -0.05253891 0.04603372 0.072289355 -0.078993924 0.033102904 -0.009960787
0.06821057 0.2095737 -0.0666109 -0.0206685 0.060053032 -0.027865157 -0.01536542 -0.011880012
-0.03678388 -0.07082707 0.17236987 -0.025194678 -0.14814614 0.02208721 0.1663139 0.09990137
0.05398529 -0.06572931 0.0950232 -0.011426571 0.06876384 0.051409755 -0.030067509 0.13052696
00000000: 6422 e7bc 608c ca3d a772 29be e9cd 5cbc
00000010: f415 1c3d 6d2f 3f3d 3ed9 813d 0e6f 8b3b
00000020: 3eb8 f93d 5830 babd da1d f2bc 68a1 183d
00000030: eabd 253d 6f87 c23a 8a32 003d e00e 053d
00000040: 8453 1ebe 7953 86bd d1c6 1abd 6db9 a33d
00000050: 571d 66bd 65c4 303d 6914 afbb efc4 d9bd
00000060: 5f6a 073e d556 49bd 4e36 f1bd fb13 8c3d
00000070: 99a4 013d 627a 623d b259 593d d2dd 453d
00000080: 0f8c a2bd fa94 ca3d e796 913d da72 f7bc
00000090: 61fd b13d 4e90 f9bc 2345 1cbb 9dfb 13be
000000a0: 63b4 8b3c f27c f93d 940d 243d a24f 1f3d
000000b0: 7fe0 553d bd9d be3b 0441 80bd ed32 353d
000000c0: 38a0 12bd 67dd bfbd 2e6b bb3c 00b8 593d
000000d0: 79e6 29be b2cf c4bd 2550 f8bd 19f4 fe3c
000000e0: 4eb1 35bd d185 cd3d 4063 1ebd 867e 9abd
000000f0: 5c96 62bd b53a 3a3d 015d 2a3d 50d3 3b3d
00000100: 9631 113d 5280 923c fb5f aa39 bea0 bf3d
00000110: 62c2 cabc 7b2c 333e 9ac4 993d de72 60bd
00000120: 728b c4bd fe62 f73c 83a9 fb3d 46bd 5abe
00000130: 8023 763d 6802 62bd 5d64 babd 60f8 843c
00000140: 46c0 d1bb e0e2 a23d b526 393e 8fc7 b23d
00000150: 4f29 663d dbc4 abbd b51e aabd d129 fbbd
00000160: 330d 7a3d 3fbc d23d 714f 1f3d 90df 123d
00000170: 4dfc 08bd 82f4 883c 0a95 49be ba96 823c
00000180: 8323 a13d 3a77 3ebd cd53 d2bd d988 babc
00000190: 7346 f63d 89f6 1f3d 9754 893d 0ada acbd
000001a0: ec92 01bd 278c 20bd 85c1 81bd 06d7 97bd
000001b0: 01b9 733c d662 a53d 5b4f 2d3d d174 ce3d
000001c0: 2413 01be 91a7 683e b0d3 f63d 3313 85bd
000001d0: 3629 2bbd ad53 09bd 0af7 31bd 84aa c4bd
000001e0: 91ea d3bc 4e85 bb3d 3f22 d5bc 8629 57bb
000001f0: 4152 6ebc c3f0 6e3d f490 a9bc 042b 813b
00000200: 2441 0a3d 0d24 cc3b 3ce3 b3bc fea6 9ebd
00000210: 36a3 bb3c 843f b7bc ec9e da3b 1a89 86be
00000220: 103b 88bd ee96 0dbe b571 d83d aa33 8dbd
00000230: 6252 173d 304c ae3c 23fd e3bd 46d9 12be
00000240: c1ce 34be b6f9 033d 20d0 133e 3810 6b3d
00000250: 9e2c e0bc b0a9 08be 8169 263c fe74 4ebc
00000260: c6da 59be 8088 abbd 058c debc 61c1 e7bb
00000270: 5b20 b0bd 3b49 b63c 3be2 313c 8a7e 38bd
00000280: c6f7 14be bbc4 ddbd e327 0abd 3acc 0fbe
00000290: fa6d ec3c d13e 5b3d 2dd7 b23c 7302 d4bd
000002a0: 7126 383d 6a17 fe3c 9a96 36bd 53b8 7cbd
000002b0: a8ad dc3d 585f 1bbb 16c2 07bd 19c3 043e
000002c0: a9c7 54bd 5f24 433d b04b 87bd 1e6d 00bd
000002d0: 3e95 67bc 23ed fe3d cf9c 4abc 59d0 153e
000002e0: ac57 54be d6e6 66bc d0c0 23be 4bed a8bd
000002f0: 7d2a 943c 35b6 463d c640 2c3d 6022 83bd
00000300: 2e15 86bd 78cb 903c ab75 2fbe a9f7 a9bc
00000310: c5de 393d 93ca 2a3d 91a9 1abe a705 52ba
00000320: 8f57 7abc be4e e73d 0fcc 923d dca2 bd3d
00000330: c706 0e3d 6682 04be bf70 bcbd 0f16 8bbc
00000340: 4274 503d ed05 a5bd 4bc8 e43d 653a 37bc
00000350: 4e4b 23bd 1956 823d ce81 e13d 35d7 7abd
00000360: af29 033e 8590 95bd 2f76 4c3d f700 b33d
00000370: dee1 633d 587c 5cbd f77b b13d b303 eebc
00000380: 3d80 0abd 8745 8fbd 0a33 57bd db8d 3c3d
00000390: 710c 943d 91c7 a1bd e996 073d 9232 23bc
000003a0: fcb1 8b3d 7d9a 563e 4c6b 88bd fc50 a9bc
000003b0: 2bfa 753d 7845 e4bc 3ebf 7bbc 62a4 42bc
000003c0: b2aa 16bd c80d 91bd ba81 303e 1265 cebc
000003d0: 9fb3 17be 3df0 b43c 314e 2a3e 1799 cc3d
000003e0: ae1f 5d3d 179d 86bd 869b c23d 8336 3bbc
000003f0: 0ed4 8c3d 0993 523d 2350 f6bc dca8 053e

network_body._body_endoder.seq_layers.2.bias f4 [256]
0.014179277 -0.004130764 0.046615466 -0.021610359 0.0075395848 -0.02585286 0.022804063 0.04364925
0.003932385 0.010191294 -0.03553965 0.034474272 -0.016390461 0.02995173 -0.0009759946 -0.001570678
-0.00887154 0.027661877 -0.024981812 0.00061012973 -0.022939922 0.06622651 -0.018219678 0.036190953
0.028984789 0.014817801 0.017082198 -0.005994745 -0.03465897 0.0048756506 0.0037763177 0.038484406
0.050882407 -0.005071324 0.023331212 -0.050459787 0.06427607 -0.0046827598 0.014308092 -0.044685133
-0.027840443 0.008109299 0.0152303185 -0.015778003 -0.011148199 0.023087326 -0.03513903 -0.0056701778
-0.02973531 0.01728771 -0.008489837 -0.0058103297 -0.028126098 -0.032520752 0.023440799 0.016736576
-0.020930791 0.016260741 0.015115485 0.0011161265 -0.024452798 -0.037560567 0.007597567 0.033237495
0.05370692 0.015122941 -0.00405097 0.00073364563 0.055152085 -0.008066031 0.028076267 -0.0053990674
0.051778704 0.002844429 -0.003871302 0.004572778 -0.023995686 0.0069624614 0.0054677674 0.005110107
-0.024081461 -0.011298353 -0.041013245 0.028465845 0.08297649 -0.02504617 0.0452776 0.021014655
0.04098315 0.009493324 0.0435991 -0.0140965255 0.02309772 -0.011394602 0.0028776245 0.011764002
0.008788446 -0.012099372 -0.0058869133 0.00093191455 0.010508591 0.036386743 -0.005838679 -0.014212575
-0.006989795 -0.019864852 -0.020488137 -0.034208342 -0.038022637 -0.024612224 -0.026087975 0.034941543
0.009575368 -0.045954876 -0.031804267 6.5319815e-05 0.02674232 -0.02574307 0.02166441 -0.06298458
0.020967474 0.018676512 0.01613841 0.014087834 0.018822975 0.018659776 -0.015148946 -0.01777902
-0.034097724 0.053504407 -0.023465198 -0.010600927 -0.0028490382 0.022608163 0.022779852 0.025751462
-0.012934515 -0.013270395 -0.0015262481 -0.043089714 0.0027977305 -0.039097328 -0.017421031 -0.01905527
-0.024136303 0.01109558 -0.018250503 0.007114587 -0.016454335 0.013959999 -0.013397305 -0.0008258381
0.044596083 0.008274125 0.016647913 0.0042681242 -0.014988371 0.0031487998 -0.044835955 -0.024939844
0.045043945 -0.009415761 0.018683936 -0.03496743 -0.060210507 -0.033519853 0.03974337 0.061477095
-0.0076963454 -0.033570554 0.04521325 0.0029504672 0.035892673 -0.020612478 0.022557428 0.0076401373
0.065329775 -0.032258444 -0.028678734 -0.06024847 0.010470601 0.044217687 0.003346431 0.0040621767
-0.0033851946 0.009116156 -0.028491847 0.06465873 -0.008380344 -0.022246337 0.039804038 -0.019000335
-0.006885297 0.042845566 0.004598875 0.00021131836 -0.0006179578 0.0024224052 -0.028263465 -0.027638389
-0.05691621 -0.01424334 -0.0067503303 0.060072113 -0.0029288302 0.0071892934 -0.07314409 -0.023853235
-0.018986216 -0.010149976 0.019221472 0.008838472 -0.0059029288 0.026715009 0.0007864535 0.06298503
0.022771357 0.00806461 0.00745489 -0.021305414 0.04285245 -0.028577391 0.0069498494 -0.023678768
0.041871298 -0.015106346 -0.0009612665 0.014347419 -0.009010262 -0.0015495876 0.028681498 0.022909762
-0.012343909 -0.010630326 0.023835184 0.017176824 0.009716004 0.030794581 0.03971386 0.033524673
-0.038970433 -0.011697092 -0.05646745 0.015568576 -0.0376341 0.064421594 0.026883695 0.03087149
-0.01719496 -0.014080291 0.0318009 -0.0048451405 0.010755217 -0.055289023 0.010978427 0.033095326
00000000: 3350 683c 5c5b 87bb dcef 3e3d 3508 b1bc
00000010: 9f0e f73b 61c9 d3bc 96cf ba3c 8ec9 323d
00000020: 3cdb 803b 63f9 263c 0692 11bd e534 0d3d
00000030: 4a45 86bc 555d f53c e4d9 7fba 35df cdba
00000040: f059 11bc 299b e23c a8a6 ccbc 1df1 1f3a
00000050: 81ec bbbc c4a1 873d 6f41 95bc f73c 143d
00000060: 8271 ed3c 5dc6 723c f7ef 8b3c 916f c4bb
00000070: 90f6 0dbd ecc3 9f3b 197c 773b d3a1 1d3d
00000080: 126a 503d 592d a6bb 1921 bf3c ecae 4ebd
00000090: 2ca3 833d d671 99bb 7d6c 6a3c c207 37bd
000000a0: a411 e4bc dddc 043c 9688 793c df40 81bc
000000b0: f0a6 36bc a221 bd3c f2ed 0fbd e6cc b9bb
000000c0: 7797 f3bc f59e 8d3c f518 0bbc 9464 bebb
000000d0: b468 e6bc 7b34 05bd eb06 c03c 251b 893c
000000e0: 0d77 abbc 3f35 853c f0a6 773c fe4a 923a
000000f0: 3c51 c8bc 1cd9 19bd 03f5 f83b 0a24 083d
00000100: cafb 5b3d 36c6 773c 00be 84bb 2052 403a
00000110: 27e7 613d 6327 04bc 3300 e63c a9ea b0bb
00000120: e815 543d 9a69 3a3b abb5 7dbb 3ed7 953b
00000130: 9a92 c4bc 5c25 e43b f52a b33b af72 a73b
00000140: 7c46 c5bc ba1c 39bc 81fd 27bd 3431 e93c
00000150: 94ef a93d a02d cdbc 0175 393d ed26 ac3c
00000160: f3dd 273d e389 1b3c f894 323d 1df5 66bc
00000170: 6e37 bd3c 6db0 3abc 8796 3c3b cdbd 403c
00000180: 6afd 0f3c 723c 46bc 02e7 c0bb ba4b 743a
00000190: 3a2c 2c3c 440a 153d 6452 bfbb dcdb 68bc
000001a0: a60a e5bb 9dbb a2bc bdd6 a7bc 0c1e 0cbd
000001b0: a0bd 1bbd 939f c9bc 73b6 d5bc dd1e 0f3d
000001c0: 01e2 1c3c 2e3b 3cbd 3145 02bd 4ffc 8838
000001d0: b612 db3c 21e3 d2bc 9079 b13c 0ffe 80bd
000001e0: fbc3 ab3c 7cff 983c b334 843c a9d0 663c
000001f0: a432 9a3c 63dc 983c 4933 78bc 4fa5 91bc
00000200: 0eaa 0bbd 7027 5b3d 163a c0bc 83af 2dbc
00000210: eeb6 3abb c134 b93c d09c ba3c bbf4 d23c
00000220: 4aeb 53bc 126c 59bc 630c c8ba d77e 30bd
00000230: 215a 373b 8524 20bd 8db6 8ebc cc19 9cbc
00000240: 7fb9 c5bc 3cca 353c 1482 95bc 7b21 e93b
00000250: 3ecb 86bc 7bb8 643c 5f80 5bbc 0f7d 58ba
00000260: 62aa 363d 3290 073c 3461 883c 9fdb 8b3b
00000270: c991 75bc 185c 4e3b e8a5 37bd a54e ccbc
00000280: 0080 383d 9044 1abc 0e0f 993c 023a 0fbd
00000290: 4b9f 76bd 1d4c 09bd f2c9 223d 68cf 7b3d
000002a0: a031 fcbb 4781 09bd 8731 393d a05c 413b
000002b0: 3204 133d 80db a8bc 5bca b83c 1e5a fa3b
000002c0: 9ecb 853d 6e21 04bd aaef eabc 1ac7 76bd
000002d0: e28c 2b3c 9b1d 353d cc4f 5b3b 021c 853b
000002e0: 24da 5dbb ee5b 153c bc67 e9bc cc6b 843d
000002f0: b64d 09bc f33d b6bc 8f09 233d 97a6 9bbc
00000300: 0f9e e1bb d57e 2f3d 29b2 963b 5795 5d39
00000310: 72fe 21ba 37c1 1e3b c888 e7bc e769 e2bc
00000320: f920 69bd e65c 69bc e031 ddbb 2d0e 763d
00000330: 9ef1 3fbb 2a94 eb3b 92cc 95bd dc67 c3bc
00000340: fb88 9bbc 164c 26bc 5976 9d3c 3dcf 103c
00000350: 5b6d c1bb 6fd9 da3c 002a 4e3a 4cfe 803d
00000360: ff8a ba3c 6d21 043c 2648 f43b b188 aebc
00000370: 0d86 2f3d 221b eabc 90bb e33b faf9 c1bc
00000380: 3d81 2b3d 9c80 77bc 81fd 7bba 7011 6b3c
00000390: c79f 13bc 881b cbba 76f5 ea3c 41ad bb3c
000003a0: 1b3e 4abc d22a 2ebc 0142 c33c 69b6 8c3c
000003b0: e02f 1f3c eb44 fc3c 00ab 223d 2b51 093d
000003c0: 769f 1fbd 29a5 3fbc 6a4a 67bd 5713 7f3c
000003d0: 3726 1abd 78ef 833d 323b dc3c 35e6 fc3c
000003e0: 72dc 8cbc 05b1 66bc a941 023d fcc3 9ebb
000003f0: a636 303c be76 62bd dcde 333c f78e 073d

action_model._continuous_distribution.log_sigma f4 [1, 12]
-1.6426648 -1.8163319 -1.7787253 -1.8358476 -1.6485835 -1.7212187 -1.7520293 -1.7938575
-1.7650647 -1.734355 -1.8317 -1.7178676
00000000: d742 d2bf 907d e8bf 45ad e3bf 0efd eabf
00000010: c904 d3bf e550 dcbf 7f42 e0bf 1f9d e5bf
00000020: a4ed e1bf 58ff ddbf 2575 eabf 16e3 dbbf

action_model._continuous_distribution.mu.weight f4 [12, 256]
-0.057079908 0.046731856 -0.013993503 -0.014608454 -0.040830478 0.048970766 0.08202599 0.05987462
0.037837323 0.0059852656 0.033963133 -0.080874525 0.00048640624 0.09921731 -0.015921537 -0.1451416
-0.061237752 -0.05006726 -0.13946462 -0.08601517 0.07034871 -0.0037473259 -0.040597044 -0.057525557
-0.19616479 -0.14457485 0.09146367 0.06651424 -0.028080044 -0.07901881 0.07289436 -0.013629525
0.0546923 -0.09184735 0.029137526 -0.0010932063 -0.021410594 -0.00363849 0.018751724 -0.042436443
-0.01527101 -0.016178625 0.0028422587 -0.050768092 0.0074983863 0.035658214 -0.056321714 0.03089463
-0.04778618 0.07640291 -0.0037834796 -0.048452776 -0.023165839 0.01655757 -0.06954733 -0.042310603
-0.048239082 0.023794567 -0.08368306 0.13458316 -0.10323473 0.06957012 0.015905635 0.15146194
-0.028328009 -0.042612165 0.04031395 -0.014080556 0.034754638 0.0074444655 -0.0502657 0.046308026
-0.0069888793 0.0701882 -0.09452372 0.052634872 0.01971479 0.043400377 0.0671415 -0.04467627
-0.14079642 0.14573775 0.001900473 0.010663586 -0.042991076 0.031812117 -0.023048226 -0.08657215
-0.07746199 -0.06710463 0.030807398 -0.05193745 0.012492236 2.9787532e-05 0.061293717 0.07270661
0.018526496 0.042615075 -0.058726195 -0.01944718 -0.090728715 -0.021201735 -0.0015317897 -0.0717351
0.0647249 0.19460039 0.015681023 -0.053734228 0.040878754 0.030232023 0.0002889299 -0.0444337
-0.003652224 0.13561365 -0.08138642 0.038982674 0.019446313 0.017287727 -0.038031157 0.04696006
-0.050272014 0.06499761 -0.035120975 -0.015397149 0.028702386 -0.09950357 0.097120635 -0.11153209
-0.049461614 -0.05290072 -0.009265291 0.05825801 0.04872982 -0.042833183 -0.0061167795 0.11676925
-0.08714232 -0.05632056 0.09270855 -0.029624406 -0.051251736 0.037236985 0.040298343 -0.03377713
0.117363356 0.20326614 -0.03275901 -0.09944201 0.023572031 -0.05622186 -0.125633 -0.060250264
-0.04419464 0.12435883 0.00031930945 -0.06294952 0.016674437 -0.06789555 0.0030879588 -0.04120069
-0.052989103 -0.027889835 -0.086624265 0.013961812 0.07352169 -0.059370138 -0.038496517 -0.11122011
-0.0548436 -0.022572499 0.010016587 -0.035311393 0.06205869 0.018968843 -0.014577243 0.0027834873
0.03256158 0.054151554 0.07909926 -0.057666548 0.03116095 0.018706566 -0.036437925 -0.032480318
-0.021358967 0.012406553 -0.05294845 -0.019746907 0.03551089 -0.0020782854 -0.10302661 -0.010006227
0.020024149 0.0265972 -0.095837176 -0.11740675 0.09687048 -0.022912579 -0.056924775 0.04817791
0.030863423 0.007558342 0.09941259 -0.09910212 -0.03399576 0.10201084 0.07736496 0.024979137
0.049739152 0.054558497 -0.08162098 0.022491427 0.044727784 -0.04806418 -0.023421587 -0.091499604
0.06764418 0.040063575 0.06325466 0.086907275 -0.08288955 0.052539043 0.028297927 0.055865522
0.05307907 0.026879119 -0.02984523 -0.10197751 -0.053450402 -0.055086493 0.03317905 -0.0618999
-0.017965095 0.10972298 -0.016407698 -0.0006585954 0.047417857 -0.107868664 -0.0044603557 -0.07621243
0.10283408 0.00051557785 0.034051895 0.040063947 -0.12021006 -0.09179947 0.031519488 0.051928885
-0.057820085 0.009419363 -0.013496251 -0.051559813 -0.032994583 0.037076443 -0.10532641 0.11483128
00000000: 9fcc 69bd e769 3f3d 0145 65bc 4c58 6fbc
00000010: dc3d 27bd 9295 483d 3efd a73d 173f 753d
00000020: 4ffb 1a3d 0c20 c43b ed1c 0b3d 8ba1 a5bd
00000030: 5704 ff39 7232 cb3d e26d 82bc 00a0 14be
00000040: 70d4 7abd 5413 4dbd d0cf 0ebe b928 b0bd
00000050: fc12 903d b295 75bb 1649 26bd eb9f 6bbd
00000060: 6cdf 48be 6e0b 14be 4e51 bb3d 9e38 883d
00000070: 1f08 e6bc 9dd4 a1bd a349 953d 5f4e 5fbc
00000080: 0805 603d 771a bcbd d2b1 ee3c eb49 8fba
00000090: 4565 afbc bc73 6ebb 379d 993c d6d1 2dbd
000000a0: 4233 7abc 0989 84bc 3045 3a3b 34f2 4fbd
000000b0: 06b5 f53b 590e 123d 99b1 66bd bc16 fd3c
000000c0: 71bb 43bd 2179 9c3d 41f4 77bb 6b76 46bd
000000d0: 49c6 bdbc bea3 873c d56e 8ebd e24d 2dbd
000000e0: 5896 45bd d3ec c23c 0662 abbd 2bd0 093e
000000f0: bb6c d3bd c77a 8e3d 894c 823c d718 1b3e
00000100: 2410 e8bc 188a 2ebd 3e20 253d 22b2 66bc
00000110: e15a 0e3d b4f0 f33b 68e3 4dbd 7cad 3d3d
00000120: f802 e5bb d5be 8f3d a795 c1bd aa97 573d
00000130: e980 a13c 98c4 313d 7c81 893d 77fe 36bd
00000140: f02c 10be 473c 153e 4b19 f93a 52b6 2e3c
00000150: 6917 30bd 6c4d 023d a2cf bcbc bd4c b1bd
00000160: 64a4 9ebd 276e 89bd cc5f fc3c 5dbc 54bd
00000170: 3cac 4c3c 3de0 f937 1f0f 7b3d 34e7 943d
00000180: e1c4 973c 258d 2e3d e18a 70bd b14f 9fbc
00000190: facf b9bd 43af adbc 55c6 c8ba dae9 92bd
000001a0: 7d8e 843d 5345 473e 7d75 803c 6c18 5cbd
000001b0: 7b70 273d 26a9 f73c 847b 9739 1d00 36bd
000001c0: 275a 6fbb 4ede 0a3e ecad a6bd 4cac 1f3d
000001d0: e04d 9f3c fe9e 8d3c 8fc6 1bbd 3159 403d
000001e0: 07ea 4dbd 781d 853d 03db 0fbd 5344 7cbc
000001f0: 4421 eb3c 87c8 cbbd 2fe7 c63d f06a e4bd
00000200: 4398 4abd 6dae 58bd 72cd 17bc f39f 6e3d
00000210: eb98 473d d971 2fbd 446f c8bb b724 ef3d
00000220: ac77 b2bd 63b0 66bd fbdd bd3d e2ae f2bc
00000230: 57ed 51bd cf85 183d e00f 253d e359 0abd
00000240: 335c f03d 0025 503e 502e 06bd 41a8 cbbd
00000250: 221a c13c e548 66bd f0a5 00be fbc8 76bd
00000260: 7005 35bd d8af fe3d fd68 a739 aeeb 80bd
00000270: d498 883c d20c 8bbd 5a5f 4a3b 0ec2 28bd
00000280: 1a0b 59bd 3979 e4bc 1068 b1bd 15c0 643c
00000290: 8a92 963d 1a2e 73bd 86ae 1dbd 5ec7 e3bd
000002a0: afa3 60bd f6e9 b8bc 9c1c 243c aea2 10bd
000002b0: 4131 7e3d 8c64 9b3c 63d5 6ebc 2b6b 363b
000002c0: 4b5f 053d 05ce 5d3d cbfe a13d c233 6cbd
000002d0: 4045 ff3c 833e 993c ef3f 15bd 150a 05bd
000002e0: 00f9 aebc db44 4b3c 79e0 58bd 44c4 a1bc
000002f0: de73 113d d833 08bb 9eff d2bd 28f1 23bc
00000300: af09 a43c 5fe2 d93c 4846 c4bd f372 f0bd
00000310: 0864 c63d 29b3 bbbc f429 69bd 3356 453d
00000320: 4ad5 fc3c f8ab f73b d498 cb3d 0df6 cabd
00000330: 233f 0bbd 0feb d03d 8571 9e3d 0ca1 cc3c
00000340: 48bb 4b3d bb78 5f3d e628 a7bd f13f b83c
00000350: 7b34 373d f2de 44bd a1de bfbc 2564 bbbd
00000360: 0889 8a3d b419 243d a98b 813d 71fc b13d
00000370: ffc1 a9bd 2e33 573d 0ed1 e73c 3fd3 643d
00000380: 7069 593d 9931 dc3c fc7d f4bc 96d9 d0bd
00000390: cfee 5abd 60a2 61bd c1e6 073d c08a 7dbd
000003a0: 892b 93bc 71b6 e03d 7069 86bc 97a5 2cba
000003b0: 3a39 423d 3fea dcbd 2d28 92bb 4315 9cbd
000003c0: ad9a d23d d827 073a 007a 0b3d 181a 243d
000003d0: b130 f6bd 5c01 bcbd 941a 013d 62b3 543d
000003e0: c1d4 6cbd ac53 1a3c 611f 5dbc 6230 53bd
000003f0: 5425 07bd 78dd 173d 5fb5 d7bd aa2c eb3d

action_model._continuous_distribution.mu.bias f4 [12]
-0.013467544 0.009428928 0.02101124 -0.04687415 0.0037163752 -0.019276496 0.04124663 0.01714283
-0.06759583 -0.00016411243 -0.069933124 -0.058106363
00000000: f9a6 5cbc ca7b 1a3c c41f ac3c 1cff 3fbd
00000010: 6e8e 733b bee9 9dbc 3af2 283d 1f6f 8c3c
00000020: af6f 8abd 9815 2cb9 1939 8fbd f000 6ebd

onnx::Div_51 f4 [75]
3.0685706 1.7442842 2.2696118 3.5621605 3.904915 3.8730054 0.22461835 10.283864
0.395205 3.2092104 0.3611075 0.11961663 0.025020119 0.14049277 0.020504944 0.10445396
0.17613679 0.056590136 0.12146078 0.11638358 0.13967806 0.16515236 0.035265338 0.13006684
0.07437267 0.11710039 0.22487283 0.15821505 0.05922457 0.1554148 0.052538294 0.13179535
0.17298152 0.060467184 0.17240126 0.16658895 0.14149192 0.20391081 0.066520594 0.14256215
0.08913885 0.13414402 0.25915238 0.1636504 0.037755087 0.1589624 0.024789112 0.10920606
0.14739044 0.05878915 0.17243761 0.16716929 0.15218633 0.14672574 0.037026808 0.14095214
0.10920334 0.116578825 0.24642102 0.14306688 0.16091283 0.16639729 0.03608072 0.13529596
0.2185292 0.1092014 0.18975377 0.26007757 0.16287753 0.16672173 0.08935837 0.15350181
0.16431266 0.20945424 0.24955073
00000000: 7663 4440 b444 df3f 5241 1140 70fa 6340
00000010: 21ea 7940 52df 7740 5a02 663e b58a 2441
00000020: 4f58 ca3e b463 4d40 15e3 b83e 90f9 f43d
00000030: fef6 cc3c 56dd 0f3e fcf9 a73c f5eb d53d
00000040: 345d 343e 0fcb 673d 6ec0 f83d 845a ee3d
00000050: c407 0f3e b31d 293e 6372 103d 3e30 053e
00000060: b350 983d 54d2 ef3d 1045 663e 2003 223e
00000070: 7695 723d 0f25 1f3e 6532 573d 5cf5 063e
00000080: 1122 313e 70ac 773d f589 303e 4b96 2a3e
00000090: 42e3 103e ffcd 503e f33b 883d d0fb 113e
000000a0: 6e8e b63d 0d5d 093e 9faf 843e f893 273e
000000b0: 14a5 1a3d 0ac7 223e 8912 cb3c 6da7 df3d
000000c0: 85ed 163e e4cc 703d 7c93 303e 6d2e 2b3e
000000d0: bcd6 1b3e 463f 163e 6ca9 173d c255 103e
000000e0: 00a6 df3d e1c0 ee3d cb55 7c3e 2080 123e
000000f0: 55c6 243e 0d64 2a3e 61c9 133d 068b 0a3e
00000100: 1ec6 5f3e fca4 df3d d04e 423e e328 853e
00000110: 5ec9 263e 1ab9 2a3e 8501 b73d 942f 1d3e
00000120: 9441 283e 2c7b 563e 3a8a 7f3e
