results/packaging_fix_test_02/RobotAgent/RobotAgent-0.onnx (onnx, 357277 bytes, 8 tensors)

network_body.observation_encoder.processors.0.normalizer.running_mean f4 [74]
00000000: 0000 0000 0000 0000 0000 0000 0000 0000
00000010: 0000 0000 0000 0000 0000 0000 0000 0000
00000020: 0000 0000 0000 0000 0000 0000 0000 0000
00000030: 0000 0000 0000 0000 0000 0000 0000 0000
00000040: 0000 0000 0000 0000 0000 0000 0000 0000
00000050: 0000 0000 0000 0000 0000 0000 0000 0000
00000060: 0000 0000 0000 0000 0000 0000 0000 0000
00000070: 0000 0000 0000 0000 0000 0000 0000 0000
00000080: 0000 0000 0000 0000 0000 0000 0000 0000
00000090: 0000 0000 0000 0000 0000 0000 0000 0000
000000a0: 0000 0000 0000 0000 0000 0000 0000 0000
000000b0: 0000 0000 0000 0000 0000 0000 0000 0000
000000c0: 0000 0000 0000 0000 0000 0000 0000 0000
000000d0: 0000 0000 0000 0000 0000 0000 0000 0000
000000e0: 0000 0000 0000 0000 0000 0000 0000 0000
000000f0: 0000 0000 0000 0000 0000 0000 0000 0000
00000100: 0000 0000 0000 0000 0000 0000 0000 0000
00000110: 0000 0000 0000 0000 0000 0000 0000 0000
00000120: 0000 0000 0000 0000
0.0 0.0 0.0 0.0 0.0 0.0 0.0 0.0
0.0 0.0 0.0 0.0 0.0 0.0 0.0 0.0
0.0 0.0 0.0 0.0 0.0 0.0 0.0 0.0
0.0 0.0 0.0 0.0 0.0 0.0 0.0 0.0
0.0 0.0 0.0 0.0 0.0 0.0 0.0 0.0
0.0 0.0 0.0 0.0 0.0 0.0 0.0 0.0
0.0 0.0 0.0 0.0 0.0 0.0 0.0 0.0
0.0 0.0 0.0 0.0 0.0 0.0 0.0 0.0
0.0 0.0 0.0 0.0 0.0 0.0 0.0 0.0
0.0 0.0

network_body._body_endoder.seq_layers.0.weight f4 [256, 74]
00000000: d2c5 753d 2eae 7bbd 45da 403d a479 d83d
00000010: 9444 873d 3028 88be d195 1f3d b3de 1d3d
00000020: f503 873e 136c 88be bb9e 333b 3be0 c53d
00000030: dc61 293e 1396 26be ac31 6cbd 8949 1dbe
00000040: fb7a 90be 30d2 113d c378 01be 8d0d 173d
00000050: 93ef 53bd c396 1c3e f3e2 08bc 1d4c b33c
00000060: 7660 b33d d403 c1bc caab fb3b 646e 3e3e
00000070: 16ab c9bd b398 abbc 9e0c ba3d 2c99 993d
00000080: abda 4d3e b4ca 853e e1cb 5d3d 1e79 80bc
00000090: b5d0 41be e1a0 c43b 1813 5c3d f565 413d
000000a0: 203b 85bd 1ac2 03be 5dd1 433d 8d02 033d
000000b0: 53a7 44bd 4cda 86be a74c f9bd 84d4 67be
000000c0: 5fc6 a73d 83a8 e9bd bc76 b53b bfeb b2bd
000000d0: e5dc cbbc 6a1f 40bd 6793 52be 7263 89bd
000000e0: b43a 17bd e9e8 3c3c aa88 65bd 4d6d d1bd
000000f0: 79fc 123e 2826 163b 7dcd 8bbd 1691 053e
00000100: 544d 51be 6c79 9dbc 33bc 38bd 0356 b4bb
00000110: 99a5 4e3e 0f26 673d 0936 193d eecf f43c
00000120: b280 bf3d 7342 04be 89dd cfbd 01f0 ff3d
00000130: a868 bcbc 0c79 1fbe 5da7 523c ebfc 113d
00000140: 3ff0 7abd 3b50 a3bd f58b 483d ef1b dcbd
00000150: d927 943c 55ac 05be 6a8a 2ebb 7862 f13b
00000160: 340b a33d 1711 47bd f91a 83bd b774 a43d
00000170: 375a f23d a40c ac3d e3a7 573d 80c5 103e
00000180: 5684 3fbc cc69 753e 1fcb 123e b702 1cbc
00000190: 6d39 99bd 2fd1 77bc b841 56bd 0c3e c5bc
000001a0: 64f5 0abe c48f bd3d 241b 89bd 2f22 13bd
000001b0: 7c5d 8ebd c0cc 68bd e380 b8bd 0194 84bd
000001c0: bd70 f03d f940 683d 9a88 613e 0a86 983c
000001d0: 58f8 9a3d 452f 83bd 34e5 3fbd 2dc1 d7bd
000001e0: 477a a1bb 4a73 d5bc 4737 b0bd 29a2 13be
000001f0: 1f18 2dbe 7b6a 473d 97da a93d a227 9e3d
00000200: de0d 02bd a94a 723d fdbf 4cbe f6f2 1abd
00000210: cc5c 423e af7e 5b3c 8a42 99bd 644c 703d
00000220: feda 27be 5425 cb3d afb1 d73c 1905 afbd
00000230: d8d3 d63c 1c54 97bd 8658 00be a41d 753d
00000240: 9fde 8e3c 0635 1a3e cb19 f23c 7652 b0bd
00000250: e7a9 34be da68 1dbc b7f2 6cbe 433a 463d
00000260: cf09 943d e464 62be 83a2 fb3c 13d7 02bd
00000270: 1eaf 2cbe f01e bdbd 0214 c4bd 3ca3 efbd
00000280: 3294 823d 9d15 bebd e761 33bd 3312 92bd
00000290: c08e fc3d 8039 223e 5894 3fbe 301f a9bd
000002a0: 4ca7 10be 0885 cabc 55af 563d 002e 663e
000002b0: dfe6 9c3d 5ee6 bb3e fc54 4cbe 00d3 b0bd
000002c0: 2ec8 913d 132c 16bd bde3 82be fc1a 823d
000002d0: ab38 65bd 9cb1 3fbd 7d32 a03c 70cf 90bd
000002e0: eb59 16be 29d0 563e edbf 87bc f081 043e
000002f0: b6fd a1bd 06ed 06be 8658 9f3d 17ff 953b
00000300: 6128 103e abd0 663c c9f1 2f3e eb13 133e
00000310: 4eae f1bd e308 9e3d 188b 4dbd ccf2 903d
00000320: e480 ae3d a0b5 a13d a932 8cbd 0468 8e3c
00000330: 4c6a 9ebd 36b7 213d 1480 88bc 1431 57be
00000340: ab73 27bb 6fb2 72bd c649 c83d 65b0 e33d
00000350: 039a 89be 8a2d f23d e65d 67be 6fa7 1dbe
00000360: 49a7 80bc c4f4 c2bc 8503 bcbd 587b aabd
00000370: 76b3 d93d f346 863d 75be 6b3d f4e3 413d
00000380: 9d7c 823d f74f 90bd 936c e03d edeb 61be
00000390: 918c 523c fb23 893e 7649 40bc 060d 943d
000003a0: 20c0 ab3d 3229 e93d 910a 163d 2464 f1bd
000003b0: f288 7abd 2037 68be fa51 03bd b2eb 423c
000003c0: 7e98 c73d ed64 6dbe 5d61 3c3c 8152 a8bd
000003d0: 706d a6bd af14 55be a23c b3bd 39ad 933c
000003e0: 781f b3bd b560 83bd 601d 80bd 814d 203e
000003f0: 8789 e13c f872 20bd 5337 e73d 2425 203e
0.06000311 -0.061445408 0.047083158 0.10570076 0.06604877 -0.2659316 0.038961235 0.03854246
0.26370206 -0.26644954 0.0027407843 0.09661909 0.16541237 -0.16268186 -0.05766456 -0.15360083
-0.28218827 0.03560084 -0.12643723 0.036878157 -0.051742148 0.15291886 -0.00835489 0.02188688
0.08758633 -0.023561396 0.007680391 0.18596798 -0.09847085 -0.020946836 0.09084438 0.07499918
0.20102946 0.26131213 0.054149512 -0.015682753 -0.18927272 0.0060006236 0.053729147 0.047216374
-0.06505418 -0.12867013 0.047807086 0.031984854 -0.048011135 -0.26338422 -0.121728234 -0.22639662
0.08192133 -0.11409094 0.005537836 -0.08736371 -0.024885604 -0.04690496 -0.20564042 -0.06708421
-0.036921218 0.0115301395 -0.056038536 -0.102259256 0.14354123 0.0022910926 -0.06826303 0.13043627
-0.20439655 -0.019222938 -0.045101356 -0.0055034175 0.20180358 0.05643278 0.037405048 0.029884305
0.093507186 -0.12915973 -0.10149676 0.12496949 -0.022999123 -0.1557352 0.012857285 0.035641592
-0.061264273 -0.07974287 0.0489616 -0.107475154 0.018085407 -0.1305402 -0.0026632794 0.0073664747
0.07961121 -0.048600283 -0.06401629 0.08030074 0.11833613 0.084008485 0.052650344 0.1413784
-0.011689266 0.2396614 0.14335297 -0.009522132 -0.07481656 -0.015125557 -0.052308768 -0.024077438
-0.13570172 0.09255937 -0.0669463 -0.035921272 -0.069514245 -0.05683589 -0.09008958 -0.06473542
0.11740253 0.056702588 0.22024766 0.018618602 0.07566899 -0.064055 -0.046849445 -0.10534892
-0.0049279067 -0.02605595 -0.08604293 -0.14417328 -0.16903733 0.048685532 0.08293646 0.07722403
-0.031751506 0.059153233 -0.19995113 -0.03782936 0.18980712 0.013396903 -0.074833944 0.0586666
-0.16392133 0.09919229 0.026329843 -0.08545894 0.026224062 -0.073890895 -0.12533769 0.05984272
0.017440138 0.1505929 0.029553315 -0.08609478 -0.17642938 -0.009607518 -0.23139463 0.048395406
0.07228433 -0.22108799 0.03071714 -0.031943392 -0.16863677 -0.092344165 -0.09574129 -0.11701056
0.06375922 -0.09281466 -0.04379454 -0.071323775 0.12331915 0.15842247 -0.18708932 -0.08257902
-0.14126319 -0.024721637 0.052413303 0.22478485 0.07661223 0.36699194 -0.19954294 -0.08633995
0.07118259 -0.036663126 -0.25564376 0.06352803 -0.055962246 -0.04680024 0.019555325 -0.070708156
-0.14682738 0.20977844 -0.01657101 0.12940192 -0.0790972 -0.13176355 0.077805564 0.004577528
0.14077903 0.014087836 0.17182077 0.14363067 -0.11800824 0.07716539 -0.05018148 0.0707756
0.08520678 0.0789597 -0.068456 0.017383583 -0.07735118 0.039481364 -0.016662635 -0.21014816
-0.0025551121 -0.0592522 0.09779696 0.11117629 -0.26875314 0.11825092 -0.22594413 -0.15395902
-0.015704768 -0.023798354 -0.09180359 -0.08324307 0.106299326 0.06556501 0.05755468 0.047336534
0.06371424 -0.07046502 0.10958209 -0.22062655 0.012850896 0.26785263 -0.011736264 0.072290465
0.08386254 0.113848105 0.03663117 -0.117866784 -0.061165757 -0.22677279 -0.0320606 0.011897014
0.097458825 -0.23183031 0.011497823 -0.08218861 -0.08126342 -0.20808671 -0.08751799 0.018026935
-0.087462366 -0.0641493 -0.06255603 0.15654565 0.027531398 -0.039172143 0.11289849 0.15639168

network_body._body_endoder.seq_layers.0.bias f4 [256]
00000000: 0000 0000 0000 0000 0000 0000 0000 0000
00000010: 0000 0000 0000 0000 0000 0000 0000 0000
00000020: 0000 0000 0000 0000 0000 0000 0000 0000
00000030: 0000 0000 0000 0000 0000 0000 0000 0000
00000040: 0000 0000 0000 0000 0000 0000 0000 0000
00000050: 0000 0000 0000 0000 0000 0000 0000 0000
00000060: 0000 0000 0000 0000 0000 0000 0000 0000
00000070: 0000 0000 0000 0000 0000 0000 0000 0000
00000080: 0000 0000 0000 0000 0000 0000 0000 0000
00000090: 0000 0000 0000 0000 0000 0000 0000 0000
000000a0: 0000 0000 0000 0000 0000 0000 0000 0000
000000b0: 0000 0000 0000 0000 0000 0000 0000 0000
000000c0: 0000 0000 0000 0000 0000 0000 0000 0000
000000d0: 0000 0000 0000 0000 0000 0000 0000 0000
000000e0: 0000 0000 0000 0000 0000 0000 0000 0000
000000f0: 0000 0000 0000 0000 0000 0000 0000 0000
00000100: 0000 0000 0000 0000 0000 0000 0000 0000
00000110: 0000 0000 0000 0000 0000 0000 0000 0000
00000120: 0000 0000 0000 0000 0000 0000 0000 0000
00000130: 0000 0000 0000 0000 0000 0000 0000 0000
00000140: 0000 0000 0000 0000 0000 0000 0000 0000
00000150: 0000 0000 0000 0000 0000 0000 0000 0000
00000160: 0000 0000 0000 0000 0000 0000 0000 0000
00000170: 0000 0000 0000 0000 0000 0000 0000 0000
00000180: 0000 0000 0000 0000 0000 0000 0000 0000
00000190: 0000 0000 0000 0000 0000 0000 0000 0000
000001a0: 0000 0000 0000 0000 0000 0000 0000 0000
000001b0: 0000 0000 0000 0000 0000 0000 0000 0000
000001c0: 0000 0000 0000 0000 0000 0000 0000 0000
000001d0: 0000 0000 0000 0000 0000 0000 0000 0000
000001e0: 0000 0000 0000 0000 0000 0000 0000 0000
000001f0: 0000 0000 0000 0000 0000 0000 0000 0000
00000200: 0000 0000 0000 0000 0000 0000 0000 0000
00000210: 0000 0000 0000 0000 0000 0000 0000 0000
00000220: 0000 0000 0000 0000 0000 0000 0000 0000
00000230: 0000 0000 0000 0000 0000 0000 0000 0000
00000240: 0000 0000 0000 0000 0000 0000 0000 0000
00000250: 0000 0000 0000 0000 0000 0000 0000 0000
00000260: 0000 0000 0000 0000 0000 0000 0000 0000
00000270: 0000 0000 0000 0000 0000 0000 0000 0000
00000280: 0000 0000 0000 0000 0000 0000 0000 0000
00000290: 0000 0000 0000 0000 0000 0000 0000 0000
000002a0: 0000 0000 0000 0000 0000 0000 0000 0000
000002b0: 0000 0000 0000 0000 0000 0000 0000 0000
000002c0: 0000 0000 0000 0000 0000 0000 0000 0000
000002d0: 0000 0000 0000 0000 0000 0000 0000 0000
000002e0: 0000 0000 0000 0000 0000 0000 0000 0000
000002f0: 0000 0000 0000 0000 0000 0000 0000 0000
00000300: 0000 0000 0000 0000 0000 0000 0000 0000
00000310: 0000 0000 0000 0000 0000 0000 0000 0000
00000320: 0000 0000 0000 0000 0000 0000 0000 0000
00000330: 0000 0000 0000 0000 0000 0000 0000 0000
00000340: 0000 0000 0000 0000 0000 0000 0000 0000
00000350: 0000 0000 0000 0000 0000 0000 0000 0000
00000360: 0000 0000 0000 0000 0000 0000 0000 0000
00000370: 0000 0000 0000 0000 0000 0000 0000 0000
00000380: 0000 0000 0000 0000 0000 0000 0000 0000
00000390: 0000 0000 0000 0000 0000 0000 0000 0000
000003a0: 0000 0000 0000 0000 0000 0000 0000 0000
000003b0: 0000 0000 0000 0000 0000 0000 0000 0000
000003c0: 0000 0000 0000 0000 0000 0000 0000 0000
000003d0: 0000 0000 0000 0000 0000 0000 0000 0000
000003e0: 0000 0000 0000 0000 0000 0000 0000 0000
000003f0: 0000 0000 0000 0000 0000 0000 0000 0000
0.0 0.0 0.0 0.0 0.0 0.0 0.0 0.0
0.0 0.0 0.0 0.0 0.0 0.0 0.0 0.0
0.0 0.0 0.0 0.0 0.0 0.0 0.0 0.0
0.0 0.0 0.0 0.0 0.0 0.0 0.0 0.0
0.0 0.0 0.0 0.0 0.0 0.0 0.0 0.0
0.0 0.0 0.0 0.0 0.0 0.0 0.0 0.0
0.0 0.0 0.0 0.0 0.0 0.0 0.0 0.0
0.0 0.0 0.0 0.0 0.0 0.0 0.0 0.0
0.0 0.0 0.0 0.0 0.0 0.0 0.0 0.0
0.0 0.0 0.0 0.0 0.0 0.0 0.0 0.0
0.0 0.0 0.0 0.0 0.0 0.0 0.0 0.0
0.0 0.0 0.0 0.0 0.0 0.0 0.0 0.0
0.0 0.0 0.0 0.0 0.0 0.0 0.0 0.0
0.0 0.0 0.0 0.0 0.0 0.0 0.0 0.0
0.0 0.0 0.0 0.0 0.0 0.0 0.0 0.0
0.0 0.0 0.0 0.0 0.0 0.0 0.0 0.0
0.0 0.0 0.0 0.0 0.0 0.0 0.0 0.0
0.0 0.0 0.0 0.0 0.0 0.0 0.0 0.0
0.0 0.0 0.0 0.0 0.0 0.0 0.0 0.0
0.0 0.0 0.0 0.0 0.0 0.0 0.0 0.0
0.0 0.0 0.0 0.0 0.0 0.0 0.0 0.0
0.0 0.0 0.0 0.0 0.0 0.0 0.0 0.0
0.0 0.0 0.0 0.0 0.0 0.0 0.0 0.0
0.0 0.0 0.0 0.0 0.0 0.0 0.0 0.0
0.0 0.0 0.0 0.0 0.0 0.0 0.0 0.0
0.0 0.0 0.0 0.0 0.0 0.0 0.0 0.0
0.0 0.0 0.0 0.0 0.0 0.0 0.0 0.0
0.0 0.0 0.0 0.0 0.0 0.0 0.0 0.0
0.0 0.0 0.0 0.0 0.0 0.0 0.0 0.0
0.0 0.0 0.0 0.0 0.0 0.0 0.0 0.0
0.0 0.0 0.0 0.0 0.0 0.0 0.0 0.0
0.0 0.0 0.0 0.0 0.0 0.0 0.0 0.0

network_body._body_endoder.seq_layers.2.weight f4 [256, 256]
00000000: 25e8 823b ff5b a33d 95e7 4b3d ba08 db3c
00000010: 5609 30bd 0c06 b43c dd69 01be 4970 793c
00000020: 882d 80bd 1b25 343d 7df8 063e dc23 89bd
00000030: 3f95 acbd 1fcc 843c 6181 bb3c 2b76 a1bc
00000040: 950b 0fbd f8c4 56bc 5b43 9fbc 1d76 d1bd
00000050: b107 883d 78d0 d63c 7593 1f3c f4da 293d
00000060: 10d7 0ebc 9067 993d 3440 1a3e d6b5 b5bd
00000070: 9204 63bd 93d6 bf3d ccb5 413d e340 31bb
00000080: 83e5 963d 7ff2 dabc 3d0f 193e 1447 c73c
00000090: 9aff 9a3d 6422 70bd 72d9 90bc f404 583d
000000a0: 275f f1bd 15c6 90bc 0b0d 9f3d 6dbf 513b
000000b0: c6ca 683d 239b 53bd dc45 94bd 6971 883d
000000c0: 28c9 4cbc 0a89 bc3d 0dd3 c13c 0d08 54ba
000000d0: 43ec 4abd 8233 4d3d e9b0 a13c 2f70 533b
000000e0: ec9f 01be fdac 86bd 9e3d 56bd 5d9f de3c
000000f0: b2c1 123d e31c 043e 25de 97bd 477b b63d
00000100: 8dbe aabd 5e16 84bd fe39 f9bc 6e5b a13d
00000110: 33f2 d5bd 50cb 913d 0936 5ebd d839 efbb
00000120: 48c1 bdbd 9c1d b6bc 14e2 b0bc eae5 b4bc
00000130: 0131 0d3c 46ed 623d 23a3 73bd 8681 eb3a
00000140: 8d53 abbd dd04 023d 9838 8e3d 7410 57bd
00000150: 119c 113d 3923 2a3c b29b 92bd 5bba ce3b
00000160: 5832 f93d 9242 8ebd 512a 0dbe 3a73 ae3b
00000170: 7348 edbd 7f72 61bd 001c d7bd e239 0d3d
00000180: 9752 95bd d18f 54bd 4450 c03b 2ed5 88bd
00000190: 3592 53bd 928c 41bc 530c 1bbd fc4e 02bd
000001a0: af6e a6bc e073 0abc b2f3 30bd 71fa ac3a
000001b0: 8338 29bc 5584 68bd 0f04 833d 94a8 e53c
000001c0: a41a 58bd 4216 5d3d ffe9 da3c 3d2d ecbc
000001d0: 9648 c7bc 851c 7a3d 7b18 c93d 8570 d1bd
000001e0: a32b b7bc 23c8 053d 1e58 3e3d 0493 9a3d
000001f0: 3885 4bbd 1a5b a6bc a0e5 8d3b ce6b 2b3e
00000200: b5c1 4cbd cdc0 ff3d d531 893d b11a 5e3d
00000210: e2c8 0ebd 6feb 1c3d 3358 e83c 93a9 723d
00000220: e60a cf3d 05c4 fd3c ff7e e53b 7411 82bd
00000230: 4624 a03c 0adf 113d 29e7 3fbd 5b7a 84bd
00000240: d43f 0dbe 9eb8 f0bd a088 8b3c a5ed 983d
00000250: 8dfe 103e 86b6 973c 6bcf 0a3d 6a10 8d3d
00000260: 2e2d f13d 407b 81bd f41e 8dbd dc5d 213d
00000270: e6f8 02be 66fd 8b3c 6771 13be 8e07 d63c
00000280: 1bae e7bc 4741 433d ba7e b83d 07f7 bdbc
00000290: 642a c0bd 032b 5b3c 71dc 033d f6fe abbb
000002a0: 7724 2bbc 1f73 8abd c755 b5bd 29e8 783d
000002b0: e23a 00be dd55 3bbd 8841 793c 6e1e 31bd
000002c0: 6426 83bd ecbe 86bd 0211 853d 0096 143a
000002d0: a224 06bc d0d1 f6bc d056 833d a786 81bd
000002e0: 2f9f cdbd fae6 013d e9e1 52bd 6bf7 99bd
000002f0: ab15 80bb e2ae 3f3d e5b7 e8bc 4fad 1bbe
00000300: e0d1 723d af98 5dbb fdb7 f43c 2507 52bb
00000310: 5562 e1bd 1754 993d eacf 7dbd c93b fcbd
00000320: 2913 013d f58c 023d 307e 543d 0c49 07be
00000330: 4cd4 56bd 4474 493d 19a9 603c cc6b 50bc
00000340: 3cf0 2a3d 7829 9bbc c4b6 cf3b 28b9 a43d
00000350: b466 963d a841 65bc de05 1a3c 371f d1bd
00000360: 66cb b03c 5f5d afbd caeb e13d bdef b6bd
00000370: 1176 453c 7be2 82bd 0306 3ebc 48ac 9c3c
00000380: d49a 9abd e131 67bb 5aef 0f3d 8e53 23be
00000390: eca9 fdbc 0cba 1c3d e185 82bd 557f 2dbc
000003a0: 6b8c a73d c1e6 823d a62a 58bc 44e7 4bbd
000003b0: 78f5 cebd e5c1 a7bd 801d 80bd 4d04 e5bc
000003c0: 890f 54bd 3e57 8dbd c5fa c2bd 8762 f93b
000003d0: b895 303d 9095 17bd 62d3 bcbb 7383 9d3d
000003e0: 0119 95bc ce6f 79bc 2efb 04be ce8f 41bc
000003f0: 21b6 e43d a5cd 70bd f0aa fbbc b6cf 153c
0.003994959 0.07976531 0.0497814 0.02673756 -0.042977653 0.02197554 -0.1263804 0.015224525
-0.062586844 0.0439807 0.13180728 -0.06696293 -0.08426904 0.016210614 0.022888841 -0.019709667
-0.034923155 -0.013108484 -0.019441297 -0.102276064 0.06642092 0.026222453 0.009739746 0.041468576
-0.008718267 0.07490456 0.15063554 -0.08872573 -0.05542428 0.09367099 0.047292516 -0.0027046732
0.07367995 -0.02672696 0.14947219 0.024325885 0.075682834 -0.058626547 -0.017681811 0.0527391
-0.11785727 -0.017672578 0.077661596 0.0032004968 0.056834005 -0.05166162 -0.07239887 0.06662256
-0.012499131 0.092058256 0.023660207 -0.0008088358 -0.049541723 0.05009795 0.019737678 0.0032262912
-0.12658662 -0.06575964 -0.052304856 0.0271756 0.035829253 0.12901644 -0.074154176 0.08910232
-0.08337126 -0.06449579 -0.03042316 0.07878767 -0.104465865 0.07118857 -0.05425075 -0.0073005967
-0.09265381 -0.022230916 -0.021592177 -0.022082288 0.0086176405 0.055402063 -0.05948175 0.0017967678
-0.083655454 0.03174292 0.06944388 -0.052505925 0.035549227 0.010384374 -0.07158603 0.0063088364
0.121678054 -0.06946291 -0.13785674 0.0053237947 -0.11586084 -0.055040833 -0.105033875 0.03447903
-0.072911434 -0.051894967 0.0058689434 -0.06681286 -0.051653106 -0.0118133 -0.03785355 -0.031813607
-0.02031645 -0.008450478 -0.043201156 0.0013197196 -0.010328415 -0.056766827 0.063972585 0.028034486
-0.05275978 0.053976305 0.026722906 -0.028830165 -0.024326604 0.061062355 0.098191224 -0.102265395
-0.022359675 0.03266157 0.046470754 0.07547572 -0.049687594 -0.020307112 0.004330352 0.16740343
-0.04998942 0.12487946 0.06698958 0.054224674 -0.034859546 0.038310464 0.02836237 0.05924375
0.101095006 0.030977258 0.0070036645 -0.06350985 0.019548547 0.035613097 -0.04685131 -0.0646865
-0.1379388 -0.11753963 0.017032921 0.07467202 0.14159603 0.018519651 0.033889215 0.06887896
0.117761955 -0.06322336 -0.068906695 0.039396152 -0.1279026 0.017088603 -0.14398728 0.02612665
-0.028281262 0.047669675 0.09008546 -0.02318908 -0.09383085 0.013376954 0.03219265 -0.0052488996
-0.010445706 -0.06760239 -0.08854251 0.06076828 -0.12522462 -0.045736182 0.015213378 -0.04324191
-0.06403807 -0.06579384 0.064973846 0.00056681037 -0.008187445 -0.030129343 0.064130425 -0.06324511
-0.100401275 0.031714417 -0.051484976 -0.07517894 -0.003908833 0.04679764 -0.028408 -0.1520283
0.059282184 -0.003381293 0.029872889 -0.0032047716 -0.110050835 0.07486742 -0.06196586 -0.123160906
0.031512413 0.03187271 0.051878154 -0.13211459 -0.052448556 0.049183145 0.013712191 -0.012721013
0.04173301 -0.018940672 0.006338926 0.08043128 0.07343808 -0.013992704 0.009400813 -0.10211032
0.021581363 -0.08562731 0.11031301 -0.08932445 0.012052075 -0.06390854 -0.011598113 0.019125119
-0.07549062 -0.0035277533 0.035140373 -0.15949842 -0.030964814 0.038263366 -0.063731916 -0.01058944
0.081810795 0.06391669 -0.013193762 -0.0497811 -0.10105413 -0.08191279 -0.06255627 -0.027956152
-0.051772628 -0.06901406 -0.09520487 0.0076106223 0.043111533 -0.03700787 -0.0057625035 0.076910876
-0.0182004 -0.01522441 -0.12986442 -0.011814071 0.11167551 -0.058789868 -0.030721158 0.00914376

action_model._continuous_distribution.log_sigma f4 [1, 12]
00000000: 0000 0000 0000 0000 0000 0000 0000 0000
00000010: 0000 0000 0000 0000 0000 0000 0000 0000
00000020: 0000 0000 0000 0000 0000 0000 0000 0000
0.0 0.0 0.0 0.0 0.0 0.0 0.0 0.0
0.0 0.0 0.0 0.0

action_model._continuous_distribution.mu.weight f4 [12, 256]
00000000: 855c ba3a 6150 bdbb 86d2 283c 9e1f 833b
00000010: cb9b 053b 3388 24bb 7ffb 59bc a8d1 983c
00000020: 2dfe 7f3b 10bd e1bb aef3 9c3b 25c5 513c
00000030: 130d 8d3a 7db4 cdbc 9b90 2c3c 76e7 8fbc
00000040: 2028 67bc 8f6d 11bc e555 60bb d5f2 d1bb
00000050: 67d6 92bc ba3d 6f3b d3bf bc3c 4908 113c
00000060: d268 173c 1f2d b0bc 3306 753c bda2 9a3c
00000070: 508f 163b c11f aebc 4d3c 5a3b 4190 87bb
00000080: 9573 ddba 35a9 593c b47a 0bbc d390 07bc
00000090: 739d 82bb 17fb 09bb 0c5c 213c ca83 fabb
000000a0: c545 b7bb f799 3f3c 1016 d0bb b12a 99bb
000000b0: 4f31 a23c 6e62 2d3c 83a5 523c 0df2 4c3c
000000c0: 4da6 30bc 835f 18bc 578a 03bb 6375 05bc
000000d0: 0fb3 f93c e23b 6abc 1223 183c 273e 88bb
000000e0: 4cfb 123c b340 87bc 4bec c4bc ba93 5dbc
000000f0: 4405 993c 131f 2d3c f305 75bc 6f89 cc3b
00000100: 70a3 46bb 380b 14bc 84e0 9f3c 6f36 05bc
00000110: cbf6 1c3b abbf c53c c8b6 b6bc 4ae2 b63c
00000120: 234e a4bb 6b46 85bc 597d c23c d08b d239
00000130: f3ff 783c 068b 81bc 8344 aab9 a317 933c
00000140: 712b 893a 6957 8d3b bb5d f2bb 264e 253b
00000150: dd9b 413c 3dd6 503c 1943 863c 783c a43c
00000160: c7d1 b93b 53d6 8a3b 21e5 b639 989d 29bb
00000170: 9ad5 a8bb 8522 efbb 7ce6 11bc ad2b 51bb
00000180: 4b54 1f3c 7f3f a3bc 7261 fb3b 927e aa3b
00000190: 816e 82bc e76c 273c bbbc d3bb 0c75 a8bc
000001a0: 8316 d03c ed49 74bc 1c97 493b 87a0 95bc
000001b0: 28f9 413c 5943 c0bb d367 1d3a ed3f 893c
000001c0: 5764 77ba 31db adbc 2b4e 483b ef94 cd3b
000001d0: 6ab8 e23b d0be 90bb b29a 86bb 1393 3c3c
000001e0: 2f34 15ba 1c5c 983b ab53 adbc 3a88 4c3c
000001f0: 2e4b 2dbc 7f21 fe3b 8fb4 143c 8904 86bb
00000200: c061 40bc fddc d53b 7985 3fbc f562 6fbc
00000210: 32a0 8abc db6e bdbb 64cf 8abb 445b a73c
00000220: 3d61 a83b cc1e 01bb 232b a93a 4dac 583c
00000230: 73bb 053a aa48 633c 430a 063c 8b61 ebbb
00000240: a551 2e3c 8660 433b 2614 963c 377d d23b
00000250: bd54 debb 27d6 373b 5255 0c3c ae5b 313c
00000260: d7e9 713b abb6 7e3c cf14 f338 2348 2cbc
00000270: 5f79 32bb 279d a4bc 20f7 f73b 8864 1e3c
00000280: 27c8 03bb 8a87 57bc 17dd 743c c5bb 533c
00000290: c96e 22bc 268f 0dbb 97e2 6e3c 6e65 a33b
000002a0: 7263 903c bfd4 6a3a cb5b 9e3c 53ee 1fb9
000002b0: ad93 8a3b ab5e a7bc 951b 443c 8a5e 673b
000002c0: ecab 9e3c f046 96bb 3544 e4ba 3a35 f93c
000002d0: cb1c eabb 53b7 9b3b d9f0 02bc 3107 283c
000002e0: 40d5 56bc f4b6 9abb bfb6 5e3b fa68 b3bc
000002f0: faf5 293b 83bf 1d3c 223a 07b7 7f5a 793c
00000300: 4ffd e1bc e33f 8abc 0305 eb3b 084b 27bc
00000310: 96a0 c2bc e104 2abc fa88 8a3c 5a13 d23b
00000320: 1afe eb3b 6d30 663b 031e 7e3b a69a 373a
00000330: 3d3e 4139 c3e8 943c 2335 b2bb 63ba 273b
00000340: f3f5 203c dd09 933c 1f00 0c3b 18b2 4e3c
00000350: 90b4 6cbc 1ac7 683b c660 96bb 29b3 8bbc
00000360: c379 153c ae13 19bd e0bd 63bc d7a8 ddbb
00000370: 3aa5 6eba 2bbb cd3b eacb 333c f550 eb3b
00000380: 40eb 5dbc 4bd8 94bc 37a0 b4bc b782 f23b
00000390: 7a90 7fbb 9db4 babc 9bd0 3f3b c704 733b
000003a0: e3cb cc3b 69d4 893c 615f b6bb 639e 2d3b
000003b0: 4a8e f6bb 0596 8dbb ca55 a7bb 1396 33bc
000003c0: 87dd 4d3b 4217 84bc 0f71 07bc b31d 6f3a
000003d0: 9be1 c0bb cdbd cebb 1a8f dd3b 0642 b139
000003e0: ef8a 573c 0ffe 6d3c 5f70 123c 1227 93ba
000003f0: bf64 533c 5b89 533c 1677 1e3b 53a7 02bc
0.0014218247 -0.005777404 0.010304099 0.004001572 0.002038705 -0.0025105595 -0.01330459 0.01865466
0.0039061413 -0.006888993 0.004789791 0.012803351 0.0010761343 -0.025110478 0.0105325235 -0.017566424
-0.014108688 -0.008876218 -0.0034230885 -0.0064071217 -0.0179245 0.0036505298 0.023040688 0.008852073
0.0092413 -0.02150589 0.014955091 0.018876428 0.0022973605 -0.021255376 0.0033300102 -0.0041370695
-0.0016895408 0.013284971 -0.008513141 -0.008274275 -0.0039860546 -0.0021054202 0.009848606 -0.007645105
-0.005593034 0.011694423 -0.0063502863 -0.0046742787 0.019798903 0.0105825495 0.012856844 0.012508881
-0.010781837 -0.0093001155 -0.002007147 -0.008145663 0.03048089 -0.014296504 0.009285705 -0.0041577998
0.008971047 -0.016510343 -0.024038455 -0.01352399 0.018679269 0.010566491 -0.014955032 0.0062419693
-0.0030309819 -0.009035878 0.019516237 -0.008130654 0.002395081 0.024139246 -0.022303954 0.0223247
-0.0050141974 -0.01626893 0.023741411 0.0004015849 0.015197742 -0.015813362 -0.00032475972 0.017955607
0.0010465217 0.0043133986 -0.0073964274 0.0025223582 0.011816946 0.012746391 0.016389417 0.020048365
0.0056707594 0.004236975 0.0003488446 -0.0025881287 -0.0051524164 -0.007297816 -0.008905049 -0.0031916902
0.009724687 -0.019927738 0.0076715285 0.0052030766 -0.015921833 0.010218835 -0.0064617074 -0.020563625
0.02540136 -0.014910203 0.0030760234 -0.018265022 0.011839189 -0.0058674035 0.0006004546 0.016754115
-0.0009437254 -0.021222683 0.003056417 0.006273858 0.0069189565 -0.004417278 -0.0041077966 0.011509675
-0.0005691675 0.004649652 -0.02115806 0.012483651 -0.010577006 0.007755458 0.009076252 -0.004089896
-0.011742055 0.006526588 -0.011689537 -0.014610996 -0.01692209 -0.0057810373 -0.0042361487 0.020429261
0.005138545 -0.0019702194 0.0012906533 0.013224673 0.00051014795 0.013872305 0.0081811575 -0.007183259
0.010639583 0.002981217 0.018320154 0.006423618 -0.006785004 0.0028051229 0.008565264 0.010825081
0.003691306 0.015546481 0.00011591019 -0.010515246 -0.0027232987 -0.020094467 0.0075673014 0.009667523
-0.0020108314 -0.013154874 0.01494529 0.012923186 -0.009914109 -0.0021600216 0.01458039 0.0049864566
0.017625544 0.0008958093 0.01933088 -0.00015252204 0.00422903 -0.020430883 0.011969467 0.0035304152
0.019369088 -0.004586093 -0.0017415347 0.030420888 -0.0071445457 0.0047520786 -0.007991993 0.010255621
-0.013112366 -0.0047215167 0.0033983437 -0.021900643 0.0025933967 0.0096281795 -8.060162e-06 0.01521933
-0.027586607 -0.016876167 0.0071722283 -0.01021076 -0.023758214 -0.01037714 0.016911019 0.0064109983
0.007201922 0.003512408 0.0038775213 0.00070039404 0.000184291 0.018177396 -0.0054384633 0.0025593273
0.009824264 0.01794904 0.0021362377 0.012615703 -0.014447346 0.0035519064 -0.004589173 -0.017053204
0.009123269 -0.037372284 -0.01390025 -0.006764512 -0.00091036 0.0062784157 0.01097391 0.0071812817
-0.0135448575 -0.018169543 -0.022049053 0.0074008363 -0.0038996027 -0.022791201 0.0029268626 0.0037081705
0.006249891 0.016824918 -0.0055655693 0.002649211 -0.0075242864 -0.0043208622 -0.0051066624 -0.010961073
0.0031412558 -0.016124371 -0.008266701 0.0009121552 -0.0058862693 -0.006309247 0.006761444 0.00033809262
0.013155683 0.014525904 0.008937924 -0.0011226854 0.012902438 0.012911166 0.0024179867 -0.0079744635

action_model._continuous_distribution.mu.bias f4 [12]
00000000: 0000 0000 0000 0000 0000 0000 0000 0000
00000010: 0000 0000 0000 0000 0000 0000 0000 0000
00000020: 0000 0000 0000 0000 0000 0000 0000 0000
0.0 0.0 0.0 0.0 0.0 0.0 0.0 0.0
0.0 0.0 0.0 0.0

onnx::Div_51 f4 [74]
00000000: 0000 803f 0000 803f 0000 803f 0000 803f
00000010: 0000 803f 0000 803f 0000 803f 0000 803f
00000020: 0000 803f 0000 803f 0000 803f 0000 803f
00000030: 0000 803f 0000 803f 0000 803f 0000 803f
00000040: 0000 803f 0000 803f 0000 803f 0000 803f
00000050: 0000 803f 0000 803f 0000 803f 0000 803f
00000060: 0000 803f 0000 803f 0000 803f 0000 803f
00000070: 0000 803f 0000 803f 0000 803f 0000 803f
00000080: 0000 803f 0000 803f 0000 803f 0000 803f
00000090: 0000 803f 0000 803f 0000 803f 0000 803f
000000a0: 0000 803f 0000 803f 0000 803f 0000 803f
000000b0: 0000 803f 0000 803f 0000 803f 0000 803f
000000c0: 0000 803f 0000 803f 0000 803f 0000 803f
000000d0: 0000 803f 0000 803f 0000 803f 0000 803f
000000e0: 0000 803f 0000 803f 0000 803f 0000 803f
000000f0: 0000 803f 0000 803f 0000 803f 0000 803f
00000100: 0000 803f 0000 803f 0000 803f 0000 803f
00000110: 0000 803f 0000 803f 0000 803f 0000 803f
00000120: 0000 803f 0000 803f
1.0 1.0 1.0 1.0 1.0 1.0 1.0 1.0
1.0 1.0 1.0 1.0 1.0 1.0 1.0 1.0
1.0 1.0 1.0 1.0 1.0 1.0 1.0 1.0
1.0 1.0 1.0 1.0 1.0 1.0 1.0 1.0
1.0 1.0 1.0 1.0 1.0 1.0 1.0 1.0
1.0 1.0 1.0 1.0 1.0 1.0 1.0 1.0
1.0 1.0 1.0 1.0 1.0 1.0 1.0 1.0
1.0 1.0 1.0 1.0 1.0 1.0 1.0 1.0
1.0 1.0 1.0 1.0 1.0 1.0 1.0 1.0
1.0 1.0
