results/packaging_fix_test_8/RobotAgent.onnx (onnx, 357277 bytes, 8 tensors)

network_body.observation_encoder.processors.0.normalizer.running_mean f4 [74]
000000 00 00 00 00 00 00 00 00 00 00 00 00 00 00 00 00
       0.0 0.0 0.0 0.0
000010 00 00 00 00 00 00 00 00 00 00 00 00 00 00 00 00
       0.0 0.0 0.0 0.0
000020 00 00 00 00 00 00 00 00 00 00 00 00 00 00 00 00
       0.0 0.0 0.0 0.0
000030 00 00 00 00 00 00 00 00 00 00 00 00 00 00 00 00
       0.0 0.0 0.0 0.0
000040 00 00 00 00 00 00 00 00 00 00 00 00 00 00 00 00
       0.0 0.0 0.0 0.0
000050 00 00 00 00 00 00 00 00 00 00 00 00 00 00 00 00
       0.0 0.0 0.0 0.0
000060 00 00 00 00 00 00 00 00 00 00 00 00 00 00 00 00
       0.0 0.0 0.0 0.0
000070 00 00 00 00 00 00 00 00 00 00 00 00 00 00 00 00
       0.0 0.0 0.0 0.0
000080 00 00 00 00 00 00 00 00 00 00 00 00 00 00 00 00
       0.0 0.0 0.0 0.0
000090 00 00 00 00 00 00 00 00 00 00 00 00 00 00 00 00
       0.0 0.0 0.0 0.0
0000a0 00 00 00 00 00 00 00 00 00 00 00 00 00 00 00 00
       0.0 0.0 0.0 0.0
0000b0 00 00 00 00 00 00 00 00 00 00 00 00 00 00 00 00
       0.0 0.0 0.0 0.0
0000c0 00 00 00 00 00 00 00 00 00 00 00 00 00 00 00 00
       0.0 0.0 0.0 0.0
0000d0 00 00 00 00 00 00 00 00 00 00 00 00 00 00 00 00
       0.0 0.0 0.0 0.0
0000e0 00 00 00 00 00 00 00 00 00 00 00 00 00 00 00 00
       0.0 0.0 0.0 0.0
0000f0 00 00 00 00 00 00 00 00 00 00 00 00 00 00 00 00
       0.0 0.0 0.0 0.0
000100 00 00 00 00 00 00 00 00 00 00 00 00 00 00 00 00
       0.0 0.0 0.0 0.0
000110 00 00 00 00 00 00 00 00 00 00 00 00 00 00 00 00
       0.0 0.0 0.0 0.0
000120 00 00 00 00 00 00 00 00
       0.0 0.0

network_body._body_endoder.seq_layers.0.weight f4 [256, 74]
000000 00 c2 0a 3e f8 e4 80 bd bf 54 02 3e da 74 e9 bc
       0.13550568 -0.06293672 0.1272764 -0.028498102
000010 7d 3d e3 bd 3d c1 4f ba fa ae 79 bd da 30 d6 3d
       -0.11095712 -0.0007925218 -0.060957886 0.104585364
000020 32 51 86 3d 87 e4 84 bd 3a 3b 80 bd 40 e2 90 bd
       0.065584555 -0.06488901 -0.062612966 -0.07074404
000030 53 6e 82 bd e0 2a 10 be d1 ad 09 3e ca bf 00 3e
       -0.06368699 -0.14078856 0.13445212 0.12573162
000040 78 3d 14 bd cf 92 98 3d 34 b0 37 be be 59 42 3c
       -0.036191434 0.074498765 -0.1793831 0.0118622165
000050 c3 22 27 be bd 9a 1c bd 78 02 c1 bd 95 9e c0 be
       -0.16321854 -0.038233507 -0.09424299 -0.37620988
000060 8b cd 01 bd 76 fc 0b 3e d3 fd 13 be 6b 1a 58 3c
       -0.03169016 0.13670525 -0.14452295 0.013189892
000070 0d 4b 4e 3e 55 b6 2f 3e 96 73 60 3d 42 5e 2b 3d
       0.20145817 0.17159398 0.05479773 0.041837938
000080 d8 64 1d 3e 4d 12 80 bd 58 0d 59 3e 7a 14 0d 3a
       0.153705 -0.062534906 0.21196496 0.00053817744
000090 c2 a7 d4 3d ab 78 1b 3e f6 49 48 be 70 28 49 bc
       0.1038356 0.1518275 -0.19559464 -0.012277707
0000a0 d0 73 b1 3d bd 68 66 be 8c 39 01 bd 1a 1b 83 bd
       0.086646676 -0.22500892 -0.03154902 -0.064016536
0000b0 8f 5a f7 3d 3c db 11 3d 2d d0 72 3e fc d6 8e bd
       0.120778196 0.03560947 0.23712225 -0.06974599
0000c0 e9 f8 24 3e 28 f6 aa bd 21 e0 20 be b4 ae c0 bc
       0.16110577 -0.08347732 -0.15710498 -0.023520805
0000d0 dd 8f 86 3e 8d aa bd 3d 9f 82 75 bd 6d 42 ce 3d
       0.26281634 0.092610456 -0.059939023 0.100712635
0000e0 2c 4b 7f 3e 23 2e a2 bd 2e 5e a5 bd 32 26 2a be
       0.2493102 -0.07918956 -0.08074604 -0.16616133
0000f0 07 f1 00 bd 7e 97 68 3d 61 23 14 be 3c ed 7e 3c
       -0.03147986 0.0567851 -0.14466621 0.015559491
000100 ba 15 43 3d 6b 77 84 bd 17 94 a0 3d 07 f9 54 3c
       0.047628142 -0.0646809 0.07840746 0.012998826
000110 90 50 43 bd 6d db e4 3d 53 89 16 be e4 88 ab bd
       -0.047684252 0.11174665 -0.14700823 -0.08375719
000120 23 d6 6f 3d 28 b5 28 3e 68 f3 bc bd e9 69 3c 3e
       0.058553826 0.16475356 -0.092261136 0.18399777
000130 cf a1 b8 3d 00 6d a4 bd 49 f2 aa 3d ac b8 84 3d
       0.090152375 -0.080286026 0.083469935 0.06480536
000140 99 72 df 3d 6d 4c 03 be ed e5 ce 3d 93 e1 52 bd
       0.1091053 -0.12822123 0.101024486 -0.051484656
000150 16 80 a9 3d a2 e0 50 3d f9 19 39 bd 5d ed 25 bd
       0.082763836 0.050995477 -0.045190785 -0.04050957
000160 51 29 d0 3c 4c f8 d5 bb 0f db ce bb 34 fb d4 bd
       0.025410326 -0.0065298434 -0.006312735 -0.10399476
000170 81 d8 1b be b7 21 84 bd 50 7c be bb b1 94 db 3c
       -0.15219308 -0.06451743 -0.005813159 0.0268043
000180 f4 6c e8 bb 3b 5b 72 bd ad d3 39 be e4 d2 2f be
       -0.0070930663 -0.059169035 -0.18147154 -0.17170292
000190 b7 1f ba 3d 67 73 d3 bd 47 d9 4d 3e 31 59 13 be
       0.090880804 -0.103247456 0.20102416 -0.14389493
0001a0 1c 13 84 be 09 c5 d2 bd e4 7a 1a be 98 19 bc 3d
       -0.2579583 -0.10291488 -0.15085942 0.09184569
0001b0 5e 52 d0 3d b4 0c 29 3d 46 90 30 be b5 87 51 3e
       0.1017196 0.04127188 -0.17242536 0.20461924
0001c0 53 69 92 bc d1 7d bc bd 36 ac 67 3d df 91 81 3d
       -0.017872488 -0.09203685 0.056560718 0.06326651
0001d0 0b 92 4b 3d 5c d3 16 3e 62 c8 6d bd 50 9b ed 3d
       0.049699824 0.14729065 -0.058052428 0.11601889
0001e0 84 1d ff bd e0 d2 a1 3d c5 55 02 3e b0 63 32 3e
       -0.124568015 0.07901549 0.12728031 0.1742084
0001f0 03 93 4d bd 6b b9 28 be 6a 7c 9b bc 1e b5 21 3e
       -0.05018903 -0.16476981 -0.018980224 0.15791747
000200 80 00 0b 3d 16 28 64 be 35 95 16 bd 22 de ea bd
       0.033936024 -0.22280917 -0.03676339 -0.1146815
000210 8c 15 94 bd b4 a6 fe 3d 62 17 f6 bd 32 74 51 be
       -0.07230672 0.1243414 -0.12016179 -0.20454481
000220 5f 64 0a 3d e2 e8 b8 bc 75 e5 98 be 7b d7 e9 3d
       0.033787128 -0.022571985 -0.29862562 0.11418053
000230 12 b3 3d 3d 96 bf 83 be dc fb 4c 3e 71 de 52 be
       0.046313353 -0.25732106 0.20017952 -0.20592667
000240 ac ce 11 3d 19 9c 88 bd 2e cc 09 be 74 6a 60 bd
       0.03559749 -0.06670398 -0.13456795 -0.05478902
000250 9a 1b 4b bd f9 83 36 bd 2e 91 b1 bd 06 06 53 3e
       -0.04958687 -0.044559453 -0.08670269 0.20607767
000260 93 64 03 be 3e 3e 3c 3e 12 1c 98 be 3f 98 db bc
       -0.12831335 0.18383119 -0.29708916 -0.026805995
000270 76 b2 3e be 54 39 87 bd a4 c2 e5 3b 96 74 0d 3e
       -0.18622765 -0.06602731 0.0070117284 0.13814005
000280 4b 3a 04 bd 0f 3c 39 be c8 ad 25 3d 1b bc 2d be
       -0.032282155 -0.18089317 0.040448934 -0.16966288
000290 6d 97 80 be a9 36 0d 3d 5d 41 41 be ad be 6b be
       -0.2511553 0.034475956 -0.1887259 -0.23021956
0002a0 1f a0 c8 3d aa 03 70 bc f6 77 81 bd 95 4a a7 bc
       0.09796166 -0.014649311 -0.06321709 -0.020421306
0002b0 59 ea 68 be 31 db ad bd 2a 2d bd bb 62 aa cc bb
       -0.22745647 -0.08489073 -0.0057732062 -0.006245897
0002c0 b5 48 bc 3d 39 b0 97 3d a6 e6 48 3d 0e 95 54 3d
       0.09193555 0.07406659 0.04904809 0.051899962
0002d0 25 f5 fb 3d d0 ad be 3c b6 25 1f be 1a 98 53 be
       0.12302617 0.02327624 -0.1554173 -0.20663491
0002e0 12 92 c3 3d cc ae 96 bd f4 cd 48 be 55 88 50 bd
       0.09549345 -0.073575586 -0.19609815 -0.050911266
0002f0 ca f0 00 3e bc 93 cf bc 33 a9 b5 3d 5f ca b4 3d
       0.12591854 -0.025339 0.08870163 0.08827662
000300 22 64 1e be 12 5c 51 3d 9a d6 3f bd 4f 58 00 3d
       -0.15467885 0.051113196 -0.04683552 0.031334218
000310 e1 b6 f4 bd 07 35 33 3d e5 49 2b 3d 83 ca be 3d
       -0.11948944 0.043751743 0.04181852 0.0931597
000320 ea 81 0f bb 22 6f 0b be 8e 28 51 3e bf 84 b6 bd
       -0.0021897503 -0.13616613 0.20425627 -0.08912038
000330 34 7b d6 3c 3e 0e 41 3c fb bf 3c be ea 2c 2e 3e
       0.026181795 0.011783181 -0.1843261 0.17009321
000340 4c a7 38 3e 72 96 71 3e d9 6b b0 bd ce 3a a2 bd
       0.18032569 0.23592547 -0.0861432 -0.07921372
000350 4c d1 da 3d 39 0d 04 3d 54 da f8 bd 34 2b 98 3d
       0.106844515 0.032239173 -0.12151018 0.07430115
000360 1d ef 79 be 51 e4 9f ba 7a 4c 0d 3e 2a 56 82 3d
       -0.2440762 -0.0012198781 0.13798705 0.06364091
000370 89 ad 85 bd fb ab 81 bd f4 a6 5f ba 18 d8 b7 bd
       -0.0652724 -0.06331631 -0.0008531653 -0.089767635
000380 c5 93 cc bd 51 8f 91 bb ee ce dc bd dc b1 e5 bb
       -0.09989122 -0.0044421335 -0.10781656 -0.007009728
000390 9a be d9 3d 0d 53 49 bc bd 96 40 3d c6 f1 33 3e
       0.106320575 -0.012287867 0.047018755 0.17572698
0003a0 23 27 db bc 39 66 7b 3d df 50 e9 3d 8d b3 82 3d
       -0.02675206 0.061376784 0.11392378 0.06381903
0003b0 3d d0 56 3c 32 b5 95 3d cb b8 7d bd 28 e9 55 3c
       0.013111171 0.07309951 -0.06194381 0.013056077
0003c0 10 6b 97 3d 9b 7a c1 bd 63 56 5f be c1 a2 8f bc
       0.073934674 -0.09447213 -0.21810298 -0.017533662
0003d0 6a 67 6c be a9 31 07 bd 24 9a 84 be 99 8e b9 bd
       -0.23086324 -0.033006344 -0.2589885 -0.090604015
0003e0 2e 6e ed 3c c0 03 80 bd 6f 76 00 3e 71 15 be 3d
       0.028983202 -0.06250715 0.12545179 0.092814334
0003f0 34 63 7b 3e 48 12 2b 3e ed 8d 83 3e c5 72 c5 3c
       0.24549562 0.16706192 0.25694218 0.024102578

network_body._body_endoder.seq_layers.0.bias f4 [256]
000000 00 00 00 00 00 00 00 00 00 00 00 00 00 00 00 00
       0.0 0.0 0.0 0.0
000010 00 00 00 00 00 00 00 00 00 00 00 00 00 00 00 00
       0.0 0.0 0.0 0.0
000020 00 00 00 00 00 00 00 00 00 00 00 00 00 00 00 00
       0.0 0.0 0.0 0.0
000030 00 00 00 00 00 00 00 00 00 00 00 00 00 00 00 00
       0.0 0.0 0.0 0.0
000040 00 00 00 00 00 00 00 00 00 00 00 00 00 00 00 00
       0.0 0.0 0.0 0.0
000050 00 00 00 00 00 00 00 00 00 00 00 00 00 00 00 00
       0.0 0.0 0.0 0.0
000060 00 00 00 00 00 00 00 00 00 00 00 00 00 00 00 00
       0.0 0.0 0.0 0.0
000070 00 00 00 00 00 00 00 00 00 00 00 00 00 00 00 00
       0.0 0.0 0.0 0.0
000080 00 00 00 00 00 00 00 00 00 00 00 00 00 00 00 00
       0.0 0.0 0.0 0.0
000090 00 00 00 00 00 00 00 00 00 00 00 00 00 00 00 00
       0.0 0.0 0.0 0.0
0000a0 00 00 00 00 00 00 00 00 00 00 00 00 00 00 00 00
       0.0 0.0 0.0 0.0
0000b0 00 00 00 00 00 00 00 00 00 00 00 00 00 00 00 00
       0.0 0.0 0.0 0.0
0000c0 00 00 00 00 00 00 00 00 00 00 00 00 00 00 00 00
       0.0 0.0 0.0 0.0
0000d0 00 00 00 00 00 00 00 00 00 00 00 00 00 00 00 00
       0.0 0.0 0.0 0.0
0000e0 00 00 00 00 00 00 00 00 00 00 00 00 00 00 00 00
       0.0 0.0 0.0 0.0
0000f0 00 00 00 00 00 00 00 00 00 00 00 00 00 00 00 00
       0.0 0.0 0.0 0.0
000100 00 00 00 00 00 00 00 00 00 00 00 00 00 00 00 00
       0.0 0.0 0.0 0.0
000110 00 00 00 00 00 00 00 00 00 00 00 00 00 00 00 00
       0.0 0.0 0.0 0.0
000120 00 00 00 00 00 00 00 00 00 00 00 00 00 00 00 00
       0.0 0.0 0.0 0.0
000130 00 00 00 00 00 00 00 00 00 00 00 00 00 00 00 00
       0.0 0.0 0.0 0.0
000140 00 00 00 00 00 00 00 00 00 00 00 00 00 00 00 00
       0.0 0.0 0.0 0.0
000150 00 00 00 00 00 00 00 00 00 00 00 00 00 00 00 00
       0.0 0.0 0.0 0.0
000160 00 00 00 00 00 00 00 00 00 00 00 00 00 00 00 00
       0.0 0.0 0.0 0.0
000170 00 00 00 00 00 00 00 00 00 00 00 00 00 00 00 00
       0.0 0.0 0.0 0.0
000180 00 00 00 00 00 00 00 00 00 00 00 00 00 00 00 00
       0.0 0.0 0.0 0.0
000190 00 00 00 00 00 00 00 00 00 00 00 00 00 00 00 00
       0.0 0.0 0.0 0.0
0001a0 00 00 00 00 00 00 00 00 00 00 00 00 00 00 00 00
       0.0 0.0 0.0 0.0
0001b0 00 00 00 00 00 00 00 00 00 00 00 00 00 00 00 00
       0.0 0.0 0.0 0.0
0001c0 00 00 00 00 00 00 00 00 00 00 00 00 00 00 00 00
       0.0 0.0 0.0 0.0
0001d0 00 00 00 00 00 00 00 00 00 00 00 00 00 00 00 00
       0.0 0.0 0.0 0.0
0001e0 00 00 00 00 00 00 00 00 00 00 00 00 00 00 00 00
       0.0 0.0 0.0 0.0
0001f0 00 00 00 00 00 00 00 00 00 00 00 00 00 00 00 00
       0.0 0.0 0.0 0.0
000200 00 00 00 00 00 00 00 00 00 00 00 00 00 00 00 00
       0.0 0.0 0.0 0.0
000210 00 00 00 00 00 00 00 00 00 00 00 00 00 00 00 00
       0.0 0.0 0.0 0.0
000220 00 00 00 00 00 00 00 00 00 00 00 00 00 00 00 00
       0.0 0.0 0.0 0.0
000230 00 00 00 00 00 00 00 00 00 00 00 00 00 00 00 00
       0.0 0.0 0.0 0.0
000240 00 00 00 00 00 00 00 00 00 00 00 00 00 00 00 00
       0.0 0.0 0.0 0.0
000250 00 00 00 00 00 00 00 00 00 00 00 00 00 00 00 00
       0.0 0.0 0.0 0.0
000260 00 00 00 00 00 00 00 00 00 00 00 00 00 00 00 00
       0.0 0.0 0.0 0.0
000270 00 00 00 00 00 00 00 00 00 00 00 00 00 00 00 00
       0.0 0.0 0.0 0.0
000280 00 00 00 00 00 00 00 00 00 00 00 00 00 00 00 00
       0.0 0.0 0.0 0.0
000290 00 00 00 00 00 00 00 00 00 00 00 00 00 00 00 00
       0.0 0.0 0.0 0.0
0002a0 00 00 00 00 00 00 00 00 00 00 00 00 00 00 00 00
       0.0 0.0 0.0 0.0
0002b0 00 00 00 00 00 00 00 00 00 00 00 00 00 00 00 00
       0.0 0.0 0.0 0.0
0002c0 00 00 00 00 00 00 00 00 00 00 00 00 00 00 00 00
       0.0 0.0 0.0 0.0
0002d0 00 00 00 00 00 00 00 00 00 00 00 00 00 00 00 00
       0.0 0.0 0.0 0.0
0002e0 00 00 00 00 00 00 00 00 00 00 00 00 00 00 00 00
       0.0 0.0 0.0 0.0
0002f0 00 00 00 00 00 00 00 00 00 00 00 00 00 00 00 00
       0.0 0.0 0.0 0.0
000300 00 00 00 00 00 00 00 00 00 00 00 00 00 00 00 00
       0.0 0.0 0.0 0.0
000310 00 00 00 00 00 00 00 00 00 00 00 00 00 00 00 00
       0.0 0.0 0.0 0.0
000320 00 00 00 00 00 00 00 00 00 00 00 00 00 00 00 00
       0.0 0.0 0.0 0.0
000330 00 00 00 00 00 00 00 00 00 00 00 00 00 00 00 00
       0.0 0.0 0.0 0.0
000340 00 00 00 00 00 00 00 00 00 00 00 00 00 00 00 00
       0.0 0.0 0.0 0.0
000350 00 00 00 00 00 00 00 00 00 00 00 00 00 00 00 00
       0.0 0.0 0.0 0.0
000360 00 00 00 00 00 00 00 00 00 00 00 00 00 00 00 00
       0.0 0.0 0.0 0.0
000370 00 00 00 00 00 00 00 00 00 00 00 00 00 00 00 00
       0.0 0.0 0.0 0.0
000380 00 00 00 00 00 00 00 00 00 00 00 00 00 00 00 00
       0.0 0.0 0.0 0.0
000390 00 00 00 00 00 00 00 00 00 00 00 00 00 00 00 00
       0.0 0.0 0.0 0.0
0003a0 00 00 00 00 00 00 00 00 00 00 00 00 00 00 00 00
       0.0 0.0 0.0 0.0
0003b0 00 00 00 00 00 00 00 00 00 00 00 00 00 00 00 00
       0.0 0.0 0.0 0.0
0003c0 00 00 00 00 00 00 00 00 00 00 00 00 00 00 00 00
       0.0 0.0 0.0 0.0
0003d0 00 00 00 00 00 00 00 00 00 00 00 00 00 00 00 00
       0.0 0.0 0.0 0.0
0003e0 00 00 00 00 00 00 00 00 00 00 00 00 00 00 00 00
       0.0 0.0 0.0 0.0
0003f0 00 00 00 00 00 00 00 00 00 00 00 00 00 00 00 00
       0.0 0.0 0.0 0.0

network_body._body_endoder.seq_layers.2.weight f4 [256, 256]
000000 00 4e 44 bc 59 79 b4 3d d0 c4 c5 3c 7d 71 b7 3d
       -0.011981487 0.08812208 0.0241417 0.08957193
000010 7c f3 34 3d 05 3f a7 3c 1f 94 88 3d 55 6c d5 3c
       0.044177517 0.020415792 0.06668877 0.026052633
000020 29 31 0e be c1 ec 53 3d b4 5a 26 3c 65 8c 60 bd
       -0.1388594 0.051739458 0.010153461 -0.05482139
000030 6b db e3 bd 27 07 b5 bc 79 6d 89 bd fb 99 12 bd
       -0.11125835 -0.022098137 -0.067103334 -0.03579138
000040 12 0b 06 3d 3a db 06 3c 36 cc 69 3d f3 7e 03 3d
       0.0327254 0.008230979 0.057079516 0.03210349
000050 24 50 34 bd 24 e3 36 bd c4 13 ec bd 10 66 3e 3c
       -0.04402174 -0.044650212 -0.115272075 0.011621013
000060 1d 7f 19 be 8e fa 69 bd 22 d9 bd bd f1 a7 e5 3d
       -0.14989896 -0.057123713 -0.092699304 0.11213673
000070 0f cf 58 3d c4 cc f8 bc a0 65 94 3d f6 64 07 bd
       0.05293184 -0.030371077 0.07245946 -0.03305527
000080 a9 a8 ac 3d b0 df 57 3d 8e 09 c2 bd 69 78 1d bc
       0.08430607 0.05270356 -0.09474479 -0.009611228
000090 13 fd b6 3d 8b 2f a4 bd 5e 44 5b bd 3a 20 4a bb
       0.08934989 -0.080168806 -0.053531997 -0.0030841962
0000a0 86 0a e2 bb c8 8b 44 3d ba 32 c1 bd 50 b4 ab bc
       -0.006898227 0.04798487 -0.094335034 -0.020960003
0000b0 4c d7 3a 3e dd ce 2b bd bf c3 10 bd 2b 45 c7 bc
       0.18246192 -0.041945327 -0.035342928 -0.024324974
0000c0 bd 56 80 3d 5b 92 c1 3c 73 fb ba 3d b6 87 f9 3c
       0.06266544 0.023629358 0.091299914 0.03046022
0000d0 d9 05 85 3d 94 72 92 bd 66 78 85 3c 9f e2 0a 3d
       0.06495256 -0.0715076 0.016292762 0.03390753
0000e0 19 07 8d bd 54 14 2d bd 97 77 14 3e 5f 33 00 3d
       -0.068861194 -0.042255715 0.14498745 0.03129899
0000f0 30 5c 2d bc 90 82 25 3c 20 41 be 3a 26 e3 50 3d
       -0.010581061 0.010101929 0.0014515258 0.050997876
000100 a7 7b 65 bc 45 31 ad 3d 18 d0 a6 bd 58 72 70 bc
       -0.014006532 0.08456663 -0.081451595 -0.014675699
000110 c6 f0 2f be a7 b4 18 3d da 6a cf 3a 32 91 de 3d
       -0.17181692 0.03728166 0.0015824691 0.108675376
000120 f0 43 5b bc e9 82 f5 3c 7b 3c 80 3b 88 a6 f9 3b
       -0.013382897 0.02996965 0.00391346 0.007618729
000130 f6 70 88 3d 6e d3 1e 3d de fb c7 3d 73 97 02 3d
       0.066621706 0.038775854 0.09764837 0.031882714
000140 ba 88 0a 3c 0e 2f 64 3d 33 0f 19 3d 7e 54 a3 bc
       0.00845545 0.055708937 0.03736801 -0.01993775
000150 3f c0 42 3d 0d 6d 99 3c 4d e6 46 3d 56 18 69 3d
       0.04754662 0.018728757 0.048559476 0.056907974
000160 fc d0 c7 bb d7 d3 84 bc a2 14 49 3d b9 a8 3d 3d
       -0.006097911 -0.016214294 0.049091943 0.046303485
000170 d1 ba 32 3d 27 6d 2f bd 08 42 21 bd 39 69 26 bd
       0.043635193 -0.042828705 -0.039369613 -0.040627692
000180 d1 99 a8 3d d4 1b 3e bd e1 57 eb 3c ce ca 00 be
       0.08232463 -0.046413258 0.028728427 -0.12577364
000190 b4 9d 5b 3d 96 66 00 3d 93 db 3c 3c 60 ec 9a 3d
       0.053617194 0.031347834 0.01152696 0.07564616
0001a0 a4 d2 78 bc 64 7b c8 3c af bc 9f bc 94 58 99 3c
       -0.015186939 0.0244729 -0.019499151 0.018718995
0001b0 72 ae ca bd 86 da 80 bc 29 2c 89 3d 53 09 b1 3d
       -0.09896554 -0.0157292 0.06697876 0.086443566
0001c0 a5 e1 80 3d 2c 4c 93 bc 72 0f 8b 3c 51 d9 84 3d
       0.06293038 -0.017980658 0.016975138 0.06486762
0001d0 7e d4 be 3d 1b 29 3c 3c 68 e3 e4 bc c2 30 8d bd
       0.093178734 0.01148441 -0.027940467 -0.068940654
0001e0 f7 f8 f7 bc 0b c3 6a bd 27 a1 4c bd 05 90 1d 3e
       -0.030270083 -0.057314914 -0.049958374 0.1538697
0001f0 bd 00 e6 3c 9e da 1d bc 35 a7 b6 3d cf b6 47 bd
       0.028076524 -0.009634642 0.08918611 -0.048758324
000200 80 98 be 3d 15 da 10 3d 3a c5 47 3d 09 b0 f8 3c
       0.09306431 0.03536423 0.048772074 0.030357378
000210 69 dd 94 bd 93 e0 83 bd 43 b8 3c bd 8d 87 ed 3c
       -0.07268793 -0.064393185 -0.046074163 0.0289953
000220 0e 43 72 3d c8 b0 b2 3d 5a e3 74 bd ee 0b 78 3d
       0.05914598 0.087251246 -0.05978713 0.060558252
000230 0a 8c 05 3d 2b 1e f5 3d c9 cd f5 3c 84 4a 0e 3d
       0.032604255 0.11968645 0.030005353 0.034739032
000240 f1 2c 77 bd 51 2e 77 3d 3a 77 37 bd 05 a7 d6 3c
       -0.060345594 0.060346905 -0.044791438 0.026202688
000250 99 4c e8 bb 02 a5 00 be 54 ca 7a 3d be 60 40 bd
       -0.0070892093 -0.12562945 0.06122811 -0.04696726
000260 8f e5 24 bd 06 33 3c 3d e5 cd 15 be b7 cf cf 3d
       -0.040257987 0.045947097 -0.14629324 0.1014704
000270 cb 7d 9d 3b 1e 58 a6 bc 61 86 9d bc 70 12 8e 3d
       0.0048062555 -0.02030569 -0.019229116 0.069371104
000280 4e 6d e6 ba 7a d1 ae bd e9 ba 1d 3d 6d ff 10 bd
       -0.0017580183 -0.08536048 0.03850833 -0.035399843
000290 85 de 13 bd e8 49 d8 3c af 62 6a bc a5 a4 93 bc
       -0.036100883 0.026402429 -0.014305755 -0.018022845
0002a0 e9 1b f6 3c cf 9c 80 bc 74 40 88 3d f2 79 7c 3d
       0.030042605 -0.015699772 0.066529185 0.061639734
0002b0 9c fc 75 bd d6 30 75 3d 04 79 22 3d 3f c4 1b 3c
       -0.06005536 0.059861027 0.03966619 0.009507238
0002c0 ad 27 e8 3c 87 65 dd 3b 77 fa 17 bd 6d 72 1b be
       0.028339231 0.006756488 -0.037104096 -0.15180369
0002d0 f0 81 d4 3b 00 85 a9 bd 47 55 fd 3d 1f e0 91 bd
       0.0064852163 -0.08277321 0.12369781 -0.07122826
0002e0 98 4c f4 ba 52 b5 59 bd 3e e2 e3 bd 08 08 39 bd
       -0.0018638549 -0.053151436 -0.11127137 -0.045173675
0002f0 ac 4d 34 bd 01 bd c7 bd 8c 62 c2 bd f5 f8 45 3d
       -0.044019386 -0.097528465 -0.094914526 0.048333127
000300 c3 40 f2 3c e7 49 c3 bd c6 72 21 bd b5 fb 7c 3d
       0.029571896 -0.0953558 -0.039416097 0.061763484
000310 fd 43 f9 bd ea 75 9d ba e6 a9 ce 3d 49 07 0d 3e
       -0.12171171 -0.001201329 0.10090999 0.1377231
000320 53 83 ac bd 98 4d b5 3c 8f 7f 3a bd 5a 9c 3d 3b
       -0.084234856 0.022131726 -0.045531806 0.0028932304
000330 db e8 2c bb 56 52 c7 3d 4e 8a 13 3c 3c 9f 80 bd
       -0.002638391 0.09732501 0.009005142 -0.062803715
000340 d1 d4 85 3d 39 ca aa 3c f5 b3 7c 3d a4 ea 90 bc
       0.06534732 0.02084838 0.061695058 -0.01769001
000350 1b dc 10 3d fa b0 a9 3c eb ca 27 3d 4e 3c 02 bd
       0.03536616 0.020714272 0.040965002 -0.031795792
000360 20 ed 07 be 83 2f 24 bd 0d b8 c6 bc b9 75 a2 bd
       -0.1327405 -0.040084373 -0.024257684 -0.0793261
000370 0d 7d db bd aa 8d a5 3d a1 d8 8f 3d 27 1c e4 bc
       -0.10717211 0.08083661 0.070237406 -0.027845455
000380 12 6a 32 bd 33 96 f4 bc 6a b7 c1 3d 63 a3 5f 3d
       -0.043558188 -0.029856777 0.094588116 0.054599177
000390 47 e6 ec 3d 1a f7 e9 39 f9 e1 05 3d ce 86 ad bd
       0.115673594 0.00044625328 0.032686207 -0.084729776
0003a0 29 ae 70 bb 1c 6d eb bc 66 f7 01 3e 15 ff 8b 3c
       -0.0036724901 -0.02873855 0.12692031 0.017089406
0003b0 f5 5d 5d bc cb f9 98 bd ef c9 90 bc 12 c2 0e bd
       -0.013511171 -0.07469519 -0.017674414 -0.03485305
0003c0 9f 91 29 3d 86 24 73 3d 29 f7 53 bd 2b 8d 81 bd
       0.04139864 0.059361003 -0.051749382 -0.06325754
0003d0 21 e3 c4 bd 79 cd 96 3d da cd 57 bd d9 3b e0 bb
       -0.09613634 0.073634095 -0.05268655 -0.006843072
0003e0 eb 64 03 3d da 81 4d 3d 5c 67 f5 3d 01 6b 09 3e
       0.032078665 0.050172664 0.11982605 0.13419725
0003f0 6c b3 63 3d 90 1e 83 3c 9f 13 46 3d 9c 26 86 3b
       0.055591032 0.016005784 0.048358556 0.004093958

action_model._continuous_distribution.log_sigma f4 [1, 12]
000000 00 00 00 00 00 00 00 00 00 00 00 00 00 00 00 00
       0.0 0.0 0.0 0.0
000010 00 00 00 00 00 00 00 00 00 00 00 00 00 00 00 00
       0.0 0.0 0.0 0.0
000020 00 00 00 00 00 00 00 00 00 00 00 00 00 00 00 00
       0.0 0.0 0.0 0.0

action_model._continuous_distribution.mu.weight f4 [12, 256]
000000 ec 68 08 3c 7b 0b 2c bc b8 e1 10 3b e4 9c 2e 3b
       0.008325797 -0.010500784 0.0022107195 0.0026643807
000010 db 7c 02 3c 30 4b 56 b9 a8 1c 82 3a 21 38 b3 bb
       0.007964338 -0.0002043664 0.0009926753 -0.0054693376
000020 e5 71 12 3c 99 0e 80 3c 70 a0 62 bb eb 05 a9 3c
       0.008938287 0.01563196 -0.0034580491 0.020632705
000030 1a 97 14 3b 35 f6 b5 bc c3 c2 13 bc b3 69 23 bc
       0.0022673071 -0.022212127 -0.009018603 -0.009973931
000040 e8 5d df bc 88 6b e5 3a c4 48 2a 3c 20 4d 86 bc
       -0.027266458 0.001750336 0.010393325 -0.016394198
000050 84 22 31 bb db 45 3b 3b 48 d1 b6 3c 05 14 60 3c
       -0.002702863 0.0028575573 0.02231659 0.013676648
000060 6d 92 10 3b d9 c0 1c 3c ed 06 cd bb c8 2f 7a 3c
       0.0022059933 0.009567463 -0.006256929 0.015270181
000070 0e 27 a5 bb 5f da 89 bb 90 08 38 bc 54 26 80 bc
       -0.005040056 -0.00420694 -0.01123251 -0.015643276
000080 78 86 44 3c 27 c5 07 3c a5 de eb bb db a6 29 bc
       0.0119949505 0.008286751 -0.007198172 -0.010354723
000090 9f f9 ef bb a2 66 e4 bb 77 5a ed 3b 6f 68 e9 bc
       -0.0073234583 -0.0069702426 0.0072434503 -0.02849218
0000a0 7b 89 b4 3c 7a 02 f0 bb 72 40 81 bc 1a da 4d bc
       0.022038212 -0.007324514 -0.0157778 -0.0125642065
0000b0 b0 da f6 bb b4 27 08 3c 2b f4 a2 bc 9b d0 48 3c
       -0.007533394 0.008310247 -0.019891819 0.012256767
0000c0 d2 af ce 3b 01 c9 3b bb 2f bf 1c bc fa 1d 80 3c
       0.0063075805 -0.0028653743 -0.009567066 0.015639294
0000d0 eb 64 54 bb fb 21 b2 3c d8 21 9b 3c 77 18 00 3a
       -0.0032408785 0.021744719 0.018937036 0.0004886458
0000e0 ca 07 09 bc 1a f2 ce bc 1a cf b1 3b 4b 54 8e 3b
       -0.008363673 -0.025261927 0.0054262998 0.0043435446
0000f0 ad 3b 4e 3c 89 7a 11 3c 58 de a7 3c ef c1 69 3b
       0.01258747 0.008879312 0.020491764 0.0035668572
000100 49 c5 84 3b a7 a5 d3 bb 0d d6 92 3c 4d 44 a4 3b
       0.0040518385 -0.0064589563 0.017924333 0.005013025
000110 b5 ce 13 bd 5f 5f 8c bc 5e f8 be 3c 27 18 5d ba
       -0.036085803 -0.01713532 0.02331179 -0.000843408
000120 f6 0d 9c bc be 3b 08 bc bd 14 18 3b 95 5a 08 3c
       -0.019049626 -0.008315025 0.002320572 0.008322378
000130 3a 62 c3 3b 98 81 cc bb bf 63 02 bc 9d 8e a5 3c
       0.0059626373 -0.0062410347 -0.007958352 0.020209605
000140 c8 85 7a 3c 67 73 1a 3c 53 91 c7 3a 07 f0 14 bc
       0.015290685 0.009426928 0.0015225805 -0.00909043
000150 e8 1b 5c 3c 43 92 b4 bc 3f 50 d0 3a 04 c0 19 bb
       0.013434388 -0.0220424 0.0015893056 -0.0023460397
000160 48 de 02 3d b8 9a b5 bb 0f 28 b3 bb 71 b6 90 bc
       0.031950265 -0.0055421256 -0.005467422 -0.01766512
000170 1c 21 92 3b 4e 2f 22 3b 8d ba 7c 3c 53 c0 7d bc
       0.0044595134 0.0024747434 0.015425337 -0.015487748
000180 3b 08 41 3c 7a 01 11 3b 32 e4 db bb 32 8b 3d bb
       0.011781747 0.0022126124 -0.0067105526 -0.0028922078
000190 e5 77 45 3c 40 24 5f bc d2 96 39 3b 99 43 04 3c
       0.012052511 -0.0136194825 0.0028318656 0.008072757
0001a0 b5 1d 66 3c 20 e3 23 bc af e2 6f bc 5d 95 80 bb
       0.014045169 -0.010002881 -0.014641448 -0.0039240555
0001b0 77 fa 9a 3c c7 63 a3 3b 3b 32 3c bc d1 65 00 bc
       0.01891826 0.0049862596 -0.011486585 -0.007836775
0001c0 ed 57 d0 3b 1f cd 3f 3c 98 fa 7d ba f2 8e 89 bc
       0.006358138 0.0117066195 -0.00096885255 -0.016791794
0001d0 d7 19 ea bb 27 71 3b bc 37 a8 e1 bc 90 51 5d bc
       -0.0071441936 -0.011440552 -0.027546031 -0.013508216
0001e0 c9 cc 01 ba fd 52 f4 3c 1f 45 1d bc cf 5d cb 3a
       -0.0004951475 0.029824728 -0.009598999 0.0015515628
0001f0 0a cb 6c 3c 32 a2 a2 3b e8 ef 54 3b ff 8e 48 3c
       0.014452705 0.004963183 0.0032491628 0.012241124
000200 6b 1f 31 3b 1f 13 38 3c 63 4a f3 3a c7 e9 0f 3c
       0.0027026783 0.011235028 0.0018561598 0.008783764
000210 69 7a ab 3c ea d0 7c bc de 97 a1 ba 5b dd 3f ba
       0.020932393 -0.015430668 -0.0012328585 -0.00073190563
000220 5b 68 de 3b 7f 54 a5 bc 78 2b 68 ba a1 b7 04 bc
       0.0067873425 -0.020181892 -0.0008856575 -0.008100421
000230 38 17 2a bb 55 af cb 3a 62 9b 5f 3a b4 52 09 3b
       -0.002595378 0.0015539924 0.0008529929 0.0020953836
000240 db ef 00 3c 1c 9e 3a bb 77 5a 0f b9 f3 1e c5 bc
       0.007869686 -0.0028475588 -0.00013671244 -0.02406261
000250 21 10 04 3d be be 25 3b a3 40 88 3c ad 33 04 bc
       0.032241944 0.0025290693 0.016632384 -0.008068961
000260 30 62 42 bc 7b 11 fd ba 3d 5a 2e bc da dc 77 bc
       -0.01186423 -0.0019307578 -0.010641632 -0.015128339
000270 96 07 95 bc d3 06 43 bc 38 63 5b bc 04 79 25 bc
       -0.018192094 -0.0119034825 -0.013390355 -0.010099653
000280 95 06 f9 3a e5 fb 5f bc 6b 6f 8d bb 8e 5b c7 bb
       0.0018999154 -0.013670896 -0.0043162606 -0.006083912
000290 ee c8 25 bc 92 ce 94 3a a5 74 52 3b e7 7a 2f bc
       -0.010118706 0.0011353067 0.0032112983 -0.010710455
0002a0 43 f5 25 bc fd ef 96 bb 7a d1 a7 bc 80 a5 d3 3a
       -0.010129276 -0.0046062456 -0.020485628 0.0016147345
0002b0 4f d0 0e 3c 80 43 7d bb 1f a3 63 bc 55 be 99 3c
       0.008716657 -0.003864497 -0.013893872 0.018767515
0002c0 4f 2e 34 3b e5 11 72 3b ee c3 9f bc 62 1b 3e bc
       0.0027493422 0.0036936936 -0.019502606 -0.011603208
0002d0 e8 b5 6b 3b 9f a8 20 3c 93 6b b2 3b 4b c6 6b bc
       0.003596658 0.009805827 0.0054449528 -0.014390538
0002e0 c6 57 91 3b 6f fc da bb b5 22 14 3c db bd 2d b9
       0.0044355122 -0.0066829245 0.009041478 -0.00016569292
0002f0 20 d4 e0 3b ca ee 65 bc 7f 7a b9 3b 52 b3 d0 bb
       0.006861225 -0.0140339825 0.0056603546 -0.006369033
000300 08 15 cb bb 31 c5 c6 bb 05 93 5d 3c 83 b9 b2 3b
       -0.0061975755 -0.0060659875 0.013523822 0.0054542436
000310 2c 7d 03 3c da b0 38 3a 09 7a b8 ba d3 1d 99 3a
       0.008025449 0.0007045396 -0.0014074455 0.0011681862
000320 4b 5c cf 3b d5 75 8b ba 57 ed 73 3c d0 ff e7 3c
       0.006328141 -0.0010639975 0.014888129 0.028320223
000330 ed 71 8d 3c 2b 6f 33 3c c5 34 76 bc 92 e1 dc bb
       0.017266238 0.0109517975 -0.01502723 -0.0067407573
000340 6d 08 ab bb ea 69 4e bb 87 a3 0a 3c 42 39 b3 3c
       -0.0052195103 -0.0031496235 0.0084618395 0.021877889
000350 07 04 33 bb 8c 6c 32 3c 9a 1d df 3b 48 98 e9 3a
       -0.0027315633 0.010890137 0.0068089487 0.0017821873
000360 fc b3 16 bc 1b 7d 87 3c 9b 66 c5 3c b3 c7 d1 3c
       -0.009198185 0.016539147 0.024096778 0.02560792
000370 b4 08 87 ba 68 b5 4e 3b a8 a4 74 3c b8 ab 1a 3c
       -0.0010302276 0.0031541232 0.014931835 0.009440355
000380 6d 28 7b 3b ab 15 21 bb eb 10 5a bc 7c de 0d bc
       0.0038323656 -0.0024579566 -0.013309698 -0.008659001
000390 96 6d c9 bc 05 0f 0c bb 17 ad 80 bb 26 39 a2 bc
       -0.024588387 -0.0021371257 -0.003926884 -0.019802641
0003a0 27 53 b6 3b 43 47 97 3c 09 be 49 bc 47 f8 3e bc
       0.0055641118 0.018466597 -0.012313374 -0.011655874
0003b0 f7 c5 4b 39 54 f7 35 3c a3 3e ea 3b 5e 66 ac 3c
       0.00019433336 0.011106331 0.00714858 0.021044906
0003c0 cc 4a 26 bc 5a bf 93 3c 1a c6 c7 3b 03 cd 8a bc
       -0.010149669 0.01803558 0.0060966136 -0.01694346
0003d0 5b 17 33 bc af 97 45 3c c4 87 24 3a b8 d5 77 bc
       -0.010930861 0.01206009 0.0006276334 -0.015126638
0003e0 a3 d8 ba bc 53 4e ad bc 0b a3 f8 ba 9a a5 31 3c
       -0.022808379 -0.021155512 -0.0018969489 0.010842705
0003f0 2c ad a9 3b 2f c0 5d bc 3d d2 e0 bc a4 af 2e 3b
       0.0051781144 -0.01353459 -0.027444 0.0026654983

action_model._continuous_distribution.mu.bias f4 [12]
000000 00 00 00 00 00 00 00 00 00 00 00 00 00 00 00 00
       0.0 0.0 0.0 0.0
000010 00 00 00 00 00 00 00 00 00 00 00 00 00 00 00 00
       0.0 0.0 0.0 0.0
000020 00 00 00 00 00 00 00 00 00 00 00 00 00 00 00 00
       0.0 0.0 0.0 0.0

onnx::Div_51 f4 [74]
000000 00 00 80 3f 00 00 80 3f 00 00 80 3f 00 00 80 3f
       1.0 1.0 1.0 1.0
000010 00 00 80 3f 00 00 80 3f 00 00 80 3f 00 00 80 3f
       1.0 1.0 1.0 1.0
000020 00 00 80 3f 00 00 80 3f 00 00 80 3f 00 00 80 3f
       1.0 1.0 1.0 1.0
000030 00 00 80 3f 00 00 80 3f 00 00 80 3f 00 00 80 3f
       1.0 1.0 1.0 1.0
000040 00 00 80 3f 00 00 80 3f 00 00 80 3f 00 00 80 3f
       1.0 1.0 1.0 1.0
000050 00 00 80 3f 00 00 80 3f 00 00 80 3f 00 00 80 3f
       1.0 1.0 1.0 1.0
000060 00 00 80 3f 00 00 80 3f 00 00 80 3f 00 00 80 3f
       1.0 1.0 1.0 1.0
000070 00 00 80 3f 00 00 80 3f 00 00 80 3f 00 00 80 3f
       1.0 1.0 1.0 1.0
000080 00 00 80 3f 00 00 80 3f 00 00 80 3f 00 00 80 3f
       1.0 1.0 1.0 1.0
000090 00 00 80 3f 00 00 80 3f 00 00 80 3f 00 00 80 3f
       1.0 1.0 1.0 1.0
0000a0 00 00 80 3f 00 00 80 3f 00 00 80 3f 00 00 80 3f
       1.0 1.0 1.0 1.0
0000b0 00 00 80 3f 00 00 80 3f 00 00 80 3f 00 00 80 3f
       1.0 1.0 1.0 1.0
0000c0 00 00 80 3f 00 00 80 3f 00 00 80 3f 00 00 80 3f
       1.0 1.0 1.0 1.0
0000d0 00 00 80 3f 00 00 80 3f 00 00 80 3f 00 00 80 3f
       1.0 1.0 1.0 1.0
0000e0 00 00 80 3f 00 00 80 3f 00 00 80 3f 00 00 80 3f
       1.0 1.0 1.0 1.0
0000f0 00 00 80 3f 00 00 80 3f 00 00 80 3f 00 00 80 3f
       1.0 1.0 1.0 1.0
000100 00 00 80 3f 00 00 80 3f 00 00 80 3f 00 00 80 3f
       1.0 1.0 1.0 1.0
000110 00 00 80 3f 00 00 80 3f 00 00 80 3f 00 00 80 3f
       1.0 1.0 1.0 1.0
000120 00 00 80 3f 00 00 80 3f
       1.0 1.0
