results/super_fresh_run_010/RobotAgent/RobotAgent-0.onnx (onnx, 357277 bytes, 8 tensors)

network_body.observation_encoder.processors.0.normalizer.running_mean f4 [74]
000000 00 00 00 00 00 00 00 00 00 00 00 00 00 00 00 00
       0.0 0.0 0.0 0.0
000010 00 00 00 00 00 00 00 00 00 00 00 00 00 00 00 00
       0.0 0.0 0.0 0.0
000020 00 00 00 00 00 00 00 00 00 00 00 00 00 00 00 00
       0.0 0.0 0.0 0.0
000030 00 00 00 00 00 00 00 00 00 00 00 00 00 00 00 00
       0.0 0.0 0.0 0.0
000040 00 00 00 00 00 00 00 00 00 00 00 00 00 00 00 00
       0.0 0.0 0.0 0.0
000050 00 00 00 00 00 00 00 00 00 00 00 00 00 00 00 00
       0.0 0.0 0.0 0.0
000060 00 00 00 00 00 00 00 00 00 00 00 00 00 00 00 00
       0.0 0.0 0.0 0.0
000070 00 00 00 00 00 00 00 00 00 00 00 00 00 00 00 00
       0.0 0.0 0.0 0.0
000080 00 00 00 00 00 00 00 00 00 00 00 00 00 00 00 00
       0.0 0.0 0.0 0.0
000090 00 00 00 00 00 00 00 00 00 00 00 00 00 00 00 00
       0.0 0.0 0.0 0.0
0000a0 00 00 00 00 00 00 00 00 00 00 00 00 00 00 00 00
       0.0 0.0 0.0 0.0
0000b0 00 00 00 00 00 00 00 00 00 00 00 00 00 00 00 00
       0.0 0.0 0.0 0.0
0000c0 00 00 00 00 00 00 00 00 00 00 00 00 00 00 00 00
       0.0 0.0 0.0 0.0
0000d0 00 00 00 00 00 00 00 00 00 00 00 00 00 00 00 00
       0.0 0.0 0.0 0.0
0000e0 00 00 00 00 00 00 00 00 00 00 00 00 00 00 00 00
       0.0 0.0 0.0 0.0
0000f0 00 00 00 00 00 00 00 00 00 00 00 00 00 00 00 00
       0.0 0.0 0.0 0.0
000100 00 00 00 00 00 00 00 00 00 00 00 00 00 00 00 00
       0.0 0.0 0.0 0.0
000110 00 00 00 00 00 00 00 00 00 00 00 00 00 00 00 00
       0.0 0.0 0.0 0.0
000120 00 00 00 00 00 00 00 00
       0.0 0.0

network_body._body_endoder.seq_layers.0.weight f4 [256, 74]
000000 c7 a7 8b 3e 1f af ff bd 6d bb 04 be 11 dd 11 3d
       0.2727644 -0.124845736 -0.12962122 0.035611216
000010 88 ce c0 bd d2 9a bf bd 02 eb e7 3b 34 4b 4a bd
       -0.09414393 -0.093557015 0.0070775757 -0.049388126
000020 bd 9e 32 bd 63 f3 ec 3c 0c 2a 4f 3e 9f e3 28 be
       -0.043608416 0.02892465 0.20230883 -0.1649308
000030 fd ec 34 3e f2 36 3a 3d d4 8f bf bd 5e 6c 2e be
       0.17668529 0.045462556 -0.09353605 -0.17033526
000040 54 50 5e be 41 af 3f bd 25 a6 02 3e 13 96 0c be
       -0.2171033 -0.046797995 0.12758692 -0.13729124
000050 11 d6 4c 3e cc 99 ef 3c 2e 57 42 be 26 df 3a bb
       0.20003535 0.02924814 -0.18978569 -0.0028514354
000060 47 d6 cb bd 25 19 9a bd ba 47 c7 3d a7 d7 4d bd
       -0.099529795 -0.07524327 0.09730478 -0.05025449
000070 25 1b c2 bc 08 b5 8b 3e 0b bf 15 3e a9 1e 04 3e
       -0.023694584 0.27286553 0.14623658 0.12902321
000080 20 63 cf 3c af c6 87 bd fd e9 23 be 50 a9 e1 bd
       0.025315821 -0.06629693 -0.16007228 -0.11018622
000090 ef 05 59 be bd 77 08 3c 3e 9e 84 bd 96 2e 6a 3b
       -0.2119367 0.008329329 -0.06475495 0.0035733334
0000a0 13 0b 5e be 18 6f 04 3e cc 3f 79 be 37 f0 1c bd
       -0.21683912 0.12933004 -0.24340743 -0.038315024
0000b0 61 87 92 bd 8f d2 f6 3c 28 8e aa 3d 2c 74 be 3d
       -0.07154728 0.030129699 0.083278954 0.09299502
0000c0 4d c7 72 bd fc eb 4a 3d c3 eb aa bd df d2 fc bd
       -0.0592721 0.04954146 -0.08345749 -0.12344908
0000d0 56 af 40 be 93 6b 00 be db 79 82 3d 2d 3e 0d be
       -0.18816885 -0.12541036 0.06370898 -0.1379325
0000e0 3d 6a bc 3d ba c3 19 3b c0 d1 d2 3c 58 b6 16 3e
       0.09199951 0.002346261 0.025734782 0.14717996
0000f0 48 b1 93 bd ab c4 4e ba 4f 4c c8 be 8f 75 56 bd
       -0.07211548 -0.0007887582 -0.3912072 -0.052358206
000100 7a c5 30 3d f3 31 cb be d1 b9 76 bd 34 45 f1 bd
       0.04315708 -0.39686546 -0.060235802 -0.117807776
000110 3f 48 6d 3e 3d 10 87 bd f7 bb d4 3c f1 03 9f 3d
       0.23172091 -0.06594894 0.025968535 0.07764424
000120 46 e0 13 3d b1 07 e6 bd 08 ca d3 bd 77 3c 72 3e
       0.036102556 -0.11231936 -0.10341269 0.23655878
000130 41 83 04 3e cf a1 a4 3d c0 88 e8 bd 41 6d dd bd
       0.12940694 0.08038675 -0.11354208 -0.10811854
000140 14 82 b9 bd 15 8a 80 3d 60 cc 3f 3d d9 5f fa bd
       -0.090580136 0.06276337 0.046825767 -0.12225313
000150 c7 dc ea 3d 5b 2b 69 3d e9 0d 39 be f2 d9 ac bc
       0.11467891 0.056926113 -0.18071713 -0.021100018
000160 58 de 3e bd 41 48 10 be 34 98 a1 bd d3 14 1c be
       -0.046598762 -0.14090063 -0.078903586 -0.15242319
000170 c9 e8 63 bd b8 b0 7a bd b3 44 88 bd b0 50 ba bd
       -0.055641923 -0.06120369 -0.06653728 -0.09097421
000180 af 57 f6 bb d2 a0 18 3d 08 60 0d 3e 62 36 c4 3d
       -0.007517777 0.037262745 0.13806164 0.09580685
000190 63 00 47 bd a0 17 2d be 09 ce 63 be 74 9d 47 bc
       -0.048584353 -0.16903543 -0.22246565 -0.012183536
0001a0 f2 21 16 bd ec a1 7f bd 18 41 6d bd 13 26 10 3d
       -0.036653467 -0.06241028 -0.057923406 0.03519256
0001b0 6e ad fd bb a2 0f 50 3e f5 df 1f 3e 18 28 10 3e
       -0.0077416217 0.20318463 0.15612777 0.14077795
0001c0 12 65 16 3e 59 d1 bb bd 1b 65 c5 3c c6 cb 23 3d
       0.14686993 -0.09170789 0.024096062 0.039989255
0001d0 bf 52 52 be 9a 4c 1f 3e 32 68 8e 3d 5c 99 00 bc
       -0.20539378 0.15556565 0.069534674 -0.007849064
0001e0 fd 80 bc bd 1f 86 cc 3d 28 06 a7 3d f0 07 64 3e
       -0.0920429 0.09986519 0.08155471 0.22268653
0001f0 57 a4 15 3e a9 58 41 3c 42 2b 1f be 26 7c 2b be
       0.14613472 0.011800923 -0.15543845 -0.16746578
000200 be ae 8f 3c 9d a3 ff bd c4 dc c5 3d 40 aa 89 bd
       0.017539378 -0.12482379 0.09661248 -0.06721926
000210 96 b2 a2 3d 40 4b 3b bc 8d b4 7d be 1c 39 12 3d
       0.07944219 -0.011431515 -0.24775906 0.035698995
000220 f5 6f 7f bd d1 99 59 3e 73 49 ae 3d 1c 6d 5a 3e
       -0.06236263 0.21250083 0.08510103 0.21330684
000230 c8 97 54 3e 57 89 59 bc 39 a8 38 be 60 85 df 3d
       0.20761025 -0.013277373 -0.18032922 0.10914111
000240 7b 1d 03 3d 55 84 c8 bd f0 f6 c9 bc 42 08 67 3d
       0.032010537 -0.09790865 -0.024653882 0.05640436
000250 7f fa 5a be ea 6f 20 be 93 e6 b6 3d 44 99 e3 bc
       -0.21384619 -0.15667692 0.08930697 -0.027783044
000260 fb 8e 2e 3e ca 88 ff 3d 70 a0 78 bd ec 2b f8 bb
       0.1704673 0.12477262 -0.06069988 -0.0075735953
000270 ce ce 2f be 9b ac ea 3c 17 2f 22 3e da cf 86 bd
       -0.17168733 0.028646758 0.15838276 -0.06582613
000280 e7 3d 01 3d 59 d0 a3 3d f3 cc de bd e5 3e 8f 3d
       0.031553175 0.079987235 -0.10878935 0.06994418
000290 ba f5 79 3d 2a 75 b7 bb 1f 58 b0 ba af dd b8 bd
       0.06102536 -0.005598684 -0.0013453997 -0.09026658
0002a0 6f 49 97 3c 09 c2 c3 bd a9 93 19 3d 54 ad 24 3e
       0.018467633 -0.09558494 0.037494335 0.16081744
0002b0 d5 fc 21 be e7 43 26 be 96 41 98 bd 00 ca ce 3d
       -0.15819104 -0.1623684 -0.074343845 0.10097122
0002c0 63 c3 b3 3d 09 17 8f 3d fd 18 87 3d 94 4b 94 be
       0.087775014 0.069868155 0.06596563 -0.28963912
0002d0 9a c6 01 bc f7 a6 5d 3d 26 ba 80 be f4 c8 3a be
       -0.007920885 0.05411431 -0.2514202 -0.1824072
0002e0 81 65 ab 3d 8e af 44 3d 0b f6 01 be c1 e5 99 3d
       0.0836897 0.048018984 -0.12691514 0.07514525
0002f0 d5 67 03 3e cf f4 4b 3e 4e 50 05 3e 20 36 9a 3d
       0.12832578 0.19917606 0.13018915 0.07529855
000300 a4 c2 a0 3c 59 c9 00 3e 8d 81 5c bd e4 c9 26 be
       0.019624062 0.12576808 -0.053834487 -0.16287953
000310 a4 b7 c7 3d a9 c1 94 bd 9e df 23 be 64 27 07 3e
       0.097518235 -0.072635 -0.16003272 0.1319862
000320 2a 91 1d 3e 65 91 df bc fa 3f f7 bc aa 22 91 3e
       0.15387407 -0.02729101 -0.030181874 0.2834676
000330 f4 8a f1 bc c0 bc be 3d 12 6a d8 3d 92 ed c3 3d
       -0.029485203 0.09313345 0.10567106 0.09566797
000340 c0 87 3b be b9 07 82 3d 72 b2 e1 3d 7f 9f 24 3e
       -0.18313503 0.06349129 0.11020364 0.16076468
000350 81 9b 9e 3d 76 08 0a be 88 70 83 be 39 91 13 bc
       0.07744504 -0.1347979 -0.25671792 -0.009006792
000360 d6 b7 cd 3d bb 1c d0 bd d4 25 84 bd 04 5a e1 3c
       0.100448295 -0.1016173 -0.06452528 0.027508743
000370 1c a6 4c bc a3 71 3b be d0 d7 80 bd 16 0a f7 bd
       -0.012490775 -0.18305068 -0.06291163 -0.120624706
000380 d9 51 cf bd 06 9e 59 bd 1e 03 86 3d a3 32 ea bc
       -0.10123033 -0.05312922 0.06543563 -0.028588599
000390 b4 3d 94 3e df fc a6 3e c8 42 b1 bd 41 31 2e be
       0.28953326 0.326148 -0.08655316 -0.17010976
0003a0 23 ac ac bd 05 43 b8 3d 1b 72 f7 bb 0f 79 dd bd
       -0.0843127 0.08997158 -0.007551444 -0.10814106
0003b0 8b 32 1f bd c4 c1 4c 3d 89 55 e6 3d ef 73 9b 3d
       -0.03886656 0.049989477 0.11246783 0.07590472
0003c0 cd 7f 1c 3d 8c 35 9d 3c 90 cd 52 be fc 82 fd 3c
       0.038207818 0.019190572 -0.20586228 0.030946247
0003d0 28 79 96 bc 7e d8 81 bd 95 b5 05 3e 7c 19 e4 bd
       -0.018368319 -0.06340121 0.1305755 -0.11137673
0003e0 68 f6 52 bd fa e8 17 bd 2e 33 86 bd f6 1b 8a bd
       -0.051504523 -0.03708742 -0.065527305 -0.067436144
0003f0 64 b9 f5 bd cf 4f fd bd ca 30 f2 bc 04 08 95 3c
       -0.11998251 -0.12368738 -0.02956428 0.018192299

network_body._body_endoder.seq_layers.0.bias f4 [256]
000000 00 00 00 00 00 00 00 00 00 00 00 00 00 00 00 00
       0.0 0.0 0.0 0.0
000010 00 00 00 00 00 00 00 00 00 00 00 00 00 00 00 00
       0.0 0.0 0.0 0.0
000020 00 00 00 00 00 00 00 00 00 00 00 00 00 00 00 00
       0.0 0.0 0.0 0.0
000030 00 00 00 00 00 00 00 00 00 00 00 00 00 00 00 00
       0.0 0.0 0.0 0.0
000040 00 00 00 00 00 00 00 00 00 00 00 00 00 00 00 00
       0.0 0.0 0.0 0.0
000050 00 00 00 00 00 00 00 00 00 00 00 00 00 00 00 00
       0.0 0.0 0.0 0.0
000060 00 00 00 00 00 00 00 00 00 00 00 00 00 00 00 00
       0.0 0.0 0.0 0.0
000070 00 00 00 00 00 00 00 00 00 00 00 00 00 00 00 00
       0.0 0.0 0.0 0.0
000080 00 00 00 00 00 00 00 00 00 00 00 00 00 00 00 00
       0.0 0.0 0.0 0.0
000090 00 00 00 00 00 00 00 00 00 00 00 00 00 00 00 00
       0.0 0.0 0.0 0.0
0000a0 00 00 00 00 00 00 00 00 00 00 00 00 00 00 00 00
       0.0 0.0 0.0 0.0
0000b0 00 00 00 00 00 00 00 00 00 00 00 00 00 00 00 00
       0.0 0.0 0.0 0.0
0000c0 00 00 00 00 00 00 00 00 00 00 00 00 00 00 00 00
       0.0 0.0 0.0 0.0
0000d0 00 00 00 00 00 00 00 00 00 00 00 00 00 00 00 00
       0.0 0.0 0.0 0.0
0000e0 00 00 00 00 00 00 00 00 00 00 00 00 00 00 00 00
       0.0 0.0 0.0 0.0
0000f0 00 00 00 00 00 00 00 00 00 00 00 00 00 00 00 00
       0.0 0.0 0.0 0.0
000100 00 00 00 00 00 00 00 00 00 00 00 00 00 00 00 00
       0.0 0.0 0.0 0.0
000110 00 00 00 00 00 00 00 00 00 00 00 00 00 00 00 00
       0.0 0.0 0.0 0.0
000120 00 00 00 00 00 00 00 00 00 00 00 00 00 00 00 00
       0.0 0.0 0.0 0.0
000130 00 00 00 00 00 00 00 00 00 00 00 00 00 00 00 00
       0.0 0.0 0.0 0.0
000140 00 00 00 00 00 00 00 00 00 00 00 00 00 00 00 00
       0.0 0.0 0.0 0.0
000150 00 00 00 00 00 00 00 00 00 00 00 00 00 00 00 00
       0.0 0.0 0.0 0.0
000160 00 00 00 00 00 00 00 00 00 00 00 00 00 00 00 00
       0.0 0.0 0.0 0.0
000170 00 00 00 00 00 00 00 00 00 00 00 00 00 00 00 00
       0.0 0.0 0.0 0.0
000180 00 00 00 00 00 00 00 00 00 00 00 00 00 00 00 00
       0.0 0.0 0.0 0.0
000190 00 00 00 00 00 00 00 00 00 00 00 00 00 00 00 00
       0.0 0.0 0.0 0.0
0001a0 00 00 00 00 00 00 00 00 00 00 00 00 00 00 00 00
       0.0 0.0 0.0 0.0
0001b0 00 00 00 00 00 00 00 00 00 00 00 00 00 00 00 00
       0.0 0.0 0.0 0.0
0001c0 00 00 00 00 00 00 00 00 00 00 00 00 00 00 00 00
       0.0 0.0 0.0 0.0
0001d0 00 00 00 00 00 00 00 00 00 00 00 00 00 00 00 00
       0.0 0.0 0.0 0.0
0001e0 00 00 00 00 00 00 00 00 00 00 00 00 00 00 00 00
       0.0 0.0 0.0 0.0
0001f0 00 00 00 00 00 00 00 00 00 00 00 00 00 00 00 00
       0.0 0.0 0.0 0.0
000200 00 00 00 00 00 00 00 00 00 00 00 00 00 00 00 00
       0.0 0.0 0.0 0.0
000210 00 00 00 00 00 00 00 00 00 00 00 00 00 00 00 00
       0.0 0.0 0.0 0.0
000220 00 00 00 00 00 00 00 00 00 00 00 00 00 00 00 00
       0.0 0.0 0.0 0.0
000230 00 00 00 00 00 00 00 00 00 00 00 00 00 00 00 00
       0.0 0.0 0.0 0.0
000240 00 00 00 00 00 00 00 00 00 00 00 00 00 00 00 00
       0.0 0.0 0.0 0.0
000250 00 00 00 00 00 00 00 00 00 00 00 00 00 00 00 00
       0.0 0.0 0.0 0.0
000260 00 00 00 00 00 00 00 00 00 00 00 00 00 00 00 00
       0.0 0.0 0.0 0.0
000270 00 00 00 00 00 00 00 00 00 00 00 00 00 00 00 00
       0.0 0.0 0.0 0.0
000280 00 00 00 00 00 00 00 00 00 00 00 00 00 00 00 00
       0.0 0.0 0.0 0.0
000290 00 00 00 00 00 00 00 00 00 00 00 00 00 00 00 00
       0.0 0.0 0.0 0.0
0002a0 00 00 00 00 00 00 00 00 00 00 00 00 00 00 00 00
       0.0 0.0 0.0 0.0
0002b0 00 00 00 00 00 00 00 00 00 00 00 00 00 00 00 00
       0.0 0.0 0.0 0.0
0002c0 00 00 00 00 00 00 00 00 00 00 00 00 00 00 00 00
       0.0 0.0 0.0 0.0
0002d0 00 00 00 00 00 00 00 00 00 00 00 00 00 00 00 00
       0.0 0.0 0.0 0.0
0002e0 00 00 00 00 00 00 00 00 00 00 00 00 00 00 00 00
       0.0 0.0 0.0 0.0
0002f0 00 00 00 00 00 00 00 00 00 00 00 00 00 00 00 00
       0.0 0.0 0.0 0.0
000300 00 00 00 00 00 00 00 00 00 00 00 00 00 00 00 00
       0.0 0.0 0.0 0.0
000310 00 00 00 00 00 00 00 00 00 00 00 00 00 00 00 00
       0.0 0.0 0.0 0.0
000320 00 00 00 00 00 00 00 00 00 00 00 00 00 00 00 00
       0.0 0.0 0.0 0.0
000330 00 00 00 00 00 00 00 00 00 00 00 00 00 00 00 00
       0.0 0.0 0.0 0.0
000340 00 00 00 00 00 00 00 00 00 00 00 00 00 00 00 00
       0.0 0.0 0.0 0.0
000350 00 00 00 00 00 00 00 00 00 00 00 00 00 00 00 00
       0.0 0.0 0.0 0.0
000360 00 00 00 00 00 00 00 00 00 00 00 00 00 00 00 00
       0.0 0.0 0.0 0.0
000370 00 00 00 00 00 00 00 00 00 00 00 00 00 00 00 00
       0.0 0.0 0.0 0.0
000380 00 00 00 00 00 00 00 00 00 00 00 00 00 00 00 00
       0.0 0.0 0.0 0.0
000390 00 00 00 00 00 00 00 00 00 00 00 00 00 00 00 00
       0.0 0.0 0.0 0.0
0003a0 00 00 00 00 00 00 00 00 00 00 00 00 00 00 00 00
       0.0 0.0 0.0 0.0
0003b0 00 00 00 00 00 00 00 00 00 00 00 00 00 00 00 00
       0.0 0.0 0.0 0.0
0003c0 00 00 00 00 00 00 00 00 00 00 00 00 00 00 00 00
       0.0 0.0 0.0 0.0
0003d0 00 00 00 00 00 00 00 00 00 00 00 00 00 00 00 00
       0.0 0.0 0.0 0.0
0003e0 00 00 00 00 00 00 00 00 00 00 00 00 00 00 00 00
       0.0 0.0 0.0 0.0
0003f0 00 00 00 00 00 00 00 00 00 00 00 00 00 00 00 00
       0.0 0.0 0.0 0.0

network_body._body_endoder.seq_layers.2.weight f4 [256, 256]
000000 04 57 5f bd 41 56 97 bc 74 34 18 bd 30 9d 9d bd
       -0.054526344 -0.018473746 -0.0371594 -0.07695997
000010 6d fa 16 bd 49 03 b5 3d 30 f4 ba 3d 8e 7e e6 3c
       -0.03685992 0.08838517 0.09128606 0.028136518
000020 34 e8 2c bd cf e9 fc 3c 0c 26 1b 3d 7a ee df 3d
       -0.042213634 0.030873207 0.03787808 0.10934158
000030 94 d8 dc bc df 59 4a 3c f4 45 29 bd d0 f8 7b 3d
       -0.026958741 0.0123505285 -0.041326478 0.061516583
000040 10 a7 58 bd 1d 37 b5 bc 88 e4 10 3d 38 e7 48 3c
       -0.0528937 -0.022121007 0.035374194 0.012262158
000050 15 ea a1 bc b8 66 3b bd 61 79 9e 3d f9 64 d5 bd
       -0.01976494 -0.045752257 0.07737995 -0.1041965
000060 9e 30 c6 bd 42 e9 64 3d 14 d0 bb 3c 3c 01 8c 3d
       -0.09677242 0.055886514 0.022926368 0.06836173
000070 69 b8 14 be 7b b8 26 3d 10 ca ee 3d 89 f4 92 3d
       -0.14523472 0.040703278 0.11659634 0.07175548
000080 7e 71 44 bd 24 5e 66 3d 27 dd f4 3c fd 62 93 bc
       -0.047959797 0.056242123 0.02989061 -0.017991537
000090 70 2b c7 3c 27 c4 85 bc 1a ee 09 be 94 3c b8 bd
       0.024312705 -0.016328884 -0.13469735 -0.08995929
0000a0 ae 13 08 bd 2a 3e ff 3c 57 98 cb 3c 29 5f 03 bd
       -0.033221893 0.031157572 0.024852915 -0.032073174
0000b0 25 0e a3 3c d6 dd 4b 3c ab 09 ce bd 66 e8 a5 3c
       0.019904206 0.0124430265 -0.10060438 0.020252418
0000c0 ff c8 97 3d 01 cc 45 bd 89 55 34 3d 77 88 bd bd
       0.07411384 -0.048290256 0.044026885 -0.09254544
0000d0 32 9b 5b 3d e0 80 33 3d be 6c ad bc 26 c6 0b bd
       0.053614803 0.043824077 -0.021170016 -0.034124516
0000e0 b7 00 b1 bc 22 2b 79 bc 76 42 00 3d 41 7a 1a bd
       -0.021606786 -0.015208038 0.031313382 -0.037714247
0000f0 f7 1b b7 bd 84 10 b4 3c c8 03 32 3d 55 b1 0d 3d
       -0.08940881 0.021980532 0.043460637 0.034592945
000100 66 61 bf bc 7d e9 82 3d 85 f1 89 3d 2a d3 8f bc
       -0.023361873 0.063921906 0.06735519 -0.017556746
000110 22 da 43 bd 81 d2 e7 bd f3 7c 36 3c 14 53 0b 3e
       -0.04781545 -0.11319447 0.011138189 0.1360591
000120 aa 1c ad bc 7d e0 0e b8 18 63 a8 3d 2b 29 96 3d
       -0.021131832 -3.406451e-05 0.08222026 0.07332071
000130 15 49 9e 3d 4f 24 ac bd 68 c1 a0 bd c5 83 cd 3d
       0.07728783 -0.08405363 -0.07849389 0.10034899
000140 3e 7f e2 bd 8d 8d 2b bb e3 05 55 3d 1c 1f 0c bb
       -0.11059426 -0.00261769 0.052007567 -0.0021380847
000150 06 5c 96 bc fa ed 6c 3d b8 13 08 bd 03 d4 96 3b
       -0.018354427 0.05784414 -0.03322193 0.0046029105
000160 2e 63 46 3d 95 2a d3 3c 1b d9 54 3b 23 cb 04 be
       0.04843443 0.02577714 0.0032478038 -0.12968116
000170 25 f3 14 3d 28 fb 6a bc d4 ef 5d 3d cc 6a 2e 3d
       0.036364693 -0.014342107 0.054183796 0.04258232
000180 77 7b eb ba 57 43 38 bc da d9 9b 3c 94 62 88 3d
       -0.0017965873 -0.011246524 0.019024778 0.06659427
000190 35 cb b6 3c c7 0d a2 3c 5c 7d 04 3d 58 f7 50 3d
       0.022313694 0.01978196 0.032346115 0.051017135
0001a0 9c d3 1e bc 6b 02 ea 3c d8 f1 1f 3c cf c8 0e bd
       -0.009694006 0.028565606 0.00976225 -0.034859475
0001b0 27 e6 5b 3d d7 c3 ef 3d e6 ad 2b bd d8 9e bd 3d
       0.053686287 0.11707275 -0.04191389 0.09258813
0001c0 14 9b 89 3d d5 47 86 3c c0 af 94 3c 19 57 c3 bd
       0.06719032 0.016391674 0.01815021 -0.09538097
0001d0 fc 58 43 bb 50 33 03 bc 20 e5 6b 3d dd df 28 3d
       -0.0029807677 -0.008007839 0.057591558 0.041229118
0001e0 4c 01 08 3e 8d ce 6c bc 60 12 5d bd b1 4e d0 bc
       0.13281745 -0.014453542 -0.053972602 -0.025428148
0001f0 3a 50 c3 3d 6e a5 19 3d 3e 5e d2 3d b6 51 21 3c
       0.095367864 0.03751128 0.102718815 0.009846142
000200 df d2 31 3d ff 0b 4d bc ef 30 96 3d b2 71 67 3d
       0.043413993 -0.012515067 0.07333552 0.056504913
000210 61 9c a8 bd 84 f3 0a bd ba c5 be bc 76 ab 6a bd
       -0.08232952 -0.03392364 -0.023287643 -0.057292424
000220 83 57 8d bd ff 49 b4 3c 1e 2c 9f ba ba 6b a8 bc
       -0.06901457 0.02200794 -0.0012143885 -0.02055918
000230 32 0a ff 3b 2d c6 65 3d 57 fc 7d bd 48 b0 44 bd
       0.007783198 0.0560972 -0.06200823 -0.048019677
000240 96 ea f4 bb 24 5e fd bd 5f 3f 0d 3c 35 38 41 3c
       -0.007474254 -0.123714715 0.008621066 0.011793186
000250 f1 b3 43 bc f7 00 ef 3a ca d9 62 bd 6b e2 73 3b
       -0.011944757 0.001823454 -0.05538348 0.0037213813
000260 db e0 0a 3c 83 d5 ab bc d6 11 ac 3d 68 41 7e bd
       0.008476461 -0.020975834 0.084018394 -0.062074095
000270 5f 9b e6 bc 03 d3 a1 3c 74 95 b9 3c 09 1b 01 bd
       -0.028150259 0.019753939 0.022654273 -0.031519923
000280 49 17 d9 3c 68 ba 8c 3c 9a 00 8a 3d d0 23 71 bd
       0.026500361 0.01717873 0.06738396 -0.058872044
000290 33 c7 13 bb 7f d9 08 bd 8c e8 21 bd 3c eb 47 bd
       -0.0022549152 -0.033410545 -0.039528415 -0.04880832
0002a0 88 04 5b 3c a0 37 ae 3c b9 70 82 bd 46 68 23 bd
       0.01336778 0.021266758 -0.063691564 -0.039894365
0002b0 6e fd e3 bc e1 a8 5a bc b7 81 0b bd a7 1d 80 3d
       -0.027830806 -0.013345928 -0.034059253 0.06255656
0002c0 be 1a ad bd 23 2e 8e bd 53 03 36 b8 19 ea 52 3c
       -0.08452366 -0.06942394 -4.3395277e-05 0.012873196
0002d0 c8 27 38 bd 24 68 53 3d db 74 19 3d 84 be 14 3d
       -0.044959813 0.051612988 0.037464958 0.036314502
0002e0 99 96 8f 3d 00 ad 98 bd 21 09 89 3d ef a0 29 3c
       0.07011146 -0.07454872 0.06691194 0.010353311
0002f0 e9 ed 68 3d f7 ae d0 3c a7 e6 9d bd c8 a4 bd 3c
       0.056867514 0.025474055 -0.07710009 0.023149863
000300 aa da da 3b 50 76 7a 3c 0b b0 af 3d 50 b1 08 be
       0.006678899 0.015286997 0.085784994 -0.1334889
000310 94 0e 09 3c 60 1d 93 bd 16 1c fe bc 95 bd 05 be
       0.008365292 -0.07183337 -0.031019252 -0.13060601
000320 4b e6 b3 3b d6 c5 80 3d b5 33 e4 bd 77 66 95 3c
       0.0054900995 0.06287734 -0.11142675 0.018237336
000330 8c d8 85 bd 1b ee 9e 3c ad aa de bd 3f 66 dc bc
       -0.06535444 0.019400647 -0.108723976 -0.026904223
000340 48 61 42 bc 18 d4 12 3e c7 06 30 bb 5a 0c ad 3d
       -0.011864014 0.1433872 -0.0026859508 0.084496215
000350 21 ac 08 3d d5 07 1e 3d e8 09 2e 3d d9 c1 d2 bc
       0.03336728 0.038581688 0.042489916 -0.0257272
000360 d7 dc 25 3c eb c5 9c bd 6f 52 a8 bd 99 b2 84 bd
       0.010123453 -0.07654937 -0.08218848 -0.06479377
000370 e0 55 55 bd 10 f2 66 3d 36 29 ce 3d a4 64 7d bd
       -0.05208385 0.056383193 0.10066454 -0.061863557
000380 94 91 e5 3c ff 83 8f 3d 7d a2 60 3d a5 b4 05 bc
       0.028023519 0.07007598 0.05484246 -0.008160745
000390 72 54 82 3d 3e 5e 0e 3e c7 4f 25 3e 78 ce 88 bd
       0.06363763 0.13903138 0.16143714 -0.06680006
0003a0 51 f5 69 bc fc 52 8d 3c c5 54 88 3d d3 ae 9b bb
       -0.014279679 0.017251484 0.066567935 -0.0047510653
0003b0 a7 f9 44 bc ee f0 20 be ff d5 e2 3d 9e 8a 92 3d
       -0.012022412 -0.15716907 0.11075973 0.071553454
0003c0 16 ef 18 3c e5 7b e9 bb df 13 cd bd e2 b9 23 3d
       0.009334346 -0.007125365 -0.10013556 0.039972194
0003d0 5c 50 c9 bc c5 a6 bb 3d 9e d2 ae 3c 50 ee 15 be
       -0.024574451 0.09162668 0.021340664 -0.1464169
0003e0 b1 e3 a7 bd 39 aa 5a bd 27 45 bd 3c 3f 94 11 3c
       -0.081977256 -0.053384993 0.023104263 0.008885442
0003f0 dd 51 dc bb 52 9f 22 3c e8 ca 52 3d 72 aa 94 bd
       -0.006723626 0.00992568 0.051463038 -0.07259072

action_model._continuous_distribution.log_sigma f4 [1, 12]
000000 00 00 00 00 00 00 00 00 00 00 00 00 00 00 00 00
       0.0 0.0 0.0 0.0
000010 00 00 00 00 00 00 00 00 00 00 00 00 00 00 00 00
       0.0 0.0 0.0 0.0
000020 00 00 00 00 00 00 00 00 00 00 00 00 00 00 00 00
       0.0 0.0 0.0 0.0

action_model._continuous_distribution.mu.weight f4 [12, 256]
000000 bf 93 59 3c 6d a1 47 bc 76 30 49 bc e3 89 8f ba
       0.013279854 -0.012184483 -0.01227962 -0.0010951128
000010 b4 98 3e bc 98 0f 66 bb 4e 0c 08 3c 15 8b 09 bd
       -0.011633087 -0.003510451 0.008303715 -0.033579905
000020 50 44 5d 3c 7d f2 79 bb 1c a1 3f 3c cb ee b5 3b
       0.0135050565 -0.003813892 0.011696126 0.005552148
000030 69 cc 18 bc 23 d7 9d 3c b3 32 8e bc 2d 55 ec ba
       -0.009326079 0.019267624 -0.01735816 -0.0018030755
000040 65 d0 33 3c 61 41 2a 3c 1b 86 11 bb 33 01 d1 39
       0.010974978 0.010391564 -0.0022205177 0.0003986448
000050 45 ee 5d bc 37 f6 bf 3b 98 6b 60 bc ab 3e 85 3c
       -0.013545577 0.0058582085 -0.013697527 0.016265234
000060 1f 99 77 bc 3b ef ed 3a 65 6f 88 bc cb fa 0d 3b
       -0.0151121905 0.0018152961 -0.01665468 0.0021664377
000070 ff c8 61 3b c6 e2 02 3c 17 5c a5 3c 31 b5 21 3c
       0.0034452078 0.007988637 0.020185513 0.00986986
000080 13 80 92 bb 4d b5 91 3c d3 ce c4 bb 42 09 ad bc
       -0.004470834 0.017786646 -0.0060061007 -0.021122579
000090 da 03 75 bc 25 26 8e bc 88 90 49 bc 59 5d c1 3b
       -0.014954532 -0.017352173 -0.012302525 0.0059010205
0000a0 d7 fb 3c 3c 27 6a 45 bc 76 d1 96 3b 08 45 c2 3b
       0.011534653 -0.0120492345 0.0046026064 0.0059286393
0000b0 eb 18 12 3c 2f d3 be 3a 7b 3b 58 3c 40 f7 ed 3b
       0.008917074 0.0014558787 0.013197775 0.0072621405
0000c0 23 43 9b bb 79 9a 09 ba 6f cb d0 bc 15 c1 a1 3c
       -0.004738228 -0.00052491535 -0.02548763 0.019745389
0000d0 d3 d1 a2 bb 77 ff 4a 3c 21 99 2b bb 6f bf 70 bb
       -0.0049688607 0.012390009 -0.0026183801 -0.0036735197
0000e0 1d ab cc bb 57 2f d5 bc 0c bb 89 3a b3 f6 7e 3b
       -0.006245984 -0.02602355 0.0010508015 0.0038904368
0000f0 2e 6b 3e bc bf 23 51 3c c2 a7 6c bc 5f 86 8b 3b
       -0.011622233 0.01276487 -0.014444293 0.0042579616
000100 6f e0 f4 bb db 2b b6 3c a1 e1 44 3c 97 83 29 3c
       -0.0074730436 0.022237709 0.012016685 0.010346315
000110 6f bc 9b bc 37 0b ba bc 4f 0c b8 bc f2 5e 9b 3c
       -0.01901075 -0.022710426 -0.022466807 0.018966172
000120 b8 e4 cf 3a 53 fa 4c bc f2 22 d3 b9 bf 64 7a 3b
       0.001586101 -0.012510854 -0.00040271092 0.0038207022
000130 49 15 83 ba e5 29 6e 3c 15 a5 85 3c 6c 89 1e 3d
       -0.001000085 0.014536356 0.016314069 0.038705274
000140 a3 fb b5 3b 39 14 c7 bb d7 e0 0c bc 90 0e e7 3b
       0.005553679 -0.006075409 -0.008598528 0.0070512965
000150 0a e7 b4 bb ae f6 10 bc e3 d9 2a bb 71 3e 30 3c
       -0.005520706 -0.0088478755 -0.0026069812 0.010757075
000160 9f c9 be 3b c4 40 46 3c 9b 05 5f 3c ba 9b 3f bb
       0.005822375 0.012100402 0.013612176 -0.0029237107
000170 e4 d7 91 bb 63 c7 bb bc 1d 6e 6e 3c 4f 1a a6 b9
       -0.004450785 -0.022922223 0.01455262 -0.0003168159
000180 ff 2d 01 bc 9b e5 38 bb 76 7e 12 bc 97 f2 a6 39
       -0.0078845015 -0.0028213027 -0.008941283 0.0003184273
000190 15 0b 0f bc 39 a3 96 bc f7 b0 22 bc 27 92 62 bb
       -0.0087306695 -0.018388378 -0.009929887 -0.0034571977
0001a0 67 f4 0e 3c 8b f8 62 bc 5f f1 28 bb 5b f8 14 bc
       0.008725262 -0.013853203 -0.0025778634 -0.009092416
0001b0 7d 8c ea 3c fd fa 86 bc c2 78 6e 3c 33 a4 cd 3b
       0.028631443 -0.016477102 0.014555158 0.0062756776
0001c0 40 32 21 bb 61 ac 1e 3c 90 fb 89 3b f2 82 85 3c
       -0.0024596602 0.009684653 0.004210897 0.016297791
0001d0 6a a0 7c bb df d6 e4 3b 48 dc 30 bb a8 5c d0 3b
       -0.0038547763 0.0069836224 -0.0026986767 0.0063587017
0001e0 45 58 f1 bb 47 53 ec 3a 3d aa 6b bb 02 08 bd bc
       -0.007365259 0.001803019 -0.0035959624 -0.023075107
0001f0 b5 7b a1 3c cb 8b 86 3c f0 be a3 3c b7 31 c7 bb
       0.019712308 0.01642408 0.019988507 -0.0060789245
000200 65 ba e5 bb e7 87 75 bc 07 94 94 bc 0f 4f 86 bb
       -0.0070107454 -0.014986015 -0.018136991 -0.00409878
000210 ff f8 37 3c bd 06 c2 bc 31 6d 3d 3c 53 80 49 bc
       0.011228799 -0.023684854 0.011561678 -0.012298661
000220 4f c1 a8 b9 50 a8 04 bc aa 14 8c bc fa ca 05 bb
       -0.00032187483 -0.008096769 -0.017099697 -0.0020415173
000230 67 78 8d bc 0b 20 20 3c 17 4c 3a bc 03 8a 93 3c
       -0.017269326 0.009773265 -0.01137068 0.018010145
000240 2f d3 7a bc 45 56 43 3c 37 fc 9f bb 4d fd 56 bc
       -0.015309139 0.011922424 -0.0048823613 -0.013121915
000250 b3 5d 1f 3b 48 e9 e1 bb 4b 5c a4 3b 98 a5 f4 bb
       0.0024317324 -0.0068942644 0.005015885 -0.0074660294
000260 4c b0 af bb 0b 88 1d bc 75 53 78 bb 83 4a ce bb
       -0.0053615924 -0.009614955 -0.003789154 -0.0062955036
000270 fe 89 b6 3c d7 1e c9 3c ed 6f 4a 3c a4 12 bb 3c
       0.022282597 0.024550838 0.012355787 0.022836037
000280 5f 5b e8 3c 88 83 75 3b bf 79 87 bc 9a 76 87 ba
       0.028363882 0.0037462432 -0.016537545 -0.0010335029
000290 df 91 03 3c 72 90 97 bb 1c d1 91 bc df 61 13 3c
       0.008030384 -0.0046253735 -0.017799906 0.008995502
0002a0 71 b3 ab bc 8b 80 63 bb 64 ab 42 3c 73 cf 03 3c
       -0.020959588 -0.0034714069 0.011881683 0.008045065
0002b0 9a c5 77 3c b8 65 85 3b 7f 07 79 bb 43 57 d3 3b
       0.0151227955 0.0040709637 -0.0037998853 0.0064496114
0002c0 d6 92 11 bd 6b c7 00 bb 4a 56 b6 3a 35 c8 ca bb
       -0.035540424 -0.0019650112 0.0013911214 -0.0061884173
0002d0 0a a0 fc bb 88 2e 52 3c c7 6a ce bc b8 12 6d bc
       -0.007709508 0.012828477 -0.0251974 -0.014469795
0002e0 b8 de 8c bc 50 00 7b bc 40 f8 20 bc 97 68 09 3d
       -0.017196044 -0.015319899 -0.009824812 0.03354701
0002f0 6f ce 11 3a f2 9e 8b 3b 34 74 2e 3c 1b c1 04 bd
       0.0005562072 0.004260891 0.010647822 -0.032410722
000300 b9 91 3f bc 42 c8 27 bc 99 e1 31 bc bd 94 66 bc
       -0.011692458 -0.010240616 -0.010857009 -0.014073548
000310 73 88 d9 bb 92 f9 9c bc 3b c0 62 bc 57 6d b6 bb
       -0.0066385805 -0.019161973 -0.013839777 -0.0055672335
000320 df ac db 3c 2d be 5c 3c fb 56 6b bc 48 84 73 3b
       0.02681583 0.013473076 -0.0143639995 0.0037157703
000330 1f bb 62 bc d5 2b 41 bc f5 dc 64 bc 2f 49 50 3c
       -0.013838558 -0.0117902355 -0.013968696 0.012712761
000340 6f b3 a4 3c ef 08 87 bb 07 b1 16 ba 52 fd d7 3b
       0.020105092 -0.004120938 -0.0005748425 0.0065914774
000350 d6 c1 82 bc ae 13 8f 3c ea 8a c8 3c c9 44 a1 3b
       -0.015961569 0.017465439 0.024480302 0.00492153
000360 5d 20 61 bb 75 30 a0 3b d7 33 73 3c db bf 3c 3c
       -0.0034351565 0.004888589 0.014843903 0.011520351
000370 39 97 07 bb 50 4d f8 3a 27 c5 bb bb 32 f8 21 ba
       -0.00206895 0.0018943939 -0.0057302895 -0.00061786466
000380 78 81 86 3c b0 12 ac ba 2d 94 80 bb 4f f1 80 3b
       0.016419157 -0.0013128128 -0.003923914 0.003935016
000390 c2 b3 e2 ba 2f b9 d8 3b 05 26 43 3c e3 88 cd bb
       -0.0017296004 0.0066138725 0.01191092 -0.0062724217
0003a0 49 92 a1 3c 50 36 da bc 70 7a fb 3b 37 4f d0 bc
       0.019723075 -0.026637226 0.007674508 -0.025428398
0003b0 5d fb 3a bc 37 24 56 3c fe 5d 3d 39 e4 16 4b bb
       -0.011412469 0.013070158 0.0001805946 -0.0030988986
0003c0 73 07 a9 3b a7 b3 bd bc b4 2d b9 3b 9c 97 87 3a
       0.0051583587 -0.023156954 0.0056512 0.0010344866
0003d0 5f 28 2e 3b 02 41 61 3b 9f a8 93 bc a2 32 6f 3c
       0.0026574356 0.0034371023 -0.01802474 0.014599474
0003e0 fb 53 28 3c 85 eb 85 3b 13 c0 a5 bb f7 c2 67 bc
       0.010273929 0.004086914 -0.0050582974 -0.014145604
0003f0 6f 8c 31 39 42 c2 90 bb db 2c 41 3a 81 98 82 3c
       0.00016932351 -0.0044176886 0.00073690497 0.01594186

action_model._continuous_distribution.mu.bias f4 [12]
000000 00 00 00 00 00 00 00 00 00 00 00 00 00 00 00 00
       0.0 0.0 0.0 0.0
000010 00 00 00 00 00 00 00 00 00 00 00 00 00 00 00 00
       0.0 0.0 0.0 0.0
000020 00 00 00 00 00 00 00 00 00 00 00 00 00 00 00 00
       0.0 0.0 0.0 0.0

onnx::Div_51 f4 [74]
000000 00 00 80 3f 00 00 80 3f 00 00 80 3f 00 00 80 3f
       1.0 1.0 1.0 1.0
000010 00 00 80 3f 00 00 80 3f 00 00 80 3f 00 00 80 3f
       1.0 1.0 1.0 1.0
000020 00 00 80 3f 00 00 80 3f 00 00 80 3f 00 00 80 3f
       1.0 1.0 1.0 1.0
000030 00 00 80 3f 00 00 80 3f 00 00 80 3f 00 00 80 3f
       1.0 1.0 1.0 1.0
000040 00 00 80 3f 00 00 80 3f 00 00 80 3f 00 00 80 3f
       1.0 1.0 1.0 1.0
000050 00 00 80 3f 00 00 80 3f 00 00 80 3f 00 00 80 3f
       1.0 1.0 1.0 1.0
000060 00 00 80 3f 00 00 80 3f 00 00 80 3f 00 00 80 3f
       1.0 1.0 1.0 1.0
000070 00 00 80 3f 00 00 80 3f 00 00 80 3f 00 00 80 3f
       1.0 1.0 1.0 1.0
000080 00 00 80 3f 00 00 80 3f 00 00 80 3f 00 00 80 3f
       1.0 1.0 1.0 1.0
000090 00 00 80 3f 00 00 80 3f 00 00 80 3f 00 00 80 3f
       1.0 1.0 1.0 1.0
0000a0 00 00 80 3f 00 00 80 3f 00 00 80 3f 00 00 80 3f
       1.0 1.0 1.0 1.0
0000b0 00 00 80 3f 00 00 80 3f 00 00 80 3f 00 00 80 3f
       1.0 1.0 1.0 1.0
0000c0 00 00 80 3f 00 00 80 3f 00 00 80 3f 00 00 80 3f
       1.0 1.0 1.0 1.0
0000d0 00 00 80 3f 00 00 80 3f 00 00 80 3f 00 00 80 3f
       1.0 1.0 1.0 1.0
0000e0 00 00 80 3f 00 00 80 3f 00 00 80 3f 00 00 80 3f
       1.0 1.0 1.0 1.0
0000f0 00 00 80 3f 00 00 80 3f 00 00 80 3f 00 00 80 3f
       1.0 1.0 1.0 1.0
000100 00 00 80 3f 00 00 80 3f 00 00 80 3f 00 00 80 3f
       1.0 1.0 1.0 1.0
000110 00 00 80 3f 00 00 80 3f 00 00 80 3f 00 00 80 3f
       1.0 1.0 1.0 1.0
000120 00 00 80 3f 00 00 80 3f
       1.0 1.0
