results/packaging_fix_test_03/RobotAgent.onnx (onnx, 357277 bytes, 8 tensors)

network_body.observation_encoder.processors.0.normalizer.running_mean f4 [74]
0.0 0.0 0.0 0.0 0.0 0.0 0.0 0.0
0.0 0.0 0.0 0.0 0.0 0.0 0.0 0.0
0.0 0.0 0.0 0.0 0.0 0.0 0.0 0.0
0.0 0.0 0.0 0.0 0.0 0.0 0.0 0.0
0.0 0.0 0.0 0.0 0.0 0.0 0.0 0.0
0.0 0.0 0.0 0.0 0.0 0.0 0.0 0.0
0.0 0.0 0.0 0.0 0.0 0.0 0.0 0.0
0.0 0.0 0.0 0.0 0.0 0.0 0.0 0.0
0.0 0.0 0.0 0.0 0.0 0.0 0.0 0.0
0.0 0.0
00000000: 0000 0000 0000 0000 0000 0000 0000 0000
00000010: 0000 0000 0000 0000 0000 0000 0000 0000
00000020: 0000 0000 0000 0000 0000 0000 0000 0000
00000030: 0000 0000 0000 0000 0000 0000 0000 0000
00000040: 0000 0000 0000 0000 0000 0000 0000 0000
00000050: 0000 0000 0000 0000 0000 0000 0000 0000
00000060: 0000 0000 0000 0000 0000 0000 0000 0000
00000070: 0000 0000 0000 0000 0000 0000 0000 0000
00000080: 0000 0000 0000 0000 0000 0000 0000 0000
00000090: 0000 0000 0000 0000 0000 0000 0000 0000
000000a0: 0000 0000 0000 0000 0000 0000 0000 0000
000000b0: 0000 0000 0000 0000 0000 0000 0000 0000
000000c0: 0000 0000 0000 0000 0000 0000 0000 0000
000000d0: 0000 0000 0000 0000 0000 0000 0000 0000
000000e0: 0000 0000 0000 0000 0000 0000 0000 0000
000000f0: 0000 0000 0000 0000 0000 0000 0000 0000
00000100: 0000 0000 0000 0000 0000 0000 0000 0000
00000110: 0000 0000 0000 0000 0000 0000 0000 0000
00000120: 0000 0000 0000 0000

network_body._body_endoder.seq_layers.0.weight f4 [256, 74]
-0.05551327 0.02075155 -0.043055672 0.13281836 0.031327248 -0.084248826 -0.08913412 0.2748303
-0.15724775 -0.16113064 0.020351458 -0.08472234 -0.13808069 -0.16324757 0.084391944 0.011694374
-0.021092834 -0.051457997 0.027357033 -0.17611916 0.06279305 0.0069728126 0.12086763 0.01847337
-0.052308626 -0.10407096 -0.2034399 -0.020614754 -0.24777955 -0.07148387 0.027284477 -0.025483796
-0.038541637 -0.048028685 -0.011557569 0.03188194 -0.024256948 0.06686325 0.17108628 -0.08186014
0.010141273 0.14745408 -0.032868307 -0.037669156 -0.048999187 -0.18268475 0.025419276 -0.03349257
-0.041104022 0.078035295 -0.036016546 -0.14950283 -0.017853487 0.019816542 0.064178996 0.10646744
-0.040946152 -0.15247141 0.02185258 0.13783512 -0.020029347 -0.18038677 0.15587044 0.013568482
0.053497728 0.20070057 -0.077702634 -0.16589218 -0.12057456 0.20515606 -0.08047115 -0.13064672
0.21923406 0.09899713 -0.03278213 -0.00897021 0.056537334 -0.03848665 0.24144015 0.1349742
0.107609116 -0.049259324 -0.02210232 -0.08289237 0.096176855 0.017786711 -0.07020811 -0.08553279
0.09395045 0.057372343 -0.21189901 0.038920116 -0.11650872 -0.11945668 -0.28577045 -0.13638361
-0.11322165 0.03363714 -0.0072746365 0.17824388 -0.07255842 -0.12721992 0.0569243 0.007047913
-0.095455244 0.021874467 0.04194933 -0.114928484 -0.032838084 0.02190016 -0.2794624 0.043325894
-0.15856688 -0.17890675 -0.026396222 -0.0028593568 -0.08682595 -0.03913929 -0.04492473 -0.024930548
0.025084259 0.08165396 -0.1145627 0.006443622 0.108939976 0.021073671 -0.11447172 0.06478376
-0.21791844 0.009886131 -0.02306245 0.14180337 0.03249903 0.12518127 0.22866182 0.073314376
0.025292708 0.11141631 0.017014302 -0.1177374 -0.043779306 0.0583322 0.039523996 0.18546052
0.14086789 0.089136034 0.088081196 -0.114493825 0.030623576 -0.092596725 0.15921465 -0.1435038
-0.08533824 0.12646767 -0.031385526 0.022835914 -0.004854376 -0.23096007 -0.017042313 -0.2705811
0.12481059 0.17464465 0.055036217 -0.11848832 0.1066544 0.08011268 0.09343848 -0.08361545
-0.09893639 0.1367559 -0.014250741 -0.1703264 0.13090432 0.020578597 -0.09020365 0.10663216
0.22324105 -0.21938205 -0.07370472 0.02787976 0.014347343 -0.15400141 -0.1596673 -0.12137742
0.16264158 0.18891068 -0.14680801 0.12134002 -0.17684688 -0.12864706 0.040451348 -0.17983408
-0.007543536 0.12605499 -0.0460463 0.022907175 -0.050382987 -0.08400993 0.002022832 -0.041554864
0.0064583174 0.05795871 -0.1964715 0.10422739 -0.107483916 0.009340078 0.17204869 0.13797516
0.025974821 0.07572739 0.14923142 0.25095367 0.030509222 0.016700972 -0.054675758 -0.12097312
-0.05061078 -0.16875035 0.03159559 0.014641806 0.1577986 0.06715387 -0.19819665 -0.15081042
-0.07271127 -0.015881471 -0.047362376 -0.014311593 -0.32383645 0.18396267 0.074701354 -0.18822607
0.030430702 0.1783955 0.023441298 -0.03475293 -0.3573689 -0.064116746 -0.07907382 -0.16061963
-0.12805969 0.029840957 -0.089349784 0.15581052 -0.030617133 -0.1176061 -0.105167136 0.10462052
0.011606116 0.14936066 -0.023051038 -0.10158604 -0.0018628025 0.09287947 -0.14511909 0.072135165
00000000: e261 63bd 28ff a93c 255b 30bd 8901 083e
00000010: 0051 003d a68a acbd f38b b6bd 8fb6 8c3e
00000020: 8e05 21be 6eff 24be 1ab8 a63c e882 adbd
00000030: 0665 0dbe 5f2a 27be afd5 ac3d c299 3f3c
00000040: e1ca acbc 9fc5 52bd db1b e03c 9558 34be
00000050: a599 803d 317c e43b 7389 f73d 7755 973c
00000060: 9241 56bd 2823 d5bd 8d52 50be 46e0 a8bc
00000070: ecb9 7dbe 2366 92bd b283 df3c 65c3 d0bc
00000080: d6dd 1dbd bab9 44bd f55b 3dbc a396 023d
00000090: 82b6 c6bc 9aef 883d 3e31 2f3e 4aa6 a7bd
000000a0: 9527 263c 34fe 163e eba0 06bd f94a 1abd
000000b0: 5fb3 48bd b611 3bbe 163c d03c 812f 09bd
000000c0: b15c 28bd f8d0 9f3d 1686 13bd 4517 19be
000000d0: 7a41 92bc 4d56 a23c 4770 833d 9a0b da3d
000000e0: 27b7 27bd 7721 1cbe 2f04 b33c a624 0d3e
000000f0: 9614 a4bc 4fb7 38be 809c 1f3e 574e 5e3c
00000100: 6f20 5b3d 7384 4d3e 8f22 9fbd a4df 29be
00000110: cbef f6bd 6e14 523e 0fce a4bd 41c8 05be
00000120: e57e 603e 02bf ca3d 8e46 06bd caf7 12bc
00000130: b193 673d 2da4 1dbd 163c 773e ad36 0a3e
00000140: 2b62 dc3d 25c4 49bd ed0f b5bc 7ac3 a9bd
00000150: 5ff8 c43d 70b5 913c 45c9 8fbd d12b afbd
00000160: 1869 c03d 43ff 6a3d 0efc 58be b36a 1f3d
00000170: 209c eebd b4a5 f4bd 8150 92be 25a8 0bbe
00000180: c1e0 e7bd 19c7 093d 1360 eebb 9085 363e
00000190: 8299 94bd f045 02be 7429 693d 2ef2 e63b
000001a0: 0a7e c3bd 1532 b33c 10d3 2b3d a05f ebbd
000001b0: 3a81 06bd f767 b33c b215 8fbe 7e76 313d
000001c0: 5b5f 22be 5533 37be e43c d8bc 0c64 3bbb
000001d0: ced1 b1bd 8550 20bd fe02 38bd 263b ccbc
000001e0: 817d cd3c 313a a73d d99f eabd 0525 d33b
000001f0: ec1b df3d b1a2 ac3c 2670 eabd 59ad 843d
00000200: 0326 5fbe 70f9 213c 77ed bcbc e734 113e
00000210: b41d 053d 852f 003e 5326 6a3e d925 963d
00000220: a732 cf3c 3c2e e43d 9461 8b3c 4e20 f1bd
00000230: ee51 33bd bfed 6e3d eae3 213d 5de9 3d3e
00000240: ac3f 103e f48c b63d ea63 b43d bd7b eabd
00000250: 4bde fa3c 5aa3 bdbd 2a09 233e a9f2 12be
00000260: d1c5 aebd be80 013e 1c8e 00bd 6212 bb3c
00000270: 7511 9fbb cc80 6cbe 529c 8bbc 9b89 8abe
00000280: b29c ff3d 0cd6 323e a86d 613d 01aa f2bd
00000290: 9f6d da3d 1e12 a43d ac5c bf3d 943e abbd
000002a0: 299f cabd bd09 0c3e f17b 69bc 0b6a 2ebe
000002b0: c80b 063e 7294 a83c b1bc b8bd f661 da3d
000002c0: 4d99 643e b0a5 60be 80f2 96bd 1864 e43c
000002d0: 1e11 6b3c 8cb2 1dbe d37f 23be ba94 f8bd
000002e0: 848b 263e cd71 413e d754 16be 1e81 f83d
000002f0: 5917 35be 0ebc 03be 50b0 253d 6d26 38be
00000300: c42f f7bb 8f14 013e 0c9b 3cbd d4a7 bb3c
00000310: 645e 4ebd 660d acbd 7d91 043b 6f35 2abd
00000320: 4ba0 d33b 1d66 6d3d d32f 49be 2b75 d53d
00000330: 8720 dcbd 2007 193c 882d 303e 5c49 0d3e
00000340: 26c9 d43c f616 9b3d 1fd0 183e 007d 803e
00000350: 7aee f93c 7ad0 883c b0f3 5fbd c1c0 f7bd
00000360: 404d 4fbd e4cc 2cbe 616a 013d 2fe4 6f3c
00000370: f595 213e f887 893d 10f4 4abe 0c6e 1abe
00000380: a5e9 94bd dc19 82bc 0dff 41bd 2c7b 6abc
00000390: e4cd a5be b660 3c3e 06fd 983d 56be 40be
000003a0: cf49 f93c 4fad 363e f707 c03c 1759 0ebd
000003b0: 0ef9 b6be a44f 83bd 74f1 a1bd 7979 24be
000003c0: 1422 03be 0675 f43c 05fd b6bd cb8c 1f3e
000003d0: c8d0 fabc 78db f0bd de61 d7bd 4843 d63d
000003e0: 9427 3e3c 00f2 183e 88d5 bcbc 570c d0bd
000003f0: 4829 f4ba 9737 be3d 199a 14be 9abb 933d

network_body._body_endoder.seq_layers.0.bias f4 [256]
0.0 0.0 0.0 0.0 0.0 0.0 0.0 0.0
0.0 0.0 0.0 0.0 0.0 0.0 0.0 0.0
0.0 0.0 0.0 0.0 0.0 0.0 0.0 0.0
0.0 0.0 0.0 0.0 0.0 0.0 0.0 0.0
0.0 0.0 0.0 0.0 0.0 0.0 0.0 0.0
0.0 0.0 0.0 0.0 0.0 0.0 0.0 0.0
0.0 0.0 0.0 0.0 0.0 0.0 0.0 0.0
0.0 0.0 0.0 0.0 0.0 0.0 0.0 0.0
0.0 0.0 0.0 0.0 0.0 0.0 0.0 0.0
0.0 0.0 0.0 0.0 0.0 0.0 0.0 0.0
0.0 0.0 0.0 0.0 0.0 0.0 0.0 0.0
0.0 0.0 0.0 0.0 0.0 0.0 0.0 0.0
0.0 0.0 0.0 0.0 0.0 0.0 0.0 0.0
0.0 0.0 0.0 0.0 0.0 0.0 0.0 0.0
0.0 0.0 0.0 0.0 0.0 0.0 0.0 0.0
0.0 0.0 0.0 0.0 0.0 0.0 0.0 0.0
0.0 0.0 0.0 0.0 0.0 0.0 0.0 0.0
0.0 0.0 0.0 0.0 0.0 0.0 0.0 0.0
0.0 0.0 0.0 0.0 0.0 0.0 0.0 0.0
0.0 0.0 0.0 0.0 0.0 0.0 0.0 0.0
0.0 0.0 0.0 0.0 0.0 0.0 0.0 0.0
0.0 0.0 0.0 0.0 0.0 0.0 0.0 0.0
0.0 0.0 0.0 0.0 0.0 0.0 0.0 0.0
0.0 0.0 0.0 0.0 0.0 0.0 0.0 0.0
0.0 0.0 0.0 0.0 0.0 0.0 0.0 0.0
0.0 0.0 0.0 0.0 0.0 0.0 0.0 0.0
0.0 0.0 0.0 0.0 0.0 0.0 0.0 0.0
0.0 0.0 0.0 0.0 0.0 0.0 0.0 0.0
0.0 0.0 0.0 0.0 0.0 0.0 0.0 0.0
0.0 0.0 0.0 0.0 0.0 0.0 0.0 0.0
0.0 0.0 0.0 0.0 0.0 0.0 0.0 0.0
0.0 0.0 0.0 0.0 0.0 0.0 0.0 0.0
00000000: 0000 0000 0000 0000 0000 0000 0000 0000
00000010: 0000 0000 0000 0000 0000 0000 0000 0000
00000020: 0000 0000 0000 0000 0000 0000 0000 0000
00000030: 0000 0000 0000 0000 0000 0000 0000 0000
00000040: 0000 0000 0000 0000 0000 0000 0000 0000
00000050: 0000 0000 0000 0000 0000 0000 0000 0000
00000060: 0000 0000 0000 0000 0000 0000 0000 0000
00000070: 0000 0000 0000 0000 0000 0000 0000 0000
00000080: 0000 0000 0000 0000 0000 0000 0000 0000
00000090: 0000 0000 0000 0000 0000 0000 0000 0000
000000a0: 0000 0000 0000 0000 0000 0000 0000 0000
000000b0: 0000 0000 0000 0000 0000 0000 0000 0000
000000c0: 0000 0000 0000 0000 0000 0000 0000 0000
000000d0: 0000 0000 0000 0000 0000 0000 0000 0000
000000e0: 0000 0000 0000 0000 0000 0000 0000 0000
000000f0: 0000 0000 0000 0000 0000 0000 0000 0000
00000100: 0000 0000 0000 0000 0000 0000 0000 0000
00000110: 0000 0000 0000 0000 0000 0000 0000 0000
00000120: 0000 0000 0000 0000 0000 0000 0000 0000
00000130: 0000 0000 0000 0000 0000 0000 0000 0000
00000140: 0000 0000 0000 0000 0000 0000 0000 0000
00000150: 0000 0000 0000 0000 0000 0000 0000 0000
00000160: 0000 0000 0000 0000 0000 0000 0000 0000
00000170: 0000 0000 0000 0000 0000 0000 0000 0000
00000180: 0000 0000 0000 0000 0000 0000 0000 0000
00000190: 0000 0000 0000 0000 0000 0000 0000 0000
000001a0: 0000 0000 0000 0000 0000 0000 0000 0000
000001b0: 0000 0000 0000 0000 0000 0000 0000 0000
000001c0: 0000 0000 0000 0000 0000 0000 0000 0000
000001d0: 0000 0000 0000 0000 0000 0000 0000 0000
000001e0: 0000 0000 0000 0000 0000 0000 0000 0000
000001f0: 0000 0000 0000 0000 0000 0000 0000 0000
00000200: 0000 0000 0000 0000 0000 0000 0000 0000
00000210: 0000 0000 0000 0000 0000 0000 0000 0000
00000220: 0000 0000 0000 0000 0000 0000 0000 0000
00000230: 0000 0000 0000 0000 0000 0000 0000 0000
00000240: 0000 0000 0000 0000 0000 0000 0000 0000
00000250: 0000 0000 0000 0000 0000 0000 0000 0000
00000260: 0000 0000 0000 0000 0000 0000 0000 0000
00000270: 0000 0000 0000 0000 0000 0000 0000 0000
00000280: 0000 0000 0000 0000 0000 0000 0000 0000
00000290: 0000 0000 0000 0000 0000 0000 0000 0000
000002a0: 0000 0000 0000 0000 0000 0000 0000 0000
000002b0: 0000 0000 0000 0000 0000 0000 0000 0000
000002c0: 0000 0000 0000 0000 0000 0000 0000 0000
000002d0: 0000 0000 0000 0000 0000 0000 0000 0000
000002e0: 0000 0000 0000 0000 0000 0000 0000 0000
000002f0: 0000 0000 0000 0000 0000 0000 0000 0000
00000300: 0000 0000 0000 0000 0000 0000 0000 0000
00000310: 0000 0000 0000 0000 0000 0000 0000 0000
00000320: 0000 0000 0000 0000 0000 0000 0000 0000
00000330: 0000 0000 0000 0000 0000 0000 0000 0000
00000340: 0000 0000 0000 0000 0000 0000 0000 0000
00000350: 0000 0000 0000 0000 0000 0000 0000 0000
00000360: 0000 0000 0000 0000 0000 0000 0000 0000
00000370: 0000 0000 0000 0000 0000 0000 0000 0000
00000380: 0000 0000 0000 0000 0000 0000 0000 0000
00000390: 0000 0000 0000 0000 0000 0000 0000 0000
000003a0: 0000 0000 0000 0000 0000 0000 0000 0000
000003b0: 0000 0000 0000 0000 0000 0000 0000 0000
000003c0: 0000 0000 0000 0000 0000 0000 0000 0000
000003d0: 0000 0000 0000 0000 0000 0000 0000 0000
000003e0: 0000 0000 0000 0000 0000 0000 0000 0000
000003f0: 0000 0000 0000 0000 0000 0000 0000 0000

network_body._body_endoder.seq_layers.2.weight f4 [256, 256]
0.0055552996 -0.038851365 0.051084496 0.0949978 0.08682632 -0.1321209 -0.012024235 0.018026475
-0.050632164 -0.016323946 -0.109768614 0.01914779 -0.10926154 0.007744939 -0.09697117 0.0659109
0.034301892 0.041378185 0.12541942 0.093467645 -0.018413667 0.010816258 0.04131512 0.027164277
0.07090057 -0.04132052 -0.02361351 -0.006711469 0.040669717 0.06481683 -0.04721071 -0.08076446
0.009489733 0.025327243 -0.08501127 -0.14682886 -0.031314082 -0.108692504 -0.12302094 -0.07084744
0.013789544 0.06388757 -0.03806678 -0.060056683 0.08338269 -0.0053024166 -0.15784292 -0.042642463
-0.099837124 -0.086127646 -0.007361654 0.057054378 0.01814426 0.030377256 0.098424196 0.0558742
0.04396296 -0.026387151 0.024704406 -0.09047244 0.0007302606 -0.0053506834 -0.037919354 -0.009220029
0.101448685 0.08335972 0.034203276 -0.009688743 0.0077104783 -0.08243849 -0.012931639 -0.035965104
0.04943292 -0.059466045 0.027725624 -0.108644634 0.042448632 -0.05361165 0.093956135 -0.038941648
-0.030314963 0.05826419 -0.0068987063 -0.13494153 -0.04249134 0.05026554 0.023128483 -0.0027733226
-0.08816939 0.17508464 0.01071225 0.043332078 -0.10232115 0.012804977 0.023709072 0.085245855
0.08488302 -0.07400882 0.028990408 -0.07322604 0.050259672 -0.008795997 0.09163896 -0.021035425
0.03357961 -0.006930252 -0.049143262 -0.03990487 -0.015738472 -0.067660645 0.12162468 -0.05231193
-0.007928876 -0.016224071 0.013300179 -0.0060807546 0.079961956 -0.11293521 -0.05793878 0.066326246
0.17806198 -0.035550416 0.020103872 -0.033859584 -0.04119363 -0.056227498 0.048746854 -0.027144898
-0.07719733 0.15738168 0.04380987 -0.03641463 0.09831329 -0.02138237 0.03571657 0.017635018
-0.058894347 -0.019502418 0.16201976 0.07661038 0.042147115 0.04237825 -0.012805174 -0.0005515766
-0.026025698 -0.012957426 -0.05796951 -0.041677557 -0.04711275 0.14954123 -0.11373297 0.056931924
-0.048470244 0.03723099 0.0742527 0.0029496218 0.036526885 0.010269811 -0.006886873 -0.02368767
-0.05560966 -0.0757608 0.052209113 -0.09636649 -0.03467906 0.04492118 0.05672683 -0.022244133
-0.15640664 -0.03411306 0.114177726 0.08077141 0.09032104 -0.017723525 -0.11432724 -0.01528388
0.0862102 0.09877047 0.07593342 -0.04605784 0.120415896 -0.061754677 0.028395033 0.08736932
0.049126446 0.011902342 -0.0131870825 0.03975353 0.1066869 0.001649843 -0.042060692 -0.012459988
0.04016255 -0.08035683 -0.0491797 -0.060476385 0.055897504 0.04207091 0.010887853 0.04332302
-0.03103876 0.06553957 -0.06046057 0.0035699245 0.033341095 0.022928417 -0.04430021 0.019423664
-0.028651036 0.05520833 -0.0040231724 -0.006801253 -0.058246095 -0.09154402 -0.046053797 0.0050012227
-0.04853937 0.16168548 -0.04268055 0.0076180724 0.11562884 0.06184855 -0.0052140327 -0.059841942
0.121472366 -0.009063951 -0.01655579 0.013560544 0.022471374 0.02930056 0.11526596 0.0144856805
-0.058861516 0.07207344 -0.023477228 0.0008564874 -0.0075468603 -0.08589247 -0.08654537 0.01084235
-0.00033298065 0.03797569 -0.00091761636 -0.081941865 -0.027580556 0.020255996 -0.079304226 0.0509093
-0.10616363 -0.062566504 0.035620287 0.09706943 0.06069531 -0.033843078 -0.011505825 0.04761307
00000000: 3b09 b63b 9c22 1fbd fa3d 513d 358e c23d
00000010: ffd1 b13d b44a 07be 4c01 45bc 42ac 933c
00000020: ac63 4fbd ccb9 85bc 5ece e0bd d3db 9c3c
00000030: 84c4 dfbd 42c9 fd3b d298 c6bd 4bfc 863d
00000040: 2480 0c3d 2c7c 293d f36d 003e f76b bf3d
00000050: 42d8 96bc ad36 313c 0b3a 293d 9e87 de3c
00000060: 5134 913d b53f 29bd 1f71 c1bc e2eb dbbb
00000070: 4a95 263d b0be 843d 0460 41bd d667 a5bd
00000080: d37a 1b3c 147b cf3c 641a aebd 4e5a 16be
00000090: 3243 00bd 2d9a debd 67f2 fbbd 7618 91bd
000000a0: 8aed 613c 7cd7 823d e9eb 1bbd fffd 75bd
000000b0: 8bc4 aa3d e5bf adbb 93a1 21be dda9 2ebd
000000c0: 6877 ccbd b163 b0bd 083a f1bb dab1 693d
000000d0: 45a3 943c b9d9 f83c a092 c93d 58dc 643d
000000e0: 8112 343d de29 d8bc e560 ca3c 9d49 b9bd
000000f0: f66e 3f3a c954 afbb 5351 1bbd 9b0f 17bc
00000100: 54c4 cf3d 80b8 aa3d bc18 0c3d 89bd 1ebc
00000110: 2ea8 fc3b 83d5 a8bd 3adf 53bc 2550 13bd
00000120: 2c7a 4a3d ab92 73bd d920 e33c 1481 debd
00000130: 9ede 2d3d e497 5bbd 136c c03d 4781 1fbd
00000140: 1657 f8bc 6ea6 6e3d 8b0e e2bb 1d2e 0abe
00000150: 660b 2ebd 3de3 4d3d f277 bd3c a2c0 35bb
00000160: 2792 b4bd 6349 333e 6f82 2f3c fa7c 313d
00000170: c08d d1bd f7cb 513c 8739 c23c 6195 ae3d
00000180: 26d7 ad3d f091 97bd 4b7d ed3c 89f7 95bd
00000190: 16dd 4d3d 161d 10bc 35ad bb3d 7c52 acbc
000001a0: c68a 093d 2b17 e3bb 724a 49bd 4a73 23bd
000001b0: f8ed 80bc aa91 8abd 5c16 f93d 0945 56bd
000001c0: 1ee8 01bc 58e8 84bc fee8 593c 1141 c7bb
000001d0: 18c3 a33d 934a e7bd 3751 6dbd 0ed6 873d
000001e0: e155 363e 509d 11bd e0b0 a43c 59b0 0abd
000001f0: a7ba 28bd ce4e 66bd c8aa 473d fa5e debc
00000200: a219 9ebd aa28 213e fa71 333d 8227 15bd
00000210: 7a58 c93d 142a afbc 8a4b 123d 5077 903c
00000220: 333b 71bd 89c3 9fbc 82e8 253e e7e5 9c3d
00000230: 74a2 2c3d d194 2d3d cbcc 51bc ae97 10ba
00000240: d833 d5bc 624b 54bc 7071 6dbd 16b6 2abd
00000250: 4df9 40bd 5621 193e d5ec e8bd 7331 693d
00000260: bc88 46bd 867f 183d cd11 983d 714e 413b
00000270: 379d 153d b642 283c 47ab e1bb a50c c2bc
00000280: f4c6 63bd 7a28 9bbd 39d9 553d cb5b c5bd
00000290: a10b 0ebd 45ff 373d 645a 683d 5439 b6bc
000002a0: 1029 20be 23ba 0bbd 03d6 e93d 7b6b a53d
000002b0: 3dfa b83d ed30 91bc 6624 eabd 3d69 7abc
000002c0: f98e b03d 2c48 ca3d fb82 9b3d 25a7 3cbd
000002d0: 9c9c f63d 79f2 7cbd b39c e83c b0ee b23d
000002e0: d038 493d 0a02 433c a20e 58bc 99d4 223d
000002f0: a97e da3d 8b3f d83a d547 2cbd fa24 4cbc
00000300: 7c81 243d 1f92 a4bd a770 49bd 16b6 77bd
00000310: c8f4 643d 8c52 2c3d f762 323c 7b73 313d
00000320: ff44 febc 9c39 863d 81a5 77bd 65f5 693b
00000330: ac90 083d 60d4 bb3c 2374 35bd 601e 9f3c
00000340: 94b5 eabc 2122 623d d1d4 83bb 0cdd debb
00000350: 7593 6ebd 6e7b bbbd e8a2 3cbd 4ce1 a33b
00000360: 38d1 46bd e190 253e cdd1 2ebd 06a1 f93b
00000370: d0ce ec3d e854 7d3d 7ada aabb d31c 75bd
00000380: 81c6 f83d f780 14bc 02a0 87bc 0b2d 5e3c
00000390: e315 b83c ba07 f03c 8f10 ec3d 5955 6d3c
000003a0: c618 71bd 3d9b 933d 5153 c0bc e585 603a
000003b0: a74b f7bb 64e8 afbd b33e b1bd 1da4 313c
000003c0: e893 aeb9 668c 1b3d 318c 70ba 23d1 a7bd
000003d0: 9ef0 e1bc e7ef a53c 416a a2bd 4586 503d
000003e0: 516c d9bd de22 80bd 94e6 113d 56cc c63d
000003f0: a59b 783d 0a9f 0abd ee82 3cbc ec05 433d

action_model._continuous_distribution.log_sigma f4 [1, 12]
0.0 0.0 0.0 0.0 0.0 0.0 0.0 0.0
0.0 0.0 0.0 0.0
00000000: 0000 0000 0000 0000 0000 0000 0000 0000
00000010: 0000 0000 0000 0000 0000 0000 0000 0000
00000020: 0000 0000 0000 0000 0000 0000 0000 0000

action_model._continuous_distribution.mu.weight f4 [12, 256]
-0.007263223 0.0019683472 0.009022662 0.012145787 0.009168497 -0.003542338 0.01670686 0.0022355882
0.0034748544 -0.02808928 0.0050136824 0.02910353 -0.005356477 0.00677771 0.0072509944 0.01094754
-0.00032529185 -0.00034227743 0.0070556863 0.0076944563 0.006815029 0.0023629582 0.020837344 -0.0022250684
-0.024895787 -0.012662594 -0.018177299 -0.00029112486 -0.006853727 -0.01329601 -0.02388033 0.0001603483
-0.0029968065 -0.0026265397 0.019174604 -0.0021725064 0.002878051 -0.01412076 -0.0065766247 -0.014223731
-0.017195737 0.0030482372 0.0027842491 -0.012219074 -0.00068312656 0.009295809 0.0025532015 -0.012494805
-0.025683496 -0.0031276185 0.0020732495 0.00071397633 0.006992794 -0.0199034 -0.006373208 -0.019347442
-0.018212676 0.0020160826 -0.004483072 0.0049714395 -0.020569906 -0.00048187972 0.005147381 0.0036861226
-0.015803454 0.01376046 -0.00376123 0.004064988 0.0139131425 0.017589426 -0.0016191353 -0.005678487
-0.0071910745 0.0032917128 0.0044023246 0.012450555 0.0054725814 -0.0051118913 -0.009336417 0.0028281778
0.015445414 0.0005063025 -0.01390583 0.002778013 -0.0018678488 0.022812922 -0.023650998 -0.0035771343
0.015791703 0.014649512 -0.0021709055 -0.006363604 0.00054906297 -0.016152643 0.009340237 0.00011048454
0.00016783226 -0.003188258 -0.020010812 0.008774328 0.0105167385 -0.0011745055 0.015366629 0.016086144
0.009541762 -0.0024151327 -0.009053419 0.0044015227 -0.0048239026 -0.0020769772 -0.026725655 0.009751583
0.011249854 -0.008837787 -0.0008555013 0.018277787 0.01928401 -0.028492067 0.010258551 0.015031181
-0.007020949 -0.0056775776 0.021342998 0.013551213 -0.005957906 -0.011610137 0.0070547755 0.0012928448
-0.0090307025 0.013955663 -0.0038740553 0.015950646 0.008435397 -0.008242221 -0.00043149083 -0.0033084692
0.025652973 -0.004361148 -0.0048023965 -0.0017059783 0.024438938 -0.0017709535 0.005638731 -0.015868962
0.02110451 0.005180066 -0.021150026 0.007315936 -0.0182044 -0.0057765096 -0.0020744728 0.007588158
-0.013905482 0.01679417 -0.008125041 0.017827915 -0.006948434 -0.004356518 0.022318115 0.022728467
0.00519573 -0.023777943 -0.01740986 -0.025532523 -0.012236934 0.0033836493 0.013354941 -0.004190401
0.022641106 0.02421903 -0.001815456 0.0062595382 0.0044087064 0.025372908 0.01788648 0.00082525733
-0.009264556 -0.004686968 0.0010362555 -0.012998811 0.006621115 0.005490476 0.022851244 -0.014419652
0.014781627 -0.0091344 -0.013310499 0.011544495 0.011573205 -0.023073256 0.008132446 -0.014595578
-0.002365323 -0.00028099664 -0.011452959 -0.019718379 0.009286243 0.00497246 0.013172433 -0.009645382
0.0042169015 -0.00034345352 0.016615419 -0.017945275 0.016326673 -0.012148512 -0.0038113557 -0.006474234
-0.0008878653 0.004663968 -0.00595969 -0.0048462506 0.021221397 0.007930385 0.018828971 0.01658881
0.0065883035 -0.0066621355 -0.019521488 -0.023953382 -0.011827672 -0.0049825045 0.003508518 -0.02295049
0.012032739 0.00014465523 -0.012956135 -0.010315771 -0.017131604 -0.0009723363 -0.011275188 -0.013906628
0.011890064 0.011071694 0.013839199 0.011604125 0.013917704 0.0037753729 0.017708926 -0.0033148534
-0.0003616132 -0.0164484 0.01870836 -0.0052595893 -1.4863959e-05 -0.004943574 -0.022219662 -0.013697001
0.0067640156 -0.021295497 -0.0033782215 0.0039437185 -0.0054367604 0.013552691 0.0016293277 -0.00235505
00000000: 5500 eebb 63ff 003b cad3 133c 1fff 463c
00000010: 7737 163c 9226 68bb d3dc 883c f282 123b
00000020: 62ba 633b 7d1b e6bc d149 a43b 876a ee3c
00000030: 6385 afbb 8d17 de3b c099 ed3b 505d 333c
00000040: ef8b aab9 b373 b3b9 6333 e73b c721 fc3b
00000050: 9b50 df3b dcdb 1a3b 14b3 aa3c 74d2 11bb
00000060: 40f2 cbbc c576 4fbc 8fe8 94bc 1ea2 98b9
00000070: 3b95 e0bb 82d7 59bc afa0 c3bc 2b23 2839
00000080: 1266 44bb 0622 2cbb 0f14 9d3c 9c60 0ebb
00000090: af9d 3c3b c35a 67bc ba80 d7bb a70a 69bc
000000a0: 13de 8cbc efc4 473b f377 363b 8332 48bc
000000b0: d913 33ba 734d 183c 9d53 273b 03b7 4cbc
000000c0: 3266 d2bc bbf8 4cbb 5bdf 073b 242a 3b3a
000000d0: cf23 e53b 750c a3bc 58d6 d0bb 877e 9ebc
000000e0: c032 95bc 4120 043b bce6 92bb 75e7 a23b
000000f0: 3882 a8bc cda4 fcb9 5dab a83b e092 713b
00000100: 3f76 81bc 8d73 613c f87e 76bb 9733 853b
00000110: f3f3 633c b317 903c 2a39 d4ba 9a12 babb
00000120: 1ba3 ebbb c7b9 573b 6041 903b 6afd 4b3c
00000130: 5753 b33b a781 a7bb c5f7 18bc f358 393b
00000140: c30e 7d3c 63b9 043a 47d5 63bc 530f 363b
00000150: 9bd2 f4ba 2ae2 ba3c bdbf c1bc 5b6e 6abb
00000160: 9a5d 813c 8204 703c c045 0ebb c885 d0bb
00000170: feee 0f3a 8c52 84bc cb07 193c f0b3 e738
00000180: 21fc 2f39 18f2 50bb b7ed a3bc 33c2 0f3c
00000190: 664e 2c3c ddf1 99ba 50c4 7b3c 17c7 833c
000001a0: 0d55 1c3c 3447 1ebb cb54 14bc a63a 903b
000001b0: d411 9ebb e51d 08bb c3ef dabc 1bc5 1f3c
000001c0: 4f51 383c 5ecc 10bc b843 60ba 4cbb 953c
000001d0: 80f9 9d3c 3268 e9bc 7b13 283c 5845 763c
000001e0: fd0f e6bb f90a babb 83d7 ae3c e805 5e3c
000001f0: 8a3a c3bb 7238 3ebc bf2b e73b ac74 a93a
00000200: 83f5 13bc 4ba6 643c dde3 7dbb eeaa 823c
00000210: 9f34 0a3c 610a 07bc b839 e2b9 e7d2 58bb
00000220: 2f26 d23c f6e7 8ebb 6c5d 9dbb 229b dfba
00000230: 2b34 c83c 571f e8ba 1bc5 b83b a0ff 81bc
00000240: 5ee3 ac3c 8bbd a93b d242 adbc 85ba ef3b
00000250: 6521 95bc e048 bdbb e1f3 07bb 15a6 f83b
00000260: d2d3 63bc ed93 893c e41e 05bc d90b 923c
00000270: b0af e3bb 1fc1 8ebb 7bd4 b63c 0d31 ba3c
00000280: f140 aa3b f6c9 c2bc 1f9f 8ebc 9529 d1bc
00000290: 6c7d 48bc 37c0 5d3b afce 5a3c a24f 89bb
000002a0: d779 b93c fd66 c63c 98f4 edba d01c cd3b
000002b0: e976 903b d8da cf3c ab86 923c 1556 583a
000002c0: 5dca 17bc 2395 99bb f7d2 873a f7f8 54bc
000002d0: f0f5 d83b 73e9 b33b 8832 bb3c 6740 6cbc
000002e0: a32e 723c 73a8 15bc 4714 5abc 1f25 3d3c
000002f0: 8a9d 3d3c 2004 bdbc f33d 053c 4b22 6fbc
00000300: 8903 1bbb bb52 93b9 31a5 3bbc 7088 a1bc
00000310: 5325 183c 05f0 a23b 30d1 573c aa07 1ebc
00000320: ef2d 8a3b 8d11 b4b9 0f1d 883c f801 93bc
00000330: 84bf 853c 8d0a 47bc f0c7 79bb d025 d4bb
00000340: a2bf 68ba 33d4 983b 8149 c3bb 4ccd 9ebb
00000350: 7fd8 ad3c 72ee 013c 373f 9a3c 42e5 873c
00000360: b2e2 d73b 0b4e dabb 87eb 9fbc e239 c4bc
00000370: dac8 41bc 4744 a3bb 2aef 653b aa02 bcbc
00000380: f724 453c 98ae 1739 f845 54bc 7b03 29bc
00000390: 9457 8cbc 62e4 7eba 91bb 38bc a0d8 63bc
000003a0: 8bce 423c 0d66 353c cfbd 623c 3a1f 3e3c
000003b0: 1507 643c 3f6c 773b 4f12 913c 033e 59bb
000003c0: e796 bdb9 ccbe 86bc 4642 993c a258 acbb
000003d0: 3860 79b7 b4fd a1bb 0206 b6bc 6369 60bc
000003e0: ada4 dd3b e573 aebc 2765 5dbb 4f3a 813b
000003f0: da26 b2bb 1b0c 5e3c 2a8f d53a 2f57 1abb

action_model._continuous_distribution.mu.bias f4 [12]
0.0 0.0 0.0 0.0 0.0 0.0 0.0 0.0
0.0 0.0 0.0 0.0
00000000: 0000 0000 0000 0000 0000 0000 0000 0000
00000010: 0000 0000 0000 0000 0000 0000 0000 0000
00000020: 0000 0000 0000 0000 0000 0000 0000 0000

onnx::Div_51 f4 [74]
1.0 1.0 1.0 1.0 1.0 1.0 1.0 1.0
1.0 1.0 1.0 1.0 1.0 1.0 1.0 1.0
1.0 1.0 1.0 1.0 1.0 1.0 1.0 1.0
1.0 1.0 1.0 1.0 1.0 1.0 1.0 1.0
1.0 1.0 1.0 1.0 1.0 1.0 1.0 1.0
1.0 1.0 1.0 1.0 1.0 1.0 1.0 1.0
1.0 1.0 1.0 1.0 1.0 1.0 1.0 1.0
1.0 1.0 1.0 1.0 1.0 1.0 1.0 1.0
1.0 1.0 1.0 1.0 1.0 1.0 1.0 1.0
1.0 1.0
00000000: 0000 803f 0000 803f 0000 803f 0000 803f
00000010: 0000 803f 0000 803f 0000 803f 0000 803f
00000020: 0000 803f 0000 803f 0000 803f 0000 803f
00000030: 0000 803f 0000 803f 0000 803f 0000 803f
00000040: 0000 803f 0000 803f 0000 803f 0000 803f
00000050: 0000 803f 0000 803f 0000 803f 0000 803f
00000060: 0000 803f 0000 803f 0000 803f 0000 803f
00000070: 0000 803f 0000 803f 0000 803f 0000 803f
00000080: 0000 803f 0000 803f 0000 803f 0000 803f
00000090: 0000 803f 0000 803f 0000 803f 0000 803f
000000a0: 0000 803f 0000 803f 0000 803f 0000 803f
000000b0: 0000 803f 0000 803f 0000 803f 0000 803f
000000c0: 0000 803f 0000 803f 0000 803f 0000 803f
000000d0: 0000 803f 0000 803f 0000 803f 0000 803f
000000e0: 0000 803f 0000 803f 0000 803f 0000 803f
000000f0: 0000 803f 0000 803f 0000 803f 0000 803f
00000100: 0000 803f 0000 803f 0000 803f 0000 803f
00000110: 0000 803f 0000 803f 0000 803f 0000 803f
00000120: 0000 803f 0000 803f
