results/packaging_fix_test_19/RobotAgent.onnx (onnx, 357277 bytes, 8 tensors)

network_body.observation_encoder.processors.0.normalizer.running_mean f4 [74]
000000 50 46 b0 bb 5a 0b 18 bc 02 a3 b1 3c c0 f1 ac 3b
       -0.0053794757 -0.00928005 0.021684173 0.0052778423
000010 72 4a a4 3c 9e 24 61 bb aa 1f 73 3f 7f 49 41 41
       0.02005503 -0.00343541 0.9497019 12.080443
000020 70 b1 de 3f e1 b7 75 bf 8e 77 07 3d ac 7f 64 bb
       1.73979 -0.959837 0.033073 -0.0034866137
000030 83 f9 bc 3b a3 c5 7f 3f 53 7a 54 3f 17 c0 ac bc
       0.005767049 0.99910945 0.8299915 -0.02108769
000040 7e 32 52 bf 07 8c 6c bb 51 98 fb 3d c0 8e d0 3b
       -0.82108295 -0.0036094205 0.122849114 0.0063646734
000050 d4 0a a3 3a 28 53 7d 3f a2 b4 55 3f e3 df a0 bd
       0.001243914 0.9895501 0.8347875 -0.07855203
000060 3b c1 2e be f6 28 6a ba 77 94 01 3d 9a 54 db ba
       -0.17065899 -0.0008932495 0.031635728 -0.0016733587
000070 ef 3a 90 3c d0 ba 7f 3f aa b3 54 3f 82 4a a5 bc
       0.017606227 0.9989443 0.83086646 -0.02017713
000080 be b0 27 be 89 94 37 bc 0b 52 f5 3d ee 9e 86 3c
       -0.16376016 -0.011204847 0.11978539 0.016433205
000090 06 ee c1 b9 cd 47 7d 3f e1 ef 55 3f e9 f2 9c bd
       -0.0003698917 0.98937684 0.8356915 -0.07663519
0000a0 8e 51 f5 3e 1c 23 f5 b9 2f 1f a4 3d fe 49 53 ba
       0.47913784 -0.000467562 0.0801376 -0.0008060037
0000b0 6d 33 d5 3b 8e b2 7e 3f 1f 95 55 3f 65 98 51 bd
       0.0065063746 0.994912 0.83430666 -0.051170725
0000c0 7c 28 f6 3e db fa 88 bb 83 0d 74 3e a9 78 fb 3a
       0.48077762 -0.004180295 0.2383328 0.001918574
0000d0 f1 a6 cb 3b 48 15 78 3f 4d 09 56 3f 53 21 1d be
       0.0062149693 0.9690747 0.8360794 -0.15344743
0000e0 98 fe f6 3e 3b 21 95 bb d9 a1 b2 3d 7c 40 87 bb
       0.48241115 -0.0045510805 0.08722276 -0.00412756
0000f0 13 9e 38 3b 58 8a 7e 3f d7 1a 55 3f ac 31 64 bd
       0.0028170391 0.99429846 0.8324408 -0.055711433
000100 e0 06 53 bf c9 7b d0 ba 2b 46 74 3e 70 47 03 3b
       -0.82432365 -0.0015906031 0.23854892 0.0020031594
000110 8a ec e6 3b 50 12 78 3f 40 0f 56 3f f9 41 1d be
       0.0070472406 0.9690294 0.8361702 -0.15357198
000120 9a 07 f7 3e 28 45 a4 bb
       0.48247987 -0.005013127

network_body._body_endoder.seq_layers.0.weight f4 [256, 74]
000000 ad 38 d7 bd 01 ba 84 3d 9b a4 be bc 72 29 94 bd
       -0.10508857 0.0648079 -0.02327185 -0.072344676
000010 74 9f c8 3d b2 b8 74 3b 03 8e 92 bd 2e e3 97 3d
       0.09796038 0.0037341532 -0.07155993 0.07416378
000020 6e 9b 7c 3e 47 60 0b 3e 9b 0d e3 bd 82 f9 6f 3d
       0.24668667 0.13610946 -0.110865794 0.05858756
000030 8c 33 28 bd 43 a0 2c bd 8b e0 2a 3e dd 01 c4 bd
       -0.041064784 -0.042145025 0.16687219 -0.09570668
000040 15 d2 9f bd a1 7a c1 3c 23 28 9d 3e c9 cd a7 bd
       -0.07803742 0.023618044 0.30694684 -0.08193547
000050 ea e2 e5 bd 34 23 70 3c 93 14 27 3e dd 5f 8e 3e
       -0.11224921 0.014656831 0.16316442 0.27807513
000060 0f 34 db bd 84 16 8d bd 02 dd 97 bd e6 f0 85 bd
       -0.10703289 -0.0688906 -0.07415201 -0.06540088
000070 29 db 9f 3c 9a 98 f4 bc 34 ab a5 bc 8e 5c cf bd
       0.019513683 -0.029857922 -0.020223238 -0.10125075
000080 34 97 0d be 9c b0 0c 3e 7b f6 09 3e ae 3c 83 3d
       -0.1382721 0.13739246 0.13472931 0.06408058
000090 84 ff ef bc 0d e1 18 3e a9 9b 5a 3d 96 06 fe bd
       -0.029296644 0.149296 0.053371105 -0.124036
0000a0 5c ea 8a 3e bc bd a6 3c 9b 71 f8 3c 85 18 92 be
       0.27131927 0.020354144 0.030327609 -0.28534332
0000b0 cd bf 29 bc b9 53 60 3c 44 f4 6c 3e 86 91 ce 3d
       -0.01036067 0.013691836 0.23140055 0.1008635
0000c0 d6 3b 04 3b 4f 25 a3 be 87 c6 54 bd 59 3e 8d be
       0.0020177267 -0.31864402 -0.051947143 -0.2758663
0000d0 69 1a ac bd 59 3c d4 3c d9 30 91 3d 3e 05 16 be
       -0.08403475 0.025907682 0.07089395 -0.14650437
0000e0 15 9e b1 ba 00 b1 0e 3e 0e 46 d5 bd de d0 87 be
       -0.001355114 0.13934708 -0.104137525 -0.2652654
0000f0 b1 d9 78 be 23 8a fd 3d 71 d5 5c be 4f 56 d9 3d
       -0.24301793 0.12379863 -0.21565796 0.10612165
000100 ba 20 5f 3d 6a 88 1d 3e d0 f9 8a bd 0d a9 38 3d
       0.05447457 0.15384069 -0.06785929 0.045083094
000110 30 fb 55 3e 73 cf 41 3d 7e b6 3c bd 25 60 8f be
       0.20896602 0.04731698 -0.046072476 -0.2800304
000120 81 8c 08 be 03 aa 92 bd a2 51 63 3e 24 cd b4 3d
       -0.13334848 -0.071613334 0.22199109 0.0882819
000130 4d 20 5c bd 62 54 a5 3e 51 a4 45 be 8a 6e a9 bc
       -0.053741742 0.3229094 -0.19300963 -0.020682592
000140 f3 40 ba 3e c0 88 38 be 55 f4 38 3e a2 82 7a bd
       0.36377677 -0.18020916 0.18061955 -0.061159737
000150 b0 3c f3 bc 58 d8 db 3d fd 56 1d bd d5 02 74 3d
       -0.029692024 0.10734624 -0.038413037 0.059573013
000160 8a 40 3b 3e f6 3d a5 3d 41 04 cd bc 12 a1 27 be
       0.18286338 0.08068459 -0.025026442 -0.16370037
000170 f5 44 ef 3d a1 36 bd bd 29 43 cd 3d ba 85 09 3e
       0.116830744 -0.09238935 0.100225754 0.13429919
000180 21 5b 0e 3e f3 5d e4 3c ce f2 a0 bd 23 0e 9e bc
       0.1390195 0.02787683 -0.07858811 -0.01929385
000190 b0 e9 3a bd 5b 2c 41 3d af 71 3d 3e 7a 21 02 3d
       -0.045633018 0.04716144 0.18500398 0.031770207
0001a0 c2 0c 96 3e e6 b5 9f bd 12 bb 5a bb a1 3f 73 3e
       0.29306608 -0.07798366 -0.0033375663 0.23754741
0001b0 50 41 4e bd fb f7 bc bc c4 56 36 bd a4 97 3a bd
       -0.050355256 -0.023067465 -0.04451634 -0.045554772
0001c0 59 a4 3c 3d 43 a4 ab bc d4 d2 62 be 8c e9 b0 bd
       0.04605517 -0.02095235 -0.22150737 -0.086382955
0001d0 da 3f 20 bd 53 8c 3c be c6 fd 5a 3e aa ae 9e bd
       -0.039123394 -0.18412904 0.2138587 -0.07748158
0001e0 e0 7f 3b 3c a9 b9 c9 3d 82 39 09 3d 97 4e 07 3e
       0.011444062 0.09849865 0.03350211 0.13213573
0001f0 dc 88 09 bd 59 d3 63 bd 78 59 9b 3d 72 f0 1c 3d
       -0.033577785 -0.05562148 0.07585424 0.038315244
000200 52 5d ae 3d 5b a4 8d be a8 90 8f bd d7 52 66 3e
       0.08513893 -0.27664456 -0.07010013 0.22492538
000210 d6 53 33 3e 09 79 94 bd c4 32 15 3e 95 4c 1f be
       0.1751245 -0.07249648 0.14570147 -0.15556557
000220 9a 68 60 be e6 e1 da 3b e4 db f9 3c 61 72 29 3d
       -0.21914902 0.006679761 0.03050036 0.041368846
000230 f8 83 58 3e c4 23 3f be 38 41 86 bd 1d 39 4c bd
       0.21144092 -0.18665987 -0.06555408 -0.049859155
000240 15 39 80 be 1c 6b 39 be 92 33 ec bc d3 4e a6 bd
       -0.2504355 -0.18107265 -0.028833184 -0.08120503
000250 a2 6a e3 3d 1e 7b 45 be 2a 4b 02 be df f2 36 3d
       0.11104323 -0.19285247 -0.12723985 0.044665214
000260 e2 7a 51 3e c8 f8 ba 3d d5 60 47 be 90 5c d6 3b
       0.20457032 0.091294825 -0.19470532 0.006541796
000270 13 20 16 be 25 b8 79 3e 3d f7 6c 3d 7c ab db bc
       -0.14660673 0.24386652 0.057852972 -0.026815169
000280 ac a9 3d be 28 48 52 bd 99 ee a4 3d b8 aa 12 3d
       -0.18521756 -0.051338345 0.080533214 0.03580734
000290 b0 87 80 be 47 5d 11 be ac a3 d8 3d 26 71 17 be
       -0.2510352 -0.14195739 0.10578093 -0.14789256
0002a0 19 b5 90 bd 04 d2 a0 3c a8 5b 19 bd 57 86 ec 3d
       -0.07065792 0.019631393 -0.037440926 0.11549061
0002b0 a6 fb 99 3d e2 3d e4 3c f7 c5 5c 3c 63 01 f3 bd
       0.07518701 0.02786154 0.013474933 -0.11865499
0002c0 12 c0 2b 3e e5 44 8a bd bc 78 ef 3d d4 43 55 3d
       0.16772488 -0.06751422 0.1169295 0.05206664
0002d0 9c 86 c9 3c c8 f8 cb 3d 69 d7 01 3e 6a fe cb bd
       0.02460032 0.09959561 0.12679829 -0.09960635
0002e0 e9 89 e8 bd 2a 26 74 3d 1a 4c 40 3e e6 e6 f6 3d
       -0.11354429 0.05960671 0.1877903 0.12055759
0002f0 cd f0 bb bc f0 dd 42 3d af 80 16 be a5 f3 9a bd
       -0.022941971 0.047574937 -0.14697526 -0.07566003
000300 6d 67 ee bc d7 88 ac 3d 05 83 ec bd 64 69 16 be
       -0.029102052 0.08424538 -0.115484275 -0.14688641
000310 ac 1c d7 bd 50 89 e6 3b 8e 7f 63 3d ef 7d d7 bd
       -0.105035156 0.007035412 0.055541568 -0.10522067
000320 d9 dc 64 bd 4a b4 91 bb 4a 2c d2 bc 97 0d 3a bb
       -0.05587468 -0.004446541 -0.025655884 -0.0028389448
000330 38 be 1d 3e 8e c0 28 3e 92 33 f9 bc 90 54 1a 3e
       0.15404594 0.16479704 -0.030420098 0.1507132
000340 59 1b 1d 3e 42 91 a6 3b 06 5b 16 bd 2b 41 8f be
       0.15342464 0.005083234 -0.0367079 -0.27979407
000350 34 03 aa bd 61 eb 4c 3d 41 2c 83 be d9 f0 88 bd
       -0.08301392 0.050029162 -0.256197 -0.06686563
000360 db 1e dc 3d ca cd 58 be 51 df 20 be a1 3e 63 3e
       0.10748073 -0.21172252 -0.15710188 0.2219186
000370 64 09 0a 3e 12 b9 14 bd 24 43 41 be d4 42 c9 bc
       0.13480145 -0.03630931 -0.18873268 -0.024567999
000380 9b 90 6f 3e a7 ab 9b 3d 7c d9 69 bd fc 57 68 bb
       0.23395006 0.076010995 -0.057092175 -0.0035452833
000390 ca 8c 11 3d 72 3b ed bd 70 e9 45 3d 8b 2d 1a 3e
       0.035534658 -0.11583604 0.048318326 0.15056436
0003a0 55 f4 16 bb 66 1a ab 3d f3 80 98 be be 47 62 bd
       -0.0023033817 0.083546445 -0.2978588 -0.0552442
0003b0 20 01 ba 3d 25 9b 37 3e 21 19 00 be 92 8f 34 3e
       0.09082246 0.17930277 -0.12509586 0.17632893
0003c0 6e 36 4f 3e 4f bf 8d 3c 9f a3 dc bd 51 0e 45 ba
       0.20235607 0.017303137 -0.10773396 -0.0007517087
0003d0 4a c1 02 be b4 db 5c 3d 94 72 58 be 89 02 d0 bd
       -0.12769046 0.053920463 -0.21137458 -0.101567335
0003e0 e2 62 d3 3d 8f 0c 0f bd 1b c7 cf 3d 78 51 ca bd
       0.10321595 -0.034924086 0.10145398 -0.0987882
0003f0 a9 da a5 3c 2d b9 53 bd 4c 27 9b 3d 44 77 1d be
       0.020245867 -0.05169027 0.07575855 -0.15377527

network_body._body_endoder.seq_layers.0.bias f4 [256]
000000 00 00 00 00 00 00 00 00 00 00 00 00 00 00 00 00
       0.0 0.0 0.0 0.0
000010 00 00 00 00 00 00 00 00 00 00 00 00 00 00 00 00
       0.0 0.0 0.0 0.0
000020 00 00 00 00 00 00 00 00 00 00 00 00 00 00 00 00
       0.0 0.0 0.0 0.0
000030 00 00 00 00 00 00 00 00 00 00 00 00 00 00 00 00
       0.0 0.0 0.0 0.0
000040 00 00 00 00 00 00 00 00 00 00 00 00 00 00 00 00
       0.0 0.0 0.0 0.0
000050 00 00 00 00 00 00 00 00 00 00 00 00 00 00 00 00
       0.0 0.0 0.0 0.0
000060 00 00 00 00 00 00 00 00 00 00 00 00 00 00 00 00
       0.0 0.0 0.0 0.0
000070 00 00 00 00 00 00 00 00 00 00 00 00 00 00 00 00
       0.0 0.0 0.0 0.0
000080 00 00 00 00 00 00 00 00 00 00 00 00 00 00 00 00
       0.0 0.0 0.0 0.0
000090 00 00 00 00 00 00 00 00 00 00 00 00 00 00 00 00
       0.0 0.0 0.0 0.0
0000a0 00 00 00 00 00 00 00 00 00 00 00 00 00 00 00 00
       0.0 0.0 0.0 0.0
0000b0 00 00 00 00 00 00 00 00 00 00 00 00 00 00 00 00
       0.0 0.0 0.0 0.0
0000c0 00 00 00 00 00 00 00 00 00 00 00 00 00 00 00 00
       0.0 0.0 0.0 0.0
0000d0 00 00 00 00 00 00 00 00 00 00 00 00 00 00 00 00
       0.0 0.0 0.0 0.0
0000e0 00 00 00 00 00 00 00 00 00 00 00 00 00 00 00 00
       0.0 0.0 0.0 0.0
0000f0 00 00 00 00 00 00 00 00 00 00 00 00 00 00 00 00
       0.0 0.0 0.0 0.0
000100 00 00 00 00 00 00 00 00 00 00 00 00 00 00 00 00
       0.0 0.0 0.0 0.0
000110 00 00 00 00 00 00 00 00 00 00 00 00 00 00 00 00
       0.0 0.0 0.0 0.0
000120 00 00 00 00 00 00 00 00 00 00 00 00 00 00 00 00
       0.0 0.0 0.0 0.0
000130 00 00 00 00 00 00 00 00 00 00 00 00 00 00 00 00
       0.0 0.0 0.0 0.0
000140 00 00 00 00 00 00 00 00 00 00 00 00 00 00 00 00
       0.0 0.0 0.0 0.0
000150 00 00 00 00 00 00 00 00 00 00 00 00 00 00 00 00
       0.0 0.0 0.0 0.0
000160 00 00 00 00 00 00 00 00 00 00 00 00 00 00 00 00
       0.0 0.0 0.0 0.0
000170 00 00 00 00 00 00 00 00 00 00 00 00 00 00 00 00
       0.0 0.0 0.0 0.0
000180 00 00 00 00 00 00 00 00 00 00 00 00 00 00 00 00
       0.0 0.0 0.0 0.0
000190 00 00 00 00 00 00 00 00 00 00 00 00 00 00 00 00
       0.0 0.0 0.0 0.0
0001a0 00 00 00 00 00 00 00 00 00 00 00 00 00 00 00 00
       0.0 0.0 0.0 0.0
0001b0 00 00 00 00 00 00 00 00 00 00 00 00 00 00 00 00
       0.0 0.0 0.0 0.0
0001c0 00 00 00 00 00 00 00 00 00 00 00 00 00 00 00 00
       0.0 0.0 0.0 0.0
0001d0 00 00 00 00 00 00 00 00 00 00 00 00 00 00 00 00
       0.0 0.0 0.0 0.0
0001e0 00 00 00 00 00 00 00 00 00 00 00 00 00 00 00 00
       0.0 0.0 0.0 0.0
0001f0 00 00 00 00 00 00 00 00 00 00 00 00 00 00 00 00
       0.0 0.0 0.0 0.0
000200 00 00 00 00 00 00 00 00 00 00 00 00 00 00 00 00
       0.0 0.0 0.0 0.0
000210 00 00 00 00 00 00 00 00 00 00 00 00 00 00 00 00
       0.0 0.0 0.0 0.0
000220 00 00 00 00 00 00 00 00 00 00 00 00 00 00 00 00
       0.0 0.0 0.0 0.0
000230 00 00 00 00 00 00 00 00 00 00 00 00 00 00 00 00
       0.0 0.0 0.0 0.0
000240 00 00 00 00 00 00 00 00 00 00 00 00 00 00 00 00
       0.0 0.0 0.0 0.0
000250 00 00 00 00 00 00 00 00 00 00 00 00 00 00 00 00
       0.0 0.0 0.0 0.0
000260 00 00 00 00 00 00 00 00 00 00 00 00 00 00 00 00
       0.0 0.0 0.0 0.0
000270 00 00 00 00 00 00 00 00 00 00 00 00 00 00 00 00
       0.0 0.0 0.0 0.0
000280 00 00 00 00 00 00 00 00 00 00 00 00 00 00 00 00
       0.0 0.0 0.0 0.0
000290 00 00 00 00 00 00 00 00 00 00 00 00 00 00 00 00
       0.0 0.0 0.0 0.0
0002a0 00 00 00 00 00 00 00 00 00 00 00 00 00 00 00 00
       0.0 0.0 0.0 0.0
0002b0 00 00 00 00 00 00 00 00 00 00 00 00 00 00 00 00
       0.0 0.0 0.0 0.0
0002c0 00 00 00 00 00 00 00 00 00 00 00 00 00 00 00 00
       0.0 0.0 0.0 0.0
0002d0 00 00 00 00 00 00 00 00 00 00 00 00 00 00 00 00
       0.0 0.0 0.0 0.0
0002e0 00 00 00 00 00 00 00 00 00 00 00 00 00 00 00 00
       0.0 0.0 0.0 0.0
0002f0 00 00 00 00 00 00 00 00 00 00 00 00 00 00 00 00
       0.0 0.0 0.0 0.0
000300 00 00 00 00 00 00 00 00 00 00 00 00 00 00 00 00
       0.0 0.0 0.0 0.0
000310 00 00 00 00 00 00 00 00 00 00 00 00 00 00 00 00
       0.0 0.0 0.0 0.0
000320 00 00 00 00 00 00 00 00 00 00 00 00 00 00 00 00
       0.0 0.0 0.0 0.0
000330 00 00 00 00 00 00 00 00 00 00 00 00 00 00 00 00
       0.0 0.0 0.0 0.0
000340 00 00 00 00 00 00 00 00 00 00 00 00 00 00 00 00
       0.0 0.0 0.0 0.0
000350 00 00 00 00 00 00 00 00 00 00 00 00 00 00 00 00
       0.0 0.0 0.0 0.0
000360 00 00 00 00 00 00 00 00 00 00 00 00 00 00 00 00
       0.0 0.0 0.0 0.0
000370 00 00 00 00 00 00 00 00 00 00 00 00 00 00 00 00
       0.0 0.0 0.0 0.0
000380 00 00 00 00 00 00 00 00 00 00 00 00 00 00 00 00
       0.0 0.0 0.0 0.0
000390 00 00 00 00 00 00 00 00 00 00 00 00 00 00 00 00
       0.0 0.0 0.0 0.0
0003a0 00 00 00 00 00 00 00 00 00 00 00 00 00 00 00 00
       0.0 0.0 0.0 0.0
0003b0 00 00 00 00 00 00 00 00 00 00 00 00 00 00 00 00
       0.0 0.0 0.0 0.0
0003c0 00 00 00 00 00 00 00 00 00 00 00 00 00 00 00 00
       0.0 0.0 0.0 0.0
0003d0 00 00 00 00 00 00 00 00 00 00 00 00 00 00 00 00
       0.0 0.0 0.0 0.0
0003e0 00 00 00 00 00 00 00 00 00 00 00 00 00 00 00 00
       0.0 0.0 0.0 0.0
0003f0 00 00 00 00 00 00 00 00 00 00 00 00 00 00 00 00
       0.0 0.0 0.0 0.0

network_body._body_endoder.seq_layers.2.weight f4 [256, 256]
000000 09 e9 65 3d ac bb 73 3b fd 7f 87 3d 66 29 2f bb
       0.056130443 0.0037190719 0.06616209 -0.0026727556
000010 26 5b 2e bd 13 4d e6 bc 2c bb 88 3d 16 74 40 3d
       -0.042567395 -0.028112924 0.06676325 0.04698571
000020 e6 c0 0b 3d 40 9a 83 bd 35 17 8d 3c b9 64 5a bd
       0.03411951 -0.06425905 0.01722298 -0.053318713
000030 2b da 01 3e 69 9c 72 bd 18 23 e4 bd 5d 10 b0 3d
       0.1268088 -0.059231196 -0.11139506 0.08596871
000040 81 c3 80 ba f0 2b b4 3d 04 e5 42 3d da 44 83 3b
       -0.000982389 0.08797443 0.047581688 0.0040060105
000050 4c 85 e5 bd be bf db 3d cb c1 20 3d d6 ab f8 bd
       -0.11207065 0.10729931 0.039247315 -0.1214215
000060 82 a7 b3 bc c3 d9 12 bd 64 60 bb 3b 9c 0f 30 bd
       -0.02193046 -0.035852205 0.005718278 -0.042983636
000070 14 48 80 bc 10 93 83 bc 4b 03 1b 3d 6e 29 bc 3c
       -0.01565937 -0.016061336 0.037844937 0.022968974
000080 6e d3 3e bc fd c1 fc bc 00 78 3c bc 4d 02 76 3c
       -0.011647088 -0.03085422 -0.01150322 0.015015197
000090 d5 30 90 3d 39 92 8a bc 7d 5b c8 3b 90 80 59 3d
       0.07040564 -0.016915428 0.006114422 0.053101122
0000a0 32 c3 20 3c 5f 4d df 3c f4 23 81 3c 2a b7 f8 bb
       0.009812163 0.027258573 0.015764214 -0.007590194
0000b0 bb bd 12 3d cb 3d ef bd cb 25 e2 3c e6 2f 19 3c
       0.035825472 -0.11681708 0.027605912 0.009349799
0000c0 6c 65 76 3d 49 ef cb 3b 48 f3 5b bd 56 d2 92 3a
       0.060155317 0.0062235934 -0.053698808 0.0011201601
0000d0 3f b1 3d bc 1d d6 aa 3c 73 05 be bd 08 6c 11 bd
       -0.011577903 0.02085405 -0.09278383 -0.035503417
0000e0 a3 f6 09 3e a4 26 36 bd 3c 58 96 3c 59 dd 6e 3d
       0.1347299 -0.044470444 0.01835262 0.058316562
0000f0 f8 eb 30 3d 72 2a 91 bd 03 76 0a 3b 15 20 a1 bd
       0.043193787 -0.07088174 0.002112747 -0.07867447
000100 ab c6 c9 3d 2c bf 5b 3d 67 2c de 3c e7 62 b3 3b
       0.09852346 0.053649113 0.027120782 0.0054744366
000110 0b dc 13 bd 5c ef aa bb 56 4d b8 bd 6d 11 c8 3d
       -0.03609852 -0.005216522 -0.08999126 0.09768949
000120 ca 57 c2 bd af a1 a1 3d c3 bb a5 38 67 1a 40 3d
       -0.09489401 0.07892167 7.9027865e-05 0.04690018
000130 77 3e fd bd 1d d4 9a bc 16 f4 c4 bc 24 4a 11 3c
       -0.1236543 -0.018899972 -0.02404217 0.008867774
000140 83 8b 7f bd a1 94 44 bc 5f 9e 1b 3b bc 5e 89 bc
       -0.062388908 -0.0119983265 0.002374552 -0.016768806
000150 6c 04 eb bc c5 a3 f5 bc 84 77 c9 bd d6 d5 ff 3d
       -0.028688632 -0.029985318 -0.09837249 0.12491958
000160 ab ee 2e bd 53 08 a5 3d 6e b3 2f bc 9d 7b 00 3d
       -0.04270808 0.08058228 -0.010723932 0.031367887
000170 1a d2 0e 3d eb f7 8d bc f5 ff f7 bc 5e d7 26 bc
       0.034868337 -0.01733013 -0.030273417 -0.0101831835
000180 a4 18 72 ba 76 2a da bd 2e a0 7f bd 19 a6 80 3d
       -0.0009235239 -0.1065263 -0.06240862 0.062816806
000190 ae 68 64 bd 4b 58 13 3d 2f 3a 18 bd 9a 24 29 3d
       -0.055763893 0.035972875 -0.037164863 0.04129467
0001a0 c7 02 03 3e 38 c2 87 3d d6 74 87 3d 31 93 16 bc
       0.12794028 0.06628841 0.066140816 -0.009190367
0001b0 a5 82 7d 3c a5 83 71 3c 50 df 57 3d 3f 83 23 3e
       0.015473043 0.014740859 0.0527032 0.15968035
0001c0 1d 6d 51 bd 97 d6 2d be a1 3b 97 3d ae 0b eb 3c
       -0.05112945 -0.16976391 0.0738442 0.028692093
0001d0 a0 7a 0f 3b 3e ee bd 3c da 3a 07 be 02 6a 70 bd
       0.0021893159 0.023184892 -0.13206044 -0.058694847
0001e0 db 3e d8 3d 4d df 06 be f7 55 84 3d 6c cc f9 3b
       0.10558864 -0.1317112 0.06461709 0.007623246
0001f0 99 76 89 bb 23 aa 21 3d 90 56 a6 bd 0c 3b 07 bc
       -0.004195046 0.039468896 -0.08121979 -0.008253824
000200 1a 90 44 3c 77 3d ba 3c 76 58 1e 3d e5 b8 0a be
       0.011997247 0.022734387 0.03865858 -0.13547094
000210 e7 b6 c8 bb 46 4b fc bd a5 8b 4a bd 9a f9 83 3d
       -0.0061253193 -0.12319045 -0.04944958 0.06444092
000220 c0 9a 0d bd 5d 8d e9 3d 4d e9 22 3d 3c 56 07 bd
       -0.03457141 0.11403916 0.039773274 -0.033041224
000230 f3 67 98 bc f0 af 44 3d 6d e9 b6 3c 9b fd 39 bc
       -0.018604254 0.04801935 0.022328103 -0.011351968
000240 7e 1e 98 3d f3 10 1e 3d c7 f6 f5 bd 30 5c e8 3c
       0.07427691 0.038590383 -0.1200996 0.02836427
000250 17 6f 78 3d 0d b3 93 bd 8f bd 93 3d 0e 69 10 3e
       0.06065282 -0.072118856 0.0721389 0.14102575
000260 4b b0 f2 3b aa d2 67 bd c0 29 7e bc e5 86 27 3d
       0.0074062697 -0.05659739 -0.015512884 0.04090013
000270 4d d5 c6 3c 50 82 23 3d 14 53 28 bd b0 9e 92 3c
       0.024271632 0.039919198 -0.041094854 0.017897934
000280 45 12 2d 3d 20 04 d6 3c 60 fd 93 bc d4 d7 21 3e
       0.04225375 0.026125014 -0.018065155 0.15804988
000290 a6 87 33 bd 9f a9 5f bb c7 c9 52 bd 5a 06 46 3c
       -0.043830536 -0.0034128202 -0.05146196 0.012086475
0002a0 9d 5e a7 bd 64 f8 e4 3c c5 a2 92 bd 8b 71 ec bc
       -0.08172343 0.027950473 -0.07159952 -0.028862735
0002b0 e3 41 8d bd 3a 27 8d 3d 1d 3e 7f bc 01 21 27 3d
       -0.068973325 0.068922475 -0.015578774 0.04080296
0002c0 a9 51 e2 3c 2b 70 ce bd 69 16 4e 3d 90 01 27 3c
       0.02762683 -0.10079988 0.05031434 0.010193244
0002d0 23 ea 86 bd 71 23 cc 3c ad af 8e bd 69 12 ef bd
       -0.06587627 0.024919244 -0.06967101 -0.11673433
0002e0 d2 7c 58 bc ea c3 a2 bc 1a 68 23 3c 78 e3 1e 3d
       -0.013213353 -0.01986881 0.00997355 0.03879115
0002f0 5f 98 8d bd 6e 02 8a 3d a5 68 7f 3d b8 ab 49 bd
       -0.06913828 0.06738745 0.062355656 -0.04923603
000300 64 3a 0f 3b 55 76 45 bd 58 49 f6 bc b2 0e 9f bc
       0.0021854872 -0.048208553 -0.03006427 -0.019416187
000310 cf 11 b1 3d 44 a3 e7 3d c2 c6 c1 3d e1 33 46 3d
       0.08645975 0.11310437 0.09461738 0.04838932
000320 c0 6b 94 bb e4 e4 09 be c4 ed 70 3c d0 25 31 3d
       -0.0045294464 -0.13466221 0.014705125 0.04324895
000330 8a 4f bf bc 06 10 8d bd 54 42 b1 bc df 58 dc 3b
       -0.023353357 -0.06887822 -0.021638073 0.0067244614
000340 18 4e 02 be 76 91 98 3d 55 40 78 3d e2 33 33 3d
       -0.12725103 0.074496195 0.060608227 0.04375065
000350 35 ac a7 3b 61 40 00 3b 88 1b 2f 3d 35 55 8a bd
       0.005116964 0.0019569623 0.042750865 -0.06754533
000360 dd 37 a5 bd c4 4b a4 bd e4 96 1b bc 62 0f a9 bc
       -0.08067296 -0.08022264 -0.009496424 -0.020637218
000370 d8 8e 1b bc 86 ca 33 3d 20 27 4e 3d a4 32 54 3d
       -0.009494506 0.043894313 0.05033028 0.051806107
000380 a5 54 0a 3d 49 f5 9e bc 11 e7 91 3d 45 78 02 bc
       0.03377213 -0.01940407 0.071241505 -0.007963245
000390 dc bd 8d bd a4 89 14 3d 4a d6 90 3b d5 5b cc 3c
       -0.069209784 0.036264077 0.0044200765 0.024946133
0003a0 0e 9d 5f 3d b1 0a 85 3d 7a 61 dc bd f5 e3 1c bc
       0.05459314 0.0649618 -0.1076078 -0.009575834
0003b0 b1 b4 20 bc f1 68 e7 3b 8c 9b a5 3d 2a e1 fb bd
       -0.009808705 0.0070620705 0.08086309 -0.12298806
0003c0 b9 69 f4 bd a4 8b 4e 3d fd 44 96 3d 96 36 58 bd
       -0.119342275 0.05042614 0.07337377 -0.052786432
0003d0 91 24 5e bd 6e 83 bd 3d 29 e3 ce 3c d3 a9 5c bd
       -0.05423409 0.09253584 0.025254803 -0.053872894
0003e0 c4 02 90 3b 68 e7 54 bb 5e 42 8f bc 01 7e a0 bc
       0.004394861 -0.0032486562 -0.017487701 -0.019591333
0003f0 c8 4e cd 3d 5d 4d 8e 3c 1d 60 e5 bd d0 d0 ff 3c
       0.10024792 0.017370874 -0.11199973 0.0312275

action_model._continuous_distribution.log_sigma f4 [1, 12]
000000 00 00 00 00 00 00 00 00 00 00 00 00 00 00 00 00
       0.0 0.0 0.0 0.0
000010 00 00 00 00 00 00 00 00 00 00 00 00 00 00 00 00
       0.0 0.0 0.0 0.0
000020 00 00 00 00 00 00 00 00 00 00 00 00 00 00 00 00
       0.0 0.0 0.0 0.0

action_model._continuous_distribution.mu.weight f4 [12, 256]
000000 4a c1 19 3c eb ba e9 3b 7f 36 38 bc f3 71 47 b9
       0.009384463 0.007132878 -0.011243462 -0.00019020568
000010 3d ef 4d bc 80 90 1e 3c 2f df 1e bc e9 02 38 3a
       -0.012569246 0.009678006 -0.009696766 0.00070194766
000020 50 3e 8e 3c ec e6 24 bc 1d 85 0a bc 35 bb 4e bc
       0.017363697 -0.010064822 -0.008454588 -0.012617876
000030 ff be b1 bc 68 35 e6 bb 3f 27 e9 bb df 7a 10 3b
       -0.02169752 -0.0070254095 -0.007115274 0.0022045893
000040 6b 19 38 3c f7 8b e2 3b dd c3 91 3c ba 75 7c 3b
       0.011236529 0.0069136578 0.01779359 0.003852232
000050 13 18 f8 bb 7d 60 12 3b c7 9b 61 3c 1f 06 9c bc
       -0.0075712292 0.0022335344 0.01377005 -0.019045888
000060 57 94 6b 3c 6a c5 f6 b8 63 1f ba 3b f7 4a 5e 3b
       0.014378629 -0.00011766965 0.005680011 0.0033919194
000070 34 ae 45 3b 97 b8 50 3b 33 67 9b bc d2 3b 81 bb
       0.0030163648 0.0031848305 -0.018970108 -0.0039438987
000080 22 aa 1a 3b 54 92 a7 bc ef 84 e4 3b a0 fb 8c 3c
       0.0023599942 -0.020455517 0.0069738547 0.017209828
000090 17 21 79 3b 6b 7d 32 bc 48 00 a2 bb 2d 12 20 b9
       0.0038014108 -0.01089416 -0.004943881 -0.0001526556
0000a0 e3 1e aa bc f5 38 54 bc 7d 39 a2 bc f1 6c 8f 3c
       -0.020766681 -0.012953033 -0.019802803 0.017508002
0000b0 5c 66 80 3a 67 0d 23 3c 7c bf 2a bb 1b 25 70 bb
       0.000979613 0.009951926 -0.0026054075 -0.003664321
0000c0 47 ab 0d bc 60 46 38 bc 03 ae e5 bc bb 56 fb bb
       -0.008646793 -0.011247247 -0.028037077 -0.007670251
0000d0 c8 d7 dd bc 31 f8 bd bb ff 59 07 3b c1 56 43 3c
       -0.027080432 -0.005797409 0.0020653007 0.011922539
0000e0 f3 b0 a8 bc 02 3e e4 ba e4 1f 43 39 a0 20 19 3c
       -0.020592188 -0.0017413499 0.0001860853 0.009346157
0000f0 c8 2c d9 3b d3 0f 4d 3c 1f 1f 41 3b 17 b5 4a 3c
       0.006627653 0.01251598 0.0029468013 0.012372277
000100 1a a0 90 bc 60 47 d8 3b ab c3 40 3c 1b 74 93 bc
       -0.017654467 0.0066003054 0.011765401 -0.0179997
000110 79 5b 92 bc cf e5 f4 ba 1b 5f 1f bb 21 90 34 bc
       -0.017865883 -0.0018684211 -0.0024318162 -0.011020691
000120 18 af 1e 3c 13 49 c1 3b ba 08 5d 39 a2 43 15 3c
       0.0096853 0.0058986037 0.00021079453 0.009110363
000130 ef 9f 8d bc 4b 12 b1 3b 37 a7 1b 3b 0c 8b 02 3c
       -0.017288176 0.005403792 0.002375079 0.007967722
000140 67 90 6b 3b 45 8d 47 3b db 55 53 3b 19 6d 05 bc
       0.0035944225 0.0030449193 0.0032247219 -0.008143687
000150 f7 d6 e4 3c 07 16 69 bc de 2e 9a bb e7 cf 76 3c
       0.027934534 -0.014226443 -0.004705294 0.015064216
000160 3b c3 28 3c 23 b8 b2 bb 2e 0d 4c bb 38 2c 86 ba
       0.010300453 -0.0054540797 -0.0031135785 -0.0010236567
000170 73 68 a3 3b ba f3 6e 3c 1f 65 4e bc 6a 76 08 3c
       0.0049868166 0.014584476 -0.012597351 0.008329013
000180 90 c6 c1 3c 72 a2 fa 3b fd f8 fe bb 94 43 9c 3c
       0.023654252 0.0076487595 -0.0077811466 0.019075193
000190 2f 39 94 bc 1a f8 e2 bb e1 a0 20 3c ea 7e cb 38
       -0.018093674 -0.0069265487 0.0098039815 9.703434e-05
0001a0 1b 30 d2 bc 50 ba 81 bc d0 f2 57 bb 14 28 46 3c
       -0.025657704 -0.015835911 -0.0032951124 0.012094516
0001b0 a5 4f 89 3c fa 98 43 bc 55 3d 94 bc 31 c7 0b 3c
       0.01676161 -0.011938328 -0.018095652 0.008531378
0001c0 09 b4 8f b9 35 c6 79 bc e9 90 1e bc 76 c2 23 bc
       -0.00027409222 -0.01524501 -0.009678104 -0.009995094
0001d0 49 ab 21 bc 37 8a 20 bc a2 50 d8 bb 07 5d da 3b
       -0.009867498 -0.009798578 -0.006601409 0.0066639218
0001e0 ff a8 c0 3a 58 c2 6e bc 1c 63 cb bb f6 39 c0 3c
       0.0014698802 -0.014572702 -0.006206883 0.023465138
0001f0 c7 7f 0a 3c 1b a5 3d 39 b8 e6 70 3a 20 05 5d 3c
       0.008453316 0.00018085951 0.0009189653 0.013489991
000200 83 f1 92 bc a2 90 66 3c 8b c2 18 3c 7f 20 1a bb
       -0.017937427 0.014072569 0.009323726 -0.0023517904
000210 70 a7 40 3c f9 32 ac bc a9 a1 9e bc 83 41 8d 3c
       0.01175867 -0.0210204 -0.019364195 0.017243152
000220 9c 5e bb bc 8e 05 4b 3c 0a 08 db 3c 26 33 21 3c
       -0.022872262 0.012391461 0.026737232 0.009838855
000230 87 d5 b8 3c fb 1e b1 bb fb f1 05 3c 6b d5 fc b9
       0.022562755 -0.0054053045 0.008175368 -0.00048224194
000240 e2 a1 d6 bb 03 78 03 3c b7 af 83 3c ef cd da bb
       -0.0065500597 0.0080242185 0.016074998 -0.006677381
000250 db 99 bc bb 97 80 a7 3c e8 14 61 3c b2 79 f4 39
       -0.0057556457 0.020447059 0.013737895 0.00046629977
000260 b1 e1 c0 3b e5 7f 30 3c f3 6d 99 bc b3 5a b8 3c
       0.0058862795 0.01077268 -0.018729186 0.022504186
000270 57 5e b3 bb 53 8f d8 bb 2e 13 8a bc 35 6b a4 bb
       -0.0054738927 -0.0066088825 -0.016854849 -0.005017663
000280 08 03 45 3b 9d 1f 1f bc 63 f5 69 3c c8 88 5a 3c
       0.0030061621 -0.009712127 0.014279696 0.013338275
000290 d3 6a 57 3c 1a c8 d7 bc e8 30 79 3c 3e 10 81 3b
       0.0131480275 -0.026340533 0.015209414 0.003938704
0002a0 16 24 8e bb d2 75 d0 3b 2a b5 5b bc e1 da af 3c
       -0.004337798 0.0063617015 -0.013409892 0.021466674
0002b0 7a aa 4e 3b c3 1e ac 3c 3f 6e a4 bb ce 8a 4b 3c
       0.0031534717 0.021010762 -0.005018025 0.01242323
0002c0 b3 45 3d 3b a5 f1 cc 3b a7 0c a5 bb ff f8 c1 bc
       0.0028880655 0.006254392 -0.0050369087 -0.0236783
0002d0 1a db 3c 3b 33 02 0f bc 07 43 b6 bc f7 72 7d bc
       0.0028817118 -0.008728552 -0.022248758 -0.015469304
0002e0 17 b1 79 bc 48 19 a4 3c 5d 1f 4b bc 3d 1f 7a 3c
       -0.015239975 0.020031586 -0.012397614 0.015266237
0002f0 59 ab 8b bc b2 ea 03 bb fb f9 ea 3b e3 8b b1 ba
       -0.017049478 -0.0020128903 0.0071709133 -0.0013545718
000300 8a d5 85 bc f0 d0 d7 b8 34 39 00 3c 78 9a b2 3b
       -0.016337175 -0.000102909165 0.007826138 0.005450543
000310 55 4b 6f 3c 7f f0 b1 3b 1a 8d 84 bc f2 4f f6 3b
       0.014605363 0.0054302807 -0.016180564 0.0075168544
000320 65 f0 64 3c 2b c7 9a bc 26 91 93 39 13 fe 72 3c
       0.01397333 -0.018893799 0.0002814617 0.014831084
000330 ec 08 a3 bc ac a4 18 bc ed 4e 1f 3c 03 20 8b bc
       -0.019901715 -0.009316605 0.009723407 -0.016983038
000340 57 76 6d bb 25 07 6f bb 5a c0 58 bc 1f f3 41 bc
       -0.0036233866 -0.0036472764 -0.013229454 -0.01183775
000350 e8 2a e4 3b 78 90 97 bb 8d 87 46 39 df 24 d1 3b
       0.0069631226 -0.0046253763 0.00018933248 0.006382569
000360 00 21 79 3c 17 27 02 bb fc bc 49 bc 78 fc d3 bb
       0.015205622 -0.0019859725 -0.012313124 -0.0064693056
000370 c2 11 c7 3c 97 57 c8 bb ca cb 0e ba f1 df 99 bc
       0.02430046 -0.006113957 -0.0005447237 -0.018783541
000380 8a 01 9d bc c8 4c 53 bc ba 05 ec 3a f7 18 c5 3b
       -0.019165773 -0.012896724 0.0018007078 0.006014939
000390 65 90 cc 3b 8c 96 1f 3b 24 a0 bb bb 72 5f 65 bc
       0.006242799 0.0024351208 -0.0057258774 -0.013999807
0003a0 c5 3c f4 3a 35 e7 eb 3a 27 e2 eb b9 52 83 cf 3a
       0.0018633833 0.0017997982 -0.0004499119 0.0015831983
0003b0 82 65 9f bc 0e 2c 85 bc 67 73 16 3b 1a 23 e7 3b
       -0.019457582 -0.016256358 0.0022956969 0.007053745
0003c0 cf 4c 35 bc 74 e5 39 bc ef e5 b8 bb 82 7a 95 3b
       -0.011065676 -0.01134621 -0.0056426446 0.004561723
0003d0 a5 c3 c8 b9 a3 4a 94 bc 44 5c 8c 3c ab 3d 06 bc
       -0.0003829274 -0.018101996 0.01713384 -0.008193414
0003e0 f9 4a a5 3c af 20 72 bc 53 97 f4 3a c3 d5 41 3c
       0.020177351 -0.0147783 0.0018660821 0.01183075
0003f0 60 d3 78 bb 77 49 87 3b 6b 84 66 3c 39 44 c6 3b
       -0.0037967786 0.0041286307 0.014069657 0.0060506132

action_model._continuous_distribution.mu.bias f4 [12]
000000 00 00 00 00 00 00 00 00 00 00 00 00 00 00 00 00
       0.0 0.0 0.0 0.0
000010 00 00 00 00 00 00 00 00 00 00 00 00 00 00 00 00
       0.0 0.0 0.0 0.0
000020 00 00 00 00 00 00 00 00 00 00 00 00 00 00 00 00
       0.0 0.0 0.0 0.0

onnx::Div_51 f4 [74]
000000 20 91 cb 3c f6 b8 42 3e fa ef 54 3e a5 14 20 3e
       0.024849474 0.1901587 0.20794669 0.15632875
000010 5b 75 e1 3c 66 bb 09 3d 8d e4 32 3d 25 2c 39 3e
       0.02752178 0.033625983 0.043674994 0.18083246
000020 d4 b7 c5 3d fa 9e a1 3e 88 6b 94 3c 9b da 78 3c
       0.09654203 0.31566602 0.018117681 0.015188838
000030 ec 09 8f 3c 91 a4 ac 3c a9 24 74 3e 00 5c 85 3c
       0.017460786 0.021074565 0.2384211 0.01627922
000040 28 ea 88 3e b7 e5 82 3c e1 ab 94 3d ab 9d 8a 3c
       0.26741147 0.015978677 0.07259346 0.016920885
000050 8f c4 84 3c d9 03 b8 3c 97 62 6c 3e 16 9d 44 3d
       0.016207008 0.022462772 0.23084484 0.04800137
000060 67 55 59 3f 3d e3 7d 3c 6d 92 ab 3c da eb 76 3c
       0.8489594 0.015496072 0.020943845 0.01507088
000070 23 11 9a 3c 7a a0 ac 3c 9c 5b 73 3e 0c 1b 90 3c
       0.018807 0.021072615 0.23765415 0.017591022
000080 8c 3b 59 3f d0 e1 87 3c 99 b1 9f 3d 9d f7 9d 3c
       0.84856486 0.016587168 0.07797546 0.01928311
000090 95 8e 75 3c 6e 0e b8 3c c3 e1 65 3e 10 24 52 3d
       0.0149876075 0.022467818 0.22449403 0.051303923
0000a0 18 70 38 3f 33 9b 74 3c 64 0a 6f 3d 29 c4 74 3c
       0.7204604 0.0149295805 0.05835952 0.014939346
0000b0 2c 11 81 3c 1d 79 b2 3c a7 40 6f 3e 66 14 20 3d
       0.015755259 0.021786267 0.23364507 0.039081953
0000c0 3b 22 38 3f df 24 7a 3c f9 62 77 3d 3d d3 7c 3c
       0.7192723 0.01526758 0.060397122 0.0154312225
0000d0 0b 64 7d 3c 86 25 c7 3c c8 15 6c 3e 8c d9 27 3d
       0.015465747 0.024309885 0.23055184 0.040978953
0000e0 50 f6 37 3f e7 ac 78 3c 65 60 71 3d 41 66 75 3c
       0.7186022 0.015177942 0.05892982 0.0149779925
0000f0 e8 5b 77 3c 94 61 b3 3c 00 88 6e 3e 5d 9b 21 3d
       0.015097596 0.021897115 0.23294067 0.039454807
000100 51 77 82 3e ee 5a 75 3c f9 10 76 3d 5b 59 79 3c
       0.25481656 0.014975293 0.06007478 0.015219058
000110 e6 48 84 3c 48 ac c6 3c 2a 98 6c 3e a2 1c 27 3d
       0.016148042 0.024252072 0.23104921 0.04079879
000120 dc 07 38 3f cb 5b 7e 3c
       0.7188699 0.015524815
