results/super_fresh_run_005/RobotAgent/RobotAgent-0.onnx (onnx, 357277 bytes, 8 tensors)

network_body.observation_encoder.processors.0.normalizer.running_mean f4 [74]
0	0x00000000	0.0
1	0x00000000	0.0
2	0x00000000	0.0
3	0x00000000	0.0
4	0x00000000	0.0
5	0x00000000	0.0
6	0x00000000	0.0
7	0x00000000	0.0
8	0x00000000	0.0
9	0x00000000	0.0
10	0x00000000	0.0
11	0x00000000	0.0
12	0x00000000	0.0
13	0x00000000	0.0
14	0x00000000	0.0
15	0x00000000	0.0
16	0x00000000	0.0
17	0x00000000	0.0
18	0x00000000	0.0
19	0x00000000	0.0
20	0x00000000	0.0
21	0x00000000	0.0
22	0x00000000	0.0
23	0x00000000	0.0
24	0x00000000	0.0
25	0x00000000	0.0
26	0x00000000	0.0
27	0x00000000	0.0
28	0x00000000	0.0
29	0x00000000	0.0
30	0x00000000	0.0
31	0x00000000	0.0
32	0x00000000	0.0
33	0x00000000	0.0
34	0x00000000	0.0
35	0x00000000	0.0
36	0x00000000	0.0
37	0x00000000	0.0
38	0x00000000	0.0
39	0x00000000	0.0
40	0x00000000	0.0
41	0x00000000	0.0
42	0x00000000	0.0
43	0x00000000	0.0
44	0x00000000	0.0
45	0x00000000	0.0
46	0x00000000	0.0
47	0x00000000	0.0
48	0x00000000	0.0
49	0x00000000	0.0
50	0x00000000	0.0
51	0x00000000	0.0
52	0x00000000	0.0
53	0x00000000	0.0
54	0x00000000	0.0
55	0x00000000	0.0
56	0x00000000	0.0
57	0x00000000	0.0
58	0x00000000	0.0
59	0x00000000	0.0
60	0x00000000	0.0
61	0x00000000	0.0
62	0x00000000	0.0
63	0x00000000	0.0
64	0x00000000	0.0
65	0x00000000	0.0
66	0x00000000	0.0
67	0x00000000	0.0
68	0x00000000	0.0
69	0x00000000	0.0
70	0x00000000	0.0
71	0x00000000	0.0
72	0x00000000	0.0
73	0x00000000	0.0

network_body._body_endoder.seq_layers.0.weight f4 [256, 74]
0	0x3caa23b2	0.020768974
1	0x3de3010b	0.11084183
2	0x3d60404a	0.05474881
3	0x3e1841c1	0.14868833
4	0x3e85127e	0.2599067
5	0x3d8dd81d	0.06925986
6	0xbc405c99	-0.011740827
7	0x3de2520a	0.11050804
8	0xbc51fe23	-0.012816939
9	0x3d6599fb	0.05605505
10	0x3cff5c2a	0.031171877
11	0xbd94e4c3	-0.07270195
12	0xbd6353f2	-0.05549998
13	0x3be5c212	0.0070116604
14	0x3d1ed4d3	0.038777184
15	0x3d0540ee	0.032532625
16	0xbe09db25	-0.13462503
17	0xbb68f48b	-0.003554615
18	0x3db04ce8	0.08608419
19	0x3cdc1f9e	0.026870545
20	0x3e26add0	0.16277242
21	0x3d3f1282	0.04664851
22	0xbdb90f5a	-0.09036131
23	0xbd8ff744	-0.07029584
24	0xbd4a47ec	-0.049384996
25	0x3d527775	0.051383454
26	0x3e6aeb89	0.22941412
27	0xbe38075f	-0.17971562
28	0xbdd12569	-0.102122135
29	0xbc7c96a8	-0.015416779
30	0xbd0b856a	-0.03406278
31	0x3e5b8914	0.2143901
32	0xbe617082	-0.22015575
33	0xbd2d0a94	-0.042246416
34	0x3d87c76d	0.06629834
35	0x3ce74c7b	0.02823471
36	0xbe0cef2b	-0.1376311
37	0x3d8960f2	0.06707944
38	0x3d85ac80	0.065270424
39	0xbdca5dd3	-0.09881177
40	0xbd7c7360	-0.061633468
41	0x3e16c500	0.14723587
42	0xbd844e42	-0.06460239
43	0x3c9799d2	0.018505964
44	0x3be5291b	0.0069934255
45	0xbe2a7ede	-0.16649958
46	0xbd8af2cc	-0.06784591
47	0xbdb0d471	-0.0863427
48	0xbdb29bbf	-0.087211125
49	0x3ecce487	0.40018103
50	0xbc3a391f	-0.011366158
51	0x3db94a79	0.09047408
52	0xbd915a12	-0.07097258
53	0x3cb06480	0.021532297
54	0x3da155b9	0.078776784
55	0xbe583e74	-0.21117574
56	0x3e883403	0.26602182
57	0xbcb8ed2b	-0.022574028
58	0x3d4d8674	0.050177053
59	0x3d80b498	0.062844455
60	0xbde94761	-0.113905676
61	0xbd83524b	-0.064121805
62	0x3e588184	0.21143156
63	0xbe064052	-0.13110474
64	0x3de83ea7	0.11340075
65	0x3ddf09fa	0.10890575
66	0xbe3c95b3	-0.1841648
67	0x3e74fc06	0.23924264
68	0xbde9f4e4	-0.11423662
69	0x3baee107	0.005336884
70	0xbd038a86	-0.032114528
71	0xbd2ce4a1	-0.042210225
72	0xbe0e0b95	-0.13871606
73	0x3e4144b5	0.18873866
74	0x3d616675	0.05502935
75	0x3cf0032d	0.02929839
76	0x3e217429	0.15766968
77	0x3d03a141	0.032136206
78	0xbcdcb72f	-0.026942817
79	0xbdf436b1	-0.11924494
80	0x3da25fa5	0.07928399
81	0xbe4cc96f	-0.19998716
82	0x3e2a07be	0.16604516
83	0x3dc27005	0.09494022
84	0x3beae724	0.0071686674
85	0x3d3a5e51	0.045500103
86	0xbcf3665d	-0.029711897
87	0x3c7dbecf	0.015487387
88	0x3dc9381d	0.09825156
89	0x3d9a5bda	0.075370505
90	0x3d3c4074	0.045959905
91	0xbc71b98a	-0.014753709
92	0x3e829f17	0.25512
93	0x3d6084d5	0.05481418
94	0xbdb46b20	-0.08809495
95	0x3e50c559	0.20387782
96	0x3d48fd33	0.049069595
97	0x3ca0d1bb	0.019631257
98	0x3dae052e	0.08497082
99	0xbdf094b0	-0.1174711
100	0x3d91f41d	0.07126639
101	0xbd4a805c	-0.04943882
102	0xbe3a752f	-0.18208764
103	0x3d6c5aa2	0.05770362
104	0x3dbe6118	0.09295863
105	0x3d920886	0.07130532
106	0x3e74461c	0.2385487
107	0x3e0a1e15	0.13488038
108	0x3e491f10	0.19640756
109	0x3d483c20	0.048885465
110	0xbd9b6462	-0.07587506
111	0x3d113581	0.035451416
112	0xb8a8d508	-8.0505444e-05
113	0xbd43b90a	-0.04778389
114	0xbe6ff711	-0.23434092
115	0x3e2b474a	0.16726413
116	0x3e2a32cd	0.16620941
117	0xbda54011	-0.0806886
118	0xbb82b472	-0.003988796
119	0xbe1adab2	-0.15122488
120	0xbdd6cba8	-0.10488063
121	0x3ddebab1	0.10875452
122	0xbe0c06be	-0.13674447
123	0x3e1846b2	0.14870718
124	0xbd8aee54	-0.06783739
125	0xbd808203	-0.06274798
126	0x3e433a45	0.19065197
127	0x3e530d47	0.20610534
128	0xbe2dc85a	-0.1697096
129	0x3e8506b9	0.2598169
130	0xbe71b1a6	-0.23602924
131	0xbcdf6a0e	-0.02727225
132	0xbe14cac5	-0.14530475
133	0xbe10401a	-0.14086953
134	0xbbddfe26	-0.0067746816
135	0x3e7b4be1	0.24540664
136	0xbe008524	-0.12550789
137	0x3c452018	0.0120315775
138	0xbe2aaa8d	-0.16666622
139	0x3e3856f2	0.18001917
140	0x3d7aabdf	0.061199065
141	0x3d75044a	0.059818543
142	0x3e0b8f17	0.13628803
143	0x3e350383	0.17677121
144	0xbe762eb7	-0.24041258
145	0x3c847d33	0.01617298
146	0x3e6f9e19	0.23400153
147	0x3d9a22f8	0.07526201
148	0xbda75fbc	-0.08172557
149	0xbe61775b	-0.22018187
150	0xbd57b444	-0.05266215
151	0x3e24f216	0.16107973
152	0xbd0e8c70	-0.0348019
153	0xbe5a06a0	-0.2129159
154	0x3b8b029e	0.0042422554
155	0xbd990a8f	-0.07472717
156	0xbe341770	-0.17587066
157	0xbc7f4c55	-0.015582164
158	0xbdc25343	-0.09488537
159	0x3dadfa68	0.08495027
160	0x3cef1388	0.029184118
161	0xbe83b09a	-0.25720674
162	0xbe3fca5e	-0.1872954
163	0xbdabdd40	-0.083918095
164	0x3cf0123b	0.029305568
165	0xbc2573dc	-0.010098424
166	0x3dfed77a	0.12443443
167	0x3b01008b	0.0019684162
168	0xbdcc7b22	-0.09984423
169	0x3dcb2fc1	0.09921218
170	0xbd866bdc	-0.06563541
171	0x3e04d511	0.12971903
172	0x3da52b33	0.0806488
173	0x3eb5368c	0.35393178
174	0xbb9cd690	-0.00478632
175	0x3db2de66	0.087338254
176	0x3d1b7b5b	0.037959438
177	0x3cd29f31	0.025710674
178	0x3d6e3a98	0.058161348
179	0x3e18bec2	0.14916518
180	0xbdd2698d	-0.102740385
181	0x3c1713ce	0.00922103
182	0xbda5f86f	-0.081040256
183	0xbd3859a8	-0.045007378
184	0xbce72adc	-0.02821868
185	0xbd1661bb	-0.036714297
186	0x3db5150e	0.088419065
187	0xbc6ba289	-0.014382013
188	0xbd96f119	-0.073702045
189	0x3da94b72	0.08266343
190	0x3cb5fe77	0.022216065
191	0x3cc1fe59	0.023680853
192	0xbbce38f4	-0.0062934104
193	0xbe511db1	-0.20421483
194	0xbc2d6313	-0.010582703
195	0x3d7bc7ff	0.061470028
196	0x3d8aa0d2	0.06768955
197	0xbe5208cd	-0.2051117
198	0xbc95caa7	-0.018285109
199	0xbc87fa4f	-0.016598849
200	0x3d1af1c9	0.03782824
201	0x3c731562	0.014836641
202	0x3c5b6a92	0.013392108
203	0xbd9b9031	-0.07595862
204	0x3ca8563d	0.020548934
205	0x3d63f665	0.055654902
206	0xbd79dfdd	-0.06100451
207	0x3daf8eae	0.08572136
208	0xbd12e6c9	-0.035864625
209	0x3e205f5f	0.15661381
210	0xba3f3228	-0.00072935456
211	0xbd4eaaeb	-0.05045597
212	0xbde7aaf9	-0.11311907
213	0x3dfc22e9	0.12311346
214	0xbd2b37fd	-0.04180144
215	0xbcef3f93	-0.02920512
216	0xbe474bf9	-0.19462575
217	0x3e22c712	0.15896252
218	0xbe35d9c3	-0.17758851
219	0x3b43c78a	0.0029873573
220	0x3e2add9b	0.16686098
221	0x3c6d4236	0.014481118
222	0xbdea517f	-0.114413254
223	0x3d9bfaac	0.07616171
224	0xbd08c2c4	-0.033388868
225	0x3d1f74f7	0.038929906
226	0xbdcf2d71	-0.10116089
227	0x3d20e66f	0.03928226
228	0x3e751ab1	0.23935963
229	0x3c81d81c	0.01585012
230	0x3b7c4474	0.003849295
231	0xbc975566	-0.018473338
232	0x3e000dd1	0.1250527
233	0x3dca64b2	0.09882487
234	0xbdee079f	-0.11622547
235	0xbc7ac8a5	-0.015306626
236	0xbc76c352	-0.015061216
237	0x3de5e995	0.11226193
238	0xbe022273	-0.12708454
239	0x3de563de	0.11200689
240	0xbe262e35	-0.16228564
241	0x3d1521f2	0.036409326
242	0x3d4af48a	0.049549617
243	0x3e0b583b	0.13607876
244	0x3d67d196	0.05659636
245	0xbde81eb3	-0.113339804
246	0xbdf5d783	-0.12003996
247	0x3e1d4de3	0.15361743
248	0xbd95b1cc	-0.07309303
249	0xbbef8b21	-0.0073102866
250	0xbe768437	-0.24073873
251	0x3eaeb834	0.3412491
252	0xbd673d7f	-0.05645513
253	0x3d960ed5	0.07327048
254	0x3b723a4a	0.0036961013
255	0x3accf182	0.001563594

network_body._body_endoder.seq_layers.0.bias f4 [256]
0	0x00000000	0.0
1	0x00000000	0.0
2	0x00000000	0.0
3	0x00000000	0.0
4	0x00000000	0.0
5	0x00000000	0.0
6	0x00000000	0.0
7	0x00000000	0.0
8	0x00000000	0.0
9	0x00000000	0.0
10	0x00000000	0.0
11	0x00000000	0.0
12	0x00000000	0.0
13	0x00000000	0.0
14	0x00000000	0.0
15	0x00000000	0.0
16	0x00000000	0.0
17	0x00000000	0.0
18	0x00000000	0.0
19	0x00000000	0.0
20	0x00000000	0.0
21	0x00000000	0.0
22	0x00000000	0.0
23	0x00000000	0.0
24	0x00000000	0.0
25	0x00000000	0.0
26	0x00000000	0.0
27	0x00000000	0.0
28	0x00000000	0.0
29	0x00000000	0.0
30	0x00000000	0.0
31	0x00000000	0.0
32	0x00000000	0.0
33	0x00000000	0.0
34	0x00000000	0.0
35	0x00000000	0.0
36	0x00000000	0.0
37	0x00000000	0.0
38	0x00000000	0.0
39	0x00000000	0.0
40	0x00000000	0.0
41	0x00000000	0.0
42	0x00000000	0.0
43	0x00000000	0.0
44	0x00000000	0.0
45	0x00000000	0.0
46	0x00000000	0.0
47	0x00000000	0.0
48	0x00000000	0.0
49	0x00000000	0.0
50	0x00000000	0.0
51	0x00000000	0.0
52	0x00000000	0.0
53	0x00000000	0.0
54	0x00000000	0.0
55	0x00000000	0.0
56	0x00000000	0.0
57	0x00000000	0.0
58	0x00000000	0.0
59	0x00000000	0.0
60	0x00000000	0.0
61	0x00000000	0.0
62	0x00000000	0.0
63	0x00000000	0.0
64	0x00000000	0.0
65	0x00000000	0.0
66	0x00000000	0.0
67	0x00000000	0.0
68	0x00000000	0.0
69	0x00000000	0.0
70	0x00000000	0.0
71	0x00000000	0.0
72	0x00000000	0.0
73	0x00000000	0.0
74	0x00000000	0.0
75	0x00000000	0.0
76	0x00000000	0.0
77	0x00000000	0.0
78	0x00000000	0.0
79	0x00000000	0.0
80	0x00000000	0.0
81	0x00000000	0.0
82	0x00000000	0.0
83	0x00000000	0.0
84	0x00000000	0.0
85	0x00000000	0.0
86	0x00000000	0.0
87	0x00000000	0.0
88	0x00000000	0.0
89	0x00000000	0.0
90	0x00000000	0.0
91	0x00000000	0.0
92	0x00000000	0.0
93	0x00000000	0.0
94	0x00000000	0.0
95	0x00000000	0.0
96	0x00000000	0.0
97	0x00000000	0.0
98	0x00000000	0.0
99	0x00000000	0.0
100	0x00000000	0.0
101	0x00000000	0.0
102	0x00000000	0.0
103	0x00000000	0.0
104	0x00000000	0.0
105	0x00000000	0.0
106	0x00000000	0.0
107	0x00000000	0.0
108	0x00000000	0.0
109	0x00000000	0.0
110	0x00000000	0.0
111	0x00000000	0.0
112	0x00000000	0.0
113	0x00000000	0.0
114	0x00000000	0.0
115	0x00000000	0.0
116	0x00000000	0.0
117	0x00000000	0.0
118	0x00000000	0.0
119	0x00000000	0.0
120	0x00000000	0.0
121	0x00000000	0.0
122	0x00000000	0.0
123	0x00000000	0.0
124	0x00000000	0.0
125	0x00000000	0.0
126	0x00000000	0.0
127	0x00000000	0.0
128	0x00000000	0.0
129	0x00000000	0.0
130	0x00000000	0.0
131	0x00000000	0.0
132	0x00000000	0.0
133	0x00000000	0.0
134	0x00000000	0.0
135	0x00000000	0.0
136	0x00000000	0.0
137	0x00000000	0.0
138	0x00000000	0.0
139	0x00000000	0.0
140	0x00000000	0.0
141	0x00000000	0.0
142	0x00000000	0.0
143	0x00000000	0.0
144	0x00000000	0.0
145	0x00000000	0.0
146	0x00000000	0.0
147	0x00000000	0.0
148	0x00000000	0.0
149	0x00000000	0.0
150	0x00000000	0.0
151	0x00000000	0.0
152	0x00000000	0.0
153	0x00000000	0.0
154	0x00000000	0.0
155	0x00000000	0.0
156	0x00000000	0.0
157	0x00000000	0.0
158	0x00000000	0.0
159	0x00000000	0.0
160	0x00000000	0.0
161	0x00000000	0.0
162	0x00000000	0.0
163	0x00000000	0.0
164	0x00000000	0.0
165	0x00000000	0.0
166	0x00000000	0.0
167	0x00000000	0.0
168	0x00000000	0.0
169	0x00000000	0.0
170	0x00000000	0.0
171	0x00000000	0.0
172	0x00000000	0.0
173	0x00000000	0.0
174	0x00000000	0.0
175	0x00000000	0.0
176	0x00000000	0.0
177	0x00000000	0.0
178	0x00000000	0.0
179	0x00000000	0.0
180	0x00000000	0.0
181	0x00000000	0.0
182	0x00000000	0.0
183	0x00000000	0.0
184	0x00000000	0.0
185	0x00000000	0.0
186	0x00000000	0.0
187	0x00000000	0.0
188	0x00000000	0.0
189	0x00000000	0.0
190	0x00000000	0.0
191	0x00000000	0.0
192	0x00000000	0.0
193	0x00000000	0.0
194	0x00000000	0.0
195	0x00000000	0.0
196	0x00000000	0.0
197	0x00000000	0.0
198	0x00000000	0.0
199	0x00000000	0.0
200	0x00000000	0.0
201	0x00000000	0.0
202	0x00000000	0.0
203	0x00000000	0.0
204	0x00000000	0.0
205	0x00000000	0.0
206	0x00000000	0.0
207	0x00000000	0.0
208	0x00000000	0.0
209	0x00000000	0.0
210	0x00000000	0.0
211	0x00000000	0.0
212	0x00000000	0.0
213	0x00000000	0.0
214	0x00000000	0.0
215	0x00000000	0.0
216	0x00000000	0.0
217	0x00000000	0.0
218	0x00000000	0.0
219	0x00000000	0.0
220	0x00000000	0.0
221	0x00000000	0.0
222	0x00000000	0.0
223	0x00000000	0.0
224	0x00000000	0.0
225	0x00000000	0.0
226	0x00000000	0.0
227	0x00000000	0.0
228	0x00000000	0.0
229	0x00000000	0.0
230	0x00000000	0.0
231	0x00000000	0.0
232	0x00000000	0.0
233	0x00000000	0.0
234	0x00000000	0.0
235	0x00000000	0.0
236	0x00000000	0.0
237	0x00000000	0.0
238	0x00000000	0.0
239	0x00000000	0.0
240	0x00000000	0.0
241	0x00000000	0.0
242	0x00000000	0.0
243	0x00000000	0.0
244	0x00000000	0.0
245	0x00000000	0.0
246	0x00000000	0.0
247	0x00000000	0.0
248	0x00000000	0.0
249	0x00000000	0.0
250	0x00000000	0.0
251	0x00000000	0.0
252	0x00000000	0.0
253	0x00000000	0.0
254	0x00000000	0.0
255	0x00000000	0.0

network_body._body_endoder.seq_layers.2.weight f4 [256, 256]
0	0x3c5fbb35	0.0136554735
1	0x3d82a838	0.063797414
2	0x3d67f404	0.056629196
3	0x3c9c5138	0.019081697
4	0x3c2c8e38	0.0105319545
5	0xbc7d1cc5	-0.015448754
6	0xbd745435	-0.05965062
7	0x3ca1d970	0.019757003
8	0xbd8ece2b	-0.06972917
9	0x3b1cd3f1	0.0023930038
10	0x3daa10e8	0.08304006
11	0x3d3dec70	0.046368062
12	0x3dace0f4	0.08441344
13	0x3d19a8ef	0.037514623
14	0xbd3f37e3	-0.046684157
15	0x3c87152a	0.016489584
16	0x3d11f722	0.035636075
17	0x3d89cf19	0.06728954
18	0x3e0a6ca9	0.13518013
19	0xbdc4768f	-0.09592926
20	0x3d5fb720	0.054618
21	0xbc88154b	-0.016611716
22	0x3d165df4	0.036710694
23	0x3dc18637	0.094494276
24	0xbe02f357	-0.1278814
25	0x3d1ed0a9	0.038773213
26	0xbd09d3a0	-0.033649087
27	0xbd8d59fa	-0.06901927
28	0x3ce17eb6	0.02752624
29	0x3c227485	0.009915476
30	0x3cc13851	0.023586424
31	0xbcffe2a6	-0.031236004
32	0x3c9a11bc	0.018807285
33	0x3c4d66e5	0.012536739
34	0xbb210429	-0.002456913
35	0x3d28a412	0.041172095
36	0x3d0988f1	0.033577863
37	0xbc4d719e	-0.0125392955
38	0xbb858c40	-0.004075557
39	0xbd28aabf	-0.04117846
40	0x3d9faeff	0.0779705
41	0x3c5c05c1	0.013429106
42	0xb8e2226c	-0.00010782931
43	0xbd17406f	-0.036926683
44	0x3c85a8aa	0.016315777
45	0xbdf70c71	-0.1206292
46	0xbd386d27	-0.04502597
47	0xbda0b9b6	-0.078479216
48	0xbc8cabb5	-0.01717172
49	0x3c34065e	0.010987846
50	0x3d1aaeb7	0.037764277
51	0xbcf4ad00	-0.02986765
52	0x3d287c3d	0.041134108
53	0x3ce3ce94	0.027808465
54	0xbcd6e4ea	-0.026232202
55	0x3cf963ae	0.030443039
56	0xbe4097af	-0.18807863
57	0xbc5e75a8	-0.013577856
58	0xbd9d1d81	-0.07671643
59	0x3d2d6006	0.042327903
60	0xbdc82f14	-0.097746044
61	0x3b8cadb7	0.0042931694
62	0xbc7281e3	-0.014801475
63	0x3d3d373a	0.046195246
64	0x3d29f6ff	0.04149532
65	0xbd922994	-0.07136837
66	0x3c22e2ae	0.00994174
67	0xbdc1d232	-0.0946392
68	0x3a0b2509	0.0005307948
69	0x3d9934be	0.07480763
70	0x3d8db496	0.0691921
71	0xbd31f354	-0.043444946
72	0xbcfd036d	-0.030885423
73	0x3de450c8	0.1114822
74	0xbde88a68	-0.11354524
75	0xbc95aed8	-0.018271849
76	0xbcdb2f33	-0.026755905
77	0x3d88ed08	0.06685835
78	0xbc9cf5fb	-0.019160261
79	0xbc2bf9fe	-0.0104966145
80	0x3bfd15e8	0.0077235587
81	0x3dabd445	0.083900966
82	0xbd60e2f9	-0.054903958
83	0x3c7e3882	0.015516402
84	0x3cd2b00f	0.025718717
85	0x3de016f4	0.10941878
86	0x3ddd57cc	0.108077615
87	0x3d80c505	0.062875785
88	0x3ca94b98	0.020665929
89	0x3c9d69be	0.01921546
90	0xbd383f6e	-0.044982366
91	0xbc13aacb	-0.009012888
92	0x3d272abf	0.04081225
93	0x3daf790d	0.085680105
94	0x3ca6d84d	0.020366812
95	0x3cfb18b1	0.030651422
96	0xbc280189	-0.010254272
97	0xbd792d12	-0.060833998
98	0xbd4e7487	-0.050404098
99	0xbd15cea7	-0.036574032
100	0x3b00ceb3	0.0019654452
101	0x3ae5e078	0.001753821
102	0x3d287f1a	0.04113684
103	0x3cac6e51	0.021048697
104	0x3df1246f	0.11774527
105	0xbc993af2	-0.018704865
106	0xbdb64c95	-0.089013256
107	0xbcd89ad7	-0.02644102
108	0x3db03c2d	0.086052276
109	0x3d6f6f7f	0.05845594
110	0xbcbf2348	-0.023332253
111	0x3d7f2a7c	0.062296376
112	0x3dbbeaac	0.091756195
113	0x3d37f40d	0.04491048
114	0x3c13c3ea	0.0090188775
115	0x3d854d16	0.065088436
116	0xbdfeaefa	-0.12435718
117	0xbc749ed2	-0.014930444
118	0xbdd6c86e	-0.10487448
119	0x3d59a960	0.053140044
120	0xbd00f960	-0.031487823
121	0x3d566945	0.052346487
122	0xbdffd76a	-0.12492259
123	0x3dbc1165	0.09183005
124	0xbdeb7980	-0.11497784
125	0xbc7310ee	-0.014835579
126	0xbd55e048	-0.052215844
127	0xbd772ea9	-0.060347233
128	0x3d954197	0.07287901
129	0x3e1a07ce	0.1504204
130	0x3d805dd0	0.06267893
131	0x3d9437df	0.07237219
132	0xbd06568f	-0.032797392
133	0x3d89d8a1	0.06730772
134	0xbb5f29b6	-0.0034051961
135	0xbd8472aa	-0.06467183
136	0x3caa4bcd	0.020788098
137	0xbd6c90a4	-0.057755128
138	0xbca441a2	-0.020050827
139	0xbd957ec9	-0.07299573
140	0x3cff1a31	0.031140419
141	0x3d686b12	0.056742735
142	0x3d6285ba	0.055303313
143	0x3b2c151f	0.0026257706
144	0xbdee5655	-0.1163756
145	0x3c975fc7	0.018478287
146	0x3d7194aa	0.058979668
147	0xbb67cb93	-0.0035369142
148	0x3be43b02	0.006965042
149	0xbc733685	-0.014844541
150	0x3d717b7e	0.058955662
151	0xbcafc86a	-0.02145787
152	0x3c702dd6	0.014659366
153	0x3d238c7a	0.03992889
154	0x3d097422	0.03355802
155	0xbc6842b6	-0.014176061
156	0xbdbd19ca	-0.092334345
157	0xbdbeb794	-0.093123585
158	0xbc8cf232	-0.017205331
159	0xbc83854b	-0.01605477
160	0x3d027687	0.031851318
161	0xbdc1cfc9	-0.0946346
162	0xbdc08a37	-0.094013624
163	0xbd6e17a2	-0.058128007
164	0x3c4c1a5b	0.0124574555
165	0x3dc21ef9	0.09478564
166	0x3b94480b	0.0045251898
167	0x3d1ffb10	0.03905779
168	0x3ddc60b9	0.10760636
169	0x3be75a14	0.0070602987
170	0xbe21df67	-0.15807877
171	0x3d4cc2a6	0.04999032
172	0x3c279af5	0.010229816
173	0xbd7b3376	-0.061328374
174	0xbd1ca091	-0.038239066
175	0x3d0052d7	0.031329002
176	0x3cc17ce8	0.02361913
177	0xbd81ea83	-0.06343558
178	0xbd41f412	-0.047351904
179	0xbe0cf4e0	-0.13765287
180	0x3bf38b53	0.00743238
181	0x3dcea3b7	0.1008982
182	0xbc28cffc	-0.010303494
183	0xbce600f3	-0.028076624
184	0x3d6b6b6d	0.057475496
185	0x3d832460	0.06403422
186	0xbc87ec09	-0.016592043
187	0xbd04469f	-0.032293912
188	0x3c593c62	0.013259025
189	0x3cb1cdfc	0.021704666
190	0xbd1226d9	-0.03568158
191	0xbd8a5ab5	-0.06755582
192	0x3db1b67a	0.08677383
193	0x3e0918a2	0.13388303
194	0xbbaa2c7c	-0.005193291
195	0x3e01e607	0.12685405
196	0x3d56ae41	0.052412275
197	0x3e010b45	0.12601955
198	0xbd431068	-0.047623068
199	0x3d32ca94	0.043650225
200	0xbd3a3cb9	-0.045468066
201	0x3d584943	0.052804243
202	0x39c09700	0.00036733598
203	0xbd74277e	-0.059607975
204	0xbc87b306	-0.016564857
205	0xbc628617	-0.013825915
206	0x3d1bb713	0.03801639
207	0xbd81757f	-0.06321239
208	0xbd3521f7	-0.044221845
209	0x3d549b2a	0.05190579
210	0x3c3bc4b2	0.01146047
211	0xbc1e5167	-0.0096629625
212	0xbde574fd	-0.11203954
213	0x3d5bed73	0.053693246
214	0xbd6f3863	-0.058403384
215	0x3dfbab9a	0.1228859
216	0x3d23f19d	0.040025342
217	0x3e27e62c	0.16396397
218	0x3d052a04	0.032510772
219	0xbd360b8f	-0.044444617
220	0x3d0070d4	0.0313576
221	0xbd32e73c	-0.043677554
222	0x3d9b601c	0.07586691
223	0xbd7a02ed	-0.061037946
224	0xbe1b7959	-0.15183009
225	0x3cdea016	0.027175944
226	0x3c696043	0.014244142
227	0x3caf7b15	0.021420995
228	0x3bbb8823	0.005723016
229	0x3ca385bb	0.019961229
230	0x3cfef873	0.03112433
231	0x3d509ca5	0.050930638
232	0xbcf40f80	-0.029792547
233	0x3c072340	0.00824815
234	0x3d57bdb7	0.05267116
235	0xbd941276	-0.07230084
236	0xbca005cf	-0.01953402
237	0x3c9b9f6a	0.018996913
238	0xbc975684	-0.018473871
239	0x3d8a6882	0.067582145
240	0xbd43966c	-0.047750875
241	0x3d151fde	0.036407344
242	0x3d987c8f	0.07445633
243	0xbd773b35	-0.0603592
244	0xbd0f74e6	-0.035023592
245	0xbb57d78c	-0.0032934872
246	0xbcaaa9af	-0.020832865
247	0x3cc397d3	0.023876106
248	0x3c6369db	0.013880218
249	0x3d43d01a	0.047805883
250	0x3c374a76	0.011187186
251	0xbc3971c4	-0.011318628
252	0x3cc7b1b5	0.02437673
253	0xbc91f7f5	-0.01781843
254	0xbd52656c	-0.051366255
255	0xbd90a9bc	-0.07063624

action_model._continuous_distribution.log_sigma f4 [1, 12]
0	0x00000000	0.0
1	0x00000000	0.0
2	0x00000000	0.0
3	0x00000000	0.0
4	0x00000000	0.0
5	0x00000000	0.0
6	0x00000000	0.0
7	0x00000000	0.0
8	0x00000000	0.0
9	0x00000000	0.0
10	0x00000000	0.0
11	0x00000000	0.0

action_model._continuous_distribution.mu.weight f4 [12, 256]
0	0xbc082bf9	-0.008311265
1	0xbc6a23cf	-0.014290764
2	0xbbb68a73	-0.0055707037
3	0xbc7655b3	-0.015035081
4	0xbb00aaaf	-0.0019632985
5	0xbc8dccda	-0.017309595
6	0x3b4b5fe7	0.0031032504
7	0xbaf920fb	-0.0019007021
8	0xbc024629	-0.007951298
9	0x3bc7f354	0.006102005
10	0x3b2b7630	0.0026162975
11	0xbbd273cb	-0.006422495
12	0x3c253816	0.010084173
13	0x3c13ad43	0.009013477
14	0xb920ae65	-0.00015323756
15	0xbb852557	-0.004063289
16	0xb9b80650	-0.00035099918
17	0xbb5617a7	-0.0032667906
18	0xbc4c7c43	-0.012480798
19	0xbc4adc71	-0.012381659
20	0xbbc32cfe	-0.005956291
21	0xbb1d89d4	-0.002403845
22	0xbaaf5630	-0.0013377126
23	0xbc09a0b2	-0.008400129
24	0x39fd042f	0.00048259037
25	0xbb9a130f	-0.004701979
26	0x3c555770	0.013021335
27	0xbc4892da	-0.012242043
28	0xb9fca2e5	-0.0004818655
29	0x3bb39c0f	0.00548125
30	0xbc342a63	-0.010996434
31	0x3c65c27b	0.014023419
32	0x3d2b2223	0.041780602
33	0xbc8a5eb2	-0.016890857
34	0xbc1c5bbb	-0.009543355
35	0x3b5c397b	0.0033603597
36	0x3c73120d	0.014835847
37	0xbbe58c4f	-0.0070052515
38	0x3b00bf0f	0.001964513
39	0x3b28d690	0.0025762655
40	0xbb55ed82	-0.0032642786
41	0x3ba1cc9c	0.0049377214
42	0xbc549c50	-0.012976721
43	0x3b2edb4b	0.0026681002
44	0x3b977bcf	0.0046229134
45	0x3b7b5593	0.0038350567
46	0xbbd69dd7	-0.0065495777
47	0xbc48c87b	-0.0122548295
48	0xbb0f10e6	-0.002183014
49	0x3c325953	0.010885554
50	0xb9c9dc65	-0.00038501914
51	0xbc4af92f	-0.012388512
52	0x3bd3966b	0.00645714
53	0x3c948ba3	0.01813299
54	0xbc4046bc	-0.011735614
55	0x3c747cc3	0.014922324
56	0x3cb8ad84	0.022543676
57	0x3c979c62	0.018507186
58	0x3a1ac864	0.00059044943
59	0xbc39bcf7	-0.011336557
60	0x3c82641f	0.015916882
61	0xbc79d69a	-0.015248919
62	0xbca19721	-0.019725384
63	0xbc3927d7	-0.011301002
64	0x3a9e8673	0.0012094512
65	0x39fc7db2	0.00048158836
66	0x3cd2e3bf	0.025743363
67	0xbaec3b75	-0.0018023091
68	0x3d0f2d9a	0.0349556
69	0xbb241dff	-0.0025042293
70	0xb9ae2809	-0.00033217695
71	0xbcb55712	-0.022136245
72	0xba313603	-0.00067600625
73	0x3d00efab	0.031478565
74	0x3c4adf6c	0.0123823695
75	0xbc50ee5d	-0.012752143
76	0xbc281bff	-0.010260581
77	0x3c8f6a41	0.01750672
78	0xbc15c111	-0.009140269
79	0x3bd3d6fb	0.0064648367
80	0x3caab4a7	0.020838095
81	0x3c3c4e11	0.011493222
82	0xbc7738d5	-0.015089233
83	0xbbe22593	-0.006901452
84	0x3cb43d86	0.022001993
85	0xbd2687f4	-0.040657
86	0xb9cdc132	-0.0003924459
87	0x3c86cb50	0.016454369
88	0xbbf9a95b	-0.0076190657
89	0x3c10fd20	0.008849412
90	0xbc01a20b	-0.007912169
91	0x3c27a1ef	0.010231479
92	0xbcb36583	-0.02189899
93	0x3ca12b42	0.019673947
94	0x3afcca98	0.0019286452
95	0xbb081bd2	-0.0020768535
96	0x3ce1a81d	0.027545983
97	0x3c955e85	0.018233547
98	0xbc690a78	-0.014223687
99	0x3cde46f8	0.02713345
100	0xba29b6de	-0.0006474088
101	0xbc17a4ae	-0.009255571
102	0x3c0c7c31	0.008574531
103	0xbc6a771a	-0.014310623
104	0xbb7f5c98	-0.0038965102
105	0x3d1f1bdf	0.03884494
106	0x3c3fae90	0.011699334
107	0x3c7f4ffa	0.015583033
108	0xbc04fa9b	-0.00811639
109	0xbb9b8331	-0.004745864
110	0x3b86273b	0.004094032
111	0x3c0e87f6	0.008699408
112	0xbbf1dd18	-0.0073810928
113	0xbb5b71a5	-0.0033484485
114	0x3c4875b4	0.012235094
115	0x3c0c455a	0.008561457
116	0x3b6c5172	0.0036059287
117	0xbcc448ef	-0.023960559
118	0x3b717f03	0.0036849387
119	0xbb4db8c2	-0.0031390642
120	0x3b738d02	0.0037162905
121	0xbb0a6487	-0.0021117048
122	0xbc70de7f	-0.014701485
123	0x3bdf7172	0.0068189437
124	0xbbf6243b	-0.007511643
125	0x38dabe08	0.00010430446
126	0xbbf94fa0	-0.007608369
127	0xbc145b63	-0.009054991
128	0x3bd5f5ed	0.006529561
129	0x3cbf439b	0.023347666
130	0x3a3f5c7a	0.0007299852
131	0xbc927fb7	-0.017883165
132	0xbb46b3a4	-0.0030319477
133	0xbcbdd9cb	-0.02317514
134	0x3be4a042	0.006977112
135	0xbb72965b	-0.0037015888
136	0xbc431f13	-0.011909264
137	0xb963c4c2	-0.00021721705
138	0xbc2bc844	-0.010484759
139	0xbcc32db5	-0.023825506
140	0x3ccf516b	0.025307378
141	0x3bac2636	0.0052535785
142	0xbc9f758e	-0.019465234
143	0xbbd83213	-0.006597766
144	0x3c0a4c07	0.008440978
145	0xbbbe26fc	-0.005802987
146	0xbcdca028	-0.026931837
147	0xbbaf1a90	-0.0053437427
148	0xbc17b3ac	-0.009259146
149	0x3c14fb4b	0.009093116
150	0x3c1c1259	0.009525859
151	0xbc05b964	-0.008161876
152	0x3baaab56	0.005208413
153	0xbae40d3d	-0.0017398965
154	0x3bfe609f	0.007762983
155	0xba381007	-0.0007021431
156	0xbc5e7eb3	-0.013580012
157	0x3cadae1d	0.021201188
158	0xbbb88834	-0.005631471
159	0x3cad9947	0.021191252
160	0xbbf99952	-0.007617154
161	0xbbc67994	-0.0060569737
162	0xbbbe3f66	-0.0058058975
163	0xbc7a5a23	-0.015280279
164	0x3c0d90e4	0.008640502
165	0xbbb8a07e	-0.0056343665
166	0x3b4fb69d	0.003169454
167	0xbbfca9fd	-0.007710694
168	0x3bc9a8b2	0.0061541433
169	0x3a2d5c5b	0.00066131883
170	0x3b909100	0.0044118166
171	0xbb10eb3d	-0.002211287
172	0x3ca1232d	0.019670093
173	0xbb8764b4	-0.004131878
174	0xbc9b3c8e	-0.018949773
175	0x3bada926	0.005299705
176	0x3cb7a43f	0.022417186
177	0x3c147fd0	0.009063676
178	0x3c8f5393	0.017495906
179	0xbac0a6ac	-0.001469811
180	0x3c8d3ebe	0.017241832
181	0x3ba1d82b	0.0049390993
182	0xbc3929e2	-0.01130149
183	0xbc8e9708	-0.017406002
184	0xbc7e46a0	-0.015519768
185	0x3bd5a2ab	0.0065196357
186	0x3a898fd0	0.001049513
187	0x3c38853f	0.011262237
188	0xbbdbd79d	-0.0067090527
189	0xbbeaffa5	-0.0071715885
190	0x3aacdcc0	0.0013188347
191	0xbb627448	-0.0034554172
192	0x3c31020e	0.0108037125
193	0x3b884867	0.0041590217
194	0xbcbad729	-0.022807674
195	0xbc6ba2c2	-0.014382066
196	0xbca1256b	-0.019671163
197	0xbc0ab344	-0.008465592
198	0xbb6fcf35	-0.003659201
199	0xbc84ee1e	-0.016226824
200	0x399bcc18	0.00029715966
201	0xbbd4bafb	-0.0064920164
202	0xbc0d4577	-0.008622519
203	0x3c096d86	0.008387929
204	0x3c9d1ecf	0.01917973
205	0xbb6b5445	-0.0035908383
206	0xbbd252ff	-0.0064185853
207	0xbbd50a4f	-0.006501473
208	0xbc8d761b	-0.017268231
209	0xbbc479b4	-0.0059959535
210	0x3a414eef	0.0007374128
211	0x3be2e1db	0.0069238967
212	0xbbb5dcb0	-0.0055499896
213	0x3af9fcbf	0.0019072517
214	0x3cc79e2e	0.024367418
215	0xba42dd37	-0.0007433476
216	0x3a7828b0	0.0009466512
217	0xbbecdcda	-0.007228476
218	0xbc812367	-0.015763951
219	0xbb951aa5	-0.0045502954
220	0x3917df1b	0.00014483595
221	0x3b56164b	0.0032667096
222	0x3c917a13	0.017758405
223	0x3c43aafd	0.011942622
224	0x3b1a6fff	0.002356529
225	0x3a4af6c9	0.00077424623
226	0xbc91df3f	-0.017806647
227	0x3be17cdf	0.006881341
228	0xbc7d90ff	-0.015476464
229	0x3cc4ed70	0.024039
230	0x3ba63f71	0.005073481
231	0x3aed2442	0.0018092471
232	0x3c6c1de0	0.01441142
233	0xbc39d5ec	-0.011342507
234	0xbafc9b35	-0.001927233
235	0x3cca7696	0.02471475
236	0x3b8b77b7	0.0042562145
237	0xbca62b1d	-0.02028423
238	0xbbe06d7d	-0.0068489895
239	0x3cf945f2	0.03042886
240	0xbb7c5abd	-0.0038506233
241	0x3c865ca3	0.016401595
242	0x3adff4fb	0.001708656
243	0x3c809196	0.01569442
244	0x3bb34c67	0.0054717544
245	0x3cb1782b	0.021663746
246	0xbb25189c	-0.002519167
247	0x3c218244	0.009857718
248	0x3c8d4243	0.01724351
249	0xbbb08808	-0.00538731
250	0x3cf2c885	0.02963663
251	0x3c3df821	0.011594803
252	0xbbe37e62	-0.0069425562
253	0xbc7c1f3a	-0.015388304
254	0x3c88ddff	0.016707418
255	0xbc9a0d05	-0.018805036

action_model._continuous_distribution.mu.bias f4 [12]
0	0x00000000	0.0
1	0x00000000	0.0
2	0x00000000	0.0
3	0x00000000	0.0
4	0x00000000	0.0
5	0x00000000	0.0
6	0x00000000	0.0
7	0x00000000	0.0
8	0x00000000	0.0
9	0x00000000	0.0
10	0x00000000	0.0
11	0x00000000	0.0

onnx::Div_51 f4 [74]
0	0x3f800000	1.0
1	0x3f800000	1.0
2	0x3f800000	1.0
3	0x3f800000	1.0
4	0x3f800000	1.0
5	0x3f800000	1.0
6	0x3f800000	1.0
7	0x3f800000	1.0
8	0x3f800000	1.0
9	0x3f800000	1.0
10	0x3f800000	1.0
11	0x3f800000	1.0
12	0x3f800000	1.0
13	0x3f800000	1.0
14	0x3f800000	1.0
15	0x3f800000	1.0
16	0x3f800000	1.0
17	0x3f800000	1.0
18	0x3f800000	1.0
19	0x3f800000	1.0
20	0x3f800000	1.0
21	0x3f800000	1.0
22	0x3f800000	1.0
23	0x3f800000	1.0
24	0x3f800000	1.0
25	0x3f800000	1.0
26	0x3f800000	1.0
27	0x3f800000	1.0
28	0x3f800000	1.0
29	0x3f800000	1.0
30	0x3f800000	1.0
31	0x3f800000	1.0
32	0x3f800000	1.0
33	0x3f800000	1.0
34	0x3f800000	1.0
35	0x3f800000	1.0
36	0x3f800000	1.0
37	0x3f800000	1.0
38	0x3f800000	1.0
39	0x3f800000	1.0
40	0x3f800000	1.0
41	0x3f800000	1.0
42	0x3f800000	1.0
43	0x3f800000	1.0
44	0x3f800000	1.0
45	0x3f800000	1.0
46	0x3f800000	1.0
47	0x3f800000	1.0
48	0x3f800000	1.0
49	0x3f800000	1.0
50	0x3f800000	1.0
51	0x3f800000	1.0
52	0x3f800000	1.0
53	0x3f800000	1.0
54	0x3f800000	1.0
55	0x3f800000	1.0
56	0x3f800000	1.0
57	0x3f800000	1.0
58	0x3f800000	1.0
59	0x3f800000	1.0
60	0x3f800000	1.0
61	0x3f800000	1.0
62	0x3f800000	1.0
63	0x3f800000	1.0
64	0x3f800000	1.0
65	0x3f800000	1.0
66	0x3f800000	1.0
67	0x3f800000	1.0
68	0x3f800000	1.0
69	0x3f800000	1.0
70	0x3f800000	1.0
71	0x3f800000	1.0
72	0x3f800000	1.0
73	0x3f800000	1.0
