results/packaging_fix_test_01/RobotAgent/RobotAgent-499000.onnx (onnx, 358242 bytes, 9 tensors)

network_body.observation_encoder.processors.0.normalizer.running_mean f4 [74]
00000000: 35f6 75bb a005 08bc d314 cd3c 2fec 6d3c
00000010: cb21 f63c f045 b0bc 37e8 793f 1f63 4141
00000020: c016 e63f 55d9 42bf b6c0 283d a456 dfba
00000030: 6f54 c1ba 8cc6 7f3f 44ab 7f3f f7e9 d6bc
00000040: d563 7bbf aa73 813a 3c9f 343e a5eb cfb9
00000050: f48e 74bb a5e3 7b3f 05de 7f3f 7248 e7bd
00000060: 639f 72bf e31a 273b 0d11 323d fe59 853a
00000070: cc1f 813b dcbf 7f3f 2bc8 7f3f 46c6 e2bc
00000080: 4216 7a3f b1c0 26bb c577 353e c6fe 943b
00000090: 1a56 86bb ecd8 7b3f b733 7f3f 7c67 e8bd
000000a0: 709f 7b3f 5f83 0f3b cb60 203d 3778 32b9
000000b0: a02e 883b 37cb 7f3f baec 7f3f 9c41 ccbc
000000c0: 90da 783f 2e88 2dbb 6308 8e3e fc25 00ba
000000d0: 8469 4c3c 42d6 753f e6da 7f3f 3646 37be
000000e0: 0852 7b3f 676d 12bc 2575 373d ab86 e3bb
000000f0: 7f8a 093b 79ba 7f3f e3cf 7e3f b0bd e9bc
00000100: c991 7abf 1c07 95ba 6515 8e3e d537 39ba
00000110: 7f19 b73b abd8 753f e7d1 7f3f a85a 37be
00000120: bb67 7b3f fdb0 7fbb
-0.0037530784 -0.008302122 0.025034344 0.014521643 0.03004541 -0.021517724 0.97619957 12.0866995
1.7975693 -0.7611287 0.04119941 -0.0017039371 -0.0014749895 0.99912333 0.99870706 -0.02623461
-0.98199207 0.000987639 0.17638868 -0.00039657686 -0.0037316652 0.98394233 0.9994815 -0.11293115
-0.94774455 0.0025498203 0.043473292 0.0010173914 0.003940558 0.9990213 0.9991481 -0.027682435
0.9769021 -0.0025444443 0.1772147 0.004546973 -0.0040996196 0.9837787 0.99688286 -0.11347863
0.9829016 0.0021898372 0.03915481 -0.00017020186 0.0041559488 0.99919456 0.9997059 -0.024933629
0.972085 -0.0026478874 0.27740774 -0.00048884726 0.012476329 0.96030056 0.9994339 -0.17897877
0.98172045 -0.008937216 0.044789452 -0.006943544 0.002098709 0.9989391 0.9953596 -0.028532833
-0.978787 -0.0011369917 0.27750698 -0.00070655096 0.005587756 0.96033734 0.9992966 -0.17905676
0.98205155 -0.0039015405

network_body._body_endoder.seq_layers.0.weight f4 [256, 74]
00000000: 229f d0bd 48f8 96bd 21e7 60be bf18 b03d
00000010: 725e 3b3e 4f69 66bd 5017 f93d b34d 3d3e
00000020: 4c7c 35be 39cf 38bc 445d b6bd 10e6 11be
00000030: 672f b3bd 2421 833d 83d4 9b3d 28b7 f6bd
00000040: 91b0 973c 1640 70bd 64e1 73bc 239f 1e3d
00000050: fcfc c73d 07fe edbd 9b60 14be 4b83 b83e
00000060: 1358 a7bd 867e 86bd 091c 5ebe 4703 083e
00000070: aff7 cbbc 1c0e 30be b201 313e 3453 4d3d
00000080: b5c5 f93c 3edc 0c3d 74ba 183e dcb5 023d
00000090: 448c 39be ddf2 f8bb 3ff3 963d 6813 683c
000000a0: da0d 4bbd b1e8 94be cdd9 573b 7027 853e
000000b0: 64b2 aa3d d9bd 9c3c 1185 bcbb d2a7 063e
000000c0: d6e9 b8bb ba45 fabd 548f 0fbd ca31 b3bd
000000d0: c3dd 5bbd a599 763d 1509 f93d 8ec8 2e3e
000000e0: 21b5 6e3d 2a30 073e e820 543b 5d1a 123c
000000f0: 343d fdba 0dc8 d83c 2aaf 08bd fef9 393d
00000100: 36c8 afbd e3b9 13bd dd78 0dbe a0f6 38be
00000110: 6077 ca3d e789 6ebc 3009 f1bb dce6 833c
00000120: 9703 12be 4b70 bdbc bf0a 1f3d 3d59 1c3e
00000130: 5d84 113e f966 903d 67a7 98bd cfd3 83bd
00000140: c6e0 4dbe 7f86 7fbd 4e3a 14bd abe5 ad3d
00000150: 3df0 55be a2e2 1fbd e3e9 043e 7cb2 48bd
00000160: 5bf9 283d 3b52 3ebc 13c7 d9bd 0c03 8bbb
00000170: 0085 743d 1390 23bd dde2 25bd 6723 183e
00000180: 45c1 c73c 0dbb 72bc 38a6 093e ccf2 0e3e
00000190: ab80 153e 235f 5ebd 4530 5fbe a98a fabd
000001a0: 7824 d3bd 3555 c13b bc7c 44be ec02 a83d
000001b0: ba7b a2bd 8cef 873d 099a ecbd 9bc1 14bb
000001c0: c232 4f3e 86d8 d9bd e76f d9bc 2676 60bd
000001d0: 6631 6f3d 55c2 fbbd 701f 103d 4b05 99bd
000001e0: b2d4 1c3e d211 fcbd 8708 02bd 4c54 76be
000001f0: 3e1a a7ba dff7 84bd 7539 51be 5469 cdbd
00000200: aef2 923d 398b 75ba 7536 733c e63e ae3a
00000210: 2823 e53d 2762 be3d 4bb9 bd3d 4dcd c33d
00000220: cc76 733c 1aae f0bd 1264 873d 8020 a63c
00000230: 6069 973d 339e 63bd 71c0 413e 3a51 813d
00000240: cdcb 1fbe cba3 bc3d fa5b 133d 6904 5ebd
00000250: 1e87 11be 6f7b 90bd 4698 213e 1a86 a9bd
00000260: e01b 41bd a013 063e 8c2a b33c ae60 143e
00000270: 79f3 8e3a 8aae 043d 651f e3bc d251 023e
00000280: d87e 94be 94e2 793d 1f7f 273e 74a4 0fbe
00000290: 3655 2e3e 6564 5fbc cadb 11bd e5b8 a5bd
000002a0: d8e1 c53d 1118 a63d adf7 f83d 6ca5 9b3d
000002b0: ee58 bbbd 9a1f a43c b7ad d5bd 1e24 973c
000002c0: 1fb2 02be ccba 14be 7c0f 61be 6cd9 743e
000002d0: ec14 16be 4e2f a1bb c161 98bd 2f56 8a3d
000002e0: 54fd 7bbc 872c 86bd bb2d 043c d26f 19be
000002f0: efd6 323e 7962 ee3c 85fb 1b3e b1ea 8fbc
00000300: 52c8 623d 75cc eebc 1758 573e 904c 433e
00000310: 61b2 553e 98c4 fe3d f6cb 033e 9f84 1dbe
00000320: ed7e 5cbd 17cd de3d 1981 263d cd49 7abc
00000330: 5c54 10be 3587 c1bc 5adc 993d 3e4c 613d
00000340: c928 323e 06af 80be 911f 56be 4555 9d3d
00000350: ce67 8f3d 9a2b 24bc aae0 1f3e 81dd 6bbe
00000360: 5809 d93d b11f 733e 977d ebbd 5c33 783c
00000370: d902 03bd a049 bdbb c19f c4be 5f22 40be
00000380: b8d1 233e e234 c4bd 566b 0d3e 951b 38be
00000390: db5e af3d b57c f13b ad0c ebbd ce37 9abc
000003a0: fa59 a53d 76d8 2d3b 46e6 e9bd 751d d5bd
000003b0: 93a8 49be da81 a83c 712f 283e ca71 f93d
000003c0: bba0 cf3d dc67 d93d 5d99 a7be ce00 ae3c
000003d0: 033a febc 56a4 3b3e b526 193e fd60 0ebe
000003e0: 90d2 c7bc 9245 ddbc c93b 1f3e a969 51bc
000003f0: 8e1c 3b3d 8e14 613d d947 a03c be7e 06bd
-0.10186602 -0.07371575 -0.21963169 0.0859847 0.18297747 -0.056252774 0.1216265 0.18486671
-0.17723197 -0.0112798745 -0.08904508 -0.14247918 -0.08749276 0.064028054 0.07608893 -0.12046653
0.01851681 -0.058654867 -0.01488528 0.038725983 0.0976505 -0.116207175 -0.14489977 0.3603767
-0.08171096 -0.06567101 -0.21690382 0.132825 -0.024898378 -0.17192882 0.17285803 0.050128177
0.030489782 0.034389727 0.14914876 0.031911716 -0.18119913 -0.007597311 0.07370614 0.014164783
-0.049573757 -0.2908378 0.0032936216 0.2600665 0.083348066 0.019133495 -0.0057531674 0.13149956
-0.00564311 -0.122203305 -0.035048798 -0.08749731 -0.053678285 0.06020512 0.121599354 0.17068693
0.058278207 0.13201967 0.0032368246 0.008917418 -0.0019320608 0.02646258 -0.033370174 0.045404427
-0.08583109 -0.036065947 -0.13815637 -0.1806283 0.0988605 -0.014559246 -0.0073558316 0.016101293
-0.14259182 -0.023124835 0.038828608 0.15268417 0.14210649 0.070508905 -0.074538045 -0.06436884
-0.20105276 -0.062384125 -0.036188416 0.08491071 -0.20892425 -0.039034493 0.12979846 -0.04899834
0.04125343 -0.011616285 -0.106336735 -0.0042423066 0.05969715 -0.03993232 -0.040499557 0.14857255
0.02438415 -0.014815104 0.13442314 0.13959807 0.14599864 -0.05428995 -0.21795757 -0.122334786
-0.1030969 0.00590005 -0.19188207 0.08203682 -0.07933755 0.06637487 -0.115528174 -0.0022698406
0.20234206 -0.10637002 -0.026542617 -0.054800175 0.05839672 -0.12292925 0.03518623 -0.07471713
0.15315512 -0.123080865 -0.031746414 -0.24055594 -0.001274891 -0.0649259 -0.20432074 -0.10029855
0.07175194 -0.0009366754 0.014844527 0.0013293892 0.11188346 0.09296065 0.092638575 0.095606424
0.014859866 -0.11751957 0.06610884 0.02027917 0.073931456 -0.055570792 0.18921067 0.06314321
-0.15605088 0.092109285 0.035976388 -0.054203425 -0.142117 -0.07054793 0.15780744 -0.08277531
-0.047145724 0.13093424 0.021870874 0.14490005 0.0010906301 0.032393016 -0.027724931 0.12726524
-0.29003024 0.061007097 0.16357087 -0.14027578 0.17024693 -0.013634776 -0.035609998 -0.080919065
0.09662217 0.08110059 0.121566154 0.07599911 -0.09147821 0.0200346 -0.10433524 0.01844984
-0.1276326 -0.14524382 -0.21978563 0.23911065 -0.14656419 -0.0049189692 -0.0744052 0.067547195
-0.015380222 -0.06551462 0.008067544 -0.14984062 0.17464803 0.02909969 0.15232666 -0.017567964
0.05536682 -0.029150227 0.21029697 0.19072175 0.20868827 0.12439841 0.12870774 -0.15382622
-0.053831983 0.108789615 0.04065046 -0.015276385 -0.1409468 -0.023624042 0.07512732 0.05500435
0.17398371 -0.25133532 -0.20910479 0.076822795 0.07002221 -0.010020161 0.15613046 -0.23033716
0.10597485 0.23742558 -0.11498564 0.015148964 -0.031985138 -0.005776599 -0.38403133 -0.18763112
0.1599797 -0.09580399 0.13810477 -0.17979272 0.08563014 0.0073696026 -0.11477027 -0.018825438
0.08073802 0.0026526726 -0.11420874 -0.10406009 -0.19693212 0.02056973 0.16424347 0.12179907
0.10138079 0.10615513 -0.32734194 0.021240618 -0.031033522 0.18324408 0.14956172 -0.13904186
-0.024392396 -0.027010713 0.1555015 -0.012781539 0.04568153 0.054951243 0.01956551 -0.032835715

network_body._body_endoder.seq_layers.0.bias f4 [256]
00000000: 0ada 18bc c9a7 43bc 7c88 98bc af8f 22bc
00000010: 680d 203c 0936 7cbb 09a2 8e3b ddee 4fbc
00000020: 4b16 5e3b 5dc7 e4bc 940f b93b cd40 393c
00000030: 23aa db3b 6001 bbbb 5423 3dbc b4f9 cf3b
00000040: 4b47 8ebc 408e 79bc b118 6a3c 6047 d7bb
00000050: 0b60 dbba 183d 4ebc 938f a9bc 2194 09bb
00000060: 2c42 52bc 8a58 403d 8bb5 b7bb 8588 15bc
00000070: d36a 3b3b 8eaf c5bc 2bc3 b3bb ab59 693c
00000080: a72f 343c 817b df3b 0162 693c eaf2 1fbb
00000090: 859f bfbb a405 73bc 494b c23c 6ad6 85bc
000000a0: 539e 3f3c 2878 e13b f3fc bfba 59e5 de3a
000000b0: 675e 013b 53ed c0ba df2b 143c b44a 063c
000000c0: d7d6 9d3c f332 9ebc 7287 f93b b7ee b2bc
000000d0: b7a2 2abc cab4 66bc 325f e7ba 398f c8b9
000000e0: 3665 9c3b a44e efbc 0fee d4bb ab54 ee3b
000000f0: ba3f e33b 55a4 79bc 4b54 be3b 77a2 333c
00000100: a9b9 5839 8cb4 ffbb a94d 87bc cc4b 84bc
00000110: a019 aebb 466b 143c b222 423c ab62 453c
00000120: 6729 10bc b3bf a3bb 1d89 073c 47ec 14bc
00000130: ef3d 2cbc b032 29bc 2471 35bc cc53 d8bb
00000140: 30dc 76bc d7c0 893c 42f1 fe3c ccd5 bbbc
00000150: 3583 a5ba 06fb 3bbc 075e 603c 635a d23a
00000160: ceac 2e3c 2c7d 5dba dd0e 8bbb 8fed 21bc
00000170: 7628 4a3c c9d1 64bc 0490 063a a43d a43c
00000180: 1593 b23b ce3f 0ebc d62c 72bb f22c 223b
00000190: 15de f63b 2bcb b9bc d87d c43c 5ed2 443c
000001a0: 1208 1bbc 03c6 d8bb b0e2 35bc 627d 10bc
000001b0: 491b d0bc 348b 07bc f067 0d3c 2dee a03c
000001c0: b674 23bc f805 4dbc 40a5 3dbc e66b 5039
000001d0: 83a8 86bc 35b4 20bc 39c7 1b3d 3d76 cdbb
000001e0: 2d31 90bb b6d7 29ba c503 88bc 4f7d b03b
000001f0: fcf2 67bc 91a3 693c 8304 1d3d 553e a1bb
00000200: 5953 483b 894e babc a7f3 38bb e13f 62bb
00000210: 5702 0dbc 3af9 033c f8cd 2bbb 44bb a03a
00000220: 3220 60bc ef7c 5e3b 8ba9 6bbc 6883 8c3c
00000230: 2886 043c f7e0 60bc 7340 42bb bc15 5bbb
00000240: dbf4 113c 1a95 ac3b a545 43bb 13a8 73bb
00000250: c3ac cb3b f46b aabc 6cc3 113d a9bc d4bb
00000260: 1cec 06bc dca1 7abc 3d00 1abb 7912 99bc
00000270: c111 81ba 3499 2dbc 0cd4 babb d566 71bc
00000280: fa87 863c 9e09 b7bb 12d3 a2bc 22db 7b3c
00000290: 5aac 31bc 439a 1a3c 4ef7 3e3c 77de 50bc
000002a0: 5493 543c 691f 9abb 6be2 e73a eeb2 39bb
000002b0: 1d1a 853c 4a7f a4bb 635f 7bbc 0725 a0bb
000002c0: 2993 08bc 2531 afbb 39c3 62bc 9235 c43a
000002d0: 5404 8e3c cb49 793c c0d1 09bc fd6c 9bbb
000002e0: 59f9 e13b 42b9 7f3c 34b4 8cbc 987e 5fbc
000002f0: 0c2a b4ba a7c7 4bbc 22ce 47bc 1fed 87bb
00000300: 300e e3ba 314d 0d3c e478 0dba 5830 febb
00000310: dfb0 1fbb 7a97 963c 7006 9a3c 1a93 e33b
00000320: 89bc 4cb9 f9ee 00bc 080d fa3b b3b1 68bb
00000330: ad98 debb 0d57 80bc 9f27 54bc 077e 92ba
00000340: aecb 62bc d662 1bbc 8bfb a8bb 8b87 93bb
00000350: 75c3 2ebb 41e9 aebb 0d59 b4bc 31e5 083c
00000360: ed65 58bc 3165 d23b 8a22 563b 99a7 a23c
00000370: 58b6 8d3a 8b0f f0ba e11b 013c 7b80 4cbc
00000380: 8c45 69bc 7778 e2ba 869f 92bc 972c 1bbc
00000390: d863 403c dafd 483c 6a92 16bc ecfc ddbc
000003a0: 3649 183c b094 b93b 5907 833b fef4 44bc
000003b0: 5fca 9ebb d42f ba3c cb58 acbc d657 853b
000003c0: e4b8 9a3c 6d41 c6bb 9c9f 64bc d355 953c
000003d0: 57f0 8e3b d1da d9bc 41ff 3bbc 3478 5e3b
000003e0: b975 463c 5a66 1fbc a45c 2cba 0c88 cb38
000003f0: 322a 38bc 6881 90bc e2f0 eaba 561f 133c
-0.009329328 -0.011941859 -0.018619768 -0.009921952 0.009768821 -0.0038484356 0.004352812 -0.012691227
0.00338878 -0.027927095 0.005647609 0.011306954 0.0067036315 -0.005706951 -0.011544067 0.0063469056
-0.01736798 -0.015231669 0.014288113 -0.006569788 -0.0016736997 -0.012587808 -0.020698344 -0.0020992833
-0.012833159 0.046959437 -0.0056063584 -0.009126787 0.0028597608 -0.024131563 -0.0054859123 0.01424257
0.010997689 0.0068201427 0.014244557 -0.0024406263 -0.0058478736 -0.014832888 0.02371754 -0.016337592
0.011695462 0.006880779 -0.0014647528 0.0017005607 0.0019740106 -0.0014719166 0.009043663 0.008196522
0.019267483 -0.019311404 0.0076150233 -0.021842344 -0.010414771 -0.014081189 -0.0017652272 -0.00038253682
0.0047728075 -0.029212303 -0.0064981054 0.007273277 0.006935087 -0.015236934 0.0058083883 0.010964028
0.00020668529 -0.0078035053 -0.016516523 -0.016149424 -0.0053131133 0.009058779 0.011849092 0.01204745
-0.008798934 -0.0049972176 0.008272436 -0.009089536 -0.010512813 -0.010327026 -0.011074338 -0.0066017862
-0.015067145 0.016815586 0.0311209 -0.022929095 -0.0012627604 -0.011473423 0.013694293 0.0016048666
0.010661317 -0.0008449133 -0.004243715 -0.009883299 0.012338748 -0.013966032 0.00051331543 0.020048924
0.0054496625 -0.008682204 -0.0036952994 0.0024746028 0.0075337985 -0.022679886 0.023985788 0.012013046
-0.009462373 -0.0066154017 -0.01110141 -0.008818956 -0.025403636 -0.008272935 0.008630738 0.019644821
-0.0099765565 -0.01251363 -0.011575043 0.00019876621 -0.016437775 -0.00980859 0.03803179 -0.0062701986
-0.0044003935 -0.0006478982 -0.01660336 0.0053860317 -0.014157053 0.014260189 0.03833438 -0.0049207606
0.0030567257 -0.022742527 -0.00282214 -0.0034522938 -0.008606515 0.008055026 -0.0026215296 0.0012262841
-0.013679551 0.0033948978 -0.014383684 0.017152503 0.008088626 -0.013725511 -0.0029640466 -0.0033429703
0.008908476 0.0052667977 -0.002979615 -0.0037179037 0.006215663 -0.02080343 0.03558676 -0.0064922166
-0.008235004 -0.015297379 -0.0023498677 -0.018685566 -0.000984721 -0.0105956085 -0.0057015475 -0.01473399
0.01642226 -0.0055858633 -0.019876037 0.01537207 -0.0108443145 0.009436193 0.011655642 -0.012748352
0.012974579 -0.0047034514 0.0017691379 -0.002833541 0.016247803 -0.005020057 -0.015342566 -0.0048872265
-0.008335867 -0.0053464347 -0.01384049 0.0014969578 0.017336048 0.0152153475 -0.008411825 -0.004743217
0.0068961796 0.015608134 -0.017175771 -0.013641022 -0.0013745441 -0.012437738 -0.012195142 -0.00414814
-0.0017322954 0.008624361 -0.0005396737 -0.007757228 -0.0024366898 0.018382777 0.018801898 0.006945026
-0.00019525191 -0.0078694755 0.007630948 -0.0035506308 -0.0067931027 -0.015666509 -0.0129488995 -0.0011176475
-0.013842506 -0.009484014 -0.0051569394 -0.004502242 -0.0026666794 -0.0053378646 -0.022015119 0.008355425
-0.013207895 0.0064207544 0.0032674395 0.019855307 0.0010811789 -0.0018315179 0.007880182 -0.012481804
-0.014237773 -0.0017278333 -0.017898332 -0.00947108 0.011742555 0.012267554 -0.009190181 -0.027098142
0.009294799 0.005663477 0.0039986786 -0.012021301 -0.004845902 0.022727884 -0.021038434 0.0040693088
0.01888699 -0.00605028 -0.013954069 0.0182294 0.004362147 -0.026593598 -0.0114744315 0.0033946158
0.012113028 -0.009728992 -0.0006575084 9.705135e-05 -0.011240529 -0.01763983 -0.0017924572 0.008979639

network_body._body_endoder.seq_layers.2.weight f4 [256, 256]
00000000: ae96 2cbd 9b64 66bd 0ea6 10bd 73fe bb3a
00000010: a71b 883d a7f7 123d 5f9f cdbd dfc7 833d
00000020: 7974 b4bc 3369 ecbc f507 88bd f81d d2bc
00000030: 5274 423c 6de9 2dbd 528b 4dbc 8915 c6bb
00000040: 4b6b 133e 3994 9dbc 5e88 cc3c 0ce1 7e3d
00000050: ae30 553c e430 93bd a37d ab3d 091a dcbd
00000060: 1647 3fbd c87a 0d3d 5dc4 f2bb 7824 8fbd
00000070: ae6d 263d 9c8d 503d 8de8 d33d 0f83 cd3b
00000080: f240 d83d cea4 17bc 1565 fc3d c5ae bdbd
00000090: 2091 9e3c 3428 823d b91c 8f3c 2ea7 823c
000000a0: 042e a0bd 2723 acbd 4cfd 45bd 5c65 fabc
000000b0: ef4d 17be 649c 973c c126 71bd d9c4 cf3d
000000c0: d1db 57bd d896 77bd ac99 0a3e fd0e 52bc
000000d0: 5761 593c a070 9cbd cd78 c03d 0a46 f5bc
000000e0: 058d 003e 9344 0bbe 9466 c53c 6c6f da3c
000000f0: a834 193d 73ec 4fbd c0a1 0cbe cafc 0abd
00000100: c2f1 97bc ebe7 02be e658 c5bd 33ce e939
00000110: 5d23 a8bd 36de 1bbc 3455 1dbe 9ef6 b7bc
00000120: a78c 97bb 2739 923c eb07 b4bc 5756 c0bd
00000130: aaca a43c e36b 993d bf33 ae3b 068e c73c
00000140: 732b 00bd 1909 c13b 0ca8 08bd 5d0b 8cbc
00000150: 55ef 84bd 5f36 943d f47d 37bc 8add 343c
00000160: dd3d 623d 05de adbc df13 3b3d fc6a 133c
00000170: fe1a 92bc 8068 153d 52b5 4abe 8167 083c
00000180: 27e4 da3d 8b84 403d 9357 ac3c a3ad 8dbd
00000190: 3b68 db3c d987 3a3d 66e2 8f3d f1c3 0c3d
000001a0: df0b c73d 7f9b 44bd 7f38 98bc b2cb 883c
000001b0: 4d48 c6bd 278f f63b 9852 473c cecb c73b
000001c0: 1aca 3a3d ccdb 1a3d bf35 c23c 755f d5bd
000001d0: 1900 213e 5537 f5bc b98b 3dbb c770 6ebd
000001e0: 1285 0e3e ae38 2bbe eb53 8a3c c2f5 d6bc
000001f0: a403 a9bd 6679 df3d 3571 d93c c7f1 173d
00000200: 12d3 68bd a5ae 0ebb daeb 003d fe7e bd3d
00000210: 3b70 c73c f28d 4d3c f131 44bd aaff 783d
00000220: 8c3a 0f3d b9ef 323a 241a 7c3d 85e5 3d3d
00000230: 24c7 dfbc 29d3 2dbd 6613 31bc 3049 9dbd
00000240: de97 953b 1bce 1e3d 896c 6a3d 846f a4bd
00000250: 4ace e23d 9736 5fbd 2edf eeba 557d 85bd
00000260: 02b6 293d 5d82 c8bc 1ad5 433c c30a 293d
00000270: 5269 b0bd 92ec 383d 3fb5 6e3d 295b 193b
00000280: 191e 0e3d f44b 2d3e df76 0abd 09b8 49bd
00000290: 9d6a 56bd 3ed0 f03b 8bee 183e c07d 16bd
000002a0: 4cbf a1ba c141 8d3d e5f8 da3c acdc 503d
000002b0: 4bef 56bd 74ce 243d f943 fd3b 1fd7 0ebd
000002c0: 9d8d 6bbc 23b2 043d e6d9 96bd e4ad 8d3c
000002d0: cfaa f93c 634d 86bd 12cd 39bc 99c6 0abd
000002e0: 5c3b 83bd 8050 5bbd 7122 8eb8 4101 743d
000002f0: 8f31 393d c722 e9bc 9b12 3a3d 80c6 8c3d
00000300: 60d0 a1bd f943 6ebc 7a19 203d 13f7 093d
00000310: a000 9a3d 85a1 e63c d9dc bf3c c3a6 9c3c
00000320: b495 903d 7ccb 683d e9db 863d 4b8f 133c
00000330: eb6c df3d bf79 77bb dfba 983b 9ff5 acbc
00000340: 6102 733d dd17 67bd aa80 c9bd da49 2abc
00000350: 002e 98bd a347 453c c8d9 0cbe b908 3ebd
00000360: 0290 ccbc 21ef 4e3d 590c 94bc 03c6 743c
00000370: 4ade a53d fdf3 0fbd 2a78 58bc ac14 d83c
00000380: df43 50bb 721b bfbd ed2d 683d 4e29 2a3d
00000390: d6bd 85bd fd97 25bd dadb debd 1461 91bb
000003a0: 2ceb 333d e064 8abd 6afe c6bc 4a53 d0bd
000003b0: 0fa9 173d ec7f 443b 9125 8ebd 6af0 a4bd
000003c0: b8fd dabc 669b 87bd 3499 3b3d 4415 363d
000003d0: fad8 943d ff4a 8f3d 428f 62bd 75b5 023d
000003e0: f8aa cdbc 2923 873d 4a7d 42bd b2a5 213b
000003f0: 3850 833c a89a dcbc ca6b 323c f9b7 4f3d
-0.042135887 -0.05624829 -0.035314612 0.00143428 0.06645899 0.03588071 -0.10040163 0.06434607
-0.022028195 -0.028858757 -0.06642143 -0.025649056 0.011868553 -0.04245894 -0.012545424 -0.0060450477
0.14396398 -0.019235717 0.024967369 0.06222634 0.013012094 -0.071870595 0.08373573 -0.10747153
-0.046698652 0.03454092 -0.0074086622 -0.06989378 0.040631942 0.0509163 0.1034709 0.006271727
0.10559262 -0.009255601 0.12323967 -0.0926185 0.01935631 0.063553244 0.01746975 0.015948858
-0.07821277 -0.08405142 -0.048337266 -0.03056591 -0.14775823 0.01850719 -0.05887485 0.101449676
-0.052699868 -0.06044659 0.13535184 -0.012820956 0.0132678365 -0.07638669 0.09398041 -0.029940624
0.12553795 -0.13600378 0.024096765 0.026664458 0.037403733 -0.050762605 -0.13733578 -0.033932485
-0.018547896 -0.12783782 -0.09636097 0.00044594854 -0.0820987 -0.009513428 -0.15364534 -0.022456463
-0.0046249214 0.017849518 -0.021976432 -0.09391468 0.020116169 0.07491281 0.005316227 0.024359714
-0.031291436 0.005890977 -0.033363387 -0.017095262 -0.064909615 0.07236933 -0.011199463 0.011039147
0.05523478 -0.021224031 0.045673247 0.008997675 -0.017835137 0.036476612 -0.1979573 0.0083254585
0.10688048 0.047001403 0.021037852 -0.06917884 0.0267831 0.04553971 0.07025604 0.03436655
0.09719061 -0.047999855 -0.018581627 0.016698692 -0.09681759 0.0075243893 0.012165688 0.0060972935
0.045602895 0.03780727 0.023707269 -0.104185976 0.15722694 -0.02993361 -0.0028922393 -0.05821302
0.1391795 -0.1672084 0.016885718 -0.026240233 -0.082526475 0.10911827 0.02654324 0.03709581
-0.056841917 -0.0021771577 0.031474926 0.092527375 0.024345508 0.012546049 -0.04789919 0.060790695
0.034967944 0.00068258826 0.061548367 0.046361465 -0.027316637 -0.042437706 -0.010807848 -0.07679975
0.004565223 0.038770776 0.057232413 -0.080290824 0.11074503 -0.05449542 -0.0018224472 -0.06518046
0.04143334 -0.024476225 0.011952663 0.04127003 -0.08613838 0.045147486 0.05827832 0.0023400283
0.034696672 0.16923505 -0.03380477 -0.049247775 -0.052347768 0.007349043 0.14934747 -0.03674102
-0.0012340336 0.06897307 0.02673001 0.0509917 -0.0524743 0.04023595 0.0077290502 -0.034873124
-0.014377025 0.032396447 -0.073657796 0.017294832 0.030476956 -0.06557729 -0.0113403965 -0.033880804
-0.06407806 -0.053543568 -6.777503e-05 0.05957151 0.04521328 -0.028458966 0.0454279 0.06873798
-0.079010725 -0.014542573 0.039086796 0.033682894 0.075196505 0.02815319 0.023420738 0.019122487
0.070598036 0.056834683 0.06584913 0.009006332 0.10909446 -0.0037761775 0.0046609486 -0.021113215
0.05932844 -0.056419242 -0.09838994 -0.010393584 -0.07430649 0.012041005 -0.13754952 -0.046395037
-0.024971012 0.05052102 -0.018072294 0.014939788 0.08099039 -0.035144795 -0.013212243 0.026377045
-0.0031778736 -0.09331407 0.056684423 0.041543297 -0.06530349 -0.04042815 -0.10881777 -0.0044366214
0.04392545 -0.06757522 -0.024291236 -0.10172136 0.03702646 0.0029983474 -0.06940759 -0.08053668
-0.02673231 -0.06621437 0.045800403 0.044453874 0.072679475 0.06996726 -0.055312403 0.031911332
-0.025105938 0.06598503 -0.047482766 0.0024665412 0.016029462 -0.026929215 0.010889957 0.05071256

network_body._body_endoder.seq_layers.2.bias f4 [256]
00000000: c92f 34bb 3de1 c0bc 331a 8abc 0861 2dbc
00000010: 2e83 aabc cc39 583b 4ed0 ba3b 015a a43a
00000020: 7b8d 73bb 2241 8abc da6f 763c c16d c5bc
00000030: a5e5 003d 5ee7 b9bc d70b 95bb 652d 75ba
00000040: 9e35 8abb 0cdb 8cbb 5d64 21bc 5abc 74bc
00000050: de3a 8abc fba1 103c 1811 2bbc e01e 393c
00000060: b7f7 6fbc c9d5 c2bb 22c3 a03c 4036 9a3b
00000070: c9e2 da3b 1a5a 8ebc ac5f 57bc 3705 17bc
00000080: 2e34 43ba c8ab ed3c b8cf 11bc 816a 213c
00000090: 2212 7cbc cb08 763c e598 4cbc 8916 eabb
000000a0: 63ee 8e3c 8031 38bc f42c 04bc b6c6 373c
000000b0: 40bf 44bc 5456 0d3c cb5b 92bc be19 38bc
000000c0: f21a cbbb 95b8 743b 64f0 74bc b54e df3a
000000d0: edb0 0fbc f644 60bc dbf1 8ebc 76f0 9cbc
000000e0: 0d34 c6bb ca34 25bc 4177 ed3b 8ea7 5cbc
000000f0: b56b 37bd 3733 ddbb 3f9a 963a 4fb4 05bc
00000100: 66c6 48ba c28c 6e3c 0fe0 14bc 651f 6a38
00000110: ee88 773a 692b c63b 9b4d b93c 8967 a73a
00000120: 4fa4 1cbc 5906 3fbc 9ec9 d73b b1e9 39ba
00000130: 9767 863c 6599 0cbc f4e9 e0bc 90b9 6ebc
00000140: 6336 36bc b853 273c aefd 87bb 03ca d0bc
00000150: c2c7 afbc 3972 0cbc e49f 833c a541 50bb
00000160: f459 69bc 3d5f 883b 9dc7 56bc a75b 11bc
00000170: 9e47 7f3b 8bb9 24bc ac70 1c3c 2843 d5bc
00000180: c3ce 873c 932c 9ebc e608 38bc d8d1 90bc
00000190: 7f03 343b 2f47 8f3c bb41 88ba e368 87bc
000001a0: b778 1d3b 7ece 2639 71ee 99ba d087 c23c
000001b0: 751e 283c 1513 413b 3aa2 aa3c 2300 4f38
000001c0: fea6 5fbc 88d8 0437 d163 a53c 08c6 28bb
000001d0: 24b1 363c 6e0a d8bb 19b0 3bbc 08f6 953b
000001e0: 7529 73bc 33d9 47bc 130b dcbc 66c3 31bc
000001f0: 87c5 33bc 8c77 6abb 274e 6d3c 9507 6a3b
00000200: aba7 d7ba 8322 e53b 6879 473b b0a3 94bb
00000210: 609b 50bc 3e2e 993a 9b3c d8bb fea9 2ebc
00000220: 9e50 163b 3f4b 133c 1ede 723b 85de 12bc
00000230: 1251 213b 9c9d 82bb c467 b53b bd41 a3bc
00000240: 22ac 973c 69b1 8abb 530a 02bc db5c 153c
00000250: 8bc2 a13c 866e 0bbc b6d6 aabb eac5 12bc
00000260: b19a 09bc cee3 8e3c 244b c5bc f8ea 413b
00000270: 5623 a13c d1c7 0bbc 78f7 cebc 9d1b 94bc
00000280: e1da 4539 9559 91bc 5d93 273c f9a2 b4bb
00000290: c7ba bcbc b3bd 573c 770e ba3b b940 38bc
000002a0: 2af4 2bbd cfad 05bb 2b9c 1c3c a1a2 edbb
000002b0: f4ae 16bc 9f13 83bc 0324 b23b 39b6 2c3c
000002c0: d3b8 a83b cf45 edbb d0e7 0a3c 5d29 8e3c
000002d0: 5da9 a1bc f1cf bd3b 934d 323b 140c c03c
000002e0: 7778 323a 8218 623c cf4c 7cbc 3b31 103c
000002f0: 7bb2 cbbb dbe3 a8bb 63e5 5ebc bf28 783b
00000300: a977 0fbc 3728 d13b 7472 a13b 8744 703c
00000310: 5228 893c d4f9 e4bc c821 8b3b c5b8 393b
00000320: a4be 543b ac99 01bb 0bf5 57bc 2081 4bbc
00000330: cbe9 a43c 6fbf b8bc 3a02 833c 8abb 8d3c
00000340: 90f8 a8bc 6950 ccbc b310 523c 44ee f83b
00000350: 585f 37bc 5367 983b c8e9 4b3b ec60 ed3b
00000360: 77e6 b0bb 2e95 983c 1fed 7b39 5b16 e93c
00000370: 0073 acbc 399a 563a 8664 51bc 474e fcbb
00000380: 0518 3dbc 9b2f 9f3c 1390 193c c61d f23b
00000390: a7eb ad3b 9e9b 083b 64a6 8abb 54ab 4fbc
000003a0: abb7 073b 80fb 86bb f705 e6bb f393 87bc
000003b0: 4359 adbb 21ae 3bbc 9d02 d13a 2a9e af3c
000003c0: 96de 48bc b92a 8cbc fded d2ba 5d6d 313c
000003d0: 54bb abbc fc97 53bc 19e0 b6bb c8d3 72bc
000003e0: 2ec9 263c b5a3 b13b bc5c 43b9 20ce 193c
000003f0: 7dc2 4c3a cd27 78bc e4b2 b3bc ccb9 1139
-0.0027494302 -0.023544902 -0.016858196 -0.010582216 -0.020814504 0.0032993434 0.0057011014 0.001253903
-0.0037163186 -0.01687676 0.015041316 -0.024100186 0.031469006 -0.022693332 -0.0045485306 -0.00093527726
-0.0042178174 -0.0042985734 -0.009850589 -0.014937485 -0.016873773 0.008827682 -0.010441087 0.011298865
-0.014646462 -0.0059458953 0.019624297 0.004706174 0.006679867 -0.017376948 -0.013145369 -0.009217552
-0.0007446435 0.029012576 -0.008899622 0.009852053 -0.015385183 0.015016745 -0.012487625 -0.0071437997
0.017447656 -0.0112422705 -0.008067358 0.01121681 -0.012008488 0.008626539 -0.017866036 -0.011236606
-0.0061982805 0.0037341465 -0.014949892 0.0017037006 -0.00877021 -0.013688317 -0.01744931 -0.01915763
-0.0060486854 -0.010083387 0.007246882 -0.0134676825 -0.04478045 -0.00675049 0.0011490061 -0.008160665
-0.0007658958 0.014559926 -0.009086623 5.5819186e-05 0.00094427064 0.0060476554 0.022620013 0.0012771945
-0.009560659 -0.011659228 0.006585314 -0.00070920127 0.016406817 -0.008581494 -0.027455308 -0.014570609
-0.011121365 0.010212831 -0.004150114 -0.025486952 -0.021457557 -0.008572155 0.016067453 -0.0031777408
-0.014242638 0.004161744 -0.013109115 -0.008871949 0.00389526 -0.0100540025 0.009548347 -0.026033
0.016578084 -0.019308364 -0.01123259 -0.017678186 0.0027467904 0.017489998 -0.0010395566 -0.016529506
0.002402825 0.00015907918 -0.0011744035 0.023746401 0.010261168 0.0029460837 0.020829309 4.9352773e-05
-0.013650654 7.918228e-06 0.020189198 -0.0025752801 0.011150632 -0.00659304 -0.011455559 0.0045764484
-0.014841427 -0.01219778 -0.02686075 -0.010849809 -0.010972387 -0.0035776822 0.014483965 0.0035710086
-0.0016453167 0.0069926395 0.0030437354 -0.0045361146 -0.012732357 0.0011686755 -0.0065990216 -0.0106606465
0.0022936235 0.008990108 0.0037058662 -0.008964186 0.0024614972 -0.0039860737 0.0055360515 -0.019928807
0.018514697 -0.0042325747 -0.007937032 0.009116377 0.019746086 -0.008510238 -0.005213584 -0.008958319
-0.008398698 0.01744261 -0.024083681 0.0029589515 0.01967017 -0.008531527 -0.025264487 -0.018079573
0.00018868923 -0.017742911 0.010228005 -0.005512592 -0.023038281 0.013167786 0.005677994 -0.0112459
-0.0419809 -0.0020397787 0.009558718 -0.007252053 -0.0091969855 -0.016000567 0.005436422 0.010541492
0.005148986 -0.007240988 0.00847812 0.017353708 -0.019734079 0.005792611 0.0027206882 0.02344326
0.0006808112 0.013799788 -0.015399172 0.0088008 -0.006216345 -0.0051541156 -0.013604495 0.0037866083
-0.008756557 0.006382968 0.004926974 0.014664776 0.016742859 -0.027951159 0.0042459704 0.002833889
0.0032462263 -0.0019775433 -0.013180981 -0.0124209225 0.020131012 -0.02255222 0.015992273 0.01730134
-0.020626336 -0.024940686 0.012821364 0.007596763 -0.011192165 0.004650989 0.0031114686 0.00724422
-0.0053985673 0.018625822 0.0002402556 0.028453043 -0.02105093 0.0008186433 -0.012780314 -0.007699761
-0.011541371 0.01943188 0.009372729 0.007388803 0.005307633 0.0020844708 -0.004231261 -0.012675125
0.002070884 -0.0041193366 -0.007019754 -0.01655004 -0.005290182 -0.01145509 0.0015946213 0.021437723
-0.0122601 -0.017110215 -0.0016092655 0.010829297 -0.020963348 -0.012914654 -0.0055809137 -0.014821
0.010179801 0.0054211267 -0.00018631195 0.009387523 0.00078109634 -0.015146208 -0.021935888 0.00013897492

action_model._continuous_distribution.log_sigma f4 [1, 12]
00000000: 8c47 fd3d 2b74 b83d da29 ac3d 624d f43d
00000010: 6d2b f93d 614b df3d 16a6 063e 929f a93d
00000020: 9b37 ef3d ba79 e43d db05 e03d 5aaf 103e
0.12367162 0.09006532 0.0840642 0.11928822 0.12166486 0.10903049 0.13149294 0.08282389
0.11680528 0.1115603 0.10938617 0.14129391

action_model._continuous_distribution.mu.weight f4 [12, 256]
00000000: 274e 8d3c 6428 8fbc a5f3 09bc 9959 f7bb
00000010: d382 1bbb ac31 b63c dea3 b73c 1d2c 043c
00000020: 891a babc 63c0 d73b 3501 1f3c 1a35 58bb
00000030: f012 1f3c 133d d93a 2c7a c7bb a781 053c
00000040: 2129 dcbc 6679 d93c f3cd ea3c 3880 053c
00000050: 3779 5a3b 43f3 783c 79fe eebc 4622 3c3c
00000060: 0fd4 02bc 373d cc3b 1de2 dfbb f269 9b3c
00000070: 580d c2bc 37f5 14bc 7bce 50bc 667c 193d
00000080: 0645 943c 84e0 573a 8318 8f3c 1a49 9c3b
00000090: 888b 4ebb 5f46 323d a81a b83c c015 f53a
000000a0: 6d43 85bc 99f4 0abd bce8 d83c 3282 bdbb
000000b0: 0cd9 dcbb 22c8 1a3d 401d 83bc 0d60 88bc
000000c0: 683f 5b3b 0a2a 773c d587 7abc a823 5cbb
000000d0: 0d4c 813c e50a 05bd b72f b938 b94c bc3c
000000e0: bd4b cfba b09f db3c fc23 a13c b4bd 62bb
000000f0: 4119 5739 c384 813c f2d5 2b3c cbfa b9bc
00000100: d8b8 a6bb bbb4 113c 2f77 21bc e564 713c
00000110: 8f3e bcbb cdce f73b 5c13 e03b 7fa0 80bc
00000120: 6656 c03c f825 7bbc 9b94 5c3b 981c a63c
00000130: c85b 4a3c e9b6 8bbc dfc6 46bc 9c34 aebc
00000140: a6e4 ebbb 97dc 653d a499 f73a 63ca 21bc
00000150: fd71 b0bc f8be 8ebc 2658 d93b 67c1 0c3c
00000160: a716 203c 69ea c43c 466d a73c 95b8 81bb
00000170: c066 fa3c c2f5 8b3a befa 4fbd afe2 d73b
00000180: 8c4e 36bd 6a37 873c 6b2b 163d 01a1 8bbc
00000190: e0f7 f63c 2cb7 8abb d448 67bc fb6c 5bbb
000001a0: d1fc 923c b194 ce3c e979 c1bc 1447 ec3b
000001b0: 66c4 ae3c 0f44 393c 549b b7bb 521d a53c
000001c0: e0e1 2e3b 7f6e e53c 3adc b63b 9aad b1bc
000001d0: 0c0f 153b 9812 4fbc 50c6 0aba 4b16 f9bb
000001e0: 20a6 e2bb 2d38 ed3a 0463 9fbb 5faa 80ba
000001f0: 47db 213b 2984 16bc 8069 853b 5d45 adbc
00000200: fd42 d63b 7ace 0cbc babb 1fbd c030 fb3b
00000210: 1c4d a03c fbdf 16bd bc57 8ebc d781 80bc
00000220: 112e 883c 1b91 8a3b ca14 adba 79a1 e63c
00000230: c9b6 16bb b823 b13a 8e93 cbbb 6921 1cbc
00000240: 25c1 203c a3f3 253c 169e 563c 7563 a1bb
00000250: 6aa1 003c fd70 98bb 6f0d cbbb 9d88 a53c
00000260: 3162 07bd aefa 3b3d e4ed 08bc 5c31 313a
00000270: 133c 6b3d f9fe 83bc 73d2 a9bc 4be5 25bc
00000280: 7bf1 573c d9f4 083c addc 12bc d437 3ebc
00000290: a71b 59ba 1457 323c 59ed af3c 7a47 993b
000002a0: d2f4 a23b e46b 02bc 114f acbc 4f4f 94bc
000002b0: d42d 11bc c2c7 b4bb e0f7 19bd ecaa 2f3c
000002c0: aa5c 293a 629d 7d3c 6d8f bdbb 9cc4 903b
000002d0: 9606 13bc 70d3 04bd 77a3 013d 08ca f93c
000002e0: ff8e 8bbc 11f2 223d 5d87 9ebc 4160 26bc
000002f0: 8a61 f9bc a01f 503c 20c1 533c 5691 b23c
00000300: a187 8c3c c6eb 6939 d0be a6bc c613 17bd
00000310: a35b e13c ea76 50bc 09c1 273c b1c3 f53c
00000320: b5ec 0f3d a222 22bc 0902 d2bc 55c3 15bc
00000330: 46d2 8fbc 7ef3 fdbc fbf4 ee3c 10a1 8bba
00000340: 67c8 3d3c 3cbe b9bc c122 25bd 4a92 9bbc
00000350: 5bb5 233c c7ac 493c a930 80bc 6382 5d3c
00000360: 9304 90bb b371 50b9 66c3 4bbb f677 8b3b
00000370: 50b8 54bd 4ad4 cd3a 7c7d 983a 1238 c63c
00000380: 3a1a 193d de89 a33c 5283 fbbc bcaa b73c
00000390: 6d4b 153d 13f8 273d f280 1dbd 0679 a43c
000003a0: c3eb 873c 60f1 98bc bc0d a43c cdaf 6ebc
000003b0: 6471 9a39 517f 34bb fe81 ec3a 0897 9f3c
000003c0: e709 cd3c fb20 69bc 4bcb 3ebc aae7 b1bb
000003d0: 47ef 673b 92d1 99b9 31e9 ad3c 6689 9f3c
000003e0: e00e c23c 41c7 c43c 5fd9 2abd 89af 183d
000003f0: db46 06bc be69 b2bb 0868 60bc 2f27 af3c
0.01724918 -0.017475314 -0.008419906 -0.0075485227 -0.00237291 0.022240482 0.022417005 0.008067158
-0.022717731 0.0065842136 0.009704878 -0.0032990635 0.009709105 0.0016573988 -0.006087562 0.008148587
-0.02687508 0.026547145 0.028662657 0.0081482455 0.003333641 0.015194717 -0.029174076 0.011482781
-0.007985129 0.0062328833 -0.0068323747 0.018971417 -0.023688003 -0.009091667 -0.012744541 0.03747215
0.01809932 0.00082350546 0.017467743 0.0047694566 -0.0031516273 0.043524142 0.022473648 0.0018698499
-0.016267503 -0.033924673 0.026478164 -0.0057833428 -0.006739741 0.037788518 -0.016005158 -0.016647363
0.003345454 0.0150857065 -0.015291174 -0.0033590589 0.015783334 -0.032481093 8.830375e-05 0.022985803
-0.0015815418 0.026809543 0.019670479 -0.0034597935 0.00020513406 0.015810376 0.01048802 -0.022702595
-0.005087953 0.008893187 -0.009855076 0.014733528 -0.0057447623 0.0075624944 0.0068382453 -0.01570153
0.023478698 -0.015328877 0.0033657912 0.020277306 0.012350984 -0.017054992 -0.0121323755 -0.02126532
-0.007198888 0.056118574 0.0018890393 -0.009874913 -0.021538729 -0.017425045 0.0066328226 0.008591033
0.009771026 0.024037557 0.020437848 -0.0039587715 0.030566573 0.00106781 -0.050776236 0.006588302
-0.044508502 0.016505916 0.0366625 -0.017044546 0.030147493 -0.0042332616 -0.014116485 -0.0033481705
0.017942818 0.025217386 -0.023617702 0.0072106216 0.021333884 0.01130773 -0.0056032334 0.020155583
0.0026684925 0.02800679 0.0055804523 -0.021689225 0.0022744564 -0.01263871 -0.0005293833 -0.0076015345
-0.0069167763 0.0018098407 -0.0048640985 -0.00098164 0.002469735 -0.009186783 0.0040714145 -0.021151239
0.0065387473 -0.00859415 -0.03899739 0.0076657236 0.019568019 -0.0368347 -0.01737582 -0.015686912
0.016623529 0.0042287237 -0.0013205048 0.028153168 -0.0022997132 0.0013514673 -0.0062126582 -0.00952945
0.009811674 0.010128888 0.013099214 -0.0049251863 0.007850984 -0.004652141 -0.00619667 0.020206744
-0.033052627 0.045893364 -0.008357499 0.0006759369 0.057430338 -0.016112791 -0.020730233 -0.0101254685
0.013180132 0.0083591575 -0.008963746 -0.01160999 -0.00082820136 0.010885019 0.02147548 0.00467771
0.0049730325 -0.007960293 -0.021033796 -0.018104224 -0.008861024 -0.005516977 -0.037589908 0.010721903
0.00064606464 0.0154794175 -0.00578492 0.004417969 -0.008973738 -0.032428205 0.031650033 0.030491844
-0.01703596 0.039781634 -0.019351656 -0.010154785 -0.030442018 0.0127028525 0.012924463 0.021797817
0.017154517 0.00022308444 -0.020354658 -0.03688409 0.027509516 -0.012723664 0.010238894 0.03000054
0.03513785 -0.009895952 -0.025635736 -0.009140809 -0.01755632 -0.030999895 0.02916955 -0.0010652859
0.011583424 -0.022673719 -0.040316347 -0.018990654 0.009991969 0.01230926 -0.015648203 0.013519856
-0.0043950765 -0.00019878782 -0.0031091808 0.004256244 -0.051933587 0.0015703526 0.0011634077 0.024196658
0.037378527 0.019963201 -0.030702267 0.02242028 0.036448885 0.041008066 -0.03845305 0.02007724
0.016591912 -0.018669784 0.02002608 -0.014568281 0.00029457652 -0.0027541707 0.0018044112 0.019481197
0.025029136 -0.014229055 -0.0116451485 -0.005429228 0.0035390423 -0.00029338576 0.021229358 0.019474696
0.023688734 0.024020793 -0.041711207 0.03727678 -0.008195604 -0.0054447344 -0.013696678 0.021380989

action_model._continuous_distribution.mu.bias f4 [12]
00000000: 52eb 233c 15bc 1dbb 249c e83b 6887 2f3c
00000010: 583b 00bd 890e 3abc 49f3 dd3b 04dc 903c
00000020: 03eb 423b de91 e5bb 9835 c83c a3d7 373c
0.010004835 -0.0024068404 0.0070986915 0.010713436 -0.031306595 -0.0113560045 0.0067733866 0.017683037
0.0029742129 -0.007005914 0.024439618 0.011220845

onnx::Div_51 f4 [74]
00000000: 1dcf 703c eaa5 703e 76d0 403e 92c4 3c3e
00000010: 2904 873c 5381 c93c 5875 733b 9d44 8e3c
00000020: c2ad 6a3d 745c ba3d 50f3 d23b 5b21 c23a
00000030: 1f7a d93a 4906 043b 3541 213c 0e12 8b3b
00000040: 295d 3a3e 64e2 c63a 2363 d53c 7637 d43a
00000050: aaad c73a 9f2c ed3b f17e 1f3c 194b 8d3c
00000060: 6fd8 a13e 601f ca3a b00a d83b 8bde bc3a
00000070: a31f 023b e231 043b 6745 203c 1a37 8e3b
00000080: 3568 563e b4f5 da3a f74b d63c 9ea4 e53a
00000090: da5d db3a d5c2 ee3b 568c 1d3c 9af1 8d3c
000000a0: 11bb 2c3e 150a cb3a 73f8 fb3b 1d99 b93a
000000b0: 5441 f13a a152 033b c126 203c c266 a43b
000000c0: 7aa8 6f3e 67f4 d13a b3dd d73c 4e2c d63a
000000d0: b937 0d3b 5abb 853b dda6 1c3c 6f9d 8b3c
000000e0: 7a30 353e 34cd ef3a ba4e 013c 1410 ec3a
000000f0: 3096 dd3a 8765 033b 5295 203c f18e a83b
00000100: 36c4 393e 5513 c83a 2ce4 d73c 52b8 cf3a
00000110: c6ff dc3a f94b 853b 16ed 1d3c 3ea4 8b3c
00000120: d070 3c3e 75b7 cb3a
0.014697817 0.23500791 0.18829522 0.1843436 0.016481476 0.0245978 0.00371488 0.017366702
0.057294615 0.09099665 0.0064376965 0.0014810966 0.0016592181 0.0020145348 0.009842207 0.0042440956
0.181996 0.0015173671 0.026048249 0.0016190845 0.0015234251 0.0072379853 0.009734855 0.017247723
0.31610438 0.0015420727 0.006593071 0.0014409585 0.0019855283 0.0020171334 0.009782172 0.0043400647
0.2093819 0.0016705305 0.02615927 0.0017520373 0.0016736344 0.0072864094 0.009615978 0.017327119
0.16868235 0.0015490676 0.0076895296 0.0014160011 0.001840631 0.0020038264 0.009774865 0.0050171325
0.23404112 0.0016018272 0.026350832 0.0016340108 0.0021548106 0.004081172 0.009561268 0.017042844
0.17694274 0.0018295408 0.007892305 0.0018010163 0.0016905721 0.0020049529 0.009801226 0.005143993
0.18141255 0.001526455 0.026353918 0.0015847778 0.0016860894 0.0040678945 0.009639045 0.01704609
0.1840241 0.0015542345
