results/packaging_fix_test_23/RobotAgent.onnx (onnx, 359274 bytes, 9 tensors)

network_body.observation_encoder.processors.0.normalizer.running_mean f4 [75]
000000 c6 32 e7 3f 19 7e 22 c3 06 5c dd 41 c8 99 60 bc
       1.806237 -162.49257 27.669933 -0.013708539
000010 a8 b1 0e 3e ce 1b 09 bb 61 04 12 3f 9b 26 17 44
       0.13934958 -0.0020921114 0.5703793 604.6032
000020 01 ba fb 45 ad f4 ac c4 16 e6 b6 3f 4e 02 1a 3e
       8055.2505 -1383.6461 1.4288967 0.15039942
000030 ab 22 ba 3c 89 0c 1e be 71 28 6f 3f e3 0b 67 3f
       0.02272161 -0.1543447 0.93421084 0.9025251
000040 38 0b 06 3d 9a 19 e3 3c 6f 02 3b 3e a7 cf e6 3d
       0.032725543 0.027722169 0.18262647 0.11270075
000050 d2 91 26 be 9c df a2 3d f4 04 68 3f 22 50 5b 3f
       -0.16266564 0.07952806 0.9063256 0.8566915
000060 b5 b3 b1 bd 3f c1 07 bf 72 a7 d0 bd 4b 17 34 3e
       -0.086768545 -0.53029245 -0.10188188 0.1758701
000070 96 c5 c9 3c 08 32 73 bd 36 d2 6f 3f 50 7e 67 3f
       0.02463035 -0.059373885 0.9368013 0.9042711
000080 8e 41 de bd 5e cf bd 3d a0 d4 22 3e 9c e8 1e 3e
       -0.10852347 0.09268068 0.15901423 0.15518421
000090 5e 65 8e bd 8f a4 37 3d ac 0c 6a 3f 14 72 5e 3f
       -0.06952928 0.04483467 0.91425586 0.8689282
0000a0 d7 59 d0 bd 29 c5 3f bd fb 07 e8 bc c2 ea b9 3d
       -0.101733856 -0.046818886 -0.028324118 0.090779796
0000b0 5b c3 43 bc 85 9c 2c be 7f e6 6a 3f e3 0d 6c 3f
       -0.011948432 -0.16856582 0.9175796 0.9220869
0000c0 6e 2d 4c 3d 68 aa f8 3d fc cd 2e 3e b2 b8 e2 bb
       0.049848013 0.121418774 0.17070764 -0.00691899
0000d0 8c bb 17 be 36 5e 65 bd 33 17 3e 3f 79 cf 5b 3f
       -0.14817637 -0.05599805 0.7425415 0.85863453
0000e0 4b 3a e3 3c 53 78 9a be 37 9f 7c be ad a6 04 3e
       0.027737757 -0.30169925 -0.2467011 0.12954207
0000f0 32 72 81 3c 8b 07 3f bd 6d 04 70 3f 99 c6 67 3f
       0.015801523 -0.046638053 0.93756753 0.9053741
000100 75 20 aa bd a7 19 d1 3c 50 20 d2 3d 89 b0 16 3d
       -0.08306972 0.025524927 0.10260069 0.03678945
000110 24 41 4c bd 7b 9c 11 ba 67 28 46 3f 1d ef 5c 3f
       -0.04986681 -0.00055546284 0.774054 0.8630236
000120 89 6c a5 3b 2f f6 52 bb 2a 02 00 be
       0.005048339 -0.0032190194 -0.12500826

network_body._body_endoder.seq_layers.0.weight f4 [256, 75]
000000 f0 8f 3e 3e 1a b3 62 bd 97 49 8b bd 84 96 78 3d
       0.18609595 -0.055346586 -0.068011455 0.060690418
000010 8d 79 b7 b8 fa 0a 94 3d 82 65 70 3d 45 ef 91 bc
       -8.7487606e-05 0.07228656 0.058690555 -0.017814288
000020 89 3c ad 3d 37 00 9a bc 0d 71 11 3e 45 d2 15 be
       0.08458812 -0.01879893 0.14203282 -0.14630993
000030 90 2f ce 3d 4d de 91 3c d5 f7 86 bd 8b 28 b0 3d
       0.100676656 0.017806197 -0.06590239 0.08601483
000040 4c 4e 99 bd 75 98 7d 3e 9e 1f d9 bd 3d b5 f5 bd
       -0.07485637 0.24765189 -0.106017336 -0.11997459
000050 5c 6f 7d bd bd e4 7d be 45 e6 a9 3d da fd 11 3d
       -0.06187378 -0.24794288 0.082958736 0.035642482
000060 27 33 97 3c 57 ec 49 be 40 86 0b 3e 6c e2 9e be
       0.018457009 -0.19719063 0.13625431 -0.3103212
000070 03 cd 04 3e 78 8b 30 bd 4e ac 69 be ec dc 32 be
       0.12968831 -0.043101758 -0.22819635 -0.17467088
000080 18 e4 09 be a6 ca b8 3e 43 76 f3 3d 48 47 09 be
       -0.13465917 0.36092108 0.11887791 -0.13406098
000090 d9 f9 93 3d 5f bf e7 bd 91 b5 88 3d 4f b9 9a 3c
       0.07225389 -0.11315798 0.06675256 0.01888719
0000a0 67 74 9b 3d 37 0b ad bd 31 28 50 3d 15 23 ad 3e
       0.07590561 -0.08449405 0.05081958 0.33815828
0000b0 05 51 a3 3e d1 fb aa 3e 08 e4 f8 3d 1c 99 11 be
       0.3189775 0.33395246 0.121528685 -0.14218563
0000c0 63 58 ba 3d 14 0f 8a 3d 25 ee 1a 3b 87 3a 0a 3e
       0.0909889 0.06741157 0.002364048 0.13498889
0000d0 47 ea 2b bd b4 3a 53 be eb 24 0f 3e 06 82 10 3e
       -0.04197147 -0.20627862 0.13978927 0.141121
0000e0 de ea 51 3e 4d 8d db bd 1c b5 a5 be c9 26 43 3d
       0.20499751 -0.1072031 -0.32364738 0.04764441
0000f0 28 62 8e 3d 2f bf 7b be ed de 71 bd ad 9f 2f 3e
       0.069523156 -0.2458465 -0.05905049 0.17150755
000100 e0 9e e0 bc aa d4 2e 3e 77 dc 8b 3e 7f 2c 17 bd
       -0.027419508 0.17073312 0.2731664 -0.03690767
000110 5b 43 ab be 0e 9e 21 be 7c cd 49 bd 07 19 88 3e
       -0.33449826 -0.1578295 -0.04926823 0.26581594
000120 a4 31 5d 3e 98 3f 2e bd 5e 17 73 3e e6 25 9b 3e
       0.21600968 -0.042541116 0.23739383 0.30302352
000130 6d 4f 63 bb 27 4f a4 3c 8e e6 5e be f4 ed 70 3e
       -0.0034684793 0.020057274 -0.21767637 0.23528272
000140 39 ef 41 3d 0f 9d 4c 3d bf 94 44 be 3f 2f af 3d
       0.04734728 0.04995447 -0.19197367 0.08553933
000150 b3 3f 27 bd 0a 36 97 bb 00 82 9c be 7c 29 3a be
       -0.040832233 -0.0046145963 -0.30567932 -0.18179888
000160 cb af f7 bc 58 6f 4f bd 05 91 ba bd d6 48 00 bd
       -0.030235192 -0.050643295 -0.091096915 -0.03131946
000170 25 2a af 3e 40 b1 0c 3e e0 26 ae bd 7b 4c af bd
       0.3421184 0.1373949 -0.085035086 -0.08559509
000180 df 66 20 be 91 46 26 bd 4b e7 23 be fb 88 4a 3c
       -0.15664242 -0.04059464 -0.160062 0.01236176
000190 c3 fc 8a 3c 9a f4 8a bd 62 61 33 be 9c 52 27 3c
       0.01696623 -0.06784935 -0.17517617 0.010212567
0001a0 1a 00 02 bb 30 2d 68 bd ac 5c 1a 3e d8 c4 d4 bd
       -0.0019836486 -0.05668372 0.15074414 -0.103891075
0001b0 77 6a 6c 3e 29 27 d3 3c e0 2e 84 bd b9 d2 c0 bc
       0.23087488 0.025775509 -0.06454253 -0.02353798
0001c0 3a f6 83 3e cb 29 14 3c d8 f7 1c be 1a 60 2a bd
       0.25773793 0.009043167 -0.1532892 -0.041595556
0001d0 8a 6d 3c be 25 6b f6 bd 96 00 89 3d 91 47 0b 3e
       -0.18401161 -0.12032155 0.06689565 0.13601519
0001e0 89 fd e0 3d 6a 2b 2b 3e 7d 87 3f be d2 61 80 3e
       0.10985858 0.1671578 -0.18704028 0.2507463
0001f0 7e 2b 4c be c5 c9 b1 3c 71 b3 88 be 8d 55 95 3d
       -0.19938466 0.021702657 -0.26699403 0.07291708
000200 28 fe e6 3d 04 94 27 3d fc 58 2a be a3 ef 13 be
       0.11278945 0.040912643 -0.16635507 -0.14446883
000210 b6 18 a9 bb 76 ac ae bd 20 b5 d9 ba 38 39 bd 3c
       -0.0051604165 -0.08528988 -0.0016609766 0.023098573
000220 78 c5 6a 3d 14 95 8c bd a4 16 7b bd 0a 3f 3b be
       0.057317227 -0.06864372 -0.06130089 -0.18285766
000230 c3 ff c8 3d 2a 20 42 3d 9a 2f cd bd 2d 65 0a 3e
       0.09814408 0.047393955 -0.10018845 0.13515158
000240 f7 bd a0 be 04 d1 46 be 95 e7 27 3e f6 7c 32 3d
       -0.31394932 -0.1941567 0.16396935 0.043576203
000250 bc 69 30 3e 33 9a b1 bd 8c df d1 3d a0 21 22 3e
       0.17227834 -0.08671989 0.10247716 0.1583314
000260 af a6 22 3e 92 d5 eb be 07 c4 a1 bc 36 ae 1e bd
       0.15883897 -0.4606138 -0.019746793 -0.03874036
000270 f4 60 30 be 26 61 f9 3d 61 b9 df bd e8 22 0b be
       -0.17224485 0.12176733 -0.1092403 -0.13587534
000280 fb c1 62 3d 26 97 57 3e d9 41 78 bc 19 9c 0c be
       0.055360775 0.21053752 -0.015152418 -0.13731422
000290 35 9f 1f be 84 a9 a0 3e 15 90 1c be c9 d6 7e bd
       -0.15588076 0.3137933 -0.15289338 -0.062216554
0002a0 7d e6 08 be fd cc 2b bc 59 f7 20 3d 03 a9 92 bd
       -0.13369174 -0.010485885 0.03929839 -0.07161143
0002b0 fd db bb 3d c9 c7 0c 3d fd 78 ee 3d 92 0c 9e bd
       0.09172819 0.034370217 0.116441704 -0.07717241
0002c0 ab 24 22 be cc 9c 79 bd 53 6d 08 be bc 2d 7f 3d
       -0.158343 -0.06094055 -0.13322954 0.062299475
0002d0 a5 2c 00 3e c8 a1 9b bd 6f d8 30 be d1 05 ea bd
       0.1251703 -0.07599217 -0.17270063 -0.11426891
0002e0 bd fb b7 be e0 78 55 3d 53 b9 ae 3d ef 7f 6d be
       -0.3593425 0.05211723 0.085314415 -0.23193334
0002f0 84 5c 13 bd f3 f4 76 3d 13 50 63 3d c2 82 83 bc
       -0.0359769 0.060292196 0.055496287 -0.016053561
000300 e4 d6 00 be 55 fe 2d bc 9a 4c f8 3d f4 61 0b bc
       -0.12581974 -0.0106197195 0.121239856 -0.008507241
000310 90 59 ce 3d 76 fc 24 be ee 18 17 be 97 4e 9f 3d
       0.100756764 -0.16111931 -0.14755604 0.07778662
000320 27 da 61 bd 17 02 3d 3e 25 e1 26 bd d4 1a 81 be
       -0.055139687 0.18457828 -0.04074206 -0.2521578
000330 60 c9 3e 3d a3 49 04 3d 44 be 59 bd 26 3e 46 3e
       0.046578765 0.032296788 -0.053159967 0.19359645
000340 1d 28 a2 3e 43 9d 4b be 1b 12 81 bd 46 02 58 3d
       0.3167123 -0.1988421 -0.063022815 0.052736543
000350 0a 16 04 3d 2a 28 75 be 72 50 9d 3d bd 8e a2 3d
       0.03224758 -0.23941103 0.07681359 0.079373814
000360 78 af 42 be f3 26 1c 3a c6 e8 d2 bd 6c 31 68 bd
       -0.19012249 0.00059567316 -0.10298304 -0.056687757
000370 22 84 ce bd c3 df 69 be 94 42 e0 bc 26 8e 6f bd
       -0.10083796 -0.22839265 -0.027375497 -0.058485173
000380 8b 22 3f 3e 91 a7 9b 3e f8 f8 95 3d 50 1e 06 3e
       0.18665521 0.3040128 0.07322878 0.13097501
000390 1a c9 08 3e 75 f2 0d be a0 36 bb bc df e0 7d 3e
       0.13357964 -0.13862021 -0.022853196 0.24792813
0003a0 ba 23 e0 bd 28 5e af 3b 24 3a e9 3d 1a 11 85 3d
       -0.10944314 0.0053518005 0.113880426 0.064974025
0003b0 a3 9e 74 be 61 c4 0a be f4 59 9d 3d fd f1 8d 3c
       -0.2388864 -0.13551475 0.07683173 0.017327303
0003c0 df 32 8a be 9f 19 0f be 46 0b 15 be 14 83 9e bd
       -0.26991937 -0.13974617 -0.14555082 -0.07739845
0003d0 52 73 52 3d f4 85 b9 3b 2f 8f a2 3d a6 a3 fb 3c
       0.05137951 0.0056617204 0.07937466 0.030717682
0003e0 d5 db ef bc ca 2e 80 3c d4 ab 87 3e 75 0c f2 bd
       -0.029279629 0.01564731 0.26498282 -0.11818782
0003f0 85 0d 4a bd 39 94 9d 3e 59 e3 8c bd 44 9b 8c bd
       -0.0493293 0.30777147 -0.068793006 -0.06865552

network_body._body_endoder.seq_layers.0.bias f4 [256]
000000 fb 62 eb bc 17 b8 73 bd 0c df 72 bd e0 ae 26 3d
       -0.028733721 -0.059501734 -0.059294745 0.040694118
000010 20 b7 62 bd 38 95 90 bd 23 f0 e1 3c c9 62 41 3d
       -0.055350423 -0.07059711 0.027580326 0.04721335
000020 ee ff 65 3d 24 9c c1 bc e7 6e a8 bb 8e 17 3d bd
       0.056152277 -0.023634024 -0.0051401737 -0.04616504
000030 87 41 90 bb 75 e7 db bc 90 03 99 bd c3 07 c9 3c
       -0.0044023427 -0.026843766 -0.074713826 0.024539834
000040 0b bd 61 3c 7f 25 7b 3d e2 ac 4c bd 91 e2 64 ba
       0.0137779815 0.061315056 -0.04996956 -0.0008731271
000050 c0 02 c7 bd 3d 79 5d 3d 88 11 95 bd 3d de 3a 3d
       -0.097173214 0.0540707 -0.072787344 0.0456221
000060 14 04 0b bd 17 0f c8 bd ce 31 f5 3d b4 36 66 bd
       -0.033939436 -0.09768503 0.1197239 -0.056204513
000070 31 f2 22 bc ae c2 a2 bd 2c 55 16 bd a5 11 dc bc
       -0.009945438 -0.079472885 -0.03670232 -0.026863882
000080 54 df 81 bb 5e 7c e3 bc 88 c5 83 3d 7f 74 1a 3c
       -0.0039633904 -0.027769264 0.064341605 0.009427189
000090 05 0f 13 be ca 3c 29 bd dd f0 74 3b 5b ea 17 be
       -0.14361198 -0.04131774 0.003737501 -0.14835493
0000a0 b6 e0 f0 bc ed 9b 86 bc 69 69 22 bc 4b 8e 4e bd
       -0.029404026 -0.016431773 -0.009912827 -0.05042867
0000b0 33 85 9b bd 37 ff 20 bc 7e 71 6f bd 44 8c 2d bd
       -0.07593765 -0.009826473 -0.058457844 -0.042370096
0000c0 85 6f 80 bd b5 d2 79 bd 62 a8 fc bd 84 fe 21 bd
       -0.06271271 -0.06099196 -0.12336804 -0.039549366
0000d0 d1 ed 21 3d 14 28 87 3c ae ea af 3d 55 c1 4c bd
       0.03953344 0.016498603 0.085896835 -0.049989063
0000e0 be 98 ae 3c bd 4f b6 bd 40 4a c5 bc 0f c3 9b 3d
       0.021313068 -0.089019276 -0.024083257 0.07605564
0000f0 48 44 0c bb d2 82 1c 3b be a2 47 bd 9a 90 81 3d
       -0.0021403003 0.0023881686 -0.048739187 0.06326409
000100 67 b4 93 bc 83 01 22 3d bf be 3f 3d 25 b5 6e bd
       -0.018030358 0.039552223 0.04681277 -0.05827822
000110 3e 15 d0 bd 6f b9 d6 bd 84 66 2e be dd b5 77 bc
       -0.101603016 -0.104845874 -0.17031294 -0.015119043
000120 8e e7 92 3c ee 0a 89 bd 35 74 34 bb 81 73 f9 3c
       0.01793268 -0.06691538 -0.0027535085 0.030450584
000130 b6 d0 81 bd 9a 96 4d 3c 58 9c f9 3b 9e 18 6e 3d
       -0.063386366 0.012548113 0.0076175146 0.058128946
000140 0d 32 da 3d b8 b5 3a 3d 82 61 ad bd df ef 16 3c
       0.10654078 0.045583457 -0.08465864 0.009212463
000150 aa dd 3e bd e1 14 cb bd 58 00 66 bd a3 4a ab 3d
       -0.046598114 -0.09916092 -0.05615267 0.08363845
000160 e3 b8 c6 3d de 72 c9 bd 60 ef 23 bd 19 e6 06 bd
       0.09703233 -0.09836362 -0.040023208 -0.032934282
000170 d2 8c 83 b9 ac ab 35 bd 45 0a 28 bd 56 90 ac 3d
       -0.00025091186 -0.044353172 -0.04102542 0.084259674
000180 b3 0c 29 bc 06 f5 d9 bc 59 aa 20 bd bd 05 25 bd
       -0.010317969 -0.026606094 -0.039224956 -0.040288676
000190 31 d1 5f bb 45 02 bb bd c2 d1 cf bd 3a fa 1f 3d
       -0.0034151787 -0.09131292 -0.1014743 0.039056994
0001a0 32 53 fb bd 3a b9 7d bc c7 89 37 3d d6 4d 28 3d
       -0.122717276 -0.015486056 0.04480913 0.041089855
0001b0 ed d2 b5 3c 75 b4 e9 bd c1 95 30 bd ef 75 fb bd
       0.022195304 -0.114113726 -0.043111566 -0.122783534
0001c0 c5 d8 46 bd 3d 12 4b bc 2f e8 f3 3c 18 0d 97 bd
       -0.04854657 -0.012394485 0.0297738 -0.07375544
0001d0 8e b0 0a bd 6d f5 8d 3c da 66 7c bb f5 f2 e7 bd
       -0.033859782 0.017328942 -0.0038513453 -0.11325637
0001e0 72 1c 37 3c ec cd 23 be 09 ed 40 bd 82 97 c5 bc
       0.0111762155 -0.15996522 -0.047101054 -0.024120096
0001f0 d3 58 c1 3c 70 85 ac bd 09 15 c6 3b 06 47 40 bd
       0.023601925 -0.08423889 0.006044988 -0.046942733
000200 2c 84 97 bd 9d 57 11 3d 1e 61 1a 3d 1c 42 eb bc
       -0.07398257 0.035483945 0.037690274 -0.028718047
000210 03 c1 f0 bc 17 4d 9b bd 42 11 94 3d 58 49 33 bd
       -0.02938891 -0.07583063 0.07229854 -0.043771118
000220 0d 5d b6 3c 0c 18 48 3d 55 f2 c7 bc 3c d7 82 bd
       0.022261167 0.048851058 -0.024407545 -0.06388709
000230 c8 cf dd bc a4 29 9b bd 73 8a 6f 3d 16 b3 88 bd
       -0.027076617 -0.07576302 0.058481645 -0.06674783
000240 77 41 58 bc b6 c7 c8 bd 8a 82 0e bd 4a 7b fe bd
       -0.013199202 -0.09803717 -0.03479246 -0.12425859
000250 5a b8 a8 bd 48 8b 29 be 1b b8 37 bc 20 a3 9e bd
       -0.08238287 -0.16557038 -0.011213328 -0.077459574
000260 b9 ad 1d bb b7 68 65 bd bd 7c ce bc 3c 1e 0d 3e
       -0.0024059846 -0.056008067 -0.025205964 0.13781065
000270 d3 6d 78 bd 4a 9e d2 bd 63 76 35 3d 1c 2c 3c bd
       -0.06065161 -0.102840975 0.044302355 -0.045940503
000280 31 f0 08 b9 9d df 82 bd 10 93 97 bd b9 b6 19 bd
       -0.00013059449 -0.06390307 -0.07401097 -0.037527774
000290 f4 8b d0 bc 73 0f 6f bc 04 7b 23 bd 13 de 4c bd
       -0.02545736 -0.014591086 -0.03991224 -0.050016474
0002a0 28 93 02 be 9d 1b c3 bd 17 52 0f be 08 7b 62 bd
       -0.12751448 -0.09526751 -0.13996159 -0.055293113
0002b0 e4 22 6e 3d 0d 55 06 3d c5 7f e1 3c bc a9 f1 bd
       0.058138743 0.032795954 0.027526746 -0.117999524
0002c0 0f 95 89 3d 4a ca 5c 3b 5c 0f 04 3d f1 09 c9 3b
       0.06717884 0.003368991 0.03224121 0.0061352183
0002d0 76 04 85 3d dc 81 b8 bc 0a 92 e7 3c 42 a1 69 bd
       0.064949915 -0.02252286 0.028267879 -0.057038553
0002e0 3b 4a 2c bd b9 c9 f5 bc 4e aa a5 3c b7 f8 c4 bd
       -0.04206298 -0.030003415 0.02022281 -0.09617751
0002f0 a9 53 2e 3d ea a3 41 3d 93 47 36 bd 37 dc b3 bd
       0.042560253 0.04727546 -0.044501852 -0.08782237
000300 83 2c 14 bd b4 56 18 bb fa f7 1a be f9 02 fd bd
       -0.036175262 -0.0023245038 -0.15133658 -0.123540826
000310 05 85 a5 3c 42 b0 64 bc 76 41 d7 bd 9e 9f b9 bd
       0.02020503 -0.013958039 -0.105105326 -0.09063648
000320 af 1c 84 bc f1 47 0d bd 30 8a 5f bc 93 5f 9d 3d
       -0.016126959 -0.034492437 -0.013643786 0.07684245
000330 03 09 43 3d f8 0d 26 bd c5 20 9b 3d ad 66 d6 bd
       0.047616016 -0.040540665 0.0757461 -0.104688026
000340 1c 3e f5 bc 9c 46 de 3a a8 98 cc 3c 1a 8c ed bd
       -0.029936843 0.0016958299 0.024975136 -0.11598988
000350 bb c7 80 bd c4 72 3c bd 22 7e 9c bd f6 6e 9f 3c
       -0.062880956 -0.046007887 -0.076412454 0.01946209
000360 89 be e5 bb 2c 90 07 bd bb d5 c4 bc 57 b2 b2 3c
       -0.007011239 -0.033096477 -0.024027696 0.021813555
000370 a5 f6 94 bd 9b e7 5e 3d 64 56 90 bd 5a ee f7 ba
       -0.07273606 0.054420095 -0.07047728 -0.0018915639
000380 ce 74 b7 bc 3d d1 0d bd dd 74 e2 3c a0 a3 11 be
       -0.022394564 -0.034623373 0.027643615 -0.14222574
000390 59 0c ed 3c c0 08 2a 3c ba 31 5a bd ea d7 81 3d
       0.028936552 0.010378063 -0.05327008 0.063400105
0003a0 df ab af 3c ba 26 97 bd c2 4a 0a be 74 3d 25 bd
       0.02144426 -0.073804334 -0.1350508 -0.04034181
0003b0 14 4d 61 bd 61 96 7d bd 9e af 3e bd a6 ef 62 bd
       -0.055005148 -0.06191099 -0.0465542 -0.055404328
0003c0 fe 6e 69 bd f8 be 01 bc 33 84 c5 ba 45 69 f5 bd
       -0.056990616 -0.007919066 -0.0015069306 -0.11982969
0003d0 c9 c4 dd bb 1a 84 2f bd 0a 6c c2 bc d1 4d 99 bd
       -0.0067678434 -0.04285059 -0.023733158 -0.074855454
0003e0 e4 f4 5a 3d 0d 6a 38 bc 9d b2 5f 3c d3 aa b3 3b
       0.053456202 -0.011255753 0.013653425 0.0054830103
0003f0 65 59 bd 3b d4 07 c5 bb 32 f0 8b bd 45 81 38 bd
       0.005778479 -0.006012896 -0.06832923 -0.045045156

network_body._body_endoder.seq_layers.2.weight f4 [256, 256]
000000 68 2e db bc 0d 77 1a be 69 b7 25 be 74 01 5d bd
       -0.026755527 -0.15084477 -0.16183247 -0.053956464
000010 86 4d ac bd 6b 82 bc 3d 63 30 36 3e 33 a3 0d 3e
       -0.08413224 0.09204563 0.17791896 0.13831787
000020 85 10 88 bd 79 6f a9 3d 3c 17 05 3e 12 d5 aa bd
       -0.06643776 0.08273215 0.12997144 -0.08341421
000030 ad c7 82 bd 73 e7 06 3d 99 0c 1c 3e c3 32 20 3e
       -0.063857414 0.03293557 0.1523918 0.15644364
000040 14 53 a8 bd ac de 67 3d 5f 90 86 3c 02 e2 1c be
       -0.08218971 0.05660884 0.016426263 -0.1532059
000050 d9 44 e9 bc 55 9f 01 bd c6 af d8 bd d9 c6 36 bd
       -0.028475212 -0.03164609 -0.10580401 -0.04462323
000060 94 41 2e bd ad c3 3f 3d 0b a0 3a 3b 1e 51 de 3d
       -0.04254301 0.04681747 0.002847674 0.108553156
000070 6b 45 38 3d d6 57 7f 3d 1a 2e 31 3d 24 42 60 3d
       0.044988077 0.062339626 0.043256857 0.054750577
000080 c8 61 6d 3d 86 e8 52 be 05 46 48 bd fe 44 9f 3d
       0.05795458 -0.20596513 -0.0488949 0.07776831
000090 72 f3 f1 bc 67 2c 1b be 74 45 ff 3c 3b 81 1f be
       -0.02953503 -0.15153657 0.031161048 -0.15576641
0000a0 a5 d3 ea 3c b5 a2 1c be d1 c7 00 3e 2f 75 80 3d
       0.028665373 -0.15296443 0.12576224 0.06272351
0000b0 b2 e5 2c 3e 4b 6a fb 3d f9 d6 85 3d 83 91 d9 bd
       0.16884497 0.12276133 0.065351434 -0.10623457
0000c0 56 3f 18 3d 91 52 d0 bd 34 06 28 bd 70 af 25 3e
       0.037169777 -0.10171998 -0.04102154 0.16180205
0000d0 75 a9 c8 3b f8 e7 a4 be 82 8b d2 bd 9e e4 a0 3c
       0.0061237165 -0.32208228 -0.10280515 0.019640263
0000e0 f2 e8 b2 bd 59 d4 f5 3c a0 dd 1b 3e 6e d5 6a 3d
       -0.08735837 0.030008482 0.15221262 0.05733245
0000f0 e7 fa 10 be 89 0a 59 3d 39 13 8d bd ef 69 57 be
       -0.14158212 0.052988563 -0.06888432 -0.21036504
000100 bc 5f 48 3d d4 1f 3d be 14 8c 20 3c 08 82 b2 bd
       0.048919424 -0.18469173 0.009799022 -0.08716208
000110 f3 6e 23 be 41 d4 93 bd d5 38 12 bc 8c 09 70 bb
       -0.15960293 -0.072182186 -0.008924683 -0.0036626784
000120 92 c8 8e be ce b6 5a 3d 42 9c 65 3e 9e 11 a1 3d
       -0.27887398 0.053396992 0.22422889 0.07864688
000130 5a b1 e3 bd 2c 2c 9c 3d 23 ea e9 bc e3 f4 b9 bd
       -0.111178115 0.076256126 -0.028554028 -0.090799116
000140 54 52 ff bd 59 e5 5a 3d 9a b4 a4 3d 24 81 3c 3e
       -0.12466875 0.05344138 0.080422595 0.18408638
000150 a4 72 24 bd fe cb 07 3e 06 3a f5 3c 26 c7 c4 3d
       -0.040148392 0.1326141 0.029934894 0.09608297
000160 43 52 06 be d7 b3 0c be 9f a1 9d bc 07 b9 be be
       -0.13117318 -0.13740478 -0.019242106 -0.3725054
000170 4b cd 96 bb 3e 4e 3a be a8 81 e2 3d 9f 26 42 3d
       -0.0046021095 -0.1819391 0.11059886 0.047400113
000180 cf ec 4d bd 7d 30 71 3e 6c 98 f4 3d 85 d1 52 3d
       -0.050274666 0.23553653 0.11943135 0.051469345
000190 b2 9e c7 bd ea 24 ab bd 8c 90 39 bd 7e d1 8b bd
       -0.097470656 -0.0835665 -0.045303866 -0.06827067
0001a0 8f 73 44 be f5 64 69 bd f8 84 fc bb 48 2d 8f be
       -0.19184707 -0.056981046 -0.007706281 -0.27964234
0001b0 b7 4c e4 bc 54 de 3c 3e 52 ae 70 3d d3 50 a7 3c
       -0.027868612 0.18444186 0.058759995 0.020424282
0001c0 09 9d 90 3d bc 3e 64 3e 89 c8 61 be f4 69 48 bd
       0.07061202 0.22289556 -0.22049154 -0.04892917
0001d0 32 03 2d be 94 a2 b3 bd d6 67 0d 3d 08 2d 3a 3c
       -0.1689575 -0.08771244 0.034522854 0.011363275
0001e0 1b 83 51 3e 5b 12 e0 bd 65 23 6f bb ff 84 89 bd
       0.20460169 -0.10941001 -0.0036489603 -0.0671482
0001f0 7f 99 1c 3d c3 50 0c be 75 2e 98 bd 9f 78 19 3e
       0.038232323 -0.13702683 -0.07430736 0.1498742
000200 1a 2c de bc 39 ea e6 bc f3 e2 13 bd 36 88 a3 bd
       -0.027120639 -0.028187858 -0.036105108 -0.079849645
000210 49 ab 4f bd 4f 9d f7 bd d0 14 24 bd 09 5a d7 3c
       -0.05070046 -0.12090551 -0.04005891 0.02628805
000220 a8 42 bb 3d fc f4 01 3d 6b 20 2c 3e eb 87 2c bb
       0.09143573 0.031727776 0.16809241 -0.002632613
000230 92 be 8f bd 0d 3b 4c 3d 9a 9b c0 3c 4b fb dc 3d
       -0.0701877 0.049861003 0.023511697 0.10790118
000240 01 06 a3 bd b6 df f5 bc e6 39 5d bc 53 3f ef bd
       -0.079601295 -0.0300139 -0.013502574 -0.11682
000250 1c 8c 10 3e 72 44 b1 bd f6 d8 b2 bd b1 ea 51 bd
       0.14115947 -0.08655633 -0.08732788 -0.05124921
000260 2b e7 97 3c 92 11 f4 3c a4 ee ef bb 94 ff d8 3d
       0.018542847 0.029793534 -0.0073221494 0.10595623
000270 16 5b df bc 6e e1 8c bd 4a e0 95 3d 10 9e 87 bd
       -0.027265113 -0.06878935 0.0731817 -0.06621945
000280 4a 01 04 3e b5 c4 f4 3d 08 ad 41 3e 9d a6 1c be
       0.12891117 0.119515814 0.18913662 -0.15297933
000290 30 a1 be bd dc 18 76 3d 63 04 7d 3d 15 a7 4c be
       -0.09308088 0.0600823 0.06177176 -0.19985612
0002a0 fd 34 11 3d 3d 63 ca bd 2a 25 87 bc 67 1e ca bd
       0.035450924 -0.098822095 -0.016497213 -0.0986908
0002b0 e6 b7 0c bd 5c a7 ea bc 7e bf a7 3d 68 7e ba 3d
       -0.034355067 -0.028644256 0.08190821 0.09106141
0002c0 1f d1 39 3e 4f f8 a6 3c 67 2b 1e bc ec f2 a0 bc
       0.1814618 0.020382075 -0.009653903 -0.019647084
0002d0 31 b2 3e 3d e8 68 09 bd 62 f3 56 bd 13 2d b2 bb
       0.046556655 -0.033547312 -0.0524782 -0.005437502
0002e0 24 25 2b be 6f 9f cd bd d6 4b b8 3d 06 1c 39 be
       -0.16713387 -0.10040175 0.089988396 -0.18077096
0002f0 58 a9 aa bd 1f 1c a0 bd cd 25 0d bd 40 33 68 be
       -0.08333081 -0.07817864 -0.034459878 -0.226758
000300 22 c1 d3 bd 7c 65 54 3d 09 fb 99 3d 65 ca f7 bd
       -0.103395715 0.051854596 0.07518584 -0.120991506
000310 06 ae 88 3d b2 75 92 bd 65 1e a9 bd 6c 16 ad bd
       0.06673817 -0.07151355 -0.082577504 -0.08451542
000320 a3 8e 0f be b9 45 e9 bd 4e 29 f1 3d 75 88 86 bc
       -0.14019255 -0.11390252 0.11775456 -0.01642249
000330 9f c7 22 3c 8d 86 e0 bc 17 33 96 bd 7f 0c 07 bd
       0.009935289 -0.027407909 -0.07333963 -0.0329709
000340 4d b5 e6 bd ee 61 c4 bd 13 bb 2f 3e 46 4b 81 3b
       -0.11265049 -0.09588991 0.17161207 0.003945741
000350 a9 b7 b2 bd f7 02 e0 bc 4a 39 ca bd c8 14 66 3d
       -0.08726437 -0.027345164 -0.09874208 0.056172162
000360 73 73 54 be 25 6e 0c be 34 1d b6 bc d0 b5 44 3e
       -0.20747165 -0.13713892 -0.022230722 0.19209981
000370 a8 02 12 be 5b da a6 be b0 9a fd 3c 85 b7 53 3d
       -0.14258826 -0.32588467 0.03095755 0.05168869
000380 c3 af d2 bc 67 c3 d2 bd d9 75 69 bd 65 9b 0b 3c
       -0.025718575 -0.10291176 -0.056997154 0.008520936
000390 99 72 12 bd f8 27 c8 bc 6b 57 00 3d 53 34 27 3d
       -0.03575382 -0.024433121 0.03133337 0.040821385
0003a0 f4 5b b2 3d c5 2a d3 3d 85 31 5b 3d b8 70 07 3e
       0.08708945 0.10310892 0.053514022 0.13226593
0003b0 45 52 6d 3c e7 80 64 bd 00 fd e6 3c e6 21 4b 3d
       0.014484947 -0.055786993 0.028196812 0.049592875
0003c0 c8 07 c9 bb c2 4c db bd 4d 91 a1 3d 8e b7 22 3c
       -0.006134961 -0.10708 0.07889042 0.009931458
0003d0 1c f5 43 be 80 52 ac bd 23 d4 3c 3e e9 46 b7 bd
       -0.1913647 -0.08414173 0.18440299 -0.08949072
0003e0 51 db 6a 3e 17 92 a0 bc 45 c8 30 bd ea 47 81 3e
       0.22935225 -0.019600911 -0.043159742 0.2525018
0003f0 a4 16 b5 3c 5a b4 95 3c 3c d4 c5 bc 67 eb 5f 3c
       0.022105522 0.018274475 -0.024149053 0.013666964

network_body._body_endoder.seq_layers.2.bias f4 [256]
000000 68 09 6e ba d6 b8 f7 3b 98 b8 8b bd 68 4a 59 bc
       -0.0009080381 0.007559876 -0.06822318 -0.013262369
000010 5e 65 2e bc 58 f3 a9 3d d7 e7 00 bd ca 31 ea bc
       -0.010644285 0.08298367 -0.0314711 -0.028588194
000020 80 d6 d9 bc 8a 2e 0f 3d ac 1a c2 bd 19 8b 89 bd
       -0.02659154 0.034956492 -0.094777435 -0.06715984
000030 44 13 0f bd a2 d1 81 bd 38 f1 a9 3b 04 e4 a2 3d
       -0.034930483 -0.063388124 0.005186226 0.07953647
000040 26 5d 99 bc 13 a4 cd bd f5 e7 96 bd 10 ea 36 bd
       -0.018721174 -0.1004106 -0.07368461 -0.044656813
000050 28 e8 a9 bd a6 30 cd 3c 43 b4 18 bd 07 3c 41 3d
       -0.082962334 0.025047611 -0.037281286 0.047176387
000060 e3 bf a3 bd 94 7a 55 bc aa 80 8a bd 3b 1e c2 bc
       -0.07995584 -0.013029713 -0.06762822 -0.023696056
000070 5f 85 45 bc 8d 63 03 be e6 7a 8a bd 12 6c e2 bc
       -0.012055724 -0.12830944 -0.06761722 -0.027639423
000080 f8 62 ca bc 13 7d 4e 3d fd 0f 23 bd 6d aa 6b bc
       -0.024705395 0.05041225 -0.03981017 -0.014383894
000090 3b cf c0 bd f5 e2 b9 3c ee c3 6f bd e7 38 f6 3c
       -0.09414526 0.02269123 -0.058536462 0.03005643
0000a0 d4 02 03 3d dd c4 1d bb 44 05 f2 3c e4 39 f3 bd
       0.03198512 -0.0024073638 0.029543526 -0.11876276
0000b0 1e db 1a be 0c 4c 0d bb 79 ca 87 bd 70 a9 e0 bd
       -0.15122649 -0.002156022 -0.066304155 -0.10969818
0000c0 30 65 1c bd c7 e2 ec bc c2 17 99 bd 37 ad fc b9
       -0.038182437 -0.02891673 -0.074752346 -0.0004819424
0000d0 d1 b1 17 bd ac 1e a8 bd 72 88 c1 3b b3 e9 d9 bd
       -0.037034813 -0.08208975 0.005906158 -0.10640278
0000e0 b9 cd 84 bc 29 29 ad bd 42 3a 1f bd 42 ae 8a bd
       -0.016211377 -0.08455116 -0.03887392 -0.06771518
0000f0 d8 a4 85 bd ed 53 2f bd ae 62 9e bc 24 fa 30 be
       -0.06525582 -0.042804647 -0.019334164 -0.17282921
000100 b4 6d db bd 0d d8 67 3d 5d ff cd bb 79 3b 16 bd
       -0.107142836 0.056602526 -0.006286545 -0.03667781
000110 68 a7 42 bd 0c a9 9d 3c ab 59 c7 bc e3 62 c8 3d
       -0.047522932 0.019245647 -0.02433475 0.09784486
000120 28 b1 06 be 3d 7e a2 ba 9e 82 29 3c 8f 0e 77 bd
       -0.13153517 -0.0012397241 0.010346083 -0.06031662
000130 e3 c9 15 3d 1b 56 02 3c 30 99 09 3d dc f1 6f 3c
       0.036569487 0.007955099 0.033593357 0.014645066
000140 8f 40 84 3d a0 d6 98 3a 81 1b 69 bd 59 a8 98 bd
       0.06457626 0.0011660643 -0.056910995 -0.07453985
000150 27 7b 45 3d 69 2f 8d 3d f5 3a 56 bd f5 81 04 be
       0.04821315 0.068938084 -0.05230232 -0.129402
000160 51 34 b4 bc 24 bc 47 bd 05 a4 9e bd 8f 6c 41 3d
       -0.021997603 -0.04876341 -0.07746128 0.04722267
000170 3f 46 b2 bd cd 30 78 bd ad a4 8b bc e4 e5 37 3d
       -0.08704805 -0.060593415 -0.017046297 0.044896975
000180 a6 88 06 3d e2 28 91 bd cd 56 27 bd 61 ed 01 be
       0.03284516 -0.07087876 -0.040854264 -0.12688209
000190 e2 39 b4 3d a6 47 85 3d 87 66 80 3d 1a 3f a8 bd
       0.08800103 0.065078065 0.062695555 -0.08215161
0001a0 bd 4a a0 bc 79 11 74 bc 44 01 ba bd 5a 09 f0 bd
       -0.019566888 -0.014896744 -0.09082273 -0.11720534
0001b0 f4 d0 9c bd a3 47 3c bd f3 53 c1 bd db c5 a8 bd
       -0.07657042 -0.045966756 -0.0943984 -0.08240863
0001c0 ef 3d 2d bd 82 bc 97 3d 6a bc b0 bd 91 74 12 bd
       -0.042295393 0.07409002 -0.08629687 -0.035755698
0001d0 ae 09 4c bd f8 2b 98 bd a9 69 8b bd f9 46 80 3d
       -0.04981392 -0.074302614 -0.068072625 0.06263537
0001e0 af a1 cc bd b0 a7 eb bb 41 ac 24 be 2d f2 53 bc
       -0.09991776 -0.0071916208 -0.16081335 -0.012936157
0001f0 f9 b0 2d bd e4 35 3a bd 19 a5 87 bd 4a 05 be bc
       -0.042405102 -0.04546155 -0.06623287 -0.023195881
000200 54 81 a7 bd 4e 14 d8 bd 63 4e c5 bc 00 ca 25 bd
       -0.08178964 -0.10550748 -0.02408523 -0.040475845
000210 0f 4c 2a 3d 97 55 d1 bd 6e 03 25 3c 4e aa 8e bd
       0.04157644 -0.10221403 0.0100716185 -0.06966077
000220 22 6d 60 bd 2e c1 65 3c 4e 8a b0 bd db 46 b3 bc
       -0.054791577 0.014023108 -0.086201295 -0.021884372
000230 3f aa 2b 38 65 03 e7 bd 19 2b fc bb 06 97 1c bd
       4.092813e-05 -0.11279944 -0.0076955673 -0.038229965
000240 05 15 88 bd 4e b6 8b bd 1d a9 a8 bc 40 e6 41 3d
       -0.06644634 -0.06821881 -0.020588452 0.047338724
000250 81 bf 00 bd f5 d0 cb bd 89 01 8d 3d f3 24 3b bc
       -0.031432632 -0.09951965 0.068850584 -0.011422384
000260 34 0c 87 3c b2 0c ed bd ec a7 44 bd 54 0c ac bd
       0.016485311 -0.11574687 -0.048011705 -0.08400789
000270 9e 22 1e 3d 34 fc ce bd 00 f2 6c bd 11 1a 2b bd
       0.038607232 -0.10106698 -0.057847977 -0.041772906
000280 80 8a 3e be af 7f 9b 3d 0b d9 5b bd 07 63 1c bd
       -0.18607521 0.07592713 -0.053673785 -0.038180377
000290 ae 4e f1 bd 88 67 5e bc 0f ba 84 bd 97 ac eb bd
       -0.11782585 -0.013574488 -0.064808 -0.11507528
0002a0 9d 16 ba bc 47 0d 44 3d 12 2e 0d bd a7 99 93 3b
       -0.022715861 0.047864225 -0.034467764 0.004504401
0002b0 c7 ed c5 bc 59 73 a0 3c 60 42 9f 3d b2 f0 5b b9
       -0.024161233 0.019586252 0.07776332 -0.00020975134
0002c0 24 9d a2 bd 1c ad 7b 3d 03 59 06 3d fb 3e bd bd
       -0.079401284 0.061444387 0.032799732 -0.09240528
0002d0 14 2c 05 3e 97 7d 99 bd 87 92 e8 3c ec 25 4d bd
       0.13005096 -0.074946575 0.028390182 -0.050084993
0002e0 c8 97 1a bd 2c 2a b6 bd 53 fb 13 bd d5 c7 fe bc
       -0.037742406 -0.088947624 -0.036128353 -0.031101147
0002f0 d9 17 43 bd af 0a 71 3d d2 c7 4b 3d e8 a2 95 b8
       -0.047630165 0.05884808 0.04975111 -7.135217e-05
000300 67 9f 8a bd 6c 97 1d be c0 ee 26 bd 97 25 f6 3d
       -0.06768685 -0.15389794 -0.040755033 0.120188884
000310 78 4b da 3c 41 39 84 bd e9 23 4e 3a ad 1f 1a bd
       0.026647314 -0.06456233 0.00078636274 -0.037627865
000320 0a 75 86 bd 06 94 e9 3c 0b b0 91 3d 5e 85 10 be
       -0.06565292 0.028512966 0.07113656 -0.14113376
000330 f9 dc dd bc f7 32 94 bd db ff 27 be 3e 67 89 bd
       -0.027082907 -0.07236283 -0.16406195 -0.06709145
000340 7f e3 9a bd 12 4b aa bc fa de b8 bd 41 4c 32 bd
       -0.07562923 -0.02078775 -0.090269044 -0.043529753
000350 6b 8a 8d bd e3 88 db 3b c0 68 81 bd d3 16 81 bd
       -0.06911167 0.006699668 -0.063188076 -0.063031815
000360 b8 2e 09 bd 65 33 27 bd be 5c 04 bd da 75 27 3d
       -0.03349182 -0.040820498 -0.03231501 0.040883876
000370 b6 9b 85 3d 75 47 1b 3d fa 2a 95 bd 21 44 af bd
       0.0652384 0.037909944 -0.07283588 -0.085579164
000380 82 9e 67 3c 47 35 43 bd 6d b4 9f bd fb 15 3c bd
       0.014136912 -0.04765823 -0.07798085 -0.0459194
000390 fb 84 bb bd c2 ec 5d bd 40 35 ca bd 77 a5 1e 3d
       -0.091562234 -0.054180868 -0.09873438 0.03873202
0003a0 20 3a 8b bd 05 12 8a 3c 97 1d 2b be aa a9 1a bd
       -0.06798196 0.016854296 -0.16710506 -0.03775946
0003b0 16 b6 37 3c 1c 01 ac 3b a5 63 14 3d de 94 e3 bc
       0.011212846 0.0052491557 0.03622784 -0.027780946
0003c0 e8 67 90 bd 4e b3 bb bd 5d e2 11 be 8e ab 9a 3c
       -0.070510685 -0.09165059 -0.14246507 0.018880632
0003d0 5a d0 53 ba d7 df ad 3d 84 dc 96 bd 5f 42 f5 bd
       -0.0008080058 0.0848996 -0.07366279 -0.1197555
0003e0 5f e9 b6 3c 6e ba 50 bd 24 dc 17 bd 39 94 5d bd
       0.022328077 -0.050959043 -0.037075177 -0.054096434
0003f0 98 b0 bf 3d 29 88 8b 3d 9f d5 23 bd 1d c4 06 b9
       0.093598545 0.0681308 -0.039998647 -0.00012852294

action_model._continuous_distribution.log_sigma f4 [1, 12]
000000 67 f5 0f c0 5e 1b fa bf db 5d 07 c0 51 67 08 c0
       -2.2493532 -1.9539602 -2.1151035 -2.131306
000010 e6 2b f6 bf 73 7e 03 c0 2a c6 ee bf 10 f4 f9 bf
       -1.9232147 -2.0545928 -1.8654225 -1.9527607
000020 cf ec f9 bf b9 9f e8 bf e4 b0 04 c0 3f 3d 02 c0
       -1.9525393 -1.8173743 -2.0732965 -2.0349882

action_model._continuous_distribution.mu.weight f4 [12, 256]
000000 20 62 ec bc ad 2d 0a 3d e0 c0 5c bc a1 5c 8e bd
       -0.028855383 0.033734966 -0.013473719 -0.06951261
000010 6c 5f 19 bd c8 a9 11 3c 58 51 a2 bd 34 db 3a bc
       -0.037444517 0.008890577 -0.07925671 -0.011404801
000020 5e c0 2f 3d b9 f3 e6 3d 3c 28 c5 3b dd ad 96 bb
       0.042908065 0.11276955 0.006016759 -0.004598363
000030 1d 38 a7 bd 86 8c 28 3d f5 26 08 bb c2 e7 c9 3d
       -0.08165 0.04114964 -0.0020775173 0.098586574
000040 66 d1 b9 3d 11 9c be 3d ba 92 a9 bc 4e 72 4c bb
       0.09073143 0.09307111 -0.020699847 -0.003119606
000050 8b ae 47 3e 7c c1 84 3c ac 31 f3 3d 57 f9 6e bc
       0.19500177 0.016205542 0.118747085 -0.014585814
000060 63 7f 57 be 3a 8b 03 3c 98 8f 19 be 94 c0 f9 bc
       -0.21044688 0.0080288 -0.14996183 -0.030487336
000070 c9 54 2d 3d 6d 5e 06 bd c8 db 62 bd d5 f6 9a 3b
       0.042317186 -0.032804895 -0.05538538 0.0047291317
000080 88 1a 0e bd 7f 98 17 3d 94 4c 03 bd 25 1e 27 bd
       -0.03469327 0.037010666 -0.032055452 -0.040800232
000090 08 4e b9 bc e1 7c 60 3d a4 45 3a bd b4 97 1d 3d
       -0.022620216 0.054806594 -0.04547657 0.038474753
0000a0 11 3c ec 3c f4 36 0c 3d 03 aa 99 3d de df 0b 3d
       0.028837236 0.034232095 0.0750313 0.034149043
0000b0 ae 4e de 3c bd 64 43 3d 30 d5 74 bc d1 24 67 3d
       0.027137127 0.047703493 -0.014943406 0.056431595
0000c0 4b 42 b2 bd 7b f6 60 bd 8e 68 a2 bd f6 87 dc bb
       -0.08704051 -0.054922562 -0.079300985 -0.006730075
0000d0 cb a8 b3 3d a7 ec 2e bd 77 dd 2f bd 99 69 a5 3d
       0.08772429 -0.042706158 -0.042935815 0.08076782
0000e0 18 5a 0f bd 08 57 90 bd 66 e2 c8 3d 9f ed 2d bc
       -0.03499803 -0.0704785 0.09808807 -0.010615735
0000f0 3a 82 ad bd 43 cc 64 bd 70 af ae bd e4 b8 8e bd
       -0.08472104 -0.05585886 -0.08529556 -0.06968859
000100 da 5d f7 bd 07 c3 11 3e 88 03 1f 3c 0d 72 76 3d
       -0.12078448 0.14234553 0.009705432 0.06016736
000110 70 04 00 3d f7 26 54 3d fd ac 51 3d c7 81 8d 3d
       0.031254232 0.051794972 0.051190365 0.06909519
000120 7c 96 3d 3d 64 7f 2f 3d 9b a8 86 bc da d6 56 bc
       0.04628609 0.0428461 -0.01643782 -0.013112748
000130 79 58 87 3c 82 a8 d6 3c 7e 72 5b bd e2 bd dc bc
       0.01652168 0.026203398 -0.053575985 -0.026946012
000140 ff 45 67 3c 69 a2 8a bd 31 fc 85 bd 37 a9 99 bc
       0.014115809 -0.067692585 -0.06542242 -0.018757446
000150 85 5a 54 3d 16 25 43 3d ed ba ad bd 5c 67 14 bc
       0.05184414 0.04764279 -0.08482919 -0.009057846
000160 e8 58 35 3d c6 02 18 bc bb 31 27 ba 41 94 5d 3a
       0.04427424 -0.009278005 -0.0006377955 0.00084525725
000170 36 90 7e 3d d7 fc bc 3c 17 74 e5 3d 81 fa ef 3d
       0.06214925 0.023069782 0.11203783 0.11717702
000180 61 58 28 3d 6f a2 84 bc 1b d9 1d be 4a ab 9b bc
       0.04109991 -0.016190736 -0.1541485 -0.019002575
000190 42 f1 b1 3d 00 8b 86 bd fc 03 8b 3d 02 a6 63 3d
       0.086885944 -0.06569481 0.06787869 0.05557824
0001a0 15 24 ee 3c b9 ba 33 3a a6 88 51 bc 6e 7f 22 bd
       0.02906994 0.0006856132 -0.012788927 -0.039672308
0001b0 49 d3 8c bc 06 fe 90 3d 9d 20 f5 bd f2 78 b3 bb
       -0.017190592 0.07079701 -0.11969111 -0.0054770643
0001c0 80 b1 dd 3d 98 ba b6 3d f3 29 f4 3b ab 96 1b bc
       0.10824871 0.08922309 0.00745129 -0.009496371
0001d0 78 02 7a 3d 20 e5 9e 3d ea cc f2 3c ab 2d c1 3c
       0.06103751 0.07758546 0.029638726 0.023581346
0001e0 fe b3 80 3d ac 5a c9 3d d7 95 84 bd a4 ea 62 3d
       0.06284331 0.098317474 -0.06473892 0.055399552
0001f0 12 cb 52 bd ec d2 86 bd fd 0e 96 bc 6b ef 9d bd
       -0.051463194 -0.06583199 -0.018317694 -0.07711681
000200 a3 b8 00 3e b0 6b 79 bc a4 e1 fe 3c f1 54 20 bc
       0.12570433 -0.015223429 0.031113453 -0.009785877
000210 d0 45 33 3d c5 e7 07 3d 20 13 ee 3c 3f 5a 00 bb
       0.04376775 0.033180017 0.029061854 -0.001958504
000220 5e c6 b1 3c 3a 92 fd 3d 24 f7 f4 bc 29 c8 c5 3c
       0.021701034 0.12381406 -0.029903002 0.024143295
000230 5e 1e ba 3d 60 ce 90 3d d7 fb 91 3d 90 50 74 3d
       0.09087823 0.07070613 0.07128113 0.059647143
000240 d6 c7 eb bc a4 9f 0d bc 9c 14 ce bc 8d be 67 3d
       -0.028781813 -0.008644018 -0.025156312 0.056578208
000250 01 b6 db 3d 3b e1 9c 3d 2b c3 2d 3d 91 11 50 3c
       0.10728074 0.07660147 0.042422455 0.012699501
000260 8c 62 c0 3d a4 e5 6d 3d 38 d8 8d bd e7 e2 b2 3c
       0.09393796 0.05808033 -0.06926006 0.021836711
000270 f0 b7 b5 3d f5 13 2c be 1a 9f e0 bb c1 34 6d bd
       0.08872974 -0.16804488 -0.006854904 -0.05791164
000280 74 00 cf bd 7a 37 44 3d b7 31 b4 bc fe 7f 8b bc
       -0.10107508 0.04790447 -0.021996362 -0.017028805
000290 8f d4 47 bd 06 3b 47 3d 56 42 73 3c a1 10 cf 3b
       -0.048786696 0.048640274 0.014847359 0.006319121
0002a0 1d 3f 77 3c 72 4d 7d 3d d9 b6 b1 bd 8e 6e 4f bd
       0.015090731 0.061841436 -0.086774535 -0.050642543
0002b0 88 74 68 3d d0 27 6b bd e9 39 98 3d b3 63 58 3c
       0.056751758 -0.057411015 0.074329205 0.013207364
0002c0 27 32 0a 3d 28 ef 21 3c ca 41 c6 3d ee d9 5b 3a
       0.033739235 0.009883679 0.09680517 0.0008386661
0002d0 58 b1 aa 3d e7 98 07 be bd d7 b1 bc b5 b4 49 3d
       0.08334607 -0.13241921 -0.021709317 0.0492446
0002e0 aa df 0a be c5 4b 1e bd 16 62 f8 bd af 7b 02 bc
       -0.13561884 -0.03864648 -0.121280834 -0.007964059
0002f0 91 18 56 bd 9c ba 7f 3d de d6 24 3d 3c 31 3e 3d
       -0.052269522 0.062433824 0.040243976 0.046433672
000300 1c 67 39 3d 11 60 12 be c5 fe ef bc f0 b4 eb 3d
       0.04526435 -0.14294459 -0.029296288 0.115091205
000310 51 c2 18 3e 18 8d 40 bd f5 4b 93 bd 5f 98 78 bd
       0.14917876 -0.047009557 -0.07192222 -0.060692187
000320 70 80 57 3c c3 70 b4 3d f6 12 ce 3b 2a bf ba bd
       0.0131531805 0.0881057 0.0062888814 -0.09118493
000330 ec 0b d5 bc 3d a3 bd bc 29 f5 08 be e7 61 19 3b
       -0.026006661 -0.023149127 -0.13374771 0.0023404302
000340 b5 7c b6 3c 3a 8f 8d bd 05 0d c7 bd 0d e9 c2 bd
       0.022276262 -0.06912084 -0.0971928 -0.09517107
000350 1c 26 ec bc fb af d8 bd 9c 14 1e be 06 94 9a 3d
       -0.028826766 -0.105804406 -0.1543755 0.075477645
000360 a3 20 3a 3b 7f 52 25 3c 30 64 b1 3a db e5 a7 3c
       0.00284008 0.010090469 0.0013533887 0.020495346
000370 10 68 86 3d 85 8b 21 bc fe b8 fb bd 11 d0 b4 bd
       0.06562817 -0.009859924 -0.12291144 -0.08828748
000380 8f e3 32 3d 71 4d 8a 3d 81 6c 1a 3d 3c 39 b8 bd
       0.043674048 0.06753052 0.037701134 -0.089952916
000390 d4 e9 a0 bd 43 03 1e 3d da c0 1d bd 2c 5a a2 3d
       -0.07857099 0.03857733 -0.038513996 0.07927355
0003a0 ab c0 38 3e 3a 17 9b 3c fd 0a 19 be 78 70 ee 3c
       0.18042247 0.018931974 -0.14945598 0.029106364
0003b0 a9 5b 7e bb 67 76 96 3c 61 da 55 bc ee 3f 5c bc
       -0.0038811958 0.018367006 -0.013052554 -0.013442976
0003c0 47 77 0d bd 77 75 49 bd e3 df a5 bd e5 87 d3 3d
       -0.03453758 -0.04918429 -0.08099344 0.10328654
0003d0 5e 51 ca 3d 8b ed f2 3c 06 b8 27 3a 24 22 90 bc
       0.09878801 0.029654285 0.0006397966 -0.017594405
0003e0 97 e2 9b 3d 31 23 6a bd 5b a1 b8 3c 9e 45 f5 bc
       0.07611578 -0.057162467 0.022537878 -0.029940423
0003f0 ec 53 9b 3d 1a 35 88 3d e2 be 0f bd 7d ba 29 bc
       0.07584366 0.06650753 -0.03509415 -0.010359404

action_model._continuous_distribution.mu.bias f4 [12]
000000 14 fb 12 3e 95 e1 ec bb 3e e1 5c bd 54 86 b7 bc
       0.14353591 -0.00722904 -0.053925745 -0.02240292
000010 d6 ef 7c 3d f0 de a5 bc 89 7f 4c 3e 01 9a 07 3d
       0.061752163 -0.020247906 0.19970526 0.033105854
000020 0d e0 a9 bd 21 c6 99 bc 43 92 a7 3d 61 87 a0 bd
       -0.082946874 -0.018771233 0.08182194 -0.078383215

onnx::Div_51 f4 [75]
000000 98 39 a4 41 8b 22 df 44 78 ed 9e 43 11 58 98 40
       20.528122 1785.0795 317.85522 4.7607503
000010 95 8c 72 40 9a 07 9f 40 1b e3 f2 3e 7b da b7 44
       3.7898304 4.969678 0.47438893 1470.8275
000020 dd 39 c8 47 87 81 8f 46 0d e8 2b 3f 0e e2 3f 3e
       102515.73 18368.764 0.67150956 0.18738577
000030 0e 35 50 3d 96 10 27 3e 9d 72 01 3e 2c dc bd 3d
       0.050831847 0.16314921 0.12641378 0.0927051
000040 2d 7f 30 3e 5c f7 7e 3f ad d1 39 3e 84 ae 69 3e
       0.17236014 0.9959619 0.18146391 0.22820479
000050 9d 78 2e 3e 65 af 3c 3e ba 82 09 3e 5c 3e aa 3d
       0.17038198 0.18426283 0.13428774 0.08312675
000060 22 db 05 3e 5e 99 2b 3f da 48 9c 3e 0e fa 31 3e
       0.13071874 0.67030895 0.3052433 0.17380545
000070 3f 56 84 3d 70 81 41 3e ce fb 05 3e 98 c5 cf 3d
       0.06461763 0.18897033 0.13084337 0.1014511
000080 c8 bb 4f 3e 6f 62 7c 3f a0 be 81 3e 1c e9 24 3e
       0.20286477 0.985877 0.25340748 0.16104549
000090 1b 2a 5c 3e aa b6 59 3e 8f e6 00 3e b5 48 d7 3d
       0.21500437 0.21261087 0.12587951 0.10511915
0000a0 48 82 d0 3d 33 da 62 3f a8 1d a2 3e 17 65 81 3e
       0.10181099 0.88614196 0.3166325 0.25272438
0000b0 c4 1a 8b 3d 6b 1f 48 3e a1 8c f5 3d 37 8d b2 3d
       0.067922145 0.19543235 0.119897135 0.08718341
0000c0 d8 d9 9a 3e 21 6a 7b 3f 8f 4a 3b 3e 48 5a 15 3f
       0.30244327 0.98208815 0.1829016 0.58340883
0000d0 93 35 3d 3e 0e 94 01 3e ea e9 39 3e 04 61 e4 3d
       0.18477468 0.12654135 0.18155637 0.11151317
0000e0 32 24 a7 3e 79 8c 15 3f 1f ee ea 3e b8 5a 77 3e
       0.32644802 0.5841747 0.45884797 0.241557
0000f0 c2 0d a6 3d b7 0b 17 3e 25 97 fb 3d 58 d2 aa 3d
       0.08108093 0.14750563 0.12284688 0.08340901
000100 53 37 8b 3e 63 24 77 3f 31 88 80 3e bd 3b 14 3f
       0.27190647 0.96539897 0.25103906 0.57903653
000110 bb e0 14 3e 21 b2 b4 3d c0 64 39 3e 65 ca a0 3d
       0.14538853 0.08823038 0.1810484 0.07851104
000120 53 6b ab 3e 40 06 3a 3f 08 69 0d 3f
       0.3348032 0.72665787 0.5523839
