results/robot_run2/RobotAgent/RobotAgent-0.onnx (onnx, 142199 bytes, 9 tensors)

network_body.observation_encoder.processors.0.normalizer.running_mean f4 [106]
0	0x00000000	0.0
1	0x00000000	0.0
2	0x00000000	0.0
3	0x00000000	0.0
4	0x00000000	0.0
5	0x00000000	0.0
6	0x00000000	0.0
7	0x00000000	0.0
8	0x00000000	0.0
9	0x00000000	0.0
10	0x00000000	0.0
11	0x00000000	0.0
12	0x00000000	0.0
13	0x00000000	0.0
14	0x00000000	0.0
15	0x00000000	0.0
16	0x00000000	0.0
17	0x00000000	0.0
18	0x00000000	0.0
19	0x00000000	0.0
20	0x00000000	0.0
21	0x00000000	0.0
22	0x00000000	0.0
23	0x00000000	0.0
24	0x00000000	0.0
25	0x00000000	0.0
26	0x00000000	0.0
27	0x00000000	0.0
28	0x00000000	0.0
29	0x00000000	0.0
30	0x00000000	0.0
31	0x00000000	0.0
32	0x00000000	0.0
33	0x00000000	0.0
34	0x00000000	0.0
35	0x00000000	0.0
36	0x00000000	0.0
37	0x00000000	0.0
38	0x00000000	0.0
39	0x00000000	0.0
40	0x00000000	0.0
41	0x00000000	0.0
42	0x00000000	0.0
43	0x00000000	0.0
44	0x00000000	0.0
45	0x00000000	0.0
46	0x00000000	0.0
47	0x00000000	0.0
48	0x00000000	0.0
49	0x00000000	0.0
50	0x00000000	0.0
51	0x00000000	0.0
52	0x00000000	0.0
53	0x00000000	0.0
54	0x00000000	0.0
55	0x00000000	0.0
56	0x00000000	0.0
57	0x00000000	0.0
58	0x00000000	0.0
59	0x00000000	0.0
60	0x00000000	0.0
61	0x00000000	0.0
62	0x00000000	0.0
63	0x00000000	0.0
64	0x00000000	0.0
65	0x00000000	0.0
66	0x00000000	0.0
67	0x00000000	0.0
68	0x00000000	0.0
69	0x00000000	0.0
70	0x00000000	0.0
71	0x00000000	0.0
72	0x00000000	0.0
73	0x00000000	0.0
74	0x00000000	0.0
75	0x00000000	0.0
76	0x00000000	0.0
77	0x00000000	0.0
78	0x00000000	0.0
79	0x00000000	0.0
80	0x00000000	0.0
81	0x00000000	0.0
82	0x00000000	0.0
83	0x00000000	0.0
84	0x00000000	0.0
85	0x00000000	0.0
86	0x00000000	0.0
87	0x00000000	0.0
88	0x00000000	0.0
89	0x00000000	0.0
90	0x00000000	0.0
91	0x00000000	0.0
92	0x00000000	0.0
93	0x00000000	0.0
94	0x00000000	0.0
95	0x00000000	0.0
96	0x00000000	0.0
97	0x00000000	0.0
98	0x00000000	0.0
99	0x00000000	0.0
100	0x00000000	0.0
101	0x00000000	0.0
102	0x00000000	0.0
103	0x00000000	0.0
104	0x00000000	0.0
105	0x00000000	0.0

network_body._body_endoder.seq_layers.0.weight f4 [128, 106]
0	0xbe14c82c	-0.14529485
1	0x3cacbb4a	0.0210854
2	0xbd5ae819	-0.053444
3	0x3dc56cb1	0.09639872
4	0xbd8d75d7	-0.06907242
5	0xbd73027a	-0.059328534
6	0x3d33d418	0.04390344
7	0xbdb6b003	-0.0892029
8	0x3ce9ac19	0.028524445
9	0x3a88d6b8	0.0010439968
10	0x3d590a9f	0.052988645
11	0xbd45e353	-0.048312496
12	0x3e03e160	0.12878942
13	0xbd8715ca	-0.06595953
14	0x3bacc7f6	0.0052728606
15	0xbdf687a1	-0.12037588
16	0xbcc71e96	-0.024306577
17	0xbce3d6e0	-0.027812421
18	0xbd816aa6	-0.0631917
19	0x3d2d8834	0.04236622
20	0x3e17c7b7	0.14822279
21	0x3db95114	0.090486676
22	0xbd788098	-0.06066951
23	0xbd725673	-0.059164476
24	0xbda35cd0	-0.07976687
25	0x3da92675	0.08259288
26	0xbe574dac	-0.21025723
27	0x3d885cee	0.0665835
28	0xbca20fb7	-0.019782884
29	0xbe418559	-0.18898524
30	0xbe2814a9	-0.16414131
31	0x3d0bd003	0.034133922
32	0xbdbbaf69	-0.09164316
33	0x3c52b53a	0.012860591
34	0x3d4beafa	0.049784638
35	0x3d768d69	0.060193453
36	0xbda77d9c	-0.08178255
37	0xbd11fbbe	-0.03564047
38	0xbd94ff04	-0.07275203
39	0x3e3fdc91	0.18736483
40	0xbc0f5942	-0.008749308
41	0xbbdb7aeb	-0.0066980026
42	0x3e36e0ac	0.17859143
43	0xbe90a7bb	-0.28252968
44	0xbc2ac5bf	-0.010423123
45	0xbe3e07bb	-0.18557636
46	0xbe4820af	-0.19543718
47	0x3cacfb6c	0.021115981
48	0xbde68c45	-0.11257223
49	0xbd30316d	-0.043015886
50	0x3da934a9	0.08261997
51	0xbd86ef79	-0.065886445
52	0xba3fbd3b	-0.00073142693
53	0x3d241b43	0.04006506
54	0x3dbee317	0.09320658
55	0x3dd8a80a	0.10578926
56	0x3d1a9e53	0.037748646
57	0x3d298cc3	0.041394006
58	0xbc685417	-0.014180205
59	0x3d387253	0.045030903
60	0x3d4b4115	0.049622614
61	0xbe08c90b	-0.13357942
62	0xbd3cc0d9	-0.04608235
63	0x3d261d80	0.040555477
64	0xbe388bc6	-0.1802207
65	0x3e12f638	0.14351737
66	0x3dcf349a	0.10117455
67	0xbcc4f6f3	-0.024043536
68	0xbcf0c656	-0.029391449
69	0x3c8e8f9d	0.017402465
70	0xbe20e734	-0.15713197
71	0x3da0e106	0.0785542
72	0x3d6b1627	0.057394173
73	0xbe07c592	-0.13258961
74	0x3cddd6cf	0.027079968
75	0x3b09b100	0.0021010041
76	0xbe35f5ec	-0.17769593
77	0x3dc8ef1e	0.09811233
78	0x3d2d0ce6	0.04224863
79	0xbe4645cc	-0.19362563
80	0x3d214aa9	0.039377842
81	0xbdc409c9	-0.09572179
82	0x3deb9784	0.11503509
83	0x3da7563d	0.081707455
84	0x3d732839	0.05936453
85	0x3ce65b8b	0.028119823
86	0xbc882357	-0.016618414
87	0xbdbfe6f5	-0.093702234
88	0xbdb61906	-0.088914916
89	0xbc8a02b7	-0.016846998
90	0xbd678e86	-0.056532405
91	0x3dce1294	0.10062137
92	0xbe1f85c4	-0.15578371
93	0xbd8f7ddc	-0.07006428
94	0x3e19442b	0.1496741
95	0xbe2e57aa	-0.17025629
96	0x3db41a5a	0.08794089
97	0xbdb09639	-0.08622403
98	0x3da1d8e9	0.079027005
99	0xbbbd3e01	-0.0057752137
100	0x3d30d228	0.04316917
101	0xbe20892d	-0.15677328
102	0xbc653994	-0.0139907785
103	0x3b86aef8	0.0041102134
104	0xbe2802b1	-0.16407277
105	0x3cef9e42	0.029250268
106	0xbd539c3e	-0.051662676
107	0x3ddb6683	0.10712912
108	0x3d0b8dd2	0.034070797
109	0xbe000a72	-0.12503985
110	0x3d871692	0.06596102
111	0xbba8e503	-0.0051542534
112	0x3ddd3841	0.10801745
113	0x3e30638d	0.17225476
114	0xbd18bc1f	-0.03728878
115	0x3e0877a9	0.13326897
116	0xbd52444b	-0.05133466
117	0xbd9a7550	-0.07541907
118	0x3cd16da8	0.025564983
119	0x3c7dbf3a	0.0154874865
120	0x3d165b1d	0.036707986
121	0x3ce1f800	0.027584076
122	0xbdc57f4d	-0.09643421
123	0x3c4c80e7	0.012481905
124	0x3df3127e	0.118687615
125	0xbd34348f	-0.043995436
126	0xbdc99ee7	-0.09844761
127	0x3cba5ab0	0.022748321
128	0xbdb5314f	-0.088472955
129	0x3c8976e5	0.016780326
130	0xbe8e95b6	-0.27848595
131	0xbc4f633a	-0.012657935
132	0xbe25a497	-0.16176067
133	0x3dba88fd	0.0910816
134	0xbdbda582	-0.09260084
135	0x3db2f594	0.087382466
136	0xbc9949cd	-0.018711949
137	0x3d830dcf	0.06399118
138	0x3c931f5f	0.017959295
139	0x3c659165	0.014011716
140	0xbe2f2990	-0.17105699
141	0x3c0f8ed9	0.008762085
142	0xbddfd727	-0.10929709
143	0xbd23101c	-0.039810285
144	0xbd2df3dd	-0.042468894
145	0x3e47de66	0.19518432
146	0xbc9885f4	-0.018618561
147	0xbc614933	-0.013750362
148	0xbc817357	-0.015802069
149	0xbe102758	-0.14077508
150	0x3db792d5	0.08963553
151	0xbded5751	-0.1158892
152	0x3e09db55	0.13462575
153	0x3c6b4be3	0.0143613545
154	0xbe17dfff	-0.14831541
155	0xbe52469e	-0.20534751
156	0x3b559e91	0.0032595734
157	0x3d22b1dd	0.039720405
158	0xbccb166b	-0.024790963
159	0xbcaae095	-0.020859042
160	0xbde3d150	-0.111239076
161	0xbcbb6ab0	-0.022878021
162	0x3e230038	0.15918052
163	0xbe4139ca	-0.18869701
164	0xbcfc2362	-0.03077859
165	0xbd072b54	-0.033000305
166	0xbe06cc83	-0.13163953
167	0xbe1cc0b9	-0.15307893
168	0x3ddc669d	0.107617594
169	0x3e2ce03c	0.16882414
170	0xbd492f9b	-0.049117666
171	0xbe5cf4be	-0.21577737
172	0x3e4f5dd4	0.20250636
173	0xbd58d3f4	-0.05293651
174	0xbe18d887	-0.14926349
175	0xbd048049	-0.032348905
176	0x3e167f31	0.14696957
177	0x3d9757ec	0.07389817
178	0x3cda1c6a	0.026624877
179	0x3d9f1bf5	0.07769004
180	0xbc994ed4	-0.018714346
181	0xbd852d6d	-0.06502805
182	0x3e819a4d	0.25313035
183	0x3e101879	0.14071836
184	0xbe4caa86	-0.19986925
185	0x3e08d99b	0.1336426
186	0x3dc06f0f	0.09396183
187	0x3dea5e94	0.114438206
188	0xbe528afd	-0.20560832
189	0x3e402a23	0.18766074
190	0xbda127a2	-0.078688875
191	0x3e35b424	0.177445
192	0x3d1d2cad	0.038372684
193	0xbd9a3891	-0.075303204
194	0x3db2e3e2	0.087348714
195	0xbcc179bf	-0.023617623
196	0xbc02a8a9	-0.007974782
197	0x3c880d6f	0.016607968
198	0xbdf581a5	-0.11987618
199	0xbcfa27f6	-0.030536633
200	0xbdd90d71	-0.10598267
201	0xbdb22acb	-0.08699568
202	0xbd32e70e	-0.043677382
203	0xbdc050c5	-0.093904056
204	0xbd8a2920	-0.06746125
205	0xbd3f66ff	-0.046729084
206	0xbe6530be	-0.22381875
207	0x3daad243	0.083408855
208	0xbb96a07e	-0.004596769
209	0xbd1d8536	-0.038457118
210	0x3d90b7e7	0.070663266
211	0x3dad1834	0.08451882
212	0x3e46eb47	0.19425689
213	0x3d98ab33	0.07454529
214	0x3e2670c9	0.16253962
215	0x3de2a31e	0.110662684
216	0xbe1f4382	-0.15553096
217	0xbbc58e09	-0.006028895
218	0xbddc4b25	-0.1075652
219	0xbd96d715	-0.073652424
220	0xbdf57329	-0.11984856
221	0x3d020561	0.03174341
222	0xbd1547ce	-0.03644543
223	0xbb2c6eec	-0.0026311232
224	0x3cad6bc6	0.021169554
225	0x3d57e6ed	0.052710462
226	0x3d8e09e6	0.06935482
227	0xbd01812f	-0.03161734
228	0xbb854bff	-0.0040678973
229	0x3e69dc07	0.2283784
230	0x3d140e96	0.036146723
231	0x3e080d0e	0.1328623
232	0x3c300817	0.010744116
233	0xbd8bfcb7	-0.06835311
234	0xbd064c10	-0.032787383
235	0xbde70541	-0.11280299
236	0x3cd94342	0.026521329
237	0xbb9e94cd	-0.004839516
238	0xbbe9bb48	-0.0071329214
239	0x3db28704	0.087171584
240	0x3ba82127	0.005130905
241	0x3d693b4a	0.056941308
242	0xbe6e21c4	-0.23255068
243	0x3e0d2b52	0.13786057
244	0x3ce2870a	0.027652282
245	0x3c42cccd	0.011889649
246	0xbd3222ab	-0.043490093
247	0xbd02c3d1	-0.031925026
248	0x3de29397	0.11063307
249	0xbe2c1d3a	-0.16808024
250	0xbe99b45d	-0.3002042
251	0xbe2eca10	-0.17069268
252	0xbe969002	-0.29406744
253	0x3de4a3ac	0.111640304
254	0xbe088d87	-0.13335238
255	0x3dd8361f	0.10557198

network_body._body_endoder.seq_layers.0.bias f4 [128]
0	0x00000000	0.0
1	0x00000000	0.0
2	0x00000000	0.0
3	0x00000000	0.0
4	0x00000000	0.0
5	0x00000000	0.0
6	0x00000000	0.0
7	0x00000000	0.0
8	0x00000000	0.0
9	0x00000000	0.0
10	0x00000000	0.0
11	0x00000000	0.0
12	0x00000000	0.0
13	0x00000000	0.0
14	0x00000000	0.0
15	0x00000000	0.0
16	0x00000000	0.0
17	0x00000000	0.0
18	0x00000000	0.0
19	0x00000000	0.0
20	0x00000000	0.0
21	0x00000000	0.0
22	0x00000000	0.0
23	0x00000000	0.0
24	0x00000000	0.0
25	0x00000000	0.0
26	0x00000000	0.0
27	0x00000000	0.0
28	0x00000000	0.0
29	0x00000000	0.0
30	0x00000000	0.0
31	0x00000000	0.0
32	0x00000000	0.0
33	0x00000000	0.0
34	0x00000000	0.0
35	0x00000000	0.0
36	0x00000000	0.0
37	0x00000000	0.0
38	0x00000000	0.0
39	0x00000000	0.0
40	0x00000000	0.0
41	0x00000000	0.0
42	0x00000000	0.0
43	0x00000000	0.0
44	0x00000000	0.0
45	0x00000000	0.0
46	0x00000000	0.0
47	0x00000000	0.0
48	0x00000000	0.0
49	0x00000000	0.0
50	0x00000000	0.0
51	0x00000000	0.0
52	0x00000000	0.0
53	0x00000000	0.0
54	0x00000000	0.0
55	0x00000000	0.0
56	0x00000000	0.0
57	0x00000000	0.0
58	0x00000000	0.0
59	0x00000000	0.0
60	0x00000000	0.0
61	0x00000000	0.0
62	0x00000000	0.0
63	0x00000000	0.0
64	0x00000000	0.0
65	0x00000000	0.0
66	0x00000000	0.0
67	0x00000000	0.0
68	0x00000000	0.0
69	0x00000000	0.0
70	0x00000000	0.0
71	0x00000000	0.0
72	0x00000000	0.0
73	0x00000000	0.0
74	0x00000000	0.0
75	0x00000000	0.0
76	0x00000000	0.0
77	0x00000000	0.0
78	0x00000000	0.0
79	0x00000000	0.0
80	0x00000000	0.0
81	0x00000000	0.0
82	0x00000000	0.0
83	0x00000000	0.0
84	0x00000000	0.0
85	0x00000000	0.0
86	0x00000000	0.0
87	0x00000000	0.0
88	0x00000000	0.0
89	0x00000000	0.0
90	0x00000000	0.0
91	0x00000000	0.0
92	0x00000000	0.0
93	0x00000000	0.0
94	0x00000000	0.0
95	0x00000000	0.0
96	0x00000000	0.0
97	0x00000000	0.0
98	0x00000000	0.0
99	0x00000000	0.0
100	0x00000000	0.0
101	0x00000000	0.0
102	0x00000000	0.0
103	0x00000000	0.0
104	0x00000000	0.0
105	0x00000000	0.0
106	0x00000000	0.0
107	0x00000000	0.0
108	0x00000000	0.0
109	0x00000000	0.0
110	0x00000000	0.0
111	0x00000000	0.0
112	0x00000000	0.0
113	0x00000000	0.0
114	0x00000000	0.0
115	0x00000000	0.0
116	0x00000000	0.0
117	0x00000000	0.0
118	0x00000000	0.0
119	0x00000000	0.0
120	0x00000000	0.0
121	0x00000000	0.0
122	0x00000000	0.0
123	0x00000000	0.0
124	0x00000000	0.0
125	0x00000000	0.0
126	0x00000000	0.0
127	0x00000000	0.0

network_body._body_endoder.seq_layers.2.weight f4 [128, 128]
0	0x3db6bebf	0.08923101
1	0xbd2a47e0	-0.04157245
2	0x3d0686b1	0.032843295
3	0x3dbee658	0.09321278
4	0x3e01a3d6	0.12660155
5	0x3cbf8d48	0.023382798
6	0xbdc34f8b	-0.09536656
7	0x3d903d27	0.07042914
8	0xbbe01ccc	-0.0068393704
9	0xbd53ac9a	-0.051678278
10	0xbdf39918	-0.11894435
11	0xbda2a7fb	-0.07942196
12	0xbda75a17	-0.0817148
13	0x3d25a742	0.040442713
14	0xbc80483c	-0.015659444
15	0x3e36c1bb	0.1784734
16	0xbd4a0388	-0.049319774
17	0xbd176e5e	-0.03697049
18	0x3d3b662e	0.045751743
19	0x3d8cf96c	0.06883511
20	0xbe804536	-0.25052804
21	0xbd214634	-0.03937359
22	0x3d57c6ab	0.0526797
23	0xbe0dc917	-0.13846241
24	0xbb9310b7	-0.0044880765
25	0xbe00bb61	-0.1257148
26	0x3dfcc6a9	0.12342579
27	0x3dcf1bbc	0.10112712
28	0xbc24a375	-0.010048737
29	0x3d312f74	0.043258145
30	0x3c363f01	0.01112342
31	0xbcb118e4	-0.021618314
32	0xbe1e18ae	-0.15439102
33	0xbdd89c12	-0.10576643
34	0xbc3bcb3c	-0.011462029
35	0x3e07bdd3	0.13256006
36	0xbe38d65c	-0.18050522
37	0x3cd49f6d	0.025954926
38	0xbe344d8a	-0.17607704
39	0x3d91b330	0.071142554
40	0x3d23db4d	0.040004063
41	0x3db49453	0.08817353
42	0x3d21f354	0.039538696
43	0xbd65db1e	-0.05611717
44	0xbd9034d9	-0.0704133
45	0x3bca2576	0.0061690165
46	0xbd3880cc	-0.045044705
47	0x3c9ce18e	0.019150522
48	0xbd921576	-0.071329996
49	0xbc71fac0	-0.014769256
50	0x3e02a23a	0.12757197
51	0x3e0ffacd	0.14060517
52	0xbcdad6bd	-0.026713723
53	0x3e26fb60	0.1630683
54	0x3db6dd0c	0.0892888
55	0xbd9dcb11	-0.077047475
56	0xbda568d9	-0.08076639
57	0x3d892df3	0.06698217
58	0xbd621691	-0.055197302
59	0x3db56ad4	0.088582665
60	0x3dc143bf	0.0943675
61	0x3c6fd9c1	0.014639319
62	0x3d7be0ff	0.06149387
63	0xbd147858	-0.03624758
64	0xbd24facd	-0.040278245
65	0xbcd20527	-0.025637222
66	0x3d560213	0.052248072
67	0x3d80ffb6	0.06298773
68	0x3db1c5af	0.08680283
69	0x3d56e8b4	0.052468017
70	0xbd5be20d	-0.053682376
71	0x3d9bb1bd	0.0760226
72	0x3d6c3101	0.05766392
73	0xbc6d3fed	-0.014480573
74	0x3ccd403b	0.025055042
75	0x3e5b901e	0.21441695
76	0x3d2a6dd2	0.04160864
77	0xbe25b2db	-0.16181509
78	0xbda5576e	-0.080733165
79	0x3c3153f5	0.01082324
80	0xbdb97ad4	-0.09056631
81	0x3e088270	0.13331008
82	0xbde0d830	-0.109787345
83	0xbd83fd5a	-0.06444807
84	0x3d3a3bcc	0.045467183
85	0x3e09c492	0.13453892
86	0x3caf101b	0.021369984
87	0xbdbc9c54	-0.09209505
88	0xbe26748a	-0.16255394
89	0xbb569667	-0.0032743455
90	0x3da039fe	0.07823561
91	0x3c58d015	0.013233204
92	0x3c391da3	0.01129857
93	0xbb3d135d	-0.0028850653
94	0xbe1c569e	-0.15267417
95	0x3e9def9f	0.3084688
96	0x3dd8734a	0.10568865
97	0xbd84187b	-0.06449982
98	0xbcb36b37	-0.02190171
99	0x3e6cd54e	0.23128244
100	0x3e3dbddf	0.18529461
101	0x3cb3198c	0.021862768
102	0x3b099d48	0.0020998288
103	0x3d3106bf	0.043219324
104	0xbc10017c	-0.008789416
105	0x3cf34eb7	0.02970062
106	0x3d6e1e47	0.058134343
107	0xbcb2eeb9	-0.021842347
108	0x3da8c912	0.08241476
109	0xbcd596ce	-0.026072886
110	0x3db8ae82	0.0901766
111	0x3e7dc9b6	0.24783978
112	0xbd130a99	-0.03589878
113	0xbc3af695	-0.011411329
114	0x3da53b04	0.08067897
115	0x3e10df0a	0.14147583
116	0x3ccbd60d	0.02488234
117	0xbcc2ef0f	-0.023795633
118	0x3db96a36	0.09053461
119	0xbde191b4	-0.11014119
120	0x3cc41bd9	0.02393906
121	0x3b9001a3	0.0043947264
122	0xbccbb721	-0.024867596
123	0xbcf43beb	-0.029813727
124	0xbdf93843	-0.12168934
125	0x3dac98ee	0.084276065
126	0xbd1cc815	-0.03827675
127	0xbcbed38e	-0.023294237
128	0x3d17fc25	0.0371057
129	0xbd9c8e0d	-0.076442815
130	0x3d2d9360	0.042376876
131	0x3cc4b2bc	0.024011008
132	0x3cbcaed3	0.023032581
133	0xbd4a3c29	-0.04937378
134	0xbe68cfaa	-0.22735468
135	0x3d557c37	0.052120414
136	0xbd411ff5	-0.047149617
137	0xbd62f25b	-0.05540691
138	0x3d536e9b	0.051619153
139	0xbdfdfc12	-0.12401594
140	0x3e2dcc8c	0.1697256
141	0x3dda0f51	0.106474526
142	0x3e141907	0.14462672
143	0x3d7c7fb1	0.061645214
144	0x3d8f3733	0.0699295
145	0x3d42cab5	0.047556598
146	0xbca02f11	-0.019553693
147	0xbd804a2f	-0.062641494
148	0x3d300ed9	0.04298291
149	0x3b485105	0.003056587
150	0xbd09628d	-0.03354125
151	0xbd340e5a	-0.043959
152	0x3d135628	0.035970837
153	0xbbad5c95	-0.0052905777
154	0xbd881ffd	-0.06646726
155	0xbc868177	-0.016419156
156	0x3cfd175f	0.030894933
157	0xbc8b8099	-0.017029094
158	0xbceacff3	-0.028663611
159	0x3d2c7205	0.042100925
160	0x3d922575	0.071360506
161	0xbe91905a	-0.28430444
162	0xbc7e4b55	-0.01552089
163	0xbd587391	-0.052844588
164	0x3dbdbe60	0.09264827
165	0xbe4b9ef6	-0.19884858
166	0xbc26102e	-0.0101356935
167	0x3e1dff98	0.15429533
168	0x3d4cf588	0.050038844
169	0xbe37a28a	-0.17933097
170	0x3d6859e7	0.056726363
171	0x3d414188	0.047181636
172	0xbd03bc72	-0.032162137
173	0xbd8c3492	-0.068459645
174	0xbda94dda	-0.08266802
175	0x3df63f3f	0.12023782
176	0x3d29f5f2	0.041494317
177	0x3da14a93	0.07875552
178	0x3e270669	0.16311039
179	0xbce4d621	-0.027934136
180	0xbbdfe4c0	-0.006832689
181	0xbd374150	-0.04474002
182	0xbc79778b	-0.015226255
183	0x3dd4c276	0.10388653
184	0xbdf30780	-0.11866665
185	0x3e503721	0.2033353
186	0xbd65082b	-0.055915993
187	0xbe1eb906	-0.15500268
188	0x3e09c408	0.13453686
189	0x3d9c0cb8	0.076196134
190	0x3d5ab399	0.053393934
191	0xbdfae8a7	-0.12251406
192	0xbd59a803	-0.053138744
193	0x3ca4c85b	0.020115068
194	0x3cf0697c	0.029347174
195	0xbd625886	-0.055260204
196	0x3c735c74	0.0148535855
197	0x3e01d95b	0.12680571
198	0x3d9f8346	0.0778871
199	0x3d118cf8	0.03553483
200	0x3d9d04f3	0.076669596
201	0xbe1472f8	-0.14496982
202	0x3e183898	0.14865339
203	0xbd51727e	-0.05113458
204	0x3e16a40c	0.14711016
205	0x3e064a84	0.13114363
206	0xbd60b05d	-0.054855693
207	0x3cf307e8	0.029666856
208	0xbdf39cdf	-0.11895155
209	0xbc267e74	-0.010161985
210	0x3c330948	0.010927506
211	0xbd8de7d1	-0.06928981
212	0xbbb39b34	-0.005481148
213	0xbd36a3c1	-0.04458976
214	0x3ca97776	0.020686846
215	0x3d5c265c	0.05374752
216	0x3d3d9e29	0.04629341
217	0xbd63f694	-0.055655077
218	0x3dd2625b	0.10272666
219	0xbc267cca	-0.010161588
220	0x3d6987b2	0.057014175
221	0x3e2f4deb	0.17119567
222	0xbdcf6017	-0.101257496
223	0x3e636c82	0.22209361
224	0xbe1297d9	-0.14315738
225	0x3da5b74a	0.080916
226	0xbd597342	-0.053088434
227	0x3c43ee28	0.011958636
228	0xbd960eba	-0.073270276
229	0xbd626f26	-0.05528178
230	0x3d2ac3bd	0.041690577
231	0x3e027098	0.12738264
232	0x3e24639f	0.16053627
233	0xbdad0ae2	-0.08449341
234	0xbdf1bc48	-0.1180349
235	0x3d4a0cc1	0.04932857
236	0x3d86697a	0.06563087
237	0x3dc66ab7	0.09688323
238	0xbd32b714	-0.04363163
239	0xbe4178f9	-0.18893804
240	0x3cd7ddd7	0.026350899
241	0x3bccd47e	0.006250917
242	0x3d0d53d2	0.034503765
243	0x3dd65c04	0.10466769
244	0x3dcfe5d1	0.10151256
245	0xbe0c9f4b	-0.1373264
246	0xba74578f	-0.00093209086
247	0xbc562d43	-0.013072315
248	0x3ddb0ae7	0.10695439
249	0xbdf241f8	-0.11828989
250	0x3d568a48	0.05237797
251	0xbc961535	-0.01832066
252	0xbde562c9	-0.112004824
253	0x3e1878f3	0.14889888
254	0x3c304a35	0.01075988
255	0xbdcfbc0c	-0.10143289

action_model._continuous_distribution.log_sigma f4 [1, 24]
0	0x00000000	0.0
1	0x00000000	0.0
2	0x00000000	0.0
3	0x00000000	0.0
4	0x00000000	0.0
5	0x00000000	0.0
6	0x00000000	0.0
7	0x00000000	0.0
8	0x00000000	0.0
9	0x00000000	0.0
10	0x00000000	0.0
11	0x00000000	0.0
12	0x00000000	0.0
13	0x00000000	0.0
14	0x00000000	0.0
15	0x00000000	0.0
16	0x00000000	0.0
17	0x00000000	0.0
18	0x00000000	0.0
19	0x00000000	0.0
20	0x00000000	0.0
21	0x00000000	0.0
22	0x00000000	0.0
23	0x00000000	0.0

action_model._continuous_distribution.mu.weight f4 [24, 128]
0	0x398e35f2	0.00027124543
1	0x3c9ca528	0.019121721
2	0x3d11afc6	0.03556802
3	0xbc6ffc90	-0.014647618
4	0x3aaab5eb	0.0013024186
5	0x3c48e26f	0.012261017
6	0xbc84d884	-0.016216524
7	0xbaa2b405	-0.0012413269
8	0xbca09df3	-0.019606566
9	0x3bc77099	0.0060864207
10	0xbd000dbb	-0.031263094
11	0xbb75e977	-0.003752319
12	0x3cd317ca	0.02576818
13	0x3cfe4ee8	0.031043485
14	0x3b6300d3	0.0034637942
15	0x3c2d0371	0.0105599025
16	0x3c0df64a	0.008664677
17	0xbd1e5743	-0.038657438
18	0x3b3c52d2	0.0028735888
19	0xbc6e7e20	-0.014556438
20	0xb9b7e31f	-0.00035073698
21	0x3bcb6825	0.0062074834
22	0x3d187bc3	0.037227403
23	0x3c289d13	0.010291356
24	0xbb3fd914	-0.0029273676
25	0x3c010e73	0.00787698
26	0x3c317501	0.010831119
27	0xbc14d30e	-0.0090835225
28	0x3cadd5e3	0.021220153
29	0x3be50eed	0.0069903047
30	0xbc63d612	-0.013906019
31	0x3bfa15bb	0.007631985
32	0x3cada86f	0.02119848
33	0x3d0f248a	0.034946956
34	0xbc448ec5	-0.0119969295
35	0x3d4a00fb	0.04931734
36	0xb7cb82bd	-2.4260366e-05
37	0xbc34076c	-0.010988098
38	0x3c583a5f	0.0131975105
39	0x3cb72bee	0.022359814
40	0xbb2640dd	-0.0025368251
41	0xbc6caea2	-0.014445933
42	0x3cae2d2d	0.021261776
43	0xbcdd74e0	-0.02703327
44	0xbc88405b	-0.01663225
45	0x3ccc8c1e	0.024969157
46	0x3cd7884a	0.026310105
47	0x3ca1dccf	0.01975861
48	0xbce37e20	-0.027770102
49	0xbbf9d39f	-0.007624104
50	0xbc13839b	-0.009003545
51	0x3abe12b4	0.0014501424
52	0x3c86f28b	0.016473075
53	0xbc5c19d3	-0.013433891
54	0xbcbf1693	-0.023326194
55	0x3bfe949a	0.0077691795
56	0xbb1ec157	-0.0024224126
57	0xbc518d7b	-0.012790079
58	0x3cc74bc0	0.024328113
59	0xb9009276	-0.00012261592
60	0xbbf600c8	-0.0075074174
61	0xbc62b8b2	-0.01383798
62	0xbd041999	-0.032250974
63	0xbca11ddf	-0.019667564
64	0xbcf15ccd	-0.029463196
65	0xbcddca9b	-0.027074149
66	0xbc8fb458	-0.01754205
67	0x3cc44e3f	0.023963092
68	0x3a77841f	0.000944199
69	0xbc11edc3	-0.0089067845
70	0x3bbe0e2b	0.005800029
71	0xbbd70d72	-0.006562882
72	0xbb491d28	-0.0030687544
73	0x3bfc3ad5	0.007697443
74	0x3c44cf9f	0.012012391
75	0x39a504d3	0.00031474847
76	0xbc4364f6	-0.011925926
77	0xbd432b4b	-0.04764871
78	0xbbf19fdd	-0.0073737935
79	0x3b92be36	0.0044782413
80	0x39ea6982	0.00044710567
81	0x3b28609a	0.0025692345
82	0x3b8dcb16	0.0043271882
83	0x3c68dc1d	0.014212635
84	0xbb7274d8	-0.0036995914
85	0xbc8ea10f	-0.017410783
86	0x3cf31d3d	0.029677028
87	0xbc4091bc	-0.011753496
88	0x3c72b127	0.014812744
89	0x3d2218a2	0.039574273
90	0x3ca73db8	0.020415172
91	0x3c6adeca	0.014335344
92	0x3c59cad2	0.013292985
93	0x3aa318cb	0.0012443302
94	0xbaf09d08	-0.0018357346
95	0xbc34d98f	-0.011038198
96	0x3c6c5a9a	0.014425898
97	0x3c2e7797	0.01064863
98	0xbd4c71a2	-0.049913056
99	0xbcdb635b	-0.026780775
100	0x3a3ecd08	0.0007278477
101	0xbd14b0e1	-0.036301497
102	0x3c9c76a8	0.019099548
103	0xbd0f859f	-0.03503954
104	0x3c37733a	0.011196906
105	0xbbec73c3	-0.0072159483
106	0xbcbf2044	-0.023330815
107	0xbd11d1be	-0.035600416
108	0xbc8bb40c	-0.017053626
109	0x3cf8e283	0.030381447
110	0x3b3294ba	0.0027249292
111	0x3c4a41b7	0.012344769
112	0xbca26bea	-0.019826848
113	0x3c016444	0.00789744
114	0x3a8bb7d6	0.0010659646
115	0xbba8e1e0	-0.0051538795
116	0x3b3c07ae	0.00286911
117	0x3c8f88f7	0.017521365
118	0xbc4fe735	-0.012689401
119	0xbb8504ba	-0.0040594013
120	0x3af029dd	0.0018323023
121	0x3c8a8bed	0.016912425
122	0x3bcc202a	0.00622942
123	0x3c0d8014	0.008636493
124	0xbc519fa5	-0.01279441
125	0xbd1c9262	-0.03822554
126	0x3b96d9a4	0.0046035815
127	0x3b4abfef	0.0030937155
128	0x3d19ec13	0.037578654
129	0xbbea94cb	-0.007158851
130	0x3b9dcd6b	0.0048157475
131	0x3ced2dc8	0.028952494
132	0xbbf6c428	-0.007530708
133	0x3c93133a	0.017953504
134	0xbbdd34f2	-0.0067506963
135	0x3c90716d	0.01763221
136	0x3bda80a2	0.0066681663
137	0x3be7908f	0.0070667933
138	0xb9ca01ab	-0.00038529685
139	0x3c1e0a9f	0.009646087
140	0x3b7032cf	0.0036651378
141	0x3c5021a2	0.012703331
142	0x3b98d44a	0.0046639787
143	0x3c534fd7	0.012897453
144	0x3c9e9d39	0.019362079
145	0xbc3834b5	-0.011243035
146	0x3cb647ac	0.022250973
147	0xbc88f2f5	-0.016717413
148	0x3b5daba5	0.0033824232
149	0xbd046bcb	-0.032329362
150	0xbd10d29b	-0.0353571
151	0xbcf3dd5a	-0.029768635
152	0xbb20eade	-0.0024554054
153	0xbc19c4b3	-0.009385276
154	0xbd11a7cb	-0.03556041
155	0x3cd20218	0.025635764
156	0xbc0108c1	-0.007875622
157	0x3ce6c080	0.028167963
158	0x3cbb89b4	0.02289281
159	0xbbe4851a	-0.0069738748
160	0xbcc6b862	-0.024257842
161	0xbcc67bf9	-0.024229037
162	0x3cb4ae73	0.02205584
163	0xba3458bb	-0.0006879677
164	0x3b8b2162	0.004245923
165	0xbc77a63b	-0.015115316
166	0x3c28fd5a	0.01031431
167	0x3ce0c69f	0.02743846
168	0xbb89fc32	-0.004210972
169	0x3c400e17	0.011722109
170	0xbaf072eb	-0.0018344795
171	0xbc21906a	-0.009861091
172	0xbc094dab	-0.008380334
173	0x39ccc2d2	0.00039055065
174	0x3c06606b	0.008201699
175	0xbb2dc0c3	-0.00265126
176	0x3a54ab43	0.0008112678
177	0xbc5b6853	-0.013391572
178	0xbbbb3ede	-0.0057142815
179	0xbcc16c4d	-0.023611212
180	0x3cb4fffb	0.022094717
181	0xbae81152	-0.0017705357
182	0x3b776fbb	0.0037755806
183	0x3d04b679	0.032400582
184	0x3c2c240e	0.010506643
185	0xbc08eff7	-0.008357993
186	0xbb0bc857	-0.0021329129
187	0x3c0508b7	0.008119754
188	0x3c97badf	0.018521724
189	0xbcfe855d	-0.031069452
190	0x3ba88c9f	0.0051437165
191	0xbb8c7595	-0.004286478
192	0xbc981597	-0.018564982
193	0x3c0a7838	0.008451514
194	0xbb457374	-0.003012863
195	0xbcd69eaf	-0.026198713
196	0xbcd67083	-0.026176697
197	0xbc23894d	-0.0099814655
198	0x3c6e2ecb	0.0145375235
199	0xbca3d228	-0.019997671
200	0x3b6a7447	0.0035774873
201	0xbd02faa3	-0.031977307
202	0xbbc9fc99	-0.006164145
203	0xbca9e1fc	-0.02073764
204	0xbc9e40aa	-0.019317944
205	0xbb56515a	-0.0032702298
206	0x3c2146dd	0.009843555
207	0x3d09910d	0.033585597
208	0x3c8804fb	0.016603937
209	0x3c72800d	0.0148010375
210	0x3c10fb26	0.008848941
211	0x3cc110a6	0.023567509
212	0xbc843e7b	-0.016143074
213	0x3cb1b8de	0.021694597
214	0x3b978997	0.0046245563
215	0x3bcfdb4b	0.0063432804
216	0x3c7ffe98	0.015624665
217	0x3c9ca7e0	0.019123018
218	0xbcf59360	-0.0299775
219	0xbd07bbcb	-0.033138078
220	0xbc2f925c	-0.010716047
221	0xbcfaf4fd	-0.030634398
222	0xbb6f9f6b	-0.0036563526
223	0x3c47cac1	0.012194336
224	0xbca2d28e	-0.01987579
225	0x3b91dff3	0.0044517457
226	0xbc8b02dc	-0.016969137
227	0xbc810cc4	-0.015753157
228	0xba689873	-0.00088728144
229	0xbc96e1bc	-0.018418185
230	0xbcb82c0a	-0.022481937
231	0xbbb3027f	-0.005462944
232	0xbc32a36e	-0.0109032225
233	0x3bcb63ab	0.0062069497
234	0x3bfe48a3	0.007760124
235	0xbc69d96b	-0.014273028
236	0x3c471946	0.012152022
237	0xbc44e463	-0.012017342
238	0xbcba903d	-0.022773856
239	0xbd007d52	-0.031369515
240	0xbbe13e37	-0.0068738717
241	0x3b5af895	0.0033412327
242	0xbbad1793	-0.0052823513
243	0x3d064189	0.032777343
244	0x3b85d617	0.0040843594
245	0xbc96cb88	-0.018407598
246	0xbcdaa0cb	-0.026688
247	0x3c33a9bd	0.010965762
248	0xbc70111f	-0.0146525195
249	0x3cfe17bb	0.031017175
250	0x3ba5f133	0.0050641536
251	0xbd0ad46f	-0.033894
252	0x3b8ba05b	0.004261059
253	0xbccc1d74	-0.024916388
254	0x3c087af2	0.008330094
255	0x3aa3b9f3	0.001249133

action_model._continuous_distribution.mu.bias f4 [24]
0	0x00000000	0.0
1	0x00000000	0.0
2	0x00000000	0.0
3	0x00000000	0.0
4	0x00000000	0.0
5	0x00000000	0.0
6	0x00000000	0.0
7	0x00000000	0.0
8	0x00000000	0.0
9	0x00000000	0.0
10	0x00000000	0.0
11	0x00000000	0.0
12	0x00000000	0.0
13	0x00000000	0.0
14	0x00000000	0.0
15	0x00000000	0.0
16	0x00000000	0.0
17	0x00000000	0.0
18	0x00000000	0.0
19	0x00000000	0.0
20	0x00000000	0.0
21	0x00000000	0.0
22	0x00000000	0.0
23	0x00000000	0.0

action_model._discrete_distribution.branches.0.weight f4 [1, 128]
0	0x3b0dd5e3	0.002164238
1	0xbc15f287	-0.009152061
2	0xba2eb8ef	-0.00066651305
3	0xbb6cf315	-0.003615563
4	0xb9292155	-0.00016129513
5	0xba430f98	-0.00074409833
6	0xbc1eb65f	-0.009687035
7	0x3c096627	0.008386171
8	0x3b3bdca5	0.002866545
9	0xbc22fa84	-0.009947423
10	0xbaaed4f8	-0.0013338616
11	0x3bef2902	0.0072985897
12	0xbbc2541a	-0.005930436
13	0xbc15cea1	-0.009143502
14	0xbc215904	-0.009847883
15	0xbbc76b1b	-0.006085766
16	0x3c0964b9	0.008385831
17	0x3bc36494	0.0059629176
18	0x3b153fff	0.002277374
19	0xbb559310	-0.0032588877
20	0xbbeb631b	-0.007183445
21	0xbba22bb5	-0.004949058
22	0x3bcfc7ad	0.006340942
23	0x3beacaa3	0.0071652695
24	0x3baaf243	0.005216868
25	0xbb8617a9	-0.004092176
26	0xbc1a682b	-0.00942425
27	0x3b2a1107	0.002595009
28	0xbad06318	-0.0015898673
29	0x3b3daeaf	0.002894323
30	0xbba7c1b9	-0.005119529
31	0xbafab4c7	-0.0019127362
32	0xbc831707	-0.016002191
33	0xbc54a605	-0.012979035
34	0xbb849338	-0.00404587
35	0xbbcc4429	-0.0062337113
36	0x3c6cc3c7	0.014450974
37	0x3b6418b3	0.003480476
38	0xbba1d437	-0.004938628
39	0xbae2df12	-0.0017308912
40	0xba38dc34	-0.0007051856
41	0x3a45748b	0.000753232
42	0xb95d6597	-0.00021114048
43	0xbb0dc927	-0.0021634789
44	0x3c0dd0d7	0.008655748
45	0xbc28d099	-0.01030364
46	0x3cad70f2	0.02117202
47	0xbb5d7345	-0.003379063
48	0xbb0cccfd	-0.0021484487
49	0xbbe0944f	-0.0068536173
50	0xbc13cd87	-0.0090211695
51	0x3d0c5d73	0.034268808
52	0x3bb49580	0.005510986
53	0x3a2ed797	0.00066696986
54	0xbcce56f8	-0.025187954
55	0xbb6b8f1b	-0.0035943452
56	0x3a177190	0.0005777115
57	0x3bcc5d83	0.0062367334
58	0x3a61aec5	0.00086091115
59	0x3c12f32c	0.0089691095
60	0xbc32fbae	-0.010924263
61	0xbb823c3b	-0.003974465
62	0xbc466da5	-0.012111102
63	0xbbba0c67	-0.005677748
64	0x3b017c43	0.0019757904
65	0xbc828d17	-0.015936418
66	0xbc10700d	-0.0088157775
67	0x3aec81f2	0.0018044098
68	0x3b80cef8	0.0039309226
69	0xbb2c30cb	-0.00262742
70	0x3a405985	0.0007337558
71	0x3b087712	0.0020822925
72	0x3ba9754d	0.005171454
73	0x3b24d664	0.00251522
74	0xbaf25738	-0.0018489128
75	0xbca8e417	-0.020616574
76	0xbae2fd95	-0.0017318005
77	0x3bd42f6d	0.00647538
78	0xbc0495f5	-0.008092393
79	0xbc957bab	-0.018247446
80	0xbbc539d4	-0.0060188565
81	0xbbf92210	-0.0076029375
82	0xbb30f6f3	-0.0027002662
83	0xbc3de167	-0.011589385
84	0x3c261673	0.010137188
85	0xbb015766	-0.0019735931
86	0x3c3b4d3d	0.011431989
87	0xbb954328	-0.004555125
88	0x3a593ed3	0.00082872546
89	0x3b0dd4a3	0.0021641634
90	0xbb813c1d	-0.0039439336
91	0x3c23eb2c	0.0100048
92	0x3c847138	0.016167268
93	0x3ada878f	0.001667248
94	0x3b68468b	0.0035442438
95	0xbac917c7	-0.0015342169
96	0xbc49236f	-0.012276514
97	0x3b83501f	0.004007354
98	0xbb8b070f	-0.004242785
99	0x3b56e298	0.003278887
100	0xbb2007fb	-0.002441882
101	0x3c9b3b7f	0.018949268
102	0x3ba20cd3	0.0049453764
103	0x3cd3dc3b	0.02586185
104	0xbbf1a237	-0.007374074
105	0x3c8068f7	0.015675051
106	0x3bb5f36f	0.005552701
107	0x3beb6fa2	0.0071849385
108	0xbc51331d	-0.012768534
109	0xbbadeeb2	-0.0053079957
110	0xbb0cf413	-0.0021507784
111	0x3c06c53f	0.008225738
112	0x3bc6077b	0.006043372
113	0xbb570e1b	-0.0032814804
114	0x3c3bc32b	0.011460106
115	0x3ab0de63	0.0013494011
116	0x3afd7243	0.0019336421
117	0x3a63a2cf	0.0008683623
118	0x3c6a0c88	0.014285214
119	0x39ab38fd	0.0003265812
120	0xba6ce128	-0.00090362364
121	0xbb0e7a7e	-0.0021740492
122	0x3c5c4505	0.01344419
123	0xbc0973fd	-0.00838947
124	0xbacc5b2e	-0.0015591139
125	0xbc7c7e87	-0.015411026
126	0x3c0f0d94	0.008731265
127	0xbb08961b	-0.0020841423

onnx::Div_70 f4 [106]
0	0x3f800000	1.0
1	0x3f800000	1.0
2	0x3f800000	1.0
3	0x3f800000	1.0
4	0x3f800000	1.0
5	0x3f800000	1.0
6	0x3f800000	1.0
7	0x3f800000	1.0
8	0x3f800000	1.0
9	0x3f800000	1.0
10	0x3f800000	1.0
11	0x3f800000	1.0
12	0x3f800000	1.0
13	0x3f800000	1.0
14	0x3f800000	1.0
15	0x3f800000	1.0
16	0x3f800000	1.0
17	0x3f800000	1.0
18	0x3f800000	1.0
19	0x3f800000	1.0
20	0x3f800000	1.0
21	0x3f800000	1.0
22	0x3f800000	1.0
23	0x3f800000	1.0
24	0x3f800000	1.0
25	0x3f800000	1.0
26	0x3f800000	1.0
27	0x3f800000	1.0
28	0x3f800000	1.0
29	0x3f800000	1.0
30	0x3f800000	1.0
31	0x3f800000	1.0
32	0x3f800000	1.0
33	0x3f800000	1.0
34	0x3f800000	1.0
35	0x3f800000	1.0
36	0x3f800000	1.0
37	0x3f800000	1.0
38	0x3f800000	1.0
39	0x3f800000	1.0
40	0x3f800000	1.0
41	0x3f800000	1.0
42	0x3f800000	1.0
43	0x3f800000	1.0
44	0x3f800000	1.0
45	0x3f800000	1.0
46	0x3f800000	1.0
47	0x3f800000	1.0
48	0x3f800000	1.0
49	0x3f800000	1.0
50	0x3f800000	1.0
51	0x3f800000	1.0
52	0x3f800000	1.0
53	0x3f800000	1.0
54	0x3f800000	1.0
55	0x3f800000	1.0
56	0x3f800000	1.0
57	0x3f800000	1.0
58	0x3f800000	1.0
59	0x3f800000	1.0
60	0x3f800000	1.0
61	0x3f800000	1.0
62	0x3f800000	1.0
63	0x3f800000	1.0
64	0x3f800000	1.0
65	0x3f800000	1.0
66	0x3f800000	1.0
67	0x3f800000	1.0
68	0x3f800000	1.0
69	0x3f800000	1.0
70	0x3f800000	1.0
71	0x3f800000	1.0
72	0x3f800000	1.0
73	0x3f800000	1.0
74	0x3f800000	1.0
75	0x3f800000	1.0
76	0x3f800000	1.0
77	0x3f800000	1.0
78	0x3f800000	1.0
79	0x3f800000	1.0
80	0x3f800000	1.0
81	0x3f800000	1.0
82	0x3f800000	1.0
83	0x3f800000	1.0
84	0x3f800000	1.0
85	0x3f800000	1.0
86	0x3f800000	1.0
87	0x3f800000	1.0
88	0x3f800000	1.0
89	0x3f800000	1.0
90	0x3f800000	1.0
91	0x3f800000	1.0
92	0x3f800000	1.0
93	0x3f800000	1.0
94	0x3f800000	1.0
95	0x3f800000	1.0
96	0x3f800000	1.0
97	0x3f800000	1.0
98	0x3f800000	1.0
99	0x3f800000	1.0
100	0x3f800000	1.0
101	0x3f800000	1.0
102	0x3f800000	1.0
103	0x3f800000	1.0
104	0x3f800000	1.0
105	0x3f800000	1.0
