results/packaging_fix_test_9/RobotAgent.onnx (onnx, 357277 bytes, 8 tensors)

network_body.observation_encoder.processors.0.normalizer.running_mean f4 [74]
00000000: 0000 0000 0000 0000 0000 0000 0000 0000
00000010: 0000 0000 0000 0000 0000 0000 0000 0000
00000020: 0000 0000 0000 0000 0000 0000 0000 0000
00000030: 0000 0000 0000 0000 0000 0000 0000 0000
00000040: 0000 0000 0000 0000 0000 0000 0000 0000
00000050: 0000 0000 0000 0000 0000 0000 0000 0000
00000060: 0000 0000 0000 0000 0000 0000 0000 0000
00000070: 0000 0000 0000 0000 0000 0000 0000 0000
00000080: 0000 0000 0000 0000 0000 0000 0000 0000
00000090: 0000 0000 0000 0000 0000 0000 0000 0000
000000a0: 0000 0000 0000 0000 0000 0000 0000 0000
000000b0: 0000 0000 0000 0000 0000 0000 0000 0000
000000c0: 0000 0000 0000 0000 0000 0000 0000 0000
000000d0: 0000 0000 0000 0000 0000 0000 0000 0000
000000e0: 0000 0000 0000 0000 0000 0000 0000 0000
000000f0: 0000 0000 0000 0000 0000 0000 0000 0000
00000100: 0000 0000 0000 0000 0000 0000 0000 0000
00000110: 0000 0000 0000 0000 0000 0000 0000 0000
00000120: 0000 0000 0000 0000
0.0 0.0 0.0 0.0 0.0 0.0 0.0 0.0
0.0 0.0 0.0 0.0 0.0 0.0 0.0 0.0
0.0 0.0 0.0 0.0 0.0 0.0 0.0 0.0
0.0 0.0 0.0 0.0 0.0 0.0 0.0 0.0
0.0 0.0 0.0 0.0 0.0 0.0 0.0 0.0
0.0 0.0 0.0 0.0 0.0 0.0 0.0 0.0
0.0 0.0 0.0 0.0 0.0 0.0 0.0 0.0
0.0 0.0 0.0 0.0 0.0 0.0 0.0 0.0
0.0 0.0 0.0 0.0 0.0 0.0 0.0 0.0
0.0 0.0

network_body._body_endoder.seq_layers.0.weight f4 [256, 74]
00000000: 0f83 9fbd 8de6 adba fa1b 04bc e19a 86bd
00000010: f090 b5bd 1ea6 2c3b 8119 c53d 44f7 e63d
00000020: 89d3 8e3c 7841 863c 8df2 043c 0cac 89bd
00000030: 0297 4d3d 0d48 18be 49de 963e e27b 5e3e
00000040: a07a be3d 6c62 343c ee50 723e e528 8ebe
00000050: 4600 50be dae6 8cbd 99fa c03d 7708 aebd
00000060: b21e 87bd 376b 9a3c 4a21 d13d 1138 523e
00000070: 30aa 3dbd bc67 1abe d5e7 afbd d821 ebbd
00000080: 34e6 33bd 26c9 523e 7119 0d3e 7d01 023e
00000090: 3fe7 4c3e 548c b7bc c1dc fbbd bb66 1dbc
000000a0: 86bb d1bc 1452 c73b 5a7a 02be 518c a83d
000000b0: e66d 6939 8082 75bd 7c16 3c3d e587 b53d
000000c0: 81c1 a73d 6c7e 103e 48c2 ffbd c6fd a0bd
000000d0: c09a e73c 02e7 243d 2ed2 693d b017 febd
000000e0: 8a85 463d 3fc8 85bc 1eb5 59be 28c9 cdbc
000000f0: 53c0 863d e4cf 9cbb 4503 afbb db6b 46bd
00000100: 06d9 893c 1aff 69ba 8ed7 ec3d cdfb 63bc
00000110: 2187 df3c 04a6 b8bd 333a 563e 9680 4ebd
00000120: a6b7 14be fe41 2bbe 7fc9 563e 5e67 b73d
00000130: 13f2 64ba 9ace 3cbd 8b71 bb3d 121c 8fbe
00000140: ebc6 43be ab13 57bc 6b2a 43be 14c7 aabd
00000150: cd80 20bd 688b 313d a30b 4abd ec6a a43d
00000160: 693d d03d d711 0a3e e8c9 95bc 5491 10bb
00000170: 61f5 13be e3ef 54be 7408 6f3b 9701 be3d
00000180: f82f eebb 95f6 8cbe 0f7e 813d bb6d 1bbe
00000190: fd69 433d 07a4 8cbe 853b 343e d938 e4bd
000001a0: adbd 903b cb4e 073e 0a22 1ebd 6310 c9be
000001b0: 5cf9 113e e6ea 93bc 329a 71bd 99f5 16be
000001c0: 1771 853d a172 b4bc a118 c63d a632 6cbd
000001d0: a984 bd3d c187 3ebe 8578 46bd e4d3 78bc
000001e0: 076a 08bd 56c4 8a3d db4c a0bd b164 56be
000001f0: 0ebb 03be 29be 563c 6fcd d63c 3d5e db3d
00000200: 9a41 a93e f9b4 d8bd 1136 0bbe 137c 7e3d
00000210: e51a 093e c36b 33be de6f d83d 8adf 013e
00000220: 78e9 66bd 5f99 12bd ae76 a2bc 6ffc b5bc
00000230: 66e6 dabc 23bc e1bd 09f1 1c3d a2a8 773d
00000240: 2553 8cbd 7ed4 d7bc 47fc 61be f538 df3d
00000250: 130a 01bc a4c0 673d 94d0 033e f1a7 1fbe
00000260: 0148 083d d453 0cbe 29e6 b53d bf40 2fbd
00000270: 7015 f53d d454 d4bd 9c14 06be 3ec7 493e
00000280: 5195 b4bd a001 93bd 6ea0 efbd 12b5 63be
00000290: d652 a9bd 8d4a 1b3e c83e b8bd ddd1 0b3e
000002a0: cb34 353e d710 cd3d 4dd5 6dbd 6af4 203d
000002b0: b9c4 a0bc 944d 3e3e 08cf 4e3d 3b36 b1bd
000002c0: 9479 86bc e58e 333e 4df0 9bbd 60d2 253e
000002d0: 3dfd ae3d 512c 093e e93f bc3b 9c9a db3d
000002e0: adf3 043d e518 583e d1db f23d 21ff 78bc
000002f0: b878 1c3e ea58 65bd 1988 8ebc 06f6 963d
00000300: f23b 99bd 6bea a3bc 3f04 643d 5aa0 23bd
00000310: 2dbf 2b3e 2a5a c53d 5170 cb3c 131d ebbd
00000320: 9935 3f3e 064f 5a3d ae1c 1b3c 51e3 cabd
00000330: ad76 a93d 97d6 edbb 489e 8f3d 1899 4fba
00000340: 1900 a53d 7bf3 0f3e 4a2b e4bd 57af ddbd
00000350: 8dc3 32bd 75e9 ec3c 84d3 963e 9946 203d
00000360: 36f4 bc3d 3b43 7d3d 3721 0e3e d5c7 bdbb
00000370: 8afb 623e b196 113e 26d1 9b3d b291 f23d
00000380: 48d3 d4bd 1679 b43c f359 773e f6ae cabd
00000390: 9fe5 59bb 76f0 ffbd c12a 013d 181a f53d
000003a0: 3d26 0cbd 9a82 35be e050 f6bd 2647 a6bd
000003b0: 7ce0 323e 2f9d 143e e68d ad3d 7c4d 3e3d
000003c0: 857a d83c bbc4 763e 0946 2f3e ca8d 0cbc
000003d0: e159 273e 51ff 143d c117 07be 7d57 743c
000003e0: c0fe a73d 8693 813d 4377 7cba 3580 85bd
000003f0: e95b be3b 2df3 a73d f11b 83bd 6caf 8a3c
-0.07788669 -0.0013267562 -0.008063311 -0.065725096 -0.08865535 0.002634413 0.09624005 0.11277631
0.017434852 0.01638864 0.008114469 -0.067222685 0.05019284 -0.14871235 0.29466465 0.21726945
0.093007326 0.011009794 0.23663685 -0.27765575 -0.20312604 -0.06879969 0.09422798 -0.08497708
-0.065976515 0.018849952 0.102114275 0.205292 -0.04630488 -0.15078634 -0.0858914 -0.114810646
-0.04392071 0.20584545 0.13779236 0.1269588 0.20010088 -0.02240578 -0.12297965 -0.009607012
-0.025602113 0.0060827825 -0.12741986 0.08229888 0.00022261552 -0.059938908 0.04591988 0.088638104
0.08191205 0.14110726 -0.12488228 -0.078609034 0.028272033 0.04025937 0.05708521 -0.12406862
0.048467197 -0.016330836 -0.21260497 -0.025120333 0.06579652 -0.0047855247 -0.005340966 -0.048442703
0.016827118 -0.0008926258 0.11564551 -0.013915014 0.027286114 -0.0901604 0.20920639 -0.050415598
-0.14523181 -0.16724393 0.20975302 0.089552626 -0.00087335816 -0.046095468 0.09152516 -0.27951103
-0.1911885 -0.013127248 -0.1905915 -0.083387524 -0.039185334 0.04334584 -0.049327504 0.08028206
0.10167963 0.13483368 -0.018284753 -0.0022059279 -0.14449073 -0.20794635 0.0036473544 0.09277647
-0.007268902 -0.27531877 0.06322872 -0.15178578 0.0477085 -0.27468893 0.1760083 -0.11143655
0.0044171424 0.13213651 -0.03860668 -0.39270315 0.1425528 -0.018056344 -0.058984943 -0.14742126
0.06515711 -0.022027316 0.09672666 -0.05766549 0.092538185 -0.18606474 -0.04845478 -0.015187237
-0.03330424 0.06775729 -0.07827159 -0.20936848 -0.12864324 0.013106861 0.026221005 0.10711334
0.33057863 -0.10581393 -0.13594843 0.062130045 0.13389166 -0.17521577 0.10568212 0.1268293
-0.056374997 -0.035790797 -0.019831982 -0.022215096 -0.02672119 -0.11022212 0.038315807 0.060463555
-0.06851796 -0.026346441 -0.22068892 0.108995356 -0.007875937 0.0565802 0.12872535 -0.15591408
0.033271793 -0.13703853 0.0888179 -0.042786356 0.119669795 -0.10367742 -0.130938 0.19704911
-0.08817542 -0.07178044 -0.117005214 -0.22237042 -0.08267753 0.15165158 -0.089963496 0.13654275
0.1769592 0.100129776 -0.058064748 0.03929559 -0.019625055 0.18584281 0.05049041 -0.08652922
-0.016415395 0.17534979 -0.07614193 0.16193533 0.08544395 0.13395812 0.0057449234 0.10722849
0.03245895 0.21103247 0.11858333 -0.015197546 0.15280426 -0.055993 -0.01739888 0.07371144
-0.07482137 -0.02000924 0.055668112 -0.039947845 0.16772147 0.09636338 0.02483383 -0.11480155
0.1867279 0.05329802 0.009467287 -0.099066384 0.08274589 -0.007258247 0.07012612 -0.0007919236
0.08056659 0.14057724 -0.11141069 -0.10824459 -0.043643523 0.028919915 0.2945825 0.039129827
0.09226267 0.061831694 0.13879858 -0.005791644 0.22166267 0.1421764 0.07608251 0.118441954
-0.10391861 0.022030395 0.24155407 -0.098966524 -0.0033248437 -0.12497036 0.031534914 0.119678676
-0.034216154 -0.17725602 -0.120271444 -0.08119039 0.17468446 0.14513086 0.084743306 0.046460614
0.02642561 0.24098484 0.1711656 -0.008578727 0.1634288 0.0363763 -0.13192655 0.014913437
0.082028866 0.06326966 -0.00096308085 -0.06518594 0.0058092964 0.08200679 -0.06401814 0.01692935

network_body._body_endoder.seq_layers.0.bias f4 [256]
00000000: 0000 0000 0000 0000 0000 0000 0000 0000
00000010: 0000 0000 0000 0000 0000 0000 0000 0000
00000020: 0000 0000 0000 0000 0000 0000 0000 0000
00000030: 0000 0000 0000 0000 0000 0000 0000 0000
00000040: 0000 0000 0000 0000 0000 0000 0000 0000
00000050: 0000 0000 0000 0000 0000 0000 0000 0000
00000060: 0000 0000 0000 0000 0000 0000 0000 0000
00000070: 0000 0000 0000 0000 0000 0000 0000 0000
00000080: 0000 0000 0000 0000 0000 0000 0000 0000
00000090: 0000 0000 0000 0000 0000 0000 0000 0000
000000a0: 0000 0000 0000 0000 0000 0000 0000 0000
000000b0: 0000 0000 0000 0000 0000 0000 0000 0000
000000c0: 0000 0000 0000 0000 0000 0000 0000 0000
000000d0: 0000 0000 0000 0000 0000 0000 0000 0000
000000e0: 0000 0000 0000 0000 0000 0000 0000 0000
000000f0: 0000 0000 0000 0000 0000 0000 0000 0000
00000100: 0000 0000 0000 0000 0000 0000 0000 0000
00000110: 0000 0000 0000 0000 0000 0000 0000 0000
00000120: 0000 0000 0000 0000 0000 0000 0000 0000
00000130: 0000 0000 0000 0000 0000 0000 0000 0000
00000140: 0000 0000 0000 0000 0000 0000 0000 0000
00000150: 0000 0000 0000 0000 0000 0000 0000 0000
00000160: 0000 0000 0000 0000 0000 0000 0000 0000
00000170: 0000 0000 0000 0000 0000 0000 0000 0000
00000180: 0000 0000 0000 0000 0000 0000 0000 0000
00000190: 0000 0000 0000 0000 0000 0000 0000 0000
000001a0: 0000 0000 0000 0000 0000 0000 0000 0000
000001b0: 0000 0000 0000 0000 0000 0000 0000 0000
000001c0: 0000 0000 0000 0000 0000 0000 0000 0000
000001d0: 0000 0000 0000 0000 0000 0000 0000 0000
000001e0: 0000 0000 0000 0000 0000 0000 0000 0000
000001f0: 0000 0000 0000 0000 0000 0000 0000 0000
00000200: 0000 0000 0000 0000 0000 0000 0000 0000
00000210: 0000 0000 0000 0000 0000 0000 0000 0000
00000220: 0000 0000 0000 0000 0000 0000 0000 0000
00000230: 0000 0000 0000 0000 0000 0000 0000 0000
00000240: 0000 0000 0000 0000 0000 0000 0000 0000
00000250: 0000 0000 0000 0000 0000 0000 0000 0000
00000260: 0000 0000 0000 0000 0000 0000 0000 0000
00000270: 0000 0000 0000 0000 0000 0000 0000 0000
00000280: 0000 0000 0000 0000 0000 0000 0000 0000
00000290: 0000 0000 0000 0000 0000 0000 0000 0000
000002a0: 0000 0000 0000 0000 0000 0000 0000 0000
000002b0: 0000 0000 0000 0000 0000 0000 0000 0000
000002c0: 0000 0000 0000 0000 0000 0000 0000 0000
000002d0: 0000 0000 0000 0000 0000 0000 0000 0000
000002e0: 0000 0000 0000 0000 0000 0000 0000 0000
000002f0: 0000 0000 0000 0000 0000 0000 0000 0000
00000300: 0000 0000 0000 0000 0000 0000 0000 0000
00000310: 0000 0000 0000 0000 0000 0000 0000 0000
00000320: 0000 0000 0000 0000 0000 0000 0000 0000
00000330: 0000 0000 0000 0000 0000 0000 0000 0000
00000340: 0000 0000 0000 0000 0000 0000 0000 0000
00000350: 0000 0000 0000 0000 0000 0000 0000 0000
00000360: 0000 0000 0000 0000 0000 0000 0000 0000
00000370: 0000 0000 0000 0000 0000 0000 0000 0000
00000380: 0000 0000 0000 0000 0000 0000 0000 0000
00000390: 0000 0000 0000 0000 0000 0000 0000 0000
000003a0: 0000 0000 0000 0000 0000 0000 0000 0000
000003b0: 0000 0000 0000 0000 0000 0000 0000 0000
000003c0: 0000 0000 0000 0000 0000 0000 0000 0000
000003d0: 0000 0000 0000 0000 0000 0000 0000 0000
000003e0: 0000 0000 0000 0000 0000 0000 0000 0000
000003f0: 0000 0000 0000 0000 0000 0000 0000 0000
0.0 0.0 0.0 0.0 0.0 0.0 0.0 0.0
0.0 0.0 0.0 0.0 0.0 0.0 0.0 0.0
0.0 0.0 0.0 0.0 0.0 0.0 0.0 0.0
0.0 0.0 0.0 0.0 0.0 0.0 0.0 0.0
0.0 0.0 0.0 0.0 0.0 0.0 0.0 0.0
0.0 0.0 0.0 0.0 0.0 0.0 0.0 0.0
0.0 0.0 0.0 0.0 0.0 0.0 0.0 0.0
0.0 0.0 0.0 0.0 0.0 0.0 0.0 0.0
0.0 0.0 0.0 0.0 0.0 0.0 0.0 0.0
0.0 0.0 0.0 0.0 0.0 0.0 0.0 0.0
0.0 0.0 0.0 0.0 0.0 0.0 0.0 0.0
0.0 0.0 0.0 0.0 0.0 0.0 0.0 0.0
0.0 0.0 0.0 0.0 0.0 0.0 0.0 0.0
0.0 0.0 0.0 0.0 0.0 0.0 0.0 0.0
0.0 0.0 0.0 0.0 0.0 0.0 0.0 0.0
0.0 0.0 0.0 0.0 0.0 0.0 0.0 0.0
0.0 0.0 0.0 0.0 0.0 0.0 0.0 0.0
0.0 0.0 0.0 0.0 0.0 0.0 0.0 0.0
0.0 0.0 0.0 0.0 0.0 0.0 0.0 0.0
0.0 0.0 0.0 0.0 0.0 0.0 0.0 0.0
0.0 0.0 0.0 0.0 0.0 0.0 0.0 0.0
0.0 0.0 0.0 0.0 0.0 0.0 0.0 0.0
0.0 0.0 0.0 0.0 0.0 0.0 0.0 0.0
0.0 0.0 0.0 0.0 0.0 0.0 0.0 0.0
0.0 0.0 0.0 0.0 0.0 0.0 0.0 0.0
0.0 0.0 0.0 0.0 0.0 0.0 0.0 0.0
0.0 0.0 0.0 0.0 0.0 0.0 0.0 0.0
0.0 0.0 0.0 0.0 0.0 0.0 0.0 0.0
0.0 0.0 0.0 0.0 0.0 0.0 0.0 0.0
0.0 0.0 0.0 0.0 0.0 0.0 0.0 0.0
0.0 0.0 0.0 0.0 0.0 0.0 0.0 0.0
0.0 0.0 0.0 0.0 0.0 0.0 0.0 0.0

network_body._body_endoder.seq_layers.2.weight f4 [256, 256]
00000000: 9f48 01bd 1dbb d9bd 749b f43a 11d2 83bd
00000010: 5a5e 93bc d68f 8fbc d5cf a13d 6221 b83d
00000020: f534 623d 188c 80bc 28a7 8c3d d8eb 8bbc
00000030: 3572 203d 5846 8cbd 85e2 27bd 991f 9d3d
00000040: db31 eabd 1764 a2bd f9d4 fc3c e594 e8bd
00000050: 0242 a23d c58e cb3a 7a5b 6d3d f902 2e3d
00000060: 2873 c2bd 27ad 43bd c9ea a43d 8eb0 d53d
00000070: 8dfc d9bc e6b1 0dbd eea5 1e3d bc11 60bc
00000080: 9db2 0dbd 9f3b 4ebd 87fb 32bb 6fc1 58bc
00000090: af69 e1bc 8d4d 88bd f353 eebc 09f0 27bc
000000a0: ade2 ec3d 32ad 87bc f8d3 ed3c 9e7b 1a3d
000000b0: 6b9a b4bc 8714 143c 674e 46bd 80c6 2abd
000000c0: 174c d6bc 49d8 6f3c 353e 65bc 4c52 153d
000000d0: 0f9c c2bd 6d97 263c 6c7e 04bd de01 debc
000000e0: 6825 50bd 2cfc aa3d 4560 3f3c 1d43 14bd
000000f0: c5d4 b63d f1bb 6f3c 3dcf 16bd 2a22 d9bb
00000100: 8d24 343d a42a 1fbd 510c af3c c42b 623d
00000110: e843 80bd edbe 2cbd ab5b d5bd 1599 7e3d
00000120: 38f5 7bbd d99a debc 8287 02bd dfaa d0bd
00000130: 73ed b53c e1cf 04bc 07cd f6bb a52a 573d
00000140: 82bd 25bc af59 85bd d31e 4bbd 43a7 4ebd
00000150: 819d 063d 6b2c 803c bbcd 4d3d 5858 473d
00000160: 5295 eabc 01f3 9dbd ef44 22bc 920b b63d
00000170: 01d1 113e 9579 eebc 1055 653c 036c 8c3d
00000180: 97f9 1dbd 4f3c a43c bdb8 99bd de51 3c3c
00000190: e1f7 6abd c94a 4e3c 3443 d9bb 690a e63b
000001a0: 3072 823d ec95 523d 4451 89bd fadb 3bbb
000001b0: c187 9fbc 0b00 ad3d df71 8abd f6dd 73bd
000001c0: a0f7 86bd b766 3dbd a681 33bd 837b 363d
000001d0: 09fb 033e 8bb1 bd3d 1e3c 1b3d 8c1a 4cbc
000001e0: 3741 a7bc 9d35 a5bd f105 9ebc d901 133d
000001f0: 7561 eeba 11a9 2fbd 4ddf b33d 6489 dc3b
00000200: eaa8 2d3e 8bf1 1d3d 380b 09bd b718 403d
00000210: d31a fcbd d24e 68bd 6bb7 763d 7845 163b
00000220: e15b 10be 9dc7 35bd 0503 0d3d 2a5a 413d
00000230: c27e 4d3c b52e e63d 9dbb 65bd ac2d c6bc
00000240: b8f2 7abc 8cd9 483d 2f4e fa3c 2ab0 89bd
00000250: c656 4dbb 2773 06be 21c9 30bd 7bde c0bd
00000260: 3990 a6bd a3fb a43d 75c3 fe3c 5df7 843c
00000270: 731a a4bc 5f1b 1abd 1fe8 d2bd 4b44 473c
00000280: b213 6f3b 28ba 373d 7abf 193c ee4a b73d
00000290: de62 e8bd 9cf0 a73d b51e c63a 17d6 bdbc
000002a0: b5a4 bb3c 86cd 5a3d 73ee f23c 2828 1f3d
000002b0: a1f1 bebc 94ef 0a3d c5bf c7bc fdbb 063e
000002c0: 4329 48bd efb4 703d b594 793c 7823 7abc
000002d0: 403e 3a3c b5a5 d5bb c25e d93d abe0 453d
000002e0: e37b 8a3d 963b cb3a dbd5 e93b de8c da3c
000002f0: 3481 2fbc 5dc9 643d 17b4 a93c 18ad 793b
00000300: 425a 1ebd f28f e13d c908 423d e167 a8bd
00000310: 9158 abbd bf77 14bd a59d 2bbb 878d 84bc
00000320: c5d4 1bbd 2711 42bd d2f5 a43c 1493 8f3b
00000330: f31c 283d 002d 793d fb4c ea3c 4070 0abd
00000340: 4805 edbd 9de9 6bbb 5c08 4bbc 7e8f e23d
00000350: ae22 bf3c 2eaa 0f3d b467 c63d dc4a d2bb
00000360: 423d bb3a e734 453d 6797 d43c ada3 453d
00000370: b15f 223c a980 0dbe c9a5 733d dcea bdbd
00000380: b935 bebc e2ea a93b 464c efbd 7c3a 983d
00000390: 14cc e8bd a44d af3b 5ad7 f03c 11a2 d03d
000003a0: 3e64 c13b 013f 16be 5705 313d 75ce 82bd
000003b0: 441b 2bba 5f1f 213d ee3c 9d3c 2e7f 3dbd
000003c0: f7d3 48bc ed81 3a3d f3cf 10bd 9dff 973d
000003d0: c7fc 053d cb39 96bd cc71 6c3d bcba 573d
000003e0: 07c2 c13c f1c4 dcbd c95d a4bd a933 583d
000003f0: 4acb ea3d 1f32 a33d 30b8 75bd c130 62bd
-0.031563397 -0.10631392 0.0018662051 -0.06436551 -0.017989326 -0.017524641 0.07900969 0.08990742
0.055226285 -0.015691802 0.0686782 -0.017080233 0.039171416 -0.068493545 -0.04098751 0.076720424
-0.114352904 -0.07929247 0.030863272 -0.113565244 0.07922746 0.001553022 0.057948567 0.042483304
-0.094946206 -0.047772553 0.08052594 0.10434066 -0.026609683 -0.034593485 0.03873246 -0.013676103
-0.034594167 -0.050349828 -0.0027310567 -0.013229712 -0.027516214 -0.06655417 -0.029092764 -0.0102501
0.115666725 -0.016562078 0.029031739 0.037715547 -0.022046288 0.009038097 -0.048414614 -0.04169321
-0.02615933 0.014638969 -0.013991882 0.036455438 -0.09502422 0.010167939 -0.032347128 -0.0271005
-0.050816923 0.08348879 0.011680667 -0.036196817 0.08927301 0.014632211 -0.03681873 -0.006626387
0.04398017 -0.038859025 0.021368178 0.05521752 -0.06262952 -0.04217427 -0.10417875 0.06215771
-0.061513156 -0.027173446 -0.03186751 -0.10188841 0.022207951 -0.008106203 -0.0075317654 0.052530903
-0.010115983 -0.065112464 -0.049589943 -0.050452482 0.03286505 0.01564618 0.050245028 0.048668236
-0.028635655 -0.07712365 -0.00990413 0.088889256 0.14239885 -0.02911071 0.013997331 0.06856539
-0.038568106 0.020048289 -0.07505939 0.011494128 -0.057365302 0.012591072 -0.0066303257 0.007020284
0.06369436 0.051412508 -0.06704953 -0.0028665052 -0.019473912 0.08447274 -0.067600004 -0.05953785
-0.065901995 -0.046240535 -0.043824814 0.044551384 0.12888731 0.09262379 0.03789913 -0.012457501
-0.020416839 -0.080668665 -0.019289942 0.035890434 -0.0018187003 -0.042885844 0.087828256 0.0067302454
0.16958967 0.03856043 -0.033457965 0.04689857 -0.12309804 -0.056715794 0.060233515 0.002292959
-0.14097549 -0.04437982 0.034426708 0.047205128 0.012542428 0.112393774 -0.056087125 -0.0241917
-0.015316658 0.049035594 0.030554859 -0.06723054 -0.0031332239 -0.13129865 -0.04316056 -0.09417435
-0.08132977 0.080558084 0.03109906 0.016231233 -0.020032143 -0.03762376 -0.1029818 0.012162278
0.0036480245 0.044855267 0.0093840305 0.089498386 -0.113469824 0.082001895 0.0015115353 -0.023173375
0.022905687 0.05341866 0.029654717 0.038856655 -0.023308577 0.033919886 -0.024383435 0.1315765
-0.048867475 0.0587663 0.015233208 -0.0152672455 0.011367381 -0.006519998 0.10613777 0.048309963
0.06761911 0.0015505429 0.0071360893 0.026678499 -0.010711957 0.055856097 0.020715756 0.0038097557
-0.038660295 0.110137835 0.04737166 -0.08222938 -0.08366502 -0.03624701 -0.0026186493 -0.016180767
-0.03804471 -0.04737964 0.020136748 0.0043815468 0.041043233 0.06083393 0.02860116 -0.033798456
-0.11573273 -0.0035997399 -0.01239213 0.11062525 0.023331966 0.035074405 0.096877486 -0.0064176153
0.0014285224 0.048146155 0.0259511 0.048251797 0.00991051 -0.13818611 0.059484277 -0.092733115
-0.023218976 0.005185471 -0.1168447 0.0743303 -0.1136705 0.0053498317 0.029399563 0.10187162
0.0059018424 -0.14672472 0.043217983 -0.06387035 -0.0006527195 0.03933656 0.019194093 -0.046263866
-0.012257568 0.045534063 -0.035354566 0.07421801 0.03271177 -0.07335242 0.057725713 0.05266832
0.02365209 -0.10779751 -0.080257006 0.052783642 0.114645556 0.07968544 -0.059990108 -0.055222277

action_model._continuous_distribution.log_sigma f4 [1, 12]
00000000: 0000 0000 0000 0000 0000 0000 0000 0000
00000010: 0000 0000 0000 0000 0000 0000 0000 0000
00000020: 0000 0000 0000 0000 0000 0000 0000 0000
0.0 0.0 0.0 0.0 0.0 0.0 0.0 0.0
0.0 0.0 0.0 0.0

action_model._continuous_distribution.mu.weight f4 [12, 256]
00000000: 753c 5dbc 22c3 67bc 5b30 b43a 5fe1 0abc
00000010: 5255 49bc a76b 913b cd77 463c 1787 e6bb
00000020: 7280 a1bb 4348 2dbc d49e 2d3c 8da2 f9bb
00000030: bc9e 80bb 5f4e 6c3c 9557 533c bbb9 d13b
00000040: 92bf 313b 5364 9e3c 9506 99bc 99fb 0ebb
00000050: a466 c43c 8aba e33b 9bce 153c 72d5 293c
00000060: 6619 133c 5197 40bb 17ef 4b3c 8915 2fbc
00000070: b7a1 643b 6119 993b f233 4bbc fb07 0bbd
00000080: cf97 3bbc 5a39 2abc c287 563b af19 d2bb
00000090: 2b94 c4bb a2c4 523c 4bf6 8cbc 4b1b 833c
000000a0: 8069 23bc f081 d7bb 8764 94bc ae35 363c
000000b0: 7f29 be3b 6da6 78bc 04c8 b3bc 3797 3bbc
000000c0: 6ae7 09bc 4b8f 1ebc 517b 143a 43f8 69bc
000000d0: 45e0 51bc 8103 19bc affb f73b 45f2 bf3c
000000e0: d332 4abc 654a b33b 837d a63c 3578 9d3b
000000f0: 558e 6fbc 9e88 b2bb 5ab1 3e3c 93ec d4bb
00000100: 499f 40bc e8fc 9f3b 8636 3739 ad00 4dbc
00000110: 9092 7fbc 7730 983b cdca 0dbc ad51 6f3c
00000120: a0c6 14bc 32d6 643b 9f85 413c a8e2 6bbc
00000130: 6ba5 b73c b3e7 8f3c a0bf 68bc d8d9 873b
00000140: e748 7cbc 11e5 1f3c 62df 08bc 6fb0 af3c
00000150: 4098 b2bb 3047 06bc 3f73 59bb 0ccf 913b
00000160: f866 3dbb 2f15 903c f173 393c bf1b 1dbb
00000170: f382 3fbc bbab 863c 5bc0 19ba 6cae c83b
00000180: 6778 9d3c 1b9e 4dbb 0b9a b13b c2b7 ad3b
00000190: 1fea f3ba 085a 433c dbb8 4ebc 30a4 063b
000001a0: e735 bb3b 8383 b13b 18f0 de3a ee82 41bc
000001b0: eda4 8cbc 2ec7 c73b 6d26 733b ff1c 003a
000001c0: 3b8f 83bc 0f6b 71ba 9660 393a c27e acbc
000001d0: 152c 48bc 1b50 3b3c 4d07 b93c 2b61 7a3c
000001e0: 4b43 d03a f071 7aba 481c 7ebc 9f58 eabb
000001f0: 56fe 32bc 6abf f43c a239 843c e34f 8a3c
00000200: 2810 3cbb 4830 a73b eb0e bbbc afba 413c
00000210: 9882 c83c e8e8 2bb9 0130 c6ba 68f4 083c
00000220: 390a a6bc e7a1 403c 8a9f a13b e805 e6bb
00000230: 4577 613c 9f30 75bc f709 76bb 0fb1 893b
00000240: 57fc 7cbc 0b4b 9a3a 001b 47bc 2fc4 5ebb
00000250: 6c29 c03b ff21 20bc c776 1f3c b359 01bb
00000260: b8cd 1839 13bc 18bc 358e 633b 5dfc d7bc
00000270: 31f9 13bc 06e3 8c3b 482e 9fbc b684 19bc
00000280: 3d69 d93c b5a3 ea3c 822a b43c 6a76 893b
00000290: daf0 a8ba 00b1 313b 5601 a63b 2d31 ce3b
000002a0: 5f52 11bc 4230 14bb 8b06 19bc 4b74 293c
000002b0: 6054 d33b 16ac 17bc fd14 2f3c 3391 15bc
000002c0: f95f a4bc 0289 413c eaa2 99bb f5d8 22bc
000002d0: 4880 dfbb 320e 513c 898a 833b 9df8 af3c
000002e0: 88df 8a3b 72f7 d73b 9747 173c 8334 1f3c
000002f0: d766 7ebc 37b4 a7bc e5a2 553c 521f b9bc
00000300: 703c 7fbb 77dc ffbb 5048 79bb 22e0 193c
00000310: e2a8 74bb 84c6 313c b328 d63b 7ad5 b4bb
00000320: 07ca 81b9 a749 f03b 4dc2 6f3c 4b2a 7ebb
00000330: 16a5 293c cc12 8a3c c018 fe3b e8d8 c5ba
00000340: 367e a0bb 575f 0abc f333 573c 5333 5f3c
00000350: 3a8d 923c ea2a f53b 11a8 443c 3820 74bc
00000360: 7ecf a8bc 5b78 b9ba 9552 dcbc 5127 b0bc
00000370: 0960 873a 6f5d 59bc 0c93 913b ec57 1739
00000380: 4ff0 363c a708 cbbc c010 8bbc 675b 7a3c
00000390: 716e 14bb 87a2 2f3d 5a39 093c 59be 95bc
000003a0: 0f90 afbc fcd6 a73c 801a 9bbc 4441 a9bc
000003b0: dda9 ebbb dea9 bb3c ebfa 92bc d4cb 8ebc
000003c0: b723 02bc bf15 5b3c fb21 4fbc 506f 60bb
000003d0: 3cec 943c aad6 24bc f598 22bb 48f0 0bbc
000003e0: 71c6 c03c 7b06 323c ac98 1cbc 7c81 a83b
000003f0: 1caa 353b 9708 393c b8a8 eb3a 73cc a8bb
-0.013503184 -0.014145644 0.0013747321 -0.008476584 -0.012288408 0.004437882 0.012113524 -0.007035147
-0.004928642 -0.010576311 0.01059695 -0.0076182545 -0.0039251726 0.014422982 0.012899299 0.0064003146
0.0027122241 0.019334948 -0.018679896 -0.0021817444 0.023974724 0.0069497274 0.009143497 0.010365831
0.008978223 -0.0029387067 0.01244714 -0.010686287 0.0034886429 0.004672215 -0.012402521 -0.033943158
-0.011449768 -0.01038965 0.0032734727 -0.006411753 -0.0059991083 0.012864264 -0.017207285 0.016004225
-0.009973884 -0.006576769 -0.018114341 0.011121197 0.0058032866 -0.015176398 -0.02194596 -0.011449627
-0.00841699 -0.009677718 0.00056641275 -0.014280382 -0.012809818 -0.009339214 0.007567845 0.023430953
-0.012341219 0.005471515 0.02032352 0.0048055896 -0.014621337 -0.005448415 0.011638964 -0.0064979284
-0.011756727 0.0048824437 0.00017472552 -0.012512368 -0.015598908 0.0046444493 -0.0086543085 0.014606875
-0.009080559 0.003491771 0.011811643 -0.014397301 0.022417745 0.017566537 -0.014205843 0.004145842
-0.015398241 0.0097592035 -0.00835404 0.021446435 -0.0054502785 -0.008195683 -0.0033180264 0.0044497307
-0.0028900485 0.017588226 0.0113191465 -0.0023972837 -0.011688936 0.01643931 -0.000586515 0.0061243083
0.019222451 -0.0031374756 0.0054199747 0.0053014467 -0.0018609202 0.011923321 -0.012617315 0.002054464
0.005713213 0.0054172887 0.0017008809 -0.011811001 -0.017168486 0.006096742 0.003710176 0.0004887133
-0.016059509 -0.00092093734 0.00070715824 -0.021056537 -0.012217541 0.011432673 0.02258649 0.015281956
0.0015889195 -0.0009553721 -0.015509672 -0.0071516777 -0.010924896 0.02987643 0.016140763 0.016883796
-0.0028696153 0.005102191 -0.022834262 0.011824294 0.024476334 -0.00016394595 -0.0015120507 0.008359052
-0.020268546 0.0117573505 0.0049323486 -0.007019747 0.013761346 -0.014965205 -0.003754256 0.004202015
-0.015441022 0.0011771632 -0.012152433 -0.0033991446 0.005864313 -0.00977373 0.009732909 -0.0019737303
0.00014572486 -0.009322184 0.0034722213 -0.026365453 -0.00903158 0.0042995242 -0.019431248 -0.00937002
0.02653944 0.028642515 0.021992926 0.0041950243 -0.0012889162 0.0027113557 0.005066077 0.0062924833
-0.008869736 -0.0022611772 -0.009339939 0.010342668 0.0064492673 -0.009257337 0.010686156 -0.0091288565
-0.020065295 0.01181245 -0.0046886103 -0.009939422 -0.0068207122 0.012759732 0.0040143174 0.021480853
0.004238073 0.006590777 0.009233377 0.00971711 -0.015527449 -0.020471675 0.013039325 -0.022597943
-0.0038945936 -0.007808264 -0.0038037486 0.009391816 -0.0037332107 0.0108505525 0.0065356134 -0.0055186125
-0.0002475532 0.007332999 0.014633727 -0.0038782533 0.010354301 0.016854666 0.0077544153 -0.001509455
-0.004897858 -0.008445582 0.013134944 0.0136230765 0.017889608 0.0074819224 0.012002961 -0.01490026
-0.020606752 -0.0014150249 -0.026894847 -0.021503123 0.0010328303 -0.013266905 0.004442578 0.00014433236
0.0111656925 -0.0247844 -0.01697576 0.015280581 -0.0022648836 0.042879608 0.00837549 -0.018279241
-0.021430997 0.020488255 -0.018933535 -0.020661004 -0.00719188 0.022908147 -0.017941913 -0.017431177
-0.007943085 0.013371884 -0.012642379 -0.0034246035 0.018179052 -0.0100609455 -0.0024810408 -0.008541174
0.023532124 0.010865803 -0.009557884 0.005142389 0.0027719801 0.011293552 0.0017979359 -0.0051513254

action_model._continuous_distribution.mu.bias f4 [12]
00000000: 0000 0000 0000 0000 0000 0000 0000 0000
00000010: 0000 0000 0000 0000 0000 0000 0000 0000
00000020: 0000 0000 0000 0000 0000 0000 0000 0000
0.0 0.0 0.0 0.0 0.0 0.0 0.0 0.0
0.0 0.0 0.0 0.0

onnx::Div_51 f4 [74]
00000000: 0000 803f 0000 803f 0000 803f 0000 803f
00000010: 0000 803f 0000 803f 0000 803f 0000 803f
00000020: 0000 803f 0000 803f 0000 803f 0000 803f
00000030: 0000 803f 0000 803f 0000 803f 0000 803f
00000040: 0000 803f 0000 803f 0000 803f 0000 803f
00000050: 0000 803f 0000 803f 0000 803f 0000 803f
00000060: 0000 803f 0000 803f 0000 803f 0000 803f
00000070: 0000 803f 0000 803f 0000 803f 0000 803f
00000080: 0000 803f 0000 803f 0000 803f 0000 803f
00000090: 0000 803f 0000 803f 0000 803f 0000 803f
000000a0: 0000 803f 0000 803f 0000 803f 0000 803f
000000b0: 0000 803f 0000 803f 0000 803f 0000 803f
000000c0: 0000 803f 0000 803f 0000 803f 0000 803f
000000d0: 0000 803f 0000 803f 0000 803f 0000 803f
000000e0: 0000 803f 0000 803f 0000 803f 0000 803f
000000f0: 0000 803f 0000 803f 0000 803f 0000 803f
00000100: 0000 803f 0000 803f 0000 803f 0000 803f
00000110: 0000 803f 0000 803f 0000 803f 0000 803f
00000120: 0000 803f 0000 803f
1.0 1.0 1.0 1.0 1.0 1.0 1.0 1.0
1.0 1.0 1.0 1.0 1.0 1.0 1.0 1.0
1.0 1.0 1.0 1.0 1.0 1.0 1.0 1.0
1.0 1.0 1.0 1.0 1.0 1.0 1.0 1.0
1.0 1.0 1.0 1.0 1.0 1.0 1.0 1.0
1.0 1.0 1.0 1.0 1.0 1.0 1.0 1.0
1.0 1.0 1.0 1.0 1.0 1.0 1.0 1.0
1.0 1.0 1.0 1.0 1.0 1.0 1.0 1.0
1.0 1.0 1.0 1.0 1.0 1.0 1.0 1.0
1.0 1.0
