results/packaging_fix_test_21/RobotAgent.onnx (onnx, 358242 bytes, 9 tensors)

network_body.observation_encoder.processors.0.normalizer.running_mean f4 [74]
-0.053743407 -0.09638622 0.069411814 0.026085747 0.014101728 0.033528347 0.9525815 11.77777
1.7792909 -1.0698646 0.032915242 -0.001795866 0.005633503 0.9970658 0.989457 -0.017076196
-0.1318734 -0.00028282654 0.15017706 0.006705555 0.0069612567 0.9834704 0.97213435 -0.096272424
0.11148286 -0.0015389274 0.02608844 -0.00037006932 0.0011211112 0.9969922 0.9899075 -0.015375993
-0.07020382 -0.0036202073 0.134084 0.00020335714 -0.0005235095 0.9858594 0.9711649 -0.085947044
0.010360043 -0.006071843 0.04081511 -0.00075975864 0.024086896 0.99645734 0.9906879 -0.024602104
-0.10960667 -0.0144422995 0.25631613 0.021168008 -0.004043742 0.9629979 0.96588844 -0.16516304
0.32605734 0.0036979017 0.05931447 0.00771523 -0.026531633 0.9953328 0.98365355 -0.035233803
0.2345322 0.017407771 0.25295103 -0.024967015 -0.0015344236 0.9637246 0.9657216 -0.16278408
-0.44777676 0.0079884045
00000000: 0c22 5cbd 2366 c5bd c827 8e3d c7b1 d53c
00000010: ef0a 673c 0555 093d 62dc 733f bf71 3c41
00000020: cebf e33f 53f1 88bf 22d2 063d 4363 ebba
00000030: 4099 b83b b43f 7f3f 0e4d 7d3f 61e3 8bbc
00000040: d209 07be 5648 94b9 04c8 193e 46ba db3b
00000050: 411b e43b b7c4 7b3f ccdd 783f 7a2a c5bd
00000060: 2051 e43d d6b5 c9ba 6db7 d53c dd05 c2b9
00000070: 40f2 923a e13a 7f3f 946a 7d3f 97eb 7bbc
00000080: 05c7 8fbd 0041 6dbb 514d 093e 443c 5539
00000090: 213c 09ba 4861 7c3f 439e 783f 0105 b0bd
000000a0: 2bbd 293c 50f6 c6bb bf2d 273d 8a2a 47ba
000000b0: e251 c53c d417 7f3f b99d 7d3f 5a8a c9bc
000000c0: 7679 e0bd 659f 6cbc de3b 833e 8868 ad3c
000000d0: 5e81 84bb 0887 763f 7744 773f 8020 29be
000000e0: fdf0 a63e 7f58 723b bbf3 723d 0ad0 fc3b
000000f0: de58 d9bc 21ce 7e3f b8d0 7b3f 5251 10bd
00000100: 3629 703e be9a 8e3c cc82 813e a087 ccbc
00000110: b61e c9ba a8b6 763f 8839 773f dfb0 26be
00000120: ff42 e5be cce1 023c

network_body._body_endoder.seq_layers.0.weight f4 [256, 74]
-0.032125056 0.19754045 0.1075371 -0.044087376 -0.049011473 -0.124095246 0.02427453 -0.040298607
0.022410458 -0.017541459 -0.265998 0.07606893 0.02218546 0.07231737 0.037829824 -0.12703851
-0.080302745 -0.13800246 0.06365177 0.048656978 -0.056923587 -0.16580456 -0.21149614 -0.08727009
0.10966191 0.062501475 0.1202435 0.0011610766 -0.045811217 0.11103719 0.00136828 -0.020506153
0.0501896 0.16447365 0.14731959 0.074391164 0.19478656 0.14390808 -0.054268327 0.046202216
0.034367785 0.077746816 0.0014057844 0.03690848 -0.06174973 -0.0042465227 0.118668005 -0.011971048
0.122983076 -0.10951292 -0.1127291 0.009900033 0.045917027 0.08370413 0.057497475 0.012180631
-0.022279192 0.025913449 0.046771903 0.12059325 -0.19463266 0.2615477 0.089862555 -0.1406252
-0.060111314 0.010834141 0.0146078495 -0.10954137 0.031596057 -0.10278415 0.10936276 0.02505458
-0.06766925 0.008861076 0.07213621 -0.04247658 0.16713855 0.17243432 0.04385232 0.055593148
0.15468432 0.04969165 0.13155986 0.13513368 0.0358764 -0.25719446 0.2419443 -0.10471483
-0.13879298 -0.24388206 0.050002877 -0.028924854 0.15393052 -0.04629703 -0.06028997 0.05486584
-0.0010560666 -0.0068910816 0.009664566 -0.034742307 0.22786832 -0.009286123 0.18143311 -0.01682679
-0.14832616 0.034045212 0.13630708 -0.041152127 0.022353558 0.049247336 -0.05842363 0.157191
0.06369933 0.10415487 0.09165533 -0.22110206 -0.043044366 0.16264693 -0.019617578 -0.13581714
-0.18177707 0.02305848 -0.10357115 -0.1445248 -0.041091513 -0.040092394 0.042441614 -0.1763469
-0.0083294 0.0051050875 -0.01951055 0.14949568 -0.10789773 -0.12409589 -0.23562707 0.07210901
0.112021476 0.09068899 -0.03339028 0.03432826 0.253229 -0.06215179 0.0020452898 0.18979438
-0.00542598 -0.16221905 0.0066161687 0.010219324 -0.017332233 -0.08965875 0.0076659364 0.025676493
0.11304242 0.020220706 0.035470687 0.19219917 0.07488526 0.05674229 0.036100913 0.044506773
-0.024530316 0.16403717 -0.19297633 -0.0685647 -0.12651417 -0.09263085 0.053868823 0.10758696
-0.111050084 0.050818972 0.111033864 0.0037432036 0.0475752 0.09633687 -0.18386807 -0.009522899
-0.16372834 0.024810534 0.009199104 -0.11725466 0.16580498 0.15797038 0.073120534 0.11936921
0.03989203 0.018911833 0.08756643 0.05767822 0.06948299 -0.010930387 -0.120781526 -0.20259131
0.007509087 -0.05220652 0.058994748 -0.057654575 -0.16143516 0.0062935646 -0.20302956 0.07482839
-0.050661124 0.074303284 0.11541072 0.112028286 0.26158756 -0.1030946 0.11951028 0.080705486
-0.18002163 -0.23632094 -0.0008769605 -0.051077798 -0.06695704 0.1243464 -0.04833176 0.10838654
-0.009881732 0.16141133 -0.060085323 -0.0767937 -0.046822093 0.09382232 0.04698938 0.05988017
0.22963446 -0.0016256868 -0.13362941 0.039551955 -0.012644068 -0.15474044 0.07469561 0.12511003
0.11757117 -0.067730956 0.044226844 -0.17824613 0.0027000806 0.08000347 0.14633943 0.14203118
-0.05457385 -0.08023908 0.043954898 -0.26192918 -0.010315007 0.038364407 0.12509651 0.058368217
-0.044174727 0.19805224 0.17705272 0.07201033 -0.11789344 0.06458507 0.21367776 -0.18537174
00000000: 9095 03bd 0b48 4a3e 693c dc3d f794 34bd
00000010: 41c0 48bd a625 febd 61db c63c 2710 25bd
00000020: 2396 b73c 1bb3 8fbc e430 88be 07ca 9b3d
00000030: 48be b53c 211b 943d 72f3 1a3d 6216 02be
00000040: c475 a4bd 8450 0dbe dc5b 823d 8a4c 473d
00000050: b528 69bd acc8 29be 7292 58be a9ba b2bd
00000060: 6c96 e03d c600 803d 3942 f63d 442f 983a
00000070: 8ba4 3bbd 7767 e33d dc57 b33a 85fc a7bc
00000080: 9c93 4d3d c86b 283e f2da 163e 655a 983d
00000090: 2176 473e a45c 133e 7748 5ebd 893e 3d3d
000000a0: 3cc5 0c3d b939 9f3d 4c42 b83a 592d 173d
000000b0: 49ed 7cbd 6a26 8bbb 3608 f33d 3722 44bc
000000c0: 8dde fb3d 4f48 e0bd 84de e6bd bf33 223c
000000d0: 7e13 3c3d 126d ab3d 7982 6b3d 4591 473c
000000e0: da82 b6bc 7148 d43c e593 3f3d 98f9 f63d
000000f0: c94d 47be 95e9 853e dc09 b83d 0d00 10be
00000100: 4837 76bd ae81 313c c355 6f3c 3a57 e0bd
00000110: de6a 013d 7f80 d2bd 95f9 df3d 433f cd3c
00000120: 2d96 8abd 0c2e 113c 26bc 933d ecfb 2dbd
00000130: 5e26 2b3e 9f92 303e 7e9e 333d a4b5 633d
00000140: 9165 1e3e 7989 4b3d a1b7 063e 7c60 0a3e
00000150: 22f3 123d feae 83be 3fc0 773e bb74 d6bd
00000160: bf1f 0ebe 38bc 79be d1cf 4c3d d1f3 ecbc
00000170: f69f 1d3e f4a1 3dbd 9ef2 76bd 01bb 603d
00000180: b76b 8aba 95ce e1bb 2158 1e3c f34d 0ebd
00000190: 5056 693e d324 18bc 9ac9 393e 56d8 89bc
000001a0: d0e2 17be fe72 0b3d 1594 0b3e 228f 28bd
000001b0: cf1e b73c 93b7 493d 9e4d 6fbd adf6 203e
000001c0: cb74 823d 264f d53d cab5 bb3d 9468 62be
000001d0: 4a4f 30bd eb8c 263e 0bb5 a0bc a613 0bbe
000001e0: c523 3abe 23e5 bc3c 1c1d d4bd 4ffe 13be
000001f0: 934f 28bd ec37 24bd 42d7 2d3d 4894 34be
00000200: 0978 08bc 9448 a73b 97d4 9fbc 6515 193e
00000210: 7cf9 dcbd fc25 febd 3948 71be e3ad 933d
00000220: 846b e53d 26bb b93d 3fc4 08bd ca9b 0c3d
00000230: 3ba7 813e e092 7ebd 450a 063b 7559 423e
00000240: 6bcc b1bb c01c 26be 72cc d83b f46e 273c
00000250: 54fc 8dbc 029f b7bd 8932 fb3b 8257 d23c
00000260: c982 e73d e5a5 a53c b649 113d dccf 443e
00000270: 715d 993d 9a6a 683d 8dde 133d bc4c 363d
00000280: cdf3 c8bc 5cf9 273e 969b 45be a66b 8cbd
00000290: ee8c 01be 3eb5 bdbd 8ea5 5c3d 8d56 dc3d
000002a0: 3a6e e3bd 8e27 503d b965 e33d 8950 753b
000002b0: 37de 423d 444c c53d e947 3cbe ef05 1cbc
000002c0: 67a8 27be 763f cb3c d7b7 163c 3623 f0bd
000002d0: c8c8 293e fdc2 213e 38c0 953d d877 f43d
000002e0: d365 233d fdec 9a3c 0756 b33d ff3f 6c3d
000002f0: 194d 8e3d 5e15 33bc 4e5c f7bd 1974 4fbe
00000300: ca0e f63b 81d6 55bd 7aa4 713d 3427 6cbd
00000310: 424f 25be 3f3a ce3b fbe6 4fbe a03f 993d
00000320: 0a82 4fbd 522c 983d 755c ec3d 166f e53d
00000330: ceee 853e 4323 d3bd cec1 f43d eb48 a53d
00000340: 9757 38be 1efe 71be d3e3 65ba f436 51bd
00000350: c620 89bd 53a9 fe3d 86f7 45bd c3f9 dd3d
00000360: fde6 21bc 0349 253e 071c 76bd 0446 9dbd
00000370: 86c8 3fbd eb25 c03d f077 403d e944 753d
00000380: 4c25 6b3e ff14 d5ba 26d6 08be 3b01 223d
00000390: 1129 4fbc 4774 1ebe 03fa 983d d81c 003e
000003a0: 27c9 f03d 87b6 8abd 3527 353d 2786 36be
000003b0: d6f3 303b dcd8 a33d 01da 153e 9f70 113e
000003c0: d488 5fbd 6354 a4bd 0d0a 343d 951b 86be
000003d0: 4600 29bc ff23 1d3d 4d19 003e 8313 6f3d
000003e0: 8ff0 34bd 35ce 4a3e 4f4d 353e 277a 933d
000003f0: 1e72 f1bd 2d45 843d 58ce 5a3e 17d2 3dbe

network_body._body_endoder.seq_layers.0.bias f4 [256]
-0.0058228537 -0.002201526 0.0040195663 -0.0048153037 -0.0031171134 0.005494294 -0.0015179509 0.0015399928
-0.0016473148 -0.0007131624 0.002010255 -0.0004829184 0.0014827076 -0.0046363445 0.00729322 -0.002057814
0.0038948273 0.0026773768 0.00084591116 0.0067764455 -0.0052358946 -0.0030772358 -0.0029892132 0.011218382
-0.004302772 0.009029208 0.0029793817 -0.0056281714 0.0009401903 0.0003415509 0.0039926902 -0.0057656984
0.009910198 0.01160689 0.002628369 0.00014414852 0.012069668 0.0015999109 0.0009845673 -0.004063824
0.0019945714 -0.003864719 -0.0020821542 0.006271699 0.005481252 0.014494341 0.002074145 -0.0010329622
-0.0069292192 0.0009249577 -0.0013650244 -0.00017294797 -0.0137834195 -0.0047169845 -0.01108869 0.0090866545
0.004636144 0.008215125 -0.0016563396 -0.0036637 -0.0031724838 0.004350317 0.002293977 0.0017942471
0.0066751055 0.004098826 0.00046395915 -0.0031595347 0.00053144584 0.0023950068 0.00058950676 0.008518926
-0.0021304241 -0.00090220675 0.0007055359 -0.006347643 -0.0065392433 -0.0037307465 0.003358843 0.0043924474
-0.0021760173 -0.0012130216 -0.0036494776 0.0040788134 0.0027124316 0.0005282039 -0.000375343 0.0009565888
0.008836754 -0.0080397315 0.008950402 -0.0003401473 0.010645938 0.0006075277 0.0053191697 -0.00047287464
0.00069967465 -0.0020144656 -0.0033305255 0.01054746 0.00031400437 0.013398137 0.0046409466 -0.013748724
0.0049516843 0.008493337 -0.015044601 0.003887684 -0.0055076135 0.003429776 0.0039625927 -0.010786959
-0.011275922 0.004178347 0.0022639236 0.0015108583 0.0011055877 0.008652548 0.016007807 0.0049764854
-0.0035873333 -0.0028365043 0.0039746636 0.0043000137 -0.0002268282 0.002898659 -4.9478775e-05 0.012483117
0.0031628502 -0.0065380675 -0.0028473919 -0.0038418178 0.004581441 0.006796701 0.0018644984 -0.0015174676
-0.0053250655 0.0056549646 0.009455576 0.010399368 -0.0028124163 -0.0013193288 0.009424556 0.008645568
-0.0054749115 0.001717068 -0.00062760536 -0.0007797825 -0.010410845 -0.002092871 0.012687044 0.0049234554
-0.0030308706 -0.0024087515 0.004405732 0.0008292825 -0.0018047375 -0.0029275597 -0.002704822 0.0013706225
-0.0020763252 -0.0022928554 0.00019505792 -0.001553517 -0.00047048318 0.0030984608 0.0020280976 -0.00094884686
0.006328036 -0.0020285551 -0.00026740125 0.0025752985 -0.003051028 -0.0040180767 0.009467178 0.002147968
-0.008021931 0.0068687596 0.0023811786 0.0044766343 0.0046520755 -0.003538513 0.008973728 0.006155983
-0.0017031365 -0.0011314839 0.0041648913 0.0026591846 0.0015156077 -0.00999973 -0.010063297 -0.0084773805
-0.005382139 0.0045110006 0.01016174 -0.0029937627 0.0006100668 -0.004251072 0.0010410588 0.006949104
5.6622313e-05 0.0034784654 0.00085477164 0.011508196 -0.0014809736 -0.0024193737 0.0060611027 0.0011452304
0.0034628157 0.0021276465 0.002316948 -0.010632206 -0.009034787 -0.0045786602 0.004615928 -0.009015062
0.006290651 0.0060867667 -0.001071525 0.0015306673 -0.0017082578 0.011907265 0.0037289339 0.0010856134
-0.00088405464 0.0025233473 -0.0010122409 0.0018207516 0.00023939197 0.006265775 -0.009083961 -0.00076943863
0.0045770267 -0.003800678 0.005419194 0.0076102223 0.0069066714 0.0011822883 0.0040061087 0.00085915363
0.0016058547 0.007738299 0.0045354916 0.00013352818 0.007182981 0.015846651 0.00047572266 -0.004831002
-4.9395534e-05 -0.0028381585 0.0064985924 -0.001155719 0.00960478 -0.0039696814 0.0059517184 0.0037708236
00000000: a3cd bebb 7a47 10bb 91b6 833b b2c9 9dbb
00000010: 7c48 4cbb 7b09 b43b fbf5 c6ba 95d9 c93a
00000020: b6ea d7ba 85f3 3aba 7bbe 033b 3630 fdb9
00000030: 6957 c23a 7aec 97bb f7fb ee3b 64dc 06bb
00000040: 5c40 7f3b ee76 2f3b 23c0 5d3a f20c de3b
00000050: de91 abbb 73ab 49bb ade6 43bb 4ecd 373c
00000060: 45fe 8cbb 3eef 133c bb41 433b 866c b8bb
00000070: 1a77 763a 3012 b339 1dd5 823b 2fee bcbb
00000080: 625e 223c d32a 3e3c b740 2c3b 9326 1739
00000090: dbbf 453c 1ab4 d13a 990c 813a d429 85bb
000000a0: 5bb7 023b 3a47 7dbb c074 08bb d382 cd3b
000000b0: 139c b33b ac79 6d3c 61ee 073b 7664 87ba
000000c0: 810e e3bb dc78 723a 9eea b2ba 5e59 35b9
000000d0: dad3 61bc ef90 9abb 56ad 35bc 31e0 143c
000000e0: cbea 973b bb98 063c 8919 d9ba b01a 70bb
000000f0: 72e9 4fbb 1b8d 8e3b 8c56 163b f12c eb3a
00000100: d8ba da3b 724f 863b 8b3f f339 3210 4fbb
00000110: ba50 0b3a 8cf5 1c3b 2189 1a3a f792 0b3c
00000120: 969e 0bbb 1282 6cba b6f3 383a e4ff cfbb
00000130: 2647 d6bb 8a7f 74bb 0920 5c3b 85ee 8f3b
00000140: 839b 0ebb 40fe 9eba 132c 6fbb 91a7 853b
00000150: 0dc3 313b 2a77 0a3a afc9 c4b9 96c3 7a3a
00000160: 08c8 103c 14b9 03bc b5a4 123c cc55 b2b9
00000170: 4d6c 2e3c 7e42 1f3a 6e4c ae3b 29ec f7b9
00000180: 5f6a 373a 2005 04bb f244 5abb 41cf 2c3c
00000190: f4a0 a439 dc83 5b3c 1513 983b 5442 61bc
000001a0: bd41 a23b a327 0b3c a17d 76bc 84c8 7e3b
000001b0: 3679 b4bb 18c6 603b a3d8 813b c9bb 30bc
000001c0: a5be 38bc 84ea 883b 565e 143b fe07 c63a
000001d0: 5ee9 903a 6bc3 0d3c ce22 833c c911 a33b
000001e0: 7719 6bbb a5e4 39bb e53d 823b 21e7 8c3b
000001f0: bbd8 6db9 6ef7 3d3b 6e87 4fb8 fd85 4c3c
00000200: d247 4f3b 493d d6bb 4f9b 3abb 02c7 7bbb
00000210: ea1f 963b dcb6 de3b 2f62 f43a c3e5 c6ba
00000220: e37d aebb 484d b93b 8feb 1a3c 1c62 2a3c
00000230: 8450 38bb 54ed acba 7469 1a3c 24a6 0d3c
00000240: e366 b3bb 3e0f e13a e285 24ba 516a 4cba
00000250: 4092 2abc 8c28 09bb 52dd 4f3c f054 a13b
00000260: 92a1 46bb 25dc 1dbb f55d 903b 3564 593a
00000270: f18c ecba 4ddc 3fbb 6243 31bb 76a6 b33a
00000280: f512 08bb bb43 16bb 7688 4c39 619f cbba
00000290: 2fab f6b9 8c0f 4b3b d5e9 043b 09bc 78ba
000002a0: 6a5b cf3b 82f1 04bb fd31 8cb9 57c6 283b
000002b0: c1f3 47bb 12aa 83bb 391c 1b3c ecc4 0c3b
000002c0: 6b6e 03bc 5513 e13b 8c0d 1c3b bbb0 923b
000002d0: 7070 983b 66e6 67bb 8b06 133c 21b8 c93b
000002e0: c73b dfba 4d4e 94ba a479 883b b745 2e3b
000002f0: 5ba7 c63a e8d5 23bc 87e0 24bc b6e4 0abc
00000300: a75c b0bb 04d1 933b 6d7d 263c 0133 44bb
00000310: e4ec 1f3a 944c 8bbb 2374 883a 4fb5 e33b
00000320: bf7d 6d38 f7f6 633b c112 603a df8c 3c3c
00000330: 3a1d c2ba 5b8e 1ebb 379c c63b 8e1b 963a
00000340: 68f0 623b fc6f 0b3b f0d7 173b b432 2ebc
00000350: a506 14bc 9608 96bb 3641 973b e9b3 13bc
00000360: ce21 ce3b 8073 c73b 6a72 8cba aca0 c83a
00000370: 9fe7 dfba b016 433c 2161 743b 244b 8e3a
00000380: e7bf 67ba be5e 253b 2bad 84ba 49a6 ee3a
00000390: 4b05 7b39 2151 cd3b e5d4 14bc 27b4 49ba
000003a0: e2fa 953b cc14 79bb 7f93 b13b 2c5f f93b
000003b0: 5c51 e23b 03f7 9a3a ad45 833b d338 613a
000003c0: 8b7b d23a 8f91 fd3b 769e 943b b303 0c39
000003d0: 365f eb3b d6d0 813c 6a6a f939 624d 9ebb
000003e0: 0d2e 4fb8 6600 3abb 25f2 d43b 7f7b 97ba
000003f0: 5e5d 1d3c 1a14 82bb a206 c33b ec1f 773b

network_body._body_endoder.seq_layers.2.weight f4 [256, 256]
0.029357808 -0.035095274 0.10391723 -0.06603656 0.01687033 -0.06789825 0.12047236 0.03244034
0.017426413 0.033434875 -0.09626922 -0.039022148 -0.003929325 -0.048882116 0.034358 -0.0036140734
0.10046219 -0.02731228 0.097844444 0.07901645 -0.007367063 -0.04010781 0.14107604 0.049872722
-0.010767141 -0.06421153 0.0026598698 0.05580526 -0.028370148 0.0178568 0.06254111 -0.13250002
0.05087553 -0.003116491 -0.018866193 -0.038993865 -0.018602343 0.028698744 -0.099309094 -0.06756942
-0.07029687 0.03289408 -0.09150542 -0.012443163 0.049421493 -0.07581858 0.037740618 -0.04440539
-0.073733784 0.012490742 -0.050011825 0.029127948 0.055674724 -0.008841257 0.039804336 0.081360586
-0.04568079 0.115403876 0.05004949 -0.021197045 0.009140727 -0.04939926 0.14045426 0.022818953
-0.04923753 -0.048326317 -0.069358 -0.081463784 0.025834652 0.09277857 0.14818099 -0.015090847
0.0024777914 -0.010593865 -0.04729336 -0.07745649 -0.016009938 0.03958281 -0.019434735 -0.06435886
0.06171227 -0.031147283 -0.080206186 -0.06826155 0.006752577 -0.0018565209 0.046241313 0.01888308
0.022975568 -0.017242953 -0.108355075 -0.10026289 -0.02649564 -0.08480004 -0.031078247 0.0073232898
-0.011522919 0.011012533 0.022922752 -0.12083313 -0.017376073 0.008357851 -0.13016497 -0.022405343
0.0725879 0.049512565 0.07537534 -0.0063983947 -0.0812308 0.067035995 0.005709184 0.080870934
0.09077105 0.015846511 0.010566487 0.014835698 -0.1012966 0.097056545 -0.06320129 0.01241511
-0.001842933 -0.03520619 -0.006792986 0.023152461 -0.05572249 5.9880687e-05 0.040119205 -0.061305437
-0.13695468 0.03688321 -0.050059836 -0.0098841265 -0.020948084 -0.12272052 0.052290924 0.08901391
-0.041393146 -0.02947969 0.07145185 0.010496355 -0.035953015 0.0040984554 -0.022555392 0.038407
-0.050823957 0.11867556 0.041673478 0.100430936 0.06893886 0.08260846 -0.005360572 0.035630036
0.015691632 -0.0265302 -0.059645936 0.11575774 -0.09652279 -0.073451936 0.023009792 -0.043336097
0.019273488 0.0029074054 0.014905642 0.07442555 0.08779868 0.14188571 0.00029375486 0.047068246
-0.09515455 -0.10518086 -0.076624274 0.1407849 0.06401107 -0.04595418 -0.01900868 0.09161576
-0.12703602 -0.047586977 0.08428722 -0.015928268 -0.04074156 -0.04331553 0.009288261 -0.15577188
-0.019375362 0.029372742 -0.026910467 0.029537609 0.120973974 0.018307434 -0.036274076 -0.07087736
0.029148307 0.002568746 0.030454412 0.0675355 -0.040149648 0.029771985 -0.02545047 -0.028061602
-0.015180873 -0.07072801 -0.020353273 -0.10072302 -0.08961425 -0.026630428 -0.0015946608 0.08012255
0.07124708 -0.050709777 0.043893177 0.062183075 0.028220078 -0.032867506 0.044980295 0.08319067
-0.036620278 0.016333237 -0.018144814 0.06897093 -0.07397253 0.020398466 0.007022925 0.036036547
-0.031818163 -0.03923842 -0.01813576 -0.015541182 -0.091377586 0.0073350454 0.058153257 0.032752607
-0.041016787 -0.09000832 0.04216939 -0.077268384 -0.008572959 -0.016890194 0.018769925 -0.08032603
0.09257373 -0.090887055 0.02844161 -0.107589066 -0.0032134168 0.061579894 0.019662207 0.048015837
-0.053784344 -0.081712075 0.038529124 -0.031197853 -0.0737628 -0.015221173 0.015968382 -0.0040008645
00000000: c97f f03c 10c0 0fbd 8fd2 d43d 2d3e 87bd
00000010: a533 8a3c 3d0e 8bbd 36ba f63d 29e0 043d
00000020: d6c1 8e3c 02f3 083d cc28 c5bd b0d5 1fbd
00000030: 91c1 80bb 9d38 48bd f9ba 0c3d 17da 6cbb
00000040: 1fbf cd3d 01be dfbc ab62 c83d 60d3 a13d
00000050: 6767 f1bb 1648 24bd 3d76 103e 5747 4c3d
00000060: aa68 30bc 5681 83bd 3651 2e3b 0e94 643d
00000070: 8368 e8bc 6d48 923c 8e15 803d 16ae 07be
00000080: dc62 503d 0b3e 4cbb 468d 9abc 08b8 1fbd
00000090: f163 98bc a119 eb3c 9162 cbbd d661 8abd
000000a0: cef7 8fbd f1bb 063d 3267 bbbd 69de 4bbc
000000b0: 316e 4a3d c646 9bbd e895 1a3d 6de2 35bd
000000c0: bd01 97bd f8a5 4c3c 33d9 4cbd bc9d ee3c
000000d0: 2e0b 643d ebda 10bc df09 233d 61a0 a63d
000000e0: c81b 3bbd de58 ec3d b200 4d3d 6da5 adbc
000000f0: fdc2 153c e156 4abd 3ed3 0f3e d0ee ba3c
00000100: 4bad 49bd d1f1 45bd 910b 8ebd 7cd6 a6bd
00000110: 31a3 d33c b102 be3d c2bc 173e 9a3f 77bc
00000120: 7162 223b e491 2dbc afb6 41bd 82a1 9ebd
00000130: 4627 83bc 9621 223d 9835 9fbc 94ce 83bd
00000140: 01c6 7c3d 9628 ffbc 2443 a4bd b6cc 8bbd
00000150: b944 dd3b 8156 f3ba 8867 3d3d b0b0 9a3c
00000160: 4237 bc3c 1841 8dbc 44e9 ddbd a156 cdbd
00000170: 620d d9bc a5ab adbd cf97 febc 35f8 ef3b
00000180: a0ca 3cbc e96d 343c 7fc8 bb3c 5c77 f7bd
00000190: 4458 8ebc 5eef 083c f749 05be 698b b7bc
000001a0: f7a8 943d b0cd 4a3d 635e 9a3d a0a9 d1bb
000001b0: 555c a6bd 2b4a 893d 1b14 bb3b a99f a53d
000001c0: 2ce6 b93d 8bd0 813c 0f1f 2d3c 6d11 733c
000001d0: 9874 cfbd 95c5 c63d ae6f 81bd bf68 4b3c
000001e0: 928e f1ba 5e34 10bd b297 debb 3baa bd3c
000001f0: 443d 64bd 6628 7b38 0954 243d 691b 7bbd
00000200: d93d 0cbe d912 173d 8b0b 4dbd 08f1 21bc
00000210: 519b abbc e554 fbbd 022f 563d ed4c b63d
00000220: dc8b 29bd 647f f1bc 5955 923d e7f8 2b3c
00000230: 7843 13bd 564c 863b 16c6 b8bc a950 1d3d
00000240: c82c 50bd 2c0c f33d cfb1 2a3d bcae cd3d
00000250: d12f 8d3d a02e a93d bda7 afbb cdf0 113d
00000260: bd8b 803c dd55 d9bc 4c4f 74bd 6512 ed3d
00000270: bead c5bd f86d 96bd 087f bc3c 3181 31bd
00000280: 6fe3 9d3c 2b8a 3e3b cb36 743c 6c6c 983d
00000290: cbcf b33d 7d4a 113e 1c03 9a39 a2ca 403d
000002a0: 64e0 c2bd 1069 d7bd 30ed 9cbd eb29 103e
000002b0: 3c18 833d 733a 3cbd 17b8 9bbc 0ba1 bb3d
000002c0: bb15 02be 90ea 42bd c79e ac3d 007c 82bc
000002d0: 9fe0 26bd a06b 31bd ca2d 183c aa82 1fbe
000002e0: 14b9 9ebc 1b9f f03c 5773 dcbc dbf8 f13c
000002f0: 34c1 f73d 79f9 953c 2094 14bd 2628 91bd
00000300: 6ec8 ee3c 6858 283b 887b f93c 0d50 8a3d
00000310: f573 24bd 61e4 f33c 817d d0bc 72e1 e5bc
00000320: 32b9 78bc d9d9 90bd e8bb a6bc df47 cebd
00000330: ad87 b7bd 0e28 dabc f003 d1ba 4b17 a43d
00000340: fde9 913d 0eb5 4fbd 55c9 333d aeb3 7e3d
00000350: cb2d e73c 14a0 06bd 423d 383d df5f aa3d
00000360: 25ff 15bd 48cd 853c 6fa4 94bc a240 8d3d
00000370: e97e 97bd af1a a73c 9120 e63b 0f9b 133d
00000380: c353 02bd 77b8 20bd 7291 94bc 71a0 7ebc
00000390: 2c24 bbbd d25a f03b 1c32 6e3d 9927 063d
000003a0: 3801 28bd 4856 b8bd cfb9 2c3d e33e 9ebd
000003b0: 9975 0cbc 4e5d 8abc 63c3 993c f981 a4bd
000003c0: 4c97 bd3d fe22 babd 61fe e83c a857 dcbd
000003d0: 3098 52bb 333b 7c3d a312 a13c 41ac 443d
000003e0: f94c 5cbd a958 a7bd b7d0 1d3d a492 ffbc
000003f0: f310 97bd 3a62 79bc 20d0 823c af19 83bb

network_body._body_endoder.seq_layers.2.bias f4 [256]
-0.003836336 0.00072604173 0.0012113972 -0.0023195564 0.0059161526 0.012455479 0.009044995 -0.0045404206
-0.0062638116 0.0018692967 0.0054144957 0.0057046735 0.006328035 -0.0002030785 0.0089453375 -0.007731309
0.003282369 0.0008955526 0.002004598 -0.000729338 0.0035990041 -0.006899348 0.008331509 0.006306384
-0.0028598018 0.004175436 0.003625531 -0.00032264847 -0.002553354 0.003494108 0.0027170728 0.005929687
0.005854292 0.009658591 -0.005257273 -0.0009555953 0.0073153204 0.0008038568 0.0010604475 -0.0046923123
4.661144e-05 -0.0011515027 0.0022778301 -0.0075852554 0.0036574095 0.0066652214 -0.0010545899 -0.0010505078
0.0039664595 0.007692255 0.0072814263 0.004040519 -0.0036131411 -0.007249511 -0.0017079997 0.005117967
0.0068555847 0.007844334 0.00037887826 0.0077174176 0.0013277162 -0.0048720795 0.0049227704 -0.003271498
-0.007647224 -0.0020705473 0.0076479116 0.0071236193 -0.009644955 -0.00048164497 0.013980898 -0.01122303
-0.005501101 0.0077139568 0.0031702314 0.0016987848 -0.00757501 -0.0030543383 -0.0038044166 0.0040021236
-0.0025616267 -0.0020259328 -0.0011143843 0.0045586308 -0.0025894325 0.0068879374 0.0026199452 0.004658999
0.00187259 -0.0068020746 0.00081107166 -0.0013482046 -0.0018810102 -0.0070600845 0.00405969 0.0030027495
0.0048996937 0.008900916 -0.0011954063 0.011450736 0.0060811704 -6.359596e-05 -0.0046598436 -0.00154031
0.0024916157 0.006856464 -0.0064920112 0.0076539675 0.010396211 0.0066013476 0.006986813 -0.010092412
-0.0025767658 0.005449686 0.00395906 0.001348873 0.0055863657 -0.005031233 -0.00035692414 -0.005788361
-0.0032943452 0.00034663963 -0.005822603 0.0020217863 -0.0050917547 -0.0037475373 -0.0009006386 0.0031079815
0.013543065 0.00087548833 0.005977585 -0.0023007563 0.0039685797 -0.0030497445 -0.0033402334 -0.0031873898
0.0065099173 0.0022886551 -0.0031018564 -0.0029738753 -0.0031199264 -0.0046683755 -0.0050843214 -0.0002185875
0.006676673 -0.008534209 0.0078974515 -0.00076041266 -0.0035888485 0.006373198 0.00084256876 -0.0009815509
-0.0027266128 0.0023276324 0.0047869408 -0.010743806 0.007429582 0.00074406946 0.0045585525 0.0017253065
-0.00046218545 -0.0013894265 0.010676864 -0.007869852 0.005425868 -0.0068163862 -0.006026701 -0.0011924721
-0.0031371855 4.164824e-05 -0.0029193729 0.0010220482 0.004211412 -0.0027676877 -0.0043650637 0.005158373
0.0072727776 -0.001380445 -0.010676211 0.008775148 -0.0009892769 0.015428141 0.00074769615 0.0053434502
0.013401282 -0.0013831328 0.00030027205 0.0074118706 0.0023429457 -0.013597994 -0.003337437 0.0086220605
-0.0038602997 0.007482367 -0.004560181 0.00012487854 -0.0013235074 0.003093135 -0.0030220714 -0.007655216
0.0069422377 0.0068785036 -0.0040199445 -0.006283836 0.00080751895 0.0007005287 0.0068990025 -0.00059873017
-0.004457953 0.0030787035 0.0083915405 0.0034291707 -0.0036406007 -0.0014260745 -0.009453044 -0.00793771
0.0010786168 0.0046002907 -0.00055295095 0.0022827438 -0.0031881928 -0.009197949 0.005384382 0.005032367
0.0052518244 0.0062875235 0.009511956 -1.6273993e-05 0.007941784 8.600766e-05 -0.004444407 0.005897603
0.0011495203 0.0068074428 -0.0020255465 -0.0031356397 0.0039751753 0.011130699 0.00022436224 -0.00413888
-0.002271101 0.006037249 0.004001598 0.0008297795 0.0031290906 -0.001066187 0.00054384227 0.006195352
0.003532287 0.0053578545 -0.0021343548 0.0048132776 -0.004346938 0.001230377 -0.0012825056 -0.004056487
00000000: 0a6b 7bbb d653 3e3a bfc7 9e3a b303 18bb
00000010: 49dc c13b 1112 4c3c 7531 143c cfc7 94bb
00000020: a940 cdbb 3003 f53a 156c b13b 45ee ba3b
00000030: 685b cf3b 78f1 54b9 778f 123c ec56 fdbb
00000040: 041d 573b 85c3 6a3a 935f 033b 0b31 3fba
00000050: 45dd 6b3b ed13 e2bb e280 083c c9a5 ce3b
00000060: 836b 3bbb 19d2 883b 519a 6d3b 2529 a9b9
00000070: 2c56 27bb 68fd 643b eb10 323b d24d c23b
00000080: 5cd5 bf3b 113f 1e3c 3445 acbb ea80 7aba
00000090: 5bb5 ef3b ebb9 523a b7fe 8a3a f8c1 99bb
000000a0: a780 4338 05ee 96ba a647 153b bc8d f8bb
000000b0: 26b1 6f3b ee67 da3b 2a3a 8aba 31b1 89ba
000000c0: 13f9 813b 500f fc3b 0899 ee3b 5466 843b
000000d0: 73ca 6cbb 4e8d edbb f6de dfba 9eb4 a73b
000000e0: d0a4 e03b 8585 003c 2ea4 c639 64e2 fc3b
000000f0: c306 ae3a f7a5 9fbb 314f a13b a166 56bb
00000100: 9095 fabb 05b2 07bb 559b fa3b 406d e93b
00000110: e005 1ebc 4b85 fcb9 2310 653c cde0 37bc
00000120: 9442 b4bb 5cc5 fc3b a8c3 4f3b c2a9 de3a
00000130: ca37 f8bb 4b2b 48bb 8553 79bb 3f24 833b
00000140: f7e0 27bb 83c5 04bb 8810 92ba 9160 953b
00000150: 78b3 29bb 35b4 e13b 63b3 2b3b 84aa 983b
00000160: b271 f53a f0e3 debb 199e 543a 3db6 b0ba
00000170: 3b8c f6ba 4858 e7bb 2607 853b c7c9 443b
00000180: 9c8d a03b 26d5 113c 2eaf 9cba de9b 3b3c
00000190: 8e44 c73b d25e 85b8 9ab1 98bb 3ae4 c9ba
000001a0: 604a 233b 30ac e03b f0ba d4bb 22ce fa3b
000001b0: df54 2a3c 1e50 d83b a3f1 e43b a55a 25bc
000001c0: f5de 28bb 4893 b23b 01bb 813b abcc b03a
000001d0: d50d b73b 0bdd a4bb 8c21 bbb9 4bac bdbb
000001e0: f1e5 57bb 2fbd b539 89cb bebb f27f 043b
000001f0: bcd8 a6bb 3e99 75bb d518 6cba 47af 4b3b
00000200: bbe3 5d3c 0781 653a 9edf c33b 49c8 16bb
00000210: dc0a 823b 39de 47bb d1e7 5abb 87e3 50bb
00000220: 2551 d53b 43fd 153b 8448 4bbb 59e5 42bb
00000230: ae77 4cbb 2cf9 98bb 619a a6bb a334 65b9
00000240: fec7 da3b 11d3 0bbc 5064 013c 6e56 47ba
00000250: e332 6bbb 42d6 d03b d5df 5c3a 62a7 80ba
00000260: f9b0 32bb 318b 183b c5db 9c3b ca06 30bc
00000270: da73 f33b a80d 433a e95f 953b ae23 e23a
00000280: 7b51 f2b9 6b1d b6ba 03ee 2e3c 8df0 00bc
00000290: 7bcb b13b fe5b dfbb a27b c5bb b94c 9cba
000002a0: 3d99 4dbb 75af 2e38 f352 3fbb 3ff6 853a
000002b0: e2ff 893b 1862 35bb cf08 8fbb 9207 a93b
000002c0: 7b50 ee3b 0cf0 b4ba 46eb 2ebc a3c5 0f3c
000002d0: a0aa 81ba 50c6 7c3c 0a01 443a 1c18 af3b
000002e0: 0d91 5b3c 3c4a b5ba d56d 9d39 47df f23b
000002f0: 1b8c 193b 1fca 5ebc e7b8 5abb 8b43 0d3c
00000300: 15fd 7cbb a52e f53b 926d 95bb d4f1 0239
00000310: 8a79 adba 32b6 4a3b f20d 46bb 9bd8 fabb
00000320: b67b e33b 1265 e13b bdb9 83bb a3e8 cdbb
00000330: aeaf 533a afa3 373a 0711 e23b 1af4 1cba
00000340: 0514 92bb 13c4 493b ac7c 093c f0bb 603b
00000350: 2597 6ebb 1feb baba f1e0 1abc 2b0d 02bc
00000360: 6060 8d3a 09be 963b e9f3 10ba 169a 153b
00000370: 00f1 50bb ffb2 16bc 786f b03b 8ee6 a43b
00000380: 7f17 ac3b 9207 ce3b 09d8 1b3c 2284 88b7
00000390: 421e 023c 035f b438 63a2 91bb ae40 c13b
000003a0: 80ab 963a f810 df3b 08bf 04bb 4e7f 4dbb
000003b0: 3042 823b 895d 363c c842 6b39 719f 87bb
000003c0: c1d6 14bb 1ed4 c53b d61f 833b 8f85 593a
000003d0: 6e11 4d3b 4dbf 8bba a390 0e3a 6102 cb3b
000003e0: f17d 673b f190 af3b 88e0 0bbb b3b8 9d3b
000003f0: c270 8ebb 9a44 a13a bf19 a8ba 48ec 84bb

action_model._continuous_distribution.log_sigma f4 [1, 12]
0.00898327 0.0015323687 0.0036094002 0.007835446 0.0053544096 3.665674e-05 0.000213027 0.01963891
0.0028616132 -0.0030900748 0.007274799 0.0024000243
00000000: 912e 133c c3d9 c83a b08b 6c3b 3e60 003c
00000010: 0b74 af3b e0bf 1938 0060 5f39 c8e1 a03c
00000020: e789 3b3b da82 4abb 7061 ee3b ba49 1d3b

action_model._continuous_distribution.mu.weight f4 [12, 256]
-0.023254123 -0.003936309 0.01812289 -0.005745725 0.0035119855 0.011746769 0.02684048 -0.0008056943
0.01491394 0.013007463 0.0023185904 0.00039632682 0.015466794 -0.0045129005 0.025850821 -0.015283394
-0.0024737942 0.004904189 0.020698627 -0.0050183237 0.015127672 -0.006031567 0.007905035 -0.0013077847
-0.026915679 0.012948091 0.006657313 -0.019828081 -0.019918595 -0.001193438 0.011306306 0.0011122073
0.0033248663 0.0050262846 -0.031096872 0.0151781645 0.0023854156 -0.008682243 0.004297419 -0.01906173
0.002238657 0.00012883029 -0.0013342856 -0.0074175894 0.001980863 0.0045393705 0.017903594 -0.004935815
0.0136393355 0.022451172 -0.0014556949 -0.0002646084 -0.0077983034 -0.0029505286 -0.017999636 -0.00849156
0.035861272 0.00095729 -0.006783465 0.02478179 -0.017492114 -0.020590886 0.0036412557 0.003560157
-0.007618155 0.0063218693 0.005184963 0.008353936 -0.022440016 0.00074741297 0.016720695 -0.01686406
0.00087855617 0.005280794 -0.008489134 0.001284616 -0.0045838547 -0.012597577 -0.026899546 -0.00010053931
0.019112905 -0.012341608 -0.020436471 -0.002864831 -0.012756272 0.010430284 0.007696986 0.024387721
0.009827405 0.009485614 0.0077857445 -0.007140763 -0.00032123792 -0.011340901 -0.0028330302 0.024106422
0.007971994 0.032120757 0.0060276277 0.0116610145 -0.00494526 -0.016796334 -0.018798752 -0.028763354
-0.017912244 0.022892999 -0.007269981 0.014614693 0.024297282 0.010547485 0.0005413614 -0.024186429
-0.016276192 -0.0074457373 0.017742304 -0.019281134 0.006787204 0.0037769522 -0.009359777 -0.026526125
0.0020395715 0.009623974 -0.0032905315 -0.01128017 -0.015294188 -0.015291859 0.018606948 -0.0040173964
0.02655281 0.00258232 -0.0057283714 0.005932632 -0.012537062 -0.0126681095 -0.02302874 -0.0021779696
-0.00074781734 -0.020647164 -0.009967255 0.0036745372 -0.0015992023 -0.004711013 -0.022318795 0.014435019
0.019256031 -0.014500988 0.0024616185 -0.0070589893 -0.0025796944 0.01139378 -0.014155806 -0.010561066
-0.006304522 -0.018945511 0.01153874 -0.032577697 -0.007813747 -0.0105184205 0.016871622 0.023407284
-0.010837917 -0.020927407 0.024772592 -0.0043150405 0.011591432 -0.0069010477 -0.019707926 -0.0021902202
-0.012407847 0.0032309296 -0.0031588923 0.0068119946 0.014306487 0.0006242311 -0.013440851 0.009759272
0.009099195 0.018671058 -0.008607296 0.01881597 -0.013235701 0.01766169 0.0049560857 -0.0027346367
0.005955081 0.004737782 0.004200133 0.021212662 0.0019538752 -0.009754828 -0.027070854 0.018646773
0.0065533114 -0.012240065 -0.006123957 0.004094708 0.0015908247 0.017929008 -0.01793059 -0.019386709
0.014000513 -0.0056486786 -0.0021179048 0.0011309712 0.0075718844 -0.0035635787 0.0023030182 -0.009357319
-0.014225549 0.004796374 0.0025638721 -0.006271914 0.011742832 -0.00011413007 -0.01944371 -0.011133507
0.0030936082 0.017350346 -0.009208015 0.007239117 0.0009522074 -0.022379076 0.009883122 0.0070141535
0.0061898376 0.007346857 0.013497335 -0.00076031784 0.044946454 -0.0076552005 -0.028418003 0.004586245
0.0206628 0.014104991 -0.00050023536 0.012332259 0.015744336 0.020115156 0.012854623 -0.0028594206
-0.010197081 0.031956196 0.0126103265 -0.005145948 -0.00051187613 0.009830244 -0.010553828 0.010447948
-0.01058178 0.013235725 -0.004120164 -0.008085368 -0.01613601 -0.008010022 -0.0046823653 0.0013084582
00000000: 6e7f bebc 27fc 80bb 7476 943c a246 bcbb
00000010: 5729 663b 8575 403c 91e0 db3c 3b35 53ba
00000020: 9959 743c 411d 553c 7ef3 173b 16ca cf39
00000030: 7068 7d3c f4e0 93bb 1ac5 d33c 3367 7abc
00000040: 611f 22bb 52b3 a03b 2b90 a93c c070 a4bb
00000050: 0eda 773c 74a4 c5bb 1f84 013c f969 abba
00000060: 457e dcbc 3b24 543c 9725 da3b 806e a2bc
00000070: 522c a3bc 226d 9cba 163e 393c 7cc7 913a
00000080: 00e6 593b 88b3 a43b debe febc d6ad 783c
00000090: a254 1c3b f73f 0ebc 5dd1 8c3b 5827 9cbc
000000a0: 6fb6 123b 9e16 0739 32e3 aeba 400f f3bb
000000b0: 5ed1 013b 00bf 943b 8faa 923c 9ebc a1bb
000000c0: 8577 5f3c 85eb b73c 04cd beba 23bb 8ab9
000000d0: e988 ffbb a85d 41bb f973 93bc 2f20 0bbc
000000e0: 45e3 123d a5f2 7a3a d447 debb 2e03 cb3c
000000f0: 9f4b 8fbc 38ae a8bc 22a2 6e3b 8651 693b
00000100: b7a1 f9bb af27 cf3b 9fe6 a93b f2de 083c
00000110: 20d4 b7bc 09ee 433a d7f9 883c 7f26 8abc
00000120: e84e 663a 830a ad3b 0216 0bbc 8f60 a83a
00000130: 2934 96bb 1166 4ebc 705c dcbc a2d8 d2b8
00000140: ab92 9c3c 7534 4abc 636a a7bc e3bf 3bbb
00000150: afff 50bc c8e3 2a3c 0037 fc3b c2c8 c73c
00000160: 2003 213c 8c69 1b3c 8f1f ff3b 10fd e9bb
00000170: d36b a8b9 30cf 39bc 5caa 39bb d57a c53c
00000180: f79c 023c 0e91 033d 6883 c53b d70d 3f3c
00000190: d90b a2bb 7798 89bc d7ff 99bc 20a1 ebbc
000001a0: b3bc 92bc 198a bb3c 0539 eebb 7772 6f3c
000001b0: 180b c73c 5ccf 2c3c 26ea 0d3a 9e22 c6bc
000001c0: a655 85bc 5ffb f3bb 4f58 913c 78f3 9dbc
000001d0: 3267 de3b be86 773b c059 19bc 514d d9bc
000001e0: 55aa 053b dfad 1d3c f5a5 57bb 76d0 38bc
000001f0: 7994 7abc b58a 7abc 996d 983c 5da4 83bb
00000200: 4785 d93c 243c 293b 10b5 bbbb 8666 c23b
00000210: 4068 4dbc e78d 4fbc c5a6 bcbc 44bc 0ebb
00000220: 2c09 44ba 3e24 a9bc b34d 23bc 81d0 703b
00000230: 539c d1ba d75e 9abb e8d5 b6bc dc80 6c3c
00000240: d3be 9d3c 8d95 6dbc 1b53 213b 184f e7bb
00000250: 1710 29bb faac 3a3c c1ed 67bc 5208 2dbc
00000260: 2a96 cebb 9e33 9bbc fc0c 3d3c 3170 05bd
00000270: 3b05 00bc 7455 2cbc 5b36 8a3c a2c0 bf3c
00000280: 8591 31bc f46f abbc e4ef ca3c 2f65 8dbb
00000290: fde9 3d3c 2f22 e2bb 8472 a1bc cc89 0fbb
000002a0: 484a 4bbc 01be 533b 6b05 4fbb 2737 df3b
000002b0: c165 6a3c 71a3 233a 0437 5cbc 5be5 1f3c
000002c0: ca14 153c 0cf4 983c 9e05 0dbc f323 9a3c
000002d0: 8eda 58bc 40af 903c a966 a23b 9737 33bb
000002e0: d722 c33b 653f 9b3b 45a1 893b 2dc6 ad3c
000002f0: 960c 003b b7d2 1fbc b2c3 ddbc 1ec1 983c
00000300: 29bd d63b 8e8a 48bc 7aab c8bb e62c 863b
00000310: 3883 d03a dbdf 923c 2ce3 92bc e0d0 9ebc
00000320: 6862 653c 8d18 b9bb 8ccc 0abb 193d 943a
00000330: 921d f83b ee8a 69bb 3cee 163b 714f 19bc
00000340: 4712 69bc e72a 9d3b a306 283b a184 cdbb
00000350: 0265 403c 1d59 efb8 6a48 9fbc 5069 36bc
00000360: 22be 4a3b 5022 8e3c 37dd 16bc 1d36 ed3b
00000370: 8f9d 793a 5354 b7bc d1ec 213c fcd6 e53b
00000380: 1fd4 ca3b e7bd f03b ed23 5d3c 1150 47ba
00000390: c619 383d 7ad8 fabb dfcc e8bc 3648 963b
000003a0: 0845 a93c 9f18 673c 3a22 03ba 3e0d 4a3c
000003b0: 44fa 803c 8ac8 a43c 329c 523c 1e65 3bbb
000003c0: a811 27bc 80e4 023d 8b9b 4e3c 579f a8bb
000003d0: 6d2f 06ba 080f 213c f7e9 2cbc df2d 2b3c
000003e0: 345f 2dbc a8da 583c 7102 87bb 7e78 04bc
000003f0: aa2f 84bc 783c 03bc 876e 99bb 9280 ab3a

action_model._continuous_distribution.mu.bias f4 [12]
0.01203293 0.00490603 0.00015376032 -0.00021928875 -0.0037836474 -0.0062429374 0.0075813313 -0.0013986321
0.004535737 -0.005497524 0.0024455814 0.0016191726
00000000: c425 453c c3c2 a03b b93a 2139 e0f0 65b9
00000010: 12f7 77bb 8e91 ccbb d16c f83b 4e52 b7ba
00000020: 85a0 943b 9324 b4bb 0c46 203b 6b3a d43a

onnx::Div_51 f4 [74]
0.65710974 0.59177846 0.6131394 0.7664837 0.6152881 0.77259374 0.08038217 0.5668932
0.15152451 0.45150748 0.04810357 0.010977315 0.048148736 0.0070293383 0.022520922 0.08760818
0.98580337 0.08620886 0.08349386 0.04612972 0.027285628 0.018889159 0.029057706 0.05437644
0.9689243 0.11123247 0.050290786 0.008503747 0.052265257 0.0072614155 0.022283671 0.085751824
0.9937602 0.091554984 0.08213518 0.04983244 0.0257475 0.01646792 0.030450413 0.053307626
0.9743359 0.10989689 0.047940873 0.005795639 0.05000016 0.0074292775 0.022803454 0.08510367
0.993295 0.08967086 0.05960952 0.04626521 0.025861116 0.013064658 0.032782048 0.038940627
0.91800237 0.11099982 0.048115052 0.02375512 0.04642848 0.007549753 0.022938821 0.08842848
0.95922244 0.08684264 0.062296618 0.04449216 0.025478039 0.013286549 0.033478286 0.040591512
0.8631763 0.109213494
00000000: 5838 283f cb7e 173f b4f6 1c3f 4738 443f
00000010: 8583 1d3f b4c8 453f 689f a43d ea1f 113f
00000020: 3e29 1b3e fd2b e73e 4008 453d 32da 333c
00000030: 9c37 453d 5d56 e63b cc7d b83c eb6b b33d
00000040: 9c5d 7c3f 458e b03d d4fe aa3d 84f2 3c3d
00000050: 1c86 df3c 70bd 9a3c 6d0a ee3c d4b9 5e3d
00000060: 6c0b 783f d9cd e33d b6fd 4d3d 4d53 0b3c
00000070: 1814 563d 2bf1 ed3b 3f8c b63c a79e af3d
00000080: 1267 7e3f 2e81 bb3d 7d36 a83d 1a1d 4c3d
00000090: 6cec d23c bbe7 863c 2573 f93c 1959 5a3d
000000a0: 146e 793f 9f11 e13d a65d 443d 58e9 bd3b
000000b0: f8cc 4c3d 4c71 f33b 4fce ba3c d54a ae3d
000000c0: 9548 7e3f 5ba5 b73d 1d29 743d 9780 3d3d
000000d0: b1da d33c 260d 563c 7846 063d 3580 1f3d
000000e0: 3402 6b3f e053 e33d 4a14 453d 199a c23c
000000f0: ca2b 3e3d eb63 f73b 32ea bb3c fe19 b53d
00000100: 9a8f 753f 8eda b13d bd2a 7f3d 693d 363d
00000110: 52b7 d03c d3af 593c 8720 093d 4943 263d
00000120: 1ff9 5c3f 53ab df3d
