results/packaging_fix_test_(n)/RobotAgent/RobotAgent-0.onnx (onnx, 357277 bytes, 8 tensors)

network_body.observation_encoder.processors.0.normalizer.running_mean f4 [74]
000000 00 00 00 00 00 00 00 00 00 00 00 00 00 00 00 00
       0.0 0.0 0.0 0.0
000010 00 00 00 00 00 00 00 00 00 00 00 00 00 00 00 00
       0.0 0.0 0.0 0.0
000020 00 00 00 00 00 00 00 00 00 00 00 00 00 00 00 00
       0.0 0.0 0.0 0.0
000030 00 00 00 00 00 00 00 00 00 00 00 00 00 00 00 00
       0.0 0.0 0.0 0.0
000040 00 00 00 00 00 00 00 00 00 00 00 00 00 00 00 00
       0.0 0.0 0.0 0.0
000050 00 00 00 00 00 00 00 00 00 00 00 00 00 00 00 00
       0.0 0.0 0.0 0.0
000060 00 00 00 00 00 00 00 00 00 00 00 00 00 00 00 00
       0.0 0.0 0.0 0.0
000070 00 00 00 00 00 00 00 00 00 00 00 00 00 00 00 00
       0.0 0.0 0.0 0.0
000080 00 00 00 00 00 00 00 00 00 00 00 00 00 00 00 00
       0.0 0.0 0.0 0.0
000090 00 00 00 00 00 00 00 00 00 00 00 00 00 00 00 00
       0.0 0.0 0.0 0.0
0000a0 00 00 00 00 00 00 00 00 00 00 00 00 00 00 00 00
       0.0 0.0 0.0 0.0
0000b0 00 00 00 00 00 00 00 00 00 00 00 00 00 00 00 00
       0.0 0.0 0.0 0.0
0000c0 00 00 00 00 00 00 00 00 00 00 00 00 00 00 00 00
       0.0 0.0 0.0 0.0
0000d0 00 00 00 00 00 00 00 00 00 00 00 00 00 00 00 00
       0.0 0.0 0.0 0.0
0000e0 00 00 00 00 00 00 00 00 00 00 00 00 00 00 00 00
       0.0 0.0 0.0 0.0
0000f0 00 00 00 00 00 00 00 00 00 00 00 00 00 00 00 00
       0.0 0.0 0.0 0.0
000100 00 00 00 00 00 00 00 00 00 00 00 00 00 00 00 00
       0.0 0.0 0.0 0.0
000110 00 00 00 00 00 00 00 00 00 00 00 00 00 00 00 00
       0.0 0.0 0.0 0.0
000120 00 00 00 00 00 00 00 00
       0.0 0.0

network_body._body_endoder.seq_layers.0.weight f4 [256, 74]
000000 fc 43 ba bd ca f2 26 3c 2e d2 29 bd 1d d0 41 3d
       -0.09094998 0.010189721 -0.04146021 0.047317613
000010 cd f0 f2 bc 8f 43 7c 3d 68 f9 94 3d 55 21 55 be
       -0.029655838 0.061587866 0.07274133 -0.20813496
000020 02 cd f6 3c 8d 95 98 bc 7a 1d 0c be df 7c 28 be
       0.030127052 -0.018625999 -0.1368312 -0.16453885
000030 4d a7 35 bd 95 83 8d bd 29 f8 c9 3d c3 3a 64 3d
       -0.044349004 -0.06909863 0.09861786 0.055720102
000040 59 f5 38 3d 47 2e 74 bb 88 56 53 bc e7 97 2c 3e
       0.045155857 -0.0037259029 -0.012899049 0.16854821
000050 58 61 11 3e 9f 58 01 3e d3 25 fa 3c 65 78 5e 3d
       0.1419729 0.12631463 0.030535614 0.054314036
000060 34 91 ba 3d 13 89 81 3e d0 0b 54 3e 34 10 40 be
       0.091097265 0.25299892 0.20707631 -0.18756181
000070 88 f0 01 3d 60 4d 3d 3c 6c 5d 4e bd ad 2e 83 bd
       0.03172353 0.011554092 -0.050382063 -0.06405387
000080 dd bf 88 be 2c 69 98 3e 48 3e 93 3c 50 3d 0b 3e
       -0.2670888 0.2976774 0.017974034 0.13597608
000090 24 a3 03 bc 03 28 1e be d5 52 67 3c fa 4d de 3d
       -0.008034501 -0.15444951 0.01411887 0.108547166
0000a0 0a 1f 0b 3e 49 de 1e 3e 3e da 79 3d 9d 58 c2 bd
       0.13586059 0.15514483 0.060999148 -0.09489558
0000b0 c4 ab 11 be e7 62 37 3d 6c 75 d5 3d 67 4d fd bb
       -0.1422568 0.044772055 0.10422787 -0.0077301743
0000c0 bb 15 6d ba 44 9f be 3c 7d df ba 3d fe 8c 83 be
       -0.00090440706 0.023269303 0.09124658 -0.25693506
0000d0 d1 f7 82 bc e0 c9 a8 bd 94 30 3b 3e 3a 77 54 bd
       -0.015987309 -0.082416296 0.1828025 -0.051871516
0000e0 c0 1b 0c 3e 4f a9 0a 3d de 4a a8 bd a2 28 fe 3d
       0.13682461 0.03385287 -0.08217405 0.12410094
0000f0 f2 a5 09 3e f5 21 0b 3e c5 ad 0a bd 67 50 ba bb
       0.1344221 0.13587172 -0.033857126 -0.0056858542
000100 d1 58 54 3e b1 ee a4 3c 57 79 4d bd e1 96 d1 3d
       0.20737006 0.020133348 -0.050164547 0.10233856
000110 18 96 de bd 75 e9 4f be 79 64 21 bd 49 45 59 3e
       -0.10868472 -0.203039 -0.03940246 0.21217836
000120 68 cb 41 be 5d 32 2b 3d 2d 2f 89 bd 84 29 4c bd
       -0.1892525 0.041796077 -0.06698451 -0.04984428
000130 33 1b bc 3d e3 39 a5 3d a0 68 b2 bd 3d 3a 62 3e
       0.09184875 0.08067682 -0.08711362 0.22092529
000140 60 7a 81 be c7 9c 9e bc 17 52 a8 3d 70 e2 d8 bd
       -0.25288677 -0.019361867 0.082187824 -0.105900645
000150 c4 d0 74 3d 1c 16 83 be e9 a4 3d 3e 14 dc e7 bd
       0.059769407 -0.25602806 0.1851994 -0.113212734
000160 cc a3 51 bd 3e 39 76 3e 8e de dd bd 69 63 03 3e
       -0.0511816 0.24045274 -0.108334646 0.1283089
000170 b0 e2 9b 3d 95 5a 23 bd 99 00 a9 bc e2 ec 1c 3d
       0.076115966 -0.039881308 -0.020630168 0.038311847
000180 d1 df f7 3d 37 73 01 be e1 4b fa bb a9 0f cd bb
       0.121032365 -0.12641607 -0.00763844 -0.0062579704
000190 af 67 1d 3d 0c ee 14 3d 67 9a bc 3c 68 ae 49 3e
       0.03842896 0.03635983 0.023022844 0.19695437
0001a0 7e 43 d8 3d a8 53 d2 bc de 28 84 bc 5d 9a 3a be
       0.10559748 -0.025674656 -0.016132768 -0.18222947
0001b0 ee e3 80 3d 49 bb 8d 3e 53 37 91 3d 1d 59 eb bd
       0.06293474 0.2768195 0.070906304 -0.114916064
0001c0 93 19 a3 bd 04 20 ab 3d 74 78 eb 3d ce 6c 26 3d
       -0.07963862 0.08355716 0.11497584 0.040631108
0001d0 2e 1f 97 bd 7d ff 30 be fb f6 15 be 78 50 75 bd
       -0.07378994 -0.17284961 -0.14644997 -0.059891194
0001e0 03 cc b1 bd 65 ca 90 bd bd 36 6b bd c8 27 30 3e
       -0.0868149 -0.07069854 -0.05742525 0.17202675
0001f0 5b d4 db bc af c8 27 bd d4 3f 91 3d 9e 37 1f 3e
       -0.026834657 -0.04096287 0.070922524 0.1554856
000200 d4 ba 94 bd 9c 0e 97 bc b7 3a 9d 3d 48 c9 96 bd
       -0.07262197 -0.018439583 0.076772146 -0.0736261
000210 bc b8 79 be ea 38 ee bd dd 5a 88 be 8b 55 53 3e
       -0.24386877 -0.11631949 -0.26631823 0.20638101
000220 62 ea 64 3d 4d a7 9c bd 49 cf 99 3c 3b e1 1d bd
       0.055887587 -0.076490976 0.0187756 -0.038544875
000230 c3 a5 86 3c 7d 24 16 bd f1 e8 33 3e bf 48 15 3e
       0.016436463 -0.03665589 0.17569329 0.14578532
000240 b9 5b ac bd 71 67 3a bd 70 b3 4c 3c fa 85 d7 3d
       -0.08415932 -0.045508806 0.012493953 0.10523601
000250 58 3f 45 be 50 dc 4a bd 13 62 89 3d 69 fa 90 be
       -0.19262445 -0.049526513 0.06708159 -0.28316048
000260 aa 36 97 3c 54 b2 18 be 0d 02 9f 3c 1b 69 50 3e
       0.018458683 -0.14911777 0.019410158 0.20352595
000270 45 45 aa be 81 30 b2 3b 77 09 9f 3e e6 68 8e 3d
       -0.33255973 0.005437911 0.3106191 0.069536015
000280 65 ac 3e 3c 34 87 f8 3c d9 70 af bc 65 ff bc bb
       0.011637782 0.030337907 -0.021416115 -0.00576775
000290 c2 c3 08 3d 2e 6f dd 3d ed a6 24 be 36 ca c5 bd
       0.033389814 0.108122215 -0.16079302 -0.09657709
0002a0 08 e0 0a 3e 81 2e c3 bd 2b e5 2c bd 39 f3 d2 bd
       0.13562024 -0.09530354 -0.04221074 -0.10300297
0002b0 5a 53 a5 3d 1b b4 98 be de fa 34 3d 5a 10 8a 3d
       0.08072539 -0.2982491 0.044184558 0.067414
0002c0 6e d6 09 3e e8 8c 17 be 36 9d e3 3d cc a0 61 3d
       0.13460705 -0.14799845 0.1111397 0.05508499
0002d0 77 44 6d be ed 28 c2 bd 2b d6 03 3e c5 5f 5d bd
       -0.23170649 -0.09480462 0.12874667 -0.05404641
0002e0 26 3e 19 be 04 9b 1d bc cd b1 cc 3d 25 39 f9 3d
       -0.14965114 -0.009619478 0.0999485 0.121691026
0002f0 1a b3 98 bd da ea 89 bd a9 54 44 bd 67 82 c5 bd
       -0.07456036 -0.067342475 -0.0479323 -0.09644013
000300 8f ae 7d bd 97 a2 01 3a 10 93 39 be d7 db 55 3d
       -0.06193405 0.0004945187 -0.18122506 0.05221161
000310 2d b8 78 3e d5 4c 00 bd fb 36 b5 bd fe 0e 98 bd
       0.24289007 -0.031323273 -0.08848377 -0.074247345
000320 a6 8d 57 be 68 9f 15 3e 0e 3d b8 bd 7f 94 ac 3b
       -0.21050128 0.1461159 -0.0899602 0.0052667256
000330 64 52 02 bc 0f 0e a7 3d 9c e0 fb 3d 05 17 84 bb
       -0.007954214 0.08156978 0.122987 -0.0040310645
000340 0b 93 3b 3d 6d 6c a5 3d 14 70 97 3d 6c 5d 9c 3c
       0.045794528 0.08077321 0.07394424 0.019087516
000350 d5 b5 e3 3c 64 d2 ee bd 9f 9e b2 bb 54 e9 af 3c
       0.027796665 -0.116612226 -0.005451038 0.021473564
000360 4f 5e 28 be 3b 90 16 be 63 44 4d 3d 78 cc 2e 3d
       -0.16442226 -0.14703457 0.050114047 0.042675465
000370 91 88 86 bd c5 05 56 be 43 f2 69 3d c1 ca bb 3d
       -0.06569017 -0.20900638 0.057115804 0.091695316
000380 f5 a7 22 bd 3b e4 85 bb da dc 77 bd 9b df e3 3d
       -0.039710958 -0.004086045 -0.060513355 0.11126634
000390 97 a5 0a bd f3 93 23 be d6 ab 2e 3e 35 ec b4 bc
       -0.033849325 -0.15974407 0.17057738 -0.022085289
0003a0 09 37 53 bd 06 78 6c bd 9d a3 44 be 60 b8 92 3d
       -0.051566157 -0.05773165 -0.19203039 0.07164073
0003b0 38 26 ea bd a4 db 9d 3d f2 ac ca 3c 5c 86 09 be
       -0.11433071 0.07707909 0.02474067 -0.1343016
0003c0 50 05 64 3d 44 80 f0 bd 1a 31 bb 3c fe e8 1c 3d
       0.05566913 -0.11743215 0.022850562 0.038308136
0003d0 e9 79 63 3d d3 7c 4b be 18 5f 62 bd 86 86 15 be
       0.055536184 -0.19871835 -0.05526647 -0.14602098
0003e0 6c 57 ff 3d 11 22 c1 bd 45 4d c6 3d fb b6 2c 3e
       0.12467846 -0.09430326 0.09682707 0.16866677
0003f0 6d a4 32 bd 8d a7 f1 3c d6 2a b5 3d 57 63 07 be
       -0.04361384 0.02949884 0.08846061 -0.13221489

network_body._body_endoder.seq_layers.0.bias f4 [256]
000000 00 00 00 00 00 00 00 00 00 00 00 00 00 00 00 00
       0.0 0.0 0.0 0.0
000010 00 00 00 00 00 00 00 00 00 00 00 00 00 00 00 00
       0.0 0.0 0.0 0.0
000020 00 00 00 00 00 00 00 00 00 00 00 00 00 00 00 00
       0.0 0.0 0.0 0.0
000030 00 00 00 00 00 00 00 00 00 00 00 00 00 00 00 00
       0.0 0.0 0.0 0.0
000040 00 00 00 00 00 00 00 00 00 00 00 00 00 00 00 00
       0.0 0.0 0.0 0.0
000050 00 00 00 00 00 00 00 00 00 00 00 00 00 00 00 00
       0.0 0.0 0.0 0.0
000060 00 00 00 00 00 00 00 00 00 00 00 00 00 00 00 00
       0.0 0.0 0.0 0.0
000070 00 00 00 00 00 00 00 00 00 00 00 00 00 00 00 00
       0.0 0.0 0.0 0.0
000080 00 00 00 00 00 00 00 00 00 00 00 00 00 00 00 00
       0.0 0.0 0.0 0.0
000090 00 00 00 00 00 00 00 00 00 00 00 00 00 00 00 00
       0.0 0.0 0.0 0.0
0000a0 00 00 00 00 00 00 00 00 00 00 00 00 00 00 00 00
       0.0 0.0 0.0 0.0
0000b0 00 00 00 00 00 00 00 00 00 00 00 00 00 00 00 00
       0.0 0.0 0.0 0.0
0000c0 00 00 00 00 00 00 00 00 00 00 00 00 00 00 00 00
       0.0 0.0 0.0 0.0
0000d0 00 00 00 00 00 00 00 00 00 00 00 00 00 00 00 00
       0.0 0.0 0.0 0.0
0000e0 00 00 00 00 00 00 00 00 00 00 00 00 00 00 00 00
       0.0 0.0 0.0 0.0
0000f0 00 00 00 00 00 00 00 00 00 00 00 00 00 00 00 00
       0.0 0.0 0.0 0.0
000100 00 00 00 00 00 00 00 00 00 00 00 00 00 00 00 00
       0.0 0.0 0.0 0.0
000110 00 00 00 00 00 00 00 00 00 00 00 00 00 00 00 00
       0.0 0.0 0.0 0.0
000120 00 00 00 00 00 00 00 00 00 00 00 00 00 00 00 00
       0.0 0.0 0.0 0.0
000130 00 00 00 00 00 00 00 00 00 00 00 00 00 00 00 00
       0.0 0.0 0.0 0.0
000140 00 00 00 00 00 00 00 00 00 00 00 00 00 00 00 00
       0.0 0.0 0.0 0.0
000150 00 00 00 00 00 00 00 00 00 00 00 00 00 00 00 00
       0.0 0.0 0.0 0.0
000160 00 00 00 00 00 00 00 00 00 00 00 00 00 00 00 00
       0.0 0.0 0.0 0.0
000170 00 00 00 00 00 00 00 00 00 00 00 00 00 00 00 00
       0.0 0.0 0.0 0.0
000180 00 00 00 00 00 00 00 00 00 00 00 00 00 00 00 00
       0.0 0.0 0.0 0.0
000190 00 00 00 00 00 00 00 00 00 00 00 00 00 00 00 00
       0.0 0.0 0.0 0.0
0001a0 00 00 00 00 00 00 00 00 00 00 00 00 00 00 00 00
       0.0 0.0 0.0 0.0
0001b0 00 00 00 00 00 00 00 00 00 00 00 00 00 00 00 00
       0.0 0.0 0.0 0.0
0001c0 00 00 00 00 00 00 00 00 00 00 00 00 00 00 00 00
       0.0 0.0 0.0 0.0
0001d0 00 00 00 00 00 00 00 00 00 00 00 00 00 00 00 00
       0.0 0.0 0.0 0.0
0001e0 00 00 00 00 00 00 00 00 00 00 00 00 00 00 00 00
       0.0 0.0 0.0 0.0
0001f0 00 00 00 00 00 00 00 00 00 00 00 00 00 00 00 00
       0.0 0.0 0.0 0.0
000200 00 00 00 00 00 00 00 00 00 00 00 00 00 00 00 00
       0.0 0.0 0.0 0.0
000210 00 00 00 00 00 00 00 00 00 00 00 00 00 00 00 00
       0.0 0.0 0.0 0.0
000220 00 00 00 00 00 00 00 00 00 00 00 00 00 00 00 00
       0.0 0.0 0.0 0.0
000230 00 00 00 00 00 00 00 00 00 00 00 00 00 00 00 00
       0.0 0.0 0.0 0.0
000240 00 00 00 00 00 00 00 00 00 00 00 00 00 00 00 00
       0.0 0.0 0.0 0.0
000250 00 00 00 00 00 00 00 00 00 00 00 00 00 00 00 00
       0.0 0.0 0.0 0.0
000260 00 00 00 00 00 00 00 00 00 00 00 00 00 00 00 00
       0.0 0.0 0.0 0.0
000270 00 00 00 00 00 00 00 00 00 00 00 00 00 00 00 00
       0.0 0.0 0.0 0.0
000280 00 00 00 00 00 00 00 00 00 00 00 00 00 00 00 00
       0.0 0.0 0.0 0.0
000290 00 00 00 00 00 00 00 00 00 00 00 00 00 00 00 00
       0.0 0.0 0.0 0.0
0002a0 00 00 00 00 00 00 00 00 00 00 00 00 00 00 00 00
       0.0 0.0 0.0 0.0
0002b0 00 00 00 00 00 00 00 00 00 00 00 00 00 00 00 00
       0.0 0.0 0.0 0.0
0002c0 00 00 00 00 00 00 00 00 00 00 00 00 00 00 00 00
       0.0 0.0 0.0 0.0
0002d0 00 00 00 00 00 00 00 00 00 00 00 00 00 00 00 00
       0.0 0.0 0.0 0.0
0002e0 00 00 00 00 00 00 00 00 00 00 00 00 00 00 00 00
       0.0 0.0 0.0 0.0
0002f0 00 00 00 00 00 00 00 00 00 00 00 00 00 00 00 00
       0.0 0.0 0.0 0.0
000300 00 00 00 00 00 00 00 00 00 00 00 00 00 00 00 00
       0.0 0.0 0.0 0.0
000310 00 00 00 00 00 00 00 00 00 00 00 00 00 00 00 00
       0.0 0.0 0.0 0.0
000320 00 00 00 00 00 00 00 00 00 00 00 00 00 00 00 00
       0.0 0.0 0.0 0.0
000330 00 00 00 00 00 00 00 00 00 00 00 00 00 00 00 00
       0.0 0.0 0.0 0.0
000340 00 00 00 00 00 00 00 00 00 00 00 00 00 00 00 00
       0.0 0.0 0.0 0.0
000350 00 00 00 00 00 00 00 00 00 00 00 00 00 00 00 00
       0.0 0.0 0.0 0.0
000360 00 00 00 00 00 00 00 00 00 00 00 00 00 00 00 00
       0.0 0.0 0.0 0.0
000370 00 00 00 00 00 00 00 00 00 00 00 00 00 00 00 00
       0.0 0.0 0.0 0.0
000380 00 00 00 00 00 00 00 00 00 00 00 00 00 00 00 00
       0.0 0.0 0.0 0.0
000390 00 00 00 00 00 00 00 00 00 00 00 00 00 00 00 00
       0.0 0.0 0.0 0.0
0003a0 00 00 00 00 00 00 00 00 00 00 00 00 00 00 00 00
       0.0 0.0 0.0 0.0
0003b0 00 00 00 00 00 00 00 00 00 00 00 00 00 00 00 00
       0.0 0.0 0.0 0.0
0003c0 00 00 00 00 00 00 00 00 00 00 00 00 00 00 00 00
       0.0 0.0 0.0 0.0
0003d0 00 00 00 00 00 00 00 00 00 00 00 00 00 00 00 00
       0.0 0.0 0.0 0.0
0003e0 00 00 00 00 00 00 00 00 00 00 00 00 00 00 00 00
       0.0 0.0 0.0 0.0
0003f0 00 00 00 00 00 00 00 00 00 00 00 00 00 00 00 00
       0.0 0.0 0.0 0.0

network_body._body_endoder.seq_layers.2.weight f4 [256, 256]
000000 d4 67 55 bd 22 58 55 bc 5b f5 d2 bc 04 a7 f1 3c
       -0.05210097 -0.013021501 -0.02575176 0.029498585
000010 dc 1a 51 bd 51 7b d2 bd 7b df 13 3d bd 69 38 3b
       -0.051051006 -0.10277427 0.0361018 0.0028139197
000020 e1 54 9f bc e8 86 3d bd 60 d0 f9 bd 30 ca 21 bd
       -0.019449653 -0.046271235 -0.121979475 -0.03949946
000030 69 63 37 3e da 35 00 3d b5 9d d3 3d 7f 80 cc bc
       0.17909016 0.031301357 0.103328146 -0.024963615
000040 97 ac 68 bd 37 c2 a9 3c cd aa 2e 3e 57 fa 2b 3d
       -0.05680522 0.020722492 0.17057343 0.04198679
000050 1c 57 ae 3d 8f 8a 41 bd 4a 2d a4 bc ea 7c 35 3d
       0.085127085 -0.04725128 -0.020041127 0.04430858
000060 d8 b4 b5 3d 1c 17 19 bb 8b 64 91 3c c3 8a 17 be
       0.08872384 -0.0023359722 0.017748138 -0.14799027
000070 b8 87 d8 3d eb ab 2c 3a 15 9e 3e 3d e0 43 10 3c
       0.10572761 0.0006586897 0.046537478 0.008805245
000080 5f 4f 69 3d dd 53 a6 3d 2e ff c4 bd 5a 7b 1e bd
       0.05696046 0.081214644 -0.09618984 -0.038691856
000090 a4 55 55 bd 75 fa 68 3d cc 0c 03 bd e1 17 2d bd
       -0.052083626 0.05687948 -0.031994626 -0.0422591
0000a0 10 a4 66 3d d4 c8 b8 bd bb 82 74 3d c0 df 3c bc
       0.056308806 -0.0902268 0.059694987 -0.0115279555
0000b0 9b 0a 94 3c d7 bd 0b be 3a 11 9a bd 82 4d 25 bd
       0.018071463 -0.13646637 -0.07522817 -0.04035712
0000c0 28 56 d3 3c 4a 0f 39 bc e7 31 db bc e2 c1 df 3c
       0.025797918 -0.011295149 -0.026757194 0.02731413
0000d0 3c 24 69 3d 83 4a 05 be 1c 46 0a bd 74 fa c3 3d
       0.05691932 -0.13016705 -0.033758268 0.095692545
0000e0 74 38 9d bc a6 51 60 3c c9 8a 1e bd 20 05 87 3d
       -0.019191958 0.0136913415 -0.038706575 0.065927744
0000f0 97 c2 c3 3d fc 06 f5 3c 83 3f 58 3d 37 6f bd 3c
       0.095585994 0.029910557 0.052794944 0.02312432
000100 dc 14 66 3d 87 14 48 3d 67 05 c2 3d ab 9d 41 3e
       0.056172237 0.0488477 0.09473687 0.18907802
000110 77 6f 4c bc 8a f9 37 3c 03 f5 d4 bb 01 ff 82 bc
       -0.012477747 0.011228928 -0.0064989342 -0.015990736
000120 6b ce 0a 3e bf 87 e3 3c 5c 48 4c 3d 73 6f 2d 3e
       0.13555305 0.02777469 0.049873695 0.16937046
000130 e2 da b5 bc 80 fe bb bd e1 6c ff bd 31 04 60 bd
       -0.022199098 -0.091794014 -0.12471939 -0.054691497
000140 67 eb f7 3d b6 b2 2b bd ba 3a dd 3d 9b 57 d0 bc
       0.12105446 -0.04191848 0.10802217 -0.025432399
000150 71 97 22 3d 9f 22 56 3c d5 8a 19 3d 02 bc 04 3e
       0.039695207 0.013069778 0.037485916 0.12962344
000160 1b db 89 bd 7d 17 61 bb 25 de 1e 3d e0 8f d9 3c
       -0.06731244 -0.0034346275 0.038786072 0.026557863
000170 7a aa be bd 37 f3 4a bd f3 82 8f bc 66 a9 90 3d
       -0.093098596 -0.049548354 -0.017518496 0.0706356
000180 d9 9b 39 3d 5b b3 34 bd dc ea a7 bc 8a 95 ba ba
       0.045314644 -0.04411636 -0.020497732 -0.001423524
000190 d3 56 9a bd 31 b7 1a 3d 19 7b ef bc e2 8a 13 bd
       -0.07536092 0.03777236 -0.029233502 -0.03602112
0001a0 e9 99 a6 bd ae 60 7e bd ca 13 39 bc d5 3a 31 3d
       -0.08134825 -0.06210392 -0.011296222 0.043268997
0001b0 8e e4 c9 3c 41 7c 31 3d 85 6f 1b 3d 22 3a 23 3d
       0.024645116 0.04333139 0.03794815 0.03985036
0001c0 59 9b 3a bd ae 76 b2 bd e2 0e cc bc 38 a8 93 3d
       -0.045558307 -0.087140426 -0.02490944 0.072098196
0001d0 8e 4d 77 3c 44 c2 99 bb 73 cb 59 bd 6e e6 ca 3c
       0.015094174 -0.0046923477 -0.05317254 0.02476808
0001e0 ea fc 02 bc ac 88 dc 3b 4c 25 89 3d ca 0b a1 3d
       -0.00799487 0.0067301597 0.06696567 0.07863577
0001f0 f6 80 c3 bc 3d d9 ba bd c5 de ab 3c 26 f3 14 bd
       -0.023865204 -0.09123466 0.020980248 -0.036364697
000200 6c 80 52 3d 2a d9 bb bb 89 17 8a bc 37 00 4e 3c
       0.051392004 -0.005732675 -0.016856926 0.012573293
000210 54 e3 6a bd d1 94 4c bd 98 78 bb bd a3 9b 75 3d
       -0.057345703 -0.04994661 -0.09153861 0.05996288
000220 20 4d 60 bc a5 58 1a 3d d9 d7 13 be 89 49 c4 3c
       -0.013690263 0.037682194 -0.14437808 0.023960846
000230 c0 8f 1d bd 41 47 63 bc 3c fc 6b 3d 4c 1b c5 3d
       -0.03846717 -0.013871969 0.057613596 0.09624347
000240 c6 87 d7 3c d4 51 41 3d a3 9c 6a 3c 36 60 f7 3b
       0.026309859 0.047197178 0.014319572 0.007549311
000250 f7 1d f3 bc 04 84 48 bd 2b 3d d8 3c 89 89 b1 3b
       -0.029677374 -0.048954025 0.026396355 0.005418007
000260 86 a2 07 bd 20 9c ab 3c 38 1a bf 3d 41 64 a2 bc
       -0.03311398 0.02094847 0.09331173 -0.019823195
000270 ea 24 6b bd 77 66 0c 3d 22 2d 21 bd 1a 4f 3b bd
       -0.05740825 0.034277406 -0.039349683 -0.045729734
000280 ae 75 1c 3d 09 41 d5 3c 79 ff be bc f9 83 9f bd
       0.038198166 0.026031988 -0.023315178 -0.07788844
000290 ec 62 88 bc 52 03 92 bd c1 16 80 3c 72 0d f9 bc
       -0.016648732 -0.071295395 0.01563585 -0.030401919
0002a0 e4 19 1a 3c 6b f6 70 bd 42 0a 40 bd 69 47 98 3d
       0.009405587 -0.058828752 -0.046884783 0.074354954
0002b0 f6 80 32 3c e9 78 90 bc 53 00 24 be e9 21 e8 bd
       0.0108950045 -0.01763578 -0.16015749 -0.11334593
0002c0 5f bb cb 3b 55 51 c8 3d 9e 2f b2 3d 7a 6e d4 3c
       0.0062174047 0.09781138 0.087004885 0.025931586
0002d0 c0 63 01 bc 9a 39 83 bd c8 5b db bb 90 9f a1 bc
       -0.007897317 -0.06407471 -0.006694291 -0.019729406
0002e0 aa a0 a0 bc f2 3c 91 3d 6a 15 ec bb 63 18 27 3d
       -0.01960786 0.070917025 -0.007204701 0.04079474
0002f0 02 11 81 3d 32 ef f9 3d 5b 4f a7 bd c3 32 f6 3d
       0.06302072 0.12203826 -0.08169433 0.12021401
000300 54 3d 20 3d 51 23 a6 3d c4 c9 8b bc 37 36 e4 bc
       0.039120987 0.08112205 -0.017063983 -0.027857883
000310 13 d9 b7 3d a5 b4 aa bc f1 30 43 3d 03 97 87 3c
       0.089769505 -0.020838091 0.047654096 0.0165515
000320 98 50 31 bd 6b 33 3b bd 89 60 37 3d ea a1 71 3d
       -0.04328975 -0.045703333 0.044769797 0.058992304
000330 2f 58 88 3d 54 93 61 bd f3 37 fa bc 64 9f 91 bd
       0.06657445 -0.055072144 -0.030544257 -0.071104795
000340 79 07 41 3c 42 1c dc 3c 4e d2 08 be 53 28 bf bd
       0.011781567 0.026868943 -0.13361475 -0.09333863
000350 c1 cd 23 be 99 63 17 bb 0b 77 89 3d 3a 3a 6a 3d
       -0.15996458 -0.0023100136 0.06712159 0.057184435
000360 2a a9 36 3d c6 88 96 bd eb 61 17 bd 95 61 39 3d
       0.04459492 -0.07350306 -0.036958616 0.045259077
000370 f7 6f 03 3e b1 bb 9f 3d 22 1a 98 3b b5 09 16 3e
       0.1283568 0.07799471 0.004641787 0.1465214
000380 fe 65 51 bd 6d 56 02 be c6 32 f0 3c 1a 2f ae bd
       -0.051122658 -0.12728281 0.029321086 -0.08505078
000390 db 42 2d bc e7 08 fe bc da 77 8b bd 77 18 ae 3d
       -0.010575022 -0.031010104 -0.06809969 0.0850076
0003a0 38 e8 90 3d c0 62 d4 3c 8e 3b cf 3d c6 e1 96 bd
       0.07075542 0.025925994 0.10118781 -0.073672816
0003b0 8a 3c 30 bd db 4c ec 3b b1 8a 97 3d 7b 9b f8 bc
       -0.043026485 0.0072113103 0.073995 -0.030347576
0003c0 3a a5 56 3d f8 bd 19 3d 27 fa 0b be 99 cd c3 3d
       0.052403666 0.037534684 -0.13669644 0.09560699
0003d0 14 fd 7b bc 76 34 f7 bc d0 ac f7 3c 79 5d af 3d
       -0.015380163 -0.030176383 0.03023377 0.0856275
0003e0 48 7d 0e 3d 58 a4 98 3c 0f 04 9d bd 77 14 51 be
       0.034787446 0.018633053 -0.0766679 -0.20417963
0003f0 fd 12 90 3c 05 bb 9a bd 2f 71 b2 3d 67 65 54 3d
       0.01758718 -0.075552024 0.08712994 0.051854517

action_model._continuous_distribution.log_sigma f4 [1, 12]
000000 00 00 00 00 00 00 00 00 00 00 00 00 00 00 00 00
       0.0 0.0 0.0 0.0
000010 00 00 00 00 00 00 00 00 00 00 00 00 00 00 00 00
       0.0 0.0 0.0 0.0
000020 00 00 00 00 00 00 00 00 00 00 00 00 00 00 00 00
       0.0 0.0 0.0 0.0

action_model._continuous_distribution.mu.weight f4 [12, 256]
000000 9b 8c 6c bc ef 73 49 3c 72 74 a7 bb 1b ae 88 b8
       -0.01443782 0.012295707 -0.005110317 -6.517415e-05
000010 cf 6c 65 3b cc d8 91 bc 17 e3 3f 3a 7c 5c 17 bc
       0.0035007482 -0.017803572 0.0007319911 -0.009238359
000020 e2 21 9d ba 1d e1 50 bb 18 78 ba bb 12 04 ab bb
       -0.0011988247 -0.003187246 -0.005690586 -0.005218991
000030 80 24 54 3c c7 c8 05 3d b2 62 b8 3b 93 5f a0 3b
       0.012948155 0.03266218 0.005627 0.004894206
000040 93 9a 90 bc 61 73 be bc 8f 26 11 3b b8 1c fa 37
       -0.017651832 -0.023248376 0.0022148227 2.9815696e-05
000050 16 7c 4a bc d3 e1 a1 3a de e4 0d bc 98 40 b4 ba
       -0.012358686 0.0012350626 -0.008660523 -0.0013752161
000060 08 b1 5b bc 67 24 9b bb 8a ea 70 bb 69 46 bf bc
       -0.013408907 -0.004734564 -0.003676089 -0.023349004
000070 29 fd 97 bb e6 80 ba 3b 84 ff ab bc 07 7a 48 bc
       -0.0046383333 0.0056916354 -0.020995863 -0.012236125
000080 aa 6b ab bb c3 66 d9 3c d5 48 32 3b 82 e7 46 3c
       -0.0052313404 0.026538258 0.0027204056 0.012140157
000090 55 34 5a bc 02 b5 4c bc d4 0a 02 3b 96 12 3f bb
       -0.013318141 -0.0124943275 0.001984288 -0.0029155365
0000a0 dd ac c5 3b 1e d6 b0 bc a4 e9 ba bc a4 30 80 3c
       0.00603257 -0.021586474 -0.022816487 0.015648194
0000b0 b3 b8 88 b9 63 a2 85 3c 0f 19 bf ba e3 73 48 3c
       -0.00026077553 0.016312784 -0.0014579612 0.012234661
0000c0 a2 59 ca bc 20 09 e5 bc 9a 1f c1 bc 63 5a d4 bb
       -0.024700943 -0.027958453 -0.02357464 -0.0064805015
0000d0 59 99 a9 bb 39 1a 37 bc 7e 58 ac 3b af 39 db 3b
       -0.005175751 -0.011175686 0.0052595725 0.006690226
0000e0 f0 21 fc 3a 7f e4 76 bc 09 65 01 3d f0 4b 32 3b
       0.0019236188 -0.015069126 0.031590495 0.0027205907
0000f0 e2 9f 00 3c 9b e4 40 bb f3 62 cd 3c b7 66 3c 3c
       0.007850619 -0.0029433134 0.025071597 0.0114990985
000100 e2 71 66 3c 25 73 00 3c 26 ff 04 3c ec b8 38 bb
       0.014065238 0.007839953 0.008117473 -0.0028186394
000110 3f 92 a4 3b fb 86 fb 3b 8f 16 e5 3a df f1 fa 3b
       0.0050223167 0.007676003 0.0017478036 0.007658228
000120 7b f7 28 bc 90 fe 4f bc 03 7c 45 bc 80 0f bc bb
       -0.01031291 -0.01269497 -0.0120534925 -0.0057391524
000130 6a 18 bb 3b c4 bf 92 bb 97 41 a3 bb 55 b7 5c bb
       0.0057096975 -0.0044784267 -0.004982184 -0.003367861
000140 ca 60 7a bc 2a 17 73 3c 03 e3 be bb 8a 80 0c ba
       -0.015281865 0.014837066 -0.0058254017 -0.000535973
000150 4d cf d0 bb f7 f3 0b bc a3 82 0c 3c 32 c8 90 b8
       -0.0063723684 -0.0085420525 0.008576068 -6.903744e-05
000160 bb 85 31 bc d3 d6 af bc 99 15 ae 3c 22 72 50 bc
       -0.0108351065 -0.02146474 0.021250533 -0.012722524
000170 6f 62 99 bb 33 6f 8f 3b d6 32 bd bb 6b 21 09 3c
       -0.0046809237 0.0043772697 -0.0057738824 0.008369784
000180 77 17 82 3c 55 81 7d 3c be 85 82 3c 30 50 cd 3a
       0.01588033 0.01547273 0.015932914 0.0015664157
000190 36 32 b0 bb c9 70 3e 3c eb 3e b3 3b f6 c9 42 bb
       -0.0053770794 0.01162357 0.005470147 -0.002972243
0001a0 95 bb 0c 3c c6 bb 98 bc 03 b7 d9 3c ea 78 5f 3c
       0.008589645 -0.018644225 0.026576525 0.013639668
0001b0 64 7c 04 ba 01 1c 08 3b 4d 38 d4 ba 55 6a 0c bc
       -0.0005053936 0.0020768645 -0.0016191095 -0.008570273
0001c0 8f 75 1c bb 43 1f c8 3a fa ce 5c bc f4 65 20 bc
       -0.0023873781 0.0015268106 -0.013477081 -0.0097899325
0001d0 af f6 1b 3c ab 5a a1 3c 05 b7 73 3b 7b 65 fa 3b
       0.009519263 0.019696554 0.0037187946 0.007641492
0001e0 9f 54 03 bb c1 71 8c 3b 32 a9 13 bc 47 ce 3b bc
       -0.0020039452 0.0042860215 -0.009012507 -0.011462755
0001f0 8b 11 32 3b cf 0d 9d 3c 55 79 86 3b 92 f1 61 3c
       0.00271711 0.019171624 0.0041038194 0.013790505
000200 43 41 46 bc e1 c5 af bb 50 dd 74 b9 77 61 c8 bc
       -0.012100521 -0.005364165 -0.00023352099 -0.024460537
000210 6a 8e 8a 3b d6 1c b7 3b fb e0 38 3c 17 5f 6d bc
       0.004228403 0.0055881543 0.011284108 -0.014488003
000220 16 b4 10 3c a6 6c 1c bb a2 9b b7 bc a0 de 51 bb
       0.008831998 -0.002386847 -0.022413079 -0.0032023564
000230 db cf b0 bb 3d 7f 76 3c 02 6a 43 bc 92 c8 83 bc
       -0.005395872 0.015044984 -0.01192713 -0.01608685
000240 e4 67 a3 bc 4f 5a 80 3c 97 4e 05 bc b0 1e 7b bb
       -0.019947 0.015668062 -0.008136413 -0.0038317852
000250 0b 31 46 bb 0f 67 3b bc 5e 1f a0 bc 6a c8 1e 3a
       -0.0030241634 -0.011438145 -0.019546207 0.00060570857
000260 07 66 7c 3c cb 93 ee 3a 8c df c7 3c f4 aa ad bc
       0.015405185 0.0018202005 0.024398588 -0.02119968
000270 75 15 78 39 20 91 4d bc 1e e8 ac bc 8e 44 bf 3c
       0.00023659116 -0.0125468075 -0.021106776 0.02334812
000280 6b d1 c9 3b 27 4f a8 3c 2d 27 35 bb 77 1b 4c 3b
       0.006158998 0.020545555 -0.0027641759 0.00311443
000290 b4 56 95 bc 78 a9 a2 bc 52 07 93 3b 43 04 a8 bb
       -0.01822982 -0.0198562 0.0044869566 -0.005127461
0002a0 0a 76 07 3c 32 39 75 bc 6f 94 bc bc 6c 6b 31 3c
       0.008267889 -0.01496725 -0.023019997 0.010828834
0002b0 08 0c 24 bc c7 cd c1 3b 88 ea 67 bc 2b f6 8a bb
       -0.010012634 0.005914423 -0.014155038 -0.0042407713
0002c0 db 40 ce bb 57 99 5b 3b 5a 93 4e bc 0a d5 1d 3d
       -0.0062943525 0.0033508146 -0.012608374 0.038533248
0002d0 fd 6b 6c bb 5f f9 d5 bc 2e 23 2e bb 3e 88 95 bc
       -0.0036075108 -0.026119886 -0.0026571262 -0.018253442
0002e0 f8 7c 08 bd 6b 1b ec bb a0 42 50 3c 21 8c 17 bc
       -0.033322304 -0.007205417 0.012711197 -0.009249718
0002f0 a4 d7 8c 3a 87 0f 85 3c f7 a0 68 3c 55 fc fb 3b
       0.0010745418 0.016242756 0.014198533 0.0076899924
000300 cc 3f 95 3c 43 27 4a 3c a9 58 bf bc 2b c6 1d bb
       0.018218897 0.012338462 -0.023357706 -0.0024074416
000310 1a a5 a5 bb 83 a3 56 3c 47 e0 ed 3b c3 b6 64 3c
       -0.005055082 0.013100508 0.007259402 0.013959589
000320 b5 e1 77 39 fb ff e5 bc c8 f8 9c bc bf 0b 3f bc
       0.00023639838 -0.028076163 -0.019161597 -0.011660515
000330 20 47 88 bb 47 db 43 bb 48 ae a4 3c 77 d8 c3 bb
       -0.0041588694 -0.0029885338 0.020102635 -0.0059767324
000340 9b 67 f8 ba 4a b3 99 3c fc bc 26 3c 9b 36 f9 bc
       -0.0018951775 0.01876225 0.010176893 -0.030421546
000350 90 cc 97 bc d7 49 eb 3a 73 3c ab bc a9 a0 18 3b
       -0.01853016 0.0017951083 -0.020902848 0.002328912
000360 2b 5c 98 3b 73 3b 42 ba 0b de b7 bb 7f 17 fa 3a
       0.004649659 -0.00074093713 -0.0056111864 0.0019080489
000370 8a 22 36 3a 50 a9 eb 3b e4 ef 36 3b eb 87 34 3a
       0.0006947896 0.0071918145 0.0027913982 0.00068867084
000380 8b 3a 27 3c 6f f2 f5 3c 00 d2 32 3b 18 b1 b1 bc
       0.010206829 0.030022828 0.0027285814 -0.02169089
000390 50 0b 9d bc e0 4f f0 bb 13 a8 0a 3c 04 31 8d 3c
       -0.019170433 -0.0073337406 0.008462924 0.017235287
0003a0 cd 25 db 3a bf 3c 06 bb 0a 7d ea 3a 4d da 32 bb
       0.001671964 -0.0020482985 0.0017890048 -0.0027290762
0003b0 60 7f 32 bc 85 86 5f bb 8e 54 b8 bb b8 25 69 3c
       -0.010894626 -0.003410728 -0.005625314 0.014230184
0003c0 d7 45 98 bc b3 29 80 ba f2 1f 02 3d db 97 12 3b
       -0.01858799 -0.0009778052 0.031768747 0.0022368345
0003d0 69 e8 1e bc 6f 37 56 bc dc 8f 98 3c 40 99 97 bc
       -0.009698966 -0.01307474 0.018623285 -0.018505692
0003e0 d0 7a fe b9 5b 9f 3b 3c c1 b6 25 3a a7 51 57 3b
       -0.00048538158 0.0114515675 0.0006321483 0.0032855065
0003f0 f8 d2 1a bc 4e 9e 09 bb a2 1f eb bb 13 c4 5f 3c
       -0.009449713 -0.0020998898 -0.007175402 0.013657588

action_model._continuous_distribution.mu.bias f4 [12]
000000 00 00 00 00 00 00 00 00 00 00 00 00 00 00 00 00
       0.0 0.0 0.0 0.0
000010 00 00 00 00 00 00 00 00 00 00 00 00 00 00 00 00
       0.0 0.0 0.0 0.0
000020 00 00 00 00 00 00 00 00 00 00 00 00 00 00 00 00
       0.0 0.0 0.0 0.0

onnx::Div_51 f4 [74]
000000 00 00 80 3f 00 00 80 3f 00 00 80 3f 00 00 80 3f
       1.0 1.0 1.0 1.0
000010 00 00 80 3f 00 00 80 3f 00 00 80 3f 00 00 80 3f
       1.0 1.0 1.0 1.0
000020 00 00 80 3f 00 00 80 3f 00 00 80 3f 00 00 80 3f
       1.0 1.0 1.0 1.0
000030 00 00 80 3f 00 00 80 3f 00 00 80 3f 00 00 80 3f
       1.0 1.0 1.0 1.0
000040 00 00 80 3f 00 00 80 3f 00 00 80 3f 00 00 80 3f
       1.0 1.0 1.0 1.0
000050 00 00 80 3f 00 00 80 3f 00 00 80 3f 00 00 80 3f
       1.0 1.0 1.0 1.0
000060 00 00 80 3f 00 00 80 3f 00 00 80 3f 00 00 80 3f
       1.0 1.0 1.0 1.0
000070 00 00 80 3f 00 00 80 3f 00 00 80 3f 00 00 80 3f
       1.0 1.0 1.0 1.0
000080 00 00 80 3f 00 00 80 3f 00 00 80 3f 00 00 80 3f
       1.0 1.0 1.0 1.0
000090 00 00 80 3f 00 00 80 3f 00 00 80 3f 00 00 80 3f
       1.0 1.0 1.0 1.0
0000a0 00 00 80 3f 00 00 80 3f 00 00 80 3f 00 00 80 3f
       1.0 1.0 1.0 1.0
0000b0 00 00 80 3f 00 00 80 3f 00 00 80 3f 00 00 80 3f
       1.0 1.0 1.0 1.0
0000c0 00 00 80 3f 00 00 80 3f 00 00 80 3f 00 00 80 3f
       1.0 1.0 1.0 1.0
0000d0 00 00 80 3f 00 00 80 3f 00 00 80 3f 00 00 80 3f
       1.0 1.0 1.0 1.0
0000e0 00 00 80 3f 00 00 80 3f 00 00 80 3f 00 00 80 3f
       1.0 1.0 1.0 1.0
0000f0 00 00 80 3f 00 00 80 3f 00 00 80 3f 00 00 80 3f
       1.0 1.0 1.0 1.0
000100 00 00 80 3f 00 00 80 3f 00 00 80 3f 00 00 80 3f
       1.0 1.0 1.0 1.0
000110 00 00 80 3f 00 00 80 3f 00 00 80 3f 00 00 80 3f
       1.0 1.0 1.0 1.0
000120 00 00 80 3f 00 00 80 3f
       1.0 1.0
