results/packaging_fix_test_18/RobotAgent.onnx (onnx, 357277 bytes, 8 tensors)

network_body.observation_encoder.processors.0.normalizer.running_mean f4 [74]
000000 00 00 00 00 00 00 00 00 00 00 00 00 00 00 00 00
       0.0 0.0 0.0 0.0
000010 00 00 00 00 00 00 00 00 00 00 00 00 00 00 00 00
       0.0 0.0 0.0 0.0
000020 00 00 00 00 00 00 00 00 00 00 00 00 00 00 00 00
       0.0 0.0 0.0 0.0
000030 00 00 00 00 00 00 00 00 00 00 00 00 00 00 00 00
       0.0 0.0 0.0 0.0
000040 00 00 00 00 00 00 00 00 00 00 00 00 00 00 00 00
       0.0 0.0 0.0 0.0
000050 00 00 00 00 00 00 00 00 00 00 00 00 00 00 00 00
       0.0 0.0 0.0 0.0
000060 00 00 00 00 00 00 00 00 00 00 00 00 00 00 00 00
       0.0 0.0 0.0 0.0
000070 00 00 00 00 00 00 00 00 00 00 00 00 00 00 00 00
       0.0 0.0 0.0 0.0
000080 00 00 00 00 00 00 00 00 00 00 00 00 00 00 00 00
       0.0 0.0 0.0 0.0
000090 00 00 00 00 00 00 00 00 00 00 00 00 00 00 00 00
       0.0 0.0 0.0 0.0
0000a0 00 00 00 00 00 00 00 00 00 00 00 00 00 00 00 00
       0.0 0.0 0.0 0.0
0000b0 00 00 00 00 00 00 00 00 00 00 00 00 00 00 00 00
       0.0 0.0 0.0 0.0
0000c0 00 00 00 00 00 00 00 00 00 00 00 00 00 00 00 00
       0.0 0.0 0.0 0.0
0000d0 00 00 00 00 00 00 00 00 00 00 00 00 00 00 00 00
       0.0 0.0 0.0 0.0
0000e0 00 00 00 00 00 00 00 00 00 00 00 00 00 00 00 00
       0.0 0.0 0.0 0.0
0000f0 00 00 00 00 00 00 00 00 00 00 00 00 00 00 00 00
       0.0 0.0 0.0 0.0
000100 00 00 00 00 00 00 00 00 00 00 00 00 00 00 00 00
       0.0 0.0 0.0 0.0
000110 00 00 00 00 00 00 00 00 00 00 00 00 00 00 00 00
       0.0 0.0 0.0 0.0
000120 00 00 00 00 00 00 00 00
       0.0 0.0

network_body._body_endoder.seq_layers.0.weight f4 [256, 74]
000000 e5 8a 24 3b dd 1c 7e bd c3 97 a4 3d 22 58 b5 ba
       0.0025107202 -0.062039245 0.08036759 -0.001383547
000010 c7 e7 a2 3c 70 d4 13 bd aa 32 6f bd 92 e6 d4 3d
       0.01988591 -0.036091268 -0.058397926 0.1039554
000020 84 f4 50 3b 15 ba 18 3d 43 24 6b 3c 15 de 89 bd
       0.0031884024 0.037286837 0.014351907 -0.06731812
000030 a6 e1 a2 3e 4e 2a 76 3c 0c b3 55 3e 08 4e 0b 3e
       0.3181278 0.015024735 0.20869082 0.13603985
000040 a4 31 78 3e 0a 75 81 be e0 21 1d 3d c2 e9 0a 3d
       0.24237686 -0.25284606 0.038362384 0.033914335
000050 b3 de bd b9 ff 0e e8 3d b0 ae a6 bc ab 7c 15 3e
       -0.00036214813 0.11330985 -0.02034697 0.14598338
000060 48 c6 3d 3e 81 f4 7c bc cf 61 1b be ff fc ec 3c
       0.1853267 -0.015439154 -0.1517403 0.028929232
000070 2a 0f c3 3d 5b a5 39 3e e3 2c 1e 3d 05 c7 8b bd
       0.09524377 0.18129484 0.038617026 -0.06825069
000080 a2 94 53 be fe 72 81 3e 8a e5 70 3e 47 b3 90 3b
       -0.20662168 0.25283045 0.23525062 0.004415903
000090 ed b5 28 bd 83 ad d5 3d e2 c1 99 bd f1 b6 4b 3c
       -0.041189123 0.10433485 -0.07507683 0.012433753
0000a0 64 46 24 be 6d a6 ad 3d ff fc 04 be 5c 9f 10 be
       -0.16042477 0.08479009 -0.12987135 -0.14123291
0000b0 9e 3a 83 bd 16 a9 a9 3e e6 97 4b 3e b6 3d 7e 3c
       -0.06407665 0.33136815 0.19882163 0.015517643
0000c0 49 18 a4 be a7 f2 8d 3c 43 b2 5f 3d 71 16 10 be
       -0.32049778 0.01732762 0.054613363 -0.1407106
0000d0 13 54 73 3e cb 15 61 3c c7 32 8c 3d 87 4f 0d bd
       0.2376254 0.013738106 0.068456225 -0.03449967
0000e0 50 cf 69 bd 5a 07 49 3d 86 d9 06 3c 22 98 ae 3d
       -0.057082474 0.049079277 0.008230573 0.08525111
0000f0 da e7 d7 bc 61 2e 2b be 31 cf 8d bd 11 c2 5c 3e
       -0.026355673 -0.16716911 -0.06924284 0.21558405
000100 42 0c b4 bd f8 fa fb bd 02 f1 d7 3b 4e 84 b2 bd
       -0.087914005 -0.12303728 0.0065900097 -0.08716641
000110 eb 35 22 bd a9 5a c7 3b 85 80 55 bc ec 78 6b 3c
       -0.0396022 0.0060838056 -0.01303113 0.014372092
000120 a0 dd 7a 3d 17 2c 69 3d 39 de a5 3e 9c 35 98 3d
       0.061246514 0.056926813 0.32396105 0.074321
000130 78 41 44 be dc ae 36 3e d1 8f 86 3d c6 46 af be
       -0.191656 0.17840141 0.065703996 -0.34233683
000140 c4 3d b5 3d 18 29 8b bd 66 19 57 3e 67 77 84 bd
       0.088496715 -0.067949474 0.21005782 -0.06468087
000150 2e 0f 55 3e ee 08 41 be 59 58 32 3e 0f 07 16 bc
       0.20806572 -0.18851063 0.17416514 -0.009156956
000160 ae af 5a 3e c2 c6 23 bb 44 8e 1c 3c 36 d9 a5 bd
       0.21356079 -0.0024990295 0.009555403 -0.0809807
000170 5b 81 16 be 3c 9e e8 bd 0a ad cc bc 0d 43 6c bd
       -0.14697783 -0.11358306 -0.024984855 -0.057681132
000180 a7 05 62 bd 46 81 80 bc 59 01 32 bd 10 b8 a0 bd
       -0.05518117 -0.015686642 -0.043458316 -0.07847607
000190 bd bb 7a bd 56 33 16 3d 1d 76 8a 3d b1 8e 0d 3e
       -0.061214197 0.03667005 0.067608096 0.13823964
0001a0 48 41 47 bd f4 c6 0e 3e 75 a2 da bd 5e 00 30 3e
       -0.04864624 0.13943082 -0.106755175 0.1718764
0001b0 89 7c cf 3d bb 92 be 3d c3 3a 67 3e 8f 20 2d 3e
       0.10131175 0.0930533 0.2258101 0.16906951
0001c0 e1 10 da bd f0 9a 57 3c 50 a3 24 bd 33 d0 26 bd
       -0.10647751 0.013159499 -0.04019481 -0.040725898
0001d0 a9 6b 11 3e a1 2f de bc 7a af 1d 3d 18 46 31 be
       0.14201225 -0.02712232 0.038497426 -0.17311895
0001e0 10 65 b4 bd 51 f5 b9 3d 72 1a 06 be c0 76 95 bd
       -0.08808339 0.090799935 -0.13096026 -0.072980404
0001f0 62 64 cf 3d 44 13 4a be 7b 8e 5d 3e 39 cb 7b 3d
       0.101265684 -0.19733912 0.21636383 0.061473105
000200 e2 dd 62 3e cb df 2e 3d bf 27 a3 3c fd 36 36 be
       0.22154954 0.042693894 0.019916413 -0.17794414
000210 c9 3c c9 bd 0b 67 e0 3d 31 67 dd bc 18 0f 26 3c
       -0.09826047 0.10957154 -0.027026745 0.010135435
000220 3f c1 37 3d 2f 70 0c 3e 83 30 c6 bd 85 1f 9e bd
       0.04486203 0.1371467 -0.096772216 -0.077208556
000230 d9 a6 14 3e 90 9a 41 bd a1 7b 95 bd 5f 38 63 bd
       0.14516772 -0.047266543 -0.07298971 -0.05547368
000240 c0 bf e4 bd 58 95 2b be a1 bb ea bd b1 31 0a 3e
       -0.11169386 -0.16756189 -0.114615686 0.13495518
000250 51 ed c5 bd e2 ff fb 3b 92 cb b4 3d a8 33 86 bd
       -0.09664405 0.0076904157 0.088278905 -0.065528214
000260 b1 48 85 3e 8f 7d 00 be 37 76 a6 3d cb 21 1f 3d
       0.26032022 -0.12547897 0.081280164 0.038850587
000270 76 8b f3 3a e8 34 24 be ed 27 b0 bc 47 bb b5 3d
       0.0018580991 -0.16035807 -0.021503413 0.08873611
000280 f8 ff 23 be 7d b0 35 3d a2 db c6 bd 71 7a 01 3e
       -0.16015613 0.044357765 -0.097098604 0.12644364
000290 a0 51 29 3e b5 12 a5 3d a3 81 e7 3d a7 7c 44 bd
       0.16535044 0.08060209 0.11304023 -0.04797044
0002a0 bf 46 f6 bd 3b 7a 1a be 9b 15 a9 bd 50 e2 71 bd
       -0.120252125 -0.1508569 -0.08256074 -0.05905372
0002b0 c3 7c 28 3e 30 73 72 be df 26 bd bd 75 29 d3 bd
       0.16453843 -0.23676753 -0.0923593 -0.10310642
0002c0 36 84 ea bd dc 90 5b bd a6 f8 b5 bc 5d e6 27 be
       -0.114509985 -0.053604946 -0.022213291 -0.1639647
0002d0 77 fe d9 bd dd db 0c 3e 3e 57 e3 bd 3c 87 c2 3d
       -0.106442384 0.13755746 -0.111006245 0.0949845
0002e0 f5 6c a5 3e 14 e1 2d 3b 39 da 6f bc 25 e0 89 3d
       0.3230969 0.0026531862 -0.014639431 0.06732205
0002f0 26 41 db 3d 63 2c 84 3d de 18 82 3d 59 82 66 bc
       0.107057855 0.064537786 0.06352399 -0.014069163
000300 f5 75 fe bd 31 ca 02 3e 2e c5 ab bb dd 34 8b 3e
       -0.12424842 0.12772442 -0.0052420115 0.2718877
000310 eb 84 ce 39 15 be 4e 3c c9 fb 21 3e 2e e4 b4 3c
       0.00039390413 0.012618561 0.15818705 0.02208146
000320 9e 94 29 bd 54 7a 7c bd 4c ad 59 be 54 ce e7 bd
       -0.041401498 -0.0616401 -0.21257514 -0.11318651
000330 c6 d7 2d 3e d0 f0 da bd 63 6b 29 3c eb 1a a2 bd
       0.16976842 -0.106904626 0.010340544 -0.079152904
000340 b2 73 08 be f1 b1 00 bd e2 bd 1b be d5 74 57 3c
       -0.13325384 -0.0314197 -0.15209153 0.0131504135
000350 09 93 a5 3d f1 74 85 3d e6 52 6a 3d 22 28 e4 3c
       0.08084685 0.065164454 0.057207964 0.027851168
000360 2b 5f fd bd 3f 54 1e 3e cc 2c 98 bd 78 38 a6 3d
       -0.123716675 0.15461825 -0.07430419 0.08116239
000370 6c b0 05 bc cd 13 f5 3d 23 a2 2e 3e 1d 9a 53 bd
       -0.008159738 0.11966667 0.17054038 -0.051660646
000380 a6 8b cf bd 77 6d 99 bc ff 49 90 be a7 21 6b 3d
       -0.10134058 -0.018728955 -0.28181455 0.05740514
000390 89 d6 4d bc 62 b7 b8 bd 55 68 6a bd af 87 82 3c
       -0.012563356 -0.090193525 -0.057228405 0.01593384
0003a0 e6 78 17 3e 15 76 91 bd da e5 a5 3d c8 b2 2c be
       0.14792213 -0.071026005 0.08100481 -0.16865075
0003b0 e8 df a3 3c f0 73 81 3e 05 7f 34 3d f2 99 7e 3d
       0.020004228 0.25283766 0.044066448 0.062158532
0003c0 f7 db 75 3d 7a dd 7d bc 8e 6e dc 3d b0 a4 23 3d
       0.060024228 -0.015494699 0.10763274 0.03995198
0003d0 82 16 6b 3d af 06 ba 3d 18 7f 24 be a0 92 10 be
       0.057394512 0.09083306 -0.16064107 -0.14118433
0003e0 74 ad 08 be 02 de 2c bc 1c 6d f5 bd 3c 79 fd 3d
       -0.13347417 -0.010550978 -0.119837016 0.12376639
0003f0 65 a7 bb 3d 2b 8b 09 3e 0e d8 af bd 65 cf d1 bb
       0.09162787 0.13431995 -0.08586131 -0.006402897

network_body._body_endoder.seq_layers.0.bias f4 [256]
000000 00 00 00 00 00 00 00 00 00 00 00 00 00 00 00 00
       0.0 0.0 0.0 0.0
000010 00 00 00 00 00 00 00 00 00 00 00 00 00 00 00 00
       0.0 0.0 0.0 0.0
000020 00 00 00 00 00 00 00 00 00 00 00 00 00 00 00 00
       0.0 0.0 0.0 0.0
000030 00 00 00 00 00 00 00 00 00 00 00 00 00 00 00 00
       0.0 0.0 0.0 0.0
000040 00 00 00 00 00 00 00 00 00 00 00 00 00 00 00 00
       0.0 0.0 0.0 0.0
000050 00 00 00 00 00 00 00 00 00 00 00 00 00 00 00 00
       0.0 0.0 0.0 0.0
000060 00 00 00 00 00 00 00 00 00 00 00 00 00 00 00 00
       0.0 0.0 0.0 0.0
000070 00 00 00 00 00 00 00 00 00 00 00 00 00 00 00 00
       0.0 0.0 0.0 0.0
000080 00 00 00 00 00 00 00 00 00 00 00 00 00 00 00 00
       0.0 0.0 0.0 0.0
000090 00 00 00 00 00 00 00 00 00 00 00 00 00 00 00 00
       0.0 0.0 0.0 0.0
0000a0 00 00 00 00 00 00 00 00 00 00 00 00 00 00 00 00
       0.0 0.0 0.0 0.0
0000b0 00 00 00 00 00 00 00 00 00 00 00 00 00 00 00 00
       0.0 0.0 0.0 0.0
0000c0 00 00 00 00 00 00 00 00 00 00 00 00 00 00 00 00
       0.0 0.0 0.0 0.0
0000d0 00 00 00 00 00 00 00 00 00 00 00 00 00 00 00 00
       0.0 0.0 0.0 0.0
0000e0 00 00 00 00 00 00 00 00 00 00 00 00 00 00 00 00
       0.0 0.0 0.0 0.0
0000f0 00 00 00 00 00 00 00 00 00 00 00 00 00 00 00 00
       0.0 0.0 0.0 0.0
000100 00 00 00 00 00 00 00 00 00 00 00 00 00 00 00 00
       0.0 0.0 0.0 0.0
000110 00 00 00 00 00 00 00 00 00 00 00 00 00 00 00 00
       0.0 0.0 0.0 0.0
000120 00 00 00 00 00 00 00 00 00 00 00 00 00 00 00 00
       0.0 0.0 0.0 0.0
000130 00 00 00 00 00 00 00 00 00 00 00 00 00 00 00 00
       0.0 0.0 0.0 0.0
000140 00 00 00 00 00 00 00 00 00 00 00 00 00 00 00 00
       0.0 0.0 0.0 0.0
000150 00 00 00 00 00 00 00 00 00 00 00 00 00 00 00 00
       0.0 0.0 0.0 0.0
000160 00 00 00 00 00 00 00 00 00 00 00 00 00 00 00 00
       0.0 0.0 0.0 0.0
000170 00 00 00 00 00 00 00 00 00 00 00 00 00 00 00 00
       0.0 0.0 0.0 0.0
000180 00 00 00 00 00 00 00 00 00 00 00 00 00 00 00 00
       0.0 0.0 0.0 0.0
000190 00 00 00 00 00 00 00 00 00 00 00 00 00 00 00 00
       0.0 0.0 0.0 0.0
0001a0 00 00 00 00 00 00 00 00 00 00 00 00 00 00 00 00
       0.0 0.0 0.0 0.0
0001b0 00 00 00 00 00 00 00 00 00 00 00 00 00 00 00 00
       0.0 0.0 0.0 0.0
0001c0 00 00 00 00 00 00 00 00 00 00 00 00 00 00 00 00
       0.0 0.0 0.0 0.0
0001d0 00 00 00 00 00 00 00 00 00 00 00 00 00 00 00 00
       0.0 0.0 0.0 0.0
0001e0 00 00 00 00 00 00 00 00 00 00 00 00 00 00 00 00
       0.0 0.0 0.0 0.0
0001f0 00 00 00 00 00 00 00 00 00 00 00 00 00 00 00 00
       0.0 0.0 0.0 0.0
000200 00 00 00 00 00 00 00 00 00 00 00 00 00 00 00 00
       0.0 0.0 0.0 0.0
000210 00 00 00 00 00 00 00 00 00 00 00 00 00 00 00 00
       0.0 0.0 0.0 0.0
000220 00 00 00 00 00 00 00 00 00 00 00 00 00 00 00 00
       0.0 0.0 0.0 0.0
000230 00 00 00 00 00 00 00 00 00 00 00 00 00 00 00 00
       0.0 0.0 0.0 0.0
000240 00 00 00 00 00 00 00 00 00 00 00 00 00 00 00 00
       0.0 0.0 0.0 0.0
000250 00 00 00 00 00 00 00 00 00 00 00 00 00 00 00 00
       0.0 0.0 0.0 0.0
000260 00 00 00 00 00 00 00 00 00 00 00 00 00 00 00 00
       0.0 0.0 0.0 0.0
000270 00 00 00 00 00 00 00 00 00 00 00 00 00 00 00 00
       0.0 0.0 0.0 0.0
000280 00 00 00 00 00 00 00 00 00 00 00 00 00 00 00 00
       0.0 0.0 0.0 0.0
000290 00 00 00 00 00 00 00 00 00 00 00 00 00 00 00 00
       0.0 0.0 0.0 0.0
0002a0 00 00 00 00 00 00 00 00 00 00 00 00 00 00 00 00
       0.0 0.0 0.0 0.0
0002b0 00 00 00 00 00 00 00 00 00 00 00 00 00 00 00 00
       0.0 0.0 0.0 0.0
0002c0 00 00 00 00 00 00 00 00 00 00 00 00 00 00 00 00
       0.0 0.0 0.0 0.0
0002d0 00 00 00 00 00 00 00 00 00 00 00 00 00 00 00 00
       0.0 0.0 0.0 0.0
0002e0 00 00 00 00 00 00 00 00 00 00 00 00 00 00 00 00
       0.0 0.0 0.0 0.0
0002f0 00 00 00 00 00 00 00 00 00 00 00 00 00 00 00 00
       0.0 0.0 0.0 0.0
000300 00 00 00 00 00 00 00 00 00 00 00 00 00 00 00 00
       0.0 0.0 0.0 0.0
000310 00 00 00 00 00 00 00 00 00 00 00 00 00 00 00 00
       0.0 0.0 0.0 0.0
000320 00 00 00 00 00 00 00 00 00 00 00 00 00 00 00 00
       0.0 0.0 0.0 0.0
000330 00 00 00 00 00 00 00 00 00 00 00 00 00 00 00 00
       0.0 0.0 0.0 0.0
000340 00 00 00 00 00 00 00 00 00 00 00 00 00 00 00 00
       0.0 0.0 0.0 0.0
000350 00 00 00 00 00 00 00 00 00 00 00 00 00 00 00 00
       0.0 0.0 0.0 0.0
000360 00 00 00 00 00 00 00 00 00 00 00 00 00 00 00 00
       0.0 0.0 0.0 0.0
000370 00 00 00 00 00 00 00 00 00 00 00 00 00 00 00 00
       0.0 0.0 0.0 0.0
000380 00 00 00 00 00 00 00 00 00 00 00 00 00 00 00 00
       0.0 0.0 0.0 0.0
000390 00 00 00 00 00 00 00 00 00 00 00 00 00 00 00 00
       0.0 0.0 0.0 0.0
0003a0 00 00 00 00 00 00 00 00 00 00 00 00 00 00 00 00
       0.0 0.0 0.0 0.0
0003b0 00 00 00 00 00 00 00 00 00 00 00 00 00 00 00 00
       0.0 0.0 0.0 0.0
0003c0 00 00 00 00 00 00 00 00 00 00 00 00 00 00 00 00
       0.0 0.0 0.0 0.0
0003d0 00 00 00 00 00 00 00 00 00 00 00 00 00 00 00 00
       0.0 0.0 0.0 0.0
0003e0 00 00 00 00 00 00 00 00 00 00 00 00 00 00 00 00
       0.0 0.0 0.0 0.0
0003f0 00 00 00 00 00 00 00 00 00 00 00 00 00 00 00 00
       0.0 0.0 0.0 0.0

network_body._body_endoder.seq_layers.2.weight f4 [256, 256]
000000 84 45 b4 3c f1 a9 98 bc c8 fa 8d 3d 6b 72 78 bc
       0.022005804 -0.018635722 0.06932598 -0.015163998
000010 74 7a 0b 3d 95 9a f4 bd 96 63 13 3d d1 0a 55 3d
       0.034052327 -0.11943547 0.035983644 0.05201227
000020 96 56 66 bd 13 0f 1e 3d 6f 5d 56 bd 8f 2b 3d 3d
       -0.05623492 0.038588595 -0.0523352 0.04618412
000030 c5 6d 2f 3d 98 ee 75 3d 1b 33 44 bd ae cf 9d 3c
       0.042829294 0.060041994 -0.0479003 0.019264068
000040 39 88 c6 bd 51 46 f5 3d dd 9e 68 bd fc 4c 0a be
       -0.09693951 0.119763024 -0.05679213 -0.1350593
000050 0f 7d 9d bb 10 ac bb 3d 6d 52 67 ba 95 65 08 bd
       -0.004806168 0.09163678 -0.0008824233 -0.0333
000060 cc 03 c3 3c 79 f4 29 bd d0 b7 f1 bd 61 db b4 3d
       0.023805521 -0.041492913 -0.118026376 0.08830906
000070 cc 24 85 3d 0d be 29 3d 37 e3 56 bc 3d e9 dc 3c
       0.06501159 0.041441012 -0.013115696 0.026966685
000080 2d 9f 21 3e 41 3f 4c 3d 45 e7 8d bc cf d4 0a bc
       0.15783377 0.04986501 -0.017322192 -0.008473589
000090 5b d5 19 3c 98 c3 ad bc 02 d6 0f 3d 99 39 98 bc
       0.009389247 -0.02121143 0.035116203 -0.018582152
0000a0 92 f6 c7 bd 9b a6 d2 bd a3 09 a4 3c 5e 12 22 bd
       -0.097638264 -0.10285684 0.020024126 -0.039568298
0000b0 87 03 18 bd d8 73 07 bd 21 2a c2 bb 42 cd 87 3c
       -0.03711274 -0.03306946 -0.0059254323 0.016577367
0000c0 7b 07 aa bd d9 66 13 bd 5f a8 9b bc 2d 8e 28 3c
       -0.08302208 -0.035986755 -0.019001184 0.010287804
0000d0 0b 19 4e bd 47 ad a7 bb 83 0e 48 bd 80 19 5b 3d
       -0.05031685 -0.005117092 -0.048841964 0.053491116
0000e0 86 6f 8b bd d5 1c 24 3d 21 5b c4 3d 0d 95 77 bd
       -0.06808381 0.04006656 0.09587694 -0.06044488
0000f0 89 26 dd bc 80 a7 0e 3d 3a b9 9c 3c a5 82 93 3c
       -0.026995914 0.03482771 0.019131292 0.018006632
000100 ad 24 38 bd 9d 5d 8d 3c f5 6f 8e 3c a4 1a 79 bd
       -0.04495685 0.017256552 0.01738737 -0.060816422
000110 ec 7f 5a 3c aa 3c 4c 3d 98 ff 90 bc 95 a5 5a bd
       0.013336163 0.04986254 -0.017700002 -0.053380568
000120 e3 cf 09 3d f4 be c3 3a ec 69 e4 bc 73 2e 12 bd
       0.03364552 0.0014934228 -0.027882539 -0.03568883
000130 00 19 bc 3d cf 6c ba 3d f6 81 ff bd 43 2b a4 bc
       0.09184456 0.09102785 -0.1247596 -0.02004016
000140 d3 21 d1 3d 89 8d 69 bd d8 94 a3 3c 12 ff 2c 3d
       0.102115296 -0.057019744 0.019968435 0.04223544
000150 8c 82 03 3e 54 96 7b 3d 7c e6 27 3d ea 23 84 3d
       0.12842768 0.06142266 0.04099129 0.064521626
000160 45 02 b2 3d 64 03 89 3d db 62 f8 bc 16 3d 63 bb
       0.08691839 0.066901 -0.030320575 -0.0034673861
000170 cb cc e9 3b 27 0c d0 bd 61 af b1 3a 94 09 8d 3d
       0.007135009 -0.10158568 0.0013556295 0.068865925
000180 a0 49 ce 3d b8 96 28 3e d1 3e 39 bd 57 53 0a be
       0.100726366 0.16463745 -0.045225922 -0.13508354
000190 6f 6f 9c 3d 52 a4 79 bd 73 83 05 bd 78 3b 3a 3d
       0.07638442 -0.060947724 -0.032596063 0.04546687
0001a0 de 50 53 3d 3e 2b f6 bc 61 b3 6d bc 64 67 e4 3c
       0.051590793 -0.030049916 -0.014508099 0.027881332
0001b0 f6 58 f6 bd 2e 80 77 bc fc b1 25 3d 80 52 5e 3c
       -0.12028687 -0.015106244 0.040452942 0.013569474
0001c0 14 80 73 3c 8c 99 77 bc 41 75 c3 3d 41 21 ce 3c
       0.014862079 -0.015112292 0.09543849 0.025162341
0001d0 4c 0c 17 3e 0e 1d 0a 3c 72 b7 da 3c 63 f2 81 3d
       0.14750785 0.008429779 0.026698802 0.0634506
0001e0 40 83 22 3d 0a 30 fd 3c ff 64 2c bd f3 88 45 3d
       0.03967595 0.030906696 -0.042088505 0.048226308
0001f0 70 2b 96 3c 77 60 81 3b cf c0 10 bd 7b e0 5a bd
       0.01833126 0.003948267 -0.035340127 -0.053436738
000200 69 0f 9e bc 8e 00 31 3d 63 bf 1f be 7c 8a 4f bd
       -0.019294458 0.04321342 -0.15600352 -0.05066918
000210 40 31 dd 3c 76 bb 06 bd e9 9d 15 3e 0e 71 07 3e
       0.027001023 -0.03289362 0.14611019 0.1322672
000220 23 cb ed bd 4e 57 83 bd 48 b3 ac 3d d0 21 47 bc
       -0.11611011 -0.064131364 0.08432633 -0.012154058
000230 4f 12 5b bd 64 6a 03 3d ba 89 d5 3b 86 2d fc 3c
       -0.053484257 0.032083884 0.0065166624 0.030783426
000240 26 6b 3a bd 9f 1a a0 bd 61 d7 ea ba ac cd 71 3c
       -0.04551234 -0.078175776 -0.0017916971 0.014758509
000250 8c 7b bd bc 40 aa 2e 3c e4 c0 56 3d 10 18 03 3c
       -0.0231302 0.010660708 0.05243005 0.008001342
000260 5b 2a e1 bc 89 09 e4 bd 9e bc b0 3c e1 ea 26 3e
       -0.027486017 -0.11134631 0.021574315 0.16300537
000270 8a 48 af bd 60 69 d7 3d f2 7a 65 3d 3a 98 45 bd
       -0.085587576 0.105181456 0.056025453 -0.048240878
000280 9a ac a6 3d 07 57 a8 bd a8 50 b0 3b dd a0 bf 3c
       0.0813839 -0.08219724 0.0053807087 0.023392135
000290 84 a0 ba bb 99 44 cf bc f5 ed d4 3c 31 ab 94 bd
       -0.0056954045 -0.025301265 0.025992373 -0.07259215
0002a0 0b 17 11 3d ea 51 e6 3d fa 59 e4 3b 39 03 ce 3c
       0.035422366 0.112460926 0.006968734 0.025148021
0002b0 83 8a b7 bd 7f 24 74 bc cd 6d 0d bd f1 7f 0b bd
       -0.08961966 -0.0149012795 -0.034528542 -0.03405756
0002c0 40 ce 7f bc 0f 27 ae 3d e8 79 41 bc 66 56 43 bd
       -0.015613139 0.085035436 -0.01180885 -0.047689818
0002d0 63 4a d4 3d e5 b9 6b 3c 0e f3 e5 3c c8 90 f7 bc
       0.10365751 0.014387582 0.02807 -0.030220404
0002e0 99 3c 84 3d 64 56 76 3c c4 1e a7 3c b6 15 81 3a
       0.064568706 0.015035246 0.020400412 0.0009848389
0002f0 23 2c 54 bd 62 10 28 3d a1 6d c6 bb a2 b2 55 bd
       -0.051799905 0.04103125 -0.0060555493 -0.05217231
000300 3c e3 c0 3a e3 cd 01 3e 19 e5 bd 3d 12 fb 48 bc
       0.0014716159 0.12676196 0.092722125 -0.012266891
000310 74 db 4d 3c 67 53 2a 3d 59 d3 6e bc 7c 01 c8 3d
       0.012564529 0.041583445 -0.014576756 0.09765908
000320 dd a0 b6 3b b2 69 83 3d 7e 73 94 3d fe 77 ae bd
       0.0055733756 0.06416644 0.07248591 -0.085189804
000330 5e c5 54 bd 56 51 61 bc d7 d2 d7 3d 41 70 46 bd
       -0.051946037 -0.013752302 0.105382614 -0.048446897
000340 1a 8b dc 3d d9 dc cf bd b9 c6 01 3e 43 c4 6a bc
       0.10768719 -0.10149545 0.12673463 -0.014329019
000350 9b 74 76 3c 6d c5 0f bd ce 2f b3 bd 6c fa 20 be
       0.015042449 -0.03510039 -0.087493524 -0.15720528
000360 c5 a6 88 3d 69 89 c1 3d 40 7a 96 3d e9 3f 68 bd
       0.06672434 0.09450037 0.07347536 -0.056701574
000370 0e f4 b0 3b 19 75 8d 3b c7 77 bb bd ab d9 e6 3b
       0.0054001873 0.0043169376 -0.09153705 0.007044991
000380 20 16 63 bd e4 f1 c2 bc 69 0e ac bc 5d 17 28 3d
       -0.055441022 -0.023796983 -0.021002965 0.041037906
000390 fb c5 bb bd 99 83 0e 3e a5 92 fd 3d 25 22 c0 3b
       -0.09168621 0.13917388 0.12381486 0.0058634453
0003a0 ce b5 85 3d 14 43 8e bb 19 95 9f bd 20 c3 f8 3c
       0.06528817 -0.0043414924 -0.0779211 0.03036648
0003b0 2d ec 75 3c 65 72 2f 3c 1b 7a 29 bd cb 99 47 bd
       0.015009922 0.010708426 -0.041376214 -0.048730653
0003c0 f9 e1 09 be 60 46 f9 bb 9b bc c4 bd 95 a6 b4 3d
       -0.13465108 -0.0076072663 -0.09606286 0.088208355
0003d0 52 17 e5 3c 91 03 0e 3e 66 b4 c0 3d 53 83 ca 3b
       0.027965222 0.13868548 0.09409408 0.006180206
0003e0 46 25 0a 3d bd 48 28 3d b7 5d a3 3c 97 60 77 bd
       0.033726953 0.041084994 0.019942148 -0.06039485
0003f0 97 4c f0 3c 39 80 a6 bb f0 54 04 3d 1b 2b 97 3d
       0.029333396 -0.0050812033 0.032307565 0.073812686

action_model._continuous_distribution.log_sigma f4 [1, 12]
000000 00 00 00 00 00 00 00 00 00 00 00 00 00 00 00 00
       0.0 0.0 0.0 0.0
000010 00 00 00 00 00 00 00 00 00 00 00 00 00 00 00 00
       0.0 0.0 0.0 0.0
000020 00 00 00 00 00 00 00 00 00 00 00 00 00 00 00 00
       0.0 0.0 0.0 0.0

action_model._continuous_distribution.mu.weight f4 [12, 256]
000000 27 2b e2 bc 6c ed 2d bc d3 45 35 bc 87 76 9e 3c
       -0.027608467 -0.010615688 -0.011064011 0.019343628
000010 e0 d5 85 bb 1a 77 73 bc f3 52 86 3c 87 e4 ac 3b
       -0.004084334 -0.014859939 0.016396975 0.005276266
000020 8b f5 92 bc 7b 4c 03 3b 52 2d 83 b9 1a 00 ba 3c
       -0.01793935 0.00200346 -0.00025020033 0.022705127
000030 a2 aa b6 bb 8f 41 df 3a 39 6a 89 3c 2a 0f b7 3c
       -0.0055745402 0.0017033088 0.016774284 0.022346098
000040 fa ca c7 bc 13 b5 96 3c bd e8 59 bc ff c7 23 3c
       -0.024388779 0.01839689 -0.013300118 0.009996413
000050 ed 5c 66 3c de b0 b5 bb 68 3a 22 bb db cc 9d bb
       0.014060241 -0.005544766 -0.002475405 -0.0048156804
000060 8f 1e 66 3c ab 99 20 bb 5f 26 07 bc 72 96 55 bb
       0.014045372 -0.0024505656 -0.0082488945 -0.0032590893
000070 54 c5 99 3b 77 94 87 3b 7d 74 e3 3b b5 51 9e 38
       0.004692713 0.0041375714 0.0069413767 7.549246e-05
000080 75 5c 57 ba 62 85 3c 3c bb fd 1e 3c 58 bd 2c bc
       -0.00082153763 0.01150641 0.009704049 -0.01054319
000090 a1 bd 07 bc f6 68 29 3c d7 a6 87 bc a7 a4 5c bc
       -0.008284957 0.010339966 -0.016559048 -0.013466991
0000a0 c0 e4 8c 3c 48 a9 f6 bb 5b 47 7e bc 07 ca 92 bb
       0.01719892 -0.007527504 -0.015519942 -0.00447965
0000b0 0b 7c 9a 3b 43 1c 9c 3c 15 16 6c bb ec 51 c2 3a
       0.004714494 0.019056445 -0.0036023904 0.001482544
0000c0 bf 3b 1f bc db 61 c9 3c f5 c8 27 3b 38 4e a0 bc
       -0.009718834 0.024582794 0.0025601957 -0.019568548
0000d0 35 7b 43 3c 07 bd 91 bc e7 64 9f 3c 93 fe 5c 3c
       0.01193123 -0.01779033 0.019457294 0.01348843
0000e0 18 2d 1c 3c 50 d2 26 3b ff 94 fa 3c 22 5f d8 3b
       0.009532236 0.0025454946 0.030588625 0.0066031376
0000f0 b2 98 3e 3c 06 e8 8a 3b 57 9c fe 3b e4 5d 33 bb
       0.011633085 0.004239085 0.007770102 -0.0027369196
000100 c8 d8 de 3c ff 28 76 3b 07 ae 58 3b 91 9e 45 3b
       0.027202979 0.0037561057 0.0033062713 0.0030154327
000110 cc 52 25 bb 26 64 20 bb 24 5e 0f 3c af c6 ab 3a
       -0.0025226353 -0.0024473756 0.008750472 0.0013105477
000120 2b 8a 4e bc 4b 2a 7a bc 87 b0 3e 3b 16 e9 8c 3b
       -0.012606184 -0.0152688725 0.0029096918 0.004300247
000130 20 c2 f3 3b b8 4f 4a 3c 99 a8 83 3b 68 59 e6 bb
       0.007438913 0.012348108 0.004017901 -0.007029701
000140 6b cc d5 3c a0 02 38 3a 8d 6d ce 3b 37 cf 91 3a
       0.02609845 0.0007019434 0.0062996806 0.0011124377
000150 40 52 0f ba f5 a2 52 bb 79 50 3a 3c 10 f7 84 bc
       -0.00054672733 -0.0032140587 0.011371725 -0.01623109
000160 cb 16 33 bb c3 05 8b 3a b3 98 ce 3c e7 b4 ef 3a
       -0.0027326818 0.0010606576 0.025219297 0.0018288166
000170 f3 03 98 bc 4a 2d c9 bb cb 34 76 3a 13 63 8a 3b
       -0.01855657 -0.006139432 0.0009392022 0.0042232363
000180 33 6d ad bc 9d ae 51 bc 88 70 6f bc cd e0 d7 bc
       -0.021170234 -0.012797979 -0.014614232 -0.02635231
000190 6b 37 f6 bb 0b a4 e2 3a 9a ab fc 3a 2c 2c bc 3b
       -0.0075139306 0.001729132 0.0019277215 0.0057425704
0001a0 ee 92 ca bb cf 3b d8 3a 4a be 00 bc b2 36 ad bc
       -0.006182066 0.0016497317 -0.007857868 -0.021144245
0001b0 05 e0 21 3c c7 2d 2e bc 8b 29 0c bc 62 e7 ac 3c
       0.009880071 -0.010631031 -0.0085548265 0.021106426
0001c0 6b db 88 3c 7b 3b 0b bc 40 73 cb 3c b7 cc 90 bc
       0.01670619 -0.008498068 0.024835229 -0.01767574
0001d0 6d 44 18 3c f7 53 33 bc 57 63 a8 3b 2f d0 49 3b
       0.009293658 -0.010945312 0.0051387954 0.0030794253
0001e0 61 6a 9d bb 11 cd b5 bc 29 d8 b2 3c 61 3d 84 bc
       -0.004803941 -0.02219251 0.021831589 -0.016142549
0001f0 ed 73 68 bc c6 ea bb bc 78 3e c5 bb a5 37 af 3c
       -0.014187795 -0.022939097 -0.0060194097 0.021388838
000200 41 16 36 3c 50 29 86 bb 58 0a 07 b7 e4 2a 84 bc
       0.011113704 -0.0040942803 -8.049035e-06 -0.016133733
000210 43 74 c6 3c 35 78 e5 3c 83 32 b1 bb 15 52 eb bc
       0.02422536 0.02801142 -0.005407633 -0.028725663
000220 73 1a 13 3b 53 5c 49 bb e2 b1 87 3b 1d 29 bf 3b
       0.0022446185 -0.0030725196 0.0041410783 0.0058337585
000230 f7 82 fe bb 37 4b e8 3a 17 e2 87 bc bf c5 0b bb
       -0.007767077 0.0017722611 -0.0165873 -0.0021327583
000240 58 c9 b1 3a 05 2b f4 ba fb 68 02 bb 2d ff 0c 3b
       0.0013564033 -0.0018628543 -0.0019899 0.0021514401
000250 6d a6 e7 3b c7 97 01 bb 40 b8 cf 3b 2b ca 24 3c
       0.0070694 -0.0019774304 0.006339103 0.010057966
000260 b5 f4 88 bb e5 f3 40 3c 38 62 66 3c b4 4b 06 bc
       -0.004179562 0.011776899 0.014061503 -0.00819676
000270 2b ee 2b 3c 23 4d 7e 3c 22 39 56 3c a0 7e d6 3b
       0.010493795 0.0155213205 0.013075145 0.0065458566
000280 bb e2 3a bc ab 64 ce 3b 27 46 f4 3c 85 14 63 bb
       -0.011406596 0.0062986217 0.029818607 -0.0034649682
000290 20 ec 79 3c 9d c8 10 bc cb ff 98 bc 4d 79 db bc
       0.0152540505 -0.008836892 -0.01867666 -0.02679124
0002a0 7d 11 37 3a 6a c4 31 3a 35 bc 06 3d be b3 00 3c
       0.0006983502 0.0006781282 0.032894332 0.007855354
0002b0 56 0f 91 3b 58 85 99 3b af 12 6e bc 0a e6 40 bc
       0.004426877 0.0046850853 -0.014530822 -0.011773596
0002c0 98 27 08 3b 43 bc 1d bc 0e 78 20 3c 8b 8d 12 bc
       0.0020775553 -0.009627405 0.009794248 -0.008944879
0002d0 27 bf 4b 3b a7 80 48 3b 2b 31 c9 bb 55 f8 7a 3b
       0.0031089277 0.003059426 -0.0061398945 0.003829499
0002e0 33 db 5c bc 51 a7 0e bc 52 b2 9b 3b 3f b1 2f 3b
       -0.013479996 -0.0087068835 0.004751482 0.0026808528
0002f0 10 7e 68 bc 92 22 a9 bc ea 49 c2 3b 33 47 01 3b
       -0.014190212 -0.020646367 0.0059292214 0.0019726276
000300 d9 e4 b1 3b b3 83 6f 3b 3a ac 83 3c 84 b4 1d 3c
       0.005428892 0.0036547005 0.016073335 0.009625558
000310 ec 5a 19 3c 85 58 0b 3c 83 72 54 3c 2b bc f7 bb
       0.009360056 0.008504991 0.012966755 -0.007560273
000320 aa 65 89 ba f6 f8 bc 3b 44 3d 20 bc fd b9 c0 bb
       -0.0010482569 0.005766983 -0.009780232 -0.0058815465
000330 14 22 82 3c 12 b4 0f bc 98 c9 40 ba 6b 0a bd bc
       0.01588539 -0.008770959 -0.00073542586 -0.023076257
000340 0c 4c a8 bc 43 b3 a0 3b e3 5b 0b 3d 18 e4 36 3b
       -0.020544074 0.004904182 0.034023177 0.002790695
000350 4b 73 d4 3b bd aa a2 3a c8 b3 10 bc dd 34 f1 3c
       0.0064834706 0.0012410503 -0.008831926 0.029444152
000360 03 27 22 bb 56 17 2c 3b 8b cd f8 3b 0a 2b fe ba
       -0.002474249 0.0026259026 0.007592862 -0.0019391489
000370 2d d7 6a ba 57 46 9f 3a eb 4b ee 3b d2 b6 73 3c
       -0.00089584553 0.00121517 0.0072722337 0.014875131
000380 07 62 8d bb 3d 12 70 3b 7b 94 e0 3b cf 34 48 3c
       -0.0043146643 0.0036631965 0.0068536378 0.012219622
000390 10 fc 51 bc 1c c5 b5 3b 5a 19 47 ba 00 ce c5 3a
       -0.012816444 0.005547179 -0.0007595025 0.00150913
0003a0 af 54 40 3c 67 45 84 bb 01 e7 84 3c 7a 16 25 3c
       0.01173894 -0.0040365937 0.016223432 0.01007616
0003b0 97 c4 a0 ba 8f 64 f4 3a bf 2b 11 3b e0 bf dc bb
       -0.001226562 0.0018645691 0.002215132 -0.0067367405
0003c0 b5 fe 44 bb b0 44 03 bc b2 8c 56 bc 13 e1 3a 3c
       -0.0030059044 -0.008011982 -0.013095068 0.011406201
0003d0 3b 07 71 bb 97 ae a9 3c 3f 64 1e 3d 2b 51 e3 bb
       -0.0036777991 0.020713134 0.03866982 -0.006937166
0003e0 f7 6c c6 b9 c9 62 c1 3c b6 d8 a7 3b c2 d7 cf bb
       -0.00037846688 0.023606675 0.0051222695 -0.006342859
0003f0 bd 1e 6e 3c ba 7f 5a 3c 97 4c ba 3b 52 05 7c bb
       0.014533696 0.013336116 0.0056853998 -0.003845532

action_model._continuous_distribution.mu.bias f4 [12]
000000 00 00 00 00 00 00 00 00 00 00 00 00 00 00 00 00
       0.0 0.0 0.0 0.0
000010 00 00 00 00 00 00 00 00 00 00 00 00 00 00 00 00
       0.0 0.0 0.0 0.0
000020 00 00 00 00 00 00 00 00 00 00 00 00 00 00 00 00
       0.0 0.0 0.0 0.0

onnx::Div_51 f4 [74]
000000 00 00 80 3f 00 00 80 3f 00 00 80 3f 00 00 80 3f
       1.0 1.0 1.0 1.0
000010 00 00 80 3f 00 00 80 3f 00 00 80 3f 00 00 80 3f
       1.0 1.0 1.0 1.0
000020 00 00 80 3f 00 00 80 3f 00 00 80 3f 00 00 80 3f
       1.0 1.0 1.0 1.0
000030 00 00 80 3f 00 00 80 3f 00 00 80 3f 00 00 80 3f
       1.0 1.0 1.0 1.0
000040 00 00 80 3f 00 00 80 3f 00 00 80 3f 00 00 80 3f
       1.0 1.0 1.0 1.0
000050 00 00 80 3f 00 00 80 3f 00 00 80 3f 00 00 80 3f
       1.0 1.0 1.0 1.0
000060 00 00 80 3f 00 00 80 3f 00 00 80 3f 00 00 80 3f
       1.0 1.0 1.0 1.0
000070 00 00 80 3f 00 00 80 3f 00 00 80 3f 00 00 80 3f
       1.0 1.0 1.0 1.0
000080 00 00 80 3f 00 00 80 3f 00 00 80 3f 00 00 80 3f
       1.0 1.0 1.0 1.0
000090 00 00 80 3f 00 00 80 3f 00 00 80 3f 00 00 80 3f
       1.0 1.0 1.0 1.0
0000a0 00 00 80 3f 00 00 80 3f 00 00 80 3f 00 00 80 3f
       1.0 1.0 1.0 1.0
0000b0 00 00 80 3f 00 00 80 3f 00 00 80 3f 00 00 80 3f
       1.0 1.0 1.0 1.0
0000c0 00 00 80 3f 00 00 80 3f 00 00 80 3f 00 00 80 3f
       1.0 1.0 1.0 1.0
0000d0 00 00 80 3f 00 00 80 3f 00 00 80 3f 00 00 80 3f
       1.0 1.0 1.0 1.0
0000e0 00 00 80 3f 00 00 80 3f 00 00 80 3f 00 00 80 3f
       1.0 1.0 1.0 1.0
0000f0 00 00 80 3f 00 00 80 3f 00 00 80 3f 00 00 80 3f
       1.0 1.0 1.0 1.0
000100 00 00 80 3f 00 00 80 3f 00 00 80 3f 00 00 80 3f
       1.0 1.0 1.0 1.0
000110 00 00 80 3f 00 00 80 3f 00 00 80 3f 00 00 80 3f
       1.0 1.0 1.0 1.0
000120 00 00 80 3f 00 00 80 3f
       1.0 1.0
