results/Robot_Run_06_19/RobotAgent/RobotAgent-4999067.onnx (onnx, 984161 bytes, 16 tensors)

network_body.observation_encoder.processors.0.normalizer.running_mean f4 [36]
00000000: d029 aa3c 3161 783f 8958 133c f6eb 8f3d
00000010: fe31 b03c 38de 773f 920c 283c 1a53 a03d
00000020: 90f2 b43c f447 773f a405 443c e732 a63d
00000030: 88be d63c a8d8 733f 462c ae3c 7b40 f33d
00000040: e407 d33c b679 723f e9aa dd3c df4f 033e
00000050: b583 9d3d 7b35 503f 78cd e03d e0cd 993e
00000060: 7c42 813d d4f3 4c3f 4d8c 0b3e 37e6 a83e
00000070: 6227 6d3e 7c8c 0a3e c712 223f f162 433f
00000080: d3c4 443e 0374 f83d 72bf 2f3f 8bb9 4d3f
0.02077189 0.970233 0.008993276 0.07027428 0.021508213 0.96823454 0.010256903 0.0782835
0.022088319 0.96594167 0.011964235 0.081151776 0.0262139 0.95252466 0.021261346 0.11877533
0.025760598 0.94716966 0.027059035 0.12823437 0.07691137 0.81331605 0.1097669 0.30039883
0.06311509 0.8005955 0.13627739 0.3298814 0.23159555 0.13530153 0.633099 0.7632285
0.19215707 0.121315025 0.686515 0.8036124

network_body.observation_encoder.processors.1.normalizer.running_mean f4 [75]
00000000: a76e da3c 019e 86bc 04fd a9bb c665 0a3c
00000010: 98b5 dbbc 5341 c4bc 6db7 633f 202c 3542
00000020: b2e7 d33e 7a78 0440 b854 de3f 7ea7 353c
00000030: 429b f83a 6390 30bd 25cd 7d3f 6aac 073e
00000040: 7c03 9a3c ead6 1c39 2ad0 b43c cf83 753c
00000050: e4da 23bd e165 9fbd 66d6 7a3f 7835 393e
00000060: 0811 fcbb 9d3c e73c 2393 d03d f9b6 563c
00000070: 4b57 16bb 5b8c 8f3d 6430 7d3f 93de 153e
00000080: 9f17 4abd 162d 3e3a f79c 43bd 3508 a03c
00000090: c93f 873d b13a 9f3d d61e 7a3f 2987 3f3e
000000a0: 7623 0dbc b499 39bd 2e33 d3bd 4352 5f3d
000000b0: 7314 0e3c 6c7b edbd 9ed0 7b3f af65 1e3e
000000c0: 2dd6 103d 5ba0 5aba 404c b13d 8eea 053e
000000d0: 7e6d dcbd 78a7 5fbc 9adf 793f 4ccd 393e
000000e0: 3e7f a6bd 60ee 923d 5fc1 6ebd d320 973d
000000f0: 35c3 7ebc 9164 453d 1213 7d3f 2198 133e
00000100: 0689 9bbd 4170 013c 3726 02bc e0b2 283e
00000110: d8de 3d3d 7003 3b3c ef59 7a3f 39dd 283e
00000120: 92a5 d5bd 52ed 02bd 6fa5 72bc
0.026664091 -0.016432764 -0.0051876325 0.008447116 -0.02681999 -0.02395693 0.8895176 45.29309
0.41387707 2.0698533 1.7369604 0.0110872965 0.0018967169 -0.043106448 0.9914115 0.13249364
0.01880049 0.00014957381 0.022071917 0.014985039 -0.040003672 -0.07783104 0.97983396 0.18086803
-0.00769246 0.028227145 0.10184314 0.0131051475 -0.0022940214 0.070091926 0.98901963 0.14635687
-0.049338933 0.0007254643 -0.047757115 0.019535163 0.06603963 0.07774866 0.977033 0.18703903
-0.008614412 -0.0453126 -0.10312496 0.05452181 0.008671868 -0.115958065 0.983652 0.15468477
0.035360504 -0.0008339935 0.08657122 0.13077757 -0.107630715 -0.0136507675 0.97606814 0.18144721
-0.08129738 0.07174373 -0.05828988 0.073793076 -0.015549471 0.04819161 0.98857224 0.14413501
-0.075944945 0.007900299 -0.007943681 0.16474485 0.0463551 0.011414394 0.9779348 0.1649064
-0.10431971 -0.031964608 -0.01480995

network_body._body_endoder.seq_layers.0.weight f4 [256, 111]
00000000: f0f1 493d aa18 79ba 0157 2fbe 9b3b b1bd
00000010: a59e 13bd 91f3 063d 29d5 e63d e635 21be
00000020: 8486 75bd ff92 0f3e e866 943d b0c9 81bb
00000030: bfe2 80be 4427 31be bc28 213d e248 84bc
00000040: b8fb 203e 1297 a1bd 53c0 4cbc fb32 e73d
00000050: bb1f 0fbe b04e ad3d b0ed 883d 31fb 1ebd
00000060: fc4e b93c e520 7bbd 0142 bcbb f057 c13d
00000070: b123 7b3d f0b3 aabd c7d2 db3d 9667 15bd
00000080: 9c01 a13c db06 9dbd 65f5 9c3d fca9 653b
00000090: f1ac 9fbc 99bb 36be 0914 bd3b f2a5 9abd
000000a0: c66a 9b3d 3b63 4cbd 7457 fbbc e5c6 82bc
000000b0: cf07 513e 5553 523e 02cb d83c f77d 1b3e
000000c0: d49b 2fbd f199 afbc 7276 a0bc 1f95 09be
000000d0: 9f98 b2bd 6cb5 11be 0013 db3c 9f6e c3bd
000000e0: 030a 97bd e7a6 77bc 3dba 6e3e f42c fc3c
000000f0: f57d 1b3e 6720 d73c 3035 183e f2a1 863b
00000100: 7a7c ef3d 8625 1b3c 3d73 24bd ae02 2bbd
00000110: 2d8f 293d 1277 acbd 2972 5abd 75b5 8abd
00000120: d47d 07bb aea8 833d 6ddb 17be cef4 86bd
00000130: d414 023d 0d46 8c3d 62b1 e2bd 8adc 0abd
00000140: 51b7 483e b64f 80bd 7508 7bbc d213 863d
00000150: 6093 953d def6 31bd 1d5f a1bd 3f3c e03d
00000160: 45e1 4fbe 65c3 2a3e 6c13 4b3d 3a2d a7bd
00000170: 5653 e03c ab86 d03d 8356 213e 79fb 24be
00000180: 5fde bbba 6500 823d 881e 53bb 7298 e2bc
00000190: d5fd b9bd 54bf 33bc d0ac 683d 68e3 f9bd
000001a0: 7215 22be a7c3 28be d769 8e3d 2e06 a4bd
000001b0: dd43 063c 0884 e23c 2128 bebd aa77 36be
000001c0: f9ee 3f3e 47db b63d 6b9b 023e 23b4 833d
000001d0: bad5 08bd c417 64bd fbbf e43d 4b2f 003e
000001e0: d52a 293e 1c02 69be 43ac fc3d 6496 43bc
000001f0: 2948 af3c 08ee 24be 3af8 143e f163 843d
00000200: 7344 22be 2fb8 ad3c e3df 803d b929 b33d
00000210: e195 9abd 6f82 623d 33a5 b03e 8301 413e
00000220: ccd1 a23d ed3a 8dbd 0c85 813d 80b2 b83d
00000230: 9053 bfbc 5c68 1ebe 94f1 22be db01 833c
00000240: 1dd1 96bd d50e 8cbd 9b60 873d d50f 3abb
00000250: 7520 293d 9334 043d 2266 a83e 0a91 303d
00000260: 21ae 413d c30f b73d 0924 313e b117 db3d
00000270: d08f 89bd 41f0 8bbd a487 cfbd 2352 85bd
00000280: 1474 df3d 3b51 223c 4cf0 ddbd 0e3e b9bd
00000290: 093a ca3d 3280 ec3c 239a 78bd 0f12 b23d
000002a0: e178 4e3c 3e60 b93c 0479 7b3d cfff 483e
000002b0: bce2 ebbd a6d0 b4bd dd49 4c3e 383c a53c
000002c0: d5e6 f43d 3ab4 e43d ed20 693d af39 13be
000002d0: ef08 3abd 2cf4 88bc 05bc babc 7ce0 853d
000002e0: 7a57 cc3d 55c8 a93c 88d9 8a3d 442f 353c
000002f0: 3a19 ec3d c1de 72bd e1cd bf3c 3fa7 c0be
00000300: 6c1a 993c 0676 b23c 6c64 c2bd c906 a13d
00000310: 5cff d73d cc80 213e 782d 733d c3c6 d23d
00000320: 888b 0b3e 49a3 433c 0fea 0a3d 325f 85bd
00000330: 747f d83a 02ad 09be 0944 953c bd06 34be
00000340: 4f95 f1bd a776 4ebc 8424 d4bc c32d 7ebd
00000350: f571 ba3d d950 2bbd d7fb 543d 8845 babb
00000360: 1d3f 5f3c f84b 503d 87e5 b9bd c636 463e
00000370: c023 56be 7c77 e0bc 9e56 8f3d 01d2 043e
00000380: fd84 d03d 184e a63d 71d4 483e 11c0 18bc
00000390: f91a ccbd b30d 83bd f937 af3d 0e62 1a3b
000003a0: 4187 d13c 2978 36be b9f9 98bd cc6d 81bc
000003b0: 3844 7a3d 8183 ddbd 2fab 623d b439 3abe
000003c0: 6e2c c13d 2d10 853d c563 2e3b ff28 94bd
000003d0: c9e5 233e 7aa3 e13a a713 27be 91ff e33d
000003e0: 13e9 65bd 71a6 923d 879c 173e 9b6f 663d
000003f0: 4b3a cdbd 69ac 8d3d 72c4 093d 56a9 0cbd
0.049302995 -0.00095022714 -0.17123033 -0.08653947 -0.036039967 0.032947127 0.11271126 -0.15743217
-0.059942737 0.14020918 0.0724619 -0.0039608106 -0.25172994 -0.17300135 0.039345488 -0.016148034
0.15721023 -0.078901425 -0.012497026 0.11289021 -0.13976948 0.08462274 0.0668596 -0.038813774
0.02262067 -0.061310668 -0.005745173 0.09440601 0.061313335 -0.083351016 0.10733562 -0.03647574
0.019654088 -0.07667323 0.07663993 0.0035043946 -0.019491645 -0.17845 0.0057702106 -0.07551183
0.07588725 -0.04989932 -0.03068135 -0.01596398 0.20413135 0.20539601 0.02646399 0.1518477
-0.04287322 -0.02143571 -0.01958773 -0.13435791 -0.087205164 -0.14229363 0.026742458 -0.09542584
-0.073749565 -0.015115476 0.23313232 0.030783154 0.15184768 0.026260568 0.1486404 0.004108661
0.11693664 0.0094693955 -0.040148962 -0.041750602 0.04139631 -0.08421148 -0.053331528 -0.067728914
-0.0020674365 0.064286575 -0.14829798 -0.065896615 0.031758144 0.068492986 -0.11068989 -0.03390173
0.1960118 -0.06265204 -0.0153218405 0.06546749 0.073035 -0.04344832 -0.078794695 0.10948991
-0.20300777 0.166761 0.04957907 -0.08162923 0.027383488 0.10181936 0.15755658 -0.16111554
-0.001433324 0.063477315 -0.0032214243 -0.027660582 -0.09081618 -0.010970909 0.05680543 -0.122015774
-0.15828493 -0.16480885 0.06953781 -0.08008991 0.008194891 0.027650848 -0.09284998 -0.17819086
0.18743505 0.089285426 0.127546 0.06430843 -0.03340695 -0.055686727 0.1116943 0.12518041
0.16520245 -0.22754711 0.12337544 -0.011937711 0.021396713 -0.16106427 0.14547816 0.06464375
-0.15846424 0.02120599 0.06292703 0.08748192 -0.075481184 0.055300172 0.34501037 0.18848233
0.07950172 -0.06896005 0.06324205 0.09018421 -0.023355275 -0.15469497 -0.15912467 0.015992096
-0.07364104 -0.068387665 0.06610223 -0.0028390784 0.04129072 0.0322767 0.3289042 0.04310707
0.047285203 0.08938553 0.17298903 0.10697878 -0.06716883 -0.06832934 -0.10133293 -0.06509807
0.10910812 0.009907062 -0.108368486 -0.09045039 0.098743506 0.028869722 -0.06069387 0.08694851
0.012602062 0.0226289 0.061394706 0.19628833 -0.115178555 -0.08828859 0.19950052 0.020170316
0.1195809 0.11167188 0.056916166 -0.14377473 -0.045418676 -0.016717993 -0.022794733 0.065369576
0.09977622 0.020725409 0.06779772 0.011058632 0.11528249 -0.059294466 0.0234136 -0.376276
0.018689357 0.021784794 -0.0949181 0.07862622 0.10546753 0.15771788 0.059369534 0.10291817
0.13627446 0.011940786 0.033914622 -0.06512298 0.0016517476 -0.13444903 0.018220918 -0.17580695
-0.117960565 -0.012601531 -0.025896318 -0.06205536 0.09103767 -0.04182515 0.051997986 -0.0056845583
0.013625887 0.0508537 -0.09076982 0.19356832 -0.20912075 -0.027400725 0.06998943 0.12970735
0.101816155 0.08120364 0.1961229 -0.009323136 -0.09966082 -0.06399097 0.08555598 0.002355698
0.02557719 -0.17819275 -0.07469506 -0.015799426 0.061100215 -0.10816098 0.055339035 -0.18186074
0.094323024 0.06497226 0.002660976 -0.07234382 0.16005625 0.0017214858 -0.1631609 0.1113273
-0.05613048 0.071606524 0.14805804 0.05625878 -0.10020884 0.0691765 0.03363461 -0.03434118

network_body._body_endoder.seq_layers.0.bias f4 [256]
00000000: a106 b23c 93e7 973c 833d 043c 1e5a 003d
00000010: d8b6 4fbb a6ae c23c 0db1 83bb 0352 a73b
00000020: 35f2 9c3c f496 353c 7df9 173c 2913 443b
00000030: 0dbc 8d3b 3eb8 2d3c c46b aa3c fe5b e93b
00000040: 0109 743c 6680 023c 1739 c63c 3a81 b73c
00000050: fb5f eb3b 0f3e a73a 4de1 d53c 6e2e 773c
00000060: adf7 803c b81b 693c 8456 6ebc 0e00 c1ba
00000070: 4d33 243c b954 0c3c 7596 dd3c 5993 a03c
00000080: 0d9e dc3c ec5c 133c d3e1 b53c 3c90 1bbb
00000090: 37f9 443a bfbb 833c a603 303c a329 923c
000000a0: f93f 893c 51b9 6d3b ab41 0a3c 9ba0 ab3c
000000b0: 9856 a0bb b9f5 583b 434f 8b3b e50f 273c
000000c0: 4e49 963c 135a 263c 64b8 493c 0fab d73b
000000d0: f3d5 d83b 7fa1 0d3c a4df 343c 4ce4 c33c
000000e0: 412c 623c 1555 903c 1c5a 373a 5550 333c
000000f0: e32e 003c a8fb 183b 47a2 903c bc4f ab3b
00000100: 545d f23c d8ab 973c 7242 0a3c 4e59 6c3c
00000110: 120c 853c bcb4 c3b8 82a5 c23c d245 c83b
00000120: dd9e 983c 795e 56bc e366 923b 754d 2e3b
00000130: a59b 6a3c dd76 143c 6e69 153c 8f27 623c
00000140: 5994 e53b b0dd 983c 93cf e73b 2a9a 84bb
00000150: 6461 773b b68c d13b e656 013a 892f 583c
00000160: 3f87 d53b f35c 8c3b 2f6c ba3b 0e3b 3d3c
00000170: b69b 29bc 5464 ab3c 7d02 fd3b 5881 d03c
00000180: f1e4 963b 95e3 ad3c 4f7d 56ba 527f 753b
00000190: d8ff 453b 0e28 19bc 4559 763c ec81 223d
000001a0: 1d32 7e3c 6609 883c 7c1e 97ba b0a6 723c
000001b0: ea2d 08bb 21ac 9c3c 771e 503b 17e1 833c
000001c0: 2c1b 963c fe01 453c c7c0 89bb c4a7 f33b
000001d0: 4242 63bb 241b 863c cd0f 533c 3cb4 8f3c
000001e0: 7137 8b3c f89d a03c ea69 0d3c 4500 3abc
000001f0: 2b84 253c ef36 a13b 8af6 e03b 33f6 9cbb
00000200: a21d a73c 2da9 cd3c 753b a73c 5576 a4bb
00000210: 34ba a93c 9626 a33c 9475 123c d863 5e3c
00000220: c1c6 5fb9 8958 323a c0f5 873c 06fd a4bb
00000230: b442 573b 8ffb c1b9 ebce 6bbc 2d9e 6d3c
00000240: 2509 943c 6c44 9fbb b7d0 283a 45d1 ab3c
00000250: 69ec bb3c 7de9 8ebb 6d89 863c 1bcd 8f3c
00000260: 063d 8c3b dd45 bb3b 11e5 a73c 512b 533c
00000270: 6596 8e3c 7ba0 b2ba 3d14 023d c514 8a3b
00000280: 2089 79bc f846 ed3b 4642 0ebb bfaa 15bb
00000290: 0fd5 163c 2cee 7a3b 4883 2e3c 0a63 013a
000002a0: 5a60 903c 7983 5a3c 00a0 f53b e800 363c
000002b0: 6732 053d 295a 07bc c1df 263c 4e82 6abc
000002c0: 053a b03b 59c9 fa3b ca9a 323c 4fab af3b
000002d0: 6b67 ea3c c316 44bb 0637 593c 9110 313c
000002e0: 5af1 9f3c 5369 7eba 6deb 4a3c a6b4 593b
000002f0: 80a0 293c 60de 1e3b f229 2f3c e6d5 453c
00000300: dcf1 bebb 10a9 513c 22e7 4ebb 6450 de3b
00000310: 67dc c03c 85eb b83b 2698 773c 329e e43c
00000320: 6f74 033d 2172 ed3c c3c9 673b 5766 b23b
00000330: 260c 043c d5c4 253c 1a57 033d 4702 fd3c
00000340: a17b db3b 6b2e 0b3c 7f66 093c ccf2 03bc
00000350: 6ab5 f13b 2dbd 183c 2aab 973c ea7c 563c
00000360: 1df6 183c f4d9 623c f8fb a13c 7f38 743b
00000370: 1dfe bc3a c50f 4f3c 6a49 85bc f3d9 eaba
00000380: 7955 d33b 4dd4 303c 7bf6 1e3b f616 953c
00000390: 2122 f03b 25ed 003d 548b a73b 2395 153c
000003a0: 48d2 053c 7d21 f63c 53a5 b7bb 1a14 183c
000003b0: 13e8 de3b c9be ad3c 25cf 673c 37f6 613b
000003c0: 414e df3b 1ef2 60bb cf5c e53b b305 6a3c
000003d0: 99d5 403c fa87 1c3c 01e4 4b3c 9008 ab3c
000003e0: 48b5 c43c 83b7 9b3c 1e3b 773c 6269 c83b
000003f0: a093 943b 8f15 c3ba 9150 f13c f275 6dbb
0.021731677 0.01854304 0.008071306 0.031335942 -0.0031694677 0.02376492 -0.004018909 0.005106212
0.019158462 0.011083353 0.009275791 0.0029918647 0.004325396 0.010603009 0.02080334 0.007121562
0.014894725 0.007965183 0.024197144 0.022400487 0.0071830726 0.0012759584 0.026108408 0.015086753
0.015743101 0.0142278 -0.014546994 -0.0014724748 0.010021997 0.008565121 0.027049283 0.01960151
0.026930833 0.008994322 0.022202408 -0.0023737093 0.00075139425 0.016080735 0.010743057 0.01784212
0.016754137 0.0036273787 0.008438508 0.020950606 -0.0048931353 0.0033105446 0.004251392 0.010196661
0.018345501 0.010153311 0.012312029 0.006581671 0.0066173016 0.008644461 0.011039648 0.023912571
0.013804496 0.017618695 0.00069943233 0.010944446 0.007823679 0.0023343358 0.017655505 0.005228011
0.029585518 0.018514559 0.008438693 0.014425589 0.016241107 -9.331989e-05 0.02376056 0.006111839
0.01863044 -0.0130840475 0.0044678315 0.002659646 0.014319335 0.009061542 0.009119375 0.013803377
0.00700621 0.018660396 0.0070743053 -0.004046698 0.0037747258 0.006394948 0.00049339083 0.013194927
0.0065163667 0.0042835413 0.005689166 0.011549724 -0.010352066 0.020921864 0.007721244 0.0254523
0.0046049287 0.021226684 -0.00081821246 0.0037459922 0.003021231 -0.009347929 0.015035932 0.039674684
0.015514878 0.016606044 -0.0011529471 0.014810249 -0.002077932 0.019125046 0.003175644 0.016098542
0.018323503 0.012024401 -0.004203889 0.0074357707 -0.0034676944 0.016370364 0.012882185 0.017541997
0.01699421 0.019606575 0.008631209 -0.011352603 0.010102312 0.0049198787 0.0068653272 -0.0047900914
0.020399872 0.025105083 0.020414094 -0.005018989 0.020718671 0.01991586 0.008939166 0.013573609
-0.00021340979 0.0006803354 0.016596675 -0.0050350456 0.0032846155 -0.00036999254 -0.014392595 0.014503044
0.018070767 -0.0048604514 0.00064397923 0.02097381 0.022939878 -0.00436133 0.016422952 0.017553857
0.0042797355 0.0057151155 0.02049497 0.012888745 0.017405698 -0.0013628149 0.031757582 0.0042139017
-0.015230447 0.007241126 -0.0021706983 -0.0022837368 0.009206071 0.0038288934 0.010651417 0.00049357174
0.017624069 0.01333701 0.00749588 0.0111086145 0.03251877 -0.008261242 0.010185183 -0.014313294
0.00537801 0.007653397 0.010901162 0.0053609977 0.028613767 -0.0029920794 0.0132577475 0.010807172
0.019524265 -0.00097050256 0.012385231 0.0033219247 0.010353208 0.0024241433 0.010691153 0.012074923
-0.0058271717 0.012796655 -0.0031570871 0.0067844857 0.023542596 0.0056433105 0.015111959 0.027907465
0.03209346 0.028985085 0.0035368062 0.0054443288 0.008059537 0.010117729 0.03206549 0.030884875
0.0066980873 0.008494954 0.008386253 -0.008053493 0.0073763626 0.009322447 0.018514235 0.013091305
0.009336022 0.013845909 0.019773468 0.003726512 0.0014418993 0.012638037 -0.016270358 -0.0017917737
0.006449398 0.010792804 0.00242558 0.018199425 0.007328287 0.03147616 0.0051130448 0.009129795
0.008167811 0.030045265 -0.005604425 0.009282136 0.0068025677 0.021209138 0.014148508 0.003447903
0.0068147485 -0.0034324 0.006999589 0.014283585 0.011769676 0.009553904 0.012444497 0.020878106
0.024012223 0.019008404 0.015089778 0.0061160782 0.0045342 -0.0014883744 0.029457362 -0.003623363

network_body._body_endoder.seq_layers.2.weight f4 [256, 256]
00000000: 4a56 9ebb e5e2 e6bc 41c0 20bd da73 f73c
00000010: 1ef0 fb3c 9269 66bd 7064 313d b6d2 04be
00000020: a0bb 3bbc c978 9e3c e79c b4bd 0ea9 0b3b
00000030: 8346 cd3d e501 8abd 0d87 da3c 7f51 b6bc
00000040: 5f07 bcbc 0ecf d8bb 36e1 1ebb 4e2b a0bc
00000050: 85e7 443d 5987 8abd bb79 96bd 5032 da3c
00000060: 9911 9ebc 85a9 5dbd 2bba 5b3d 8b8b ae3c
00000070: 61ba dcbc 9163 84bd c749 6bbc 1d39 9bbd
00000080: 631f dbbd 489d 6cbd 4142 87bd 5da7 4d3b
00000090: 7c59 bdbc 4a67 e23a 3b75 213c dcc8 133d
000000a0: 1820 b0bd 8843 d93c 15d3 9abd 3a0b 44bd
000000b0: 2501 d5bc 885c 0fbd 16a2 bbbd 5f71 5d3d
000000c0: 8027 6c3c 067f c93c 8356 0abd 48a8 63bd
000000d0: 7975 59bd 233f 553d 306a d8bc 2891 b83c
000000e0: f508 4a3c c2f9 9bbc 76c4 adbd 5105 2b3c
000000f0: 873a 363c 461a 9c3d 5cc1 513d 3cf1 833d
00000100: 816c 9f3a abb8 7d3b f3cc 643d d5bb 783c
00000110: 3a8b b8bc c54e 103c f856 a9bd 9457 85bc
00000120: f760 0fbd 9be6 95bd f940 9ebd d659 23bc
00000130: 36ce 20bc af8e b83c e539 213e 97b5 85bd
00000140: a893 2b3c b54f e8bb 8e2a d73c 70ba 553d
00000150: 38cf f2bc 9060 e2bc 7f9c 7f3c 3250 8fbc
00000160: d54c 5abb 856a 95bd a6ab 51bb f7a0 96bd
00000170: 2262 49bc 9cb4 a3bd 85dd 5a3d 3e15 4bbd
00000180: 37f2 8bbd 819a 6bbd 0096 173c 0d23 0e3d
00000190: 7402 2b3d d21b 153d b0d0 f0bd 9cad 8ebd
000001a0: 7f8a e9bd 3c08 673d de29 853c 4c1a 1cbd
000001b0: 2491 063e 7054 65be 3f38 84bd 5e7a 40bd
000001c0: 72e7 48bd e53d fcbb d772 a43d 3dc2 f0ba
000001d0: 3fee 70bc 7a42 863d a803 e03d 4700 893d
000001e0: 355b 75bd a12d 8dbd 6d25 a7bc d7b8 be3d
000001f0: 86b6 183e e4f5 6f3d 515a ab3d 1279 d53c
00000200: c8e6 73bd 5fd3 08be 0951 913c 82ac 1fbe
00000210: 0179 6ebd 1dab b03d 42fe a8bc 0525 51bd
00000220: 3e2f 613d 89d6 253c 474e 9dbd 0a40 ebbc
00000230: c789 aabc 4fc3 4d3d 05ba af3d 488a 87bd
00000240: 3f3e 23bd 526e 65bd 31fe c3bd c2ae 673d
00000250: e4ba 7ebd 8de4 3bbc a60c 333d bf5c 86bc
00000260: 56b2 b03c 1c31 173d fd3f 07bd d46a c83c
00000270: 7bce a9bd 5f43 b23b 5d9e b1bd 3346 683c
00000280: 97e2 3e3c 5174 cabd 0f77 cbbd 515c ad3d
00000290: 42eb b9bb f626 033d 6b77 bf3d 0db8 a83c
000002a0: 0efd c2bc aee5 883d 01a5 d0bc fec0 833d
000002b0: facd 60bd ef0c 72bc 9055 78bd 21ed b43d
000002c0: 8d06 9c3d 3176 b4bc 99aa dabb c414 afbb
000002d0: b01e d5bc 88e3 9bba 2e6b 543d 8e4d 073d
000002e0: 8351 62bc 679e df3c 38b6 1ebd 8d92 2fbd
000002f0: 5905 c3bd 86ed d8bd 8437 b3bd 65e8 c3bc
00000300: a7f3 bf3c 0ab6 e4bc 21fb 42bd 8404 aebd
00000310: 0e32 133e 71b5 8f3d 5b08 173d ea3b ed3b
00000320: 1164 8cbd db8d 7b3d 93b7 07bd adaa 42bc
00000330: 32eb 3e3d f158 d83d 671a a0bd 681c 1cbe
00000340: 9be1 86bd 4a91 a9bc 9cb1 2e3e 6382 45bd
00000350: 492e fdbc 4493 fa3a 3ad7 9aba 7f47 55bd
00000360: f5b6 b93c b149 e3bc 05d4 6e3b 75e2 26bd
00000370: a6f0 12bd b9b1 95bb cce1 abbc 11ae 273d
00000380: 3d73 2abc c0a9 453d 564d f9bc 957a 98bd
00000390: d7f1 70bd 2d74 2b3d 6aa4 66bd 9bc0 2b3c
000003a0: f7ab 0c3d 42ee fe3c 8fdf 82bd 01de 27bd
000003b0: dd4c 713d cae5 e7ba 3de4 823d 9543 92bd
000003c0: e1de f8bc 0249 90bd 6f89 a83d d461 5dbd
000003d0: bb67 87bc be06 00bd 1e7e 68bb 6963 f03c
000003e0: bc1c db3c 9136 25bd 27ac 973c 7a51 123d
000003f0: 1028 3f3d be13 c73c 70fc f23b 36a6 b93d
-0.004832064 -0.028184364 -0.039245848 0.03020661 0.030754145 -0.056253023 0.043308675 -0.12971005
-0.0114583075 0.019344704 -0.08818989 0.0021310481 0.10023215 -0.067386426 0.026675725 -0.022255657
-0.022952734 -0.0066164797 -0.0024243123 -0.0195519 0.048072357 -0.06764097 -0.07347437 0.026635319
-0.0192955 -0.054116745 0.05364434 0.021306774 -0.026944341 -0.06464303 -0.014360852 -0.07579253
-0.10699346 -0.057767183 -0.06604434 0.0031380274 -0.023113959 0.0017273214 0.00985461 0.036080226
-0.085998714 0.02652146 -0.07559792 -0.04786227 -0.026001522 -0.035000354 -0.09161775 0.054063197
0.014413714 0.024596702 -0.03377391 -0.055580407 -0.053090546 0.052062165 -0.026417822 0.022530153
0.012331237 -0.019039992 -0.084847376 0.010438279 0.011122352 0.07622199 0.051209792 0.06442496
0.0012163074 0.0038714807 0.055859517 0.015181501 -0.022527326 0.008807843 -0.08268541 -0.016277112
-0.035004582 -0.07319375 -0.07727236 -0.009970149 -0.0098147895 0.022528974 0.15744741 -0.06528776
0.010472216 -0.00708958 0.026265409 0.052179754 -0.029639825 -0.027633935 0.015601276 -0.017494295
-0.0033309956 -0.072957076 -0.003199318 -0.0735492 -0.012291463 -0.07993433 0.053433914 -0.049580805
-0.06833308 -0.057520393 0.009252071 0.034701396 0.041750386 0.036403485 -0.11758554 -0.06966707
-0.11403369 0.056404337 0.016255315 -0.038111016 0.13141304 -0.22395492 -0.064560406 -0.0469917
-0.04904885 -0.007697808 0.080297165 -0.0018368434 -0.01470524 0.06555648 0.109381974 0.06689506
-0.059901435 -0.06893469 -0.020403588 0.09312599 0.14913377 0.05858411 0.08366836 0.026058707
-0.059546262 -0.13361882 0.017738836 -0.1559315 -0.058220867 0.08626387 -0.020629052 -0.051060695
0.054976694 0.01012195 -0.07680946 -0.02871706 -0.02081765 0.05023509 0.08580402 -0.06618172
-0.039854284 -0.056013413 -0.095699675 0.056563146 -0.06218995 -0.011468065 0.043713234 -0.016401647
0.021569412 0.03691207 -0.03302001 0.024465002 -0.08291336 0.00544016 -0.086727835 0.014176893
0.011650703 -0.09885467 -0.09934818 0.084648736 -0.005673797 0.032019578 0.09348949 0.020595575
-0.023802307 0.06684433 -0.025469305 0.06433295 -0.054883935 -0.014773591 -0.060628474 0.08834291
0.07618437 -0.022029014 -0.006673169 -0.0053430516 -0.02601561 -0.0011893371 0.051860027 0.033032946
-0.013813379 0.027297212 -0.038747996 -0.04286437 -0.09522504 -0.10592179 -0.08750823 -0.023914525
0.023431612 -0.027918834 -0.047602776 -0.08496955 0.14374563 0.07017029 0.036873203 0.0072398083
-0.06855024 0.06141458 -0.033134054 -0.011881513 0.04661102 0.10563839 -0.07817536 -0.15245211
-0.065859996 -0.020699162 0.1705994 -0.04822005 -0.03090586 0.0019117375 -0.001181341 -0.052070137
0.022670249 -0.0277451 0.0036442291 -0.04074331 -0.03587403 -0.0045683053 -0.020981692 0.040937487
-0.0104034515 0.04825759 -0.030432384 -0.07445256 -0.058824386 0.04185884 -0.05630914 0.010482932
0.034343686 0.03111947 -0.06390297 -0.040983204 0.058911193 -0.0017692384 0.06391189 -0.071417965
-0.030379714 -0.07045175 0.082293384 -0.054048374 -0.016528955 -0.03125643 -0.0035475562 0.029344277
0.0267471 -0.04033524 0.018514706 0.035722233 0.046669066 0.024301406 0.007415347 0.09064905

network_body._body_endoder.seq_layers.2.bias f4 [256]
00000000: d68b 3abc 2108 3ebc 8303 6fbb f97d 8d3c
00000010: e7ff cfba 0325 1b3c 002c f43b ec1a a63b
00000020: 73d5 78bb f6d3 88ba 4035 f7bb d7fb 5bbb
00000030: cf72 e63b 4ad9 35bc f1e8 79ba 514d 863b
00000040: a62f 34ba 66cb 0c3a 2830 663c c9d5 fa3b
00000050: d7b5 d3bb efd5 3d3c 81fa a23b a3cd dd3b
00000060: 9b2d e9ba 3e19 bf3a 0b16 003c f226 593c
00000070: 09d1 14bc 8fc2 c13c dd54 d03b 9d1d 153c
00000080: f7d1 5b3b fbdc 4b3c 00ef 623c 0990 293b
00000090: c250 983b 2385 2a3c 3532 ba3b 760d 0e3c
000000a0: fdf9 88ba 7bd9 fe3b 3d4a 043b c478 e73b
000000b0: 7b7c 6d3c 678f 25bb b00a 85bb b267 b93b
000000c0: 23ac ff3b b3ab c5bb 81e6 383c db2c 843c
000000d0: 4706 adba a406 0c3c 7724 54bb dea5 46bb
000000e0: 57c1 973b a676 813b 999c b5bb 57de a53a
000000f0: fd11 923b 04d6 86bb ef4d 663c 5c11 3c3c
00000100: e420 a3ba 4ffe b33c bf2b a73b d91a 86ba
00000110: e3b7 eb3b 25d1 ea3a 11a1 603c 958d a03c
00000120: 977c d4bb 7a64 413c 9a6b 883b bf16 e83b
00000130: 552a 3a3b 432f 823b 6a6d e03b b2e8 373c
00000140: 427a 7d3c 0c88 c9ba 77e6 40bb b668 f5bb
00000150: 3702 07bb 0def 153c 99a6 3b3c 7103 d53c
00000160: 5b0b 2e3c d200 3c3c 8db9 e0ba ba59 a83b
00000170: 1203 d33b 3411 32bb 6b9b c73b 7f9f 1b3c
00000180: 68fa 573c 2cc3 98ba 1bb0 af3b d37f 033c
00000190: 5ae7 833a 34e8 3a3b 2dd5 2c3c 067b 4ebb
000001a0: 086e 473c 88f0 8a3c c1f3 543c 6c04 463c
000001b0: b2af 823c aae3 353c 36f4 b03b 8996 643c
000001c0: 5a37 98b9 729d ba3c 7b92 743b 4d82 1fbb
000001d0: baba b73b 74fd 8f3b 4eb6 303b b047 cc3b
000001e0: ce45 403c b7df d13b 5706 12bc aaff d939
000001f0: 05d3 8eba 69ae 013d 8854 8abb 62e0 c63b
00000200: eed7 f93a cfda ae3a af05 623a 0885 1e3c
00000210: 5ab6 603c 4190 e5ba e9b7 c9bb 0dea febb
00000220: 9852 163c c939 603b 7ee6 5e3b c898 a4bb
00000230: 743d 933a 9898 aabb c2ce 6abc 3e06 153c
00000240: 53c5 cbba 0d57 b8ba 6849 f138 4fa1 503a
00000250: 6946 693c 1413 5bba 5070 e33b 9779 023a
00000260: dd5c a73b 5ceb 1c3a 4f9f 1ebb ab0a 223c
00000270: 87e2 56bb a22a 74bb 086b af3a a3dd 953a
00000280: ce16 a23b ca02 99b8 6812 0b3c 493d d53b
00000290: 5f28 d8ba 55cb 5e3b 1fca 813b 46f4 1b3c
000002a0: 2986 843c 9fff f4bb 805f 3e3c 5105 a83b
000002b0: 8625 923b 10d2 49bc 11ca 8f3b 2fca 7f3b
000002c0: 68f8 a83c 34e1 1e3c e6ab 293b 6aa4 223c
000002d0: f09b 0e3c f8ed 953b b502 0abc 8740 33bc
000002e0: ffe7 25bb 661c 26bb b71d 313b 4415 913b
000002f0: c2df 893b 4629 b23b 1cda 64bc 8949 843c
00000300: e382 b43a 350f 533c 9a3c 1a3c e06d 8cba
00000310: e345 84bb 967f 633c 9fc5 50bb 1fdd 4e3c
00000320: 73e7 1f3c cabc 09bc d12d 20bc 8f08 753b
00000330: 8f54 8939 872d 223c 66e1 413c c89b 083c
00000340: 7274 043c 371d 253c fbf8 91ba e61c 0bbc
00000350: 9a81 743c 0cb0 4aba e9dc f8bb 938d 5aba
00000360: ce9a 203b 0fe6 323c 5956 fe3b eb5f 40bb
00000370: 8940 7f3b 3d17 af3b cacd b93b 1c94 22ba
00000380: 0017 f2bb 1c4d a8b9 9c52 ad39 e500 773c
00000390: 96c6 823c 888a c73c 24cc cd3b 9970 5b3a
000003a0: 8979 1f3c da4b 8f3b d26d f6bb db06 ad3b
000003b0: 7272 343b 6c85 d93b c161 bc3b 8991 c6bb
000003c0: 4346 703c bc86 a93c c719 253c cab6 6bba
000003d0: 1663 31bb d2f7 983b 320c 00bc 6962 383c
000003e0: 3bff 6fbc 8567 43ba 6a97 00bc 0b85 7f3c
000003f0: 3575 9abb b217 013b c91c 1c3c fcb0 6ebc
-0.011385879 -0.011598618 -0.00364706 0.017271983 -0.0015869112 0.0094692735 0.0074515343 0.0050691273
-0.0037969023 -0.0010439146 -0.0075441897 -0.0033566856 0.007032729 -0.011099169 -0.0009533307 0.0040985723
-0.0006873555 0.0005370885 0.014049567 0.0076548797 -0.006460886 0.01158665 0.00497371 0.0067688986
-0.0017790081 0.0014579666 0.007817755 0.013253914 -0.009083041 0.023652343 0.0063577727 0.009101299
0.0033541897 0.012442823 0.013850927 0.0025873205 0.004648299 0.010407719 0.0056822547 0.0086702015
-0.0010450479 0.0077773905 0.002018585 0.007063957 0.0144950105 -0.0025262476 -0.004060112 0.0056581134
0.0078025027 -0.006032431 0.011285425 0.01613467 -0.0013200723 0.008546505 -0.0032370368 -0.0030311267
0.004631202 0.0039509116 -0.0055423495 0.0012654763 0.004457711 -0.004114868 0.014056667 0.011478748
-0.0012445715 0.02197185 0.0051016505 -0.001023139 0.007193552 0.0017915113 0.013710276 0.019598762
-0.006484579 0.011803741 0.0041632177 0.0070827897 0.002840658 0.003972919 0.0068489807 0.0112249125
0.015471043 -0.0015375628 -0.0029434243 -0.007489289 -0.0020600685 0.009151232 0.011453294 0.026002618
0.010622825 0.011474805 -0.0017145142 0.0051376494 0.006439575 -0.0027170898 0.0060915253 0.009498476
0.01318226 -0.0011654845 0.0053615696 0.008026081 0.0010063455 0.0028519752 0.010548872 -0.0031506433
0.01217223 0.016960397 0.012997569 0.012086015 0.015952919 0.011101643 0.005400206 0.013951906
-0.0002903294 0.022780154 0.0037318754 -0.002433914 0.0056069763 0.0043942276 0.002696413 0.0062341318
0.011735393 0.0064048427 -0.008912644 0.0004157995 -0.0010896629 0.03166047 -0.0042215027 0.006069229
0.0019061544 0.0013340357 0.0008622063 0.009675272 0.013715351 -0.0017514304 -0.006155957 -0.007779366
0.009174965 0.003421413 0.0034011896 -0.0050230958 0.0011233524 -0.005206179 -0.0143315215 0.009095727
-0.0015546478 -0.0014064029 0.000115054485 0.0007958607 0.0142379785 -0.000835703 0.006940879 0.0004977225
0.0051075057 0.0005985999 -0.0024203842 0.009890239 -0.003278883 -0.0037256856 0.0013383338 0.0011433851
0.004946566 -7.296128e-05 0.008488275 0.00650755 -0.0016491524 0.0033995707 0.0039608623 0.009518689
0.016177254 -0.0074767615 0.011619449 0.005127587 0.0044600395 -0.012318149 0.004388102 0.0039030423
0.020626262 0.009697247 0.0025889813 0.009926895 0.008704171 0.004575487 -0.008423497 -0.0109406775
-0.0025315282 -0.0025346517 0.0027025768 0.004427584 0.004207582 0.005437049 -0.013968017 0.016148346
0.0013771917 0.012882044 0.009413863 -0.0010713898 -0.0040366515 0.013885399 -0.0031856073 0.012625962
0.009759772 -0.008406827 -0.0097765485 0.0037389135 0.00026193677 0.00989855 0.011833524 0.008337922
0.008084403 0.010077766 -0.0011136824 -0.008490777 0.014923478 -0.00077319215 -0.007594694 -0.0008337136
0.0024506333 0.010919108 0.0077617583 -0.0029354047 0.0038948378 0.0053433464 0.005670284 -0.00062018796
-0.0073879957 -0.00032100908 0.0003305868 0.015075897 0.015963834 0.024358049 0.006280439 0.00083709654
0.009733566 0.004373056 -0.007520416 0.0052803583 0.0027534035 0.0066382196 0.005748958 -0.0060598296
0.014665189 0.02069413 0.010076947 -0.0008991776 -0.0027067116 0.0046682144 -0.007815408 0.011253932
-0.014648254 -0.0007454085 -0.0078486 0.015595685 -0.004713679 0.0019697961 0.009528347 -0.014568564

network_body._body_endoder.seq_layers.4.weight f4 [256, 256]
00000000: f554 30bb 14ac c83c 3522 a13d 5702 aabd
00000010: d07d 5bbd 676b 11bd 83c8 3d3d 3630 97bd
00000020: 1b19 5c3d bdaa 83bd bcda a73d 7d7f a7bd
00000030: eb12 a0bd ab59 a5bd bb77 ee3d b64a 32bd
00000040: 52ed 373d dd87 d1bc 3fe5 b4bc b0d7 e4bc
00000050: 8af2 09bd f3bf c33c ed91 48bc 082f 7abd
00000060: e2b2 303e 7f0e 34bc f05b 183d 8096 b0bd
00000070: c9c7 233d 612a a4bc 95c6 cc3d f56b 56bd
00000080: 0e56 ecbc d6c7 a8bc cf47 023e 9360 5b3d
00000090: e6fe 82bd 559b a23d d968 fcbd 16b7 e4bc
000000a0: cb0a 243d 4ada 97bd d776 8ebc a4ae 4a3d
000000b0: 7846 d63d 5ca1 5ebd 5360 9abb 3580 07bd
000000c0: d82e a23c d713 bc3a df6b 40bc 0630 d4bd
000000d0: d188 813d 4ddd 563d 6e73 a9bd 932e 613c
000000e0: 5475 dcbc c674 c0bd fa52 82bd b2d1 c83d
000000f0: ec89 dbbd 5f94 0bbe 0953 2bbd 8d11 7ebc
00000100: b1c5 a53d 7b63 af3d fbf6 083c 31f3 d5bb
00000110: 34c3 253d 262f 8c3c bd9a b9bc 985e 983d
00000120: 9991 ddbd 94b5 4b3d 869b 9fbc e2cd 1cbd
00000130: 45e4 96bd cf95 433c 08ed e4bc b04c 61bd
00000140: 9b57 d03d 439d 413d 9a5f 2cbe 4f6c 06bd
00000150: 9b2d 393c 8583 c2bd 22f0 57bc 8895 453d
00000160: 9094 70bc 17e7 44bd 2a3a a83a 9c45 28ba
00000170: 7ee7 0fbc 9225 be3d d62f 7abd a192 14bd
00000180: 006c 1b3d f797 2a3b 7d6e 2dbe 9105 8cbd
00000190: d34f 663d d9a0 bcbd 802a d8bd 5c42 cdbc
000001a0: fad9 87bc 67d0 7c3d e96f ad3d 4726 023e
000001b0: 1d40 6dbd 821a 093c 549b c03c 78bd 3dbd
000001c0: 41ae e23c 5a3c 2fbb 952a abbd c052 573c
000001d0: 4aa9 2c3c 9866 98bc 47e8 debc 297f fb3b
000001e0: 4513 55bc 5ec9 683d 212f f53a 4454 5fbd
000001f0: 7667 383e fa46 60bd ee5b 583d c497 ccbd
00000200: eaaa 663d 0c7b 053d 0985 563b a58c 093d
00000210: 7797 82bd bce7 333e b492 083d e857 993d
00000220: 7089 3f3c 9fea b13c 4fe6 d7bd 45b4 c3bc
00000230: 2a79 8f3a 0bcd 6abd 6e05 5e3d 1004 59bd
00000240: afe5 753b 8972 303c 438e fd3c 4c36 033d
00000250: f790 903c 00b6 1c3d c915 e2bc 49ff 503d
00000260: 6dc2 853d ea21 18bc 3bb9 4cbd 71a3 ecbd
00000270: 50b7 1ebd 7ef5 42bc e022 ad3d 1ac2 873d
00000280: 9179 04bd e67e a9bc f36c 60bd 12a4 99bd
00000290: 6e60 f6bc 00fe 79bd 1e75 1f3d 4a47 09bd
000002a0: 1cf9 80bd 0b9b 733d b3de ad3d 475c 4dbc
000002b0: b938 2d3d 7a3c 253e 1771 8b3d c7b9 52b8
000002c0: e41f ecbd a60d e7ba 0845 58bd 0cd4 403d
000002d0: b64c a93d 8c8d 973d d8db 3d3d aecf e03d
000002e0: d2f5 01bd 711a dabd 13a1 f4bd a2ec 633d
000002f0: 36ca 253d 95bc e03c 978e 453d 6e3a cdbc
00000300: 4f9c 93bc 0363 70bd ca9a 19be 2455 b13d
00000310: 19ba 5bbc c992 9bbd fc26 b23d 5a07 6abc
00000320: 97b3 cdbd 2b13 c2bd 0964 a43d 728c 943d
00000330: 88f3 e83c 6669 3e3d d2e2 a23c 9409 aa3d
00000340: f555 cbbd 3b82 87bc 6e14 c63c c634 fa3c
00000350: 7aa9 65bd e7fe 963d 457a d93d de57 2f3d
00000360: 07e3 ec3c 181d 0fbd 7918 70bd ab87 763b
00000370: 4a00 cb3c ae46 f3bc 37ed ddbd 9a13 28bd
00000380: 6ad8 863c 6ebf ad3d 5317 e2bd 680d c0bd
00000390: 84d2 463d 72ba 5bbc a8a8 20be d035 91bd
000003a0: 23f2 11bd de4a cfbd ac02 e5bc df2d 953d
000003b0: a3d4 bcbc 35fb cc3d 027b abba b584 a0bd
000003c0: 246e 493b 2d33 4f3d 2815 a03b 1b62 a93d
000003d0: da75 093d 67c5 07bd 61d0 49bc 878d dcbd
000003e0: d494 a7bc b55d 5cbd 3099 29bd 8f90 de3d
000003f0: 03b1 7fbd 7126 93bd ec4d ee3c 8d8e 593d
-0.0026906107 0.024496116 0.078678526 -0.083012275 -0.05358678 -0.035502817 0.0463338 -0.073822424
0.05373488 -0.0642905 0.08196017 -0.08178613 -0.07816108 -0.080737434 0.116439305 -0.04352828
0.04490406 -0.02557748 -0.02208197 -0.027934879 -0.03367857 0.02389524 -0.012241823 -0.06108001
0.17255738 -0.010989784 0.037197053 -0.086224556 0.03998545 -0.02003974 0.09998814 -0.05234905
-0.028849628 -0.020603102 0.12722705 0.053558897 -0.06396274 0.079397835 -0.123246856 -0.027919333
0.040049355 -0.07414682 -0.017390652 0.049482957 0.104626596 -0.054353103 -0.00471119 -0.033081252
0.019797727 0.0014349174 -0.0117444685 -0.10360722 0.06324924 0.052457143 -0.082739696 0.013744014
-0.026911415 -0.09397273 -0.06363483 0.09805621 -0.10719666 -0.13630818 -0.041827235 -0.015507114
0.08094347 0.08563896 0.008359666 -0.006529235 0.040469363 0.017112326 -0.022656793 0.07439917
-0.10818786 0.049733713 -0.019483339 -0.038282283 -0.07367758 0.011937573 -0.027945057 -0.055004776
0.101729594 0.047269117 -0.16833344 -0.032818135 0.011302377 -0.094977416 -0.013179811 0.048238307
-0.014683858 -0.048071947 0.0012834717 -0.0006419064 -0.008783219 0.0928451 -0.061080776 -0.03627265
0.037944794 0.002603052 -0.16936679 -0.06836999 0.05622847 -0.09210367 -0.10554981 -0.025056057
-0.016583432 0.061722185 0.08468611 0.12709914 -0.05792247 0.008368136 0.023511566 -0.04632327
0.027670981 -0.0026738853 -0.08357731 0.013142288 0.0105384085 -0.018603608 -0.027210368 0.007675071
-0.0130050825 0.056832664 0.0018706062 -0.05452372 0.18008217 -0.05475519 0.052822046 -0.099898845
0.05631534 0.03258805 0.0032733104 0.033581395 -0.06376546 0.17568868 0.033343032 0.0748747
0.0116904825 0.021718321 -0.10541975 -0.02388967 0.0010946144 -0.05732445 0.054204397 -0.05298239
0.0037520935 0.010769495 0.030951625 0.032034203 0.01764725 0.038259506 -0.027598279 0.05102471
0.065312244 -0.0092854295 -0.049981337 -0.115546115 -0.03874904 -0.01189935 0.084539175 0.06628819
-0.032342497 -0.020690393 -0.054791402 -0.07501997 -0.030075278 -0.06103325 0.03893005 -0.033515252
-0.06297514 0.059474032 0.08489742 -0.012534208 0.042290423 0.16136351 0.068086796 -5.024092e-05
-0.1152952 -0.0017627969 -0.05280021 0.047077224 0.082665846 0.07400045 0.046352237 0.10977112
-0.031728573 -0.106495745 -0.11944785 0.055645593 0.040476047 0.027433673 0.048231687 -0.025052276
-0.01801887 -0.058688175 -0.15000454 0.086588174 -0.013411068 -0.075963564 0.08698842 -0.014283979
-0.1004402 -0.09476312 0.08026893 0.0725335 0.028436437 0.046487235 0.019883547 0.08302608
-0.099285044 -0.01654159 0.024179664 0.030542742 -0.05606983 0.073728375 0.10619024 0.042808406
0.028916849 -0.034939855 -0.05861709 0.0037617486 0.024780411 -0.029696789 -0.10836261 -0.04103432
0.016460616 0.08483778 -0.11039605 -0.09377557 0.048540607 -0.013411151 -0.15689337 -0.07090342
-0.03563131 -0.10121702 -0.027955376 0.0728414 -0.023050612 0.100088514 -0.0013082924 -0.07837812
0.0030735815 0.050585914 0.0048853345 0.08270665 0.033559658 -0.033147242 -0.012317748 -0.10769182
-0.020456709 -0.053800303 -0.041405857 0.10867416 -0.06242467 -0.071850665 0.02908989 0.053114463

network_body._body_endoder.seq_layers.4.bias f4 [256]
00000000: 01de 14bc 263d 1e3c 683c b63b c678 043c
00000010: b1f5 c93b e4a7 f13b c7f6 f93b 310a 123b
00000020: 3667 d83b ef11 c33b 811c 4f3b 734e db3a
00000030: 9d19 8abb ef05 883b ffe7 8fbb eb27 b738
00000040: b3f5 df3b 1ce5 e13a c8dd ccba 5965 b03b
00000050: d796 e63a 9cdd e83b f7f8 b23b 871e 203b
00000060: 94e9 36bb 0f0d ecbb 0620 753b 9ffd 0f3b
00000070: 87fc 16bb e94f c33b 7091 043c 1311 f0bb
00000080: 2d21 b53b 2358 213c 1ff9 8f3b 8907 4c3c
00000090: 0c2d 05bc 9195 f73a 410d 0ebc 6617 813c
000000a0: dc14 54b9 edc5 79bb 93d8 73bb ea56 cc3b
000000b0: 008a ddbb 567e fb3b e27a 37ba 11d2 153a
000000c0: 9fa1 2d3c cd32 eabb 90f3 a5bb c440 0b3c
000000d0: 3c3a d13b 5268 9a3b 8c90 9ebb 3a2e a23a
000000e0: 9460 3abb e068 d7bb 3e39 4c3c f23a b9ba
000000f0: 34e0 963b db2f b03a 639e 013c 00cf 133c
00000100: 2e3b 80bb a864 5b3b 1ef5 40bb d39b 0b3b
00000110: 192e 39bc a991 ab3a 9df8 2f3c ae5e cbba
00000120: f35b ce3a 208b 373c 8ace daba 1582 ba3b
00000130: c4db a43b be53 c1bb 6546 213c 39b2 303b
00000140: f03f b0bb 4f4e 7c3c f413 d439 2a1c 42bc
00000150: bac7 0bba 452b f33b 12da 07bc 69d9 f93a
00000160: 51b4 1b3c f2bd 9f3b 2d2c 1bbb f697 053c
00000170: 7864 8b3b 6735 3f3b 81dc a53b 1a98 9eba
00000180: 7219 a0ba e5fe 913b 740e 183c d371 183c
00000190: 2f6c 44bb c5c1 f539 ae08 d43b b79e 6d3b
000001a0: 93b3 823b dd64 853b 8893 1d3c 9b6d 333a
000001b0: 5628 563b 7871 aaba 4a8c 353c 747b c23b
000001c0: dc50 1f3c e0a2 933b 2b51 403b 4bf9 a9bb
000001d0: 1c84 aebb 823f 833b f387 ce3b f38a af3a
000001e0: fcf5 e93b e791 0b3c 9702 30bc 42de bd3a
000001f0: 00fe 21bb 0e56 b23b 0eb3 133b 3973 dcbb
00000200: da84 d7bb 423a 9f3b eef3 cfbb f4c8 1f3b
00000210: 2a05 23bc ede9 e43b 545f e43b dc68 dc3b
00000220: 1e0d 98bb b047 9a3c fd63 133b cad8 253a
00000230: d438 e73b 0c31 dbbb efb3 893a 0402 353b
00000240: 6bbc 323c 7b15 223b 4406 1b3b ce8c 543b
00000250: 1bb6 433c 4568 c8bb 01be 8bba 7b54 443b
00000260: 2ed8 563c a895 403b e48f ff39 a410 133b
00000270: 5bc1 82bb 3385 9d3b 44e1 c239 8c37 503c
00000280: 6bd9 2f3c 4111 20ba e1be 9e3b 89ce a93b
00000290: e04a c3b9 9ecf 0f3c 3d30 22bc 2bde a03a
000002a0: 47ab 2fbb a099 7639 58d8 3d3a bea1 1bbb
000002b0: a161 79ba f4cf 863b 6752 eabb f831 fbbb
000002c0: b398 e33b cf6e 9c3b 646f a03b 1027 1ebb
000002d0: a744 80bb 0447 dbba acc5 9d38 3529 a03a
000002e0: 6eb1 72bb 3158 d2b9 7d8c 8fbb ab5c aaba
000002f0: 934c 633b c1ad 09bb 1400 b53b 2e28 1dbb
00000300: 60d0 c83b a012 3b3c 2de6 cfba 3e25 eebb
00000310: 15df b9ba 131c 0eba 5a0c 0f3b b4e1 03ba
00000320: a408 32bb 9a30 e8ba af44 da3b cf7a fdbb
00000330: 8858 72bb 3631 213a 692c 053b 5f8b 423c
00000340: 7065 7ebb e319 ca3b ac08 e93a bc6b d63b
00000350: 0c50 453b c716 89b9 c362 263b 7233 6d3b
00000360: 8dab 543b fa81 02bb f322 0c3c 72c7 403c
00000370: ee34 013c 0397 ffba 6ef0 afb8 5ff5 2d3c
00000380: 3beb f73a fc6a 963a bac3 a13b 2f2d 1f3b
00000390: cbda 483c d15a b8bb 22c9 fb3b e317 20bb
000003a0: e7c6 0c3c 18ea 2fbb 9aef 7dbb 6c11 5a3c
000003b0: 9fd1 b53b 136c 01bb a494 f4ba 1707 e83b
000003c0: 69f8 a03a 4d03 4f3b f0cc 13ba ee05 cb3b
000003d0: 0cbd 6bbb 6191 023c 1e1a 4d3b e96c 5c3c
000003e0: eb81 c43b 34c2 303b 4019 353b b2f4 d7bb
000003f0: 6011 f93a 9637 7a3b 7100 423c c0eb f53b
-0.009086133 0.009658134 0.0055614 0.008085435 0.006163322 0.0073747505 0.007628295 0.0022283907
0.0066041006 0.0059530656 0.0031602683 0.0016731754 -0.004214479 0.004151098 -0.0043916698 8.733555e-05
0.0068347096 0.0017234418 -0.0015630061 0.0053831753 0.0017592561 0.007106496 0.005461808 0.0024432258
-0.002791022 -0.007203705 0.003740312 0.0021971238 -0.0023038702 0.005960454 0.008091316 -0.007326254
0.0055276365 0.009847674 0.004393711 0.012452968 -0.008128416 0.0018889179 -0.008670152 0.015758228
-0.00020225666 -0.0038112358 -0.0037207946 0.006235947 -0.0067608356 0.0076749725 -0.0006999207 0.0005715201
0.0105976155 -0.007147169 -0.0050644353 0.008499328 0.006385116 0.004712143 -0.0048390087 0.0012373396
-0.0028438913 -0.0065737814 0.0124648195 -0.0014131947 0.004604364 0.0013441996 0.0079112975 0.009021521
-0.003913305 0.0033476744 -0.0029442976 0.0021302595 -0.011302494 0.0013089675 0.010740426 -0.0015515888
0.0015743956 0.011202604 -0.0016693634 0.0056917765 0.005031081 -0.0058998754 0.0098434435 0.0026961698
-0.0053787157 0.01539953 0.00040450657 -0.011847535 -0.0005332191 0.0074209296 -0.008291738 0.0019061986
0.00950344 0.004874938 -0.0023677454 0.008153906 0.00425392 0.0029176117 0.0050616865 -0.0012099773
-0.0012214615 0.0044554346 0.00928079 0.009304482 -0.002997171 0.0004687441 0.0064707613 0.0036257931
0.003988692 0.0040708617 0.009617694 0.00068446406 0.003267785 -0.0013003787 0.011080811 0.005935127
0.009723868 0.0045055 0.0029345255 -0.0051871887 -0.0053258073 0.0040053735 0.0063028275 0.001339285
0.0071399193 0.008518673 -0.010742805 0.0014485794 -0.0024718046 0.0054423874 0.0022537145 -0.006727603
-0.0065771164 0.00485924 -0.0063462174 0.0024381252 -0.009949962 0.006985894 0.006969372 0.0067263674
-0.0046402356 0.018833011 0.0022490018 0.00063265546 0.007056335 -0.0066891965 0.0010505895 0.002761961
0.01090918 0.0024732042 0.0023654858 0.003243256 0.011945273 -0.0061159455 -0.0010661484 0.002995758
0.013113065 0.0029386077 0.00048744597 0.0022440339 -0.003990335 0.0048071383 0.000371704 0.012708556
0.010732989 -0.00061060867 0.004844532 0.0051820916 -0.00037249085 0.008777527 -0.009899196 0.0012273242
-0.002680497 0.00023517618 0.00072420156 -0.002374753 -0.0009513144 0.0041141454 -0.0071509364 -0.007665869
0.0069456934 0.0047739516 0.0048960913 -0.002413217 -0.003914434 -0.0016729538 7.523163e-05 0.0012219312
-0.0037032026 -0.0004012003 -0.004380761 -0.0012997588 0.0034683093 -0.0021008106 0.005523691 -0.0023980248
0.006128356 0.011418015 -0.0015861444 -0.007267623 -0.0014180864 -0.00054210535 0.002182743 -0.0005030886
-0.0027165795 -0.001771468 0.0066610198 -0.007735587 -0.0036979038 0.00061489956 0.002032066 0.011874049
-0.0038817786 0.0061676367 0.0017779074 0.0065436047 0.0030107526 -0.00026147647 0.0025388456 0.0036193994
0.0032450885 -0.0019913898 0.008553254 0.0117663015 0.007886155 -0.0019499961 -8.389434e-05 0.010617583
0.0018914709 0.0011475976 0.0049366625 0.0024288406 0.012259196 -0.0056260605 0.007683889 -0.00244283
0.008592344 -0.0026842412 -0.003874755 0.013309818 0.0055486704 -0.0019748255 -0.0018660021 0.0070809233
0.0012281063 0.003158766 -0.0005638143 0.0061957752 -0.0035970835 0.007969231 0.0031296085 0.013453701
0.0059969327 0.0026971223 0.0027633458 -0.0065904493 0.001900237 0.0038180104 0.011840926 0.00750491

action_model._continuous_distribution.log_sigma f4 [1, 12]
00000000: 7f1c c03d 7b72 cd3d edef 553d 935b 793d
00000010: 6c33 9c3d 9c3e 343d 1473 333d f20e 8a3d
00000020: 1b04 173d fb5f d53c 45e6 563d c227 043d
0.09380435 0.10031601 0.052230764 0.060878348 0.076269954 0.04400502 0.04381092 0.06741132
0.03686915 0.026046744 0.052465696 0.03226448

action_model._continuous_distribution.mu.weight f4 [12, 64]
00000000: 1d7d 85bd 55e8 cebc 21c3 673b 4bf8 a13c
00000010: 62b7 84bd 8c14 81bd cd4d 12bd 501b fd3c
00000020: 2a83 4ebd 8e2b 01bd 97bb 093b 7804 64bd
00000030: ca14 2a3d 4495 82bb 0f97 853d 0858 1c3d
00000040: 392b 3ebc 8ee1 123d 8429 723d b4a2 22bd
00000050: dce8 403d 32b3 1f3d 15cb b33c cd3f 683a
00000060: 7cf5 21bc c1b8 783d 49a0 c03b d6ec 6abd
00000070: b73c 58bc c399 263d ab14 993a db93 febc
00000080: 4df8 013a d164 7f3d c46b df3c c92d 88bb
00000090: 1020 103c bf93 a43c eb07 9cbc cf24 3d3d
000000a0: e21b ea3b e63c c83b 77fd 7cbc c3ca 983d
000000b0: 61ad 03bc da9d db3c f0ec eebc 5dc1 6fba
000000c0: 66be 923c d683 403d 2af8 06bd 9803 29bc
000000d0: be80 6ebb 5a62 563d 1436 1fbd d1a5 713c
000000e0: 6520 c53c 2ac1 02bd 5985 713c ed9d e63c
000000f0: a7d4 ccbc c38a b43c 90d1 babd 4974 583d
00000100: c9a3 aabc 0019 3f3d a4bb 5c3c 3cb4 b53c
00000110: 685f 0ebd 55e2 60bc 14ac e4bc a5b8 053c
00000120: 8d20 333c 6f19 7ebc 1aac 033d 3e47 103c
00000130: 944e 203d 9b46 02bd 7e2e 973d eb72 463d
00000140: cfdd 1ebd 8aa2 6fbd 6678 63ba 7ea7 3fbd
00000150: 567b 3b3d 57ca 603b 00ff 733c f616 6d3c
00000160: 5886 85bc a54a 6b3d f28c 583d 9c1e 603c
00000170: 257d ac3d d8eb 603d b220 283d ca12 04bd
00000180: b7b5 073d be95 1f3d 0c39 bf3c b70f a5bc
00000190: b26e ba3c dd76 3e3b ce31 aebb 51ce c93c
000001a0: 4e56 50bd fdb2 af3b 0233 8e3a 32db f33c
000001b0: b68e ad3c f53a 493c 4cd0 0cbd 0518 74bb
000001c0: 2779 0c3c 232f b33a a574 52bd 3570 d2bb
000001d0: 884b d2b9 c82c a63d ba54 2a3d b454 12bd
000001e0: fb4f 5e3d e1f7 3fbd 18d0 35bd eab8 0e3d
000001f0: ba1d 343c c298 ed3b f51d 78bc ef53 a83c
00000200: b2f1 84bd f3f9 003c 49ce 4bbd a1cf ab3d
00000210: 6f72 43bd f0b9 213d 3e2f 53bd 5d18 f73c
00000220: e245 473d 16ea adbc 421b 6b3d d907 6ebc
00000230: d75c b63c 016d 65bc 4803 74bc 0eed 0a3d
00000240: 7abb 3bbd 0591 1f3d 34b4 e93c 6b48 803c
00000250: 9674 ec3a 4f00 4abc 3bcb a03d c69f 7f3d
00000260: dba6 0dbd c818 67bc b357 1d3d 26bf 8bbc
00000270: fd4b b6bc ffe5 42bc f8f0 0d3b d4d1 6bbb
00000280: 272d 1dbc bfdd b93c b13f 103d b0d0 0cbd
00000290: 8858 713d 32d5 a63b 15b5 403d d627 983b
000002a0: 0ba8 23bd d9c4 95bc fcc4 003d 52cb 2d3d
000002b0: 19eb 0dbd 9096 9abc 9b29 eb3a b668 2bbc
000002c0: 2994 ae3c 1d14 e63a 1c49 f0bc 9233 133c
000002d0: 2473 5f3c 6799 8f3a 2c56 edbb 1e7d 21bb
000002e0: 58a3 0a3d f58f 603c 3242 393c 4a5e 203d
000002f0: c4aa cf3c 8744 b1bd 96fd d3ba 1930 a2bc
00000300: 8e9d 223d 9716 f0bc 24ea f63c a0de 1f3d
00000310: e9eb a43d f4e6 aebc 4927 393d 555a edbc
00000320: 5ef3 98bd f84a b8bc 6b47 58bb b994 0b3d
00000330: fcef edba 463d 283d 7893 253d 9503 18bd
00000340: dd0c bd3b 5b16 9cbc ed91 83bd ac27 ea3c
00000350: 34b4 59bd 6b1e 67bb af01 d3bc cdae 89bd
00000360: 7e0f d1bb ba76 4c3d dfe5 43bd 49d6 9e3c
00000370: 8e39 f2bc d5af 0dbd 056d 11bd 2b9e 19bb
00000380: 75a4 633d 4d47 02bd 1f6c bbbd a27c 803d
00000390: bed1 4fbc 52bc 043d bd88 b3bc 83c4 eebc
000003a0: cc0f 00bc 32c3 13bd 6384 7cbc 1181 07ba
000003b0: d7d0 5a3c 4c1c 66bd 66e2 8f3d e4b0 493c
000003c0: a69a 2dbc f075 28bc 2f4e 373c 1d27 1d3d
000003d0: d2db 44bd e831 97bb 7ac0 023d 142a 123d
000003e0: 977c 8cbb 4c57 83bd e82d 1ebc 968a 41bd
000003f0: c4ee 10bd e086 88bc b1a9 6a3c 1e06 0cbd
-0.06518004 -0.025257269 0.0035364109 0.019771716 -0.0648029 -0.06302747 -0.035718728 0.030896813
-0.050418057 -0.031535678 0.0021016353 -0.055668324 0.041523732 -0.003985079 0.06522953 0.03816989
-0.011606985 0.035859637 0.059121624 -0.039705947 0.047097072 0.038989253 0.021947423 0.0008859605
-0.009885188 0.06072307 0.0058784825 -0.05735477 -0.013198069 0.040673982 0.0011679133 -0.031076362
0.0004957959 0.062352005 0.027273066 -0.0041558486 0.008796707 0.020089982 -0.019046744 0.04617768
0.007144437 0.0061107753 -0.01544129 0.07460549 -0.008036942 0.026808668 -0.029165715 -0.000914594
0.017913055 0.04700073 -0.03295151 -0.010315798 -0.0036392654 0.05233989 -0.038869932 0.014749006
0.024063298 -0.031922497 0.014741265 0.028151477 -0.025003744 0.022038823 -0.09122002 0.052845273
-0.020830052 0.0466547 0.013472471 0.022180669 -0.034758955 -0.013725837 -0.027914084 0.0081616985
0.010933054 -0.0155089935 0.03214655 0.008806048 0.039137438 -0.031805616 0.073819146 0.048449438
-0.038785752 -0.05850462 -0.00086773036 -0.046790592 0.04577192 0.0034300291 0.01489234 0.014470806
-0.016299412 0.057444233 0.05286879 0.013679173 0.08422307 0.054912418 0.041046806 -0.03224448
0.03313228 0.038961165 0.023342632 -0.020149095 0.022757862 0.0029062547 -0.005315996 0.024634512
-0.050863557 0.0053619132 0.0010848942 0.029767606 0.021186214 0.012282123 -0.034378335 -0.0037245762
0.008573807 0.0013670664 -0.051380772 -0.0064220675 -0.00040110596 0.0811401 0.041584708 -0.03572531
0.054275494 -0.046867255 -0.044387907 0.034844317 0.0109934155 0.007250876 -0.015143861 0.020547835
-0.06491412 0.007872093 -0.049757276 0.083892114 -0.047716554 0.039483964 -0.051558726 0.030162985
0.04865063 -0.021229785 0.057399042 -0.014528238 0.022261066 -0.014003039 -0.01489336 0.03391748
-0.04583309 0.03895666 0.02852831 0.015659532 0.0018040116 -0.012329175 0.07851263 0.06240823
-0.034582954 -0.014105029 0.038413715 -0.01705892 -0.02225303 -0.011895656 0.002165852 -0.0035983222
-0.009593285 0.022688745 0.03521699 -0.034378707 0.05892232 0.005091333 0.047047693 0.0046434207
-0.03995518 -0.01828234 0.03143786 0.04243023 -0.034648035 -0.018870622 0.0017941477 -0.010461977
0.021310883 0.0017553602 -0.029331736 0.008984463 0.0136382915 0.0010955752 -0.0072429385 -0.0024641226
0.033847183 0.013706197 0.011307286 0.03915242 0.025349982 -0.08655649 -0.0016173597 -0.019798325
0.039701037 -0.029307647 0.030140944 0.03903067 0.08052809 -0.021350361 0.04520348 -0.028973738
-0.074682936 -0.022496685 -0.0033001553 0.03407738 -0.0018153186 0.04107406 0.04042384 -0.03711279
0.0057693557 -0.019053629 -0.064243175 0.02858337 -0.05315037 -0.0035265933 -0.025757639 -0.06722794
-0.0063800206 0.049917914 -0.047826644 0.019389288 -0.02956846 -0.034591515 -0.03550436 -0.0023440223
0.05557676 -0.03180628 -0.09151482 0.06273772 -0.012684284 0.03240616 -0.021915788 -0.029146438
-0.007816266 -0.036074825 -0.015412423 -0.00051690737 0.013355455 -0.05617933 0.07025604 0.01231024
-0.010595953 -0.010282025 0.011188074 0.03836738 -0.0480612 -0.0046141036 0.03192184 0.03568466
-0.004287313 -0.06413135 -0.0096545 -0.047251306 -0.035383955 -0.016665876 0.014322684 -0.03418552

action_model._continuous_distribution.mu.bias f4 [12]
00000000: f669 983c 287e a03c e236 bb3c f099 bdbc
00000010: 70d5 023d 1c0e 90bc 8458 d33c c844 cfba
00000020: 19a8 e3bc 641a d3bb c7bd 2b3c f62e 67bb
0.018605214 0.019591406 0.022853319 -0.023144692 0.03194183 -0.017584853 0.025799043 -0.0015813345
-0.027790116 -0.006442355 0.010482258 -0.0035275794

onnx::Div_106 f4 [36]
00000000: 190b 123e 2505 2e3e 4158 c13d d46d ca3d
00000010: ab8d 143e 8f95 333e 8659 ce3d 195c d83d
00000020: b67f 163e 50bb 393e 92ab de3d 04c3 e93d
00000030: 279b 233e 03c2 593e 9bb7 133e 4852 183e
00000040: 1b39 223e 810f 653e 7a26 263e 8d36 2c3e
00000050: 476c 883e 2081 c73e ff0c a03e e593 8f3e
00000060: a701 793e 4192 cc3e a2a8 af3e b2e9 9a3e
00000070: f8fc d73e a720 af3e 59c3 f63e 615d a93e
00000080: e3b9 c93e 282a a73e 9785 ed3e ecd1 9f3e
0.14262046 0.1699415 0.09440661 0.09884229 0.14507167 0.17537521 0.10075669 0.10564441
0.14697155 0.1813786 0.10872568 0.114141494 0.15977155 0.21265416 0.14425509 0.14875138
0.15842097 0.22369196 0.16225615 0.16817684 0.2664511 0.38965702 0.31259915 0.28042522
0.24317037 0.39955333 0.34308344 0.3025642 0.42185187 0.342046 0.48195913 0.33079055
0.39399633 0.3264935 0.46390983 0.31214845
