results/Robot_Run_06_19/RobotAgent/RobotAgent-5499145.onnx (onnx, 984161 bytes, 16 tensors)

network_body.observation_encoder.processors.0.normalizer.running_mean f4 [36]
000000 6f b7 13 3d cd 76 72 3f 9b a5 89 3c a1 c4 a6 3d
       0.036063608 0.94712526 0.0168026 0.08142973
000010 78 cb 11 3d f5 37 72 3f 23 5e 95 3c c5 0c b8 3d
       0.035594434 0.94616634 0.018233364 0.089868106
000020 42 8b 1f 3d 06 a7 70 3f 4f d4 ab 3c da ab bf 3d
       0.038951166 0.9400486 0.02097526 0.0935895
000030 7e d1 20 3d b0 d5 6d 3f 79 cf 01 3d 97 2b 08 3e
       0.039262287 0.92904186 0.031692002 0.13297878
000040 3d a9 37 3d 81 4f 6a 3f d4 37 23 3d 6c 0a 13 3e
       0.044839133 0.91527563 0.039848164 0.14359444
000050 08 82 ae 3d ec 20 4a 3f af 39 00 3e d6 ec a0 3e
       0.08520895 0.78956485 0.12522005 0.3143069
000060 db f1 a7 3d a9 4c 44 3f e8 cb 1a 3e 27 a6 ae 3e
       0.08200427 0.76679474 0.15116847 0.3411114
000070 b0 2f 65 3e 36 b3 19 3e d1 46 20 3f 73 fc 41 3f
       0.22381473 0.1500977 0.6260806 0.7577583
000080 07 3d 4d 3e 20 b6 03 3e 0f c1 2b 3f db 05 4a 3f
       0.20042811 0.12862444 0.6709146 0.78915185

network_body.observation_encoder.processors.1.normalizer.running_mean f4 [75]
000000 09 47 d5 3c 0d 44 5e bc 88 73 0e bc ec c8 d2 3b
       0.026034849 -0.013566029 -0.008694537 0.006432643
000010 98 39 9a bc e5 3c ca bc c9 0a 65 3f 2e 47 34 42
       -0.018826291 -0.02468724 0.8946958 45.06951
000020 d3 67 d0 3e 26 e2 1e 40 bb 34 de 3f fd 21 bb 3c
       0.40704212 2.482553 1.7359842 0.022843355
000030 4f 21 61 3b f8 86 4e bd 49 64 7d 3f 21 56 0d 3e
       0.003435213 -0.050421685 0.9898115 0.13802387
000040 9c 6f 81 3c 42 fb 0e 39 4d df 08 3d d2 87 e5 3c
       0.01580029 0.00013635776 0.03341608 0.028018866
000050 8f 84 39 bd fe e5 b0 bd 8f 2c 7a 3f c2 bc 41 3e
       -0.045292433 -0.086376175 0.9772424 0.18919662
000060 c7 87 75 bc 4f 8d 08 3d 16 6d e6 3d 51 cd d7 3c
       -0.014985985 0.033337887 0.11251275 0.02634302
000070 15 ad 70 bb 8f ef 96 3d 08 cd 7c 3f 92 f6 1b 3e
       -0.0036724259 0.07369911 0.9875035 0.15230778
000080 b3 5f 77 bd 31 a1 3e 3a 01 1d 2e bd e8 42 0a 3d
       -0.060394 0.0007271944 -0.04250813 0.033755213
000090 c0 f2 89 3d 59 82 b1 3d 39 74 79 3f a5 12 48 3e
       0.06735754 0.0866744 0.97442967 0.19538362
0000a0 07 a0 8a bc 4a 83 44 bd f3 ad e9 bd 78 53 53 3d
       -0.01692201 -0.04797677 -0.11410131 0.051593274
0000b0 db 9c 0d 3c 78 47 f9 bd ac 8f 7b 3f 15 2b 22 3e
       0.008643354 -0.12171835 0.982661 0.15836747
0000c0 e8 e6 25 3d 7d a8 5f ba 7f fc b6 3d 64 bd 04 3e
       0.040503412 -0.00085318816 0.089348786 0.12962872
0000d0 55 a1 e8 bd f4 b2 5e bc 97 89 79 3f 6c 9e 3d 3e
       -0.11358897 -0.01359247 0.9747557 0.18517464
0000e0 50 be a4 bd 5d f7 9a 3d e7 90 72 bd 1a c1 a0 3d
       -0.08044112 0.07566712 -0.05922022 0.07849331
0000f0 01 08 86 bc 9a a3 4c 3d 07 e0 7c 3f e7 44 16 3e
       -0.016361238 0.04996071 0.9877934 0.14674722
000100 2d 6e a3 bd c3 92 05 3c c8 d9 c8 bb 8d c6 2e 3e
       -0.07979999 0.0081526665 -0.006129477 0.17067929
000110 45 9b 45 3d 89 39 43 3c b0 ef 79 3f e3 dd 2c 3e
       0.04824378 0.011915573 0.9763136 0.16881518
000120 77 4f dd bd 59 53 09 bd 1e 0e 69 bc
       -0.10806172 -0.033526752 -0.014224557

network_body._body_endoder.seq_layers.0.weight f4 [256, 111]
000000 d4 8c 49 3d 60 41 5b 39 1c a6 32 be 1f 8a b6 bd
       0.04920657 0.00020909822 -0.17446178 -0.08913063
000010 03 e6 13 bd 42 d3 08 3d 16 bb e3 3d a3 6b 23 be
       -0.03610803 0.033404596 0.11119668 -0.15959029
000020 01 5f 73 bd 8f d1 0f 3e e7 0e 90 3d ee 1e ab bb
       -0.059416775 0.14044784 0.070340924 -0.005222193
000030 01 0b 81 be 49 90 2f be 91 87 1a 3d f9 22 90 bc
       -0.25203708 -0.17144884 0.037726942 -0.017594801
000040 90 ed 22 3e de a4 a3 bd 75 8e 54 bc 94 dc e6 3d
       0.15910935 -0.0799043 -0.0129734175 0.11272541
000050 3c 5d 12 be 42 4f b1 3d e5 be 87 3d 0f 0a 23 bd
       -0.14293379 0.08657695 0.06628207 -0.039804514
000060 e4 96 cc 3c 64 6e 80 bd 62 89 b8 bb f7 c3 c1 3d
       0.024974294 -0.06271055 -0.0056316117 0.094612055
000070 c5 cf 78 3d eb 72 a7 bd 62 9e d9 3d 4a ea 1c bd
       0.06074502 -0.08176216 0.10625912 -0.038309373
000080 f9 03 95 3c f2 fe 9d bd 37 c5 9f 3d 04 f6 a1 3b
       0.01819037 -0.077146426 0.078012876 0.0049426574
000090 03 b3 9c bc 7a c4 3a be 59 62 00 3b db 5a a0 bd
       -0.019128328 -0.18239012 0.001958987 -0.07829829
0000a0 2c f6 9a 3d a0 2d 41 bd 2f 65 fe bc ee b7 88 bc
       0.07566485 -0.047162652 -0.031054107 -0.016689267
0000b0 98 57 51 3e 4c 71 53 3e 66 60 cc 3c 78 91 1d 3e
       0.2044357 0.20648688 0.02494831 0.15387523
0000c0 f8 db 2d bd 98 28 b4 bc 40 60 a1 bc 8c 3a 08 be
       -0.042446107 -0.021992013 -0.019699216 -0.13303584
0000d0 59 6e b5 bd 7a 0d 14 be 6d 56 ed 3c 24 82 bf bd
       -0.08858938 -0.14458266 0.028971875 -0.09350994
0000e0 5d 73 97 bd 4a 96 8f bc 17 96 6d 3e 1a a8 06 3d
       -0.07395051 -0.017527718 0.23201786 0.032875158
0000f0 46 65 19 3e 45 2d da 3c fb c0 1a 3e 49 f0 f4 3b
       0.14980039 0.026632914 0.15112679 0.0074749333
000100 53 83 ec 3d f7 8c 28 3c 03 87 2f bd 36 9b 26 bd
       0.115484856 0.010287515 -0.042853367 -0.040675364
000110 fb 36 1e 3d 85 49 b0 bd a3 a0 50 bd 81 5d 84 bd
       0.038626652 -0.08607773 -0.050934445 -0.06463147
000120 c1 ec f6 ba 13 f3 86 3d 7b f6 19 be e0 03 82 bd
       -0.0018838869 0.065893315 -0.15035431 -0.06348395
000130 5b 46 e9 3c be 17 8a 3d 65 45 e7 bd 0d 68 05 bd
       0.02847593 0.0674281 -0.11292533 -0.032569934
000140 ab 06 4c 3e 99 e4 85 bd 66 89 8c bc d6 1a 88 3d
       0.19924419 -0.06537742 -0.01715536 0.066457435
000150 b6 77 96 3d 50 25 39 bd 1e 1c 9c bd bb 25 de 3d
       0.07347052 -0.0452016 -0.076225504 0.1084704
000160 ff 9f 52 be e5 6f 29 3e 91 4f 40 3d f5 58 a2 bd
       -0.20568846 0.1654659 0.04695088 -0.079271235
000170 44 2e e9 3c 52 2e d6 3d 2f a7 21 3e ce b7 23 be
       0.028464444 0.10458054 0.15786432 -0.15988085
000180 37 55 d1 38 ad 9f 79 3d 3d 22 70 bb 6e ba f1 bc
       9.981769e-05 0.060943294 -0.0036641501 -0.029507842
000190 3a 0b b9 bd 4c 70 44 bc e3 18 6f 3d 25 c0 f7 bd
       -0.090353444 -0.011989664 0.058373343 -0.120971955
0001a0 59 9a 24 be 88 ab 29 be 4c 5b 8d 3d 86 26 a1 bd
       -0.16074504 -0.1656934 0.06902179 -0.07868676
0001b0 bb 8f e6 3b 39 7c f6 3c b6 c3 bd bd ad 71 38 be
       0.007036177 0.03008853 -0.092658445 -0.18012114
0001c0 e3 38 3f 3e 5a 72 be 3d 2b a3 04 3e b7 80 7c 3d
       0.18674044 0.092991546 0.12952869 0.06164619
0001d0 c5 04 08 bd 55 3a 58 bd 93 08 e8 3d cd d7 fd 3d
       -0.033207674 -0.052790005 0.113297604 0.12394676
0001e0 bd 41 29 3e 2d 0d 67 be 54 5c fe 3d 25 2c 72 bc
       0.16528983 -0.2256362 0.12419954 -0.014781033
0001f0 71 3c ba 3c 78 24 24 be 2b 29 15 3e 39 a3 81 3d
       0.022733899 -0.16029537 0.14566486 0.063299604
000200 3d ca 20 be 9e af a4 3c 1b 3d 7f 3d cb 40 b5 3d
       -0.15702148 0.020103272 0.062314134 0.08850249
000210 7f 4a 9b bd c3 9f 61 3d 17 0e b1 3e f0 26 40 3e
       -0.075825684 0.055084 0.34581062 0.18764853
000220 e9 86 a2 3d 13 dd 8a bd 8a 40 82 3d 39 d2 bd 3d
       0.07935888 -0.06780448 0.06359966 0.092686124
000230 35 d9 cb bc c0 06 1f be 09 0b 23 be f0 5a 88 3c
       -0.024883846 -0.15529919 -0.15922178 0.016644925
000240 63 bb 97 bd f7 73 8c bd 43 b4 86 3d 89 ea 59 bb
       -0.07408788 -0.06858056 0.06577351 -0.0033251366
000250 6f 2c 31 3d a7 32 f7 3c 5c 29 a8 3e bd b7 2e 3d
       0.043255266 0.03017552 0.32844055 0.042655695
000260 27 ed 3c 3d 16 e3 b6 3d 57 fd 30 3e 05 95 d6 3d
       0.046124604 0.08930032 0.17284141 0.10477642
000270 81 cc 89 bd 8a ef 88 bd 14 f8 d0 bd 53 3a 87 bd
       -0.06728459 -0.066863135 -0.10203567 -0.06602921
000280 26 92 dd 3d 94 94 2c 3c 41 ac df bd fc bf b6 bd
       0.10818891 0.010533471 -0.10921527 -0.08923337
000290 4f 19 ca 3d 23 7b ea 3c 30 20 7b bd 75 51 ae 3d
       0.098681085 0.02862317 -0.061309993 0.085116304
0002a0 ae 06 54 3c b0 91 c0 3c 7d 76 78 3d 1f c3 49 3e
       0.012941046 0.02350697 0.060659874 0.19703339
0002b0 c9 1e ea bd 0e 05 b5 bd 26 6a 4c 3e 30 12 ad 3c
       -0.11431653 -0.08838855 0.19962367 0.021126837
0002c0 81 36 f4 3d 1f 41 e8 3d eb 60 62 3d 1a d9 12 be
       0.11924458 0.11340546 0.05526821 -0.1434063
0002d0 8e 7b 38 bd d1 ed 7d bc 5f e8 b9 bc 34 ad 84 3d
       -0.045039706 -0.015498594 -0.022693811 0.064783484
0002e0 5d 28 ce 3d a6 86 ad 3c 0c 04 8b 3d a4 7f 32 3c
       0.100662924 0.02118237 0.06787881 0.01089469
0002f0 ba 5c ed 3d c4 c8 75 bd df ff bc 3c 2e 9d c0 be
       0.11589952 -0.06000592 0.023071228 -0.3761992
000300 3e 53 95 3c 4d 84 ad 3c 2f f1 c1 bd 68 25 a1 3d
       0.01822817 0.02118125 -0.0946983 0.07868463
000310 b4 0c d9 3d a9 91 21 3e 58 c6 6f 3d d5 ef d2 3d
       0.10598126 0.15778221 0.058538765 0.102996506
000320 3c c2 0c 3e 2f 13 46 3c ae 27 10 3d 41 f7 83 bd
       0.1374597 0.012089535 0.03519409 -0.06443644
000330 45 60 c1 3a ba e3 0b be 3a a9 98 3c 16 c0 33 be
       0.0014753422 -0.1366109 0.018635381 -0.17553744
000340 86 81 f3 bd c2 ea 37 bc be d3 e3 bc 0b 4d 79 bd
       -0.11889939 -0.011225404 -0.027810927 -0.06086449
000350 47 2d ba 3d 7b b7 2c bd 5d 39 52 3d ff f5 ca bb
       0.09090667 -0.042167168 0.051324237 -0.006193876
000360 51 84 61 3c ac b3 55 3d c3 80 bb bd 36 b5 46 3e
       0.013764457 0.0521733 -0.09155419 0.19405064
000370 d2 ac 55 be 10 6a e7 bc 55 8a 8e 3d 7b 46 04 3e
       -0.20866707 -0.028248817 0.069599785 0.12917511
000380 8d 63 d4 3d b1 49 a9 3d 3a ec 47 3e e2 d7 1e bc
       0.1037055 0.08266009 0.19523707 -0.009695025
000390 5a ac c7 bd 75 5f 7e bd 9c 1a b0 3d 6b 4e 13 3b
       -0.0974967 -0.062102754 0.08598825 0.002247716
0003a0 e4 b6 cc 3c 42 ef 36 be 3a 4e 99 bd 83 f9 8b bc
       0.024989553 -0.17864707 -0.07485624 -0.01708675
0003b0 36 16 82 3d 19 16 da bd b4 a7 61 3d 6c 75 39 be
       0.06351893 -0.10648746 0.055091575 -0.18111199
0003c0 59 23 bf 3d 24 77 83 3d 28 5c 82 3b b5 49 97 bd
       0.09332914 0.06419209 0.003978271 -0.073871054
0003d0 2e 95 24 3e 0d b3 27 3b ba 15 28 be 2a 2c e5 3d
       0.16072533 0.00255889 -0.16414538 0.11190064
0003e0 e5 3c 66 bd 4f 33 92 3d 0d a2 18 3e 5f 29 5d 3d
       -0.056210417 0.071386926 0.14905567 0.053994533
0003f0 c8 a1 ca bd c4 ed 90 3d 78 31 0f 3d 70 b9 0b bd
       -0.098941386 0.070766 0.034959286 -0.034112394

network_body._body_endoder.seq_layers.0.bias f4 [256]
000000 7d e5 cc 3c 8b 2b a2 3c 56 fb 0a 3c 34 13 0c 3d
       0.025011772 0.019796154 0.008482775 0.034198
000010 0b c5 75 bb 09 0b e3 3c dc 33 7d bb ce 4f 9d 3b
       -0.003750148 0.027715223 -0.0038635647 0.004800773
000020 79 d0 ad 3c d7 61 3f 3c c8 08 12 3c 6b a2 65 3b
       0.021217572 0.011681042 0.008913226 0.0035039436
000030 61 67 84 3b 88 5e 26 3c 23 09 b0 3c 43 bc bf 3b
       0.004040644 0.010154374 0.021488732 0.0058513
000040 f2 9c 88 3c 6f 4e 13 3c 81 14 ca 3c 69 6d cc 3c
       0.0166764 0.008990868 0.02466798 0.024954515
000050 57 26 0c 3c f2 56 18 3a 1d ac dc 3c 5f 5f 82 3c
       0.008554063 0.00058112957 0.026937539 0.015914617
000060 e9 d5 80 3c ee d3 7e 3c ea e0 65 bc f0 4d 68 ba
       0.015727 0.015553458 -0.0140306745 -0.0008861711
000070 60 da 29 3c 83 a4 2b 3c c6 a8 e5 3c 69 e6 a9 3c
       0.010367006 0.010476234 0.028034579 0.020739751
000080 6b 6a e1 3c e6 23 3f 3c 98 b8 d0 3c 9e f6 0c bb
       0.027516564 0.011666274 0.025478646 -0.00215093
000090 6b 22 1f 3b d7 bf 8b 3c 8a 03 42 3c 34 c0 a1 3c
       0.002428199 0.01705925 0.011841664 0.01974497
0000a0 7f 51 9a 3c 0e 40 82 3b 9e 9b 02 3c 87 b9 b7 3c
       0.018837688 0.003974921 0.007971672 0.022427334
0000b0 55 3d b0 bb 70 1f 43 3b e0 ea 75 3b 02 a3 45 3c
       -0.005378405 0.0029773377 0.003752403 0.01206279
0000c0 71 bc a1 3c 17 c3 38 3c bd 35 70 3c b6 ff f6 3b
       0.019743176 0.011276982 0.01466125 0.0075378073
0000d0 20 24 c4 3b 57 b8 0c 3c e5 b5 40 3c 8f e1 cd 3c
       0.0059857517 0.008588872 0.011762117 0.025131969
0000e0 23 05 68 3c 41 4a 9f 3c ef 05 2b 3a 82 2a 24 3c
       0.014161381 0.019444587 0.00065240165 0.0100199
0000f0 17 d0 1b 3c 40 1b 55 3b 0d f8 98 3c 35 e9 a7 3b
       0.009510062 0.0032517463 0.018672967 0.005124236
000100 5b 33 02 3d e6 f5 a1 3c 80 00 34 3c 69 d8 85 3c
       0.031787258 0.019770574 0.010986447 0.016338544
000110 e4 cf 84 3c aa 0b ed 39 96 7e c6 3c da c1 e5 3b
       0.016212411 0.00045212853 0.024230283 0.0070116343
000120 3c 91 ac 3c 5b 15 68 bc ef 9b 81 3b bf f6 34 3b
       0.021065347 -0.014165248 0.0039553563 0.0027612892
000130 3d 43 82 3c e5 20 0b 3c a9 9e 20 3c 99 1e 69 3c
       0.015901202 0.008491729 0.0098034525 0.014228486
000140 18 bb 03 3c 6a c0 9f 3c 39 75 f6 3b 74 e2 a2 bb
       0.008040212 0.01950093 0.0075212982 -0.004970843
000150 6f 73 5e 3b a8 19 fd 3b a6 7b d7 39 2a 0b 5f 3c
       0.0033943316 0.0077240057 0.0004110012 0.013613502
000160 9f 88 ea 3b 64 3b b5 3b 10 e3 cf 3b bf 0a 64 3c
       0.0071574 0.0055307616 0.0063442066 0.013918578
000170 d4 6a 1e bc a5 a7 bd 3c 3f 85 f5 3b 6c b1 cf 3c
       -0.0096690245 0.023151228 0.007492691 0.025353156
000180 95 fb b7 3b 51 62 bb 3c 03 6d 13 bb 7a 7e 8e 3b
       0.0056147077 0.02287403 -0.0022495396 0.0043485733
000190 2c 5f 5a 3b 83 91 0e bc 22 6c 81 3c 54 dd 35 3d
       0.0033320887 -0.008701685 0.015798632 0.044400528
0001a0 50 bd 89 3c 0f df 91 3c c7 ae a7 ba df 0a 8a 3c
       0.016813904 0.017806558 -0.0012793177 0.016850887
0001b0 0a 2f 1f bb df b3 a6 3c 52 41 73 3b be f2 85 3c
       -0.0024289512 0.020349441 0.0037117791 0.0163511
0001c0 75 ee a8 3c 54 a9 61 3c 61 44 83 bb 0d fc f9 3b
       0.020621518 0.013773281 -0.004005954 0.0076289237
0001d0 ea b5 51 bb aa d5 8b 3c 51 ca 4f 3c 0b eb a2 3c
       -0.0031999298 0.017069656 0.012682513 0.019887468
0001e0 87 e1 9a 3c d3 e3 af 3c ce d5 0f 3c 41 f5 33 bc
       0.018906368 0.02147094 0.008779002 -0.010983766
0001f0 50 86 3d 3c a5 a8 97 3b 19 16 fc 3b f5 de 5d bb
       0.011567667 0.0046282583 0.007693064 -0.0033854817
000200 4f 96 b3 3c c0 89 e4 3c 69 f7 b6 3c 67 cd 6b bb
       0.021922259 0.027897716 0.022334771 -0.0035980584
000210 81 0b b5 3c b5 d0 b9 3c 94 dc 20 3c 9e 0c 6a 3c
       0.022100212 0.022682527 0.009818215 0.014285235
000220 94 56 82 39 af ba 07 3a 6b a3 95 3c 06 6e b1 bb
       0.00024860038 0.00051776593 0.0182664 -0.005414727
000230 db 2e 77 3b df 82 27 b9 ab 2c 81 bc da 0d 7a 3c
       0.0037717137 -0.00015975114 -0.01576837 0.0152620915
000240 79 6d 96 3c fa 89 83 bb f9 53 91 3a d7 45 c6 3c
       0.018362748 -0.004014251 0.0011087648 0.024203224
000250 4e ff d6 3c ae cb 82 bb 75 bd 83 3c 5a 2b 96 3c
       0.026244786 -0.0039915657 0.016081551 0.018331219
000260 44 c0 c2 3b fa e5 f8 3b 9d 8e ba 3c 41 92 4a 3c
       0.00594333 0.0075957747 0.022773081 0.012363971
000270 c5 83 96 3c f4 d8 4a ba 37 34 0e 3d 24 20 9d 3b
       0.01837338 -0.0007738017 0.034717765 0.004795091
000280 83 9b 86 bc 10 ee 0b 3c 93 21 20 bb 6f ea d1 ba
       -0.016431576 0.008540645 -0.0024434074 -0.0016015301
000290 ac 17 11 3c 9a 83 94 3b aa 75 3f 3c c8 20 d1 3a
       0.0088557415 0.0045322897 0.011685768 0.0015955204
0002a0 7c 3f b0 3c 08 1f 61 3c 1c cf 1c 3c a8 92 46 3c
       0.021514647 0.013740309 0.009570863 0.0121199265
0002b0 69 50 0d 3d 07 be f4 bb 36 b2 30 3c 33 47 71 bc
       0.034500513 -0.007468942 0.010784676 -0.014726448
0002c0 93 2b be 3b d3 c5 25 3c a2 d9 44 3c 84 25 cd 3b
       0.0058035343 0.010117966 0.012014778 0.0062605757
0002d0 8e bb f9 3c 13 61 56 bb 51 6d 5a 3c 62 f1 46 3c
       0.03048494 -0.003271167 0.013331727 0.012142511
0002e0 02 af 9e 3c f5 26 71 ba 4e d7 52 3c df ca 3f 3b
       0.01937056 -0.00091992255 0.012868715 0.0029265208
0002f0 07 ca 16 3c 96 ed 88 3b 4c 77 49 3c 56 08 44 3c
       0.0092034405 0.004178713 0.012296509 0.011964878
000300 c9 34 82 bb 9f c5 5c 3c 57 4a 82 bb 99 ac fd 3b
       -0.0039735776 0.013474851 -0.003976147 0.0077415225
000310 1a ef c7 3c a5 e5 cf 3b 3d fd 87 3c 81 e0 fc 3c
       0.024406005 0.0063445144 0.016600246 0.03086877
000320 1c ab 0d 3d 98 84 f9 3c 13 7e 6b 3b a1 49 d8 3b
       0.03458701 0.030458733 0.00359333 0.006600574
000330 22 0b 1f 3c cf 96 41 3c 3c 33 0c 3d 6e e6 05 3d
       0.009707244 0.011815741 0.03422855 0.032690458
000340 48 6a d5 3b 25 7a fd 3b 7b a5 08 3c 26 ca e9 bb
       0.006512914 0.007735508 0.008340235 -0.0071346937
000350 a3 05 15 3c 8f 1f 11 3c b1 36 97 3c 37 10 6f 3c
       0.009095582 0.008857622 0.018458696 0.014591268
000360 1d 96 2d 3c 5e d9 7b 3c 5b 72 af 3c 2b 68 3b 3b
       0.010594872 0.015371649 0.021416834 0.0028596024
000370 bb 8a 5c 39 24 4d 6a 3c ff 02 8d bc 63 0c 6e bb
       0.00021032516 0.014300618 -0.017213343 -0.00363233
000380 11 ac d5 3b a9 77 37 3c 68 65 e0 3a 57 5b 99 3c
       0.006520756 0.011197963 0.0017120065 0.018720312
000390 dd e8 09 3c b3 2d 08 3d 53 6f b9 3b 5f e9 2b 3c
       0.008417335 0.033246707 0.005659023 0.010492652
0003a0 c5 c6 de 3b 23 60 ff 3c 0d 6b b1 bb 3a 0a 20 3c
       0.0067985975 0.031173771 -0.005414373 0.009768063
0003b0 c3 e3 08 3c 55 8a bc 3c 57 89 71 3c 4e 30 65 3b
       0.008355084 0.02301518 0.014742217 0.0034971419
0003c0 c7 1f 0e 3c 3a 9f 90 bb de f9 e5 3b fe b9 71 3c
       0.0086745685 -0.0044135125 0.007018312 0.014753817
0003d0 4f c3 49 3c 1b ba 33 3c 40 07 5e 3c ba 7f b2 3c
       0.012314632 0.010969664 0.013551533 0.02178942
0003e0 25 bd c8 3c e1 62 ab 3c 50 6b 6a 3c cb d8 e8 3b
       0.024504254 0.020921173 0.014307812 0.007105922
0003f0 45 fe 94 3b 68 48 cb ba 63 93 fe 3c 54 c5 9d bb
       0.004546913 -0.001550925 0.031076139 -0.004814783

network_body._body_endoder.seq_layers.2.weight f4 [256, 256]
000000 ba 1e be bb 55 cd e9 bc e5 56 31 bd c9 91 e7 3c
       -0.0058020027 -0.028540293 -0.04329576 0.028267758
000010 58 e5 fb 3c c8 42 65 bd d6 0f 29 3d 64 bd 05 be
       0.030749008 -0.05597189 0.041274868 -0.13060528
000020 ab dc 55 bc b3 3d 81 3c 40 ff b5 bd 85 3c 02 ba
       -0.0130531 0.01577649 -0.08886576 -0.00049681246
000030 c4 18 ca 3d de 73 8c bd d1 39 d0 3c 5c 46 c3 bc
       0.09868005 -0.068580374 0.025418194 -0.02383726
000040 c8 9c b6 bc 70 c6 30 bc 81 c0 74 bb c8 8c ac bc
       -0.022291556 -0.010789499 -0.0037346187 -0.021063223
000050 fc 00 3b 3d 4a 01 8d bd 0d de 9a bd 8c 7a cc 3c
       0.045655236 -0.068850115 -0.07561884 0.024960779
000060 23 7e b5 bc 6d f5 67 bd f3 a3 5c 3d 85 60 9a 3c
       -0.022154873 -0.05663054 0.05386729 0.018844852
000070 2d b7 f9 bc bb ad 86 bd 59 a8 8a bc 5a b8 9d bd
       -0.030482853 -0.06576105 -0.016925978 -0.07701178
000080 8f d9 dc bd db 2a 6c bd 50 b7 85 bd 6b ec 80 3b
       -0.107836835 -0.057658058 -0.06529105 0.003934433
000090 50 3f b6 bc b4 eb 83 3a 36 b3 1e 3c d8 a9 15 3d
       -0.022246987 0.0010064752 0.009686282 0.03653893
0000a0 5a b2 b2 bd 7d 2d c2 3c c0 0b 9d bd 56 d8 44 bd
       -0.08725424 0.023703331 -0.07668257 -0.048057877
0000b0 1f ae e2 bc a8 f4 19 bd 73 36 bd bd b5 65 5f 3d
       -0.027670918 -0.037586838 -0.09238901 0.054540355
0000c0 2a 6b 67 3c 8f 33 c4 3c 03 f2 0a bd f2 d8 64 bd
       0.014124671 0.023950366 -0.033922207 -0.055870958
0000d0 82 a5 60 bd 51 a7 54 3d a4 c3 e8 bc 74 29 b7 3c
       -0.05484534 0.051917378 -0.028413601 0.022358634
0000e0 c6 2b 25 3c dd f0 a3 bc 2d 31 ae bd a6 1f 27 3c
       0.010081237 -0.020012314 -0.08505473 0.010200417
0000f0 99 6d 24 3c fa 6a 9a 3d 6f cc 57 3d 5d e5 81 3d
       0.010035896 0.075399354 0.052685197 0.06342576
000100 4a 03 f4 3a 3a 45 ef 39 42 22 62 3d 3e fa 7b 3c
       0.0018616703 0.0004563721 0.055208452 0.015379487
000110 d4 a4 c5 bc 0b 56 1b 3c 3f 2d ad bd 3f 5f 8a bc
       -0.024126448 0.009480963 -0.08455896 -0.01689112
000120 4a 5a 09 bd 19 22 97 bd 14 80 9f bd 5e 87 52 bc
       -0.033533372 -0.073795505 -0.07788101 -0.012849657
000130 5c ad 19 bc b0 f8 b0 3c a6 92 1e 3e 5a 02 8b bd
       -0.009379711 0.021602958 0.1548563 -0.06787558
000140 13 42 19 3c 2b 85 23 bc 34 9e ce 3c 4b fb 46 3d
       0.009354132 -0.00998048 0.025221922 0.048579495
000150 8b 4f 01 bd cb 00 f4 bc 69 8e 5d 3c 33 68 84 bc
       -0.03157 -0.029785534 0.013522723 -0.016162967
000160 5c 78 a1 bb 7f ea 95 bd 51 8d 04 bb b7 a0 9a bd
       -0.004927678 -0.07320117 -0.0020225833 -0.07550185
000170 1c c6 61 bc b6 52 a2 bd 5f 96 54 3d 0e b1 55 bd
       -0.013780143 -0.07925932 0.051901218 -0.052170806
000180 13 5e 8b bd c1 22 73 bd 1a 98 06 3c ec db 02 3d
       -0.068050526 -0.059359316 0.008214975 0.031948015
000190 bc c6 2b 3d c7 57 07 3d e9 c3 f5 bd 25 db 94 bd
       0.041937575 0.033042695 -0.120002575 -0.07268361
0001a0 d5 19 ed bd 06 ec 5f 3d 5c 66 83 3c eb 3a 1f bd
       -0.11577193 0.05466845 0.01604002 -0.038874548
0001b0 68 84 05 3e 53 44 67 be 04 62 88 bd d5 90 45 bd
       0.1303879 -0.22584657 -0.0665932 -0.048233826
0001c0 b5 3a 43 bd c1 8f 18 bc b5 1b a2 3d 42 51 13 bb
       -0.04766341 -0.009311617 0.07915441 -0.0022478853
0001d0 66 af 96 bc 84 be 82 3d 76 7b d9 3d 14 a5 84 3d
       -0.018394183 0.06383994 0.106192514 0.06476799
0001e0 66 e4 71 bd 28 0f 92 bd 70 55 b8 bc 9b 10 bc 3d
       -0.05905571 -0.07131797 -0.022501677 0.09182855
0001f0 33 63 17 3e 86 96 64 3d c5 b4 aa 3d d1 cd bf 3c
       0.14783935 0.055807613 0.0833526 0.02341357
000200 90 d6 7d bd b4 6c 0c be 70 70 91 3c 92 f5 21 be
       -0.0619722 -0.13713342 0.01775381 -0.15816334
000210 d2 ec 71 bd d2 b7 ad 3d ee 83 b6 bc 39 48 58 bd
       -0.05906374 0.084823266 -0.022279706 -0.052803252
000220 f5 83 5d 3d a3 c7 08 3c 4e 6f 9f bd 61 46 f9 bc
       0.054080922 0.008348378 -0.077849016 -0.030429067
000230 ed 7a c2 bc f7 94 45 3d 66 35 b1 3d 23 41 87 bd
       -0.023740256 0.048237767 0.08652763 -0.06604221
000240 77 ef 2a bd 11 d2 6e bd cf 44 c4 bd 77 94 6a 3d
       -0.041732278 -0.058305804 -0.09583437 0.057270493
000250 09 ef 85 bd c8 38 5e bc da 60 28 3d 2c 0f 9b bc
       -0.06539733 -0.013563342 0.04110799 -0.018928133
000260 f6 7c ac 3c e2 0b 10 3d 2d a7 0c bd 69 17 bf 3c
       0.02105568 0.035167582 -0.03433912 0.023326593
000270 af 19 ad bd fb 05 83 3b 7d 59 af bd 27 80 5c 3c
       -0.084521644 0.0039985157 -0.085619904 0.013458288
000280 f5 9f 19 3c 8a 53 c9 bd 6d ec cd bd 1d 13 a9 3d
       0.009376516 -0.09830387 -0.1005486 0.08255599
000290 c1 ab dc bb a8 d2 ef 3c d8 06 b8 3d bf c4 9a 3c
       -0.006734342 0.029275253 0.0898568 0.018892644
0002a0 d4 56 c1 bc d8 3b 89 3d d5 bb c1 bc 49 1a 81 3d
       -0.023600973 0.067008674 -0.023649136 0.063038416
0002b0 ff b4 68 bd f4 75 4b bc 48 62 80 bd 3e 67 af 3d
       -0.056813236 -0.012418259 -0.06268746 0.08564614
0002c0 75 b5 98 3d 88 74 c4 bc 25 c7 f4 bb 0a 25 10 bc
       0.07456485 -0.023981348 -0.007470029 -0.008797893
0002d0 84 bf c7 bc bd 84 17 ba f3 d8 55 3d 70 aa 04 3d
       -0.024383314 -0.00057799724 0.052208852 0.032389104
0002e0 26 cc 7a bc 57 07 c5 3c 90 41 23 bd 74 e9 2b bd
       -0.015307462 0.024051351 -0.039857447 -0.041970685
0002f0 c5 0d c7 bd aa dc d5 bd 89 78 b1 bd cf e1 c1 bc
       -0.09719423 -0.10442479 -0.086655684 -0.023667244
000300 b8 a1 a6 3c 8d ae f8 bc 43 b5 45 bd 15 ae b2 bd
       0.020340785 -0.03035667 -0.048268568 -0.0872461
000310 23 a5 10 3e 93 1c 91 3d 1a 86 17 3d 26 e3 e4 3b
       0.14125495 0.07085528 0.036993124 0.006985086
000320 c2 2f 8e bd 03 c8 75 3d 1a dc 0f bd 78 18 52 bc
       -0.06942703 0.0600052 -0.035122015 -0.012823217
000330 8e 1b 3d 3d 18 3e d9 3d b3 8c a1 bd 66 dc 1c be
       0.046168856 0.106075466 -0.07888164 -0.1531845
000340 6d 03 88 bd ba 93 b1 bc f1 43 2f 3e c4 19 47 bd
       -0.066412784 -0.021676887 0.17115761 -0.048608556
000350 dd da f5 bc a7 23 1b 3b fa 21 70 bb ee 5d 59 bd
       -0.030011589 0.0023672373 -0.0036641345 -0.053068094
000360 45 ba c8 3c 3b a4 df bc 55 4d 2a 3a b8 08 2f bd
       0.024502883 -0.02729999 0.0006496509 -0.042732924
000370 dd a4 1c bd 47 a9 6b bb 08 0e be bc e0 20 27 3d
       -0.038243163 -0.0035959051 -0.02320005 0.040802836
000380 7d 3c 27 bc 9b 77 3b 3d 4c 32 08 bd fd ec 9b bd
       -0.010207293 0.04576836 -0.03325109 -0.07613561
000390 9b fb 72 bd 87 a0 2b 3d 5e c5 68 bd 67 c7 0c 3c
       -0.05932198 0.041901138 -0.05682885 0.008592463
0003a0 ca 27 01 3d 34 68 f3 3c 4f 1a 86 bd c8 b3 2d bd
       0.031532086 0.029712774 -0.06547987 -0.04240778
0003b0 b4 05 68 3d 0e cb 40 bb ab 38 77 3d 73 39 95 bd
       0.056646064 -0.0029417905 0.060356777 -0.07286348
0003c0 43 14 ff bc c8 72 93 bd 35 a5 a2 3d 01 4f 60 bd
       -0.031137591 -0.07199627 0.07941667 -0.054762844
0003d0 72 5d 8f bc f8 fc ee bc 30 ee ed bb 5b 95 de 3c
       -0.017500613 -0.02917336 -0.00726106 0.027170828
0003e0 b4 d8 c3 3c 07 d4 26 bd 5b 0d 8a 3c 4c 0f 10 3d
       0.023907043 -0.04072955 0.016852072 0.03517084
0003f0 14 81 3a 3d f3 b0 c3 3c 33 9d cc 3b 0f cd b5 3d
       0.045533255 0.023888087 0.0062443255 0.088770024

network_body._body_endoder.seq_layers.2.bias f4 [256]
000000 a8 39 5f bc 69 f3 46 bc 37 0c 42 bb 9b 55 99 3c
       -0.013624586 -0.012142994 -0.0029609331 0.018717578
000010 a3 d0 9c ba af 70 2a 3c 47 d1 1d 3c be 51 22 3b
       -0.0011964034 0.010402842 0.009632415 0.002476796
000020 79 45 8e bb 46 13 6c 3a e5 20 03 bc 3c 38 60 bb
       -0.004341778 0.00090055575 -0.008003448 -0.0034213206
000030 eb fb 03 3c e6 97 3d bc 81 79 71 ba 2c e7 85 3b
       0.008055667 -0.01157186 -0.0009211526 0.0040863957
000040 0a 2f 3c ba bb 3b de 38 5b 5f 73 3c ab 78 06 3c
       -0.000717864 0.000105969106 0.0148542775 0.00820748
000050 a2 88 ce bb 84 b3 43 3c 81 27 dd 3b 77 ea 07 3c
       -0.006302909 0.011944655 0.006749094 0.008295647
000060 13 6f 0f bb f0 d0 a9 3a 01 fd 0a 3c 42 ee 74 3c
       -0.0021886274 0.0012955945 0.008483172 0.014949383
000070 0f b0 2a bc db a6 d2 3c cf 56 ca 3b 7b a4 13 3c
       -0.010417952 0.025714329 0.006174899 0.009011383
000080 41 f3 32 3b 2b f8 5e 3c d5 9f 7d 3c d2 79 20 3b
       0.0027305635 0.013608973 0.015480001 0.0024486673
000090 53 8d 9d 3b 5a 22 28 3c 87 fc cc 3b 03 f6 19 3c
       0.004808107 0.010262096 0.0062556895 0.009397033
0000a0 2e 20 d6 ba 5c 82 0c 3c 7b 2f e9 3a 1d 36 e4 3b
       -0.0016336495 0.008576002 0.001779064 0.0069644586
0000b0 8d b1 76 3c 46 d2 32 bb 63 68 5e bb 24 f9 ea 3b
       0.01505698 -0.0027285977 -0.003393673 0.007170813
0000c0 cf f5 20 3c 4d 96 c4 bb 5f 34 45 3c b1 42 8b 3c
       0.00982423 -0.0059993626 0.012036412 0.016999574
0000d0 00 f0 78 39 17 cf 25 3c 81 40 a3 bb 56 13 4a bb
       0.0002374053 0.010120175 -0.0049820547 -0.003083428
0000e0 6a 01 8f 3b 8e db 9a 3b f6 bd a8 bb ce 39 35 3b
       0.0043641822 0.00472588 -0.0051495982 0.0027652862
0000f0 e8 dd b3 3b f4 46 08 bb a9 4d 7e 3c 58 6c 52 3c
       0.0054891 -0.0020794244 0.015521445 0.012843214
000100 b3 df a9 b9 74 cb bf 3c d5 64 ca 3b 73 89 d7 ba
       -0.0003240086 0.023412444 0.006176571 -0.0016444161
000110 0d c9 01 3c ff d9 1f 3b aa 47 7e 3c 44 17 a1 3c
       0.007921469 0.002439141 0.015520016 0.019664414
000120 32 20 9a bb ec 37 56 3c 61 96 ad 3b 92 7d da 3b
       -0.004703545 0.013074856 0.0052974676 0.006667801
000130 80 a2 67 3b d8 1c 97 3b 63 07 09 3c 1d fe 3b 3c
       0.003534466 0.0046115927 0.008363578 0.01147416
000140 51 2a 85 3c de 5d 20 bb bf a3 4f bb 3c 07 05 bc
       0.01625553 -0.0024470012 -0.0031683294 -0.008119401
000150 e9 54 e2 ba 7a 6a 2a 3c f8 e2 3a 3c 3c 46 df 3c
       -0.0017267737 0.010401363 0.011406653 0.02725517
000160 87 11 2d 3c b7 27 4a 3c e3 a1 fe ba 98 eb a8 3b
       0.010563261 0.01233857 -0.0019426908 0.005155038
000170 cd 76 e6 3b cc 85 1e bb f4 8a bf 3b 54 b5 2a 3c
       0.007033205 -0.0024188636 0.005845422 0.010419209
000180 28 ff 65 3c 3d 5b fd ba 37 f1 d5 3b 9b 64 02 3c
       0.014037885 -0.0019329559 0.006528999 0.0079585565
000190 f4 f6 82 3a 8c 7d 0a 3b d7 33 2b 3c b3 f0 99 bb
       0.0009991811 0.002113196 0.010449371 -0.004697883
0001a0 e5 a1 4a 3c 2b b4 97 3c 29 f0 4d 3c 70 57 4d 3c
       0.0123677 0.018518528 0.012569466 0.012533054
0001b0 90 83 8e 3c ab 87 41 3c c0 ef aa 3b 2b 5e 79 3c
       0.017396718 0.011812131 0.0052165687 0.015220205
0001c0 40 6c 56 38 07 75 c1 3c a0 43 98 3b 32 38 ff ba
       5.112239e-05 0.023615373 0.0046467334 -0.0019471704
0001d0 f7 1c af 3b fa d6 94 3b 0d b9 17 3b 1d 86 0f 3c
       0.005344029 0.0045422288 0.002315107 0.008760002
0001e0 33 7c 5c 3c c9 48 f4 3b 84 0a 1f bc 70 55 87 ba
       0.013457346 0.0074549657 -0.009707097 -0.0010325145
0001f0 0a 31 dc ba c8 5e 04 3d c2 53 6c bb 89 38 d1 3b
       -0.0016799283 0.032316953 -0.0036060666 0.0063849133
000200 2b 72 ef 3a b7 0d 85 36 63 2f 1b 3a 5d b0 2a 3c
       0.0018268278 3.9653055e-06 0.0005919842 0.010418025
000210 06 01 73 3c d5 ae 2e bb fc 2f fe bb 37 46 11 bc
       0.014831787 -0.00266545 -0.007757185 -0.008866838
000220 52 3a 0c 3c b1 67 6b 3b 98 35 7f 3b 89 3c 95 bb
       0.0085588265 0.003591996 0.0038941856 -0.0045543355
000230 6e d0 02 3a 94 12 a1 bb 56 8d 72 bc ac b6 20 3c
       0.0004990165 -0.0049155448 -0.014804205 0.009809177
000240 bb 2f 09 bb f4 b1 7f ba 60 3e 7e ba 82 2d 5a 3a
       -0.002093299 -0.0009753995 -0.00096986257 0.0008322821
000250 69 1a 65 3c 51 d5 21 b9 d6 c0 0b 3c db f0 83 3a
       0.013983347 -0.00015433623 0.008529862 0.0010066287
000260 87 e9 b3 3b b4 4e d3 3a c2 50 5a bb 67 43 3b 3c
       0.005490485 0.0016121478 -0.0033312296 0.011429644
000270 88 6f 8e bb 0e 22 b7 bb 8c 9a d4 3a 89 92 57 3a
       -0.0043467917 -0.0055887764 0.0016220375 0.00082234346
000280 24 a5 9d 3b dc e3 61 b9 f5 bd 1f 3c 2e c8 ff 3b
       0.004810946 -0.00021542556 0.009749879 0.0078058457
000290 5b d5 43 bb 3d 18 29 3b 63 6f dc 3b a2 53 24 3c
       -0.0029881808 0.00258018 0.0067271455 0.010029705
0002a0 61 31 8f 3c 5f 05 ee bb d8 9b 59 3c a8 ed ab 3b
       0.0174796 -0.007263824 0.013281785 0.0052468367
0002b0 e1 c3 97 3b 8c 37 5f bc ce ec 9b 3b eb 2b 84 3b
       0.004631505 -0.013624083 0.004758454 0.0040335557
0002c0 c1 60 b4 3c 89 df 2b 3c 05 90 32 3b 56 06 14 3c
       0.022018792 0.010490307 0.0027246487 0.009034714
0002d0 8b cf 08 3c 6e 55 85 3b 23 34 01 bc 61 dd 36 bc
       0.008350263 0.004069022 -0.0078859655 -0.011161179
0002e0 45 2f e8 ba 84 6f 14 bb 16 d4 60 3b 5e 82 6f 3b
       -0.0017714283 -0.0022649476 0.00343061 0.003654621
0002f0 89 9c b8 3b 4f 3b f2 3b a4 51 5b bc 04 98 8e 3c
       0.005633895 0.007392324 -0.013386164 0.017406471
000300 ce 89 0e 3b 3b c2 65 3c fd 8f 1a 3c 4b b6 d2 b8
       0.0021749618 0.014023359 0.009433744 -0.00010047535
000310 1f a4 79 bb fc 5c 77 3c 54 68 57 bb f0 34 58 3c
       -0.0038092209 0.015097853 -0.003286858 0.013196215
000320 65 ec 2a 3c 3d 84 e0 bb f2 39 1c bc a5 42 ba 3b
       0.010432337 -0.0068517015 -0.0095353 0.005684214
000330 60 29 a8 39 8a 42 39 3c 38 09 4e 3c 97 51 10 3c
       0.00032074284 0.011307368 0.01257544 0.008808515
000340 fc b3 0b 3c 6f 44 3c 3c 5e a8 35 39 3f 3a 08 bc
       0.008526798 0.011490925 0.00017324227 -0.008314668
000350 bc 5d 86 3c 90 f9 8a b9 b6 df fe bb dc 4d 4e ba
       0.016402118 -0.0002650735 -0.0077781333 -0.00078698783
000360 6c 2e 77 3b 17 ca 39 3c cf f4 ff 3b 0d 1f 21 bb
       0.0037716879 0.011339686 0.007811166 -0.0024585158
000370 1f 04 67 3b bb 51 e6 3b dd 40 db 3b c6 bc fa ba
       0.003525026 0.007028786 0.006691082 -0.0019129745
000380 b3 0b f0 bb cc 2e 09 bb b9 4d e8 b9 5d 20 6c 3c
       -0.0073256134 -0.0020932434 -0.00044308396 0.014412013
000390 dc 5c 93 3c ba f4 d6 3c 7a f5 a9 3b af 83 b8 3a
       0.017988615 0.026239742 0.005186734 0.0014077331
0003a0 c5 73 32 3c 3b 34 9b 3b 7d 84 fa bb 2b 2e b0 3b
       0.010891859 0.004736451 -0.0076451884 0.0053765974
0003b0 87 77 10 3b 0e c4 fb 3b 4c 73 b1 3b 8e fb c8 bb
       0.00220439 0.0076832836 0.005415356 -0.0061335033
0003c0 f5 63 8a 3c 41 e2 b6 3c 83 22 1e 3c 91 e8 d7 b9
       0.016893366 0.022324683 0.009651783 -0.0004118127
0003d0 15 60 7a bb 0c 40 b5 3b b2 0d 1d bc 14 74 49 3c
       -0.0038204242 0.0055313166 -0.009585785 0.012295742
0003e0 b1 bb 7d bc a1 8f 38 39 bc bf 06 bc 87 90 82 3c
       -0.015486644 0.00017601113 -0.008224424 0.015938057
0003f0 22 d0 a5 bb 81 16 03 3b 6b ac 1d 3c 55 eb 75 bc
       -0.0050602118 0.0020002427 0.009623627 -0.015009721

network_body._body_endoder.seq_layers.4.weight f4 [256, 256]
000000 eb fe 20 bb f7 37 bb 3c 91 2b a0 3d 06 82 a9 bd
       -0.0024566005 0.022853835 0.0782081 -0.08276753
000010 27 e9 5e bd 19 22 19 bd 2c 02 3c 3d d7 72 97 bd
       -0.05442157 -0.037386034 0.04590051 -0.07394951
000020 6b a1 59 3d f6 1e 84 bd 52 24 a7 3d 5c ed a6 bd
       0.053132456 -0.06451218 0.081612244 -0.081507415
000030 d4 c1 a2 bd 19 c4 a4 bd bd 80 ee 3d 48 9d 3a bd
       -0.07947126 -0.08045215 0.11645649 -0.04556015
000040 2f aa 36 3d 38 2f d4 bc 79 8e b8 bc 3b f5 e9 bc
       0.044595893 -0.025901422 -0.022528874 -0.028559318
000050 55 bf 07 bd e9 8f ca 3c 50 35 56 bc ac 7b 7d bd
       -0.033141453 0.024726825 -0.013074234 -0.06188552
000060 57 5d 31 3e 6a a0 2d bc 3e b6 1a 3d 3e 48 b4 bd
       0.17320763 -0.010597328 0.037771456 -0.088028416
000070 7e 78 27 3d 11 53 ac bc 81 be ca 3d 27 87 56 bd
       0.040886395 -0.021035703 0.09899617 -0.052374985
000080 7f 96 ec bc d2 bd a5 bc b3 18 02 3e 44 6a 5d 3d
       -0.028880356 -0.020232115 0.12704735 0.05405642
000090 86 21 83 bd 1f 1e a2 3d d7 9e f9 bd af 62 f2 bc
       -0.064028785 0.079159014 -0.121884994 -0.029588072
0000a0 8c 76 25 3d db db 96 bd c1 8f 91 bc a4 ab 4d 3d
       0.04039626 -0.07366153 -0.017768743 0.050212517
0000b0 a0 ae d7 3d 78 87 60 bd 7c b5 b9 bb ad bd 09 bd
       0.10531354 -0.054816693 -0.0056673866 -0.033628155
0000c0 ba 1b 98 3c 27 3c 99 3a 6c 5a 42 bc 4d 88 d5 bd
       0.018567909 0.00116909 -0.011862379 -0.10426388
0000d0 3d 3b 82 3d 27 79 4d 3d c5 9b ab bd a8 e7 62 3c
       0.06358955 0.050164368 -0.0837932 0.0138491765
0000e0 af 78 d6 bc 39 ba c1 bd e9 b6 83 bd 0d 09 ca 3d
       -0.026180593 -0.09459347 -0.06431372 0.098650075
0000f0 39 68 d8 bd 10 2d 0d be 29 80 2d bd 81 be 79 bc
       -0.10566754 -0.13786721 -0.04235855 -0.015243174
000100 73 ad a5 3d fb a0 ae 3d 0c 68 0d 3c 2a b4 ca bb
       0.080897234 0.08526798 0.008630764 -0.006186028
000110 4e f2 20 3d ce 25 86 3c 06 2d c0 bc 89 d8 98 3d
       0.03929358 0.016375449 -0.023458969 0.07463176
000120 3d f0 de bd 2d a5 4d 3d 80 2b 9c bc de 16 1a bd
       -0.108856656 0.050206352 -0.019063711 -0.037619464
000130 ce 9d 96 bd f9 2b 3e 3c 98 1b ee bc 84 b2 63 bd
       -0.073543176 0.011607164 -0.029065892 -0.055590168
000140 46 56 d3 3d b9 1b 41 3d 9b d8 2a be 5d d2 00 bd
       0.1031919 0.04714558 -0.16684191 -0.031450618
000150 f8 03 59 3c d9 b2 c3 bd 63 07 60 bc 91 89 46 3d
       0.013245575 -0.09555597 -0.013673636 0.048471037
000160 58 0e 71 bc c4 5e 46 bd 64 bc 0b 3b ee 43 05 ba
       -0.0147128925 -0.04843022 0.0021322006 -0.00050836697
000170 19 a1 2e bc 40 cc ba 3d 8f a9 80 bd d3 eb 13 bd
       -0.010658526 0.09120989 -0.06282341 -0.03611357
000180 df 15 18 3d c5 69 00 3a 64 42 2d be f8 f2 8e bd
       0.037130233 0.00048985734 -0.16919857 -0.06979936
000190 1e b6 64 3d 79 d3 bb bd 8b cc d7 bd 94 7e d1 bc
       0.055837743 -0.091711946 -0.1053706 -0.025573052
0001a0 ec dc 8f bc 04 05 81 3d 14 2b b1 3d b3 e5 01 3e
       -0.017561398 0.06299785 0.086507946 0.1268528
0001b0 78 4f 6f bd 68 5a 16 3c a5 77 b7 3c 2a de 39 bd
       -0.058425397 0.009176828 0.022395918 -0.045377888
0001c0 f4 17 e0 3c 0b f7 4b bb 74 10 ad bd 76 5e 57 3c
       0.027355172 -0.003112259 -0.08450404 0.01314508
0001d0 5f d3 40 3c c9 fd 9b bc 87 49 e1 bc 3d bb 05 3c
       0.011769145 -0.019041913 -0.02750088 0.008162317
0001e0 f9 82 65 bc b6 12 67 3d d1 c0 c5 39 41 70 66 bd
       -0.014008277 0.05641433 0.00037718427 -0.056259397
0001f0 06 47 39 3e 37 c2 5d bd c7 9b 5b 3d 19 6c cf bd
       0.180935 -0.054140296 0.053615358 -0.1012804
000200 90 7d 66 3d b3 bb 04 3d 3c e4 01 3b aa 85 07 3d
       0.05627209 0.032405566 0.0019819876 0.033086456
000210 fd 79 84 bd 2c 39 35 3e 75 55 08 3d dd 16 9d 3d
       -0.0646858 0.1769759 0.033284623 0.076703764
000220 64 11 46 3c a4 d5 af 3c cc e5 d7 bd be d8 c2 bc
       0.012089107 0.021464176 -0.10541877 -0.023784991
000230 0b f9 0b 3b b1 a1 6c bd de 0f 5d 3d f3 ec 5b bd
       0.0021358158 -0.05777139 0.05397021 -0.05369277
000240 52 aa b2 3b 7f 96 2c 3c f2 32 f5 3c 88 a8 fc 3c
       0.0054524327 0.010533928 0.02993152 0.03084208
000250 ad bb 86 3c 37 26 13 3d 63 01 e0 bc 97 e3 53 3d
       0.016446913 0.035925116 -0.027344411 0.05173072
000260 bb 1d 86 3d ae b0 23 bc ab a0 4a bd b4 12 ec bd
       0.065486394 -0.009990854 -0.04946963 -0.11527005
000270 d9 f6 1e bd 0b 65 38 bc 95 f7 ab 3d c7 37 88 3d
       -0.03880963 -0.011254559 0.08396832 0.06651264
000280 c2 40 07 bd 2a 4e b7 bc 13 6d 62 bd d5 e1 99 bd
       -0.033020742 -0.022376139 -0.055279803 -0.07513777
000290 bc 0b f9 bc a5 fa 78 bd 5f 20 16 3d 79 69 09 bd
       -0.030401103 -0.06078591 0.036651965 -0.033547852
0002a0 0a 62 83 bd 4a 39 72 3d 72 89 ac 3d 20 22 4f bc
       -0.06415184 0.059136666 0.08424653 -0.012642413
0002b0 12 a1 2d 3d 75 f4 26 3e 66 d2 87 3d ee 4b a1 b9
       0.042389937 0.1630419 0.06631927 -0.00030764885
0002c0 44 55 eb bd d5 9e 92 ba 4f ed 55 bd c9 22 43 3d
       -0.114908725 -0.0011186252 -0.05222827 0.047640596
0002d0 7d 34 a6 3d f6 50 98 3d 42 05 3f 3d 83 1a e1 3d
       0.0811548 0.07437317 0.046635874 0.10991385
0002e0 88 d3 05 bd 3c 6d dc bd 6e ec f2 bd 42 1d 64 3d
       -0.032672435 -0.10763022 -0.11861502 0.055691965
0002f0 0e ca 28 3d c8 c0 f1 3c 5d 1a 46 3d 97 cc d4 bc
       0.04120832 0.02951087 0.048364986 -0.025976462
000300 6f 69 9a bc f0 1f 71 bd d3 68 1a be 5b 33 b3 3d
       -0.018849103 -0.05886835 -0.1507905 0.0875003
000310 ef f9 68 bc ec 11 9b bd 1f 33 b8 3d 1c 8b 6c bc
       -0.014219745 -0.07571778 0.089941256 -0.014437463
000320 19 14 cd bd 0e 99 c0 bd 01 56 a8 3d 64 7e 90 3d
       -0.10013599 -0.09404193 0.08219529 0.07055357
000330 ff f8 ec 3c a2 b5 3e 3d 2b 9c 94 3c ae 4c a6 3d
       0.028927324 0.046559937 0.018140873 0.08120094
000340 9d 61 c9 bd f4 6d 89 bc da 8b bc 3c bd c2 04 3d
       -0.098330714 -0.016776063 0.023015905 0.03241228
000350 78 9e 69 bd 35 0e 96 3d c6 fc d7 3d 90 8a 2b 3d
       -0.057035893 0.073269285 0.105462596 0.04188019
000360 57 2a f2 3c a1 b9 0e bd d8 da 76 bd c5 87 92 3b
       0.029561205 -0.034845 -0.0602673 0.0044717514
000370 52 39 ce 3c 0b 93 ed bc e5 81 db bd 6e cc 28 bd
       0.025173817 -0.02900078 -0.10718135 -0.041210584
000380 5e b8 77 3c 52 1f ab 3d 3e 6b e3 bd 3b f0 bd bd
       0.01511964 0.08355583 -0.11104439 -0.09274336
000390 07 00 43 3d 07 0b 62 bc 00 63 21 be db 8e 92 bd
       0.047607448 -0.013796574 -0.15760422 -0.07156154
0003a0 e3 ad 12 bd a7 0b d2 bd d7 7e e9 bc d0 80 94 3d
       -0.035810363 -0.10256129 -0.028502865 0.072511315
0003b0 f0 cf c1 bc 9f 8d cb 3d 21 d7 34 bb b0 13 9f bd
       -0.023658723 0.099391215 -0.0027594047 -0.07767427
0003c0 3b f8 b3 3a e4 50 4b 3d 01 c9 a4 3b 91 dd a8 3d
       0.0013730595 0.04963769 0.0050288443 0.082453854
0003d0 ba 76 0f 3d 20 38 09 bd 07 fd 3d bc 49 b8 d9 bd
       0.035025336 -0.03350079 -0.011595971 -0.10630853
0003e0 a8 ba a0 bc 6e a6 63 bd d7 68 29 bd 75 76 e0 3d
       -0.019620255 -0.05557864 -0.04135975 0.10960094
0003f0 54 47 80 bd b1 c8 96 bd bd c7 ed 3c a4 2c 58 3d
       -0.06263605 -0.073624976 0.029025907 0.052776948

network_body._body_endoder.seq_layers.4.bias f4 [256]
000000 e9 14 17 bc 5f 0d 31 3c 6d 9b b0 3b 80 be 0e 3c
       -0.009221294 0.010806411 0.005389622 0.008712411
000010 7e a7 d7 3b 3b 44 10 3c 45 a7 0d 3c 36 74 91 3a
       0.006581246 0.00880533 0.008645837 0.0011097256
000020 97 6f c2 3b 24 ad d4 3b 04 a5 0c 3b c0 64 4d 3b
       0.0059337127 0.0064903665 0.0021460662 0.003134057
000030 50 41 68 bb f1 76 ac 3b d9 b5 82 bb 2a 08 07 ba
       -0.003543932 0.0052632024 -0.003988963 -0.0005151058
000040 c2 e1 19 3c c4 bd 01 3b 6f 55 04 ba 12 65 b8 3b
       0.009392204 0.0019796947 -0.0005048131 0.005627283
000050 88 66 d6 3a f8 16 00 3c ee c0 b2 3b 6b 83 3a 3b
       0.0016357461 0.007817976 0.005455128 0.002845968
000060 5e 2b 4b bb 3c a1 fb bb 56 66 6e 3b c9 ca 0a 3b
       -0.003100119 -0.0076791327 0.0036376915 0.0021177998
000070 63 14 94 ba 21 61 d3 3b 03 72 11 3c 68 31 e6 bb
       -0.001129758 0.0064507877 0.00887728 -0.0070249327
000080 f7 c6 c6 3b 8b e3 28 3c 35 40 3e 3b c8 95 54 3c
       0.006066199 0.010308157 0.002902997 0.012975164
000090 8d fc f7 bb 27 38 d8 3a 33 fd 1e bc 2b e2 80 3c
       -0.007567948 0.0016496227 -0.009703922 0.015732845
0000a0 bb 2c c4 39 00 f2 59 bb 3e 66 84 bb 51 eb c4 3b
       0.0003741736 -0.0033255816 -0.0040405085 0.006009497
0000b0 d5 61 c0 bb 28 d9 02 3c ae 83 c4 ba 5b 20 f7 37
       -0.0058710375 0.007986344 -0.0014992857 2.9459761e-05
0000c0 66 2d 29 3c ce c5 f4 bb 1d f3 97 bb 14 73 02 3c
       0.010325765 -0.007469869 -0.0046371357 0.007962007
0000d0 43 59 a3 3b 18 e2 b6 3b 1e 71 9c bb 01 33 f3 3a
       0.004985006 0.0055811517 -0.004774227 0.0018554629
0000e0 5d a0 66 bb 76 18 04 bc d3 6b 43 3c 28 b2 d3 ba
       -0.0035190799 -0.008062473 0.011927563 -0.0016151117
0000f0 8d 83 ac 3b df 99 8d 38 41 1e 0a 3c 0c c7 2d 3c
       0.0052647055 6.752065e-05 0.008430065 0.0106065385
000100 2d 49 8c bb 75 c2 68 3b c1 16 2e bb 14 2a 65 3b
       -0.004281184 0.0035516296 -0.0026563855 0.0034967707
000110 18 21 38 bc ca 3d 04 3b 8f c9 3b 3c 5d 52 d5 ba
       -0.011238359 0.002017843 0.0114616295 -0.0016275157
000120 10 f9 8f 3a bc 37 6a 3c 73 bb 85 ba 61 21 d6 3b
       0.0010984261 0.014295515 -0.0010202959 0.006534741
000130 9f 12 a4 3b 9b 48 d2 bb 7f ff 35 3c 73 35 4a 3b
       0.0050071026 -0.0064173467 0.011108278 0.0030854612
000140 12 cf d0 bb a9 00 86 3c f1 97 da 3a 8c fb 4c bc
       -0.006372341 0.016357737 0.0016677362 -0.012511145
000150 b7 6e 38 3a 18 07 cd 3b b1 33 e7 bb 69 a8 0b 3a
       0.0007035541 0.006256949 -0.0070557226 0.0005327524
000160 42 be 20 3c 52 92 ae 3b 2e 5f 17 ba e9 44 0b 3c
       0.009810986 0.0053275013 -0.0005774376 0.008500316
000170 fe 46 a3 3b 88 bd 60 3b 8a 91 db 3b 69 2e 5d ba
       0.004982828 0.0034292657 0.006700699 -0.00084373966
000180 bf 81 1f bb 34 ea 8b 3b d6 ad 1e 3c 4e 9b 2e 3c
       -0.002433881 0.0042698625 0.009685 0.010657145
000190 2e d1 72 bb 8e df 18 ba 2a 9a 07 3c 8a 2f 64 3b
       -0.003705095 -0.0005831652 0.008276502 0.0034818375
0001a0 35 3e 75 3b c0 46 77 3b c9 06 0d 3c 37 49 b9 3a
       0.0037421111 0.003773138 0.008607575 0.00141362
0001b0 de 36 6e 3b 02 bb fe ba 41 03 41 3c e9 16 f3 3b
       0.0036348621 -0.0019434395 0.011780561 0.0074185026
0001c0 3d 5c 2e 3c 90 d5 bb 3b e1 a5 87 3b e3 0f d4 bb
       0.0106421085 0.0057322457 0.0041396474 -0.0064716204
0001d0 7a 33 b4 bb 72 12 86 3b 72 04 f8 3b fc 0c 95 b8
       -0.0054993005 0.0040915543 0.0075688893 -7.107292e-05
0001e0 01 73 d1 3b ec 5c 1c 3c 7d 76 2a bc a1 a6 25 3b
       0.0063918834 0.009543639 -0.010404226 0.002527632
0001f0 c4 90 51 bb 5d 4c a2 3b a3 91 02 3b 12 31 f9 bb
       -0.0031977156 0.004952951 0.0019923232 -0.0076047266
000200 97 a6 02 bc 19 16 bc 3b 64 09 01 bc ab 8f 38 3b
       -0.007974288 0.005739939 -0.007875774 0.0028161805
000210 be af 32 bc 19 9c e5 3b 82 6d f3 3b f3 e0 11 3c
       -0.010906158 0.0070071337 0.007428826 0.00890373
000220 c9 9e 9e bb 62 7c a2 3c 3f e1 02 3b 85 13 66 39
       -0.004840706 0.019834701 0.0019970683 0.00021941781
000230 2d 1b 01 3c 82 a8 dc bb 80 d1 52 ba 47 17 2b 3b
       0.007880014 -0.006733955 -0.0008042082 0.0026106404
000240 4d ba 2d 3c 59 7b 00 3b e8 36 42 3b cc 26 7e 3b
       0.0106035 0.001960477 0.0029634777 0.003878045
000250 88 40 47 3c 66 aa ad bb fa 00 2a 3a 02 d0 5f 3b
       0.012161382 -0.005299854 0.0006485131 0.0034151082
000260 47 b2 70 3c 33 70 65 3b 1c cb 4e 3a 4d 79 fa 3a
       0.014690942 0.0035009503 0.0007888542 0.0019109637
000270 ce e2 51 bb 74 e2 9b 3b f8 c4 c2 b9 be 36 67 3c
       -0.0032026055 0.00475722 -0.00037149317 0.014112173
000280 fe 93 2c 3c 34 ea 09 ba 8c ce c6 3b 4e 00 cc 3b
       0.010533331 -0.0005261034 0.006067103 0.0062256223
000290 ca 85 a9 3a d5 81 15 3c 08 88 25 bc e3 08 5a 39
       0.0012933549 0.009125193 -0.010103233 0.0002079341
0002a0 0d 87 e8 ba 06 83 1a b9 39 6d cb b9 8a c5 61 bb
       -0.0017740444 -0.00014735395 -0.00038800554 -0.0034450018
0002b0 0e 70 b4 37 95 40 78 3b ba 94 f2 bb ce aa 0a bc
       2.1509852e-05 0.003788029 -0.0074029835 -0.008463575
0002c0 4a ca e0 3b 53 c7 cb 3b cc 2d d2 3b 59 e6 3e bb
       0.0068600522 0.0062188297 0.006414151 -0.0029128997
0002d0 a3 4e 88 bb c3 62 e7 ba 04 27 d7 ba fa 4f 05 3b
       -0.004159765 -0.0017653335 -0.0016414826 0.002034186
0002e0 fe f3 ac bb b1 7a 43 39 8f e1 4c bb ef 93 f3 ba
       -0.0052781096 0.00018642355 -0.0031262373 -0.0018583516
0002f0 93 da 5f 3b 14 72 19 bb fd dd b8 3b 67 e5 23 bb
       0.003415738 -0.0023413943 0.0056416974 -0.002500856
000300 2e e9 b2 3b db 0d 42 3c 37 2d 2f bb 94 0d 0e bc
       0.005459926 0.011844124 -0.002672983 -0.008670229
000310 a0 47 f2 ba b3 f2 08 b9 25 e9 7b 3a 9b c9 35 3a
       -0.0018484481 -0.00013060383 0.00096096314 0.00069346436
000320 6d ac 59 bb c2 18 9e ba 4f ff e3 3b 15 b7 eb bb
       -0.0033214346 -0.0012061822 0.0069579254 -0.007193456
000330 9a a5 63 bb 06 77 24 3a 33 f3 11 3b a1 e1 3c 3c
       -0.0034736157 0.00062738394 0.0022270202 0.0115284035
000340 23 df 51 bb d8 32 ae 3b 2d 94 49 3b ca dc ed 3b
       -0.003202387 0.0053161196 0.0030758486 0.007258986
000350 15 42 55 3b de 02 0f b9 ce 33 3b 3b 7d cd 91 3b
       0.0032540609 -0.00013638611 0.0028564814 0.004449545
000360 97 d6 54 3b b3 f4 d1 ba 33 3e 1b 3c b5 b2 4c 3c
       0.0032476538 -0.0016018361 0.009475279 0.012493779
000370 e9 3a 00 3c 2c 23 3e bb 1c 73 17 ba 9a 52 2f 3c
       0.007826545 -0.0029012663 -0.00057773455 0.010700846
000380 13 da 0e 3b c9 3c fd 38 e1 ab 7f 3b 59 fe 4b 3b
       0.0021797463 0.00012075302 0.003901236 0.0031126945
000390 2c a4 59 3c 7a 0e db bb 69 90 08 3c 3d 3c 4b ba
       0.0132837705 -0.0066850754 0.008335211 -0.00077528117
0003a0 3f bc 10 3c 5a 2c 55 bb 88 4b a1 bb 14 f6 46 3c
       0.008833944 -0.0032527656 -0.004922334 0.012143631
0003b0 d8 5b c5 3b eb c6 ea ba ee c3 bf ba 56 44 0f 3c
       0.0060229115 -0.0017912065 -0.0014630535 0.00874432
0003c0 0d 3f 4a 3b 5e 2e 88 3b db d2 81 38 8f af db 3b
       0.0030860335 0.004155918 6.190474e-05 0.006704278
0003d0 06 dd 42 bb 65 0b 01 3c dc 93 40 3b 77 0e 4e 3c
       -0.002973379 0.007876252 0.0029385006 0.012576691
0003e0 d9 5c 96 3b 18 7e 47 3b 42 0d 22 3b 6e e0 b9 bb
       0.004588705 0.0030440148 0.002472714 -0.005672506
0003f0 f0 c7 07 3b a4 1d 80 3b b1 73 46 3c 8f 73 0e 3c
       0.0020718537 0.0039097834 0.012112544 0.0086945435

action_model._continuous_distribution.log_sigma f4 [1, 12]
000000 6c 43 c7 3d 44 99 d4 3d b8 ed 5e 3d f9 ef 82 3d
       0.097296566 0.103807956 0.054425925 0.063934274
000010 bc 76 a4 3d 58 6a 3f 3d 15 43 3d 3d 09 6f 95 3d
       0.08030459 0.046732277 0.046206553 0.07296569
000020 ab 9f 15 3d 0a 18 e9 3c 70 a8 5d 3d cb a9 0d 3d
       0.036529224 0.028453846 0.054115713 0.034585755
