results/Robot_Run_06_19/RobotAgent/RobotAgent-5999587.onnx (onnx, 984161 bytes, 16 tensors)

network_body.observation_encoder.processors.0.normalizer.running_mean f4 [36]
0.05372407 0.9193041 0.026921157 0.09425752 0.052461464 0.9185017 0.028994968 0.10345341
0.057182066 0.91067696 0.032063387 0.10735848 0.054540318 0.89990896 0.04546628 0.14912121
0.06317653 0.88221365 0.05451984 0.15991443 0.09433495 0.76308745 0.14248729 0.3287799
0.09769576 0.7360207 0.16618478 0.352464 0.21585838 0.1641643 0.6199315 0.7528878
0.2031208 0.14039 0.6563966 0.776423
00000000: c50d 5c3d 8357 6b3f c289 dc3c 160a c13d
00000010: d5e1 563d ed22 6b3f db86 ed3c 62df d33d
00000020: be37 6a3d 2022 693f e654 033d c3de db3d
00000030: ab65 5f3d 6f60 663f da3a 3a3d 3bb3 183e
00000040: b262 813d c1d8 613f 3250 5f3d 9cc0 233e
00000050: af32 c13d b359 433f 30e8 113e d755 a83e
00000060: b714 c83d da6b 3c3f 582c 2a3e 2976 b43e
00000070: fb09 5d3e b01a 283e d5b3 1e3f 41bd 403f
00000080: e6fe 4f3e 65c2 0f3e 9c09 283f a8c3 463f

network_body.observation_encoder.processors.1.normalizer.running_mean f4 [75]
0.027717376 -0.010616768 -0.014606788 0.0055178353 -0.011597934 -0.025566576 0.89932513 44.7936
0.3985093 3.0057406 1.7371184 0.03422523 0.004905972 -0.05629765 0.9882159 0.14351821
0.012182508 0.00012802881 0.043703783 0.040478192 -0.04913098 -0.094238594 0.97467744 0.19704583
-0.02204717 0.037571326 0.122379534 0.038633794 -0.0047664824 0.07583552 0.9860802 0.15787666
-0.07006907 0.0007208226 -0.036877565 0.046716265 0.067425124 0.093880855 0.9721223 0.20243107
-0.02467259 -0.049627565 -0.12299523 0.04941994 0.008686726 -0.12736928 0.9816058 0.16220285
0.045259282 -0.00084658037 0.0925066 0.12743326 -0.11945681 -0.013559886 0.9735332 0.18868104
-0.07891482 0.07954483 -0.06016836 0.082808256 -0.016946463 0.05043832 0.9871096 0.1489222
-0.08266816 0.008387396 -0.0036581152 0.17518944 0.048909582 0.012425992 0.9749997 0.17199734
-0.11090292 -0.03417429 -0.01388257
00000000: 8d0f e33c f4f1 2dbc 4f51 6fbc f5ce b43b
00000010: 4305 3ebc ff70 d1bc 2c3a 663f a52c 3342
00000020: 6909 cc3e 0e5e 4040 e559 de3f c12f 0c3d
00000030: 47c2 a03b 5d98 66bd b8fb 7c3f 70f6 123e
00000040: 2499 473c 793f 0639 bd02 333d 76cc 253d
00000050: 913d 49bd 2a00 c1bd 7684 793f 62c6 493e
00000060: 449c b4bc 64e4 193d 1fa2 fa3d 783e 1e3d
00000070: 2730 9cbb a74f 9b3d c16f 7c3f 6baa 213e
00000080: 5f80 8fbd 96f5 3c3a ee0c 17bd 8e59 3f3d
00000090: 2f16 8a3d 9b44 c03d 02dd 783f 174a 4f3e
000000a0: 2c1e cabc 4646 4bbd ece4 fbbd 906c 4a3d
000000b0: c552 0e3c 186d 02be 854a 7b3f 8118 263e
000000c0: cc61 393d 0ced 5dba 1a74 bd3d dd7d 023e
000000d0: c6a5 f4bd 492a 5ebc 7939 793f 9a35 413e
000000e0: 189e a1bd 66e8 a23d 1973 76bd 6097 a93d
000000f0: 4fd3 8abc 6998 4e3d 37b3 7c3f 107f 183e
00000100: ed4d a9bd 4a6b 093c fdbc 6fbb dc64 333e
00000110: 6a55 483d 6396 4b3c 9599 793f 1220 303e
00000120: 1221 e3bd 57fa 0bbd b873 63bc

network_body._body_endoder.seq_layers.0.weight f4 [256, 111]
0.049491864 0.0005528544 -0.17624512 -0.09043599 -0.035576437 0.033408616 0.11043009 -0.1606567
-0.059857085 0.14115737 0.06949339 -0.005842908 -0.2503929 -0.17200577 0.037854232 -0.017790498
0.15992182 -0.08004358 -0.013651868 0.111610144 -0.14435211 0.087412745 0.06608441 -0.040405225
0.024508875 -0.06121612 -0.007010061 0.09331424 0.057658203 -0.08146041 0.10825957 -0.03695534
0.016224228 -0.07525095 0.07801664 0.0045047277 -0.020674217 -0.18552707 -0.00022518633 -0.07933911
0.07469505 -0.04624259 -0.033755336 -0.017821325 0.2036294 0.20782529 0.024471242 0.15545312
-0.04100817 -0.023946902 -0.021464612 -0.13030116 -0.08874188 -0.14718786 0.03156184 -0.092051044
-0.07602703 -0.01812465 0.2309973 0.034066845 0.14837396 0.02857805 0.15202218 0.008937548
0.11608085 0.008867997 -0.04341528 -0.040124685 0.03740567 -0.08752166 -0.04785864 -0.06333415
-0.0036318116 0.066008665 -0.15030612 -0.06340171 0.026984094 0.06881332 -0.11298011 -0.032116134
0.1994647 -0.06766868 -0.018279392 0.067693055 0.07481071 -0.04586356 -0.074168906 0.10911742
-0.20803614 0.16603237 0.04518514 -0.078798845 0.027839933 0.10702241 0.15956712 -0.16022718
0.000541098 0.059346378 -0.0034062956 -0.03035013 -0.089015566 -0.0121875275 0.058998913 -0.12151341
-0.16202228 -0.16542625 0.069373384 -0.077727675 0.0075277644 0.031348802 -0.09186504 -0.17869833
0.18666269 0.091066785 0.12807865 0.061629433 -0.032574773 -0.053992584 0.11289332 0.12425937
0.16567667 -0.2270594 0.12335445 -0.015135398 0.022954553 -0.16032924 0.14619906 0.06341251
-0.15647255 0.018992323 0.06205734 0.08885642 -0.07725638 0.05630074 0.34694114 0.18736334
0.07925078 -0.06735124 0.0646042 0.09201198 -0.024002831 -0.15561336 -0.15950175 0.016927686
-0.07330247 -0.06943034 0.0650939 -0.00085298356 0.0471404 0.029226333 0.32925344 0.04438315
0.044444174 0.09107217 0.1750628 0.10634902 -0.06517535 -0.067762375 -0.10118621 -0.06571643
0.10696679 0.010781743 -0.10986911 -0.090531416 0.097953305 0.028865878 -0.06031094 0.08413778
0.011390632 0.023346525 0.061405472 0.196084 -0.113403276 -0.08653616 0.20131312 0.019210916
0.120752715 0.112047225 0.05671196 -0.14517167 -0.043585952 -0.015035875 -0.020866979 0.06605225
0.102846585 0.019180791 0.07010658 0.00930599 0.11442104 -0.06252412 0.023447162 -0.3752937
0.018253852 0.020624654 -0.0938663 0.0792242 0.106334284 0.159622 0.059986312 0.1035553
0.13923398 0.010839245 0.038837217 -0.06582556 0.00083814375 -0.14096728 0.020677896 -0.17762688
-0.12030264 -0.012504002 -0.028317176 -0.05938917 0.09319271 -0.040638767 0.053990286 -0.0071286377
0.016220966 0.050637178 -0.0897876 0.19137137 -0.20851155 -0.030029235 0.06956485 0.12853827
0.105462365 0.08413575 0.19543362 -0.010286776 -0.096371666 -0.06087087 0.08643102 0.0012891204
0.026564237 -0.177521 -0.07414635 -0.017735146 0.06369906 -0.106152534 0.055313747 -0.18141349
0.0936789 0.06491648 0.006543728 -0.07584575 0.16087453 0.0028282343 -0.16345465 0.11159156
-0.056207467 0.07170012 0.1525571 0.052180346 -0.09989468 0.06937604 0.03563009 -0.033038538
00000000: fbb7 4a3d 6eed 103a 9a79 34be 8136 b9bd
00000010: 99b8 11bd 79d7 083d 2c29 e23d 3183 24be
00000020: b42c 75bd 8f8b 103e 8d52 8e3d dd75 bfbb
00000030: 8033 80be 4822 30be 0a0d 1b3d 61bd 91bc
00000040: 8cc2 233e e3ed a3bd 16ac 5fbc dc93 e43d
00000050: 0ad1 13be 7405 b33d 4357 873d f37f 25bd
00000060: d6c6 c83c c1bd 7abd a7b4 e5bb 891b bf3d
00000070: 022b 6c3d b7d4 a6bd 32b7 dd3d 7c5e 17bd
00000080: ace8 843c 2c1d 9abd 30c7 9f3d 659c 933b
00000090: fa5c a9bc cffa 3dbe ff1f 6cb9 8b7c a2bd
000000a0: b8f9 983d df68 3dbd 0943 0abd 07fe 91bc
000000b0: 3a84 503e 27d0 543e ea77 c83c 1a2f 1f3e
000000c0: 2ff8 27bd 4b2c c4bc 8ed6 afbc ab6d 05be
000000d0: 4ebe b5bd 6ab8 16be fd46 013d 4285 bcbd
000000e0: 0fb4 9bbd 257a 94bc 8e8a 6c3e ad89 0b3d
000000f0: 58ef 173e 841c ea3c b4ab 1b3e cb6e 123c
00000100: ccbb ed3d 134b 113c 38d4 31bd c859 24bd
00000110: b036 193d 8e3e b3bd 6c07 44bd 56b5 81bd
00000120: b003 6ebb 8d2f 873d d9e9 19be c1d8 81bd
00000130: bf0d dd3c ffed 8c3d 1e62 e7bd 358c 03bd
00000140: 7940 4c3e e095 8abd aabe 95bc a8a2 8a3d
00000150: 5c36 993d 6edb 3bbd dee5 97bd f478 df3d
00000160: 6d07 55be 6404 2a3e 0e14 393d 4a61 a1bd
00000170: 9210 e43c 912e db3d 9065 233e 9812 24be
00000180: 79d8 0d3a 3015 733d 283c 5fbb d6a0 f8bc
00000190: cb4d b6bd 32ae 47bc d8a8 713d 06dc f8bd
000001a0: 2be9 25be 8065 29be a213 8e3d b02f 9fbd
000001b0: 77ab f63b 9a67 003d bd23 bcbd b2fc 36be
000001c0: 8124 3f3e 3981 ba3d 0d27 033e 256f 7c3d
000001d0: 206d 05bd 5427 5dbd 9d34 e73d b27b fe3d
000001e0: 25a7 293e 4282 68be 42a1 fc3d 76fa 77bc
000001f0: 300b bc3c 592d 24be 35b5 153e 6bde 813d
00000200: 573a 20be ca95 9b3c d62f 7e3d 5bfa b53d
00000210: 9838 9ebd 9b9b 663d 45a2 b13e 2ddc 3f3e
00000220: 3c4e a23d 72ef 89bd 354f 843d c770 bc3d
00000230: 96a1 c4bc 1c59 1fbe 6d54 23be eeab 8a3c
00000240: 9b1f 96bd 7e31 8ebd f34f 853d c29a 5fba
00000250: 4b16 413d 106c ef3c e893 a83e 1bcb 353d
00000260: 180b 363d 0c84 ba3d aa43 333e 84cd d93d
00000270: a77a 85bd 00c7 8abd b73a cfbd 5696 86bd
00000280: 6811 db3d e8a5 303c 0e03 e1bd 8968 b9bd
00000290: be9b c83d 2278 ec3c 9b08 77bd 6e50 ac3d
000002a0: c69f 3a3c 3641 bf3c 4e84 7b3d 3eca 483e
000002b0: fa3f e8bd df39 b1bd 0725 4e3e 3660 9d3c
000002c0: 334d f73d 0479 e53d cd4a 683d e2a7 14be
000002d0: 2f87 32bd 0859 76bc 3af1 aabc 6746 873d
000002e0: 3ba1 d23d 0921 9d3c 0a94 8f3d 2778 183c
000002f0: 9455 ea3d a50c 80bd 4314 c03c 7f26 c0be
00000300: 1a89 953c 09f5 a83c fa3c c0bd 4c40 a23d
00000310: cac5 d93d f373 233e 35b4 753d cd14 d43d
00000320: 5a93 0e3e 1797 313c c613 1f3d 8dcf 86bd
00000330: e0b6 5b3a ba59 10be b164 a93c d2e3 35be
00000340: 3b61 f6bd 96dd 4cbc 6cf9 e7bc 0f42 73bd
00000350: d2db be3d d674 26bd eb24 5d3d 5997 e9bb
00000360: d5e1 843c ee68 4f3d 90e2 b7bd dbf6 433e
00000370: 0d84 55be dfff f5bc 0478 8e3d 899f 033e
00000380: a7fc d73d 5d4f ac3d c01f 483e de89 28bc
00000390: 825e c5bd bc53 79bd bf02 b13d b4f7 a83a
000003a0: 3e9d d93c 11c8 35be 0bda 97bd 4c49 91bc
000003b0: a774 823d 8066 d9bd ab90 623d 75c4 39be
000003c0: b9da bf3d eef2 843d c56c d63b 0455 9bbd
000003d0: 4bbc 243e e659 393b a860 27be 1e8a e43d
000003e0: cd39 66bd 83d7 923d ee37 1c3e 0fbb 553d
000003f0: 9595 ccbd 0615 8e3d dbf0 113d 6b53 07bd

network_body._body_endoder.seq_layers.0.bias f4 [256]
0.027108949 0.022640621 0.008575362 0.03552357 -0.004541949 0.027704898 -0.0030302873 0.0056297546
0.021301044 0.013012769 0.008897236 0.0035658048 0.004410204 0.009336734 0.022479806 0.00518484
0.018092612 0.010514925 0.024936203 0.024489425 0.0090247905 0.0002579306 0.028145988 0.016747782
0.015365952 0.01532804 -0.013206852 -0.0005206863 0.009478243 0.012726598 0.028220974 0.021521179
0.02848701 0.011056134 0.026480844 -0.002079706 0.0038346297 0.017798612 0.010831999 0.021031067
0.019614499 0.0039927987 0.009207933 0.0239746 -0.0056546605 0.0024479222 0.0041747084 0.012503825
0.020283684 0.0118457405 0.015310719 0.008575373 0.005970675 0.008244251 0.012983192 0.024486516
0.014104987 0.019741708 0.0012785255 0.009557517 0.009703883 0.00321241 0.019731143 0.004930024
0.033624724 0.02019131 0.0120346 0.017502194 0.015430942 0.0014561424 0.024446074 0.008026939
0.023885623 -0.014734752 0.004031504 0.0029601173 0.016894553 0.00740025 0.010518145 0.0140320845
0.008283814 0.01915253 0.008340734 -0.005856391 0.002843093 0.008959211 0.00068399176 0.013584899
0.0073676086 0.005468673 0.00674428 0.014607643 -0.010428635 0.021517565 0.0075419727 0.02549021
0.005237296 0.023756877 -0.0019871246 0.0054813446 0.0032447325 -0.009975373 0.016757557 0.047257096
0.01778626 0.017742734 -0.0012384914 0.016985662 -0.0026752148 0.020380286 0.0042289468 0.017935459
0.019438695 0.013774569 -0.002729014 0.00820226 -0.0018123155 0.01705862 0.0133764325 0.020229815
0.020613413 0.020116296 0.009011121 -0.010970895 0.012736805 0.0040238206 0.0066758813 -0.0023651214
0.022541575 0.029722739 0.024796857 -0.002929196 0.024036841 0.023402652 0.011883398 0.015618305
0.0005413618 0.00047050993 0.017356373 -0.0053772475 0.0035942357 0.0012895953 -0.016774604 0.01704718
0.019056287 -0.0028877521 0.0018211433 0.02737803 0.027406061 -0.0042779823 0.017441915 0.020476902
0.0058370493 0.01015412 0.023874955 0.0132741295 0.019274067 -0.0006317823 0.035736892 0.005905263
-0.016255837 0.008722467 -0.0021854804 -0.00078567583 0.008064788 0.005544253 0.012034644 0.0018995495
0.025006533 0.014010008 0.010132407 0.013078739 0.034712967 -0.0071511175 0.012103467 -0.014431866
0.0070364936 0.01231219 0.013272857 0.0054193055 0.033446725 -0.003813897 0.012654707 0.013108228
0.01872442 -0.0003310771 0.014034057 0.003211606 0.008078226 0.004226865 0.013144415 0.012200125
-0.0018309987 0.0148445 -0.004228062 0.0086893225 0.0263571 0.0063519776 0.017379377 0.032047898
0.035158046 0.032413747 0.0030941726 0.006442601 0.010755144 0.013676933 0.035715204 0.033944543
0.00720234 0.007908284 0.008683139 -0.006912719 0.008672757 0.007979367 0.0187847 0.015975736
0.010576449 0.01610844 0.022376915 0.003130274 -3.1315315e-06 0.0151481405 -0.016239645 -0.004713745
0.006690613 0.011961596 0.0005771132 0.019332046 0.008433551 0.034794185 0.0071111685 0.011314715
0.005716422 0.031971566 -0.005141741 0.008381999 0.008870654 0.023263255 0.017023755 0.00408503
0.0075821276 -0.004390836 0.006908117 0.015777428 0.012533168 0.01257684 0.014108913 0.022839015
0.0247367 0.020730788 0.014202292 0.008216028 0.004581139 -0.00090825086 0.03147956 -0.0058615403
00000000: 9613 de3c d378 b93c ad7f 0c3c 2a81 113d
00000010: a1d4 94bb 62f5 e23c c997 46bb ce79 b83b
00000020: 877f ae3c 8233 553c b6c5 113c 47b0 693b
00000030: 7983 903b 1af9 183c 9227 b83c 97e5 a93b
00000040: f536 943c cb46 2c3c 0247 cc3c 0c9e c83c
00000050: b7dc 133c dc3a 8739 6a92 e63c a532 893c
00000060: 79c1 7b3c 7622 7b3c 8d61 58bc ab7e 08ba
00000070: a24a 1b3c 3983 503c ac2f e73c 2f4d b03c
00000080: 975d e93c c924 353c 5bee d83c ad4b 08bb
00000090: 694e 7b3b 65ce 913c b278 313c 5849 ac3c
000000a0: 96ae a03c 06d6 823b dfdc 163c 6166 c43c
000000b0: bb4a b9bb 526d 203b fecb 883b d8dc 4c3c
000000c0: f829 a63c a314 423c cfd9 7a3c b97f 0c3c
000000d0: a7a5 c33b e512 073c 74b7 543c f297 c83c
000000e0: 9a18 673c 5db9 a13c 3294 a73a 2297 1c3c
000000f0: 09fd 1e3c 4c87 523b 35a3 a13c 0a8c a13b
00000100: 14ba 093d 3f68 a53c c52c 453c c360 8f3c
00000110: 10d2 7c3c 08dc be3a 2243 c83c 6c83 033c
00000120: c8ab c33c 076a 71bc b51a 843b 87fe 413b
00000130: 7266 8a3c cc7d f23b 4c54 2c3c d4e6 653c
00000140: d6b8 073c c4e5 9c3c 93a7 083c f8e6 bfbb
00000150: 2f53 3a3b a8c9 123c e94d 333a 3293 5e3c
00000160: fb6b f13b 8e32 b33b 1fff dc3b e554 6f3c
00000170: dedc 2abc 9b45 b03c a722 f73b d8d0 d03c
00000180: a09d ab3b c89d c23c 6b3a 02bb da9c b33b
00000190: 94a5 543b bf6f 23bc 2547 893c a890 413d
000001a0: 7eb4 913c 3659 913c e054 a2ba 8425 8b3c
000001b0: a852 2fbb 8ff4 a63c fa92 8a3b 62ed 923c
000001c0: e63d 9f3c bbae 613c 42d9 32bb c662 063c
000001d0: 388b edba 85be 8b3c d328 5b3c ffb8 a53c
000001e0: 76dd a83c eeca a43c 61a3 133c 45bf 33bc
000001f0: 08ae 503c 41da 833b 5ac1 da3b 2700 1bbb
00000200: 1ca9 b83c 1a7d f33c c722 cb3c c1f7 3fbb
00000210: e9e8 c43c ebb6 bf3c 95b2 423c ebe3 7f3c
00000220: 2dea 0d3a c6ae f639 f42e 8e3c 9f33 b0bb
00000230: 458d 6b3b a307 a93a e56a 89bc 87a6 8b3c
00000240: ee1b 9c3c 7140 3dbb 6eb3 ee3a e447 e03c
00000250: ad82 e03c 512e 8cbb 59e2 8e3c 2dbf a73c
00000260: b844 bf3b 775d 263c 6995 c33c bc7b 593c
00000270: a6e4 9d3c 319e 25ba d960 123d f080 c13b
00000280: f62a 85bc aee8 0e3c 473a 0fbb d0f5 4dba
00000290: 2c22 043c 91ac b53b f52c 453c 4efa f83a
000002a0: 80da cc3c 3c8a 653c 6502 263c 3548 563c
000002b0: 2f2f 0e3d ec53 eabb 9f4d 463c a273 6cbc
000002c0: 6392 e63b 11b9 493c 6676 593c 6e94 b13b
000002d0: 6fff 083d 93f2 79bb b055 4f3c e5c3 563c
000002e0: f463 993c 6b94 adb9 1aef 653c cf79 523b
000002f0: 895a 043c 8381 8a3b ac5b 573c 08e3 473c
00000300: 1ffe efba 5936 733c 8e8b 8abb a95d 0e3c
00000310: d8ea d73c 4024 d03b 325f 8e3c a844 033d
00000320: e201 103d 47c4 043d 9ac7 4a3b 741c d33b
00000330: 5836 303c 3715 603c 1b4a 123d 6f09 0b3d
00000340: 9b01 ec3b bf91 013c ba43 0e3c 1784 e2bb
00000350: 2e18 0e3c e4bb 023c 5fe2 993c 8cdf 823c
00000360: d848 2d3c d9f5 833c cb4f b73c 4825 4d3b
00000370: 4d27 52b6 e82f 783c 0109 85bc c275 9abb
00000380: ee3c db3b 92fa 433c 6949 173a 3d5e 9e3c
00000390: e02c 0a3c 5984 0e3d ce04 e93b 5b61 393c
000003a0: d350 bb3b 9ef4 023d 0d7c a8bb a754 093c
000003b0: 3856 113c 9592 be3c 6775 8b3c b7db 853b
000003c0: 7f73 f83b 01e1 8fbb 7c5d e23b aa3f 813c
000003d0: eb57 4d3c 170f 4e3c 1229 673c e318 bb3c
000003e0: 9fa4 ca3c 9dd3 a93c bbb0 683c 859c 063c
000003f0: 611d 963b af17 6eba b6f0 003d 2a12 c0bb

network_body._body_endoder.seq_layers.2.weight f4 [256, 256]
-0.0055305995 -0.027890122 -0.042059824 0.028520653 0.030337537 -0.055390667 0.04339515 -0.1312985
-0.012157156 0.016575722 -0.08952264 0.00029443725 0.09985123 -0.069812134 0.024853284 -0.023804398
-0.021038674 -0.010264327 -0.0032426917 -0.021327382 0.046656508 -0.06718218 -0.0761707 0.024903152
-0.020451127 -0.055157986 0.0544329 0.020702926 -0.029902223 -0.06602317 -0.015322547 -0.078024365
-0.10858226 -0.058070805 -0.064968795 0.0022555112 -0.021542983 -0.00033067982 0.008622813 0.03592469
-0.08733613 0.024708744 -0.07406059 -0.0493129 -0.027071869 -0.037155166 -0.09226519 0.054213654
0.014648442 0.023295421 -0.033950172 -0.05492343 -0.05420865 0.052672647 -0.027818806 0.023308787
0.0115235355 -0.020946888 -0.08499334 0.00960661 0.010536984 0.0759689 0.054175284 0.06461854
0.002057 0.0020298332 0.055069037 0.013678366 -0.023596575 0.009129534 -0.08349487 -0.015870785
-0.032568786 -0.07408905 -0.078739196 -0.011501594 -0.00979667 0.021803789 0.1565209 -0.06503826
0.008862946 -0.008528832 0.026324386 0.04890033 -0.03094843 -0.029485038 0.015003101 -0.015787126
-0.004123806 -0.07349973 -0.0029489927 -0.075026415 -0.012449153 -0.07860247 0.052009687 -0.053240675
-0.06768331 -0.0593594 0.009023573 0.032777853 0.04287233 0.033660963 -0.11954926 -0.07352489
-0.11520975 0.053980682 0.014790588 -0.03945845 0.13012356 -0.22411686 -0.06576886 -0.047009498
-0.048983727 -0.008305859 0.0788802 -0.00039199446 -0.01774525 0.06428357 0.1076848 0.06633699
-0.058988947 -0.069663525 -0.02143954 0.09190741 0.14776836 0.056929156 0.08323072 0.02401945
-0.061305266 -0.13621566 0.01686047 -0.15736575 -0.057723433 0.08480644 -0.021141851 -0.052279007
0.05588573 0.0069487817 -0.07724057 -0.029360333 -0.02267407 0.048060134 0.08564186 -0.0671385
-0.04151851 -0.057652764 -0.09597825 0.05629286 -0.064411536 -0.013633439 0.04184728 -0.017461387
0.020816423 0.034673125 -0.033525266 0.023211552 -0.08443105 0.005495258 -0.08768254 0.012861897
0.009109738 -0.09689838 -0.09960401 0.083253734 -0.007104541 0.030457279 0.09211172 0.020199973
-0.024274506 0.06668765 -0.02534494 0.062985696 -0.05680385 -0.01290897 -0.060361274 0.08637947
0.0760729 -0.023991305 -0.0059892335 -0.0073469854 -0.025313782 -0.0010515965 0.050294995 0.032322846
-0.015241539 0.024016406 -0.040337637 -0.042300075 -0.09796993 -0.10533116 -0.087182865 -0.025939582
0.022396863 -0.028780615 -0.05001941 -0.08509091 0.1420426 0.07002758 0.03795448 0.0056166956
-0.06865631 0.061279956 -0.03454025 -0.011359729 0.04630644 0.10680264 -0.081129625 -0.1528345
-0.0668768 -0.023535835 0.17015553 -0.04689092 -0.031714343 0.0024844334 -0.002401095 -0.052748363
0.023938747 -0.02712399 -6.4356806e-05 -0.04219998 -0.035705596 -0.0035691722 -0.020719916 0.03983971
-0.011124742 0.047707245 -0.03364686 -0.076259285 -0.05914177 0.04212677 -0.057366386 0.009564489
0.032315094 0.03027636 -0.06616324 -0.04131045 0.057248756 -0.0027394022 0.06264201 -0.07029662
-0.032074936 -0.07070922 0.0793709 -0.055769414 -0.01762445 -0.029512718 -0.0057319687 0.027074471
0.024385426 -0.04088486 0.016662672 0.03413472 0.04393125 0.023200845 0.0060132015 0.08919905
00000000: 083a b5bb d379 e4bc ec46 2cbd 25a4 e93c
00000010: 6d86 f83c 53e1 62bd 1dbf 313d 1d73 06be
00000020: cf2e 47bc cfc9 873c a557 b7bd b35e 9a39
00000030: cd7e cc3d aaf9 8ebd 1d99 cb3c 7101 c3bc
00000040: 4c59 acbc b52b 28bc 5783 54bb c3b6 aebc
00000050: e51a 3f3d d096 89bd 62ff 9bbd b201 cc3c
00000060: 1f89 a7bc 57ed 61bd 08f5 5e3d 2f99 a93c
00000070: 82f5 f4bc 2837 87bd 6c0b 7bbc 3dcb 9fbd
00000080: 6060 debd a7db 6dbd 5c0e 85bd 33d1 133b
00000090: e97a b0bc 185f adb9 b346 0d3c c525 133d
000000a0: 49dd b2bd fe69 ca3c 14ad 97bd 53fc 49bd
000000b0: d3c5 ddbc 0430 18bd 88f5 bcbd 230f 5e3d
000000c0: 0500 703c 0ad6 be3c 560f 0bbd 64f7 60bd
000000d0: e409 5ebd 46bf 573d 44e4 e3bc 12f2 be3c
000000e0: 36cd 3c3c cf98 abbc fd10 aebd 0b65 1d3c
000000f0: 50a3 2c3c 9595 9b3d e7e6 5d3d ba56 843d
00000100: bcce 063b f306 053b 1290 613d 3a1b 603c
00000110: 9b4d c1bc 0a94 153c 5cff aabd 7303 82bc
00000120: d966 05bd 00bc 97bd 0442 a1bd 2f71 3cbc
00000130: 3682 20bc dc9d b23c 0447 203e c732 85bd
00000140: e435 113c 84bc 0bbc 3da6 d73c b64b 483d
00000150: 9087 fdbc 9b8a f1bc 91cf 753c 0154 81bc
00000160: fe20 87bb 0787 96bd e343 41bb 73a7 99bd
00000170: 88f7 4bbc 55fa a0bd 1c08 553d e512 5abd
00000180: 8c9d 8abd d822 73bd 9cd7 133c 1242 063d
00000190: e59a 2f3d 14e0 093d 3ed6 f4bd 3894 96bd
000001a0: 17f3 ebbd d91a 5d3d 3954 723c 2f9f 21bd
000001b0: 1c3f 053e e47e 65be d3b1 86bd 088d 40bd
000001c0: 29a3 48bd 4c15 08bc f18b a13d 9b84 cdb9
000001d0: 7d5e 91bc 1ba7 833d d989 dc3d b0db 873d
000001e0: 659e 71bd c0ab 8ebd f9a1 afbc f439 bc3d
000001f0: 9750 173e 8c2e 693d de74 aa3d 70c4 c43c
00000200: 3b1b 7bbd 1e7c 0bbe f81e 8a3c 7d24 21be
00000210: 686f 6cbd 00af ad3d ad31 adbc 8322 56bd
00000220: 6fe8 643d 9bb2 e33b 4e30 9ebd 1585 f0bc
00000230: f9be b9bc b4da 443d 0065 af3d e97f 89bd
00000240: 500f 2abd 4e25 6cbd 3f90 c4bd 5893 663d
00000250: 32ea 83bd ca5e 5fbc 0e68 2b3d 2f0b 8fbc
00000260: 3487 aa3c 6805 0e3d ca51 09bd 2726 be3c
00000270: 30ea acbd 9111 b43b e792 b3bd b5ba 523c
00000280: 0341 153c a872 c6bd 30fd cbbd ef80 aa3d
00000290: 36cd e8bb 8b81 f93c 12a5 bc3d 6a7a a53c
000002a0: 54db c6bc 8993 883d 31a0 cfbc a5fe 803d
000002b0: 27ab 68bd 2580 53bc 623d 77bd b8e7 b03d
000002c0: 1ccc 9b3d 6a89 c4bc 5541 c4bb fbbe f0bb
000002d0: d95e cfbc b9d5 89ba 2002 4e3d f664 043d
000002e0: a6b7 79bc 0ebe c43c 1439 25bd d842 2dbd
000002f0: 75a4 c8bd ddb7 d7bd ee8c b2bd 3f7f d4bc
00000300: a079 b73c 53c5 ebbc 27e1 4cbd 2544 aebd
00000310: 9e73 113e 9f6a 8f3d 2876 1b3d 420c b83b
00000320: ae9b 8cbd b100 7b3d 147a 0dbd 281e 3abc
00000330: d2ab 3d3d 58bb da3d 4a27 a6bd a680 1cbe
00000340: b4f6 88bd 39ce c0bc 403d 2e3e b110 40bd
00000350: e6e6 01bd e0d1 223b b05b 1dbb ab0e 58bd
00000360: 311b c43c 2133 debc 4cf7 86b8 e3d9 2cbd
00000370: 0840 12bd c6e8 69bb d0bc a9bc f72e 233d
00000380: 8d44 36bc ac68 433d 4ad1 09bd d42d 9cbd
00000390: a43e 72bd 1f8d 2c3d 04f9 6abd 60b4 1c3c
000003a0: d55c 043d 2106 f83c 9880 87bd 2535 29bd
000003b0: ac7d 6a3d 8b87 33bb 744a 803d adf7 8fbd
000003c0: 0261 03bd ffcf 90bd 368d a23d 786e 64bd
000003d0: 2761 90bc a8c4 f1bc 3dd3 bbbb 48cb dd3c
000003e0: f2c3 c73c e276 27bd 2880 883c d9d0 0b3d
000003f0: 41f1 333d b30f be3c 640a c53b fead b63d

network_body._body_endoder.seq_layers.2.bias f4 [256]
-0.013033409 -0.012933195 -0.0035130184 0.018163348 -0.00059016823 0.011703635 0.009285578 0.0010357532
-0.004089755 0.0015364407 -0.008699141 -0.0033646293 0.00882729 -0.012817362 -0.001752448 0.005067739
-0.00026695128 -0.0004339948 0.01471091 0.007127543 -0.005994147 0.012899903 0.008021713 0.008825997
-0.002512528 0.0010798285 0.0098063415 0.01684864 -0.010778656 0.026193088 0.005500335 0.008834182
0.0021833032 0.013605232 0.016270773 0.0025669911 0.00561628 0.010381846 0.0071047284 0.009701525
-0.0022409828 0.009285447 0.001632594 0.00753934 0.015360759 -0.0026209918 -0.0032120317 0.0074018016
0.010549079 -0.0057670698 0.013495608 0.01764823 0.00082126964 0.011286078 -0.006151422 -0.0031131834
0.00497665 0.0046781013 -0.0051646386 0.004961769 0.00588165 -0.0020742936 0.016006706 0.013579581
-0.0010460974 0.024242185 0.007031232 -0.0012604031 0.007987153 0.0031044774 0.016279276 0.019362576
-0.0046926676 0.014818355 0.006005996 0.005865562 0.0037407205 0.004995091 0.009302922 0.011819368
0.016026132 -0.003008375 -0.0054096584 -0.0106393825 -0.0012566501 0.010879993 0.011887568 0.027639
0.011351798 0.012993815 -0.0017223879 0.0049981526 0.008735506 -0.0020705801 0.0062600663 0.010569441
0.015053881 -0.0008271208 0.0070347413 0.0077511095 0.0017356586 0.0018095726 0.010660849 -0.005442117
0.01411058 0.017726513 0.012489506 0.012400483 0.017849987 0.011449026 0.0053904247 0.015699826
-0.00022504515 0.02337326 0.004867351 -0.0013812149 0.0042566783 0.0038464589 0.0020880804 0.00964063
0.014799838 0.0077190297 -0.009766708 -0.003086851 -0.0018899374 0.032926206 -0.002728205 0.007113986
0.0022290275 -0.0011671807 0.00036591972 0.010350261 0.015229701 -0.003032036 -0.007634672 -0.010596677
0.00807431 0.0036247873 0.0042427457 -0.004712612 0.00017774808 -0.005531667 -0.014271351 0.009954414
-0.0014668395 -0.0007070787 -0.00021639465 0.00028252127 0.014325805 0.0008805366 0.008685582 0.0009832949
0.004145678 0.0011030361 -0.004029295 0.011513314 -0.004403031 -0.0054368027 0.0009056364 0.00052234845
0.0047960314 -0.00035472945 0.009869795 0.008929412 -0.0038279674 0.0020733112 0.007375003 0.009847998
0.019136192 -0.008710563 0.014773567 0.004544759 0.0047500418 -0.013046842 0.006212286 0.0050131152
0.023479609 0.010542508 0.0043221824 0.008248158 0.008574028 0.0039066053 -0.007284849 -0.011409629
-0.001060922 -0.0021708957 0.00412339 0.003297621 0.0059252633 0.007927089 -0.01377339 0.01885461
0.0019961784 0.015112815 0.00945101 0.00071833795 -0.0030827078 0.015977465 -0.0034492891 0.013725482
0.011646536 -0.006215612 -0.010921495 0.0068583526 5.5222707e-05 0.01174532 0.013861214 0.010486788
0.009030702 0.0119618485 0.00010535993 -0.008706516 0.018510234 0.0009862689 -0.00888083 0.00033544505
0.0044689956 0.011416534 0.007643535 -0.0035225623 0.0036039543 0.007990283 0.0076203523 -0.0028102424
-0.006326798 -0.0006582203 0.0006532237 0.014440148 0.018107813 0.027081965 0.005638583 0.0016920414
0.01295301 0.005479284 -0.0073821926 0.0053105 0.003394413 0.0069547375 0.0061281486 -0.005994529
0.01719829 0.022961149 0.009420809 -0.0007579661 -0.0037026023 0.0060548466 -0.011432821 0.012663884
-0.017251553 0.00036871585 -0.0081482725 0.015752083 -0.005317479 0.0021886828 0.00939831 -0.016002372
00000000: 148a 55bc c0e5 53bc ab3a 66bb 4dcb 943c
00000010: 85b5 1aba 9ac0 3f3c 8922 183c 1cc2 873a
00000020: 5a03 86bb 6562 c93a d886 0ebc 1d81 5cbb
00000030: 56a0 103c eaff 51bc 66b2 e5ba 470f a63b
00000040: 98f5 8bb9 cc89 e3b9 0706 713c 2a8e e93b
00000050: 8d6a c4bb 1d5a 533c 816d 033c ea9a 103c
00000060: 3aa9 24bb 0889 8d3a c7aa 203c 2906 8a3c
00000070: f698 30bc e392 d63c 273c b43b 3fbd 103c
00000080: c015 0f3b 7be8 5e3c 494a 853c f73a 283b
00000090: c508 b83b 9e18 2a3c c8ce e83b 25f3 1e3c
000000a0: 74dd 12bb fd21 183c c4fc d53a 910c f73b
000000b0: b1ab 7b3c f2c4 2bbb f380 52bb d08a f23b
000000c0: 0bd6 2c3c b0f9 bcbb af1c 5d3c 0593 903c
000000d0: 794a 573a 3ee9 383c de91 c9bb 8d06 4cbb
000000e0: 2a13 a33b c24a 993b 213c a9bb 5696 a23b
000000f0: dbba c03b dff0 07bb 7f20 833c e47c 5e3c
00000100: 341d 89ba 8c97 c63c 4066 e63b 1c34 a5ba
00000110: 8cdc 023c 7d74 4b3b 1e5c 853c 449e 9e3c
00000120: f3c4 99bb b0c8 723c f2cd c43b e633 c03b
00000130: e026 753b dcad a33b 486b 183c 06a6 413c
00000140: 3c49 833c 2828 45bb 8143 b1bb ce50 2ebc
00000150: 2eb6 a4ba 0042 323c 13c4 423c 2f6b e23c
00000160: e4fc 393c 03e4 543c bfc1 e1ba 8bc7 a33b
00000170: 5e1f 0f3c 92b2 07bb 3e21 cd3b 732b 2d3c
00000180: 8ea4 763c 23d3 58ba b083 e63b 05fd fd3b
00000190: 0a7f e33a 2e2f ed3a d7aa 2e3c c953 b2bb
000001a0: 1030 673c 3137 913c c9a0 4c3c 652b 4b3c
000001b0: 233a 923c b294 3b3c 29a2 b03b ec9c 803c
000001c0: 19fa 6bb9 4779 bf3c 4d7e 9f3b e209 b5ba
000001d0: 9b7b 8b3b df14 7c3b 2dd8 083b bcf3 1d3c
000001e0: 057b 723c eaef fc3b 8b04 20bc c44c 4abb
000001f0: c7b7 f7ba a1dd 063d afcb 32bb 711c e93b
00000200: e014 123b 16fc 98ba ead8 bf39 2494 293c
00000210: ff85 793c 1fb5 46bb 452c fabb af9d 2dbc
00000220: 1c4a 043c d78d 6d3b bb06 8b3b 416c 9abb
00000230: e361 3a39 fc42 b5bb 62d2 69bc d717 233c
00000240: f742 c0ba 405b 39ba ffe7 62b9 5d1f 9439
00000250: c8b6 6a3c d0d3 663a f94d 0e3c e7e1 803a
00000260: 78d8 873b c093 903a 2d08 84bb 57a2 3c3c
00000270: 4d47 90bb 3527 b2bb 3b68 6d3a 36ee 083a
00000280: 0728 9d3b fbfa b9b9 ecb4 213c ab4c 123c
00000290: a3de 7abb 64e0 073b 02aa f13b 7f59 213c
000002a0: 81c3 9c3c c0b6 0ebc d50c 723c 34ec 943b
000002b0: 3da6 9b3b 6cc2 55bc 6f90 cb3b 0f45 a43b
000002c0: 4f58 c03c 7cba 2c3c 18a1 8d3b 4823 073c
000002d0: 147a 0c3c fb02 803b beb5 eebb 74ef 3abc
000002e0: a30e 8bba 9645 0ebb 811d 873b e61c 583b
000002f0: b628 c23b 9fe0 013c c9a9 61bc fc74 9a3c
00000300: 51d2 023b be9b 773c 69d8 1a3c d84e 3c3a
00000310: 4107 4abb 2ce3 823c 780d 62bb d8e0 603c
00000320: 1dd1 3e3c 55ac cbbb 12f0 32bc 08bc e03b
00000330: ee9e 6738 716f 403c 251a 633c c7d0 2b3c
00000340: 82f5 133c a1fb 433c aff4 dc38 c6a5 0ebc
00000350: c6a2 973c b145 813a e780 11bc acde af39
00000360: a770 923b 6a0c 3b3c 9e76 fa3b cada 66bb
00000370: 5230 6c3b ade9 023c 26b4 f93b 0b2c 38bb
00000380: 0751 cfbb 6b8c 2cba 1a3d 2b3a 5f96 6c3c
00000390: d656 943c ffda dd3c ddc3 b83b 7dc7 dd3a
000003a0: dd38 543c 918b b33b 52e6 f1bb b403 ae3b
000003b0: cd74 5e3b 91e4 e33b a3ce c83b c16d c4bb
000003c0: 6ee3 8c3c 0519 bc3c bd59 1a3c 3eb2 46ba
000003d0: 5ca7 72bb bc67 c63b ba50 3bbc 2e7c 4f3c
000003e0: 2153 8dbc 3450 c139 5580 05bc 830a 813c
000003f0: 3f3e aebb 0170 0f3b 5ffb 193c 6817 83bc

network_body._body_endoder.seq_layers.4.weight f4 [256, 256]
-0.003060598 0.02288472 0.077688016 -0.08080377 -0.05626513 -0.036672156 0.04588756 -0.07362912
0.053616874 -0.06391002 0.08088471 -0.08026091 -0.08053611 -0.08008795 0.11741128 -0.04510065
0.043447375 -0.02624306 -0.020867527 -0.027194627 -0.03421179 0.025293093 -0.011758667 -0.06169155
0.17383315 -0.008341189 0.038276725 -0.08946593 0.040338773 -0.02012721 0.09967098 -0.051434845
-0.030075917 -0.018658865 0.12655513 0.05526474 -0.06438848 0.0791835 -0.12032913 -0.030575074
0.04035778 -0.07327992 -0.017744085 0.051027786 0.1060414 -0.05419522 -0.0065168045 -0.032177627
0.016591566 0.00023008116 -0.012608574 -0.10411514 0.062167928 0.04836289 -0.08405046 0.013063282
-0.023819268 -0.09522141 -0.062074378 0.09907169 -0.105892986 -0.13864933 -0.042492125 -0.015058952
0.081518784 0.085516505 0.008416384 -0.0069392533 0.039185844 0.01711566 -0.023399383 0.07482459
-0.10885552 0.050314307 -0.018691188 -0.038115505 -0.07511497 0.011934891 -0.028765596 -0.054597527
0.10430956 0.045307305 -0.16608158 -0.03219133 0.014125588 -0.093889885 -0.013499535 0.049484085
-0.012491578 -0.047692757 0.0019080526 0.0002990982 -0.013630789 0.09121457 -0.06215736 -0.035181187
0.03764954 -0.00091089954 -0.16946794 -0.07087442 0.05548102 -0.0913986 -0.10664438 -0.027349189
-0.018122107 0.06374679 0.08942113 0.12668626 -0.058103155 0.010849338 0.02203796 -0.043430816
0.02692661 -0.0026592473 -0.08455275 0.0127393175 0.0120420195 -0.019485127 -0.028566126 0.008001395
-0.014720575 0.05809388 -0.0017179603 -0.05556679 0.18002251 -0.053384792 0.05366359 -0.10043709
0.05529925 0.03232543 -0.0005894485 0.032966003 -0.064293355 0.17857094 0.03374755 0.07749351
0.012490446 0.020906297 -0.1059211 -0.022446286 0.0029597392 -0.057046678 0.053357024 -0.05342115
0.0067344876 0.00920356 0.0281121 0.031409845 0.015880788 0.03589578 -0.02818346 0.052771658
0.06564102 -0.009107446 -0.049839556 -0.11468461 -0.03930896 -0.010566316 0.08423444 0.06724168
-0.032575358 -0.023044227 -0.054714307 -0.074705996 -0.03036715 -0.060922556 0.03693079 -0.033427753
-0.06381558 0.057275783 0.08460666 -0.011950344 0.041572552 0.16297485 0.065008245 -0.0011569078
-0.114425875 0.0006934275 -0.05403984 0.048142646 0.0799611 0.074847616 0.046634737 0.110214606
-0.034217816 -0.10861833 -0.11806309 0.05531234 0.043605205 0.029354652 0.04841987 -0.025953498
-0.0183309 -0.057675056 -0.15017295 0.08719453 -0.013879041 -0.07596368 0.09327781 -0.01429306
-0.100049466 -0.094727784 0.08313319 0.07068175 0.028075567 0.04650385 0.019288495 0.08049975
-0.09812654 -0.016282206 0.0219873 0.03248599 -0.057922676 0.07225476 0.10614144 0.040126283
0.031865038 -0.034594577 -0.06100697 0.0026596102 0.025889847 -0.02839869 -0.10689839 -0.041094102
0.016501755 0.08392399 -0.10891968 -0.09196475 0.045541268 -0.01388325 -0.1568616 -0.07156976
-0.03630753 -0.10404841 -0.027827092 0.074162275 -0.025619825 0.10063254 -0.0022028065 -0.0777295
0.0017236229 0.04990997 0.0056851907 0.08234674 0.03449393 -0.034250826 -0.011510419 -0.105463505
-0.020285819 -0.056215916 -0.042293362 0.11019549 -0.0625025 -0.07428664 0.029573012 0.05309107
00000000: 5094 48bb bc78 bb3c e51a 9f3d 727c a5bd
00000010: 4476 66bd 8b35 16bd 98f4 3b3d ddca 96bd
00000020: 5e9d 5b3d 42e3 82bd e2a6 a53d d55f a4bd
00000030: 1ef0 a4bd 2705 a4bd 5375 f03d 76bb 38bd
00000040: e0f5 313d b0fb d6bc 60f2 aabc 44c7 debc
00000050: a921 0cbd 7633 cf3c 6da7 40bc 47b0 7cbd
00000060: 5101 323e 7ba9 08bc 0ec8 1c3d ea39 b7bd
00000070: 453a 253d d2e1 a4bc 4c20 cc3d 58ad 52bd
00000080: c561 f6bc 7ada 98bc ab97 013e 485d 623d
00000090: 1bde 83bd f52a a23d 1e6f f6bd 9478 fabc
000000a0: 334e 253d c813 96bd 0b5c 91bc 8302 513d
000000b0: 3c2c d93d cffb 5dbd eb8a d5bb b0cc 03bd
000000c0: 09eb 873c f141 7139 3194 4ebc 523a d5bd
000000d0: cca3 7e3d 2a18 463d a622 acbd 6007 563c
000000e0: a020 c3bc 7103 c3bd b441 7ebd 19e6 ca3d
000000f0: 6cde d8bd 17fa 0dbe 390c 2ebd d3b9 76bc
00000100: 52f3 a63d 4723 af3d e0e4 093c ad62 e3bb
00000110: 5681 203d 2436 8c3c 10b0 bfbc a23d 993d
00000120: a5ef debd 6016 4e3d 431e 99bc 011f 1cbd
00000130: e1d5 99bd 908a 433c d4a5 ebbc a8a1 5fbd
00000140: 40a0 d53d 2794 393d 4a11 2abe 0edb 03bd
00000150: 036f 673c 5749 c0bd 272d 5dbc d3af 4a3d
00000160: 7aa9 4cbc 7b59 43bd 9f17 fa3a 48d0 9c39
00000170: ac53 5fbc b4ce ba3d b798 7ebd 261a 10bd
00000180: 6736 1a3d 6fc9 6eba 0189 2dbe 9c26 91bd
00000190: 1140 633d 302f bbbd 5e68 dabd 680b e0bc
000001a0: d074 94bc ad8d 823d 6d22 b73d 0bba 013e
000001b0: 93fd 6dbd 6cc1 313c f488 b43c 83e4 31bd
000001c0: 3295 dc3c c446 2ebb fe29 adbd 92b8 503c
000001d0: e44b 453c 469f 9fbc 8203 eabc 4818 033c
000001e0: 912e 71bc d9f3 6d3d 2f2d e1ba 019a 63bd
000001f0: d257 383e 03aa 5abd 5ace 5b3d f6b1 cdbd
00000200: 7781 623d ac67 043d 3885 1aba 5c07 073d
00000210: 3cac 83bd 4ddb 363e df3a 0a3d ebb4 9e3d
00000220: baa4 4c3c af43 ab3c 29ed d8bd 46e1 b7bc
00000230: 2ff8 413b c7a9 69bd e58c 5a3d 23d0 5abd
00000240: faac dc3b 87ca 163c 594b e63c 9ca7 003d
00000250: 6d18 823c 7407 133d 00e1 e6bc 1827 583d
00000260: cd6e 863d 6637 15bc 9024 4cbd c4df eabd
00000270: 6f02 21bd 571e 2dbc 1b83 ac3d 02b6 893d
00000280: bd6d 05bd 3fc7 bcbc 1c1c 60bd 75ff 98bd
00000290: 88c4 f8bc ee89 79bd bd44 173d 8aeb 08bd
000002a0: beb1 82bd 039a 6a3d 4246 ad3d 60cb 43bc
000002b0: fb47 2a3d e1e2 263e 0b23 853d 62a3 97ba
000002c0: 1d58 eabd 22c7 353a e158 5dbd 3931 453d
000002d0: a5c2 a33d b549 993d 1104 3f3d 32b8 e13d
000002e0: fb27 0cbd 4973 debd 10cb f1bd 318f 623d
000002f0: 5f9b 323d 2b79 f03c ea53 463d 6e9c d4bc
00000300: af2a 96bc ae3c 6cbd f0c6 19be 0c93 b23d
00000310: eb64 63bc d992 9bbd 7008 bf3d 702d 6abc
00000320: bce6 ccbd a400 c2bd bc41 aa3d 98c1 903d
00000330: bbfe e53c d27a 3e3d e802 9e3c 0edd a43d
00000340: 91f6 c8bd 4362 85bc b61e b43c 0810 053d
00000350: 5440 6dbd 4efa 933d af60 d93d 755b 243d
00000360: ea84 023d 0bb3 0dbd 72e2 79bd db4c 2e3b
00000370: f216 d43c 5fa4 e8bc 8bed dabd 4a52 28bd
00000380: b02e 873c 57e0 ab3d 4811 dfbd 0458 bcbd
00000390: 7b89 3a3d 9276 63bc 54a0 20be 2b93 92bd
000003a0: 34b7 14bd 5517 d5bd a4f5 e3bc 64e2 973d
000003b0: abe0 d1bc 6f18 ce3d f65c 10bb a530 9fbd
000003c0: 30eb e13a 666e 4c3d d64a ba3b 68a5 a83d
000003d0: 8249 0d3d 984a 0cbd 3296 3cbc 40fd d7bd
000003e0: 722e a6bc a942 66bd ce3b 2dbd 2cae e13d
000003f0: 5001 80bd 9823 98bd 1a43 f23c 0676 593d

network_body._body_endoder.seq_layers.4.bias f4 [256]
-0.009347349 0.010709362 0.0053341603 0.008956471 0.0072774375 0.009332819 0.008952195 4.5620127e-05
0.006338048 0.0064900396 0.0024142545 0.0038997573 -0.003396623 0.0060611456 -0.0037773175 -0.00023649269
0.010709027 0.0026763827 -0.0007374288 0.0060186125 0.0015671682 0.007176266 0.0052423715 0.0030277371
-0.002321885 -0.007751733 0.0035252185 0.0031421818 -0.00022212429 0.005566605 0.010251418 -0.0076745176
0.007183095 0.011568255 0.0021620945 0.012648731 -0.006598602 0.0006036395 -0.010587108 0.016066803
0.0011789786 -0.0025261461 -0.0018755731 0.005898238 -0.006208149 0.007247214 -0.0017901643 -0.00022250618
0.009829167 -0.006650266 -0.0045511476 0.0070785503 0.004231669 0.00487761 -0.003816236 0.0025117325
-0.003735204 -0.0084129125 0.010711745 -0.00048602602 0.00620458 -0.0003303411 0.008418723 0.010570835
-0.0035455124 0.0043843123 -0.0029917222 0.00464291 -0.010803541 0.0016988337 0.011767183 -0.002051755
0.0012022568 0.015307111 6.733027e-05 0.005833118 0.0046841973 -0.0061861733 0.011984364 0.003061437
-0.006344453 0.017024761 0.0020399196 -0.012681355 0.0008088117 0.00784712 -0.007497311 0.00027746358
0.010059929 0.0057176556 -0.0011536069 0.00836495 0.005134656 0.004197942 0.008082865 -0.00074254046
-0.0030811043 0.0046511767 0.0098698875 0.01159259 -0.0029087076 -0.0011349644 0.008777184 0.0040244507
0.0045162155 0.00462478 0.00815881 0.0005782966 0.0036006367 -0.0021991192 0.01250883 0.009026776
0.010242731 0.006891531 0.0041647647 -0.006065068 -0.007284076 0.004875814 0.007461562 -0.0009770024
0.006378753 0.010006052 -0.010456375 0.0028809903 -0.0031216878 0.005606567 0.002453389 -0.0087256385
-0.0068727373 0.0061072703 -0.008220128 0.0035008104 -0.011191718 0.007941703 0.007965449 0.010554536
-0.0055129905 0.019931095 0.0013498826 -0.00045946817 0.008024515 -0.007669622 -0.0012930109 0.0024328835
0.010294121 0.001323373 0.002057877 0.004523105 0.012530759 -0.004091394 0.0004850036 0.0027572839
0.01546725 0.00435962 0.0001301508 0.0016337943 -0.0035696595 0.005398589 -0.0010999163 0.0142880995
0.010569702 -0.00022462412 0.00668896 0.006776004 0.0021570115 0.008671909 -0.009577433 0.00075297605
-0.002125732 -0.0005149711 -0.0015192588 -0.0030857974 -0.00074279425 0.003462589 -0.0083548315 -0.007871311
0.0076939208 0.0070414264 0.0062729125 -0.0027460696 -0.004899485 -0.0021597722 -0.0023632678 0.0019771447
-0.005646724 -0.0009185297 -0.0030605218 -0.0012242602 0.0032379173 -0.0028341475 0.0055755028 -0.002329642
0.004319631 0.011445065 -0.003526609 -0.00959675 -0.0021468997 0.0011426609 0.00022906934 0.0009907378
-0.0037198705 -0.00071722845 0.007829875 -0.0068705054 -0.0036267065 0.00041422618 0.0038616634 0.011583017
-0.0034218684 0.005281743 0.0038567479 0.008126991 0.0036528814 0.0008543874 0.0035523328 0.0050589414
0.004316095 -0.00075459457 0.009427475 0.013100718 0.0076580783 -0.0025490515 0.00019344197 0.010857271
0.0022717854 -0.0008220554 0.0028650414 0.00284248 0.013913724 -0.006112568 0.010213864 -0.0007715253
0.00884745 -0.003903772 -0.0048271003 0.010943086 0.006435198 -0.003521536 -0.0014937664 0.009507507
0.0026566845 0.0047475807 0.00081714755 0.0071336864 -0.001946376 0.007227065 0.0030541706 0.0123640625
0.0039134813 0.004248447 0.0021294826 -0.005129283 0.0025525917 0.00475205 0.012488516 0.009035837
00000000: a025 19bc 5276 2f3c 2eca ae3b 2abe 123c
00000010: 9277 ee3b aee8 183c 3aac 123c 3d58 3f38
00000020: 66af cf3b 66aa d43b 7838 1e3b 1293 7f3b
00000030: e199 5ebb 939c c63b df8c 77bb 06fb 77b9
00000040: ea74 2f3c 4066 2f3b 0250 41ba c837 c53b
00000050: 7069 cd3a e226 eb3b 33c8 ab3b 006d 463b
00000060: c42a 18bb 4002 febb 5a07 673b 10ed 4d3b
00000070: 09ea 68b9 1168 b63b 90f5 273c 857a fbbb
00000080: 2b60 eb3b c788 3d3c edb1 0d3b 9f3c 4f3c
00000090: 1639 d8bb 903d 1e3a 8d75 2dbc 879e 833c
000000a0: f587 9a3a b38d 25bb cad5 f5ba 0246 c13b
000000b0: ba6d cbbb 0a7a ed3b f2a3 eaba 8c50 69b9
000000c0: 840a 213c 79ea d9bb cb21 95bb 2ff3 e73b
000000d0: d0a9 8a3b 5cd4 9f3b d119 7abb e19b 243b
000000e0: 53ca 74bb 50d6 09bc 5180 2f3c 4fd1 feb9
000000f0: ca4f cb3b a231 adb9 afee 093c 4c31 2d3c
00000100: d45b 68bb 47aa 8f3b c510 44bb 8d23 983b
00000110: 5601 31bc 66ab de3a 25cb 403c bd76 06bb
00000120: 0b95 9d3a adca 7a3c aa33 8d38 be23 bf3b
00000130: e57d 993b 62b5 cabb 115a 443c 64a2 483b
00000140: 21e5 cfbb 8377 8b3c 2cb0 053b 75c5 4fbc
00000150: 6f06 543a 3591 003c 01ac f5bb 8878 9139
00000160: 67d2 243c 2c5b bb3b a034 97ba 250d 093c
00000170: 9e40 a83b e48e 893b fe6d 043c 0ca7 42ba
00000180: 5aec 49bb e668 983b 4fb5 213c d9ee 3d3c
00000190: 04a0 3ebb 16c3 94ba 2ece 0f3c 8adf 833b
000001a0: c3fc 933b 778b 973b 88ac 053c d498 173a
000001b0: a9f8 6b3b 191f 10bb d6f1 4c3c 0be5 133c
000001c0: 21d1 273c 5ad2 e13b 9478 883b 7abd c6bb
000001d0: 42af eebb 4bc5 9f3b 1e80 f43b c30e 80ba
000001e0: dc04 d13b 6df0 233c 3751 2bbc ffce 3c3b
000001f0: 3b95 4cbb 4bb7 b73b 0ac9 203b fbf5 0ebc
00000200: b334 e1bb 7f1f c83b b7ad 06bc da6d 653b
00000210: 785d 37bc eb1d 023c 8481 023c efec 2c3c
00000220: 51a6 b4bb 8946 a33c 8bee b03a c6e4 f0b9
00000230: 4179 033c 7451 fbbb 3f7a a9ba 0371 1f3b
00000240: aca8 283c 0875 ad3a 72dd 063b 8e36 943b
00000250: d04d 4d3c 1a11 86bb 1548 fe39 8cb3 343b
00000260: 596a 7d3c 25db 8e3b 1779 0839 0a25 d63a
00000270: f3f0 69bb a6e6 b03b 112b 90ba a218 6a3c
00000280: 8b2c 2d3c 1489 6bb9 102f db3b 3e09 de3b
00000290: a65c 0d3b 9f14 0e3c aaea 1cbc 5e63 453a
000002a0: dd4f 0bbb 20ff 06ba de21 c7ba 173b 4abb
000002b0: 14b8 42ba 9bec 623b b4e2 08bc acf6 00bc
000002c0: 491d fc3b c4bb e63b 018d cd3b 67f7 33bb
000002d0: dc8b a0bb f78a 0dbb 0ee1 1abb fc92 013b
000002e0: 2708 b9bb 7cc9 70ba 0993 48bb 5b77 a0ba
000002f0: 3d33 543b 1bbd 39bb b5b2 b63b e8ac 18bb
00000300: b18b 8d3b 1584 3b3c ae1e 67bb b03b 1dbc
00000310: 00b3 0cbb 56c5 953a 5532 7039 a5db 813a
00000320: 12c9 73bb 6304 3cba e048 003c fa21 e1bb
00000330: 0aae 6dbb 7f2c d939 f613 7d3b b2c6 3d3c
00000340: 6d41 60bb 7912 ad3b 7ec1 7c3b 1227 053c
00000350: 2e65 6f3b f8f8 5f3a 41ce 683b 7ac5 a53b
00000360: 076e 8d3b fccf 45ba b275 1a3c 65a4 563c
00000370: 9ef0 fa3b fd0d 27bb afd6 4a39 b2e2 313c
00000380: 3ce2 143b 347f 57ba 6bc3 3b3b e748 3a3b
00000390: 63f6 633c f04b c8bb 0d58 273c 3040 4aba
000003a0: e5f4 103c 6dd6 7fbb a72c 9ebb a14a 333c
000003b0: 5ade d23b 92c9 66bb 7cca c3ba 60c5 1b3c
000003c0: c51b 2e3b 9891 9b3b d835 563a b3c1 e93b
000003d0: 8b1d ffba 04d1 ec3b 7b28 483b a392 4a3c
000003e0: a93c 803b 8e36 8b3b ca8e 0b3b 8b13 a8bb
000003f0: 6249 273b 16b7 9b3b a29c 4c3c 0c0b 143c

action_model._continuous_distribution.log_sigma f4 [1, 12]
0.102278635 0.10700168 0.058736704 0.06829979 0.08365337 0.04834873 0.046648983 0.07483137
0.037475977 0.028422108 0.05760073 0.036707275
00000000: 7677 d13d b223 db3d e695 703d c3e0 8b3d
00000010: 7552 ab3d 5109 463d 0113 3f3d 3041 993d
00000020: 6980 193d 7bd5 e83c beee 6b3d 5e5a 163d

action_model._continuous_distribution.mu.weight f4 [12, 64]
-0.06889549 -0.020912379 -0.0007139167 0.01720682 -0.072704524 -0.076222084 -0.039948486 0.033991184
-0.04878686 -0.034536973 0.008426343 -0.062021777 0.046462454 -0.008329713 0.07832567 0.04305966
-0.0077858986 0.032727495 0.06400467 -0.04574772 0.057856604 0.042793147 0.026385179 0.0038238603
-0.010969307 0.072258934 0.011838494 -0.059629757 -0.0017711178 0.05214643 0.005592703 -0.028718976
0.0024865828 0.069284804 0.029735342 -0.008576951 0.011295944 0.020196898 -0.022214953 0.05010753
0.0034524768 -0.0019609598 -0.016281242 0.08730279 -0.02129731 0.039532166 -0.033636145 -0.0004230223
0.019860202 0.058260757 -0.046892997 -0.017680477 -0.0013329645 0.06655286 -0.044162154 0.010649319
0.030172845 -0.039119907 0.006851374 0.032057825 -0.038483806 0.027937759 -0.095619984 0.057263587
-0.03175379 0.056761164 0.0036768266 0.027240558 -0.04776243 -0.026871543 -0.037806038 0.016178448
0.01446198 -0.023907302 0.042870324 -0.0011240422 0.050062094 -0.04173903 0.08905686 0.058908045
-0.03696569 -0.059274465 0.01016221 -0.05161991 0.060653634 0.011749662 0.025008785 0.018431962
-0.021872967 0.07374429 0.06308287 0.0060070385 0.10051575 0.0692646 0.052157734 -0.03242516
0.03906321 0.051654913 0.030901019 -0.030185658 0.030841868 -0.0014759501 -0.0059803096 0.034072958
-0.05494968 -0.008055928 -0.004951674 0.045142002 0.0031944404 0.023854204 -0.044617742 -0.0066586793
0.013548788 0.012109561 -0.0665851 -0.020611905 0.0031487755 0.09752081 0.038793806 -0.04347897
0.06403234 -0.060085475 -0.052529357 0.044444483 -0.006656451 0.012236308 -0.025264554 0.02981337
-0.070865035 0.011217473 -0.05356649 0.08539175 -0.05237838 0.03341096 -0.05539653 0.03237249
0.05125844 -0.024538191 0.0613163 -0.017584877 0.02533692 -0.017558577 -0.011950347 0.038145684
-0.04541326 0.04007246 0.031723313 0.0145340925 0.00426645 -0.010174917 0.08224238 0.0629368
-0.037315276 -0.011932638 0.04377692 -0.019260384 -0.017531397 -0.005158167 0.0052795536 -0.0065456084
-0.012967307 0.0251572 0.036667913 -0.038095586 0.06110263 0.004297102 0.046868667 0.00812763
-0.039296802 -0.01947872 0.029940302 0.045655172 -0.037397273 -0.01331019 -0.0017902122 -0.010812311
0.023133252 0.009578163 -0.035549343 0.0027715466 0.01310428 0.003729607 -0.0118043125 -0.009632623
0.03594167 0.013407786 0.0054492387 0.042753916 0.024369538 -0.08369747 -0.005281133 -0.01661059
0.03952937 -0.028646037 0.02950223 0.04421368 0.08376495 -0.017347809 0.044758826 -0.027959812
-0.07611545 -0.023259833 -0.005387826 0.03219323 -0.0018289062 0.040855594 0.036426723 -0.037536442
0.0043687974 -0.016141148 -0.06404334 0.036242828 -0.05522514 -0.0021910865 -0.025474397 -0.064084604
-0.007798574 0.050384566 -0.04600695 0.018166753 -0.035536308 -0.03539264 -0.034777395 -0.008941038
0.058968876 -0.031877864 -0.092483036 0.06265295 -0.01165825 0.030874092 -0.01953233 -0.02870564
-0.007258415 -0.035816632 -0.016690262 -0.004215657 0.017070813 -0.058604673 0.06974351 0.009363124
-0.005547395 -0.014649361 0.016548546 0.039476324 -0.049442563 -0.007207252 0.03035486 0.03106153
-0.006287827 -0.06727078 -0.00703149 -0.046884082 -0.036225468 -0.01830532 0.013932168 -0.03413197
00000000: 1419 8dbd 7050 abbc 2426 3bba 51f5 8c3c
00000010: 1ce6 94bd 531a 9cbd 06a1 23bd 573a 0b3d
00000020: bbd4 47bd a476 0dbd a50e 0a3c 8c0a 7ebd
00000030: 6a4f 3e3d 5979 08bc 3569 a03d 535f 303d
00000040: da20 ffbb 440d 063d e114 833d f661 3bbd
00000050: 0cfb 6c3d de47 2f3d bb25 d83c bb99 7a3b
00000060: 9cb8 33bc 7efc 933d 3ef6 413c 553e 74bd
00000070: da24 e8ba 7f97 553d fe42 b73b 0f44 ebbc
00000080: f0f5 223b 31e5 8d3d 8897 f33c 5786 0cbc
00000090: a012 393c f773 a53c 22fc b5bc 8e3d 4d3d
000000a0: f342 623b 7283 00bb 3d60 85bc cecb b23d
000000b0: b277 aebc 7bec 213d 0ec6 09bd 18c9 ddb9
000000c0: ddb1 a23c d5a2 6e3d df12 40bd a6d6 90bc
000000d0: deb6 aeba de4c 883d 60e3 34bd 7b7a 2e3c
000000e0: 0b2d f73c 323c 20bd 7e81 e03b 114f 033d
000000f0: 32a1 1dbd badd e43c 69d4 c3bd 398d 6a3d
00000100: 4310 02bd 657e 683d eaf6 703b 9727 df3c
00000110: 8aa2 43bd b621 dcbc 81da 1abd aa88 843c
00000120: f1f1 6c3c 3fd9 c3bc cb98 2f3d 9954 93ba
00000130: e90d 4d3d 8cf6 2abd 7163 b63d 9049 713d
00000140: 5669 17bd c8c9 72bd 667f 263c 666f 53bd
00000150: f26f 783d a881 403c 39df cc3c a0fe 963c
00000160: f02e b3bc 3f07 973d 9731 813d b1d6 c43b
00000170: 34db cd3d 99da 8d3d 59a3 553d 3fd0 04bd
00000180: bf00 203d 1a94 533d 2224 fd3c ea47 f7bc
00000190: 16a8 fc3c ab74 c1ba 79f6 c3bb 1690 0b3d
000001a0: ea12 61bd 03fd 03bc a741 a2bb d2e6 383d
000001b0: d159 513b e469 c33c 18c1 36bd 0d31 dabb
000001c0: bcfb 5d3c 2e67 463c c55d 88bd 4cda a8bc
000001d0: b05b 4e3b feb8 c73d 41e6 1e3d 0117 32bd
000001e0: 6323 833d 301c 76bd 0629 57bd 6b0b 363d
000001f0: 5c1e dabb cc7a 483c 9cf7 cebc 2b3b f43c
00000200: b021 91bd 7ec9 373c 8968 5bbd dfe1 ae3d
00000210: b68a 56bd eed9 083d 79e7 62bd 0499 043d
00000220: 5ff4 513d 5104 c9bc cd26 7b3d 290e 90bc
00000230: 5f8f cf3c 01d7 8fbc 63cb 43bc a63e 1c3d
00000240: 4103 3abd 0523 243d 4ef0 013d 6720 6e3c
00000250: 94cd 8b3b b2b4 26bc b16e a83d 02e5 803d
00000260: e7d7 18bd 1c81 43bc 6d4f 333d f4c7 9dbc
00000270: 019e 8fbc d705 a9bb 1b00 ad3b 8b7c d6bb
00000280: d474 54bc 7916 ce3c 1831 163d 1e0a 1cbd
00000290: c046 7a3d b4ce 8c3b 5cf9 3f3d c029 053c
000002a0: aff5 20bd d691 9fbc 5d45 f53c eb00 3b3d
000002b0: e22d 19bd fc12 5abc 8ea5 eaba 1f26 31bc
000002c0: f281 bd3c baed 1c3c 309c 11bd d6a2 353b
000002d0: 56b3 563c 6c6c 743b e066 41bc 26d2 1dbc
000002e0: 9337 133d 55ac 5b3c 878f b23b bb1e 2f3d
000002f0: a0a2 c73c 9469 abbd 5b0d adbb ef12 88bc
00000300: 8ce9 213d 18ab eabc a9ae f13c 6719 353d
00000310: f58c ab3d fe1c 8ebc 0855 373d fa0b e5bc
00000320: 6be2 9bbd 688b bebc 5c8c b0bb 0cdd 033d
00000330: e9b7 efba 3258 273d 3034 153d d0bf 19bd
00000340: 2128 8f3b 713a 84bc 2829 83bd 5c73 143d
00000350: c233 62bd 5598 0fbb afaf d0bc ca3e 83bd
00000360: 2e8b ffbb 0c60 4e3d c971 3cbd 71d2 943c
00000370: 858e 11bd dff7 10bd be72 0ebd 6e7d 12bc
00000380: 5989 713d 5d92 02bd bf67 bdbd 3150 803d
00000390: 3f02 3fbc aaeb fc3c 4402 a0bc 1728 ebbc
000003a0: 00d8 edbb 76b4 12bd 04ba 88bc 7e23 8abb
000003b0: 17d8 8b3c 740b 70bd afd5 8e3d ca67 193c
000003c0: ecc6 b5bb e003 70bc d190 873c edb1 213d
000003d0: 4984 4abd d02a ecbb c1aa f83c c074 fe3c
000003e0: 1e0a cebb 43c5 89bd 6a68 e6bb 8609 40bd
000003f0: 2861 14bd 0af5 95bc bf43 643c f7cd 0bbd

action_model._continuous_distribution.mu.bias f4 [12]
0.022527615 0.029072449 0.026420366 -0.022833677 0.03966099 -0.019854242 0.029285034 -0.005375055
-0.024939222 -0.005302899 0.014776559 -0.003692817
00000000: d58b b83c 5829 ee3c 866f d83c b10d bbbc
00000010: 9073 223d 5da5 a2bc 2be7 ef3c 3b21 b0bb
00000020: 574d ccbc f1c3 adbb 6119 723c 3003 72bb

onnx::Div_106 f4 [36]
0.22547266 0.2723657 0.16185364 0.16272262 0.22295608 0.2735977 0.16779277 0.16865616
0.23219068 0.28520924 0.17616884 0.17706656 0.22708093 0.30012128 0.20832491 0.20597075
0.24328046 0.32235494 0.22704111 0.22408083 0.29229406 0.4251886 0.34954932 0.307076
0.2969032 0.44078815 0.3722466 0.32370597 0.41141632 0.37042487 0.48540267 0.33686516
0.40232188 0.34739184 0.4749107 0.33209527
00000000: 4ee2 663e 8473 8b3e f6bc 253e c2a0 263e
00000010: 994e 643e ff14 8c3e ded1 2b3e 33b4 2c3e
00000020: 65c3 6d3e f206 923e 9b65 343e f050 353e
00000030: e787 683e 7fa9 993e 2053 553e ffe9 523e
00000040: 831e 793e b50b a53e 777d 683e 7275 653e
00000050: 91a7 953e 52b2 d93e 21f8 b23e 1139 9d3e
00000060: b203 983e fcae e13e 1b97 be3e cabc a53e
00000070: 29a5 d23e 54a8 bd3e b386 f83e 9779 ac3e
00000080: 22fd cd3e 58dd b13e 7f27 f33e 6408 aa3e
