results/Robot_Run_06_19/RobotAgent/RobotAgent-6446640.onnx (onnx, 984161 bytes, 16 tensors)

network_body.observation_encoder.processors.0.normalizer.running_mean f4 [36]
00000000: 35cb 4c3d 42f7 673f 5ccf 313d e7a6 e73d
00000010: 16fb 473d 206f 673f 5b46 3f3d 0aaa fc3d
00000020: bff9 593d 08b7 653f 5b4d 483d c198 013e
00000030: c5e7 4f3d 340f 623f c7a4 863d 39ac 2e3e
00000040: 80d3 703d b0f8 5d3f 208e 963d 64ca 383e
00000050: e7cc b33d 4481 3f3f 429c 273e 30b9 b13e
00000060: c134 ba3d 40f5 383f 556d 3e3e c528 bd3e
00000070: f0b5 4d3e 70a3 343e ac4f 1f3f e734 413f
00000080: 6992 413e 6a60 1f3e cea1 273f 954a 463f
0.04999848 0.9061166 0.043410644 0.11311131 0.04882344 0.9040394 0.046697956 0.1233712
0.053216692 0.8973241 0.048901897 0.12655927 0.050758142 0.8830445 0.065743975 0.17057885
0.058795452 0.8670759 0.07351327 0.18045956 0.087793164 0.7480662 0.16368201 0.347116
0.09092093 0.7224922 0.18596394 0.36945167 0.20088935 0.17640471 0.62230945 0.7547135
0.18903507 0.15564123 0.6548127 0.77457553

network_body.observation_encoder.processors.1.normalizer.running_mean f4 [75]
00000000: 7655 e13c 6acd 03bc e4eb a1bc d4e4 8d3b
00000010: 01cc f4bb d6f4 c5bc 01f0 663f 5b46 3342
00000020: c4f0 c83e 69d2 5e40 edb8 de3f 8928 2e3d
00000030: a1bc c03b b8b9 75bd 39b3 7c3f 6df2 163e
00000040: f084 173c f9ff ff38 a807 503d 5a77 4a3d
00000050: f4c1 52bd b702 ccbd 6b11 793f 5b4c 4f3e
00000060: 94dc debc 5ef5 243d f350 043e 6455 443d
00000070: ba92 afbb 3e58 9c3d 7e28 7c3f da0d 263e
00000080: 0e7e 9dbd f63b 3e3a 229f 02bd 8292 663d
00000090: 967f 883d c4c1 c83d e975 783f d3f9 533e
000000a0: 4d45 fabc 562a 4dbd a95c 03be d823 483d
000000b0: 1400 133c ea5a 08be 5afb 7a3f 543a 2a3e
000000c0: 1b1e 493d 4e93 57ba 7bb2 c53d da63 ff3d
000000d0: ba7d 00be 9df1 6abc 79ee 783f ce89 443e
000000e0: d791 9dbd b028 ab3d 27a4 7bbd 53ed ad3d
000000f0: 248c 8ebc 628f 4b3d 2597 7c3f 77ac 193e
00000100: e0c4 aabd a1a5 0e3c 9f60 e9ba b819 353e
00000110: 1d2d 463d 1388 543c c166 793f 0935 323e
00000120: a836 e5bd 7bd7 0abd d5db 66bc
0.027506571 -0.00804458 -0.019765802 0.004330257 -0.007470608 -0.024164598 0.90209967 44.818707
0.3924619 3.4815924 1.7400185 0.042519126 0.0058818613 -0.05999157 0.9871097 0.14740916
0.009248003 0.00012207026 0.05078855 0.04943023 -0.0514545 -0.09961455 0.972922 0.20243971
-0.02720479 0.040273063 0.12921505 0.047932997 -0.0053580673 0.07634018 0.98499286 0.16216221
-0.07690059 0.00072568597 -0.031890042 0.056292064 0.0666496 0.09802583 0.97054917 0.20700769
-0.030550623 -0.050089203 -0.12828316 0.04886231 0.008972187 -0.13315931 0.9803978 0.16623813
0.049100976 -0.0008223549 0.09653183 0.12470217 -0.12547961 -0.014339832 0.9723888 0.19193193
-0.07693832 0.0835737 -0.061435845 0.084925316 -0.017400809 0.049697287 0.9866813 0.15007196
-0.08338332 0.008706481 -0.0017805285 0.17685592 0.048382867 0.012971896 0.97422415 0.17403044
-0.111920655 -0.033896904 -0.014090498

network_body._body_endoder.seq_layers.0.weight f4 [256, 111]
00000000: 5f9a 493d 51d1 9f39 555f 33be 6555 b8bd
00000010: b109 13bd cb25 083d 29d2 e43d d67a 23be
00000020: 0e57 76bd 6aa8 0f3e 99d7 923d fee1 a3bb
00000030: 9287 80be 9acd 30be 5c67 203d d844 8dbc
00000040: bb7b 233e 5436 a5bd 3273 4ebc d0f0 e53d
00000050: 78c8 14be b01e b43d 764e 873d 35b8 22bd
00000060: 8972 c43c 91c1 77bd 9757 f0bb a9f7 bd3d
00000070: 9840 683d 723c a7bd eff4 df3d 44ea 13bd
00000080: 5c0f 793c c324 98bd c26b 9f3d 4763 913b
00000090: a434 9abc 4469 3ebe 2e99 68bb 7a0d aabd
000000a0: d13d 9a3d fa1b 45bd 14c9 0dbd 8b4f 87bc
000000b0: 9251 503e 205f 563e 8737 d43c 5dcb 1f3e
000000c0: 0c2b 2cbd 2fde b4bc 9ac5 abbc 03db 05be
000000d0: 0b43 babd aa83 18be f375 003d 3ccf bbbd
000000e0: af14 97bd abb6 9bbc 329c 6c3e 67e5 0a3d
000000f0: e64c 173e bf4b dd3c 5cb4 1b3e 4c92 1c3c
00000100: aef1 ee3d 40e1 0c3c 0f7a 32bd 3968 1fbd
00000110: 9850 153d 0382 b4bd 3bd7 3cbd fc7b 80bd
00000120: 600a 7abb 1d19 883d 5726 1abe 559c 80bd
00000130: 9030 d83c 925a 8d3d 6fde e8bd 7695 ffbc
00000140: 7603 4e3e 99d5 8cbd 5a17 9bbc ff3f 8b3d
00000150: 24e7 983d 4471 3fbd 0deb 93bd 0d76 da3d
00000160: 76db 55be 0dd3 293e 7845 3b3d 3fe5 a4bd
00000170: 1284 f73c caa4 dc3d 9cf1 223e ec70 21be
00000180: acb2 a33a 8dd0 6b3d 75d5 b1bb f929 f7bc
00000190: d619 b7bd 66c1 4fbc b026 793d 4da7 fabd
000001a0: 1357 27be 568e 29be 72e2 8d3d 9b8d 9dbd
000001b0: 248b 093c bb00 063d 5c10 bcbd 2b3e 37be
000001c0: 58fd 3d3e 9dd6 bd3d 6ccc 043e 6279 7b3d
000001d0: c496 0cbd 83e3 53bd 8c5f eb3d 3906 fe3d
000001e0: eafe 283e a329 67be adb4 fe3d ae53 7cbc
000001f0: 2454 af3c b06f 22be 0479 173e cf73 813d
00000200: 7d09 20be d7e0 973c a78b 7d3d 3cdd b43d
00000210: ea60 a1bd c294 6d3d 8484 b23e 6f8c 3f3e
00000220: 329f a23d 3217 8abd a218 843d 21b3 ba3d
00000230: 9e73 c8bc 1d4a 1ebe ec75 22be e311 853c
00000240: 9da0 93bd 0d32 8fbd e8cd 833d 7296 79bb
00000250: 925d 423d 6945 eb3c 6909 a93e a02a 343d
00000260: 9480 3f3d 88d9 bb3d e548 343e b66f d93d
00000270: 022f 87bd 64bf 89bd c389 cdbd 30d1 84bd
00000280: fd78 d83d 0630 2a3c 5fed dfbd 1117 b9bd
00000290: 3005 c63d 1544 f93c 54d4 73bd 1eb4 a93d
000002a0: 39d9 3d3c ae4e bd3c 2156 7b3d 49fb 473e
000002b0: 166d e6bd 0961 b2bd 94d7 4f3e 1b15 a13c
000002c0: 9a1c f53d 47e6 e33d 3c9f 693d f8c6 15be
000002d0: 735f 3abd 1c6d 5fbc 19bf 9dbc 8aea 823d
000002e0: b7a1 d43d 3cd3 933c 02d6 923d 4ee8 f53b
000002f0: fa67 ec3d bb30 83bd b031 cd3c 9c6a bfbe
00000300: 5a9f 913c 30f5 9f3c 3479 c0bd 6092 a13d
00000310: fecb d73d 3f2e 243e ada1 7b3d b553 d33d
00000320: 7702 0f3e 1675 1e3c 4c3d 223d 9eb8 89bd
00000330: f71e 813a 2425 11be f3e9 bb3c e1d0 35be
00000340: abe3 f5bd 6a94 64bc 7b36 dabc 09ec 7cbd
00000350: 4324 be3d a085 22bd 74ea 5d3d 83dd e8bb
00000360: da51 853c 78b1 493d ec43 b6bd 8fc0 433e
00000370: 4195 55be f500 ffbc ea6b 8e3d 9e22 043e
00000380: 5a44 d63d 6b24 ab3d c119 483e 62c9 24bc
00000390: 91c0 c6bd cb87 7bbd 03f6 b03d 7e7e eb3a
000003a0: 7e9f d03c 38a3 36be 79e8 97bd d3a2 90bc
000003b0: f21c 823d f9fa d8bd 8b73 623d 622b 39be
000003c0: 4f39 be3d c96a 833d 7d9a d43b 3dbf 9cbd
000003d0: 598b 253e 9b57 5f3b 5470 27be c8d8 e43d
000003e0: 1925 68bd 2b81 913d 1815 1c3e f8ac 543d
000003f0: 249b ccbd 684d 8e3d 6d6c 113d 8f8d 05bd
0.049219485 0.00030482796 -0.17516835 -0.09000663 -0.035897914 0.033239167 0.11172897 -0.15964827
-0.060141616 0.14029089 0.07170028 -0.0050013056 -0.25103432 -0.17265931 0.03916107 -0.017244741
0.15965168 -0.08067003 -0.012600707 0.11227572 -0.14529598 0.08794916 0.06606762 -0.039726455
0.023980396 -0.060487334 -0.0073346603 0.09275753 0.056702226 -0.08165826 0.10935389 -0.036112085
0.015201416 -0.07428887 0.07784225 0.0044368836 -0.01882393 -0.18594843 -0.0035491693 -0.08303352
0.07531322 -0.048122384 -0.03461559 -0.016517421 0.20343617 0.20934725 0.025905384 0.1560492
-0.04203324 -0.022078602 -0.020968247 -0.13071828 -0.09094819 -0.14893976 0.031362485 -0.09170386
-0.07376992 -0.019008001 0.23106459 0.03391018 0.14775428 0.027013658 0.1520552 0.009556364
0.116671905 0.008598626 -0.043573435 -0.038917754 0.036453813 -0.0881386 -0.046103697 -0.06273648
-0.0038153157 0.06645415 -0.15053688 -0.06279818 0.026390344 0.069020405 -0.11370551 -0.031199198
0.20118508 -0.06876678 -0.018932033 0.06799316 0.074659616 -0.046738878 -0.07222567 0.10667048
-0.20884499 0.16584416 0.045720547 -0.08051538 0.030214343 0.107736185 0.15912479 -0.15765733
0.0012489161 0.057571936 -0.0054270574 -0.030171381 -0.08940475 -0.012680387 0.06082791 -0.12238941
-0.1634181 -0.16558203 0.06927957 -0.07693025 0.00839499 0.03271554 -0.09182808 -0.17894809
0.18553674 0.0926945 0.12968606 0.061395057 -0.03432347 -0.051730644 0.114928335 0.12403531
0.16503492 -0.22574477 0.12436805 -0.01540081 0.021402426 -0.15862918 0.14792258 0.06320917
-0.1562862 0.01853983 0.06190076 0.088312596 -0.07879813 0.058003195 0.34866726 0.18705915
0.0794052 -0.067427054 0.06450011 0.091161974 -0.024469193 -0.1545796 -0.15865296 0.01624388
-0.07208369 -0.06991968 0.06435758 -0.0038084057 0.047452517 0.02871962 0.33014992 0.043985963
0.04675348 0.0917235 0.17605932 0.1061701 -0.06600763 -0.06725958 -0.100360416 -0.06485212
0.10569952 0.010387426 -0.10933947 -0.09037603 0.09668958 0.030427972 -0.059528664 0.08286308
0.011587434 0.023108806 0.061361436 0.19529451 -0.11251275 -0.08709914 0.2029708 0.019663384
0.11968346 0.11127906 0.057036623 -0.14626682 -0.045501184 -0.013636854 -0.019256162 0.06392391
0.10382407 0.01804506 0.07169725 0.0075044995 0.115432695 -0.06405779 0.025048107 -0.37386024
0.01777618 0.019526094 -0.09398118 0.07889247 0.10536955 0.16033266 0.061433483 0.103187
0.13965784 0.00967147 0.03960924 -0.06724666 0.0009851147 -0.14174324 0.022938704 -0.17755462
-0.12006315 -0.0139514 -0.026637306 -0.06174854 0.0928426 -0.039678216 0.05417867 -0.0071064844
0.016274381 0.049241513 -0.08899674 0.19116424 -0.20857717 -0.031128386 0.06954177 0.1290383
0.10462256 0.083565556 0.19541074 -0.010057779 -0.09704698 -0.0614088 0.08640673 0.0017966775
0.025466677 -0.178357 -0.074173875 -0.017655766 0.06353177 -0.10594744 0.05528597 -0.18082955
0.092882745 0.06416852 0.006488143 -0.07653663 0.16166438 0.0034079317 -0.16351444 0.1117416
-0.056676004 0.07104715 0.15242422 0.05192277 -0.09990528 0.06948358 0.035503794 -0.032605704

network_body._body_endoder.seq_layers.0.bias f4 [256]
00000000: 316f e83c 9ab8 c23c 5c3b 0f3c 51d7 123d
00000010: 05e7 b2bb 766a dd3c 57c0 2bbb 85fd cf3b
00000020: d889 ab3c 1dd8 5c3c 00c9 093c 16d6 663b
00000030: e1d8 823b caa7 163c 3fb5 b53c 36ef 9c3b
00000040: 189e 953c f44c 393c 185e d13c 069e cb3c
00000050: 5705 1f3c af2e 1838 5be5 e83c d4f4 863c
00000060: a2b0 7f3c ad5d 793c c36d 4abc 0f53 17ba
00000070: da26 1f3c 31f8 5a3c 3123 ec3c 046f bc3c
00000080: 14c7 e13c 91b0 2e3c 3315 d63c 467b aeba
00000090: ddaa 5f3b 7eb3 913c 0320 223c c15d b63c
000000a0: 07cb 9e3c befe b53b 6200 0e3c 739a c03c
000000b0: 613f 89bb 8577 3a3b e560 8a3b b21f 593c
000000c0: aa50 ab3c 48f1 5a3c 4cdc 7c3c 5fd7 163c
000000d0: 9390 d23b 2def 013c 4902 593c 242e c33c
000000e0: 24c6 623c 20bb a53c f1ba 4538 b3ab 2f3c
000000f0: 18d1 273c 9eaf 783b a253 a43c 9b14 b13b
00000100: 7f52 083d 025a ac3c e95a 453c 59e9 8e3c
00000110: c1d0 923c 1384 403a 85ff cb3c 672b 183c
00000120: b81a c83c edd6 78bc 61a5 6d3b 8144 1d3b
00000130: 816d 893c 37b8 ef3b 63ea 343c 56e2 6c3c
00000140: 43c7 173c 68e5 a33c eb03 013c 9348 aabb
00000150: 0760 fa3a 6d7a 173c dbb4 0c3a 2238 673c
00000160: 4743 e83b 7c6d 9f3b dcd2 e13b b1ec 723c
00000170: 6b50 24bc a0e0 ac3c cb99 f63b 494c d43c
00000180: 182f 9b3b d124 c23c 519c 5cbb be49 c43b
00000190: feaa 593b 71e4 29bc c9aa 8c3c 4efb 423d
000001a0: a1fc 8b3c 8680 913c 8720 f1ba ebc2 963c
000001b0: 2f00 2abb 2f55 ac3c 017c 953b 3691 8f3c
000001c0: 8b9d 9f3c 93ed 703c 9b65 2fbb a734 103c
000001d0: ac46 21bb 8a63 8d3c 6eec 5a3c a8df ab3c
000001e0: 97bb b43c 0842 a53c 845b 0b3c 6cc7 31bc
000001f0: ffe2 593c 7f34 923b ee81 d53b f2a3 26bb
00000200: 711a b83c 0c4d f53c 462f cc3c 7152 19bb
00000210: 913c c83c 5118 c33c df26 4a3c d233 873c
00000220: 23c8 8e3a 1265 68ba 6c8c 8b3c bf1c b5bb
00000230: 130b 7b3b 895c eb38 eef5 89bc 6124 883c
00000240: cb11 9d3c 18ba 4fbb afcb c93a 8f21 e03c
00000250: 664e da3c 13f1 75bb 5b92 993c 7aa3 ac3c
00000260: 0b1d af3b bf71 163c bf7f be3c 3f55 613c
00000270: b7b4 943c 6c3d a4b9 7e47 113d 497a c73b
00000280: ab7a 84bc 9630 243c e49c 0cbb 9953 92ba
00000290: 87eb f43b a3b5 b93b 54bc 5b3c f634 2a3b
000002a0: 1e0d d33c 493c 683c f971 303c d796 583c
000002b0: 28b1 0c3d c64a f5bb 5e01 493c 6cc0 74bc
000002c0: a896 023c b412 533c 13cd 553c 516e ac3b
000002d0: df97 023d 36d2 a4bb 1f71 573c 0fbe 583c
000002e0: edf6 963c 9c61 1fba 525d 783c 1f1b 4c3b
000002f0: 3897 003c f0a1 943b 71ee 613c 4594 353c
00000300: d850 1ebb a647 7c3c 56fa 83bb 3cb8 1d3c
00000310: 255f d43c 70e5 e93b 4aa6 953c 6dfd 063d
00000320: 4240 133d 260d 063d 4a12 683b d2e6 ab3b
00000330: 10f7 343c 1a64 6b3c 0e06 143d 050e 0c3d
00000340: 5897 fc3b 993c 093c 9c56 f53b 8fba e5bb
00000350: a8d5 0b3c 2861 053c 6351 9d3c e9a9 843c
00000360: bceb 203c 9d24 863c c1b2 bf3c 4566 503b
00000370: 245b 053a 2e07 733c aadb 84bc 1a99 a0bb
00000380: d0d5 e33b 5e28 413c 3cd4 913a 4a54 a73c
00000390: 2dd3 053c 74db 0e3d 2621 023c cd95 4a3c
000003a0: 3737 b43b c173 063d 7458 aabb 226e fd3b
000003b0: b393 143c 0679 ba3c 66fa 8e3c 0223 a73b
000003c0: e05c f13b cc2d 9cbb 7e1f b63b 9d80 813c
000003d0: 557c 4d3c a11e 583c 309e 6d3c 1dab b93c
000003e0: 0aea c53c abf9 a23c 0935 5e3c 5922 0c3c
000003f0: 82e4 903b a697 2eb9 a0a8 003d aee7 bbbb
0.028373333 0.023769666 0.00874218 0.035849873 -0.0054596686 0.027028304 -0.0026207173 0.0063473606
0.020939752 0.01347926 0.008409739 0.003522282 0.003993139 0.0091952775 0.022181151 0.0047892584
0.018263862 0.011309851 0.025557563 0.024855625 0.009705863 3.62831e-05 0.028429678 0.016474165
0.015606077 0.015220088 -0.012355271 -0.00057725696 0.009713853 0.0133648375 0.028825374 0.023002155
0.027560748 0.010662214 0.026133155 -0.0013311885 0.0034128942 0.017785784 0.0098953275 0.022261502
0.01938392 0.0055540493 0.008667083 0.023511147 -0.0041884636 0.0028452587 0.0042229765 0.013252186
0.020912487 0.01336319 0.015433382 0.009206622 0.006425926 0.007930559 0.013245174 0.023825713
0.013841186 0.02023083 4.7142563e-05 0.010722089 0.010242723 0.0037946473 0.02005941 0.0054040677
0.0332818 0.021039013 0.0120456 0.017445253 0.017921807 0.00073438993 0.024902115 0.009287692
0.024426803 -0.015187961 0.0036261904 0.002399713 0.016775848 0.0073156613 0.01104221 0.01445826
0.009263816 0.02000685 0.007874469 -0.00519664 0.0019102105 0.009245497 0.0005367526 0.014112504
0.007088098 0.0048653465 0.0068915915 0.014826939 -0.010028939 0.021103203 0.007525658 0.025915282
0.0047358386 0.023699196 -0.0033662508 0.005990236 0.0033213492 -0.010369406 0.01717128 0.047602944
0.017088236 0.01776148 -0.0018396535 0.018403491 -0.002594005 0.021036712 0.0045619016 0.017525297
0.019484302 0.01470508 -0.0026763442 0.008801616 -0.0024608774 0.017259378 0.013362033 0.020980671
0.022062106 0.020173088 0.008505706 -0.010850769 0.013298749 0.0044618244 0.006515733 -0.002542731
0.022473546 0.029943965 0.024924885 -0.0023395086 0.024442943 0.023815306 0.012338369 0.016504202
0.0010893386 -0.00088651583 0.017034732 -0.0055271084 0.0038306161 0.00011222909 -0.016840901 0.01661891
0.019173523 -0.0031696614 0.0015395785 0.027359752 0.026648711 -0.0037527725 0.018746546 0.021074045
0.0053440384 0.009182393 0.023254273 0.013753234 0.018152578 -0.0003132628 0.03546857 0.0060875756
-0.016171774 0.010021349 -0.0021455819 -0.001116383 0.007474366 0.0056674047 0.0134116 0.0025971509
0.02576309 0.014174529 0.010769361 0.013219557 0.034348637 -0.0074857203 0.012268392 -0.014938455
0.00797049 0.012882877 0.013049382 0.005262174 0.031883117 -0.005029942 0.013149529 0.013228907
0.01842829 -0.00060799136 0.015158968 0.0031144095 0.007848553 0.004535906 0.013789759 0.0110827135
-0.0024157073 0.015397942 -0.004027645 0.009626444 0.025924275 0.007137947 0.01826777 0.03295653
0.035949953 0.032727383 0.0035411292 0.005246022 0.011045232 0.014367128 0.036138587 0.034193058
0.0077084713 0.008376264 0.0074871313 -0.007010765 0.008534826 0.00814084 0.019203847 0.0161943
0.009821828 0.01637488 0.023400666 0.0031799239 0.00050871284 0.014833255 -0.016218025 -0.0049010636
0.0069529787 0.011789409 0.0011125873 0.020425934 0.008168024 0.034877256 0.0079424735 0.012364817
0.005499746 0.032825235 -0.0051985327 0.007734076 0.009068417 0.022762787 0.017453384 0.005100609
0.007365808 -0.0047662016 0.0055579534 0.015808398 0.01254185 0.013190896 0.014503047 0.022664601
0.02415945 0.019894442 0.013562449 0.008553111 0.0044217715 -0.00016650427 0.031410813 -0.0057344055

network_body._body_endoder.seq_layers.2.weight f4 [256, 256]
00000000: 43a8 bdbb 2e5a ecbc 494c 2dbd 3134 ee3c
00000010: 409c fb3c bde3 62bd 0ba5 313d cf6b 07be
00000020: c2ff 4cbc 9907 823c 7117 b4bd 13a9 9939
00000030: 9786 cc3d 8644 8ebd f900 d13c 21c1 c0bc
00000040: 132e aebc 28ad 32bc 9c33 8fbb 3ea4 b5bc
00000050: 90f1 463d 492e 89bd c44a 9abd 957e d13c
00000060: 5389 a5bc 5bd7 60bd e2c8 583d 8fb9 a53c
00000070: 5323 f6bc 3e46 85bd c49b 7abc 9fcb a0bd
00000080: 39bd ddbd 9c9e 6ebd a3cd 84bd dabd 393b
00000090: 3b33 a9bc 8c59 1abb 4ace 043c a7d9 1e3d
000000a0: 498b b3bd 4b8b c73c 1a3b 96bd 7841 48bd
000000b0: 0996 d8bc 6187 19bd d7a7 b8bd ffe9 5b3d
000000c0: 8976 553c 2fa5 bc3c e794 05bd 4e63 5dbd
000000d0: 331b 59bd 4d02 5b3d 8bd3 dcbc 29bf cd3c
000000e0: e905 383c e3be a6bc a5d6 adbd 62b8 0d3c
000000f0: 3ce1 153c bdb7 9a3d f60d 693d b034 833d
00000100: 2850 2fba 77f8 0c3b 7961 643d f33c 593c
00000110: e392 b9bc bc97 233c e301 adbd 110f 78bc
00000120: c5fd 0abd e6ea 95bd 9a67 a1bd 62d6 3bbc
00000130: 2c51 0abc a682 b03c ee8a 203e 0741 86bd
00000140: aadf 153c d60b 15bc 61b9 d93c b026 493d
00000150: 3d4c f4bc 7f41 fdbc ebd7 763c e4ef 7cbc
00000160: 2d2d 50bb 2d04 95bd 0a93 51bb 59d0 99bd
00000170: 80be 40bc aa96 9dbd 81ae 583d 3ab0 5abd
00000180: c4cd 89bd 8941 70bd 02ce 0d3c e051 093d
00000190: cbcb 343d f811 063d 0302 f6bd 4af1 98bd
000001a0: bf19 ebbd d5c9 5c3d 560a 823c 0073 1abd
000001b0: f9a3 043e 7758 65be 388d 87bd 074e 44bd
000001c0: 57a4 49bd f5c5 02bc eca7 a03d 67f2 733a
000001d0: 3cc7 97bc cc2c 833d 2072 db3d c77b 883d
000001e0: 17b9 75bd d765 8dbd 1ba3 b0bc a346 bd3d
000001f0: 507e 163e dad5 663d c7eb a93d f3ec c63c
00000200: 420b 7bbd 7bc1 0bbe 30e0 863c 8063 22be
00000210: 448b 6cbd 7aee ad3d 9e1b b4bc c5cd 54bd
00000220: 5ae5 683d c298 f33b c6eb 9cbd 8da7 e5bc
00000230: 313b bdbc 8a96 423d 63f1 ad3d ca68 87bd
00000240: 146b 25bd 0bfd 68bd 0973 c2bd c060 663d
00000250: d3f3 84bd eea1 6fbc 4ac3 2c3d 965c 8dbc
00000260: b573 a63c ebba 0b3d b2bf 0abd fb26 b93c
00000270: dfac abbd 06ec ba3b 0442 b4bd 73f5 4f3c
00000280: 623d 1c3c db69 c6bd 6d26 cbbd d684 ac3d
00000290: afcc eebb f226 fc3c 0c07 bc3d 5f07 a63c
000002a0: 9fff c7bc 873d 893d 9940 d5bc 3bcc 7c3d
000002b0: 230a 69bd 187c 50bc cc81 75bd 61b5 b03d
000002c0: 0003 9b3d 5cf4 c7bc 99a9 c9bb 05d0 00bc
000002d0: 7d4d d1bc 585c 08bb 34d7 4d3d 10e8 013d
000002e0: 35cc 8bbc de7d c33c 5d28 22bd 8358 2fbd
000002f0: 2547 cabd c16c d4bd 6df1 b1bd 6685 dbbc
00000300: f901 b43c cc74 ecbc 6f1d 4bbd 7b94 adbd
00000310: 871c 113e 02f0 8d3d 36d0 213d bd54 a43b
00000320: 8bd3 8dbd 530b 7b3d 9b75 12bd 8817 39bc
00000330: e935 3e3d 2f90 d93d 0ec9 a8bd dcee 1bbe
00000340: e0ab 86bd 2751 cabc 5c43 2f3e c9ad 43bd
00000350: 73e1 04bd ae59 533b 1e6f 50bb 6757 58bd
00000360: 401c be3c 8e98 d7bc c82d 0839 666e 2dbd
00000370: 00a1 12bd bd66 75bb 9fa9 aebc a69c 213d
00000380: eb83 49bc bfa8 423d 993b 09bd db37 9bbd
00000390: 1253 67bd 63ce 2a3d 5f55 6ebd 28a4 253c
000003a0: 67e0 013d 33ca ee3c 84ac 87bd 4892 2abd
000003b0: 0867 693d d363 4ebb bb63 7e3d e2fd 8dbd
000003c0: b754 05bd 1034 91bd 5c75 a13d 84b9 68bd
000003d0: 16c1 90bc a91f fdbc 43c9 c2bb 0bd3 dd3c
000003e0: 5ed8 c83c 17f7 26bd bef2 8d3c b5c2 0c3d
000003f0: 95e5 2f3d c834 c43c 9a1a d53b 9e21 b63d
-0.0057878806 -0.028851595 -0.04230908 0.029077621 0.030714154 -0.05539297 0.043370288 -0.1322472
-0.012512149 0.015872763 -0.087935336 0.00029308404 0.099866085 -0.069466636 0.02551316 -0.023529591
-0.021262204 -0.0109055415 -0.004370166 -0.022173043 0.048570216 -0.06698281 -0.07533792 0.025573054
-0.020207083 -0.05489288 0.05292595 0.020230083 -0.03004614 -0.06507538 -0.0152959265 -0.07851338
-0.10827107 -0.05825673 -0.064845346 0.002834192 -0.020654311 -0.002355191 0.008105824 0.03878179
-0.08766801 0.024358412 -0.073354915 -0.04889056 -0.02643873 -0.037482623 -0.09016388 0.053689953
0.013028749 0.023027984 -0.032612707 -0.054049782 -0.053004455 0.05346899 -0.02695634 0.025115566
0.011231878 -0.020354694 -0.08488206 0.008649917 0.009147938 0.075545765 0.05689808 0.06406534
-0.00066876644 0.0021510401 0.05575702 0.01325916 -0.022653049 0.009984907 -0.084476255 -0.015140311
-0.03393342 -0.07320194 -0.078810886 -0.011464687 -0.008442204 0.021546673 0.15677997 -0.06555372
0.009147564 -0.00909706 0.026577653 0.04910916 -0.02982151 -0.03091502 0.015066127 -0.015438054
-0.0031765208 -0.07276187 -0.0031978511 -0.07510442 -0.011764169 -0.076947525 0.052900795 -0.05339072
-0.067287 -0.05865625 0.008655073 0.033525348 0.044139665 0.03273198 -0.120121025 -0.07467897
-0.1147952 0.05390342 0.01587407 -0.03770733 0.12953176 -0.22397028 -0.06618732 -0.047925975
-0.049228992 -0.007981767 0.078445286 0.0009305835 -0.01852762 0.06405029 0.10715127 0.06664234
-0.05999097 -0.0690419 -0.02156215 0.092419885 0.14696622 0.05635629 0.08296924 0.024282908
-0.061290033 -0.13648026 0.016464323 -0.15858269 -0.05775 0.084927514 -0.021985825 -0.05195405
0.05685935 0.0074339816 -0.07662158 -0.028033996 -0.023099514 0.047506846 0.084933065 -0.06611784
-0.04038532 -0.056881946 -0.094945975 0.05624461 -0.06491818 -0.014626009 0.04217843 -0.017256062
0.020318845 0.034113806 -0.03387422 0.022601595 -0.08382582 0.0057044057 -0.08801654 0.012692797
0.009536119 -0.09688159 -0.099194385 0.08423774 -0.007287584 0.03078029 0.091810316 0.020267187
-0.024413882 0.067011885 -0.02603178 0.061718207 -0.056894433 -0.012724899 -0.059938237 0.08628345
0.075689316 -0.024408512 -0.006154251 -0.007862096 -0.025549645 -0.0020806994 0.05025406 0.031715453
-0.017065147 0.02386373 -0.039589275 -0.04280902 -0.09876851 -0.10372306 -0.086886264 -0.026797008
0.021973597 -0.028864287 -0.049588617 -0.08475586 0.14171039 0.069305435 0.039505206 0.0050149844
-0.06925114 0.061290096 -0.03575669 -0.011297114 0.04643813 0.10623204 -0.08241473 -0.15227836
-0.06575751 -0.0246969 0.1711554 -0.047773156 -0.032441568 0.0032249498 -0.0031804512 -0.05281773
0.02320683 -0.02631786 0.00012987026 -0.042341612 -0.035798073 -0.003744527 -0.021321116 0.039456032
-0.012299518 0.04752421 -0.033504102 -0.07579013 -0.056475706 0.041700732 -0.058186885 0.010109939
0.031708147 0.02914915 -0.066247016 -0.04164341 0.056983024 -0.0031492605 0.06210683 -0.0693319
-0.032551493 -0.07090008 0.07883713 -0.056817546 -0.017670196 -0.030898886 -0.0059444024 0.027078172
0.024517234 -0.040762987 0.017327663 0.034365375 0.042943556 0.02395095 0.0065034153 0.08893131

network_body._body_endoder.seq_layers.2.bias f4 [256]
00000000: 4aaa 56bc 6b7f 67bc 0b76 7bbb 32d5 913c
00000010: 7e35 d6ba f0fb 3d3c 9618 123c 46af d03a
00000020: 0590 84bb 55b2 f039 e31e 11bc 9911 3abb
00000030: 8c49 1b3c da8d 51bc 9405 f9ba 06c2 ae3b
00000040: bb2d 2bba d505 9039 a8fa 683c 3e87 e43b
00000050: 36c0 babb d74f 503c 65be 033c 1d61 183c
00000060: a558 0abb 88d3 223a 7219 223c 3b3c 923c
00000070: caaa 30bc 45ed cf3c d452 c33b f12c 123c
00000080: 2839 423b 5968 733c 40c4 863c ddfe 233b
00000090: 4593 a53b 7415 243c 6188 ed3b 546e 173c
000000a0: e47e 4ebb 53a6 1f3c 8978 e73a cb1a ff3b
000000b0: 3221 823c 32e2 05bb 0fa1 2fbb c8a4 ee3b
000000c0: 4551 3b3c cc65 a1bb 70ef 593c 57e6 8b3c
000000d0: eeb3 7239 7d20 433c 147a bdbb b402 3abb
000000e0: f59f a43b e85d a33b f4a0 b3bb 24ec a13b
000000f0: a364 b03b df07 f6ba c55a 853c 474c 5b3c
00000100: d806 a8ba 245f c93c eb28 013c e8f7 f6ba
00000110: f030 063c 927b 4c3b e43c 823c dbfb a03c
00000120: e3df 68bb e289 623c c6ab c83b 9358 da3b
00000130: 1377 6c3b aa25 993b 7e42 123c 7612 3a3c
00000140: 51dd 7f3c 11f0 3dbb 664a 9cbb b59d 2abc
00000150: 9e21 04ba cba6 313c dcd4 333c 6ef3 dc3c
00000160: 00e0 413c 5985 5e3c 7435 d8ba 83d7 b93b
00000170: 7f92 263c 81a5 f1ba ffd9 c23b a96d 3b3c
00000180: 83f2 793c 4d70 20bb 3203 fa3b c2f2 e13b
00000190: 50b1 153b 83d3 6b3b b418 383c e4f3 9ebb
000001a0: 4bd8 653c c76c 893c 7d16 433c 2db8 4f3c
000001b0: c90d 943c 14db 3b3c c2a5 c53b 091a 823c
000001c0: 2a0d 7239 d7fb bf3c 849e 923b 786c f0ba
000001d0: 87c6 9a3b 3307 943b b109 e93a aede 253c
000001e0: b0f8 6b3c c789 023c 0852 19bc edc5 35bb
000001f0: addc f0ba b3cb 053d 7305 29bb 0899 ca3b
00000200: eae2 773a 3176 dfb9 0503 a239 3e15 2f3c
00000210: 39db 6c3c e14e 90bb da15 10bc 49d3 30bc
00000220: 9294 023c 8957 613b c5bd 833b bc66 90bb
00000230: 1a68 b439 1d70 c8bb b656 61bc 1eee 2c3c
00000240: 80b2 94ba bcc7 b23a b14c 9d38 25ee aa3a
00000250: d470 773c 1aba ff3a 6bac 213c 4a5c fe3a
00000260: 92a1 8a3b 8ce5 7a3a 1584 86bb 66a2 433c
00000270: 789e 82bb f654 91bb f4f6 4e3a 5d4d bb3a
00000280: 3518 9a3b 0f1b 3aba 1b95 203c 7007 1b3c
00000290: 6f57 6bbb 2c09 1a3b 8c5b f93b 3c4b 1c3c
000002a0: 3fb3 9f3c 7f0b 0abc 5ec4 793c 56f4 af3b
000002b0: d7e0 a13b ebdb 51bc 39ed ea3b 97b5 aa3b
000002c0: 9ded c33c f859 3d3c eba2 863b b6c2 0e3c
000002d0: 90ff 143c e4bf 833b 3fb2 e5bb f659 34bc
000002e0: d72c 6938 fd66 a4ba bfb6 8b3b 7a08 953b
000002f0: f342 c73b 8ddd 013c 88df 63bc 5661 993c
00000300: 2449 4d3b 16b2 7e3c 56d1 173c d179 e839
00000310: 5dda 25bb 6809 853c 94a9 4dbb d315 5d3c
00000320: e223 453c 7245 ddbb c7cd 3abc ed2a b43b
00000330: 55a4 c439 5541 513c b059 573c ad66 233c
00000340: 8dac 223c 2dbe 423c 5e92 5f3a c5da 21bc
00000350: f93d 9b3c 3b81 c13a a109 11bc 54e0 ba39
00000360: f633 b03b 3420 3a3c 4413 003c 0489 6abb
00000370: 7cf1 383b a405 f93b be01 023c 4e24 2fbb
00000380: e21f d9bb 08be 40ba 7ed8 bb3a a983 703c
00000390: 072e 923c a032 df3c d788 b73b c678 a23a
000003a0: 2cb1 523c 287f ac3b db34 e5bb 3035 d23b
000003b0: 54e8 863b dc8e f13b 78fd c63b 0081 c4bb
000003c0: 02fe 8c3c 7c20 bc3c 9013 173c 34cb 3cb8
000003d0: b252 43bb aecd c83b 95d7 37bc d42f 583c
000003e0: 6942 98bc 07fb 9139 90cd 0cbc b16f 7e3c
000003f0: a8c4 96bb 85b3 163b 4253 063c 79e1 7ebc
-0.0131021235 -0.0141295 -0.003836992 0.017801855 -0.0016342846 0.011595711 0.008916995 0.0015921376
-0.004045489 0.00045909235 -0.008857462 -0.0028391837 0.009477984 -0.012790168 -0.0018998855 0.005333188
-0.00065299467 0.00027470166 0.014219917 0.00697413 -0.005699183 0.012714348 0.008040999 0.009300497
-0.0021109965 0.000621133 0.009893762 0.017850986 -0.010782907 0.025381694 0.0059608016 0.008921848
0.0029636119 0.014856421 0.016451001 0.0025023737 0.0050529563 0.01001488 0.0072489236 0.009242613
-0.0031508738 0.009744245 0.0017659824 0.0077851764 0.01588497 -0.0020429012 -0.002679888 0.007282827
0.01143295 -0.004925465 0.013301715 0.017077608 0.00023145947 0.011909601 -0.005782375 -0.002838296
0.005023951 0.0049855597 -0.0054818336 0.0049414802 0.0053830906 -0.0018770656 0.016278634 0.013384885
-0.0012819422 0.0245815 0.007883291 -0.0018842192 0.008190379 0.0031201583 0.015898176 0.019651344
-0.0035533838 0.013826819 0.0061239926 0.006663391 0.0036081716 0.0046736794 0.008926986 0.0113569405
0.015616731 -0.0028982202 -0.004769611 -0.010413577 -0.000504041 0.010842989 0.010976043 0.026971545
0.011833191 0.013581597 -0.0016495422 0.005671443 0.010166763 -0.0018436165 0.0059463973 0.011439719
0.015255573 -0.0024481 0.0076297754 0.006895394 0.0022841282 0.0035984225 0.011236358 -0.0048508514
0.014028619 0.016775502 0.011907217 0.012678188 0.01807298 0.0114658065 0.0060317228 0.015881555
0.00023083822 0.023435516 0.004474463 -0.0018342873 0.0047233733 0.00451746 0.0017779378 0.010123892
0.014402553 0.007967419 -0.009357937 -0.002773638 -0.0018376313 0.032664966 -0.0025790602 0.0061827935
0.0009456115 -0.00042621934 0.00030901298 0.010686217 0.014456564 -0.0044039343 -0.008794272 -0.010792562
0.007969992 0.003438445 0.004020425 -0.004406778 0.00034409837 -0.0061168806 -0.013753584 0.010554818
-0.0011344701 0.0013639848 7.500628e-05 0.0013040943 0.015102584 0.0019510419 0.009867768 0.0019406166
0.0042306865 0.00095709483 -0.004105101 0.011940574 -0.003986176 -0.004435177 0.0007895075 0.0014290024
0.0047025927 -0.0007099369 0.0098011745 0.009462222 -0.0035910269 0.0023504002 0.00760979 0.009539422
0.01949465 -0.008425592 0.0152445715 0.0053697033 0.004940133 -0.01280878 0.0071693924 0.0052096355
0.023917014 0.011557095 0.004108777 0.008713415 0.009094134 0.004020678 -0.007009774 -0.0110077765
5.559329e-05 -0.00125429 0.0042637284 0.0045481296 0.006080979 0.007926357 -0.0139082745 0.018723171
0.0031324113 0.015545389 0.009266218 0.0004434125 -0.0025307157 0.016239837 -0.0031381594 0.013493973
0.012032481 -0.0067526633 -0.0114016 0.005498281 0.0003750647 0.012771924 0.013143942 0.00997321
0.009928835 0.011886162 0.00085285853 -0.009878819 0.01895045 0.0014763245 -0.008852393 0.00035643822
0.005377288 0.011360217 0.007817093 -0.0035787234 0.0028220108 0.0075995494 0.007934986 -0.002672452
-0.006626115 -0.00073525356 0.0014331487 0.014679828 0.017844213 0.02724582 0.0056010294 0.0012395612
0.012859624 0.0052641816 -0.0069948263 0.006415032 0.004117051 0.0073717665 0.0060726963 -0.0059968233
0.017210964 0.022964709 0.009220973 -4.501194e-05 -0.002980393 0.0061280346 -0.011220832 0.013194997
-0.018586354 0.00027843585 -0.008593932 0.015529559 -0.00460108 0.0022995186 0.008198561 -0.015556687

network_body._body_endoder.seq_layers.4.weight f4 [256, 256]
00000000: 645d 36bb 9a7a bf3c 812b 9f3d a9fa a4bd
00000010: 88df 62bd 1c25 14bd 3cb9 3a3d 69f1 95bd
00000020: 7e8b 5c3d 7ae8 82bd cdf9 a63d 70a5 a3bd
00000030: 1952 a7bd 3053 a3bd ca03 f03d 1ddc 39bd
00000040: f175 343d 536c d9bc 74be b7bc 0ef9 ecbc
00000050: 822d 0abd 85f5 d63c 5778 43bc 745a 79bd
00000060: e5dd 313e 8af0 0bbc 5af9 1d3d 6d75 b8bd
00000070: d783 273d 24e7 a8bc ff6c cb3d 7977 58bd
00000080: 4bbd fabc b4a2 9cbc 82ca 013e 65bb 603d
00000090: 1c62 83bd 7f77 a13d bfb4 f7bd 39bc fbbc
000000a0: 0dde 253d 43f2 95bd 2a2e 98bc c353 4c3d
000000b0: f662 d93d a68b 62bd 1f8c eabb 7778 04bd
000000c0: 2db4 813c c24f db39 ac48 5cbc 42aa d5bd
000000d0: e8c9 803d 07e0 463d f922 aebd 3f01 4a3c
000000e0: 160e c5bc a93b c2bd f33c 80bd fbe2 cb3d
000000f0: 12d4 d7bd 0a66 0ebe 512f 2ebd a1a8 78bc
00000100: 20c0 a53d 8626 b03d 6b18 083c 540f c1bb
00000110: 5647 223d b7a8 933c 5401 c4bc 34ed 983d
00000120: f6c8 debd 8cd9 4d3d 7e37 a1bc e57b 1abd
00000130: ee51 99bd 0f5d 343c c249 f2bc 7871 63bd
00000140: 7070 d53d 9150 373d 7e1f 29be e456 fdbc
00000150: 7c61 713c 8a32 c0bd 3e58 69bc 8f02 493d
00000160: ddd1 4ebc 6faa 44bd 9ee1 d03a 9da9 e8b8
00000170: d477 68bc ae25 bc3d a8e4 81bd 9327 12bd
00000180: 5736 193d 07a4 11bb 32d1 2dbe 4cb7 94bd
00000190: 18d5 633d 3dfb babd cbbb d9bd 2b61 eebc
000001a0: 7671 96bc 5b07 803d 3820 b83d 7320 013e
000001b0: d5c6 6bbd fcc1 313c c68a b73c 6091 32bd
000001c0: 1390 d93c 855d 31bb c739 adbd 00e3 613c
000001d0: 4c85 3e3c ba9c 95bc 3ffd ecbc 8598 f43b
000001e0: f85d 83bc 5bc9 713d 5f27 caba abd4 64bd
000001f0: 7867 383e 8ad9 59bd 41d1 5a3d 72b6 cfbd
00000200: b3d2 663d b378 063d eed7 efb9 648a 063d
00000210: f019 84bd e527 373e 6a90 053d 538f 9e3d
00000220: 77f9 483c 8e55 a53c 28bf dbbd f3a5 cabc
00000230: 55e1 353b 44a7 69bd 6d78 593d e8d5 5bbd
00000240: 3663 d13b 9816 223c 9d2b e73c ae1b fc3c
00000250: e08f 853c baa3 123d 9ab7 e8bc 7275 5a3d
00000260: a703 873d 2898 19bc 33b0 50bd ec5c eabd
00000270: 9c01 27bd 99d2 22bc 4a83 ab3d f836 8a3d
00000280: 6b7c 06bd 7eb1 bfbc d51b 5ebd e653 98bd
00000290: 74f0 f5bc 6840 7bbd e2d3 153d 7b22 08bd
000002a0: 6de8 81bd f308 6d3d 6482 ac3d 168c 45bc
000002b0: dbde 283d c34e 263e 6fab 843d 0ccf fbb9
000002c0: ee62 eabd 188b 8f3a 0937 5cbd 7e6c 453d
000002d0: 0786 a23d 3de4 973d 0055 3d3d 0f4d e23d
000002e0: ad79 0dbd ee72 dfbd e785 f1bd ecdd 633d
000002f0: d70c 323d 642a f63c cddf 473d 5090 dbbc
00000300: c39a 96bc 4bc7 6dbd 3787 1abe 5b7d b03d
00000310: 779f 62bc de66 9bbd 8154 c03d ca34 62bc
00000320: a253 cfbd d823 c1bd a730 aa3d 61f7 8f3d
00000330: c040 e13c ef80 3e3d e1b2 8c3c 8413 a43d
00000340: 836a c8bd c3ab 86bc bb09 ae3c 53c7 083d
00000350: 0aa6 6bbd abe9 963d 3de4 d83d e949 243d
00000360: c542 023d d898 0cbd 236d 7ebd 0fc4 243b
00000370: 1260 ce3c fb79 e7bc 4412 dabd 6bbb 2abd
00000380: 950b 783c a66a ab3d 977b e1bd 023a bdbd
00000390: 4ae3 343d 6f01 6bbc 6371 21be 0f8d 91bd
000003a0: 18c0 13bd b257 d7bd 2776 e9bc 7ee5 973d
000003b0: 4cda cbbc 1243 ce3d 4591 5abb 8162 9fbd
000003c0: 837d 993a ad23 4a3d 52af ad3b c5be a93d
000003d0: 6928 0e3d e4c9 0dbd 68bc 29bc 7b8d d7bd
000003e0: f536 a3bc b7c7 67bd 003b 2bbd 4b11 e23d
000003f0: 042d 7fbd 4987 99bd e833 ef3c 8b45 573d
-0.0027826661 0.02337389 0.077719696 -0.08055622 -0.055388957 -0.036168203 0.04558681 -0.07321436
0.053843968 -0.06391998 0.081531145 -0.07990539 -0.08169956 -0.07974851 0.11719473 -0.045375932
0.04405779 -0.02654091 -0.022429682 -0.028927352 -0.033734806 0.02624012 -0.011930547 -0.06087728
0.17369802 -0.008541236 0.03856788 -0.09006772 0.040897217 -0.020618029 0.09932899 -0.052848313
-0.03060784 -0.019120552 0.12674907 0.054866213 -0.06415197 0.0788412 -0.120950215 -0.0307294
0.040494967 -0.073215984 -0.0185767 0.04988457 0.106145784 -0.05530896 -0.007157817 -0.032341447
0.015832985 0.0004183036 -0.013445061 -0.10432865 0.062885106 0.048553493 -0.08502764 0.012329399
-0.024054568 -0.094840355 -0.06261625 0.099554025 -0.10538496 -0.13906112 -0.042525593 -0.015176923
0.080932856 0.08601098 0.008306603 -0.00589172 0.039618813 0.018024785 -0.023926415 0.07467118
-0.10878174 0.050256297 -0.019679781 -0.03771581 -0.0748633 0.011008515 -0.029576186 -0.055528134
0.104218364 0.04475457 -0.1651592 -0.030925222 0.014732715 -0.093846396 -0.01424223 0.049074706
-0.0126232775 -0.0480141 0.001593638 -0.00011094215 -0.0141887255 0.09186874 -0.06342441 -0.035682272
0.03740534 -0.0022223012 -0.16974333 -0.072615236 0.055623144 -0.09129951 -0.10631522 -0.029099068
-0.01836465 0.06251403 0.0899052 0.12610035 -0.057562668 0.010849472 0.02240504 -0.04359567
0.026557958 -0.0027063799 -0.08458286 0.013787031 0.01162846 -0.01826321 -0.02892935 0.007464471
-0.016036019 0.05902992 -0.001542311 -0.05586688 0.1800822 -0.053185977 0.053422216 -0.101422206
0.056353282 0.03282995 -0.00045746512 0.032846823 -0.0645026 0.17886312 0.032608427 0.07742181
0.012266508 0.020182397 -0.107298195 -0.024737334 0.0027752717 -0.057044283 0.053093363 -0.053670794
0.0063900007 0.009893082 0.028219039 0.030774917 0.016303957 0.035800673 -0.02840786 0.05333466
0.065924935 -0.009374656 -0.050949287 -0.11443505 -0.04077302 -0.009937906 0.08374651 0.06748766
-0.032833498 -0.023400065 -0.05422576 -0.07437877 -0.030021884 -0.06134072 0.03657902 -0.03323601
-0.0634316 0.057869863 0.084233075 -0.012057325 0.041228157 0.16240983 0.06478011 -0.00048028713
-0.114446506 0.0010951487 -0.053763423 0.04819917 0.0793572 0.0741658 0.04622364 0.11049854
-0.034539867 -0.10910593 -0.11793118 0.055631563 0.043469276 0.03004951 0.048797417 -0.026802212
-0.018384343 -0.05805139 -0.15090643 0.0861766 -0.013831965 -0.0758798 0.09391118 -0.013806531
-0.101233736 -0.09430665 0.08310061 0.07029606 0.027496696 0.04650968 0.01717514 0.08011535
-0.097859405 -0.016439324 0.021244874 0.033393215 -0.057531394 0.073687874 0.10590408 0.04010955
0.031801958 -0.03432545 -0.0621158 0.0025141274 0.025192294 -0.028256407 -0.10648015 -0.041682642
0.01513948 0.08369951 -0.11009901 -0.0923958 0.044162072 -0.0143436035 -0.1576591 -0.07106983
-0.036071867 -0.105147734 -0.028498722 0.07416819 -0.024884365 0.100713864 -0.0033350748 -0.0778246
0.0011710379 0.04935043 0.005300441 0.082883395 0.034706507 -0.034616366 -0.010359861 -0.10525032
-0.019923666 -0.056586947 -0.041804314 0.110384546 -0.06229879 -0.07496507 0.029199556 0.052556556

network_body._body_endoder.seq_layers.4.bias f4 [256]
00000000: d245 1fbc 14df 3d3c c6e7 da3b 64a2 173c
00000010: e60d ea3b 503c 193c 13fc 1f3c 3ed4 f6b8
00000020: ed6e bc3b 47f6 bb3b e87a c73a b167 6a3b
00000030: d112 6fbb 978a c03b 1163 7ebb 2e79 e8b9
00000040: b589 353c baa6 713b fb99 e338 d328 cc3b
00000050: 4ede 223b 6fdc dd3b 399c d73b dd38 7e3b
00000060: 94dd 02bb 3c3a f3bb 9770 873b 7a1d 403b
00000070: 73e2 dab7 0b18 cb3b 89dc 253c ad4a e3bb
00000080: 5634 013c 87b9 2f3c d490 2c3b 9cbb 4c3c
00000090: d25f bebb 811e 843a e896 31bc 0f11 813c
000000a0: b1cf cc3a 194d 3fbb b57a 34bb 0803 cc3b
000000b0: 649d d2bb 31e8 cd3b 0892 87ba 34fa f339
000000c0: 9848 1b3c 5ce9 cfbb 6579 a6bb 0b25 de3b
000000d0: 11b0 883b 2695 9d3b 34d0 89bb 5aa6 503b
000000e0: 3657 25bb ba88 0bbc 2655 353c b46d 6bba
000000f0: c2a6 da3b 5f62 cfb9 699d 0b3c 51f7 2b3c
00000100: c2be 73bb 959f 723b a890 03bb f2a3 9e3b
00000110: 5b4b 3dbc 2d8a d83a acdb 4b3c 90f7 1abb
00000120: 003c c83a cb16 823c 200a 7f3a cbc1 e13b
00000130: abf5 803b c4bd cabb f3be 343c 439f 543b
00000140: f491 fdbb c106 923c 3d00 083b 7ead 52bc
00000150: ff41 eb39 7eef e93b aee4 fabb e359 acb9
00000160: a7d6 243c 1ea6 d33b 9dd8 23ba 0da9 0b3c
00000170: c46e 8d3b ded3 8c3b 3e0b 083c c1e6 c2b9
00000180: fa97 60bb e8d8 903b ce68 093c a25e 3f3c
00000190: 2a55 6cbb d805 d0ba e85c 113c 0c90 923b
000001a0: a767 9f3b 3c1a a53b e27c 0d3c a3d1 ac39
000001b0: e6a1 443b 3003 29bb 5020 3e3c bb6f 163c
000001c0: 23b0 2a3c 9efd 0b3c 431f 8f3b 52c7 debb
000001d0: 691b ffbb 550c b63b fa4d 043c 259f a7ba
000001e0: ac67 eb3b 89a1 1f3c b39d 2ebc 1b5e 513b
000001f0: bf3d 1abb 2a89 b73b f43d 293b 9540 1bbc
00000200: 8bee debb 07bf cc3b dfc8 04bc c189 4c3b
00000210: cb7a 43bc 75f4 0d3c e57e 0e3c f1b3 2e3c
00000220: dcd2 bcbb 3cf8 a73c 3469 be3a 73af aaba
00000230: f0a0 023c c1a9 08bc d3f6 d9ba 1a9d 253b
00000240: d886 213c 489a af3a cec8 2e3b 32de 9a3b
00000250: 3e68 3d3c 1a0c 86bb 7087 21b9 e97d 623b
00000260: 2bd7 733c 53be 323b f480 4c39 3643 003b
00000270: 18eb 97bb b37e bc3b 1b99 c2ba c74d 6f3c
00000280: c333 2d3c b1f2 8738 e620 ba3b 6e68 ce3b
00000290: b161 b33a a183 163c ebf2 18bc a6b6 073a
000002a0: 8d90 8eba 97c3 8aba 56ee 4dba eafd 30bb
000002b0: dc42 caba ba82 693b a8ce ecbb 4942 d6bb
000002c0: 1a94 fd3b 81b1 d23b 6790 c73b a8b4 13bb
000002d0: f2ca 8dbb f167 25bb 3709 ecba 7109 4c3b
000002e0: c07a a1bb c9b4 40ba 5492 e6ba 73a0 b4ba
000002f0: c098 493b a09c 49bb 0ee0 bf3b a1ab 3bbb
00000300: 24d2 8d3b 0c55 393c 3401 87bb 6126 12bc
00000310: 4fb9 cbba 956c 9b3a d9d3 c439 046d b63a
00000320: c0de 53bb f449 85ba 9c95 033c c5fa edbb
00000330: bdc9 7bbb 82f3 ef39 9c2c 973b 03fa 333c
00000340: aa19 77bb 8d02 a23b 6f8f 7d3b def9 013c
00000350: 2800 543b a991 df3a d142 6e3b d53d b23b
00000360: 1dd7 9b3b 32a6 80ba d9dc 193c f367 483c
00000370: eef2 fc3b 1b8a 3ebb e6fd 093a 7da3 313c
00000380: 89f2 f73a 0ef9 99ba 1aa0 f23a c722 6b3b
00000390: 66d8 563c f30e ebbb c059 1c3c 8431 033a
000003a0: 2b26 183c 19e3 42bb 4add 80bb 68e7 373c
000003b0: 2c34 c93b 15b3 83bb 4152 39ba 5dd8 243c
000003c0: 39b8 0e3b 7c78 bc3b 11eb c93a b7ff de3b
000003d0: b562 1dbb da4c f23b c3dc 883b 3611 4f3c
000003e0: 0cf7 823b eaef 603b e672 383b 8ecc b4bb
000003f0: 6dc1 363b ac5f 913b e62f 5b3c 1c17 213c
-0.009721236 0.0115888305 0.0066804616 0.009255026 0.00714277 0.0093527585 0.009764689 -0.00011769727
0.005750528 0.0057361457 0.0015219124 0.0035767371 -0.0036479721 0.005875896 -0.0038816372 -0.00044340774
0.011080195 0.0036873058 0.000108528846 0.0062304526 0.0024851742 0.0067706625 0.0065799025 0.0038791217
-0.0019968497 -0.0074227136 0.004133295 0.0029314444 -2.6093074e-05 0.0061979345 0.01012338 -0.0069363923
0.007886013 0.0107253855 0.0026331441 0.012495901 -0.0058097625 0.0010079892 -0.0108392015 0.015755204
0.0015625862 -0.002919024 -0.002753896 0.0062259473 -0.006427454 0.006283783 -0.0010343203 0.00046534988
0.009477757 -0.0063449573 -0.0050803893 0.006779318 0.0041713794 0.0048090396 -0.004205728 0.0031837435
-0.0025228984 -0.008516485 0.011067664 -0.00089808856 0.006672711 -0.0003955541 0.008521416 0.010495977
-0.0037192558 0.0037021388 -0.0020075236 0.004841321 -0.011553611 0.0016520672 0.012442511 -0.0023646094
0.001527667 0.01588001 0.0009728987 0.006889557 0.003935536 -0.0061871726 0.011031854 0.003244356
-0.0077383462 0.017825486 0.0020752095 -0.012858747 0.00044871864 0.0071391454 -0.0076566553 -0.00032873367
0.010060943 0.0064590117 -0.00062502344 0.008524192 0.004316183 0.0042977175 0.008303462 -0.00037174489
-0.0034270273 0.0044203885 0.008386804 0.011680277 -0.0036061504 -0.0015870882 0.008872248 0.004472738
0.0048646512 0.005038528 0.008635731 0.00032962588 0.0030003726 -0.0025789253 0.011604384 0.009181912
0.010417971 0.008544354 0.0043677404 -0.006798663 -0.00778525 0.0055556693 0.008075232 -0.0012788518
0.0071839895 0.009743103 -0.010657716 0.003194696 -0.0023535339 0.005601068 0.002582428 -0.009475847
-0.006803339 0.006248358 -0.008104532 0.0031210037 -0.011931132 0.00866424 0.008697246 0.010663019
-0.005762441 0.02050411 0.0014527203 -0.0013022259 0.007972941 -0.008341254 -0.0016629345 0.0025270642
0.009858809 0.001339742 0.0026669982 0.004726195 0.011560498 -0.004090798 -0.00015404611 0.0034559912
0.014882843 0.0027274087 0.00019502995 0.001957131 -0.0046361797 0.0057524084 -0.0014846654 0.014605946
0.010571423 6.4825064e-05 0.0056801913 0.00629907 0.001368573 0.009186656 -0.00933526 0.0005177058
-0.001087682 -0.0010586855 -0.0007855644 -0.0027006813 -0.0015431303 0.0035630898 -0.007226784 -0.0065386635
0.0077386023 0.0064298515 0.006090212 -0.00225381 -0.0043271715 -0.0025238956 -0.0018008117 0.0031133557
-0.004927963 -0.0007351158 -0.0017591217 -0.0013780728 0.0030761212 -0.0030763522 0.005855567 -0.0028636234
0.004328029 0.011311781 -0.0041200165 -0.008920283 -0.0015542897 0.0011857921 0.00037541872 0.0013917987
-0.0032328814 -0.0010169134 0.008031275 -0.00726256 -0.0038419806 0.0004576706 0.004613472 0.0109849
-0.0037704506 0.0049441517 0.003869023 0.007933108 0.0032348726 0.001705696 0.0036355744 0.0054395
0.004755868 -0.0009815155 0.009391033 0.012231815 0.007719389 -0.0029074016 0.0005263969 0.010842201
0.0018916886 -0.0011747198 0.0018510849 0.0035878883 0.013113117 -0.007173413 0.009542882 0.0005004632
0.009286444 -0.0029737412 -0.0039326297 0.011224605 0.0061402526 -0.004019151 -0.0007069447 0.010061351
0.0021777286 0.0057516675 0.0015405138 0.006805386 -0.0024015133 0.0073944153 0.0041767075 0.012638381
0.0039967354 0.0034322687 0.0028144657 -0.005517549 0.0027886287 0.004436454 0.013378119 0.00983217

action_model._continuous_distribution.log_sigma f4 [1, 12]
00000000: cc66 d53d 875b dd3d 4fea 703d 6422 913d
00000010: c94b ae3d d01b 493d 5025 413d b1d1 9f3d
00000020: 7af7 193d 5b6f f63c 0fe3 733d c9ff 1b3d
0.104199976 0.10808473 0.058817204 0.070866376 0.085105486 0.04909879 0.047154725 0.07803667
0.037589528 0.030082395 0.05954271 0.038085733

action_model._continuous_distribution.mu.weight f4 [12, 64]
00000000: f4c8 8cbd 3d10 aebc 910c feb9 9d01 853c
00000010: ba3f 98bd 5a71 a0bd e510 22bd 8587 083d
00000020: ef80 47bd 798c 0bbd 0266 153c 43aa 80bd
00000030: ec07 403d 2a02 02bc af2d a63d 12c9 2e3d
00000040: 01ea c4bb 1ae4 f83c 738e 843d 7ea4 3cbd
00000050: 6fe9 793d 6590 2d3d 8b53 d53c 6db9 ac3b
00000060: a5cb 23bc d3fa 9b3d 26fd 4b3c f4f9 72bd
00000070: 41c3 003b 35cb 623d 9919 d33b daf2 d2bc
00000080: dbcf 783b 3573 903d ff8c ee3c b95a 07bc
00000090: d863 333c 4d73 aa3c e53e c9bc 17c7 4b3d
000000a0: 63e4 5d39 51ba 8fbb 2890 7bbc 033f b83d
000000b0: 9f5c cbbc f668 2e3d b08c 08bd 01a4 cd39
000000c0: 9db1 9c3c 0d03 793d 1d69 48bd c17b 94bc
000000d0: 5370 00bb 5cb1 8e3d 8768 37bd f825 3a3c
000000e0: 5444 033d ef6a 26bd b4f3 ac3b 4970 013d
000000f0: 83b0 2bbd cce6 f73c e33b c3bd 3fc3 693d
00000100: 7226 06bd 05e0 723d 9664 9e3a b7ab f13c
00000110: add8 4ebd 81ec d9bc 4448 24bd 8265 9a3c
00000120: 207f 683c 3358 d6bc 3249 3b3d dea7 89bb
00000130: 6c40 593d 82b1 34bd 2541 be3d e5c0 7a3d
00000140: ba45 23bd a277 6dbd b327 533c 64a8 5dbd
00000150: 38bf 843d 95ee 6d3c 3cd9 e03c 4e9a 8d3c
00000160: 1235 bdbc 3064 9f3d 46b6 833d ca76 483b
00000170: b6a5 d23d 179a 913d df79 623d 7756 07bd
00000180: 5c6e 343d fd19 613d d7bc 083d c3ab 05bd
00000190: f8f1 083d 48fa 88bb c557 99bb 2f59 153d
000001a0: 54fb 5fbd b5c0 4fbc 631a f2bb 8119 423d
000001b0: 9445 083a f1aa bf3c 0efa 40bd 7834 14bc
000001c0: 409b 853c c5c8 323c 07d7 89bd 5919 c6bc
000001d0: 41fa ac3b 585a ce3d 4efb 293d 291e 22bd
000001e0: a665 8b3d a559 85bd a0f0 4dbd 13ce 3f3d
000001f0: 6f29 32bc 02cf 243c afda e2bc 838f 043d
00000200: 82a2 96bd 5bcf 743c 153b 6abd bc12 b63d
00000210: 1dee 65bd 5706 0a3d 9635 72bd 2732 123d
00000220: 1063 593d 220a e8bc f8c1 843d ec7e b1bc
00000230: 1856 ef3c cb56 aebc f26e 06bc a2fb 2b3d
00000240: e168 3fbd 05bd 2a3d 0b93 113d 861d 313c
00000250: d09e 0d3c 7562 dabb e448 b03d 04d4 793d
00000260: 71be 25bd 1f0d f9bb 8b01 413d ee0c bbbc
00000270: c3df 7bbc e43d 4abb b08e 1b3c 76fd 2cbc
00000280: 63fe 16bc d4c8 f13c ff41 1e3d 9476 2bbd
00000290: 3bb2 843d 90a6 9c3a fdda 473d 7d43 413c
000002a0: 29f9 1ebd 1c6c c7bc c204 e03c 3745 463d
000002b0: b917 27bd 2f2b 5abc 0f1c b8bb 8433 5cbc
000002c0: adcb d13c 992b 0b3c 4dd2 17bd c370 e9ba
000002d0: bb43 873c 83f9 ec3b c247 1dbc d408 1abc
000002e0: 84ab 243d 9067 2b3c 061d aa3b 0a32 3e3d
000002f0: de73 a53c 75c7 adbd 47dd 13bc 09b3 51bc
00000300: ef51 233d 91e4 eebc 0c2d f63c 590a 353d
00000310: 9ad2 b03d ef2a 76bc 8134 393d f00d e4bc
00000320: 3cbb 9bbd 6eab bcbc ea63 f8bb 4a1c 083d
00000330: 1997 37bb 73c4 293d 2fcb 083d f7f8 1cbd
00000340: b7da 543b 1e55 63bc a875 85bd 9830 183d
00000350: 1c05 6ebd 45c3 17bb 608a d5bc 1a9e 86bd
00000360: fc4e 09bc d547 433d 4410 44bd 6c48 953c
00000370: f1d5 25bd 5e6c 20bd fdad 12bd 9262 2abc
00000380: 2c29 6e3d 1490 09bd 0f84 b9bd 0aa8 813d
00000390: a700 43bc 7602 f93c 1a0a 91bc c58f eebc
000003a0: 571a 9cbb a2eb 07bd 46cc 8dbc 8339 0ebc
000003b0: b1b2 ad3c 1838 7ebd e50c 903d 894a 103c
000003c0: fd43 c5bb 02b6 96bc ed6d ad3c 5879 293d
000003d0: 5468 4abd db34 42bc 7ecc 013d 30f3 033d
000003e0: 9c1d 1cbc 5bf2 86bd 50ec 95bb 19d1 41bd
000003f0: f11c 07bd 4a1f a4bc 8a72 6e3c f7e0 0ebd
-0.06874266 -0.021247977 -0.00048456018 0.01623612 -0.0743403 -0.0783412 -0.039566893 0.033332366
-0.048706945 -0.034069512 0.009118559 -0.06282475 0.046882555 -0.007935086 0.08114182 0.042672224
-0.0060093408 0.030382205 0.064724825 -0.04605531 0.061013635 0.042374033 0.026040813 0.005271128
-0.009997283 0.076162 0.012450492 -0.059320405 0.001964763 0.055369575 0.0064422605 -0.025750566
0.0037965688 0.07053224 0.029119967 -0.008261376 0.010949098 0.020806933 -0.024566123 0.049750414
0.00021161283 -0.0043862243 -0.015354194 0.089963935 -0.024824439 0.042580567 -0.033337295 0.0003922284
0.019127661 0.060793925 -0.04892837 -0.018125417 -0.00195982 0.06967422 -0.04477742 0.0113615915
0.032047585 -0.040629324 0.005278075 0.031601224 -0.04191638 0.03026142 -0.09532907 0.057070967
-0.032751508 0.059295673 0.001208442 0.029500825 -0.050499607 -0.026602032 -0.04010798 0.01884723
0.014190465 -0.026165104 0.0457241 -0.0042009195 0.053039953 -0.044114597 0.09289769 0.061219115
-0.03986142 -0.05797542 0.012887883 -0.054115668 0.064817846 0.014522214 0.027447335 0.017285492
-0.023096595 0.07782781 0.0643125 0.0030588382 0.10285513 0.071094684 0.055292007 -0.033041444
0.04405056 0.054956425 0.033383217 -0.032634508 0.033433884 -0.0041802265 -0.0046796524 0.036462005
-0.054683045 -0.012680222 -0.0073883994 0.047387604 0.0005198356 0.02339694 -0.04711347 -0.009045713
0.01630938 0.010912125 -0.06730466 -0.024182009 0.005278856 0.100758255 0.04149943 -0.039579544
0.06806497 -0.06511239 -0.050278306 0.046827387 -0.010874136 0.01005912 -0.027692167 0.032363426
-0.07355215 0.0149420155 -0.05718525 0.08890292 -0.056135286 0.033697452 -0.059133135 0.03569236
0.05307299 -0.028325144 0.06482309 -0.021666966 0.029215857 -0.02128162 -0.008205162 0.041988023
-0.04673088 0.04168417 0.03554062 0.010810262 0.008643821 -0.006664569 0.08607653 0.06099321
-0.040464822 -0.007600441 0.047120612 -0.022833314 -0.015373173 -0.0030859644 0.009494469 -0.010558477
-0.009215924 0.029514708 0.038637158 -0.04186113 0.06479307 0.0011951495 0.048792828 0.011795876
-0.038811836 -0.024343543 0.027346019 0.048405852 -0.040794108 -0.01331596 -0.005618579 -0.013440017
0.025609815 0.008494281 -0.037065793 -0.0017810095 0.016511789 0.0072318926 -0.009599628 -0.009401519
0.040202633 0.010461703 0.005191448 0.04643444 0.020196851 -0.08485309 -0.009024925 -0.012799033
0.03987306 -0.029161723 0.030050777 0.04419932 0.08633919 -0.015024885 0.045216087 -0.027838677
-0.076040715 -0.023030963 -0.00758027 0.033230104 -0.0028013645 0.041447114 0.033396896 -0.03832337
0.0032478997 -0.013875274 -0.06516582 0.037155718 -0.05811034 -0.0023157161 -0.026066959 -0.06573124
-0.008380648 0.047675926 -0.047867075 0.01822301 -0.040487234 -0.039165847 -0.03581046 -0.010399478
0.058144733 -0.03358467 -0.09058391 0.06330879 -0.011902011 0.030396681 -0.017705012 -0.029121289
-0.004763882 -0.0331837 -0.01730932 -0.008680704 0.02120337 -0.062065214 0.070337094 0.008806833
-0.0060200677 -0.018397335 0.02117058 0.041375488 -0.0494159 -0.011853422 0.03168916 0.032214344
-0.009528544 -0.065891944 -0.00457529 -0.04731855 -0.032986585 -0.020034451 0.014553675 -0.034882512

action_model._continuous_distribution.mu.bias f4 [12]
00000000: d7c9 b43c 94b7 003d 20a9 f63c e053 bfbc
00000010: 3366 213d bd0a 97bc 4dd3 fa3c 7baf 9ebb
00000020: 2e2a c8bc 33e4 01bc adab 443c 89cf a4ba
0.022068901 0.031425074 0.030109942 -0.023355424 0.039404105 -0.018437738 0.030618334 -0.0048426962
-0.024434175 -0.007927942 0.012003821 -0.0012574057

onnx::Div_106 f4 [36]
00000000: 302c 5f3e 0c55 953e baab 503e 61ef 4d3e
00000010: caab 5c3e 8ccd 963e 270e 583e 3897 543e
00000020: 5bda 653e ec68 9b3e d4d6 5c3e 90c0 593e
00000030: 8dc5 603e 528a a43e 4dc8 7d3e c112 753e
00000040: 34e3 703e fdd1 ad3e da9e 853e 8863 813e
00000050: 8fe4 903e 8045 de3e ea6e bd3e c259 a43e
00000060: cd32 933e fe41 e53e 3135 c73e 138f ab3e
00000070: f823 cd3e fa27 c33e d838 f83e 1547 ac3e
00000080: 7d77 c83e 9d9b b93e 786b f33e 95ea aa3e
0.217942 0.29166448 0.20378008 0.20110847 0.21549907 0.29453695 0.21099149 0.2076081
0.22446577 0.30353487 0.21566325 0.21264863 0.2195036 0.3213678 0.2478344 0.23932935
0.23524171 0.3394927 0.26097757 0.2527125 0.28299376 0.434124 0.36998683 0.3209973
0.28749695 0.4477691 0.3890777 0.33507594 0.40066504 0.38116437 0.48480868 0.3364798
0.39153662 0.36251536 0.4754293 0.33382097
