results/Robot_Run_06_19/RobotAgent/RobotAgent-4499587.onnx (onnx, 984161 bytes, 16 tensors)

network_body.observation_encoder.processors.0.normalizer.running_mean f4 [36]
0.011692636 0.9846851 0.0036209926 0.061235275 0.01335812 0.9815613 0.00507957 0.06934764
0.011625951 0.9831406 0.005233367 0.070194505 0.018553713 0.9666954 0.014750669 0.10809436
0.01320699 0.9716818 0.015110037 0.11216253 0.07336961 0.8279051 0.09872388 0.2896582
0.04888264 0.83365774 0.11745964 0.3140259 0.2414589 0.11660745 0.6419339 0.7697113
0.18250392 0.11784942 0.6996477 0.81567013
00000000: 7892 3f3c 5314 7c3f 2d4e 6d3b d7d1 7a3d
00000010: 04dc 5a3c 9a47 7b3f 8672 a63b 2306 8e3d
00000020: c67a 3e3c 1aaf 7b3f aa7c ab3b 23c2 8f3d
00000030: f5fd 973c 5a79 773f caac 713c 9360 dd3d
00000040: 2262 583c 23c0 783f 1790 773c 78b5 e53d
00000050: ce42 963d 97f1 533f bf2f ca3d 144e 943e
00000060: 2a39 483d 986a 553f ae8e f03d 01c8 a03e
00000070: 0041 773e e3cf ee3d c855 243f cd0b 453f
00000080: 4fe2 3a3e 095b f13d 1d1c 333f c2cf 503f

network_body.observation_encoder.processors.1.normalizer.running_mean f4 [75]
0.02722264 -0.018884923 -0.0031368479 0.011423041 -0.033758145 -0.023543753 0.88451797 45.418846
0.41856936 1.8081787 1.7383523 -0.00013162396 0.00063503167 -0.03568445 0.9927115 0.12787203
0.021375982 0.00016372174 0.0109442165 0.0024718998 -0.034447245 -0.0682637 0.9822118 0.17213994
-0.0007030818 0.023184614 0.08992763 0.001309115 -0.0007479716 0.06337137 0.9904782 0.14041792
-0.0375281 0.0006919907 -0.050304852 0.0060548647 0.0615647 0.06617223 0.9799462 0.17681687
-0.001281858 -0.04067441 -0.08891185 0.057899497 0.008724253 -0.10961554 0.9846482 0.15106405
0.029928368 -0.00078228384 0.083817124 0.13266811 -0.10100643 -0.013041123 0.9773708 0.17751937
-0.08269964 0.067392826 -0.056217246 0.06869049 -0.01464161 0.045613516 0.9893872 0.14130658
-0.07142775 0.0076446594 -0.009202036 0.15843287 0.043645877 0.010894074 0.9795689 0.16090342
-0.100345515 -0.029832553 -0.01467274
00000000: 0402 df3c 8eb4 9abc 9393 4dbb b527 3b3c
00000010: fb45 0abd d4de c0bc c56f 623f e6ac 3542
00000020: b94e d63e 6672 e73f 5482 de3f 8a04 0ab9
00000030: 4178 263a dc29 12bd 5722 7e3f e3f0 023e
00000040: af1c af3c b8ac 2b39 5f4f 333c 99ff 213b
00000050: 8e18 0dbd d7cd 8bbd 3c72 7b3f 7445 303e
00000060: 054f 38ba a9ed bd3c fa2b b83d 9c96 ab3a
00000070: 8613 44ba d9c8 813d fb8f 7d3f b7c9 0f3e
00000080: 11b7 19bd b666 353a 760c 4ebd e367 c63b
00000090: 442b 7c3d 4e85 873d c1dd 7a3f 7b0f 353e
000000a0: 0404 a8ba 369a 26bd 6a17 b6bd 0628 6d3d
000000b0: 2bf0 0e3c 1d7e e0bd e811 7c3f 89b0 1a3e
000000c0: 562c f53c 2e12 4dba 50a8 ab3d 26da 073e
000000d0: 76dc cebd 6faa 55bc f934 7a3f a3c7 353e
000000e0: 6e5e a9bd 4005 8a3d 0e44 66bd 9aad 8c3d
000000f0: 5de3 6fbc 3dd5 3a3d 7b48 7d3f acb2 103e
00000100: b648 92bd 0d80 fa3b 23c4 16bc 3a3c 223e
00000110: 05c6 323d 0f7d 323c 07c5 7a3f dec3 243e
00000120: f381 cdbd 6663 f4bc ef65 70bc

network_body._body_endoder.seq_layers.0.weight f4 [256, 111]
0.05029708 -0.0020711499 -0.16970323 -0.08548149 -0.034544624 0.0314365 0.113751635 -0.1562417
-0.06003924 0.14016868 0.07356421 -0.0027561104 -0.25026676 -0.17528851 0.0415208 -0.014508865
0.1556063 -0.07892824 -0.010606135 0.11423524 -0.13808137 0.083149135 0.06750831 -0.038241986
0.022522971 -0.061528586 -0.005464485 0.09462068 0.063667804 -0.08338187 0.10542618 -0.038011935
0.019161722 -0.075192735 0.07625962 0.0025739395 -0.020142134 -0.17103806 0.006954262 -0.07460567
0.07768466 -0.05109423 -0.029059086 -0.017402917 0.20105396 0.20089734 0.030357542 0.14874995
-0.0464804 -0.018400576 -0.015949754 -0.13828291 -0.08659048 -0.13867167 0.0216862 -0.09867628
-0.07096476 -0.011168671 0.2375818 0.027210372 0.15481281 0.023138352 0.14478688 0.00089112925
0.11857449 0.0075932425 -0.037826315 -0.043190084 0.04474346 -0.08292588 -0.056065932 -0.070974596
-0.0035612541 0.061946273 -0.14634112 -0.0673538 0.034921564 0.07045637 -0.10863837 -0.034091566
0.1958022 -0.060023908 -0.013324804 0.06382491 0.07094057 -0.04374738 -0.080374576 0.10909684
-0.20038882 0.16710703 0.05260204 -0.08348741 0.027575916 0.09907073 0.15622917 -0.16382985
-0.0030167256 0.06383836 -0.00014979682 -0.030860472 -0.08855217 -0.009092794 0.05316316 -0.12377953
-0.15721613 -0.16294672 0.07204529 -0.08161817 0.010036124 0.026457237 -0.094244175 -0.17726877
0.18484135 0.09323584 0.12876815 0.064946845 -0.03554638 -0.0522998 0.113792576 0.125712
0.16266057 -0.22223432 0.12449494 -0.011193128 0.019978119 -0.15952311 0.1466911 0.065831594
-0.16049154 0.023392297 0.06323986 0.088151135 -0.075707 0.055164345 0.34526664 0.19057591
0.07976599 -0.071682 0.060894944 0.08792712 -0.023311436 -0.15280493 -0.15737166 0.013868776
-0.07232359 -0.06770325 0.06739635 -0.0015719497 0.039897066 0.03287487 0.32993513 0.041672464
0.047105946 0.08895801 0.17457408 0.1090775 -0.06625781 -0.06844793 -0.09953292 -0.062499907
0.1077531 0.0071550696 -0.105365045 -0.09006191 0.10084159 0.030567743 -0.05902321 0.085474
0.013787305 0.021792555 0.061680492 0.19457574 -0.11323375 -0.089315064 0.199764 0.020487392
0.11870735 0.11085717 0.058120724 -0.14362521 -0.046058763 -0.015779745 -0.02273478 0.064477414
0.09825128 0.021242457 0.06694155 0.010754325 0.11648841 -0.05799216 0.02371887 -0.37647477
0.018799856 0.021977035 -0.09498427 0.078047015 0.10479095 0.15731256 0.05956828 0.103216305
0.13619654 0.011804372 0.034514155 -0.065331124 0.0018446748 -0.13428256 0.017945739 -0.17449145
-0.11782627 -0.012523791 -0.023302302 -0.06398086 0.090143725 -0.043085143 0.051726077 -0.0059643
0.011916661 0.05120495 -0.089933656 0.19364324 -0.2081847 -0.026767526 0.06817201 0.13103081
0.10237673 0.08036734 0.19579472 -0.008135232 -0.10203593 -0.0652707 0.084787436 0.0022750052
0.026813775 -0.17947121 -0.07493109 -0.014217902 0.058687408 -0.10931526 0.05712448 -0.18216066
0.09307213 0.06296736 0.0008664789 -0.071566425 0.16058487 0.0027520668 -0.16253318 0.112393185
-0.057536595 0.069967166 0.14562452 0.05615493 -0.097989425 0.07169064 0.034998808 -0.035389695
00000000: 5004 4e3d 21bc 07bb afc6 2dbe eb10 afbd
00000010: aa7e 0dbd 8fc3 003d 9ef6 e83d d3fd 1fbe
00000020: b5eb 75bd 6188 0f3e d5a8 963d dc9f 34bb
00000030: f722 80be d57e 33be b711 2a3d 97b6 6dbc
00000040: 4257 1f3e 21a5 a1bd 5bc5 2dbc 2af4 e93d
00000050: 3465 0dbe 184a aa3d cc41 8a3d a1a3 1cbd
00000060: 1882 b83c 6605 7cbd 6c0f b3bb 7dc8 c13d
00000070: 4464 823d 1dc4 aabd aee9 d73d 67b2 1bbd
00000080: 0bf9 9c3c a6fe 99bd 012e 9c3d 8aaf 283b
00000090: 1e01 a5bc 9a24 2fbe 94e0 e33b dcca 98bd
000000a0: 2319 9f3d 2f48 51bd 520d eebc 9090 8ebc
000000b0: 17e1 4d3e 08b8 4d3e 61b0 f83c e851 183e
000000c0: 3b62 3ebd cebc 96bc 0fa9 82bc 099a 0dbe
000000d0: 5956 b1bd f2ff 0dbe 42a7 b13c ca16 cabd
000000e0: f955 91bd cdfc 36bc a548 733e 49e8 de3c
000000f0: 4087 1e3e a48c bd3c 0343 143e ac9a 693a
00000100: 2fd7 f23d bcd0 f83b c4ef 1abd 16e8 30bd
00000110: eb44 373d 0bd5 a9bd 64a5 65bd 215b 91bd
00000120: ee63 69bb 60bb 7d3d 72da 15be caf0 89bd
00000130: ea09 0f3d 6e4b 903d cb7d debd 99a3 0bbd
00000140: 5f80 483e a1db 75bd 4750 5abc a2b6 823d
00000150: 4a49 913d 7430 33bd 6d9b a4bd 2a6e df3d
00000160: ba32 4dbe 1b1e 2b3e 3d75 573d 72fb aabd
00000170: e3e6 e13c 98e5 ca3d 8afa 1f3e 03c3 27be
00000180: 42b4 45bb b0bd 823d c712 1db9 1acf fcbc
00000190: d75a b5bd f1f9 14bc 9dc1 593d 1f80 fdbd
000001a0: 44fd 20be 81db 26be 7b8c 933d 6d27 a7bd
000001b0: 8e6e 243c d9bc d83c 1703 c1bd f285 35be
000001c0: 0d47 3d3e 6ff2 be3d ccdb 033e da02 853d
000001d0: 1599 11bd 5138 56bd 150c e93d a6ba 003e
000001e0: 7e90 263e 6591 63be 34f7 fe3d 6263 37bc
000001f0: 27a9 a33c 075a 23be 3136 163e b7d2 863d
00000200: e557 24be 34a1 bf3c e683 813d 9588 b43d
00000210: 460c 9bbd 02f4 613d cac6 b03e 5526 433e
00000220: 5a5c a33d 03ce 92bd fa6c 793d 2213 b43d
00000230: a0f7 bebc e578 1cbe 0926 21be dd39 633c
00000240: 641e 94bd 00a8 8abd 1907 8a3d e109 ceba
00000250: 1b6b 233d cda7 063d 42ed a83e bfb0 2a3d
00000260: 2af2 403d 9e2f b63d 8cc3 323e 0664 df3d
00000270: 2db2 87bd 6e2e 8cbd ead7 cbbd e7ff 7fbd
00000280: a8ad dc3d 1375 ea3b a1c9 d7bd 6172 b8bd
00000290: 0986 ce3d 3469 fa3c 52c2 71bd fe0c af3d
000002a0: 26e4 613c 4d86 b23c afa4 7c3d dd3e 473e
000002b0: 19e7 e7bd d1ea b6bd ef8e 4c3e 2dd5 a73c
000002c0: d71c f33d 1509 e33d ff0f 6e3d 7d12 13be
000002d0: 1da8 3cbd 8644 81bc 4a3e babc bc0c 843d
000002e0: f837 c93d a904 ae3c a718 893d e932 303c
000002f0: 7a91 ee3d 3089 6dbd 134e c23c 4dc1 c0be
00000300: 2802 9a3c 2f09 b43c 1d87 c2bd 1dd7 9f3d
00000310: a39c d63d 8b16 213e defd 733d 1263 d33d
00000320: 1b77 0b3e 2067 413c b75e 0d3d 53cc 85bd
00000330: 04c9 f13a 5e81 09be f102 933c e3ad 32be
00000340: e64e f1bd 9630 4dbc 78e4 bebc 6608 83bd
00000350: 469d b83d 0c7a 30bd b9de 533d 2d70 c3bb
00000360: 193e 433c 48bc 513d 232f b8bd 6a4a 463e
00000370: 5f2e 55be 9247 dbbc c49d 8b3d f12c 063e
00000380: e4aa d13d a297 a43d 697e 483e a349 05bc
00000390: 37f8 d0bd a5ac 85bd 09a5 ad3d 4118 153b
000003a0: 90a8 db3c 4dc7 37be 7975 99bd 34f2 68bc
000003b0: 3562 703d aee0 dfbd 5cfb 693d 5388 3abe
000003c0: 9a9c be3d 08f5 803d 6a24 633a 6b91 92bd
000003d0: 5c70 243e 055c 343b 196f 26be 662e e63d
000003e0: 7eab 6bbd f24a 8f3d 981e 153e b602 663d
000003f0: aeae c8bd 8bd2 923d e95a 0f3d c9f4 10bd

network_body._body_endoder.seq_layers.0.bias f4 [256]
0.018449591 0.017378 0.0085622 0.028516889 -0.0029653767 0.021585135 -0.005097822 0.0028367667
0.017363926 0.008889343 0.010313214 0.0028473143 0.0041137957 0.011173596 0.019838125 0.006779141
0.013081879 0.007102007 0.02393868 0.02033447 0.004964976 0.00045924232 0.024046853 0.013891013
0.015848003 0.01341238 -0.0148395505 -0.0011900874 0.009632584 0.008205915 0.024573114 0.017621843
0.024850551 0.007757674 0.020561455 -0.0010323529 -0.00015414348 0.014666788 0.009196016 0.014582083
0.013889889 0.0038096074 0.008436409 0.020168802 -0.0028009242 0.0037095495 0.004388538 0.008665985
0.015434 0.009531969 0.01034493 0.0062647797 0.0070973816 0.0074845515 0.008794959 0.023054913
0.013182766 0.014906704 0.00076443405 0.011121767 0.006810797 0.0028275314 0.016799364 0.0051538944
0.027953066 0.017264532 0.007171083 0.012651707 0.01573723 -0.0010388688 0.0229738 0.004613291
0.016472073 -0.012064437 0.0041168444 0.00331437 0.012288725 0.008102124 0.00791821 0.01429756
0.006549657 0.018038286 0.006854953 -0.0025533717 0.0041558454 0.005039814 0.00034688026 0.012314052
0.005113999 0.0038557448 0.0046469374 0.009154071 -0.009700262 0.020359397 0.006228313 0.025843477
0.004300245 0.020241078 -0.00060306594 0.0029964806 0.0023936853 -0.008201701 0.014118815 0.034449786
0.013984416 0.015202153 -0.00075335597 0.012933215 -0.0022647125 0.01816702 0.0033762562 0.015568069
0.016266262 0.010259239 -0.0049946904 0.0064208726 -0.0052485433 0.015938984 0.012785631 0.016698753
0.014293935 0.018292971 0.0095729185 -0.013010186 0.0061207786 0.0056276973 0.006432751 -0.005884228
0.018044312 0.022629427 0.016722815 -0.006450447 0.01918185 0.017188106 0.007455443 0.012150808
-0.0003293836 -0.00027047854 0.014703966 -0.004980372 0.0020840636 4.404337e-05 -0.013232005 0.014112422
0.016571395 -0.005058588 0.0004490789 0.017901892 0.020883908 -0.003605297 0.016453939 0.014855673
0.0028691653 0.0054174233 0.017979652 0.011745747 0.015551616 -0.001850374 0.028442902 0.0040338193
-0.013986625 0.0063369353 -0.0013411388 -0.0013003427 0.009297344 0.0029407393 0.009667357 0.00048945996
0.014349813 0.012123048 0.006113472 0.009468791 0.030313214 -0.008695584 0.008161217 -0.014780477
0.003045349 0.0067052734 0.01008014 0.0044933856 0.025440296 -0.0016802207 0.012977107 0.0095112305
0.018968707 -6.869706e-05 0.013363228 0.0031259605 0.009291963 0.0007118 0.009674084 0.011917451
-0.005386979 0.010402119 -0.0024438698 0.0059421365 0.022085024 0.003957931 0.013752123 0.02454389
0.028814286 0.026970278 0.00401006 0.004217462 0.0067320117 0.009774077 0.02826775 0.028221542
0.0066551957 0.008407541 0.0047582095 -0.008248431 0.0058209337 0.009070583 0.018348232 0.011876687
0.0069763907 0.012154459 0.019114438 0.0040845503 0.0023220037 0.0109514 -0.017436543 -0.00074947637
0.0061116847 0.009805573 0.0039685867 0.017251529 0.006262847 0.028329974 0.0031545667 0.0077066147
0.007154831 0.028238552 -0.004626645 0.00928005 0.005076745 0.020301694 0.012187251 0.0034764574
0.0066874195 -0.0037768874 0.007604414 0.014926936 0.011117044 0.007123075 0.0102108335 0.01868307
0.022528239 0.018517978 0.015212504 0.004715607 0.004926191 -0.00046127368 0.028053615 -0.0018513052
00000000: 9923 973c 4f5c 8e3c 7848 0c3c 409c e93c
00000010: c456 42bb 4fd3 b03c a10b a7bb 0ce9 393b
00000020: cb3e 8e3c 9ba4 113c c1f8 283c 029a 3a3b
00000030: 05cd 863b 7511 373c 9083 a23c 8e23 de3b
00000040: 6155 563c f4b7 e83b 0d1b c43c 7994 a63c
00000050: 3db1 a23b 76c6 f039 e8fd c43c 2297 633c
00000060: acd3 813c 99bf 5b3c 9621 73bc b5fc 9bba
00000070: fcd1 1d3c 1a72 063c 8e4d c93c af5b 903c
00000080: 6293 cb3c 1634 fe3b 7f70 a83c 0450 87ba
00000090: 93a1 21b9 f84c 703c e3aa 163c b0e9 6e3c
000000a0: 6b92 633c 9baa 793b dd38 0a3c 0b39 a53c
000000b0: b68f 37bb ea1b 733b bacd 8f3b c7fb 0d3c
000000c0: e3de 7c3c fa2b 1c3c c87d 293c c848 cd3b
000000d0: 2791 e83b f840 f53b bb18 103c a8dd bc3c
000000e0: 87fc 573c 403b 743c 4d64 483a 1238 363c
000000f0: 1b2d df3b 1b4e 393b d29e 893c 00e2 a83b
00000100: d4fd e43c 596e 8d3c 67fb ea3b 1b49 4f3c
00000110: 5deb 803c a72a 88ba 8d33 bc3c 172b 973b
00000120: 71f0 863c eba9 45bc 98e6 863b e735 593b
00000130: a656 493c c5be 043c 61bb 013c 5040 6a3c
00000140: 819e d63b 07c5 933c 839f e03b 7856 27bb
00000150: c22d 883b 0625 a53b 7bdd b539 e1c0 493c
00000160: 5593 a73b aab0 7c3b 5645 983b f5fa 153c
00000170: d9ed 1ebc c0c8 a63c e016 cc3b b3b5 d33c
00000180: 12e9 8c3b 9ed0 a53c 1217 1eba 9a60 443b
00000190: 60df 1c3b 6d60 06bc 9a52 673c 381b 0d3d
000001a0: e41e 653c 7312 793c dd7c 45ba d6e5 533c
000001b0: 926b 14bb 01d3 943c 2e44 5d3b 3711 7f3c
000001c0: d340 853c 5e16 283c 80aa a3bb 2f66 d23b
000001d0: f9fb abbb 7992 823c d37a 513c d3cb 883c
000001e0: 1c31 6a3c 24db 953c bbd7 1c3c ad28 55bc
000001f0: d090 c83b 8c68 b83b d4c9 d23b 7bd0 c0bb
00000200: aad1 933c 5961 b93c 49fe 883c 455e d3bb
00000210: 4123 9d3c 12ce 8c3c ca4c f43b 2f14 473c
00000220: 1eb1 acb9 04cf 8db9 e7e8 703c 6332 a3bb
00000230: c994 083b 35bb 3838 0dcb 58bc ca37 673c
00000240: bcc0 873c 83c2 a5bb 5a72 eb39 fda6 923c
00000250: bb14 ab3c d946 6cbb 69ca 863c 3565 733c
00000260: 9b08 3c3b a484 b13b 104a 933c 3c71 403c
00000270: 35cc 7e3c 4088 f2ba 1701 e93c 212e 843b
00000280: 2828 65bc 11a6 cf3b 27c9 afba 4370 aaba
00000290: e353 183c 6bb9 403b d663 1e3c 1a4f 003a
000002a0: 7a1b 6b3c c09f 463c 8553 c83b fd22 1b3c
000002b0: 6b53 f83c ec77 0ebc a0b6 053c d029 72bc
000002c0: 7a94 473b e9b7 db3b 2c27 253c 403d 933b
000002d0: 2b68 d03c da3a dcba ef9d 543c fed4 1b3c
000002e0: 4364 9b3c 7411 90b8 71f1 5a3c eadc 4c3b
000002f0: 513d 183c 1798 3a3a 0d80 1e3c 6a41 433c
00000300: 4185 b0bb a66d 2a3c 5529 20bb 41b6 c23b
00000310: a7eb b43c 88b1 813b 9650 613c 4510 c93c
00000320: f00b ec3c c6f0 dc3c d266 833b a332 8a3b
00000330: 3598 dc3b 7323 203c c591 e73c dd30 e73c
00000340: d413 da3b c8bf 093c c1ea 9b3b 6d24 07bc
00000350: 88bd be3b c89c 143c 084f 963c 7096 423c
00000360: 359a e43b 7f23 473c e295 9c3c b1d7 853b
00000370: c22c 183b 806d 333c 15d7 8ebc 8278 44ba
00000380: 8744 c83b 8ea7 203c eb0a 823b 1453 8d3c
00000390: 9238 cd3b 4314 e83c d9bc 4e3b c587 fc3b
000003a0: 1373 ea3b 8954 e73c 1c9b 97bb 5a0b 183c
000003b0: d35a a63b bd4f a63c 09ad 473c 47d5 633b
000003c0: 2422 db3b a885 77bb 732e f93b 1b90 743c
000003d0: 4324 363c af68 e93b 574b 273c 3d0d 993c
000003e0: 248d b83c 04b3 973c de3d 793c 6185 9a3b
000003f0: e36b a13b 1bd7 f1b9 b2d0 e53c 7fa7 f2ba

network_body._body_endoder.seq_layers.2.weight f4 [256, 256]
-0.0036346475 -0.028367234 -0.041447908 0.03055387 0.029057397 -0.058086086 0.042706892 -0.12850416
-0.010905927 0.017811356 -0.08778983 0.0026975968 0.098618515 -0.06744063 0.025827758 -0.0234936
-0.022569247 -0.006665457 -0.0019412626 -0.018850243 0.04788571 -0.067316025 -0.07533458 0.02529684
-0.019713972 -0.05548185 0.053552262 0.019465117 -0.027295027 -0.06563878 -0.01549469 -0.074552275
-0.107017934 -0.059280895 -0.06586683 0.004023999 -0.021412104 0.0003546133 0.010756451 0.038194545
-0.086719334 0.02591644 -0.0770015 -0.047786098 -0.02689858 -0.0354937 -0.09418216 0.053069253
0.013347962 0.025413124 -0.033034842 -0.056027263 -0.05321953 0.05168176 -0.025240486 0.019818993
0.012643709 -0.019586798 -0.08529909 0.011027109 0.011096825 0.07585936 0.051956717 0.064039886
0.0015788714 0.0013197028 0.05608485 0.016598295 -0.024164759 0.00922664 -0.08450482 -0.01721643
-0.03496969 -0.07403342 -0.07559872 -0.011328616 -0.008721231 0.023123408 0.15689598 -0.06529894
0.008776773 -0.008657972 0.02408409 0.050185528 -0.030467864 -0.026193855 0.015166005 -0.019033736
-0.0028725811 -0.07274323 -0.000649689 -0.07486945 -0.013959127 -0.078262225 0.05314994 -0.04984427
-0.06917379 -0.059992496 0.011112425 0.033021253 0.042646848 0.03501369 -0.11651537 -0.068677336
-0.11309488 0.057539653 0.016041271 -0.037455034 0.13027325 -0.22531164 -0.06601636 -0.048621397
-0.04972836 -0.008858375 0.082219526 -0.0032555468 -0.0149542345 0.06469184 0.10808453 0.06521293
-0.059401643 -0.070642255 -0.021329693 0.09142065 0.14891146 0.05951124 0.08436693 0.025770087
-0.059086036 -0.13132378 0.018865218 -0.15331247 -0.058073297 0.08529976 -0.020165877 -0.052271385
0.052738246 0.009496701 -0.07626186 -0.030029403 -0.021760227 0.051108837 0.08641066 -0.06625523
-0.039361425 -0.05711852 -0.093914255 0.05666608 -0.06401428 -0.011783587 0.042026244 -0.01709374
0.020854218 0.0380887 -0.03206845 0.0248129 -0.08344172 0.004570282 -0.08373152 0.013117334
0.0123988325 -0.099203594 -0.097924784 0.08378835 -0.0052357363 0.032128993 0.09103942 0.018167542
-0.022814048 0.06747272 -0.023192246 0.06539934 -0.05556056 -0.013789279 -0.060297184 0.08782222
0.07560587 -0.02123011 -0.0061667697 -0.0034866296 -0.024438525 -0.0016713226 0.05231128 0.031547725
-0.013682046 0.026056428 -0.03916355 -0.040602345 -0.09534202 -0.10373464 -0.08871855 -0.023184363
0.024716187 -0.027029144 -0.04837733 -0.08612175 0.14502758 0.07045737 0.036832515 0.0067676175
-0.06767658 0.061088096 -0.0354427 -0.013896529 0.0465664 0.106150754 -0.0787821 -0.1528011
-0.06738885 -0.020923445 0.17097612 -0.047085 -0.030087069 0.0027626746 -0.0036560616 -0.05282225
0.023768418 -0.027880603 0.0025878607 -0.04202016 -0.036280576 -0.00426145 -0.02093232 0.04122168
-0.00964678 0.047388975 -0.029272359 -0.0745807 -0.06004327 0.042912085 -0.056405976 0.0091170585
0.032984167 0.0322651 -0.06484783 -0.03996205 0.0600837 -0.0010222342 0.062216945 -0.07127934
-0.03135562 -0.07052997 0.08351989 -0.05521205 -0.016292829 -0.0279294 -0.005202493 0.029103119
0.027506301 -0.041531924 0.01886175 0.03799334 0.047463886 0.024219092 0.0052857967 0.088667266
00000000: 4433 6ebb 6762 e8bc 48c5 29bd 1c4c fa3c
00000010: c709 ee3c adeb 6dbd 6ced 2e3d 9896 03be
00000020: c6ae 32bc 1fe9 913c 28cb b3bd 2aca 303b
00000030: 81f8 c93d 501e 8abd bc94 d33c a675 c0bc
00000040: 24e3 b8bc e869 dabb f771 feba d36b 9abc
00000050: ce23 443d fcdc 89bd 0449 9abd 523b cf3c
00000060: 327f a1bc f040 63bd 9e59 5b3d 4f75 9f3c
00000070: d299 dfbc a06d 86bd 71dd 7dbc ddae 98bd
00000080: 382c dbbd 86d0 72bd 30e5 86bd c0db 833b
00000090: 7068 afbc 64eb b939 d33b 303c e271 1c3d
000000a0: e899 b1bd b74e d43c f6b2 9dbd 5bbb 43bd
000000b0: 695a dcbc d861 11bd 94e2 c0bd 255f 593d
000000c0: 69b1 5a3c 2f2f d03c 8b4f 07bd d87c 65bd
000000d0: b9fc 59bd 41b0 533d 23c5 cebc 715b a23c
000000e0: 8f27 4f3c 7e74 a0bc 4ab1 aebd 0cab 343c
000000f0: 75cf 353c 275c 9b3d 91d0 543d 5827 833d
00000100: 22f2 ce3a e1f9 ac3a 3ab9 653d 26f9 873c
00000110: 2cf5 c5bc 552b 173c dd10 adbd 7809 8dbc
00000120: 613c 0fbd d59e 97bd 80d3 9abd a99b 39bc
00000130: 7ee3 0ebc 4d6d bd3c 57a9 203e 73bb 85bd
00000140: 74cc 0f3c 2bda 0dbc ff4b c53c 578f 4d3d
00000150: be97 f9bc 7f94 d6bc d67a 783c a3ec 9bbc
00000160: ea41 3cbb 67fa 94bd e44f 2aba 2755 99bd
00000170: d2b4 64bc f247 a0bd c0b3 593d 8129 4cbd
00000180: fdaa 8dbd b1ba 75bd e310 363c 4b41 073d
00000190: 76ae 2e3d 846a 0f3d 9c9f eebd b4a6 8cbd
000001a0: 4a9e e7bd b3ae 6b3d fc68 833c 736a 19bd
000001b0: 5a66 053e 18b8 66be 9633 87bd 3b27 47bd
000001c0: f7af 4bbd b822 11bc b662 a83d 035b 55bb
000001d0: 9b02 75bc 287d 843d 6c5b dd3d 5b8e 853d
000001e0: 234f 73bd e3ac 90bd 9cbb aebc c03a bb3d
000001f0: 3f7c 183e 0fc2 733d 92c8 ac3d ca1b d33c
00000200: 3304 72bd be79 06be 3b8b 9a3c f2fd 1cbe
00000210: 44de 6dbd a4b1 ae3d e932 a5bc 851a 56bd
00000220: 0f04 583d 0d98 1b3c 2e2f 9cbd 3900 f6bc
00000230: 8142 b2bc 8057 513d 12f8 b03d d2b0 87bd
00000240: 7239 21bd 1cf5 69bd 1e56 c0bd b11a 683d
00000250: eb19 83bd f20f 41bc b623 2c3d 2c08 8cbc
00000260: 77d6 aa3c e602 1c3d 355a 03bd 6c44 cb3c
00000270: 7ee3 aabd 4ec2 953b 6e7b abbd 16ea 563c
00000280: 7924 4b3c 412b cbbd ca8c c8bd 3a99 ab3d
00000290: 8a90 abbb b199 033d e072 ba3d 19d4 943c
000002a0: 87e4 babc 232f 8a3d aafd bdbc 17f0 853d
000002b0: 7893 63bd 6eec 61bc 2efa 76bd 23dc b33d
000002c0: 40d7 9a3d c5ea adbc 9d12 cabb f07f 64bb
000002d0: 4d33 c8bc 4810 dbba 5a44 563d 3038 013d
000002e0: a92a 60bc 4a74 d53c f569 20bd a54e 26bd
000002f0: ad42 c3bd d472 d4bd 12b2 b5bd 22ed bdbc
00000300: 9a79 ca3c 396c ddbc 4f27 46bd 9a60 b0bd
00000310: 1c82 143e f44b 903d b1dd 163d e4c2 dd3b
00000320: 059a 8abd 8337 7a3d 5d2c 11bd 44ae 63bc
00000330: 69bc 3e3d 9165 d93d 8258 a1bd e477 1cbe
00000340: 2a03 8abd a567 abbc 5d14 2f3e 33dc 40bd
00000350: 2879 f6bc fd0d 353b 899a 6fbb 255c 58bd
00000360: fcb5 c23c dd65 e4bc 1999 293b 551d 2cbd
00000370: f19a 14bd a2a3 8bbb 427a abbc 10d8 283d
00000380: 870d 1ebc f11a 423d 96cc efbc c4bd 98bd
00000390: efef 75bd 95c4 2f3d f409 67bd b75f 153c
000003a0: 681a 073d 6928 043d f0ce 84bd 3faf 23bd
000003b0: 531a 763d 7dfc 85ba 32d7 7e3d e7fa 91bd
000003c0: c06e 00bd 0472 90bd 7a0c ab3d 0826 62bd
000003d0: 8a78 85bc 32cc e4bc ad79 aabb aa69 ee3c
000003e0: e554 e13c 611d 2abd f583 9a3c e89e 1b3d
000003f0: 7e69 423d 1e67 c63c 7a34 ad3b 2f97 b53d

network_body._body_endoder.seq_layers.2.bias f4 [256]
-0.011223631 -0.012190647 -0.004906035 0.01606584 -0.0018384198 0.0068318592 0.005427141 0.005796407
-0.0035787048 -0.0021139379 -0.006961782 -0.0022057593 0.0064502466 -0.00968197 0.0009110928 0.0032129902
-0.00095734966 0.00073033804 0.012012475 0.0059934864 -0.005715013 0.009951436 0.0039685755 0.0051370985
-0.0014313948 0.0020278532 0.007476524 0.011240944 -0.008317187 0.022289377 0.004370796 0.0084166685
0.0031944248 0.010486963 0.012441172 0.003592547 0.0027021081 0.010008948 0.0060378956 0.008057612
-0.001019009 0.006807368 0.0022711554 0.006880963 0.01283429 -0.0032179966 -0.004665924 0.0052252426
0.005776746 -0.0066518164 0.010608413 0.013021939 -0.002191801 0.007966323 -0.002490533 -0.003468576
0.005538743 0.0038280368 -0.0050577153 0.0007072845 0.0035693187 -0.0038522463 0.011274031 0.009730837
-0.00036838697 0.020960335 0.0035813714 -0.0012152079 0.006529892 0.001299811 0.0108602075 0.019720625
-0.0065949173 0.010413531 0.002504861 0.0069279694 0.0026874254 0.0043024546 0.005996069 0.011688079
0.015776329 -0.00169897 -0.0028336574 -0.0052808323 -0.002968072 0.008577796 0.011061141 0.023839064
0.009945016 0.010103826 -0.00055260316 0.004748579 0.006008841 -0.0042872517 0.0062706377 0.008597704
0.0121931 -0.000600286 0.0043127835 0.007391116 0.001772356 0.003199853 0.009150802 -0.0014949774
0.011758344 0.016869571 0.013704035 0.011840225 0.014477509 0.011021747 0.004927037 0.01133587
0.0016150512 0.021453949 0.0033270314 -0.0038159227 0.0067662015 0.004120588 0.0033313588 0.004304095
0.011091706 0.005128739 -0.00826455 0.00022289304 -0.0012657401 0.028721632 -0.0046716738 0.005067017
0.0024225865 0.0015985637 0.0009266132 0.009736052 0.012867163 -0.0003510406 -0.0046938867 -0.0056647644
0.009545982 0.0035435662 0.0036333916 -0.00453372 0.0020531998 -0.0044952063 -0.013741574 0.00852988
-0.00046095208 -0.00035626753 -0.0003890996 0.00037464016 0.013364792 -0.0015406137 0.0060257805 -0.00094835757
0.005427836 -0.00017878579 -0.0010972816 0.008306658 -0.0025596607 -0.0034908873 0.0016733821 0.0009662945
0.0049997014 -0.0007768665 0.0072297915 0.0063520833 -0.00064230233 0.0047762454 0.0022631707 0.008973229
0.0142680975 -0.006225789 0.010184512 0.0052552414 0.0039087953 -0.0107785035 0.00458111 0.0021989238
0.018589953 0.007985164 0.0016688162 0.009292277 0.008294943 0.005631779 -0.009247652 -0.010411614
-0.005523729 -0.0031002366 0.0024469334 0.004034043 0.002815074 0.0037704026 -0.014042322 0.014396241
0.0005358445 0.012767631 0.009185239 0.00019363181 -0.0020752512 0.012588929 -0.001276638 0.011545187
0.008421027 -0.00878043 -0.008239002 0.002252543 0.0015033106 0.009617744 0.010350415 0.0066730506
0.008404601 0.0088848695 -0.0011529397 -0.0072558573 0.013436607 -0.0011521977 -0.0070715495 -0.0016002925
0.0020329796 0.009748375 0.007389641 -0.0017013076 0.0038107333 0.0048405314 0.004563015 0.0002556134
-0.006922583 0.0012302828 0.0007878415 0.01523775 0.014693556 0.022883125 0.005421826 6.922273e-05
0.008859286 0.0034992038 -0.007142054 0.005030793 0.002782538 0.0052634976 0.005518567 -0.005404693
0.013852939 0.019429909 0.0095996335 -0.0010080284 -0.0026647102 0.0044778804 -0.0069081974 0.009888539
-0.0112824235 -0.0022904908 -0.007600281 0.013665128 -0.005596823 0.001999452 0.0094758645 -0.013298629
00000000: 52e3 37bc 48bb 47bc cec2 a0bb 829c 833c
00000010: 22f7 f0ba cadd df3b 29d6 b13b c9ef bd3b
00000020: b488 6abb fe89 0abb a91f e4bb 808e 10bb
00000030: 975c d33b 20a1 1ebc 67d6 6e3a 0891 523b
00000040: a6f6 7aba 2874 3f3a f9cf 443c 0265 c43b
00000050: 0145 bbbb 590b 233c d30a 823b 1b55 a83b
00000060: a49d bbba bbe5 043b a1fd f43b f02b 383c
00000070: d044 08bc 3698 b63c e538 8f3b 11e6 093c
00000080: 8e59 513b 83d1 2b3c 0fd6 4b3c f070 6b3b
00000090: da15 313b 92fc 233c 8ad9 c53b 1304 043c
000000a0: 4590 85ba 5710 df3b aad7 143b b479 e13b
000000b0: ea46 523c 06e5 52bb 9be4 98bb 8338 ab3b
000000c0: dc4a bd3b 7bf7 d9bb e9ce 2d3c f959 553c
000000d0: 52a4 0fbb 2e85 023c 3638 23bb 0c51 63bb
000000e0: 587e b53b cddf 7a3b 31bb a5bb 0f69 393a
000000f0: 3beb 693b f875 7cbb b7b6 383c 176e 1f3c
00000100: 1024 c1b9 02b5 ab3c 71b5 6a3b 9c47 9fba
00000110: b4f8 d53b 6b5e aa3a 03ef 313c 268d a13c
00000120: 2d1a d8bb 849d 2a3c 9828 243b 0504 e33b
00000130: 841f 303b 9bfb 8c3b ac7a c43b 5b7f 3f3c
00000140: 5c3d 813c f9af deba e2b4 39bb d50a adbb
00000150: fc83 42bb e289 0c3c ca39 353c 244a c33c
00000160: 6cf0 223c 858a 253c 92dc 10ba f899 9b3b
00000170: d0e5 c43b 137c 8cbb ec79 cd3b 62dd 0c3c
00000180: 91c5 473c 835c 1dba 4052 8d3b 2d31 f23b
00000190: 664e e83a a0b4 513b 3fed 153c 1ef3 c3ba
000001a0: 12a6 403c 0e32 8a3c e486 603c 81fd 413c
000001b0: 1333 6d3c 8f94 343c fb72 a13b 16ba 393c
000001c0: 20b0 d33a 31c0 af3c 530a 5a3b 8f14 7abb
000001d0: 03b7 dd3b ff05 873b ed52 5a3b 5e09 8d3b
000001e0: fdb9 353c fb0e a83b 0968 07bc 65b8 6939
000001f0: 31e7 a5ba a149 eb3c d714 99bb 3809 a63b
00000200: 42c4 1e3b e686 d13a f6e7 723a f683 1f3c
00000210: cbd0 523c df0b b8b9 2dcf 99bb 7d9f b9bb
00000220: c066 1c3c 2d3b 683b 321e 6e3b 9a8f 94bb
00000230: fa8e 063b 864c 93bb 5724 61bc e9c0 0b3c
00000240: f1ab f1b9 6bc9 bab9 1000 ccb9 5a6b c439
00000250: 00f8 5a3c 6bee c9ba e973 c53b 339b 78ba
00000260: fddb b13b 7278 3bb9 a9d2 8fba a618 083c
00000270: fbbf 27bb 5fc7 64bb 6355 db3a ed4e 7d3a
00000280: 89d4 a33b a1a6 4bba e3e7 ec3b 2325 d03b
00000290: 2e60 28ba 0d82 9c3b b451 143b 7304 133c
000002a0: bdc4 693c b401 ccbb f0dc 263c 2934 ac3b
000002b0: 5a15 803b 5298 30bc 231d 963b d21b 103b
000002c0: f549 983c 35d4 023c 2ebc da3a a23e 183c
000002d0: 83e7 073c c98a b83b 7783 17bc 7995 2abc
000002e0: 6600 b5bb 572d 4bbb bb5c 203b 0130 843b
000002f0: 1b7d 383b dc18 773b c411 66bc 36de 6b3c
00000300: ea77 0c3a 532f 513c af7d 163c a509 4b39
00000310: f000 08bb cc41 4e3c dd54 a7ba 0628 3d3c
00000320: 59f8 093c cbdb 0fbc e1fc 06bc 679f 133b
00000330: bc0a c53a be93 1d3c c994 293c 9ba9 da3b
00000340: 74b3 093c d891 113c 3d1e 97ba 8bc2 edbb
00000350: 3725 5c3c 5705 97ba 75b8 e7bb e8c0 d1ba
00000360: bd3b 053b a6b7 1f3c cd24 f23b 69fe deba
00000370: 7fbd 793b 529d 9e3b 5885 953b da03 8639
00000380: d6d6 e2bb 7141 a13a 2687 4e3a c1a7 793c
00000390: 3ebd 703c 6475 bb3c 93a9 b13b ac2b 9138
000003a0: 8a26 113c e652 653b e407 eabb 5ad9 a43b
000003b0: 3e5b 363b 6b79 ac3b 18d5 b43b da19 b1bb
000003c0: 70f7 623c 792b 9f3c c847 1d3c d21f 84ba
000003d0: 6ba2 2ebb 2fbb 923b 295e e2bb 8a03 223c
000003e0: ead9 38bc 0f1c 16bb c70b f9bb b3e3 5f3c
000003f0: 8e65 b7bb 3d09 033b a840 1b3c 7ee2 59bc

network_body._body_endoder.seq_layers.4.weight f4 [256, 256]
-0.0031043927 0.022347443 0.07737929 -0.081878535 -0.05457437 -0.033707928 0.047055203 -0.07523242
0.055831913 -0.06539855 0.08100246 -0.0808837 -0.0756541 -0.08275906 0.11786764 -0.043710355
0.04427175 -0.023732837 -0.020137094 -0.027316524 -0.031258605 0.025112864 -0.010858556 -0.060471058
0.17381927 -0.00907059 0.038391247 -0.08459444 0.039366238 -0.01952757 0.10054094 -0.049771506
-0.028574571 -0.018908136 0.12855516 0.052633908 -0.06422881 0.08053302 -0.1248495 -0.025792107
0.038268562 -0.07160009 -0.017058399 0.04965027 0.10729292 -0.054452255 -0.0055881212 -0.031611443
0.020523082 0.002952679 -0.009993139 -0.10349184 0.064467974 0.053806387 -0.083226964 0.012842209
-0.026289972 -0.09360226 -0.06287735 0.099384576 -0.106752515 -0.13854295 -0.04167218 -0.01539603
0.07980383 0.08711537 0.011232233 -0.0069583612 0.041867644 0.018095829 -0.023447454 0.0753334
-0.10998358 0.051988374 -0.018300327 -0.036383502 -0.07289429 0.012767372 -0.02595396 -0.0531368
0.103887 0.048193913 -0.16936165 -0.032194804 0.0104759345 -0.09507637 -0.011857119 0.049515504
-0.012901429 -0.04892006 0.00014060497 0.0010210178 -0.0049916618 0.092647254 -0.059695043 -0.035324767
0.03940987 0.0024803705 -0.16744 -0.06753959 0.05743284 -0.09109208 -0.10472221 -0.024241915
-0.015291647 0.06393459 0.085739635 0.12818648 -0.05553122 0.009864371 0.023614028 -0.046131805
0.028245294 -0.0010136502 -0.082150914 0.0116900215 0.012328407 -0.018525174 -0.023868278 0.008484229
-0.01362222 0.057108495 0.0036207545 -0.055909015 0.18007764 -0.053692523 0.054434344 -0.09945285
0.05548138 0.033144582 0.002351337 0.03395002 -0.06179089 0.17484315 0.0326932 0.077005334
0.0123669095 0.02279713 -0.10435208 -0.024338886 0.003306248 -0.055993527 0.05349484 -0.054448236
0.0034850098 0.009896731 0.032278664 0.029841347 0.017243663 0.038961545 -0.028343668 0.05345692
0.06779515 -0.008802216 -0.05013952 -0.114355944 -0.03774496 -0.009419585 0.08663684 0.06820286
-0.032156818 -0.01935665 -0.052485235 -0.07268601 -0.032102536 -0.05964688 0.03812048 -0.03227384
-0.06162048 0.058664262 0.08595563 -0.011155163 0.043161407 0.15900831 0.06904383 -0.002107914
-0.11408704 -0.0007763084 -0.0518012 0.04962233 0.08064772 0.07522037 0.04558872 0.10753944
-0.02806882 -0.10934239 -0.118019566 0.057492506 0.04235608 0.02854737 0.046256877 -0.024407145
-0.016492488 -0.057971686 -0.14923207 0.086440496 -0.012973165 -0.07427456 0.08589586 -0.012333297
-0.099642016 -0.09406668 0.08168457 0.07256387 0.031068737 0.048142284 0.020582367 0.08428236
-0.097936444 -0.014650176 0.026060486 0.031557463 -0.05455731 0.07386883 0.105023965 0.040505935
0.030721467 -0.032550965 -0.057172537 0.005723259 0.025721129 -0.030261125 -0.107050136 -0.039948277
0.015334685 0.08272284 -0.10967205 -0.09308426 0.05068866 -0.012239994 -0.15597934 -0.070156105
-0.033447318 -0.09765896 -0.03205454 0.073464334 -0.024419244 0.10090986 -0.00055954163 -0.07745384
0.0041825 0.052003648 0.0059547666 0.08176556 0.031765398 -0.033295047 -0.014378924 -0.10591873
-0.0214387 -0.05465112 -0.04274234 0.11035916 -0.06368519 -0.071874395 0.030759698 0.050864324
00000000: 1173 4bbb fc11 b73c 0879 9e3d efaf a7bd
00000010: 6089 5fbd 5311 0abd f5bc 403d 7413 9abd
00000020: 01b0 643d adef 85bd 9ee4 a53d 5aa6 a5bd
00000030: 89f0 9abd 957d a9bd 9764 f13d a109 33bd
00000040: 4b56 353d 5e6b c2bc 8cf6 a4bc e7c6 dfbc
00000050: 0609 00bd 7eb9 cd3c 16e8 31bc 80b0 77bd
00000060: aefd 313e d09c 14bc 2440 1d3d da3f adbd
00000070: 7e3e 213d 48f8 9fbc 69e8 cd3d 35dd 4bbd
00000080: 3815 eabc 3ce5 9abc f7a3 033e a796 573d
00000090: 658a 83bd 7fee a43d 18b1 ffbd f849 d3bc
000000a0: 7fbf 1c3d 11a3 92bd 0ebe 8bbc 155e 4b3d
000000b0: 64bc db3d 5409 5fbd 8f1c b7bb 007b 01bd
000000c0: 0620 a83c bc81 413b 43ba 23bc 88f3 d3bd
000000d0: c907 843d 1664 5c3d e672 aabd 2168 523c
000000e0: 115e d7bc 8bb2 bfbd d7c5 80bd 248a cb3d
000000f0: 10a1 dabd 34de 0dbe 73b0 2abd a13f 7cbc
00000100: 3170 a33d 8b69 b23d 6607 383c f702 e4bb
00000110: 687d 2b3d b43d 943c e014 c0bc 6648 9a3d
00000120: 123f e1bd c3f1 543d 91ea 95bc de06 15bd
00000130: 9a49 95bd 3d2e 513c 669d d4bc f9a5 59bd
00000140: b5c2 d43d fb66 453d 246d 2dbe b3de 03bd
00000150: 41a3 2b3c 66b7 c2bd 5d44 42bc c5d0 4a3d
00000160: 8460 53bc 6760 48bd 5c6f 1339 acd3 853a
00000170: 1891 a3bb d8bd bd3d ca82 74bd b4b0 10bd
00000180: 3e6c 213d b68d 223b 6475 2bbe 3252 8abd
00000190: b33e 6b3d 7c8e babd 9978 d6bd fb96 c6bc
000001a0: d189 7abc 23f0 823d 4398 af3d 5143 033e
000001b0: b474 63bd 2c9e 213c 3572 c13c b4f4 3cbd
000001c0: ad62 e73c 75dc 84ba bd3e a8bd 8187 3f3c
000001d0: 16fd 493c 1bc2 97bc 6887 c3bc 7001 0b3c
000001e0: bb2f 5fbc 99ea 693d 2e4a 6d3b da00 65bd
000001f0: 4666 383e b1ec 5bbd 8cf6 5e3d f0ad cbbd
00000200: 7240 633d 9dc2 073d e418 1a3b 2d0f 0b3d
00000210: 7218 7dbd 150a 333e 4ee9 053d f9b4 9d3d
00000220: 949e 4a3c 0cc1 ba3c 8bb6 d5bd 5862 c7bc
00000230: a3ad 583b 7859 65bd 681d 5b3d 1d05 5fbd
00000240: c364 643b e625 223c a236 043d d775 f43c
00000250: 9542 8d3c 2496 1f3d fb30 e8bc a5f5 5a3d
00000260: 2fd8 8a3d 2b37 10bc 195f 4dbd 7333 eabd
00000270: 769a 1abd 9a54 1abc a86e b13d f1ad 8b3d
00000280: deb6 03bd d691 9ebc c2fa 56bd 67dc 94bd
00000290: f37d 03bd 4950 74bd 3824 1c3d 9331 04bd
000002a0: c265 7cbd f049 703d 8109 b03d 25c4 36bc
000002b0: 04ca 303d 13d3 223e da66 8d3d ee24 0abb
000002c0: 77a6 e9bd 2d81 4bba 7f2d 54bd c940 4b3d
000002d0: a22a a53d 230d 9a3d 3dbb 3a3d a33d dc3d
000002e0: 95f0 e5bc e7ee dfbd 3eb4 f1bd 437d 6b3d
000002f0: 927d 2d3d 2ddc e93c da77 3d3d 7ef1 c7bc
00000300: 411b 87bc b873 6dbd 4bd0 18be b707 b13d
00000310: 668d 54bc 431d 98bd 2bea af3d 9911 4abc
00000320: 1d11 ccbd 08a6 c0bd 3d4a a73d 5e9c 943d
00000330: dd83 fe3c d830 453d 5a9c a83c 3b9c ac3d
00000340: e792 c8bd 4b07 70bc cd7c d53c 6642 013d
00000350: 7c77 5fbd 8b48 973d ce16 d73d 8de9 253d
00000360: 96ab fb3c 2954 05bd c02d 6abd 2d8a bb3b
00000370: 1eb5 d23c 2ee6 f7bc 1a3d dbbd cea0 23bd
00000380: 553e 7b3c 986a a93d bd9b e0bd f6a2 bebd
00000390: ea9e 4f3d 418a 48bc 0cb9 1fbe 01ae 8fbd
000003a0: 0e00 09bd 6c01 c8bd 9f4b 03bd 7874 963d
000003b0: de0a c8bc d4a9 ce3d 34ae 12ba 1ea0 9ebd
000003c0: 5a0d 893b c701 553d 3420 c33b b474 a73d
000003d0: 6f1c 023d 6360 08bd 9495 6bbc ebeb d8bd
000003e0: 36a0 afbc dad9 5fbd 9812 2fbd fc03 e23d
000003f0: 626d 82bd e232 93bd c3fb fb3c 1c57 503d

network_body._body_endoder.seq_layers.4.bias f4 [256]
-0.007338611 0.008654039 0.0051065865 0.00781563 0.0052457843 0.0064567695 0.00663183 0.0026677109
0.0071836985 0.005497864 0.002656792 0.0007384936 -0.0033130245 0.003710551 -0.0036421448 -1.277885e-05
0.005552131 0.0018327982 -0.0026429319 0.0057048523 -4.4885655e-05 0.007084408 0.005204185 0.0020223258
-0.0022443186 -0.0062735253 0.0032207535 0.0020812398 -0.0033186087 0.0066045127 0.0077351695 -0.006605426
0.0035036781 0.009907891 0.0048186798 0.012427716 -0.0081119975 0.0017212102 -0.0067026154 0.015379859
-0.0005902461 -0.0038822615 -0.0043869787 0.005412439 -0.006475129 0.007912059 -0.000711507 0.00023689291
0.011024315 -0.007381169 -0.0046292343 0.0097384155 0.0067855 0.0042864885 -0.0041268617 0.0010874781
-0.0022969083 -0.006141536 0.012063347 -0.002167163 0.0037979796 0.0017865156 0.0076878667 0.008659326
-0.0036190487 0.0030733722 -0.004569034 0.0007148402 -0.010148479 0.0015192755 0.008191294 -0.001236052
0.0012567575 0.010886541 -0.0008421811 0.0053772456 0.004970473 -0.005556645 0.009113988 0.003925817
-0.005297258 0.014326325 -0.0003139569 -0.011489598 -0.0017532386 0.0074239364 -0.008221877 0.0013556707
0.008500359 0.003064515 -0.0020291193 0.0074859937 0.00388442 0.0029410243 0.002768249 -0.00024216823
-0.00068914 0.004114988 0.008840257 0.007995817 -0.0022073637 0.0015425598 0.005981604 0.0034922007
0.0036254192 0.0045476104 0.010084941 0.0006763663 0.0027992274 0.000287918 0.01049095 0.004535202
0.008739149 0.003162163 0.0026797133 -0.0048059206 -0.0044782683 0.002639584 0.0064505995 0.0029710412
0.0075210724 0.008153497 -0.010326128 0.00043733348 -0.0020024404 0.0050019156 0.0020188733 -0.0056334236
-0.0063642166 0.004643066 -0.0046190647 0.0025910435 -0.008944487 0.004884388 0.0063668904 0.005280032
-0.004582257 0.01657381 0.00289827 0.0011436774 0.0057353103 -0.006017132 0.0017475823 0.0018283121
0.009681421 0.002387571 0.0030723126 0.002669874 0.011110413 -0.0063176956 -0.0020587437 0.002727791
0.012039167 0.0032591384 -0.00024850506 0.0035588637 -0.0026272722 0.004530804 0.0005747281 0.011788104
0.009874595 -0.00063816056 0.00425455 0.0042244894 -0.0017739423 0.007956858 -0.008294455 0.0025937431
-0.002811146 0.00020606323 0.0016116658 -0.002392159 0.00017659746 0.003988254 -0.007341038 -0.007507376
0.0060751773 0.005356831 0.004346027 -0.0010761227 -0.0025993243 -0.0022599804 0.00010924077 0.00075081404
-0.004724616 -0.0001623209 -0.0039510825 -0.00094159663 0.0037911998 -0.001046103 0.00586218 -0.0026188926
0.006008491 0.011132187 -0.0007032809 -0.0063071176 -0.0013714633 -0.0007905187 0.0028941047 -0.0007731944
-0.0033835813 -0.0025361963 0.005459166 -0.007080272 -0.0035662774 0.0006564752 0.0011032516 0.011256171
-0.003226883 0.00547754 0.0022626154 0.0053635165 0.0018065567 0.00017224108 0.0016890557 0.0030062874
0.0020043172 -0.0011692803 0.008246504 0.009929447 0.008757546 -0.0023402458 0.00011492505 0.009316842
0.0014499617 0.0023380185 0.0054931436 0.00017482038 0.010949231 -0.004765744 0.0065612355 -0.0028317089
0.0082221795 -0.0018040098 -0.0029408557 0.013315566 0.0045278957 -0.0007261859 -0.0013526331 0.0055457186
0.0013075856 0.0026896307 -0.0008927738 0.0054263766 -0.0038379887 0.00820716 0.0025033252 0.013602676
0.0065272073 0.003813038 0.0040653353 -0.007292889 0.0011418752 0.0038551327 0.010674293 0.0056577493
00000000: bb78 f0bb acc9 0d3c 2755 a73b 210d 003c
00000010: d4e4 ab3b 4f93 d33b d24f d93b c3d4 2e3b
00000020: 3b65 eb3b 6d27 b43b 931d 2e3b 7797 413a
00000030: 541f 59bb b72c 733b 0db1 6ebb be64 56b7
00000040: a7ee b53b 813a f03a 0a35 2dbb c5ef ba3b
00000050: 9b43 3cb8 5224 e83b de87 aa3b ff88 043b
00000060: 6b15 13bb 2592 cdbb 4713 533b 6965 083b
00000070: 047d 59bb ab6a d83b 4e77 fd3b 5472 d8bb
00000080: f79d 653b b554 223c 04e6 9d3b 9e9d 4b3c
00000090: 2fe8 04bc 3b9a e13a 9da1 dbbb cefb 7b3c
000000a0: bfba 1aba 8a6d 7ebb a5c0 8fbb d45a b13b
000000b0: 522d d4bb 95a1 013c 6d84 3aba 7566 7839
000000c0: 549f 343c bcdd f1bb d5b0 97bb e08d 1f3c
000000d0: e658 de3b ac75 8c3b a03a 87bb b689 8e3a
000000e0: ba87 16bb f03e c9bb 58a5 453c f606 0ebb
000000f0: 86e7 783b 8429 ea3a 80ea fb3b d8df 0d3c
00000100: 902d 6dbb a16a 493b d6b7 95bb 1d64 3b3a
00000110: ce45 26bc 6d22 c73a c734 063c 0603 a2ba
00000120: c9b9 a43a 765d 323c d1c5 5cba 9b33 b03b
00000130: 59df a23b 8414 b6bb d652 153c 24a4 803b
00000140: 9f94 adbb f6b8 6a3c 959a a4b9 de3e 3cbc
00000150: edcc e5ba 7e44 f33b 0db5 06bc c3b0 b13a
00000160: 1745 0b3c 08d6 483b f9fa 04bb 114d f53b
00000170: c191 7e3b 33be 403b 836b 353b 8aee 7db9
00000180: 67a7 34ba 05d7 863b bad6 103c e300 033c
00000190: 6ba9 10bb b82f ca3a 5501 c43b 68dd 643b
000001a0: 7198 6d3b 1f04 953b 4f3b 253c 2d4e 313a
000001b0: 3e73 373b b3f3 9639 3ce2 2b3c 089c 943b
000001c0: a62e 0f3c 4b3c 4f3b 219e 2f3b fc7a 9dbb
000001d0: 70be 92bb dffc 2c3b 8d5f d33b cdb5 423b
000001e0: 5473 f63b 3f96 053c ec2e 29bc e849 e539
000001f0: 603b 03bb 1ce7 a33b 134f 043b 9598 b8bb
00000200: eb8a d0bb dc24 983b 865b 97bb 7fce 293b
00000210: e68b 12bc 370d a03b 59a1 d03b 1e04 ad3b
00000220: c226 96bb ccc5 873c e7f0 3d3b 72e7 953a
00000230: 45ef bb3b 5d2b c5bb 220f e53a f9a3 ef3a
00000240: d39e 1e3c cb78 1c3b da58 493b 0ef9 2e3b
00000250: 7308 363c ac04 cfbb fdeb 06bb bdc4 323b
00000260: ed3f 453c 4597 553b c949 82b9 d33b 693b
00000270: 502e 2cbb 2477 943b 5aa9 163a e422 413c
00000280: 0ec9 213c 3b4a 27ba c169 8b3b 966d 8a3b
00000290: a083 e8ba 7b5d 023c 77e5 07bc cafb 293b
000002a0: 343b 38bb ad12 5839 883e d33a c5c5 1cbb
000002b0: 052d 3939 e6af 823b 178d f0bb 6f00 f6bb
000002c0: 4812 c73b 5b88 af3b 1e69 8e3b b00c 8dba
000002d0: 6d59 2abb 2e1c 14bb 3118 e538 47d2 443a
000002e0: f4d0 9abb af34 2ab9 1578 81bb 7bd5 76ba
000002f0: c775 783b 641d 89ba 8817 c03b baa1 2bbb
00000300: e0e2 c43b c763 363c 625c 38ba f0ab cebb
00000310: acc2 b3ba d03a 4fba 05ab 3d3b 33b0 4aba
00000320: 13bf 5dbb 5036 26bb cee2 b23b a001 e8bb
00000330: 35b8 69bb 4e17 2c3a fb9a 903a ce6b 383c
00000340: 1d7a 53bb f07c b33b 6348 143b 70c0 af3b
00000350: fcc9 ec3a 9d9b 3439 4e63 dd3a 2205 453b
00000360: dd5a 033b 8942 99ba 581c 073c 1faf 223c
00000370: cf7b 0f3c cf5e 19bb eb03 f138 aba5 183c
00000380: a40c be3a 7139 193b d4ff b33b fd4f 3739
00000390: 6764 333c f529 9cbb a2ff d63b 3194 39bb
000003a0: 52b6 063c 8674 ecba 5fbb 40bb 8829 5a3c
000003b0: be5e 943b 835d 3eba d64a b1ba dcb8 b53b
000003c0: 4b63 ab3a 8444 303b 0909 6aba bfcf b13b
000003d0: c486 7bbb 5377 063c d40e 243b c2dd 5e3c
000003e0: 2fe2 d53b 2ae4 793b 8136 853b 30f9 eebb
000003f0: f9aa 953a 65a6 7c3b 3be3 2e3c a464 b93b

action_model._continuous_distribution.log_sigma f4 [1, 12]
0.08665615 0.09458236 0.049638674 0.056572437 0.070092574 0.040363163 0.04053539 0.06248194
0.037810624 0.024315123 0.05058828 0.031023169
00000000: c878 b13d 65b4 c13d ec51 4b3d 80b8 673d
00000010: b28c 8f3d d853 253d 7008 263d 10ed 7f3d
00000020: 50df 1a3d 8230 c73c a835 4f3d 4d24 fe3c

action_model._continuous_distribution.mu.weight f4 [12, 64]
-0.06288622 -0.027373297 0.005536449 0.023635816 -0.061872512 -0.05351284 -0.033629604 0.029523946
-0.050824106 -0.030684685 -0.00031373743 -0.05349097 0.039193247 -0.0018915888 0.060344517 0.03563658
-0.013138406 0.037923686 0.056731686 -0.038788408 0.042204432 0.037591875 0.01960896 7.3541254e-05
-0.010461161 0.055711105 0.0025346833 -0.05702131 -0.018783225 0.033083275 -0.0008777766 -0.031063315
0.0036376165 0.058604434 0.026490042 -0.0020657997 0.008386014 0.019204527 -0.017262524 0.044358272
0.009234865 0.009792606 -0.014775915 0.06926131 -0.00290471 0.020917654 -0.026973711 -0.0015053067
0.017649304 0.039522957 -0.027333232 -0.0065726624 -0.0029840462 0.0463091 -0.03453062 0.017495926
0.022803092 -0.027025474 0.019677622 0.026443152 -0.019060949 0.019029045 -0.08873529 0.05093086
-0.0142480945 0.0394688 0.019894352 0.020662278 -0.027185917 -0.0072242576 -0.02158616 0.002458841
0.0057824636 -0.009774405 0.025059564 0.015956152 0.031983078 -0.025171483 0.06419124 0.04086286
-0.03705267 -0.058638252 -0.007802535 -0.04149886 0.036355596 -0.0030745354 0.007624242 0.008662394
-0.012629198 0.046854176 0.0450669 0.018681224 0.07557139 0.04823652 0.033574883 -0.032958154
0.03020661 0.031029845 0.017351236 -0.013462377 0.017171748 0.0070389165 -0.0076408233 0.018323233
-0.050338443 0.012455164 0.0064800205 0.021014372 0.029141454 0.0050651785 -0.027140742 0.00049894874
0.0057974104 -0.0024085008 -0.04047513 -0.00023545582 -0.0029047248 0.07136763 0.043451127 -0.032590132
0.0462959 -0.036869474 -0.04293248 0.028532736 0.020058759 0.00959715 -0.008258662 0.0141137745
-0.06033054 0.0033306172 -0.045434203 0.08197868 -0.042951763 0.043808714 -0.047033045 0.026212204
0.045193445 -0.017174933 0.05260947 -0.01136116 0.01799135 -0.009525439 -0.017434506 0.028923288
-0.044144243 0.036636773 0.024131225 0.01804771 -0.0030027758 -0.016617954 0.0738466 0.058373123
-0.0310467 -0.018091185 0.034269806 -0.01318601 -0.029222764 -0.014875012 -0.0017271831 -0.004489597
-0.008976588 0.018625207 0.031934377 -0.030005809 0.055203263 0.007928734 0.044169147 0.00044839174
-0.04250794 -0.01563271 0.034892756 0.03922355 -0.03402334 -0.020314474 0.006245262 -0.007456534
0.019545171 -0.00139612 -0.024633948 0.013958691 0.012123417 -0.0029694224 -0.0054099103 0.0013577306
0.030384218 0.015928475 0.014014076 0.034690086 0.028162116 -0.085535534 0.002893935 -0.024047216
0.038082257 -0.02812721 0.02880441 0.036553033 0.07850041 -0.024758812 0.043787766 -0.027455715
-0.07408647 -0.02334494 -0.0016359669 0.033605274 -0.0006106245 0.039651666 0.041812688 -0.03540306
0.0045384304 -0.01904955 -0.063048 0.026062677 -0.051468 -0.0027512233 -0.024543246 -0.06736249
-0.0069144163 0.048800044 -0.048069183 0.018757043 -0.024897186 -0.034127966 -0.0347483 -0.0012519212
0.05375661 -0.03072245 -0.089633405 0.061508205 -0.012140836 0.03285196 -0.021841085 -0.027742263
-0.007004401 -0.036316447 -0.016738798 0.00061470614 0.013581204 -0.054940898 0.069251984 0.012410536
-0.012176827 -0.008355089 0.010428038 0.036350373 -0.047767323 -0.0033103959 0.030834634 0.035837464
-0.0041592442 -0.062073644 -0.012244141 -0.045948908 -0.034407083 -0.01676981 0.012970432 -0.0331297
00000000: 7eca 80bd f73d e0bc 1a6b b53b e69f c13c
00000010: 086e 7dbd 4830 5bbd 32bf 09bd 34dc f13c
00000020: f02c 50bd 735e fbbc 207d a4b9 5919 5bbd
00000030: 1989 203d 30ef f7ba d02b 773d aaf7 113d
00000040: 7842 57bc de55 1b3d 7c5f 683d 98e0 1ebd
00000050: 8ede 2c3d f0f9 193d f8a2 a03c 293a 9a38
00000060: 4a65 2bbc 5431 643d ee1c 263b 2d8f 69bd
00000070: 47df 99bc 5482 073d 971a 66ba 7e78 febc
00000080: 1465 6e3b 340b 703d a501 d93c 5e62 07bb
00000090: 7e65 093c d052 9d3c 236a 8dbc 05b1 353d
000000a0: d54d 173c 2b71 203c ae16 72bc e0d8 8d3d
000000b0: f25c 3ebb 805b ab3c f9f7 dcbc b64d c5ba
000000c0: 4695 903c d3e2 213d f1e9 dfbc 7d5f d7bb
000000d0: fd8f 43bb 9cae 3d3d fb6f 0dbd 9e53 8f3c
000000e0: 8dcd ba3c 8764 ddbc f732 a13c 4f9f d83c
000000f0: b525 9cbc cde2 9b3c d9ba b5bd e19c 503d
00000100: d770 69bc 09aa 213d 7bf9 a23c f043 a93c
00000110: 00b5 debc 77b9 ecbb 75d5 b0bc 8224 213b
00000120: d27a bd3b d324 20bc b749 cd3c 7ab6 823c
00000130: b000 033d 6d34 cebc b276 833d d05f 273d
00000140: 8ac4 17bd aa2e 70bd 68ac ffbb b5fa 29bd
00000150: 9be9 143d 257e 49bb c7d4 f93b b7ec 0d3c
00000160: b2ea 4ebc 2aea 3f3d 1298 383d 5e09 993c
00000170: 2cc5 9a3d a893 453d d185 093d 21ff 06bd
00000180: da73 f73c 4d32 fe3c 2e24 8e3c 4d91 5cbc
00000190: c4ab 8c3c b6a6 e63b df5f fabb 9b1a 963c
000001a0: af2f 4ebd bf10 4c3c 5a56 d43b 5526 ac3c
000001b0: 0fba ee3c ccf9 a53b 4356 debc e2cb 023a
000001c0: 34f8 bd3b f0d7 1dbb 40c9 25bd b1e4 76b9
000001d0: 325d 3ebb 3129 923d cff9 313d 3b7d 05bd
000001e0: c5a0 3d3d 7204 17bd f8d9 2fbd 7cbd e93c
000001f0: 4452 a43c 5d3d 1d3c 574f 07bc 763d 673c
00000200: 281d 77bd 7c46 5a3b 3719 3abd 70e4 a73d
00000210: 30ee 2fbd c470 333d b9a5 40bd faba d63c
00000220: c31c 393d 72b2 8cbc 077d 573d 2924 3abc
00000230: 9862 933c 9610 1cbc cfd2 8ebc 88f0 ec3c
00000240: 98d0 34bd 7110 163d d9ae c53c cbd8 933c
00000250: 38ca 44bb 6022 88bc e33c 973d a818 6f3d
00000260: a655 febc f733 94bc 7f5e 0c3d 220a 58bc
00000270: 9464 efbc 53b6 73bc a662 e2ba 781d 93bb
00000280: 8a12 13bc e493 983c 9fcd 023d bece f5bc
00000290: d11c 623d 85e7 013c b5ea 343d 1f16 eb39
000002a0: ce1c 2ebd 2b10 80bc b5eb 0e3d e0a8 203d
000002b0: 0f5c 0bbd 8a6a a6bc 0ea5 cc3b f155 f4bb
000002c0: 321d a03c 03fe b6ba 22cd c9bc feb2 643c
000002d0: 4ca1 463c a49a 42bb 9e45 b1bb e1f5 b13a
000002e0: 53e8 f83c 6f7c 823c 4c9b 653c 3117 0e3d
000002f0: 3db4 e63c 412d afbd 2ca8 3d3b abfe c4bc
00000300: 24fc 1b3d 096b e6bc 3af7 eb3c a2b8 153d
00000310: d3c4 a03d fed2 cabc cd5a 333d cfea e0bc
00000320: a6ba 97bd e33d bfbc f16d d6ba afa5 093d
00000330: 5112 20ba c969 223d c843 2b3d cd02 11bd
00000340: 1db7 943b cd0d 9cbc 4f1f 81bd 6581 d53c
00000350: 1cd0 52bd de4d 34bb eb0e c9bc 58f5 89bd
00000360: 5492 e2bb 8ee2 473d 31e4 44bd 5fa8 993c
00000370: 2ff5 cbbc c4c9 0bbd 3c54 0ebd 8117 a4ba
00000380: e42f 5c3d a6ad fbbc b891 b7bd 07f0 7b3d
00000390: 5bea 46bc c78f 063d 13ec b2bc be43 e3bc
000003a0: 2d85 e5bb 8ec0 14bd ce1f 89bc 3b24 213a
000003b0: b383 5e3c b509 61bd fcd3 8d3d 9055 4b3c
000003c0: 5081 47bc c9e3 08bc 5dda 2a3c 21e4 143d
000003d0: aba7 43bd 3af3 58bb ea98 fc3c 4eca 123d
000003e0: 454a 88bb ef40 7ebd a69b 48bc ec34 3cbd
000003f0: 71ee 0cbd d760 89bc ef81 543c 02b3 07bd

action_model._continuous_distribution.mu.bias f4 [12]
0.016860427 0.013337161 0.018721959 -0.022152651 0.026351688 -0.014335584 0.026170917 -0.00089704496
-0.02748714 -0.0072121285 0.0078886235 -0.0039288863
00000000: e11e 8a3c 1c84 5a3c cb5e 993c 7a79 b5bc
00000010: 7fdf d73c ccdf 6abc 6464 d63c ab27 6bba
00000020: b62c e1bc b853 ecbb 493f 013c e3bd 80bb

onnx::Div_106 f4 [36]
0.10749943 0.12279883 0.060067657 0.06561899 0.11480368 0.13452953 0.071091466 0.076849416
0.10719621 0.12874591 0.07215398 0.07892497 0.1349434 0.17943145 0.12055431 0.12620187
0.11416124 0.16587837 0.12199163 0.13305841 0.26074257 0.37746218 0.29829124 0.2699307
0.21562335 0.37238848 0.32196763 0.28826812 0.427968 0.32095265 0.47943217 0.32717165
0.38625985 0.32243025 0.45841172 0.30237338
00000000: a928 dc3d f47d fb3d 8109 763d 4063 863d
00000010: 311e eb3d 1cc2 093e 6798 913d 3a63 9d3d
00000020: b089 db3d f8d5 033e 77c5 933d 6aa3 a13d
00000030: 9a2e 0a3e e1bc 373e 2ee5 f63d 103b 013e
00000040: 5ecd e93d 05dc 293e bfd6 f93d 7740 083e
00000050: 0d80 853e b942 c13e a1b9 983e 5b34 8a3e
00000060: 5ecc 5c3e b4a9 be3e f1d8 a43e e197 933e
00000070: 9f1e db3e e853 a43e 2278 f53e 0b83 a73e
00000080: dac3 c53e 9415 a53e f1b4 ea3e afd0 9a3e
