results/packaging_fix_test_01/RobotAgent.onnx (onnx, 358242 bytes, 9 tensors)

network_body.observation_encoder.processors.0.normalizer.running_mean f4 [74]
000000 6a c4 74 bb 07 8b 07 bc 0c f0 cc 3c e4 a1 6e 3c
       -0.0037348517 -0.008272893 0.025016807 0.014564965
000010 ae 37 f6 3c 5c 16 b1 bc 37 e8 79 3f 73 63 41 41
       0.030055847 -0.021617107 0.97619957 12.08678
000020 b3 17 e6 3f f0 dd 42 bf ac dc 28 3d 3e 5b df ba
       1.7975982 -0.761199 0.041226074 -0.0017040742
000030 00 14 c3 ba 7b c6 7f 3f b9 ab 7f 3f 83 0d d7 bc
       -0.001488328 0.9991223 0.998714 -0.02625156
000040 63 66 7b bf 6c 92 82 3a 6d a6 34 3e c6 c5 d4 b9
       -0.98203105 0.000996185 0.17641611 -0.00040583144
000050 3b b8 74 bb 73 e3 7b 3f f2 de 7f 3f b4 51 e7 bd
       -0.0037341255 0.98393935 0.9994956 -0.112948805
000060 99 d3 74 bf 81 4a 27 3b 94 24 32 3d 7d 39 86 3a
       -0.9563537 0.0025526586 0.043491915 0.0010240522
000070 c5 22 80 3b ba bf 7f 3f 9d c8 7f 3f 1e df e2 bc
       0.003910395 0.99901927 0.99915487 -0.027694281
000080 a2 31 7b 3f ce 80 25 bb b9 7d 35 3e 1a 66 94 3b
       0.9812261 -0.0025253776 0.1772374 0.004528773
000090 0b d4 86 bb c0 d8 7b 3f f3 34 7f 3f 25 6f e8 bd
       -0.004114633 0.9837761 0.9969017 -0.11349324
0000a0 b2 a2 7b 3f 6c 4d 10 3b 82 51 20 3d 2b 9d 32 b9
       0.9829513 0.0022018803 0.039140232 -0.00017033952
0000b0 bf 55 88 3b 62 cb 7f 3f 2f ed 7f 3f 18 2e cc bc
       0.0041606124 0.9991971 0.9997129 -0.024924323
0000c0 d7 de 78 3f f6 b9 2d bb 88 09 8e 3e 66 5e 01 ba
       0.97215027 -0.0026508546 0.27741647 -0.0004935026
0000d0 24 dd 4c 3c 31 d6 75 3f 83 db 7f 3f b2 47 37 be
       0.012503896 0.96029955 0.99944323 -0.17898443
0000e0 3e 57 7b 3f 0b bd 12 bc a6 6a 37 3d 33 1b e4 bb
       0.98179996 -0.008956204 0.044779442 -0.00696125
0000f0 dc 25 09 3b d7 ba 7f 3f a4 cf 7e 3f 3e b0 e9 bc
       0.0020927107 0.9989447 0.99535584 -0.028526422
000100 aa 92 7a bf 31 75 94 ba 99 16 8e 3e 33 0b 3c ba
       -0.9788004 -0.001132643 0.27751616 -0.00071732997
000110 6a b3 b7 3b 9c d8 75 3f 2b d2 7f 3f 42 5c 37 be
       0.0056061046 0.96033645 0.99930066 -0.17906287
000120 0d 6c 7b 3f f7 34 80 bb
       0.9821175 -0.003912564

network_body._body_endoder.seq_layers.0.weight f4 [256, 74]
000000 71 95 db bd 6c 49 97 bd 31 13 50 be 7c 61 b0 3d
       -0.10721863 -0.07387051 -0.20319821 0.08612344
000010 41 6a 3b 3e 20 dd 8a bd 32 4b ea 3d 2c 6d 37 3e
       0.18302251 -0.067804575 0.114401236 0.1791274
000020 7c 72 30 be 8b 32 fc bb d5 21 bb bd 58 4a 11 be
       -0.17231172 -0.007696455 -0.09137312 -0.14188516
000030 c6 51 a6 bd 7d 42 81 3d 8b d8 86 3d 93 c1 f1 bd
       -0.08121066 0.0631151 0.06584271 -0.118044995
000040 ca af b9 3c 57 04 85 bd 51 26 a5 bb 92 0b 4c 3d
       0.02266683 -0.064949684 -0.005039968 0.04981572
000050 17 6c d7 3d 7f d2 03 be 32 68 1e be c4 86 b3 3e
       0.105186634 -0.12873267 -0.15469435 0.35063756
000060 78 f6 a6 bd 35 a3 92 bd e7 05 60 be bf b0 fc 3d
       -0.08152479 -0.071600355 -0.21877252 0.12338399
000070 f2 bc e2 bc 90 0b 31 be 72 8f 26 3e 9b 61 55 3d
       -0.027677987 -0.17289567 0.16265658 0.052095037
000080 be 0b ea 3c 68 f6 16 3d 3a d7 22 3e a5 e5 f8 3c
       0.028570052 0.036856085 0.15902415 0.03038294
000090 34 a7 31 be 10 f9 a4 bc 08 a9 87 3d 8e 23 90 3b
       -0.17348939 -0.020138294 0.06624037 0.0043987697
0000a0 d2 f0 48 bd 3e bc 9a be 24 15 5a bb 6b 6d 95 3e
       -0.04905779 -0.30221742 -0.003327676 0.29185042
0000b0 ca ba a6 3d 35 8f 16 3d 53 43 84 bc 3c 7e 0d 3e
       0.08141096 0.036757667 -0.016145384 0.13817686
0000c0 58 ce 68 bc e2 62 fc bd fa e7 13 bd c4 86 a8 bd
       -0.014209352 -0.12323548 -0.036109902 -0.082288295
0000d0 52 4a 65 bd d6 50 7c 3d 37 1d e9 3d 67 db 2f 3e
       -0.05597908 0.06160053 0.113825254 0.17173539
0000e0 e6 75 46 3d ce 17 0a 3e 65 0a 45 bb 72 c0 47 3c
       0.04845228 0.13485643 -0.003006601 0.012191879
0000f0 8e 0e 75 bb 2b f4 26 3d e2 7d 2f bd 45 98 53 3d
       -0.0037392708 0.0407602 -0.04284466 0.051658887
000100 f6 cf a3 bd 1c ff 10 bd 02 82 0e be 6c 78 30 be
       -0.0799865 -0.03539954 -0.13916782 -0.17233437
000110 65 2b c5 3d 38 9d 58 bc b1 a9 8b bc 0c 14 8c 3c
       0.096274175 -0.013221078 -0.017048689 0.017099403
000120 37 4a 1c be c8 b2 a4 bc ec 9a f8 3c 2b da 19 3e
       -0.15262686 -0.02010478 0.03034731 0.1502463
000130 f7 62 0d 3e de 0b 93 3d 8b 18 84 bd 0a 6f 46 bd
       0.13807283 0.07179998 -0.06449994 -0.04844574
000140 97 9e 52 be ca 6f 77 bd aa 35 35 bd f2 ab aa 3d
       -0.2056831 -0.060409345 -0.04424063 0.08333577
000150 1a 83 4e be 7c a6 4f bd a4 48 0a 3e db ec 57 bd
       -0.20167199 -0.05069588 0.13504273 -0.052716117
000160 c3 91 2e 3d a7 c3 9b bc 7b f7 e3 bd 67 d3 11 bc
       0.042619478 -0.019014193 -0.111311875 -0.0089005
000170 92 63 49 3d ff 9e 32 bd f1 c2 40 bd 78 1a 20 3e
       0.049167223 -0.04360866 -0.04706091 0.15635097
000180 c0 01 cf 3c e2 3f 8f bb b2 40 0b 3e f0 8b 14 3e
       0.02526939 -0.004371629 0.13598898 0.14506507
000190 1f f6 1c 3e 5c 81 7a bd 4b 16 56 be ec 26 01 be
       0.15328263 -0.061158523 -0.20906942 -0.12612504
0001a0 ef 4e b8 bd 68 31 c7 ba 30 e1 4b be b6 89 95 3d
       -0.089994304 -0.0015197219 -0.19910121 0.07301657
0001b0 38 22 b8 bd 36 ca 9e 3d 36 9b f5 bd b0 e7 b5 3b
       -0.08990902 0.077534124 -0.11992495 0.005551301
0001c0 0a 90 4f 3e a7 60 c4 bd 2c 1a b9 bc 5f 2f 55 bd
       0.2026979 -0.095887475 -0.022595488 -0.05204713
0001d0 62 52 79 3d 72 2b fc bd 5e 13 26 3d c7 31 94 bd
       0.060869582 -0.12312974 0.040545814 -0.07236057
0001e0 b7 b6 2c 3e 13 97 00 be 89 7b 15 bd da 59 7d be
       0.16866575 -0.1255763 -0.036494765 -0.24741307
0001f0 ef fe 2d bc b8 77 7b bd 30 63 52 be 0f 89 bc bd
       -0.010619863 -0.06139347 -0.2054565 -0.09205829
000200 db df 94 3d 3d 15 07 3c c6 0f 97 3c 03 ce 5d 3b
       0.072692595 0.00824481 0.018440139 0.0033844716
000210 cd b3 ea 3d 54 66 b6 3d 7e 4a c5 3d 56 92 c4 3d
       0.114600755 0.08906236 0.09633349 0.09598224
000220 31 13 72 3c 70 4c f6 bd 31 07 7c 3d da 1c 6f 3c
       0.014775083 -0.12026298 0.061530296 0.014594281
000230 9a 35 84 3d b3 66 59 bd f7 ae 44 3e d4 90 92 3d
       0.06455536 -0.053076457 0.19207369 0.0715653
000240 82 95 18 be 75 7f cf 3d 09 22 1e 3d b6 0b 6a bd
       -0.14900783 0.101317324 0.038606677 -0.057140075
000250 e6 83 17 be 88 1a 8f bd fe 24 27 3e 07 3d b0 bd
       -0.14796409 -0.06987482 0.16322705 -0.0860539
000260 7f 0d 54 bd 38 c0 0f 3e f3 fe 51 3c ef ce 18 3e
       -0.051770683 0.1403817 0.012817132 0.14922689
000270 e4 e5 f0 3b 61 b9 ff 3c 74 15 d0 bc 9a cb fc 3d
       0.007351624 0.031216325 -0.025400855 0.123435214
000280 0e d3 94 be 1c 8f 6c 3d e7 1c 25 3e da f1 11 be
       -0.29067272 0.057753667 0.16124307 -0.14252415
000290 c5 d2 26 3e 6f f8 5c bc 89 b1 f7 bc e6 e4 a8 bd
       0.1629134 -0.013486966 -0.030236023 -0.08246784
0002a0 d7 ba bd 3d 41 29 9c 3d bc fe f2 3d 3a 8b 90 3d
       0.092641525 0.07625056 0.11864993 0.07057805
0002b0 b1 eb c1 bd 09 08 bd 3c 26 74 d0 bd 34 1e 9b 3c
       -0.09468783 0.02307512 -0.101784036 0.0189353
0002c0 f5 90 02 be ed 81 18 be 73 1c 63 be 94 50 72 3e
       -0.12750609 -0.14893313 -0.22178821 0.2366355
0002d0 4c 2c 19 be a7 e4 bb bb 04 7a 8d bd b4 c6 8e 3d
       -0.14958304 -0.0057340446 -0.06908038 0.06971493
0002e0 5d 97 87 bc 14 fb 8f bd 01 11 9f 3b c4 ef 1e be
       -0.016551668 -0.07030311 0.004854322 -0.15521151
0002f0 ea a0 36 3e de 0b f3 3c da d6 1f 3e 39 7e a7 bc
       0.17834821 0.029668745 0.15609303 -0.02044593
000300 dd f1 78 3d 55 68 03 bd 02 3a 55 3e 76 6d 3f 3e
       0.060777534 -0.03208192 0.2082291 0.186941
000310 28 35 53 3e 93 f0 f3 3d a0 6a 09 3e 93 f0 1a be
       0.20625746 0.1191112 0.1341958 -0.15130834
000320 64 fb 5a bd 39 5c d5 3d 35 51 1b 3d 87 dc a9 bc
       -0.0534624 0.10417981 0.037919242 -0.020735038
000330 0a a7 0e be b2 bb c7 bc 5c 8d a1 3d 9f 1a 58 3d
       -0.13930908 -0.024381492 0.0788829 0.052759763
000340 c5 4e 35 3e b6 ad 82 be 51 42 58 be 62 9d 95 3d
       0.1770583 -0.25523156 -0.21119048 0.07305409
000350 8c 3e 94 3d fa 32 5b bc bb 92 25 3e 51 9b 69 be
       0.07238492 -0.013378853 0.16169254 -0.22813155
000360 c8 68 dd 3d e0 41 6e 3e a0 08 f1 bd cd 85 1d 3c
       0.10811001 0.23267317 -0.11769223 0.00961442
000370 6c 4f f0 bc 0d 42 02 bc 8e 0a c5 be 1c 58 3b be
       -0.029334746 -0.007950318 -0.38484615 -0.1829533
000380 ea 31 2d 3e a7 bf bb bd 86 b6 18 3e d3 00 47 be
       0.16913572 -0.09167414 0.14913377 -0.19433908
000390 ff 41 a0 3d 85 90 5a 3c 4b a3 d9 bd 54 0c cb bc
       0.07825088 0.01334012 -0.10626849 -0.024786152
0003a0 22 f4 ad 3d 9a e8 5c bb f8 3c e5 bd 73 01 d5 bd
       0.0849383 -0.0033707977 -0.111932695 -0.10400667
0003b0 f7 c2 50 be 24 73 84 3c 9f 26 24 3e 43 84 f2 3d
       -0.20386873 0.016168185 0.16030358 0.11841633
0003c0 73 ac dc 3d b5 e6 dd 3d 4a dd ab be a2 91 8e 3c
       0.107750796 0.108350195 -0.33567268 0.017403428
0003d0 63 18 13 bd 94 4a 35 3e 60 64 0d 3e d4 fa 06 be
       -0.03591193 0.1770423 0.13807821 -0.13181621
0003e0 61 9d a9 bc 8c dc c9 bc 84 55 22 3e a3 06 52 bc
       -0.020704927 -0.024641298 0.15852934 -0.012818965
0003f0 1f 77 17 3d c1 24 51 3d f3 9b 02 3c 8a c5 17 bd
       0.036978837 0.051060442 0.0079717515 -0.037053622

network_body._body_endoder.seq_layers.0.bias f4 [256]
000000 bc 1c fd bb 6b b9 d8 bb a9 02 a0 bc 94 35 27 bc
       -0.0077243727 -0.0066139004 -0.019532518 -0.010205645
000010 ce a4 0a 3d f7 93 4f 3c de 7f 98 3b c7 23 77 bc
       0.033848576 0.012669555 0.004653915 -0.015084214
000020 a7 65 2e 3b da c0 e1 bc 5d e7 be ba ac b3 08 3d
       0.0026610882 -0.02755778 -0.0014564801 0.033374473
000030 77 fb 56 bb 94 d6 fb ba e4 ff ab bc e6 ac 01 39
       -0.0032803693 -0.001921373 -0.020996042 0.00012366808
000040 62 9d a9 bc 8c 4f 5e bc b6 f7 87 3c b6 1b fa bb
       -0.020704929 -0.01356877 0.01659761 -0.007632698
000050 23 67 8e 3b 9d a1 cf bc 4b c8 ac bc b4 83 13 ba
       0.004345791 -0.025345618 -0.0210916 -0.000562723
000060 c1 ed 23 bb f9 20 6e 3d 60 c5 33 bc 07 66 f2 bb
       -0.0025013539 0.058136914 -0.010972351 -0.0073974165
000070 8f c6 63 bb 11 6e fc bc ae b7 7f bc 8f c1 5a 3c
       -0.0034755801 -0.030814203 -0.0156077575 0.013351812
000080 90 01 4e 3c e4 11 de 3b f8 1e 99 3c 8f cc d2 3a
       0.012573615 0.006777035 0.018691525 0.0016082692
000090 4c 19 c4 3a 16 53 54 bc 9c 54 a7 3c db f4 c1 ba
       0.0014961152 -0.012959262 0.020426087 -0.0014797704
0000a0 2e e8 e1 ba 58 13 b9 3b 52 9f f9 3a 23 1a 7c ba
       -0.0017235333 0.005648058 0.0019044674 -0.0009616932
0000b0 de 17 fa b9 eb 4c 6c 3b f6 93 52 3c 0e 7a 1a 3b
       -0.00047701498 0.003605659 0.012852659 0.0023571285
0000c0 a0 d6 61 3c 7a 80 ad bc 29 66 eb 3b 3e 6a 94 bc
       0.013784081 -0.021179426 0.0071838093 -0.018117066
0000d0 e5 15 4f bc 71 cf 2d bc 59 26 81 bb a0 90 9b bb
       -0.012639497 -0.01060854 -0.003941339 -0.0047474653
0000e0 66 37 ba 3b b8 30 c5 bc 79 28 a4 bc 35 bc cd 3a
       0.0056828735 -0.024071082 -0.02003883 0.0015696349
0000f0 ea 5b c6 3b f8 ad a1 bc cb f8 9a 3b 4f 48 b5 3c
       0.0060534375 -0.019736275 0.0047293655 0.022129206
000100 4c 65 a0 bb c0 a4 01 bc d7 88 26 bb 8e c4 7d ba
       -0.004894888 -0.007912815 -0.0025411153 -0.0009680473
000110 44 99 5a bc e8 e8 80 3c aa 45 c1 3c 2b 09 49 3c
       -0.013342205 0.015736058 0.023592789 0.012270252
000120 32 35 d7 bb 83 e1 0a 3c b6 85 54 3c 40 c0 2c bc
       -0.0065676207 0.008476618 0.012971332 -0.010543883
000130 41 16 61 bc 4f e8 34 bc bd 08 16 bc 4a ef 53 bc
       -0.013738216 -0.011041715 -0.009157357 -0.012935469
000140 c7 6b 90 bc 77 21 90 3c 12 a2 f8 3c f7 06 c9 bc
       -0.017629517 0.017594082 0.030350719 -0.024539454
000150 8f 06 23 3c 50 1d c5 bc 7b 2f 95 3c 7e 0a cc 38
       0.009950294 -0.024061829 0.018211117 9.729432e-05
000160 03 06 70 3b b2 63 67 bb 87 bb 6b bc 86 24 03 bc
       0.0036624677 -0.0035307226 -0.014387972 -0.008004313
000170 9d 4e 8b 3c d9 f8 48 bc 37 ea a7 3c 9f 0f b6 3c
       0.01700526 -0.012266361 0.020497425 0.022224246
000180 99 cb 5e 3c 07 2d 1e bc 33 c9 40 bb f0 72 ce 3b
       0.013598346 -0.00965429 -0.00294168 0.0063003227
000190 46 98 9a 3b cb 8b ae bc 1f c3 cc 3c 87 25 8d 3c
       0.0047178594 -0.021306893 0.024995385 0.017229808
0001a0 06 a0 f3 bb eb 7d 9e bb fc a2 04 bc d4 1b 14 bc
       -0.0074348478 -0.004836788 -0.008095499 -0.009039838
0001b0 48 71 a8 bc 49 01 7a bc f6 b6 c4 3b 9c f3 96 3c
       -0.02056183 -0.0152590955 0.006003256 0.018426709
0001c0 be dd 89 bb e8 40 80 bc 90 f3 83 bc c1 a8 f1 bb
       -0.004207342 -0.01565595 -0.01610735 -0.0073748534
0001d0 96 a3 bb bc 83 17 81 bc e4 b9 51 3d b3 bb d2 bb
       -0.022905152 -0.015758282 0.05120267 -0.006431067
0001e0 3c 6d 18 bc ed 2c 2d 3a 41 9f 4c bc a1 6a 49 3c
       -0.009303387 0.0006606121 -0.012489141 0.012293489
0001f0 94 ac fc bb 5b c7 4c 3c ea cf 30 3d 52 a4 0b bc
       -0.0077110026 0.012498702 0.043167032 -0.008523064
000200 af bf c9 39 5c 69 d2 bc 7d 93 d0 3b 34 60 80 bc
       0.00038480523 -0.025685005 0.006365238 -0.015670873
000210 ab 1a 69 bc 16 40 9d 3c 11 00 5f ba 03 53 0e 3a
       -0.01422755 0.019195598 -0.0008506785 0.000542924
000220 2e 19 5b bc 76 ab 07 bc aa 34 ac bc 35 63 81 3c
       -0.0133727025 -0.008280626 -0.021021206 0.015794376
000230 e0 44 31 3c e5 c5 6f bc d5 b9 96 bb 16 7f 24 3b
       0.010819644 -0.014634584 -0.0045997896 0.0025100163
000240 1c 25 31 3c 92 16 32 bb eb 89 0b bc ac 26 7e bb
       0.01081207 -0.0027174097 -0.008516769 -0.0038780374
000250 95 34 a7 bb d9 28 95 bc d2 75 10 3d c9 44 3e bc
       -0.005102704 -0.018207954 0.035268612 -0.011613079
000260 46 c2 3d bc 41 37 a0 bc bd 6d b1 3b 56 a5 62 bc
       -0.011581963 -0.019557597 0.005414693 -0.0138333645
000270 d4 ed 67 bb 6a e5 4f bc 92 63 7c b9 94 0d 9e bc
       -0.003538956 -0.012688974 -0.00024069686 -0.019293584
000280 6d ab 55 3c 5a 7b a9 bb 5e 9b a9 bc 7c 6d c7 3c
       0.013041359 -0.0051721754 -0.020703968 0.024344198
000290 7e 4f 08 bc 01 fd 0c 3c fb ef 38 3b 25 43 6b bc
       -0.008319734 0.008605243 0.0028219211 -0.01435927
0002a0 9d ec 58 3c c9 87 26 bc 7a 4a 33 3b 4d e9 b4 bb
       0.013240007 -0.01016421 0.0027357624 -0.0055209757
0002b0 64 e2 19 3c 17 9f 9d bb 40 e0 d1 bc ee aa db bb
       0.009392355 -0.0048102248 -0.025619626 -0.006703726
0002c0 05 62 06 bc 8a a2 f7 ba 4c 7f 07 bc 89 f8 77 bb
       -0.008202081 -0.0018893045 -0.008270096 -0.0037837347
0002d0 cd 13 74 3c 7e 9d 16 3c b2 cb ff ba 48 71 6c bc
       0.014897299 0.0091928225 -0.0019515662 -0.014431305
0002e0 80 f3 43 3c 52 58 4a 3c c9 71 80 bc bc 6c 29 bc
       0.01195991 0.012350159 -0.015679257 -0.010340866
0002f0 95 a5 d6 bb 81 e9 74 bc d1 a4 bd bb db 45 1e bb
       -0.0065505006 -0.01494825 -0.00578747 -0.0024150524
000300 03 87 47 bc 70 c7 35 3c a5 7c 0c ba 4e 4c 85 bb
       -0.012178185 0.011094913 -0.00053591497 -0.004067934
000310 b8 21 7d bc ba dc cb 3c 86 6b 1b 3d 4f 65 9c 3c
       -0.015449934 0.024885524 0.03794434 0.019091276
000320 87 cc f5 ba c3 9d 26 3c 3d 43 e3 3b 61 ac 1d bb
       -0.001875297 0.010169449 0.0069355057 -0.0024059045
000330 ee fe 36 bc 51 cd 91 bc 86 cf 7f bc 52 47 39 bc
       -0.011169178 -0.017798098 -0.015613442 -0.011308508
000340 17 24 8d bc cd 4e ad bb 85 b1 48 bc 93 51 34 ba
       -0.017229123 -0.005288935 -0.012249355 -0.00068786106
000350 8b a9 d3 3a 59 83 2a bc 7b 8f 8e bc c7 b9 17 3c
       0.001614855 -0.010407292 -0.017402401 0.009260601
000360 36 27 52 bc 53 69 49 3c 64 14 e1 38 f2 3e 6c 3c
       -0.012826731 0.012293178 0.00010732634 0.014419304
000370 2c 77 7d bb 23 f3 7d 3a 43 ce a7 3b 54 a4 a0 bc
       -0.0038675768 0.0009687414 0.005121024 -0.019609608
000380 33 c5 be bc a7 5b 0b 3c ab b4 ba bc b7 8f 8f bc
       -0.023287391 0.008505738 -0.022791227 -0.017524583
000390 c5 e2 1e 3c 38 56 4b 3c 7b 34 7a bc 19 d2 cc bc
       0.009697621 0.012410693 -0.015271301 -0.025002526
0003a0 13 b6 fa 3b ca 50 20 3c ea 8a bf bb 09 05 b2 bc
       0.0076510995 0.009784887 -0.0058454173 -0.021730917
0003b0 49 2f 36 bc 60 e5 cc 3c 16 05 bf bc 82 22 d8 3a
       -0.011119672 0.025011718 -0.023317855 0.0016489776
0003c0 42 35 d9 3c c6 91 3a 3b 99 1d 32 bc ea 09 a1 3c
       0.026514653 0.0028468235 -0.010871314 0.019658048
0003d0 ea 40 c7 3b e9 b2 a7 bc 7f b6 30 bc ab a8 4e 3b
       0.0060807364 -0.020471053 -0.010785698 0.003153364
0003e0 83 70 27 3c de 87 e5 bb c3 5a 1d ba 2f 48 3a 3b
       0.010219696 -0.007004722 -0.0006002599 0.0028424372
0003f0 3d 92 96 bc 55 f3 e1 bc 2c 8a 29 3a a5 7c 78 3c
       -0.018380279 -0.02758185 0.00064674276 0.015166436

network_body._body_endoder.seq_layers.2.weight f4 [256, 256]
000000 b3 21 1c bd 23 bc 82 bd 8b 5a 12 bd f3 f0 0a 3c
       -0.038118076 -0.063835405 -0.03573088 0.008480298
000010 ac 2e 8e 3d 81 b4 2f 3d ed eb cf bd b2 6c 8f 3d
       0.06942496 0.04289675 -0.10152421 0.07003154
000020 22 54 c2 bc 50 41 b7 bc 0a 88 8c bd 91 c5 af bc
       -0.023721758 -0.02237001 -0.06861885 -0.021456512
000030 2f 6b 58 3c c9 56 12 bd fb c7 f9 bb f4 7d df bb
       0.013209148 -0.035727296 -0.0076227165 -0.0068204347
000040 5c 37 1c 3e d5 d9 af bc 7d 77 d9 3c 54 d5 93 3d
       0.15255493 -0.021466175 0.026546234 0.072184235
000050 8d 2e 36 3c 0b 59 9c bd 0b da ad 3d bc ff cf bd
       0.011119497 -0.07634171 0.08488854 -0.10156199
000060 64 35 31 bd 16 83 32 3d 31 cd 0b bc 17 c5 90 bd
       -0.043263808 0.043582045 -0.008532808 -0.07068842
000070 b6 d2 14 3d 9a bf 65 3d 96 e6 ce 3d 3c 18 94 3b
       0.036333762 0.05609093 0.101025745 0.0045194905
000080 79 9f ce 3d 88 26 c4 bb 32 f4 ff 3d 0d 9d b0 bd
       0.10089011 -0.0059860386 0.124977484 -0.08623705
000090 4a 2c cf 3c 9b 64 8e 3d b6 6a b5 3c a8 e1 61 3c
       0.025289673 0.06952783 0.02214561 0.013786711
0000a0 00 c0 9d bd 5b 3d a8 bd e9 1f 3a bd f5 02 de bc
       -0.07702637 -0.082148276 -0.04544059 -0.02710102
0000b0 73 03 11 be 67 2d 93 3c ce fa 61 bd 59 27 d0 3d
       -0.14161472 0.017965985 -0.055170827 0.10163755
0000c0 61 ad 5f bd e9 ce 61 bd 3e 39 08 3e f5 1b 52 bc
       -0.054608706 -0.055128966 0.13303086 -0.012824048
0000d0 dc eb 57 3c a4 25 9c bd 75 1b d6 3d 4c 55 13 bd
       0.013178792 -0.07624367 0.10454456 -0.035970017
0000e0 73 a5 fd 3d 14 9a 09 be 5e 29 d3 3c c0 a8 0c 3d
       0.123850726 -0.13437682 0.025776561 0.03434062
0000f0 ef 40 49 3d 30 8a 3f bd 37 65 09 be 11 5c 28 bd
       0.04913419 -0.046762645 -0.13417517 -0.041103426
000100 1d 16 87 bc b0 a5 05 be 0f 38 d2 bd 7a d6 65 3b
       -0.016490037 -0.13051486 -0.102645986 0.0035070465
000110 59 88 a2 bd ce a7 c4 39 8e 0b 1a be bb 2c ac bc
       -0.079361625 0.00037509057 -0.1504347 -0.021017423
000120 54 aa 3a bb 2d b8 9a 3c b8 19 3a bc 07 2d c3 bd
       -0.002848287 0.01888665 -0.011358671 -0.09530073
000130 d9 fb c8 3c b4 30 a6 3d cf ad 96 3b 5e f2 ce 3c
       0.024534153 0.08114758 0.0045983563 0.025262054
000140 11 26 23 bd 9a 8b 3a 3c 30 15 20 bd bb 30 5d bc
       -0.039831225 0.011385823 -0.039082706 -0.013500388
000150 b4 32 91 bd 82 cb 81 3d 7c 18 7f bc 4a 36 32 3c
       -0.07089749 0.06337644 -0.015569802 0.010877201
000160 d9 c1 72 3d 83 1b d6 bc e3 68 3c 3d 96 84 27 3c
       0.0592669 -0.026136165 0.045998465 0.010224482
000170 35 e3 93 bc 28 38 ff 3c 7f db 50 be b3 9f 61 3b
       -0.018052677 0.031154707 -0.20396231 0.0034427464
000180 8e 19 ea 3d 77 df 59 3d 4b d1 bb 3c 33 b7 82 bd
       0.114306554 0.05319163 0.022926947 -0.06382599
000190 30 7a b5 3c f9 d4 50 3d 9d a6 92 3d 5e 0b ff 3c
       0.02215299 0.050984357 0.07160685 0.03113335
0001a0 6f 7c bb 3d 6f d7 39 bd db 02 c6 bc b0 9a 83 3c
       0.09154593 -0.04537147 -0.024171283 0.016064972
0001b0 80 dc c0 bd 44 c2 40 3c 6f e3 70 3b dd ee 52 3c
       -0.09417057 0.0117650665 0.0036756655 0.012874332
0001c0 7f e0 53 3d b4 f4 34 3d 38 c6 c9 3c fd d6 d6 bd
       0.051727768 0.04417868 0.02463065 -0.104902245
0001d0 5b 8c 1e 3e 23 92 dc bc 83 8c 73 bc 65 6d 6f bd
       0.15483229 -0.026925152 -0.014865044 -0.058453936
0001e0 b5 6c 14 3e f4 fb 2b be 15 27 84 3c b5 78 c7 bc
       0.14494593 -0.16795331 0.016131917 -0.02434955
0001f0 ca c0 b0 bd f8 14 e5 3d e5 63 d6 3c b5 21 17 3d
       -0.086305216 0.1118564 0.02617068 0.03689738
000200 14 fc 85 bd bb 33 e5 3b 00 65 0d 3d 0a 54 af 3d
       -0.06542221 0.006994692 0.03452015 0.08560951
000210 01 aa ea 3c ef 09 6a 3c 61 33 33 bd ac 68 8a 3d
       0.028645517 0.014284595 -0.04375017 0.06758246
000220 72 55 2b 3d cb 11 b5 3a 50 15 86 3d f7 09 35 3d
       0.041829534 0.0013814507 0.06547034 0.044198956
000230 01 2b 01 bd 7f fd 28 bd 62 4e 71 bc 4c 65 95 bd
       -0.031535152 -0.041257378 -0.014728161 -0.072947115
000240 35 c3 8a 3b a1 63 2b 3d b0 2d 58 3d c5 fe a7 bd
       0.0042346963 0.04184306 0.052777946 -0.0820289
000250 97 56 c7 3d 27 03 6a bd 77 a5 81 3b d9 2c 82 bd
       0.097333126 -0.057131913 0.0039564925 -0.0635621
000260 5f c0 46 3d 0c f3 fb bc e2 c0 09 3c dd 60 26 3d
       0.048523303 -0.030755542 0.008407803 0.04061972
000270 bf 26 b0 bd 2d 1a 5e 3d f5 f1 61 3d 6a 79 82 3a
       -0.0860114 0.054224182 0.05516239 0.0009954397
000280 26 3c 1d 3d 03 c6 2e 3e 68 a2 b7 bc 3f ac 47 bd
       0.03838744 0.17067723 -0.022416309 -0.04874825
000290 f2 e1 3d bd 71 86 97 3b 04 35 17 3e 79 be 31 bd
       -0.046358056 0.004624181 0.14766318 -0.04339454
0002a0 87 4c 85 3b bb 72 99 3d cd 79 f3 3c 45 7e 64 3d
       0.0040679607 0.07492586 0.029721165 0.055784483
0002b0 de 74 62 bd 23 ff 2b 3d b2 3f 51 3c 68 63 14 bd
       -0.055287234 0.041991364 0.012771534 -0.036227614
0002c0 7f e6 f6 bb 73 8a 2d 3d ce 92 86 bd a7 b3 7e 3c
       -0.0075348015 0.042368364 -0.065709695 0.015545762
0002d0 04 0e 01 3d bc ff 7a bd 73 19 6c bc 1b db e5 bc
       0.031507507 -0.061279044 -0.014410364 -0.02805858
0002e0 60 26 83 bd a7 95 50 bd 84 54 84 3b e9 91 84 3d
       -0.06403804 -0.05092397 0.0040383954 0.06473143
0002f0 a3 94 3c 3d 6e f9 ce bc 8d 1b 45 3d b5 84 91 3d
       0.04604019 -0.025265422 0.048121978 0.0710539
000300 d1 a0 96 bd 28 02 a2 bc 1c 92 32 3d 1a 3f 21 3d
       -0.07354892 -0.019776419 0.043596372 0.03936682
000310 58 42 a4 3d 74 ec 22 3d df f8 f8 3c f8 91 dc 3c
       0.080204666 0.03977628 0.030392108 0.026925072
000320 3b 8f 91 3d f8 fd 72 3d f9 32 98 3d 0c 35 8b 3a
       0.07107397 0.059324235 0.07431597 0.0010620668
000330 16 77 da 3d 7b 76 ad ba 9e 1c ab 3b ac b7 a3 bc
       0.10667245 -0.0013234162 0.0052219173 -0.019985043
000340 64 d0 62 3d 77 ad 5b bd dd b6 ce bd 77 2f f8 bb
       0.055374518 -0.053632226 -0.10093472 -0.0075740176
000350 10 3f 7f bd 34 7c 31 3c 82 b6 0f be e4 2a 2f bd
       -0.062316 0.010832835 -0.14034465 -0.042765513
000360 a3 2d e9 bc 0e e4 64 3d 4a 20 7e bc ce b9 6b 3c
       -0.028464144 0.055881552 -0.015510628 0.014387561
000370 76 21 ad 3d b7 8d ee bc d9 db 99 bc 2b 07 ad 3c
       0.08453648 -0.02912031 -0.01878159 0.021121582
000380 e1 0e db 3b d1 d0 c7 bd 6e 87 70 3d 0a 62 4c 3d
       0.0066851233 -0.097566254 0.058722906 0.049898185
000390 b4 48 92 bd b4 57 32 bd 16 08 e0 bd 87 7d db bb
       -0.07142773 -0.04354067 -0.10939042 -0.0066983136
0003a0 d8 42 01 3d 28 a7 9c bd 15 a4 76 bc 1d 45 cd bd
       0.031557888 -0.0764907 -0.015053769 -0.10022948
0003b0 ed 39 31 3d 32 fd db 3b f6 85 88 bd 52 d1 a3 bd
       0.043268133 0.006713533 -0.06666176 -0.07998909
0003c0 4d f9 07 bd 0c a8 7f bd 6a c9 3e 3d 11 d5 41 3d
       -0.033196736 -0.06241612 0.046578802 0.047322337
0003d0 7a f6 97 3d 72 c0 90 3d b7 cf 6e bd c0 55 9b 3c
       0.074200585 0.07067956 -0.05830356 0.018961787
0003e0 40 8a 70 bc 0c 6b 8e 3d 84 99 3f bd 26 c4 45 3c
       -0.014681399 0.06954011 -0.046777263 0.012070691
0003f0 e8 a5 a4 3c 6f d7 dd bc 28 63 4b 3c df 3d 4e 3d
       0.020098642 -0.027080266 0.012413777 0.050351974

network_body._body_endoder.seq_layers.2.bias f4 [256]
000000 7e 06 96 ba 44 89 c9 bc 15 e9 72 bc 4f b9 30 bc
       -0.0011446027 -0.024601586 -0.014826079 -0.0107863685
000010 9d 4b df bc f0 6a 81 3c be 0b 80 3c 57 a6 1c 3b
       -0.027257735 0.015798062 0.0156306 0.0023902857
000020 e7 0c 1c bc 0f 8e 17 bc 58 fe a2 3c 21 fd aa bc
       -0.0095245605 -0.009250178 0.019896671 -0.020872654
000030 11 64 12 3d 1c 4c 3e bd b9 6b eb ba 4d 0e 84 bc
       0.035739962 -0.046459302 -0.0017961181 -0.0161201
000040 c4 af 05 bc 14 7a 1c bb 1e 18 be ba 26 95 7a bc
       -0.008159582 -0.0023876475 -0.0014503037 -0.015294349
000050 a3 65 7d bc fc 9c 1d 3c b8 8c 13 bd f6 09 b1 3b
       -0.015466127 0.0096199475 -0.03602287 0.0054027988
000060 99 9b cf bc e8 3f 76 bc 9d 01 2f 3c a8 3a 94 bb
       -0.02534275 -0.015029885 0.010681537 -0.004523594
000070 eb 9a 2d 3c ce a0 e3 bc 93 0d 76 bc 00 be 84 bb
       0.010596017 -0.027786639 -0.015017885 -0.00405097
000080 24 0d 43 bb fd 83 04 3d 3d a8 5d bc 39 8f 3c 3c
       -0.002976247 0.032352436 -0.013528881 0.011508756
000090 ca 96 0d bd a0 b8 82 3c 06 a3 04 bc 16 9e 08 bc
       -0.03456763 0.015957177 -0.008095508 -0.008338472
0000a0 43 1c 73 3c a5 c0 8c bc 0e c1 9f bb 11 71 8b 3b
       0.014838281 -0.017181704 -0.004875309 0.004255422
0000b0 84 94 b2 bc 29 eb c1 3b f0 90 f0 bc b5 e3 6a bc
       -0.021799333 0.005917926 -0.029365987 -0.014336516
0000c0 f1 f5 9b bc 04 f1 26 3c f5 dc 9e bc 53 52 ad bb
       -0.019038172 0.010189299 -0.01939247 -0.005289355
0000d0 28 71 26 bc 5f c2 bb bc 68 0f 9d bc 43 3d a7 bc
       -0.0101588145 -0.022919832 -0.019172385 -0.020414954
0000e0 62 56 ec 3b df df 97 bb 0f 98 2d 3a 41 16 b2 bc
       0.007212446 -0.004634842 0.0006622085 -0.021739127
0000f0 f7 2d 42 bd 77 06 3c bc 6d fb 9c bb 9f e6 07 bc
       -0.047407117 -0.011476151 -0.0047907145 -0.00829473
000100 48 86 59 3b 40 21 61 3c 9a 84 77 bc e2 c0 97 3a
       0.003319161 0.013740838 -0.015107298 0.0011577869
000110 83 99 1e bc 2b aa 7b 3b 87 f4 a2 3c 1b 96 9f 3a
       -0.009680155 0.0038400989 0.01989199 0.0012175472
000120 8f a3 15 bb 6a b2 7d bc a4 0a 1b 3c dd 11 40 3c
       -0.0022833084 -0.015484432 0.009462986 0.011723009
000130 3b f2 c9 3c b0 0a 6c bc 12 69 08 bd 59 60 be bc
       0.024651637 -0.014406845 -0.033303328 -0.023239302
000140 59 e3 86 bc cc 01 9d 3c 02 de f3 bc 9d 1f 0e bd
       -0.01646583 0.019165896 -0.029768948 -0.034698118
000150 a2 48 a1 bc 07 7d 71 bc 6d e5 28 3c 62 c6 a7 bc
       -0.019687954 -0.0147392815 0.010308606 -0.020480338
000160 c4 5f 79 bc f5 be a9 b9 fd 87 6a bc bd 05 48 bb
       -0.015220586 -0.00032376466 -0.014314649 -0.0030520998
000170 50 d9 11 3b 55 5b 98 bc 7b cc 03 3c 41 d5 f6 bc
       0.0022254772 -0.018598238 0.008044357 -0.030130984
000180 fa 72 e8 3c ba 53 a2 bc 1a 9e 4e bc 31 85 97 bc
       0.028375138 -0.019815315 -0.012610937 -0.018496128
000190 10 be 8e 3c 8a 3f 43 3c 5f 8f ad bb 9e 70 a7 bc
       0.017424613 0.011917004 -0.005296632 -0.020439442
0001a0 97 53 18 bc 14 8a 10 bc bc f7 87 bb 1a 92 79 3c
       -0.009297273 -0.008821983 -0.0041494053 0.015232587
0001b0 06 f5 4f 3c 31 3f 28 3a b8 42 c1 3c 2a e3 d0 3b
       0.0126926955 0.00064181077 0.023591384 0.0063747363
0001c0 d7 7c 0c bd 6b e6 a8 bb 88 c3 a1 3c 92 2f dd bb
       -0.034298744 -0.005154421 0.019746557 -0.0067500556
0001d0 28 7c 72 3b cb 61 f4 bb de 79 80 bc 70 17 08 bb
       0.0037000272 -0.007457947 -0.01568311 -0.0020765923
0001e0 d6 35 81 bc c0 12 08 bc 2a bc e9 bc 45 19 4e bc
       -0.015772741 -0.008305252 -0.028532106 -0.012579267
0001f0 99 bf 0d bb 6c 23 30 bc cb 69 a0 3b e9 b1 11 bc
       -0.0021629094 -0.010750633 0.004895424 -0.008892515
000200 9a 4a 0e 39 2e 02 82 3b 97 a4 fc b9 e5 a7 e1 bb
       0.00013569967 0.003967545 -0.00048187815 -0.0068864697
000210 4f 72 93 bc 35 4c 07 3b 19 9c 78 bb d4 89 1a bc
       -0.017998843 0.0020644788 -0.0037934838 -0.009432275
000220 b0 9e d7 3a 07 9c bb 3c ae 7d 4e bb b2 72 59 bc
       0.0016450491 0.022901548 -0.0031508016 -0.013271974
000230 4d 66 5a 39 34 95 2c bc 85 2e 86 3b 5d d1 88 bc
       0.0002082821 -0.01053362 0.004094901 -0.016701395
000240 a2 d3 59 3c 0d af b0 bb 3b 1a 33 bc e2 a9 28 3c
       0.013295086 -0.0053919614 -0.010931547 0.0102944095
000250 7b 1a be 3c 38 23 97 bc 94 2a 5a bc 0b 27 87 bc
       0.023205986 -0.01844941 -0.0133158155 -0.01649811
000260 fd a0 39 bc ef dc 76 3c 4b cf d4 bc 1a 76 31 3b
       -0.0113298865 0.015067323 -0.025977751 0.002707845
000270 59 36 82 3c 77 e3 00 bc 8b 6e af bc 4f 9c e2 bc
       0.015895056 -0.007866732 -0.021415016 -0.027662424
000280 63 65 9d bb 03 f6 89 bc 3c 48 3e 3c 34 17 04 bc
       -0.004803346 -0.01684094 0.011613902 -0.008062173
000290 31 4e f7 bc a8 ec ef 3b 25 cc 8b 3c 29 2d 71 bb
       -0.030188652 0.007321913 0.017065117 -0.00368006
0002a0 b7 bb 31 bd 4d 8f 4e bc 22 c1 43 3c 65 d4 e7 ba
       -0.04339191 -0.012607408 0.011947902 -0.00176872
0002b0 1f 2a 96 bb 57 1c 85 bc 41 05 19 3c 2f 17 23 3c
       -0.004582658 -0.016248865 0.009339632 0.009954258
0002c0 4b b8 54 3b 53 d1 10 bc 4b 27 f4 3a e0 7a b0 3c
       0.003245848 -0.008838969 0.0018627433 0.021542966
0002d0 ca 60 9e bc 36 fa 96 3a c6 b8 0f 3b 4a 18 f6 3c
       -0.019333262 0.001151866 0.0021930202 0.030040879
0002e0 1d be 2b bb 33 b6 5a 3c df d6 6a bc d6 76 a9 3c
       -0.0026205846 0.013349104 -0.014333456 0.020686548
0002f0 3d 71 e9 bb e1 3d 56 bc 72 11 b0 bc ed 18 9b 3c
       -0.0071240948 -0.0130762765 -0.021492694 0.018932784
000300 e5 5e 6a bc 3d 73 49 bb 73 e9 24 3b 2a 04 52 3c
       -0.014304851 -0.0030738853 0.002516356 0.012818376
000310 90 7b d5 3c bf 67 8f bc 7e 44 95 3b b7 2d 95 3b
       0.026059896 -0.017505525 0.004555284 0.004552569
000320 0d e0 06 3c 70 fd 8f bb fe 15 b3 bc 09 9e 9a bc
       0.008232129 -0.004394226 -0.021861073 -0.018874185
000330 c6 a5 b0 3c ac 38 b9 bc 52 db 7c 3c 38 55 6c 3c
       0.021563422 -0.022610031 0.015433149 0.014424615
000340 f5 93 a4 bc ca 8a 20 bd 1c 61 61 3c 82 95 33 3c
       -0.020090083 -0.03919486 0.013756063 0.010960938
000350 75 51 1c bc d7 8d 85 3b 7b 70 06 3b c6 84 b1 3b
       -0.009540905 0.0040757465 0.002051382 0.005417439
000360 2e d6 12 bc 80 93 18 3c e0 32 01 bc e7 11 04 3d
       -0.008962197 0.0093125105 -0.007885665 0.032243636
000370 1b 3c b3 bc e0 e1 82 bb d4 c9 d7 bc 05 0d 41 bb
       -0.021879246 -0.0039942116 -0.026341356 -0.0029457223
000380 d6 fb 55 bc 32 1c b8 3c ae 8f 06 3c 78 18 fb 3a
       -0.013060531 0.022474382 0.008212967 0.0019157073
000390 b9 18 24 3c ba 71 81 bb c0 80 77 ba fd 80 4f bc
       0.01001566 -0.003950325 -0.00094414875 -0.012665031
0003a0 be c2 c7 ba 62 b7 52 bc a6 34 fa bb 94 19 c8 bc
       -0.0015240533 -0.012861105 -0.0076356707 -0.02442626
0003b0 df 3f a8 bb 3d 87 b8 bc 3a c3 b2 bb c2 ab 23 3d
       -0.005134567 -0.022525424 -0.0054554017 0.039958723
0003c0 bf e0 72 bc e1 b1 a1 bc 01 de ef bb 42 c1 3f 3c
       -0.014824091 -0.01973814 -0.007320166 0.011703791
0003d0 df ed 98 bc 81 ad 63 bc 1f 88 99 bb 73 2f 9d bc
       -0.018668113 -0.013896347 -0.0046854164 -0.019187665
0003e0 51 17 d4 3b 27 20 49 3b 25 d8 37 bb 3a 48 f8 3b
       0.006472506 0.003068933 -0.0028052416 0.0075769695
0003f0 fc 2e a8 3b 97 f1 36 bc 46 7e c1 bc c3 14 90 ba
       0.005132554 -0.011165998 -0.023619782 -0.0010992516

action_model._continuous_distribution.log_sigma f4 [1, 12]
000000 b4 27 2e 3e 02 1f 02 3e 11 88 db 3d 38 9b 25 3e
       0.17007333 0.12707141 0.10719312 0.16172493
000010 74 e9 15 3e fd 62 f9 3d 51 55 3a 3e 1b cd e7 3d
       0.14639837 0.12177084 0.18196608 0.11318418
000020 2c 26 0f 3e e2 b7 10 3e 47 65 0f 3e 5f 64 32 3e
       0.13979405 0.14132646 0.14003478 0.17421101

action_model._continuous_distribution.mu.weight f4 [12, 256]
000000 b7 b5 a7 3c a3 18 2b bc b6 0d 71 bc cb 72 fb ba
       0.02047239 -0.010442886 -0.014712742 -0.0019183991
000010 63 d8 bc ba 8d de af 3c e2 a0 d4 3c 40 7f 8e 3b
       -0.001440775 0.021468425 0.025955621 0.0043486655
000020 b5 d9 9e bc 8e e4 88 3c c2 5d a2 3c 97 fa 86 3a
       -0.01939092 0.016710546 0.019820098 0.001029807
000030 51 28 29 3c 1b 49 67 bb c7 a6 38 bc 76 81 66 3c
       0.010324554 -0.0035291377 -0.011270232 0.014068952
000040 2e 4d dc bc c2 ef 12 3d 6d ca 17 3d 43 85 fb 3b
       -0.02689227 0.035873182 0.037058283 0.007675798
000050 f3 3a d8 3b 3f bd 4b 3c 42 0c f4 bc fd 65 5d 3c
       0.006598824 0.0124352565 -0.029791001 0.013513085
000060 6f 12 09 bb bb 32 5d 3c ea da 96 bb 37 f5 a7 3c
       -0.0020915528 0.013500865 -0.0046037333 0.02050267
000070 38 74 a3 bc 86 4e 16 bc 23 9c 73 bc 60 55 27 3d
       -0.019952878 -0.009173995 -0.014868769 0.040852904
000080 54 31 80 3c ad b3 35 3c 07 8a 84 3c 72 50 16 3c
       0.015648521 0.011090201 0.016179098 0.009174453
000090 d7 25 01 bc e2 06 3a 3d de fc 8d 3c a3 76 a3 bb
       -0.007882557 0.04541672 0.01733249 -0.004988508
0000a0 e9 fd 78 bc c8 ef 07 bd b1 25 b4 3c 6b 1d c3 bb
       -0.015197256 -0.033187658 0.021990629 -0.0059544346
0000b0 14 8e 62 bc 08 f1 13 3d 47 a0 b4 bc be 4a 8c bb
       -0.013827819 0.036118537 -0.022049082 -0.004281371
0000c0 59 1d b0 3b b6 2c 55 3c ac ff 34 bc a5 d2 54 bb
       0.0053745923 0.013011148 -0.011047285 -0.0032474187
0000d0 34 83 37 3c e3 12 02 bd 78 76 05 bc a4 a3 cf 3c
       0.011200715 -0.031756293 -0.008145921 0.025346585
0000e0 b6 10 52 ba c3 3f db 3c e1 a8 85 3c 6a ff a0 bb
       -0.00080133544 0.026763802 0.01631588 -0.00491326
0000f0 70 a3 96 bb 91 6d 8e 3c 02 2f 84 3b 33 f9 bf bc
       -0.00459712 0.01738623 0.004033924 -0.023434257
000100 da b8 2b bc f1 59 0e 3c 30 7e 46 bc da 68 84 3c
       -0.010481084 0.008688436 -0.012115046 0.016163278
000110 51 73 0e 3c 9b 41 fb 3b 02 e4 b2 3b 83 00 b1 bb
       0.008694486 0.007667733 0.0054593096 -0.0054016723
000120 8b 3d bf 3c 5f 36 8b bc d8 43 09 3c 69 bf cb 3c
       0.023344776 -0.0169937 0.008377992 0.024871545
000130 a1 cf 9a 3b 6a 33 ce bc 75 32 36 bb ca 55 b6 bc
       0.0047244583 -0.025171 -0.002780107 -0.022257704
000140 cd 2c 42 bc 49 0c 57 3d a4 04 89 bb be e5 ad 38
       -0.011851502 0.05250195 -0.0041814614 8.292076e-05
000150 86 20 ae bc 26 fb ce bc f3 91 ee 3b 31 9b 53 3c
       -0.021255743 -0.025266241 0.007280582 0.0129154185
000160 43 8a 4f 3c 0c fb dd 3c 51 75 ed 3c be 6b 09 37
       0.0126672415 0.027097248 0.028986605 8.190922e-06
000170 a3 43 f5 3c b9 52 cb ba d6 57 72 bd 56 4e 3e 3c
       0.029939478 -0.0015512324 -0.059165798 0.011615356
000180 47 f6 4e bd a0 f0 ce 3c 69 40 2b 3d e5 52 9a bc
       -0.050527837 0.025261223 0.041809473 -0.018838355
000190 c3 02 11 3d bf ef 1a bb 90 af 67 bc de ff 36 3c
       0.035403024 -0.0023641435 -0.014140978 0.011169402
0001a0 9b 64 1f 3c a2 f3 9d 3c 02 97 d3 bc e0 ad 08 3c
       0.009728576 0.019281212 -0.025828842 0.008342236
0001b0 cc a5 97 3c 27 e1 f2 ba 1f 70 85 bc df b9 af 3c
       0.018511675 -0.0018530235 -0.016288815 0.021450935
0001c0 2e 77 f4 3b d5 60 d8 3c de f2 41 bb 35 05 ec bc
       0.0074604964 0.02641336 -0.0029594223 -0.028811077
0001d0 9c cd d5 3b 83 69 b9 bc 35 0b 4d ba 15 f5 28 bc
       0.0065247547 -0.02263332 -0.00078217994 -0.010312338
0001e0 ef 2d ab bb 89 96 b6 bb c2 0b 5d bb 95 6d 8d 3b
       -0.0052239816 -0.0055721444 -0.0033728932 0.0043160417
0001f0 eb fb d1 ba 4b eb c2 bb cc f7 ed 3a 85 d5 cc bc
       -0.0016020512 -0.0059484593 0.0018155514 -0.025004158
000200 61 60 c4 3a b5 db 9d bb 29 76 1b bd cf af 6e 3c
       0.0014982336 -0.004817451 -0.037954483 0.014568283
000210 de 0f 62 3c 0f 4c 1d bd 30 a0 82 bc 7e a0 1f bc
       0.013797728 -0.038402613 -0.015945524 -0.009742854
000220 3f 86 86 3c e0 ea a5 bb b1 6d 10 3b 4a e3 eb 3c
       0.016421435 -0.0050633997 0.0022038037 0.028794903
000230 f2 91 0d bc a5 b7 27 3c a9 ec 98 bb f9 88 58 bc
       -0.008640753 0.010236655 -0.004666884 -0.013216251
000240 07 2e 4d 3c c8 79 62 3c 47 e5 61 3c 0b 94 2a bb
       0.012523181 0.01382298 0.013787574 -0.0026028182
000250 d2 cc 8b 3b 86 97 77 bb c3 61 0b bc b6 b6 9c 3c
       0.00426636 -0.0037779524 -0.008507195 0.019130092
000260 38 d1 21 bd db 30 47 3d 27 12 16 bb 4c ba 16 39
       -0.039506167 0.048630577 -0.0022899003 0.00014374516
000270 f8 4b 62 3d 0e fa a5 bc fe 8e aa bc 0c 34 82 bc
       0.05524823 -0.020260837 -0.020820137 -0.015893959
000280 8e 00 3c 3c 2a 26 45 3c 09 97 6a bc b2 27 e3 bb
       0.011474742 0.012033025 -0.014318236 -0.0069322223
000290 ff 38 e6 3a 18 53 e4 3b 0b f9 14 3c ae 47 c0 bb
       0.0017564594 0.0069679134 0.00909258 -0.00586792
0002a0 a8 76 d7 3b ab 4d 05 bc 4d 88 86 bc bb 8c 72 bc
       0.006575424 -0.008136193 -0.016422415 -0.014804061
0002b0 9d 1e 84 bc 90 83 01 bc 54 8b 25 bd 2b 70 c3 3b
       -0.016127879 -0.007904902 -0.040416077 0.005964299
0002c0 66 06 04 3c 99 11 87 3c 6c a2 d7 bb ab eb 07 3c
       0.008058166 0.016487883 -0.0065806415 0.008295934
0002d0 5a 62 03 bc 24 69 05 bd 71 ed 14 3d 62 87 26 3d
       -0.008019054 -0.032570973 0.036359254 0.040656455
0002e0 35 5f 8c bc 54 33 31 3d 3d 1d a0 bc 2b 02 33 bb
       -0.017135242 0.04326184 -0.019545192 -0.0027314525
0002f0 1d b1 d0 bc d3 4f 0a 3c 88 67 90 3c 86 26 9b 3c
       -0.02547508 0.008441883 0.017627493 0.018939268
000300 81 0c a0 3c 3a 42 b5 bb 46 90 ca bc 74 4f 14 bd
       0.019537212 -0.0055315765 -0.024726998 -0.036208585
000310 82 cb 00 3d 73 ab 86 bc 3d 1c 3d 3c 70 88 04 3d
       0.03144408 -0.016439175 0.011542377 0.03235668
000320 11 77 10 3d 20 ed 45 bc 19 16 81 bc fa c9 92 bc
       0.0352698 -0.012080461 -0.015757607 -0.017918576
000330 f6 9d 90 bc 60 28 fb bc 94 b4 dd 3c 3d 03 03 3b
       -0.017653447 -0.0306589 0.027063645 0.0019990944
000340 a8 f6 83 3c f5 35 25 bc b7 6e 2a bd ad 51 30 bc
       0.016108826 -0.010083665 -0.041609492 -0.0107616605
000350 82 5d 50 3c f1 b1 59 3c 36 7b 76 bc 01 5b a3 3c
       0.0127176065 0.013287053 -0.015044024 0.019940855
000360 97 39 ba 39 27 51 d2 bb b6 41 ae bb 58 d5 ab 3b
       0.00035519592 -0.0064183655 -0.005317892 0.0052439384
000370 14 e9 6a bd e1 bc 8f 3b f0 fb 85 bb ef 36 f1 3c
       -0.057351187 0.00438653 -0.004088871 0.02944514
000380 eb 87 30 3d 17 d6 a9 3c 9c 88 e6 bc a7 23 ec 3c
       0.04309837 0.020731969 -0.028141312 0.028825594
000390 e0 b7 e9 3c 56 d1 37 3d 1b d7 47 bd 23 d3 7c 3c
       0.028530061 0.044877373 -0.048789125 0.015431198
0003a0 66 b7 ac 3c ad ae 6f bc 81 85 9c 3c 73 8e 84 bc
       0.021083545 -0.014629048 0.019106628 -0.016181206
0003b0 9c bd 1b bb 08 7f 2d 3c 68 9a 99 bb 5c 96 03 3d
       -0.002376414 0.010589369 -0.004687596 0.032125816
0003c0 e6 ff 9b 3c d2 c3 5f bc 73 a2 39 bc cc 61 d1 bb
       0.01904292 -0.013657527 -0.011330235 -0.006389832
0003d0 61 91 f2 3b 70 7d 39 bc 9d 3d cf 3c 02 58 2d 3c
       0.0074025844 -0.011321411 0.025297934 0.010580065
0003e0 ef e7 e1 3c 4e 8e d1 3c 38 30 30 bd fa 13 02 3d
       0.027576415 0.025580551 -0.043014735 0.031757332
0003f0 f6 fc b6 bc f3 6f 9f bb 83 f8 65 bc 20 cf 9f 3c
       -0.022337418 -0.0048656403 -0.014036301 0.019507945

action_model._continuous_distribution.mu.bias f4 [12]
000000 76 6e 6a 3c 58 2b 04 bc a2 c0 d4 3b bc a3 5a 3c
       0.0143085625 -0.008066975 0.00649269 0.013344701
000010 77 00 21 bd 9e dc 5f bc 57 83 fe 3b 62 56 62 3c
       -0.039307084 -0.013663439 0.007767122 0.013814541
000020 25 b8 de 3b f2 cf 03 bc 67 76 8c 3c 1a c4 a2 3c
       0.006796854 -0.0080451835 0.017146302 0.0198689

onnx::Div_51 f4 [74]
000000 50 b1 6f 3c 11 6b 70 3e 82 92 40 3e e4 93 3c 3e
       0.014629677 0.23478343 0.18805888 0.18415791
000010 6d 8e 86 3c f6 87 c8 3c fe 64 66 3b f6 90 64 3c
       0.016425336 0.024478894 0.003515541 0.013950577
000020 f5 49 6a 3d ad 2b ba 3d 4e 2c d0 3b 27 a9 9e 3a
       0.057199437 0.09090362 0.006352938 0.0012104855
000030 52 e0 b5 3a 6c b0 d3 3a 0c 6a 1d 3c f5 aa 87 3b
       0.0013876057 0.00161506 0.009607803 0.0041402527
000040 41 2c 3a 3e 40 6e a2 3a ff 12 d5 3c 8f 67 b2 3a
       0.18180944 0.0012392476 0.026010035 0.0013611185
000050 7a 25 a5 3a 0d cf e9 3b 7a 97 1b 3c 4e fe 8c 3c
       0.001259967 0.007135278 0.009496564 0.017211106
000060 64 fd 93 3e 0f 3d a8 3a 39 7e d5 3b d1 a6 97 3a
       0.2890426 0.001283558 0.006515291 0.0011570101
000070 c9 8b e0 3a fd 21 d4 3a 6b 66 1c 3c c2 fd 8a 3b
       0.0017131503 0.0016184446 0.009545903 0.004241676
000080 de 9c 40 3e be 26 b7 3a 13 fe d5 3c 7b 7c c3 3a
       0.1880984 0.0013973338 0.026122129 0.0014914417
000090 ca a9 ba 3a fb 6d eb 3b 35 99 19 3c 9b a6 8d 3c
       0.0014241275 0.0071847416 0.009374906 0.017291358
0000a0 01 8c 2c 3e a5 11 a8 3a c9 ce f9 3b 93 47 94 3a
       0.16850282 0.0012822641 0.0076235277 0.0011312835
0000b0 4d 4f d5 3a fd f0 d1 3a 30 45 1c 3c a6 a1 a1 3b
       0.0016274244 0.0016017255 0.00953798 0.0049326
0000c0 d8 66 6f 3e d8 8b b1 3a 43 85 d7 3c 7b 1a b6 3a
       0.23379076 0.0013545705 0.026308661 0.001389339
0000d0 fd aa fa 3a 01 bf 7f 3b ed ad 18 3c 55 4a 8b 3c
       0.0019124445 0.003902376 0.009318811 0.017003218
0000e0 a1 c0 34 3e 0b b4 ce 3a 9f 22 00 3c f8 b0 cd 3a
       0.17651607 0.001577021 0.007820754 0.0015693
0000f0 0b 3a be 3a fe 20 d2 3a 71 be 1c 3c 88 b5 a5 3b
       0.0014513148 0.0016031561 0.009566889 0.0050570406
000100 79 a7 39 3e a3 81 a5 3a c1 8c d7 3c f6 67 ae 3a
       0.18130292 0.0012627136 0.026312234 0.0013306129
000110 ca ef bc 3a 2d d7 7e 3b bb fc 19 3c cd 51 8b 3c
       0.0014414724 0.003888558 0.009398635 0.01700678
000120 da 20 3c 3e 04 7b a9 3a
       0.18371907 0.0012930338
