results/packaging_fix_test_23/RobotAgent/RobotAgent-145587864.onnx (onnx, 359274 bytes, 9 tensors)

network_body.observation_encoder.processors.0.normalizer.running_mean f4 [75]
000000 19 71 e7 3f 10 aa 22 c3 32 98 dd 41 30 de 61 bc
       1.808139 -162.6643 27.699314 -0.013785884
000010 80 d5 0e 3e 9b ec 07 bb 97 09 12 3f 58 4c 17 44
       0.13948631 -0.0020740393 0.5704588 605.1929
000020 09 fe fb 45 9c 23 ad c4 08 f8 b6 3f 70 1a 1a 3e
       8063.7544 -1385.1128 1.4294443 0.15049148
000030 5a 33 ba 3c 8b f4 1d be 09 26 6f 3f 1a 3a 67 3f
       0.022729564 -0.15425317 0.9341741 0.9032303
000040 e3 a2 05 3d 42 56 e3 3c bd fe 3a 3e 5e ae e6 3d
       0.032626044 0.027751092 0.18261237 0.11263727
000050 7f 8d 26 be a2 1a a4 3d c4 09 68 3f 58 5d 5b 3f
       -0.16264914 0.08012892 0.906399 0.85689306
000060 89 cf b1 bd de f0 07 bf 13 51 d2 bd b6 0e 34 3e
       -0.08682162 -0.5310191 -0.1026937 0.17583737
000070 38 85 ca 3c 1a 9e 74 bd 2c d2 6f 3f 0c a6 67 3f
       0.024721727 -0.05972109 0.9368007 0.9048774
000080 98 ca dd bd d8 01 be 3d 60 10 23 3e d2 be 1e 3e
       -0.10829657 0.092776954 0.15924215 0.1550248
000090 41 d5 8e bd 63 8c 35 3d e1 15 6a 3f 75 7c 5e 3f
       -0.06974269 0.044323336 0.91439635 0.86908656
0000a0 6d 55 d0 bd ef 25 3f bd e3 ec e1 bc 78 48 b9 3d
       -0.10172544 -0.046667036 -0.027578777 0.090470254
0000b0 e2 ba 44 bc ca ab 2c be 7f e6 6a 3f a2 32 6c 3f
       -0.012007447 -0.16862407 0.9175796 0.9226476
0000c0 b3 68 4d 3d 0b ec f8 3d a8 a4 2e 3e f5 f2 dc bb
       0.050148677 0.121543966 0.17054999 -0.00674283
0000d0 1d d0 17 be 99 31 65 bd f5 06 3e 3f 09 f7 5b 3f
       -0.14825483 -0.055955503 0.74229366 0.8592382
0000e0 bd 78 e2 3c 64 a7 9a be 44 9a 7c be e3 66 04 3e
       0.027645463 -0.30205834 -0.24668223 0.12929873
0000f0 45 63 80 3c 7e b0 3d bd 67 0a 70 3f 1a e3 67 3f
       0.015672335 -0.046310894 0.9376587 0.90580904
000100 2b 48 aa bd 21 3d d1 3c 2a 46 d1 3d 99 a0 14 3d
       -0.08314546 0.025541844 0.10218461 0.03628597
000110 64 d8 4a bd 64 4b 01 ba ba 28 46 3f 6d 0a 5d 3f
       -0.049522772 -0.00049321936 0.77405894 0.86344033
000120 a2 dc ae 3b 82 75 6f bb 55 8f 00 be
       0.00533636 -0.0036538546 -0.12554677

network_body._body_endoder.seq_layers.0.weight f4 [256, 75]
000000 e6 0a 3f 3e ed a3 64 bd 73 50 8a bd 9d 94 7c 3d
       0.18656501 -0.055820394 -0.06753626 0.061665166
000010 d2 ac 80 39 e4 57 94 3d a5 b4 6d 3d e0 09 8e bc
       0.00024542824 0.07243326 0.058033604 -0.017338693
000020 c8 35 ae 3d cb e5 9d bc b7 11 12 3e 5d d9 14 be
       0.08506352 -0.019274613 0.1426457 -0.14536043
000030 bf d0 ce 3d 32 6d 89 3c 07 22 86 bd 29 13 b1 3d
       0.10098409 0.016775701 -0.06549459 0.08646233
000040 d0 f7 9a bd 1e a1 7d 3e 06 10 d7 bd 4d 7f f3 bd
       -0.07566798 0.24768493 -0.10501103 -0.11889515
000050 c3 d1 7d bd 68 60 7d be 9e f5 aa 3d 0a 24 15 3d
       -0.061967622 -0.24743807 0.08347629 0.036411323
000060 c4 13 8f 3c 3e 49 4a be de 0a 0b 3e c4 61 9f be
       0.01746548 -0.19754502 0.13578364 -0.31129277
000070 7a b9 03 3e d3 27 2b bd 50 ec 68 be 9e 63 32 be
       0.12863722 -0.041786026 -0.22746396 -0.17420813
000080 0f 7e 0b be 8a dc b8 3e cd 00 f1 3d fa d5 08 be
       -0.13622306 0.36105758 0.11767731 -0.13362876
000090 9d 3f 96 3d a1 6b e7 bd ce 9a 88 3d 3f f2 a2 3c
       0.07336352 -0.112998255 0.06670152 0.019890903
0000a0 bc 50 9d 3d 1e 8d ae bd 9f 86 50 3d a0 f5 ac 3e
       0.076814145 -0.0852301 0.050909635 0.33781147
0000b0 6d f6 a2 3e 95 55 ab 3e b9 69 fa 3d 59 04 11 be
       0.31828633 0.3346373 0.12227196 -0.14161815
0000c0 4c b0 ba 3d b5 55 8a 3d e8 65 df 3a 37 cd 0a 3e
       0.09115657 0.067546286 0.001704392 0.13554846
0000d0 ca 32 2a bd 67 3d 52 be c8 b0 0e 3e 85 21 11 3e
       -0.041552342 -0.20531236 0.13934624 0.14172943
0000e0 2d 47 51 3e 2b 51 dc bd 80 2b a6 be 7d 47 48 3d
       0.20437308 -0.10757669 -0.32455063 0.0488963
0000f0 80 66 91 3d 7b 17 7b be 50 03 71 bd e2 31 30 3e
       0.070996284 -0.24520676 -0.05884105 0.17206529
000100 5f 6f e7 bc e6 dc 2e 3e d1 1a 8c 3e c7 6e 17 bd
       -0.028251348 0.17076454 0.2736421 -0.03697088
000110 9e 11 ab be 3e 94 22 be 61 4e 4e bd 7b 68 88 3e
       -0.33411878 -0.15876862 -0.050367717 0.26642212
000120 9d 7d 5d 3e 7c 7c 2c bd 88 6a 73 3e 40 f4 9a 3e
       0.21629949 -0.042110905 0.23771107 0.30264473
000130 df 6e 61 bb 67 51 a4 3c 99 6d 63 be a1 be 71 3e
       -0.003439836 0.020058347 -0.22209777 0.23607875
000140 cc 5d 38 3d d1 26 4b 3d eb 9e 44 be 6e 1b af 3d
       0.045011327 0.049597565 -0.19201247 0.08550154
000150 78 17 27 bd d2 0c 8e bb a8 3e 9c be 58 23 3b be
       -0.040793866 -0.0043350244 -0.30516553 -0.18275201
000160 68 6b 00 bd 10 aa 53 bd 4b 41 bb bd e4 85 02 bd
       -0.03135243 -0.051675856 -0.09143313 -0.03186597
000170 67 fc ae 3e 9c a0 0d 3e f8 31 ac bd d2 d8 b0 bd
       0.34176943 0.13830799 -0.08407968 -0.08635105
000180 d3 3f 20 be 91 c0 26 bd 8f 88 24 be 76 cb 3f 3c
       -0.15649347 -0.04071099 -0.16067718 0.011706224
000190 3b 57 8d 3c ba 67 8b bd 2c 51 34 be 17 5f 21 3c
       0.017253509 -0.06806894 -0.1760909 0.009849331
0001a0 f1 d4 fa ba 85 39 65 bd f8 13 1a 3e 8e 72 d5 bd
       -0.0019136948 -0.055963058 0.1504668 -0.1042224
0001b0 ea 29 6c 3e 82 7e ce 3c 97 5f 88 bd 95 e7 be bc
       0.23062864 0.025206808 -0.06658857 -0.023303786
0001c0 0f 1f 84 3e 8e fe 13 3c f0 fe 1c be 2e 3e 22 bd
       0.25804946 0.009032859 -0.15331626 -0.03961008
0001d0 6a ae 3c be 51 7f f6 bd e3 4b 89 3d fd 73 0b 3e
       -0.18425909 -0.120360024 0.06703927 0.13618465
0001e0 05 e7 e0 3d 76 c1 2b 3e e0 8f 3f be 5d 3d 80 3e
       0.109815635 0.16773018 -0.18707228 0.25046816
0001f0 f5 6a 4c be f1 b0 b0 3c f1 88 88 be 9d 4a 95 3d
       -0.19962676 0.021568747 -0.26666978 0.07289622
000200 83 7e e6 3d 2f b2 27 3d 30 7b 2a be ab 50 14 be
       0.11254599 0.040941413 -0.16648555 -0.14483897
000210 bc b4 a8 bb ec 78 ad bd a6 31 4c ba 55 2d c4 3c
       -0.0051484983 -0.0847033 -0.00077893806 0.023947397
000220 20 84 6a 3d 41 99 8d bd 3c 37 7b bd 4c d4 3b be
       0.05725491 -0.069139965 -0.061331972 -0.18342704
000230 07 9f c8 3d 33 ab 45 3d fd dc cc bd 4e db 09 3e
       0.09795957 0.04825897 -0.10003088 0.13462564
000240 6f fe a0 be f0 65 47 be dd c3 27 3e f2 61 32 3d
       -0.31444117 -0.1947248 0.1638331 0.04355044
000250 b0 e1 30 3e 5c cd b0 bd e0 7b d0 3d c8 98 22 3e
       0.17273593 -0.08632919 0.10179877 0.15878594
000260 d3 24 22 3e e8 8a ed be 72 31 aa bc 3e 0f 22 bd
       0.1583436 -0.4639504 -0.02077553 -0.039565317
000270 ba 3e 31 be 11 74 f8 3d a6 a6 e0 bd 4c ac 0a be
       -0.17309085 0.12131513 -0.10969286 -0.13542289
000280 ed c6 5e 3d 9f 61 56 3e 59 af 87 bc 56 fa 0c be
       0.05438893 0.20935677 -0.016563104 -0.1376737
000290 30 45 1f be a6 58 a0 3e 5c a2 1b be 61 a6 7f bd
       -0.15553737 0.31317633 -0.15198654 -0.06241453
0002a0 5f 2e 09 be d4 bc 3b bc 6e 3c 19 3d fa 6d 93 bd
       -0.13396595 -0.011458594 0.037411146 -0.07198711
0002b0 df 37 bc 3d b5 37 09 3d 92 c6 f0 3d 8b fd 9c bd
       0.09190344 0.033500392 0.11756624 -0.07665547
0002c0 fc 01 22 be ec e6 75 bd a4 64 08 be c7 a4 7c 3d
       -0.1582107 -0.060034677 -0.13319641 0.06168058
0002d0 4b 67 00 3e b4 e0 9c bd 2e d3 31 be d3 84 ea bd
       0.12539403 -0.07660046 -0.17365715 -0.114511155
0002e0 2a 82 b7 be bf f9 57 3d f3 44 ad 3d 1e f3 6c be
       -0.35841495 0.05272841 0.08460417 -0.23139617
0002f0 88 c8 14 bd 5e 47 74 3d 01 81 5e 3d d5 d3 80 bc
       -0.036324054 0.059638374 0.054322246 -0.01572601
000300 e8 f5 00 be 18 11 27 bc 8c e0 f8 3d 49 53 11 bc
       -0.12593806 -0.010196947 0.12152204 -0.008869954
000310 b4 09 ce 3d 4e 7c 25 be 25 ec 17 be 8f ea 9e 3d
       0.100604445 -0.161607 -0.14836176 0.07759582
000320 6c d7 5f bd e1 21 3c 3e 37 26 28 bd ec 96 81 be
       -0.0546488 0.18372299 -0.04105207 -0.25310457
000330 ef 49 41 3d e9 8a 01 3d 9d 7f 56 bd 79 a5 46 3e
       0.04718965 0.031626616 -0.052367795 0.1939906
000340 48 75 a2 3e 3d b6 4b be ba 18 81 bd 9f 4c 55 3d
       0.31730103 -0.19893737 -0.06303544 0.052075025
000350 52 08 02 3d 0e af 75 be 1c c2 9d 3d 85 64 a2 3d
       0.031746216 -0.2399256 0.07703039 0.07929329
000360 37 d5 41 be 59 93 5e 3a 5d 84 d4 bd d8 80 66 bd
       -0.18928991 0.00084905844 -0.10376809 -0.05627522
000370 47 3b cf bd e4 56 6a be 2b 67 e2 bc e6 11 6d bd
       -0.10118728 -0.22884709 -0.027637085 -0.057878397
000380 2e 63 3f 3e f4 f0 9b 3e 3a e1 93 3d 2a 32 07 3e
       0.18690178 0.3045727 0.07220693 0.1320273
000390 24 07 07 3e df 2a 0c be 8a 55 d2 bc bd 10 7d 3e
       0.13186318 -0.13688229 -0.025675554 0.24713416
0003a0 f8 0d de bd bf b1 d0 3b b2 24 e7 3d 8a cd 87 3d
       -0.10842508 0.0063688452 0.11286296 0.06631
0003b0 5c 52 73 be 54 df 0a be ec 50 9a 3d 3e dc 8b 3c
       -0.23761886 -0.13561755 0.07534966 0.017072793
0003c0 c9 9a 89 be c2 6c 10 be 30 18 15 be 32 cd 9b bd
       -0.26875904 -0.14103988 -0.14560008 -0.07607497
0003d0 57 6e 58 3d 73 ac a4 3b 0d 3e a5 3d dd 68 02 3d
       0.052839603 0.0050254404 0.08068476 0.031838287
0003e0 56 6f e9 bc cc 0c 6a 3c 82 24 87 3e a6 df f4 bd
       -0.028495472 0.014285278 0.2639504 -0.1195672
0003f0 68 86 4e bd ee eb 9c 3e 0c ad 8a bd 35 73 89 bd
       -0.05042115 0.3064875 -0.06771287 -0.06711427

network_body._body_endoder.seq_layers.0.bias f4 [256]
000000 19 48 ef bc 6a 90 73 bd 42 04 71 bd d5 83 22 3d
       -0.029209184 -0.059463896 -0.05884195 0.039676506
000010 ca a1 5f bd af bd 8f bd 5d ea e4 3c 60 43 41 3d
       -0.054597653 -0.07018601 0.027943784 0.047183394
000020 1c 61 5f 3d 17 a8 c7 bc 87 72 be bb 54 dc 40 bd
       0.05453597 -0.024372144 -0.0058119926 -0.04708512
000030 aa 2e 9f bb 99 a6 d4 bc ed 06 9b bd c8 98 c0 3c
       -0.0048578577 -0.025958346 -0.0756968 0.023510352
000040 85 a1 66 3c dc 75 77 3d 40 f9 4a bd f1 ec a4 ba
       0.014076595 0.060415134 -0.04955411 -0.0012582821
000050 87 73 c8 bd 37 6a 5c 3d 0f dc 94 bd 95 55 37 3d
       -0.0978766 0.053812232 -0.07268535 0.04475935
000060 4e 4d 0d bd f9 76 c8 bd 69 02 f6 3d fa 6e 66 bd
       -0.03449755 -0.09788317 0.120121785 -0.05625818
000070 c9 64 25 bc 6b 5a a3 bd 1c 50 18 bd 57 32 da bc
       -0.01009483 -0.0797623 -0.037185773 -0.026635332
000080 e1 d7 7a bb 18 bd de bc 66 3b 85 3d 78 df 1f 3c
       -0.0038275647 -0.027189776 0.0650547 0.009757869
000090 de fa 11 be 49 67 2b bd 7f 89 65 3b 1a 5f 17 be
       -0.14255854 -0.041846547 0.003502458 -0.14782372
0000a0 50 f4 f2 bc 9c 9b 89 bc 2d 62 22 bc d8 2b 51 bd
       -0.029657513 -0.016797833 -0.009911102 -0.051067203
0000b0 2f 9e 9b bd df 9e 21 bc 08 a6 71 bd 22 49 2d bd
       -0.075985305 -0.009864538 -0.05899623 -0.042306073
0000c0 0f 95 7f bd 60 fb 7a bd f3 df fc bd 4f 69 23 bd
       -0.062398013 -0.061274886 -0.123474024 -0.039895352
0000d0 3f e5 23 3d 18 a2 8b 3c 2f 2f b0 3d ca b7 4a bd
       0.040013548 0.017045066 0.086027496 -0.04949168
0000e0 e2 15 b0 3c 02 b1 b5 bd 95 a1 bf bc ef 8a 9a 3d
       0.02149481 -0.08871652 -0.023392478 0.07546031
0000f0 0d 54 66 bb 54 fa f7 3a 3e 62 49 bd c6 35 80 3d
       -0.0035145313 0.0018919208 -0.049165957 0.062602565
000100 ee b5 92 bc 63 13 1f 3d 84 e1 41 3d 23 71 6c bd
       -0.017909016 0.038836848 0.04733421 -0.057725083
000110 8f 26 cf bd a6 ac d6 bd 6a 15 2d be 60 2a 73 bc
       -0.10114776 -0.10482149 -0.169027 -0.014841646
000120 b2 f1 99 3c e7 f4 88 bd 3c 9d 37 bb 67 7b fc 3c
       0.018792007 -0.066873364 -0.0028017303 0.030820562
000130 7b 0f 82 bd 1e 69 4c 3c 92 5e f8 3b 7c 84 6b 3d
       -0.06350609 0.012476234 0.007579633 0.057499394
000140 a8 b6 d9 3d 09 ed 3a 3d 14 e5 ac bd dc 84 1d 3c
       0.10630542 0.04563621 -0.08442131 0.009614196
000150 59 8a 44 bd bc 5c c9 bd 02 9b 66 bd 4d 57 ab 3d
       -0.0479835 -0.09832141 -0.05630017 0.08366261
000160 3a 43 c7 3d cb f4 c6 bd 5c f4 22 bd 7f aa 05 bd
       0.09729619 -0.09714659 -0.03978382 -0.0326333
000170 51 54 1c ba 37 cf 35 bd 4a fb 26 bd 5d a4 aa 3d
       -0.0005963492 -0.04438707 -0.04076699 0.08332131
000180 05 1d 18 bc 20 1e d6 bc cb 55 1e bd 6f b7 29 bd
       -0.009284263 -0.026137412 -0.038656037 -0.0414347
000190 4b 25 5a bb 20 a2 ba bd 7d bd d0 bd 50 ab 1b 3d
       -0.0033286388 -0.09112954 -0.10192392 0.038005173
0001a0 34 57 f9 bd a6 64 7f bc b3 ea 38 3d f9 7a 23 3d
       -0.12174836 -0.015587961 0.0451457 0.039912198
0001b0 78 f0 b8 3c 55 56 ea bd ba 2d 31 bd 69 ac fb bd
       0.022575602 -0.11442248 -0.0432565 -0.12288744
0001c0 c2 25 46 bd 42 a1 4b bc c2 88 ed 3c f1 fd 96 bd
       -0.048375852 -0.012428584 0.028995875 -0.07372654
0001d0 90 0b 0d bd 4d 6a 8e 3c 5f 54 97 bb bc e0 e7 bd
       -0.034434855 0.017384673 -0.004618212 -0.113221616
0001e0 e7 75 3c 3c 8b 56 23 be a7 7d 3f bd 8b e4 c7 bc
       0.0115027195 -0.15950982 -0.04675069 -0.02440097
0001f0 a7 1e c0 3c bd 47 ab bd ae 64 e3 3b d1 4f 41 bd
       0.023452116 -0.08363292 0.006939492 -0.04719526
000200 35 4d 99 bd 66 b7 0d 3d c9 e0 19 3d e8 cc e5 bc
       -0.07485429 0.03459873 0.037567887 -0.028051808
000210 20 e9 e7 bc 6e 4e 99 bd ea 59 94 3d f8 ea 36 bd
       -0.028309405 -0.074856624 0.07243712 -0.044657677
000220 c9 97 b7 3c 20 08 49 3d f2 8c c9 bc 81 86 80 bd
       0.022411244 0.049080014 -0.02460334 -0.062756546
000230 3a 39 d9 bc 68 c6 9b bd 18 b7 70 3d 66 19 87 bd
       -0.026516546 -0.07606202 0.05876836 -0.06596641
000240 2d de 6f bc 57 bb ca bd 22 9d 0c bd 70 6e fd bd
       -0.014640373 -0.098990135 -0.03432954 -0.1237458
000250 52 17 aa bd de 31 29 be ac 8f 31 bc d3 8e 9e bd
       -0.08305229 -0.16522929 -0.010837477 -0.07742085
000260 ac 33 55 bb e4 f8 63 bd f3 97 d2 bc e1 46 0d 3e
       -0.003253202 -0.055657282 -0.02570722 0.1379657
000270 4f bc 73 bd 3b db d2 bd 31 5c 35 3d 0c 73 39 bd
       -0.059505757 -0.10295721 0.044277374 -0.045275733
000280 04 d7 6e 39 82 d1 81 bd 78 b0 95 bd 84 e7 1b bd
       0.00022777548 -0.063387886 -0.07309049 -0.038062587
000290 5c 64 cb bc 34 b9 79 bc f9 31 22 bd 28 4d 4b bd
       -0.024828129 -0.01524191 -0.03959844 -0.04963413
0002a0 12 92 01 be a9 f7 c0 bd d7 25 0f be 81 f8 61 bd
       -0.12653378 -0.094222374 -0.13979279 -0.055168632
0002b0 ee 92 6a 3d fe 33 06 3d 6f d7 dd 3c 2f a5 f3 bd
       0.05726903 0.032764427 0.027080266 -0.11896741
0002c0 2d 5e 88 3d 60 2d 5c 3b 05 42 02 3d 59 de d3 3b
       0.066585876 0.0033596382 0.031801242 0.006465715
0002d0 94 0c 85 3d 38 8f bd bc 35 bc de 3c 08 ce 6a bd
       0.0649654 -0.023139581 0.027189353 -0.057325393
0002e0 ef b7 32 bd b3 c9 f1 bc 2e 32 a4 3c 45 a1 c3 bd
       -0.043632444 -0.029515123 0.020043459 -0.09552244
0002f0 41 6e 2b 3d 68 fb 46 3d 21 71 33 bd 10 96 b3 bd
       0.041853193 0.048579603 -0.04380906 -0.087688565
000300 b8 b0 11 bd 3b 8d f6 ba 0c 84 1a be 82 13 fb bd
       -0.035568923 -0.00188104 -0.15089434 -0.1225958
000310 c7 ab a6 3c 72 da 5e bc f0 71 d5 bd a7 a7 b7 bd
       0.020345582 -0.013601886 -0.104221225 -0.08967524
000320 fe 45 7a bc bf 54 0d bd df 91 5f bc 73 1d 9e 3d
       -0.0152754765 -0.03450465 -0.013645618 0.07720461
000330 85 8c 44 3d 60 ba 26 bd b9 a8 99 3d 48 de d4 bd
       0.047985572 -0.040705085 0.075028844 -0.10393959
000340 b6 86 f3 bc eb 61 f7 3a bb ad cf 3c 19 84 ed bd
       -0.029727321 0.0018873786 0.025351396 -0.11597461
000350 43 eb 7e bd c1 e3 40 bd 17 f1 9a bd 5b c0 9d 3c
       -0.06223608 -0.047092203 -0.075655155 0.019256761
000360 fd e7 fb bb 3d 3c 06 bd be cb c2 bc b6 7d b3 3c
       -0.0076875673 -0.03277229 -0.023778792 0.02191053
000370 a4 35 93 bd 44 f1 61 3d 76 4e 90 bd 18 af b0 ba
       -0.071879655 0.05516173 -0.07046215 -0.0013479916
000380 7c c6 c1 bc 71 55 0d bd 0a 0e e6 3c 32 e2 11 be
       -0.023654215 -0.03450531 0.028082866 -0.14246443
000390 a8 39 e0 3c 07 13 26 3c e6 71 59 bd 66 21 80 3d
       0.027371243 0.010136372 -0.053087138 0.0625637
0003a0 18 00 b4 3c d4 99 98 bd 76 a1 09 be 95 87 27 bd
       0.021972701 -0.074512154 -0.13440499 -0.040900785
0003b0 cb c4 5c bd bc 0a 78 bd 42 69 40 bd 4d 86 63 bd
       -0.053898614 -0.060557112 -0.04697538 -0.055548
0003c0 cc 0b 6c bd ae ed e6 bb f2 8b ae ba fd 28 f4 bd
       -0.057628438 -0.0070473766 -0.0013316853 -0.119218804
0003d0 f4 02 c6 bb bf 45 2f bd 32 3e b9 bc 3b c6 9a bd
       -0.0060428325 -0.042791124 -0.022612665 -0.07557341
0003e0 33 51 57 3d 0c 0b 2e bc 30 47 50 3c 21 c9 9c 3b
       0.052567672 -0.010622751 0.012712285 0.0047847186
0003f0 37 83 c5 3b 47 ba cc bb dd c4 8b bd 8a 07 3a bd
       0.006027605 -0.006247792 -0.06824658 -0.045417346

network_body._body_endoder.seq_layers.2.weight f4 [256, 256]
000000 07 d7 db bc fe bb 1a be 14 f7 25 be 74 33 5a bd
       -0.026835931 -0.15110776 -0.16207534 -0.053271726
000010 09 32 ab bd 37 57 bc 3d 7c 2f 36 3e 22 9d 0d 3e
       -0.08359153 0.091963224 0.17791551 0.13829473
000020 39 47 89 bd 6c b7 a9 3d be bb 05 3e 3d 92 aa bd
       -0.06703038 0.08286938 0.13059899 -0.08328674
000030 9e 9b 82 bd 24 88 08 3d b7 1d 1c 3e c1 79 20 3e
       -0.06377338 0.03333296 0.1524571 0.15671445
000040 ad 85 a7 bd 07 c0 6a 3d 26 95 87 3c f8 47 1c be
       -0.081797935 0.057312038 0.016550612 -0.15261829
000050 d3 e6 e9 bc 2b 7e 01 bd 79 bc d8 bd 36 a0 35 bd
       -0.028552448 -0.031614464 -0.10582823 -0.044342242
000060 0b f9 30 bd 9c 35 3e 3d 47 24 37 3b cf 5c de 3d
       -0.043206256 0.046437845 0.0027945207 0.108575456
000070 2b c5 37 3d e9 6f 7c 3d 69 12 31 3d a3 02 60 3d
       0.04486577 0.061630163 0.043230448 0.054690015
000080 3c 52 6d 3d fe aa 52 be f5 84 47 bd 20 36 9f 3d
       0.057939753 -0.20573041 -0.048710782 0.077739954
000090 9d e0 f2 bc ce 4a 1b be 70 0d f4 3c 05 b8 1f be
       -0.02964812 -0.15165254 0.029791564 -0.15597542
0000a0 6c b5 ea 3c 9b 9e 1c be 14 e5 00 3e 35 bc 80 3d
       0.028650962 -0.15294878 0.12587386 0.06285898
0000b0 77 df 2c 3e bf 66 fb 3d a7 6f 87 3d a6 94 db bd
       0.1688212 0.12275457 0.06613093 -0.10721712
0000c0 8b 21 19 3d ef 87 d0 bd 6a c9 28 bd fc 29 25 3e
       0.037385505 -0.10182177 -0.04120771 0.16129297
0000d0 cd c0 c7 3b 64 8f a4 be f6 8d d2 bd 88 20 a0 3c
       0.0060959817 -0.32140648 -0.10280983 0.019546762
0000e0 9d e8 b2 bd c3 c7 f5 3c b3 f9 1b 3e e2 f5 6a 3d
       -0.08735774 0.03000248 0.15231971 0.0573634
0000f0 50 ec 10 be da e1 59 3d 4a 43 8d bd 86 f9 56 be
       -0.14152646 0.053193904 -0.068976 -0.20993623
000100 88 4c 48 3d 0e eb 3c be 9f 38 23 3c d4 ee b1 bd
       0.04890111 -0.18449041 0.00996223 -0.08688131
000110 20 60 23 be 46 d3 93 bd 75 15 11 bc ce 3c 74 bb
       -0.15954638 -0.072180316 -0.008855213 -0.0037267688
000120 37 69 8e be 96 93 5a 3d 5d d1 65 3e ac 14 a1 3d
       -0.27814648 0.053363405 0.22443147 0.07865271
000130 94 67 e4 bd 8e 24 9c 3d 20 96 ea bc 70 fa b8 bd
       -0.111525685 0.0762416 -0.028636038 -0.09032142
000140 a8 71 ff bd 52 d6 5a 3d 47 7a a4 3d 2f 83 3c 3e
       -0.1247285 0.053427048 0.08031135 0.18409418
000150 5e ff 24 bd de 38 07 3e 81 1b f5 3c ad d2 c4 3d
       -0.0402826 0.13205287 0.029920341 0.09610496
000160 d5 ac 06 be c5 de 0c be c7 1e 9e bc c9 bb be be
       -0.13151868 -0.13756855 -0.019301785 -0.37252644
000170 d5 97 93 bb 7d 96 3a be 48 84 e2 3d a4 f2 41 3d
       -0.004504184 -0.18221469 0.11060387 0.04735054
000180 f1 42 4e bd 49 4c 71 3e 55 c3 f4 3d 93 b4 55 3d
       -0.05035681 0.23564257 0.11951319 0.052174162
000190 ea c6 c7 bd b0 25 ab bd c0 05 35 bd bf 71 8b bd
       -0.09754737 -0.08356798 -0.044194937 -0.06808805
0001a0 b3 2f 44 be a7 6c 69 bd 9a 45 00 bc b2 f5 8e be
       -0.19158821 -0.056988385 -0.007829094 -0.27921826
0001b0 6b 48 e4 bc b8 c4 3c 3e b3 d5 6d 3d a3 5b a6 3c
       -0.027866563 0.18434417 0.058065128 0.020307368
0001c0 f0 c1 90 3d 86 35 64 3e 1b 95 61 be a6 b3 48 bd
       0.07068241 0.22286043 -0.22029535 -0.04899945
0001d0 c6 8b 2c be 5f b0 b3 bd a6 1a 0d 3d f5 fe 3c 3c
       -0.16850194 -0.087738745 0.034449242 0.011535396
0001e0 37 7e 51 3e 8c eb de bd 9f 51 60 bb c6 51 89 bd
       0.20458303 -0.10884771 -0.0034228337 -0.0670505
0001f0 d7 d8 1e 3d a7 68 0c be a2 76 97 bd 39 ba 19 3e
       0.038781013 -0.13711797 -0.07395674 0.15012445
000200 46 50 db bc 08 0e e6 bc 2f fb 13 bd c8 55 a3 bd
       -0.026771676 -0.028082862 -0.03612822 -0.07975346
000210 50 21 4e bd 12 2e f7 bd d3 7d 24 bd 0d e4 d7 3c
       -0.050324738 -0.12069334 -0.040159058 0.02635386
000220 d5 4c bb 3d 44 eb 01 3d ac e7 2b 3e 82 97 fa ba
       0.09145514 0.031718507 0.16787595 -0.0019118639
000230 4a b3 8f bd 9a 03 4d 3d 1a 09 c1 3c 60 52 dd 3d
       -0.070166185 0.050052263 0.02356391 0.108067274
000240 65 e7 a2 bd 33 8b f5 bc e5 bd 5e bc ec 1b ef bd
       -0.07954291 -0.029973602 -0.013595079 -0.116752476
000250 30 75 10 3e 85 28 b1 bd 9c f6 b2 bd 80 68 52 bd
       0.14107203 -0.086503066 -0.08738443 -0.05136919
000260 7c a6 9d 3c f0 3b f2 3c 88 d0 eb bb 38 f0 d8 3d
       0.019244425 0.029569596 -0.0071964897 0.10592693
000270 d7 4f df bc 63 f5 8c bd ae cf 95 3d a7 78 87 bd
       -0.02725975 -0.06882741 0.073150024 -0.066148095
000280 4a 04 04 3e 49 db f5 3d 51 fd 41 3e f3 9e 1c be
       0.12892261 0.12004716 0.18944289 -0.1529501
000290 da f5 bd bd cf 48 78 3d 09 ea 7c 3d 91 b5 4c be
       -0.09275408 0.06061631 0.06174663 -0.19991137
0002a0 1b 7c 11 3d 72 64 ca bd 16 12 88 bc aa 3d ca bd
       0.035518747 -0.0988244 -0.016610187 -0.09875043
0002b0 0e 38 0b bd 67 9d ea bc 27 03 a8 3d 66 6e ba 3d
       -0.033989005 -0.028639508 0.08203726 0.09103088
0002c0 80 fa 39 3e 28 19 a7 3c ca bc 2b bc b0 0e a1 bc
       0.18161964 0.020397738 -0.010482023 -0.019660324
0002d0 be a6 3e 3d 5f 73 09 bd f4 67 56 bd dc 3b b2 bb
       0.046545736 -0.033557292 -0.05234523 -0.0054392647
0002e0 a9 5b 2b be f0 8c cc bd 65 3c b7 3d 53 24 39 be
       -0.16734184 -0.09987819 0.08947066 -0.18080263
0002f0 28 76 ab bd bb 2f a0 bd b3 4e 0d bd 15 4f 68 be
       -0.08372146 -0.07821604 -0.03449888 -0.22686417
000300 d0 fa d3 bd cb fb 54 3d bb 42 99 3d ab 7f f7 bd
       -0.10350573 0.05199794 0.07483431 -0.120848976
000310 dc 87 88 3d 5b 7c 92 bd 79 8f a7 bd 2d 95 ac bd
       0.06666538 -0.07152625 -0.08181662 -0.084268905
000320 76 3a 0f be 54 6b e9 bd 91 a8 f1 3d 1d 4f 87 bc
       -0.13987145 -0.11397424 0.117997296 -0.016517216
000330 ad 76 21 3c fb c2 e0 bc 21 43 96 bd 11 cb 04 bd
       0.009854955 -0.027436724 -0.073370226 -0.03242022
000340 23 e2 e6 bd d9 58 c4 bd 9c 1d 30 3e 5b 58 81 3b
       -0.11273601 -0.09587259 0.17198795 0.0039473004
000350 27 c0 b2 bd 7b b3 e2 bc d3 18 ca bd 6b 48 67 3d
       -0.087280564 -0.027673474 -0.09868016 0.056465548
000360 41 1e 54 be 8d 76 0c be 73 d5 b6 bc ad b4 44 3e
       -0.20714666 -0.13717099 -0.022318577 0.19209547
000370 6d 33 12 be 64 a0 a6 be 0e db f8 3c 28 99 53 3d
       -0.1427743 -0.32544243 0.03037789 0.051659733
000380 68 ef d2 bc d3 ca d2 bd e3 5e 69 bd b5 a4 02 3c
       -0.025748923 -0.10292592 -0.056975257 0.0079738395
000390 2c 3e 12 bd 20 f2 c2 bc c1 91 02 3d 17 b8 23 3d
       -0.035703823 -0.023797095 0.031877283 0.039970484
0003a0 2e 50 b2 3d 73 2a d3 3d 9f 61 5d 3d ba 5b 07 3e
       0.08706699 0.10310831 0.054048177 0.13218585
0003b0 3c fd 79 3c 70 c2 61 bd c2 02 e7 3c c7 0f 4b 3d
       0.01525813 -0.05511707 0.028199557 0.049575593
0003c0 f4 4f c3 bb b3 c2 da bd 74 9f a1 3d 09 8e 23 3c
       -0.005960459 -0.10681667 0.078917414 0.009982594
0003d0 e4 cb 43 be 2e f5 ac bd 3b 16 3d 3e 8b 3e b8 bd
       -0.19120747 -0.08445202 0.18465512 -0.08996304
0003e0 15 d7 6a 3e 5c 0a a0 bc ab b2 31 bd 86 6a 81 3e
       0.2293361 -0.01953619 -0.04338328 0.25276583
0003f0 e7 95 b5 3c 5e 16 95 3c e5 af c1 bc 43 cf 5f 3c
       0.022166206 0.018199142 -0.023643443 0.013660255

network_body._body_endoder.seq_layers.2.bias f4 [256]
000000 59 72 5b ba f9 d3 f7 3b 7c a3 8c bd 86 21 59 bc
       -0.0008371226 0.007563111 -0.0686712 -0.0132526215
000010 d0 89 2e bc 3f 04 aa 3d e0 de 02 bd de dd ed bc
       -0.010652974 0.08301591 -0.03195083 -0.029036459
000020 f3 46 d8 bc a5 87 0e 3d 23 60 c1 bd 43 57 89 bd
       -0.026401019 0.03479733 -0.09442165 -0.06706097
000030 85 1f 0b bd 83 d3 7f bd 16 7e 8f 3b 57 d3 a2 3d
       -0.033965606 -0.062457573 0.0043790443 0.07950466
000040 83 cb 95 bc c0 fb cd bd a6 ef 96 bd b5 e9 36 bd
       -0.018285519 -0.10057783 -0.07369928 -0.044656474
000050 fe ea a9 bd a3 4f d3 3c e0 bb 18 bd da e8 41 3d
       -0.08296774 0.02579481 -0.037288547 0.047341205
000060 cc 89 a3 bd 1a 18 55 bc bf 10 8c bd 70 20 b7 bc
       -0.07985267 -0.013006235 -0.068391316 -0.022354335
000070 cc 7b 33 bc e6 4f 03 be 48 32 8a bd 5e f0 e1 bc
       -0.010954808 -0.12823448 -0.06747872 -0.027580436
000080 f4 b6 c9 bc e9 d8 51 3d 6c ef 1e bd 44 5c 6e bc
       -0.024623372 0.051232252 -0.03880255 -0.014548365
000090 54 8a bf bd ad e4 b9 3c 8e 4b 70 bd 69 d2 f6 3c
       -0.09352556 0.022692049 -0.058665805 0.030129628
0000a0 44 77 02 3d 01 15 1e bb 40 da f2 3c 03 43 f3 bd
       0.03185202 -0.0024121406 0.029645085 -0.11878016
0000b0 8a d9 1a be a6 10 17 bb c1 a5 87 bd 56 ab e0 bd
       -0.15122047 -0.0023050695 -0.06623412 -0.1097018
0000c0 9a db 1c bd 9c df f0 bc 25 21 98 bd 8c 11 d5 b9
       -0.038295366 -0.0294035 -0.07428197 -0.000406396
0000d0 e0 95 18 bd 67 20 a8 bd c2 06 b8 3b 21 e2 d9 bd
       -0.037252307 -0.08209305 0.00561604 -0.10638834
0000e0 3a 41 82 bc db 0d ad bd 33 7c 22 bd ba b2 8a bd
       -0.015900243 -0.08449908 -0.039669227 -0.06772371
0000f0 c4 1f 8a bd b8 f1 31 bd 5a cb 9e bc cd f9 30 be
       -0.0674434 -0.04344341 -0.019384075 -0.17282791
000100 00 65 db bd c9 e1 67 3d bc 72 cd bb 12 3d 16 bd
       -0.107126236 0.05661181 -0.006269781 -0.036679335
000110 48 44 47 bd 24 86 9d 3c d4 ac c6 bc 64 5f c8 3d
       -0.048649102 0.019229002 -0.024252333 0.09783819
000120 9e 74 05 be 38 df 4a ba 1c ec 29 3c ae 0b 77 bd
       -0.13032767 -0.00077389507 0.010371234 -0.060313873
000130 7e f0 0c 3d e6 0b 02 3c 3c 3a 0a 3d 6d ea 64 3c
       0.03440904 0.007937407 0.033746943 0.013971907
000140 bf ea 83 3d c8 62 a5 3a 89 8c 68 bd f9 98 92 bd
       0.06441259 0.001261794 -0.05677465 -0.071580835
000150 e0 76 45 3d d0 4f 8b 3d 1f ff 55 bd fd ad 04 be
       0.04820907 0.068023324 -0.052245256 -0.12956996
000160 df e6 ad bc 52 f8 44 bd 7f 26 a1 bd a1 28 3f 3d
       -0.021228252 -0.04808838 -0.07868671 0.046669606
000170 7f 9f b2 bd f0 32 78 bd 52 ad 8b bc d8 a1 38 3d
       -0.08721828 -0.060595453 -0.017050419 0.04507622
000180 95 32 08 3d 7b 31 91 bd eb ff 23 bd 9a ec 01 be
       0.033251364 -0.07089516 -0.040038984 -0.12687913
000190 5c c1 b2 3d 04 48 85 3d de 85 7f 3d 33 3e a8 bd
       0.087282866 0.065078765 0.062383525 -0.082149886
0001a0 f7 20 99 bc 4b d4 73 bc 2a ca b9 bd 9c b5 ef bd
       -0.018692477 -0.014882158 -0.09071763 -0.11704561
0001b0 8f d0 9c bd 8e e8 3e bd 4d 50 c0 bd 09 06 a9 bd
       -0.07656967 -0.0466085 -0.09390316 -0.08253104
0001c0 a8 3e 2d bd 0f d9 97 3d dd d3 b0 bd 34 59 12 bd
       -0.04229608 0.074144475 -0.0863416 -0.035729602
0001d0 c1 c4 4f bd 3f 88 95 bd 9a 40 88 bd 72 7d 7f 3d
       -0.05072475 -0.073013775 -0.06652947 0.062375493
0001e0 55 db cb bd d3 b3 eb bb 7e b5 24 be 70 d9 57 bc
       -0.09953944 -0.0071930676 -0.16084859 -0.0131744
0001f0 f4 23 2d bd 26 42 3b bd c6 83 86 bd ad ee bd bc
       -0.042270616 -0.04571738 -0.065681025 -0.023185099
000200 62 83 a7 bd f8 14 d8 bd ad 6a c5 bc 76 cb 26 bd
       -0.08179356 -0.105508745 -0.024098719 -0.04072138
000210 39 30 2a 3d 9c e8 d1 bd 57 21 2e 3c 1f 5f 8c bd
       0.041549895 -0.10249445 0.010628066 -0.068540804
000220 1b 6e 60 bd 61 ee 65 3c 0e 8a b0 bd 10 6d b3 bc
       -0.054792505 0.014033885 -0.08620082 -0.021902591
000230 83 ba 2d 38 e7 0b e7 bd b4 51 ff bb 6a 73 18 bd
       4.1420117e-05 -0.11281567 -0.007791722 -0.037219442
000240 bd f2 89 bd b1 0a 8c bd d2 7e a8 bc 41 a5 41 3d
       -0.06735752 -0.06837977 -0.020568285 0.04727674
000250 ec b6 00 bd 55 d1 cb bd e8 36 8d 3d 3e 4d 35 bc
       -0.031424448 -0.09952036 0.06895238 -0.011065779
000260 43 06 87 3c 10 37 ed bd 72 b6 45 bd 16 5b aa bd
       0.016482478 -0.11582768 -0.048269697 -0.083181545
000270 a3 e5 20 3d 65 87 cf bd 69 dd 6a bd 54 08 2b bd
       0.0392815 -0.10133246 -0.05734006 -0.04175599
000280 39 a6 3e be 8b bf 9c 3d a8 cb 5b bd 4a 6e 1c bd
       -0.18618096 0.076537214 -0.05366102 -0.038191117
000290 9d 60 f1 bd 47 4d 5e bc bb b8 84 bd 35 a0 eb bd
       -0.11786006 -0.013568229 -0.06480547 -0.115051664
0002a0 a2 18 ba bc e7 8e 43 3d 6e e1 0c bd 9b 8c 93 3b
       -0.022716824 0.047743704 -0.034394674 0.0045028455
0002b0 5f ea c5 bc 13 3e 9e 3c d9 b8 9f 3d 2f 4a 00 3b
       -0.024159608 0.019316709 0.07798929 0.0019575467
0002c0 5e 4f a2 bd 66 0e 7d 3d c1 55 06 3d 5d 39 bd bd
       -0.07925294 0.06178131 0.032796625 -0.09239457
0002d0 c5 aa 04 3e 8a e9 97 bd b4 4f e3 3c 4d de 4a bd
       0.12955768 -0.07417591 0.027747966 -0.04952841
0002e0 cc 91 19 bd a2 9a b5 bd 0c b5 0e bd 81 c4 fe bc
       -0.03749256 -0.088673845 -0.03484063 -0.03109956
0002f0 9d c8 3f bd e2 88 71 3d bd b5 4c 3d b8 6c 73 b8
       -0.04682218 0.058968432 0.049978007 -5.8036967e-05
000300 c6 a6 8a bd 84 ac 1d be c3 9c 26 bd 13 bf f6 3d
       -0.06770091 -0.1539784 -0.040676843 0.12048163
000310 50 28 d9 3c 0a 55 84 bd cb 3d 33 3a ba 02 1a bd
       0.02650848 -0.064615324 0.0006837516 -0.037600257
000320 b7 ff 85 bd 0f 43 e9 3c 33 a6 91 3d 92 85 10 be
       -0.06542914 0.028474359 0.07111778 -0.14113453
000330 aa 76 d9 bc 77 3a 94 bd db ff 27 be 26 2e 88 bd
       -0.026545841 -0.07237714 -0.16406195 -0.06649427
000340 70 da 9a bd 9f bc ad bc b7 cc b8 bd 45 65 2d bd
       -0.07561195 -0.021208106 -0.09023421 -0.042332906
000350 bf ff 8d bd 8a f0 f8 3b 59 07 81 bd 55 80 7f bd
       -0.06933545 0.007597034 -0.063002296 -0.062378246
000360 76 62 08 bd 62 2f 27 bd b5 9b 06 bd 8d 41 25 3d
       -0.033297025 -0.040816672 -0.032863338 0.040345717
000370 8c 99 86 3d 42 67 1b 3d 82 2a 95 bd 02 c7 af bd
       0.065722555 0.03794027 -0.07283498 -0.085828796
000380 a7 ca 67 3c f3 77 43 bd 5f 6c 9e bd 14 b6 3f bd
       0.014147437 -0.047721814 -0.07735514 -0.046804503
000390 46 54 bc bd 93 ec 5d bd 04 68 ca bd d3 fd 21 3d
       -0.091957614 -0.054180693 -0.09883121 0.039548706
0003a0 dd e2 8a bd 59 5b 89 3c 9a 3f 2b be 12 c7 1b bd
       -0.06781552 0.01676719 -0.16723481 -0.038031645
0003b0 ca 28 33 3c 0a 33 b0 3b fb 2f 14 3d 27 47 dd bc
       0.010935018 0.005377178 0.03617857 -0.027011467
0003c0 32 67 90 bd 48 9e b9 bd c9 e1 11 be 54 46 98 3c
       -0.07050933 -0.09063393 -0.14246286 0.018588223
0003d0 90 c7 20 3a 55 ea ad 3d fa e6 95 bd bf 81 f3 bd
       0.0006133253 0.08491961 -0.07319446 -0.118899815
0003e0 90 be af 3c 33 44 51 bd fc c3 17 bd 97 8f 5d bd
       0.021453172 -0.05109043 -0.03705214 -0.054092016
0003f0 a7 08 be 3d 58 86 8b 3d 07 dc 23 bd 76 1a 94 3a
       0.09278994 0.068127334 -0.040004756 0.001129939

action_model._continuous_distribution.log_sigma f4 [1, 12]
000000 b7 b9 0f c0 06 00 fa bf 1f 2f 07 c0 cd 6d 08 c0
       -2.2457101 -1.9531257 -2.112251 -2.1317017
000010 7b 5a f8 bf 1c e5 02 c0 00 14 ef bf d6 7f f9 bf
       -1.9402612 -2.0452337 -1.8677979 -1.9492137
000020 e8 73 f9 bf 27 de e8 bf 03 47 04 c0 c3 41 01 c0
       -1.9488497 -1.8192796 -2.0668342 -2.0196388

action_model._continuous_distribution.mu.weight f4 [12, 256]
000000 86 c5 eb bc ac 2e 0a 3d 0b 51 5c bc e0 60 8e bd
       -0.02878071 0.033735916 -0.0134470565 -0.06952071
000010 5c 88 19 bd 18 6a 11 3c 53 6c a2 bd 41 a1 35 bc
       -0.037483558 0.008875392 -0.079308175 -0.011085809
000020 c8 e2 2c 3d a3 4f e7 3d d7 e5 c8 3b 8e 9e 97 bb
       0.042208463 0.112944864 0.0061309147 -0.0046270555
000030 29 05 a8 bd dd 0a 35 3d 00 65 e7 39 ce ba c9 3d
       -0.08204109 0.044199813 0.00044135004 0.09850083
000040 d0 64 bb 3d 7b 2b be 3d e3 2e aa bc f9 80 4c bb
       0.09150088 0.09285637 -0.02077431 -0.0031204803
000050 76 ad 47 3e 13 5c 80 3c 9a 27 f3 3d 63 35 6e bc
       0.19499764 0.015668904 0.11872788 -0.014539096
000060 ea 39 57 be 24 b2 03 3c 1d 3f 1a be d9 f5 ed bc
       -0.21018186 0.0080380775 -0.15063138 -0.029047893
000070 db 33 29 3d af ce 06 bd f3 93 62 bd 2b 91 7a 3b
       0.04130922 -0.032911953 -0.055316877 0.00382335
000080 80 62 0e bd fb e9 19 3d ea 86 07 bd 42 37 28 bd
       -0.034761906 0.037576657 -0.03308765 -0.041068323
000090 ab c3 a9 bc 9a 7b 60 3d 96 a5 3a bd df a2 1d 3d
       -0.020723185 0.054805376 -0.04556807 0.038485404
0000a0 b6 28 ec 3c 16 2b 0c 3d 3e 7e 9d 3d 36 dc 0b 3d
       0.028828006 0.034220777 0.076900944 0.034145556
0000b0 97 a6 dd 3c 0b c5 43 3d 77 1b 77 bc 5d 20 67 3d
       0.027056975 0.047795337 -0.015082232 0.05642735
0000c0 fa cc b3 bd 35 93 62 bd 4a 57 a3 bd bf 5b dc bb
       -0.087793306 -0.05531617 -0.079756334 -0.006724804
0000d0 0c 13 b3 3d 99 ed 2e bd a5 69 1d bd d5 67 a5 3d
       0.08743867 -0.04270706 -0.03843083 0.08076445
0000e0 d0 85 11 bd 65 62 90 bd c1 1d ca 3d f2 9b 2e bc
       -0.035528004 -0.07050017 0.09868956 -0.010657297
0000f0 55 5f ae bd 67 62 66 bd 3c 01 af bd 4d b9 8e bd
       -0.08514277 -0.056246188 -0.08545157 -0.06968937
000100 ec 5a f7 bd f2 c1 11 3e fd ec 1a 3c 1e 70 76 3d
       -0.12077889 0.1423414 0.0094559165 0.060165517
000110 2a cb ff 3c c3 00 54 3d d6 91 51 3d 26 70 8d 3d
       0.031224806 0.05175854 0.05116447 0.06906156
000120 a1 b7 40 3d 80 45 30 3d be 49 87 bc 43 f4 56 bc
       0.047050122 0.04303503 -0.016514655 -0.01311976
000130 34 b9 8e 3c 00 b7 d6 3c 8c 88 5b bd 2e 3b e6 bc
       0.017422296 0.026210308 -0.053597018 -0.028104391
000140 e0 ba 67 3c 4f d6 8a bd 53 c7 85 bd dc 80 8f bc
       0.014143676 -0.06779157 -0.06532159 -0.0175175
000150 d5 42 54 3d ad f8 42 3d 6a 9d ad bd d4 ad 13 bc
       0.05182155 0.047600437 -0.0847729 -0.009013612
000160 19 03 34 3d 3d b2 1c bc 50 67 91 ba 76 67 30 3a
       0.043948267 -0.00956398 -0.0011093412 0.0006729284
000170 4b 39 7e 3d 84 e8 bc 3c 0a 72 e5 3d ac ae ee 3d
       0.062066358 0.02306009 0.11203392 0.1165441
000180 fd 71 27 3d 23 ad 84 bc 99 7f 1f be 89 67 9b bc
       0.040880192 -0.01619584 -0.15576018 -0.018970268
000190 07 44 b1 3d d1 8b 86 bd 71 2c 8b 3d 46 96 63 3d
       0.08655553 -0.065696366 0.06795586 0.055563234
0001a0 2e 06 fd 3c ee 03 30 3a 5f b6 51 bc ad 6c 22 bd
       0.030886736 0.0006714453 -0.012799828 -0.039654423
0001b0 41 d1 8c bc 0b 08 a4 3d 93 ca f7 bd eb 94 b8 bb
       -0.017189624 0.080093466 -0.12099185 -0.005632987
0001c0 8b b1 dd 3d 49 81 b5 3d 61 79 f3 3b 9b 8d 1c bc
       0.10824879 0.0886255 0.007430241 -0.009555246
0001d0 ba 69 82 3d 9d c9 9c 3d 2a c6 ea 3c 86 60 c0 3c
       0.06367822 0.07655642 0.028658945 0.023483526
0001e0 f4 e0 81 3d 93 58 c9 3d 9a 94 84 bd ff 3d 62 3d
       0.063417345 0.09831347 -0.06473656 0.055234905
0001f0 57 68 55 bd b6 47 87 bd d4 fb 92 bc 5b f9 9d bd
       -0.05210146 -0.06605475 -0.017942347 -0.077135764
000200 42 b7 00 3e a5 67 79 bc ab b0 fd 3c 3a 92 1f bc
       0.12569907 -0.015222465 0.03096803 -0.009739453
000210 59 08 33 3d ce 32 07 3d f2 5b ea 3c 1d 99 c6 ba
       0.043709133 0.033007436 0.028608296 -0.0015151832
000220 7d c4 b1 3c 23 73 fd 3d 55 f8 f4 bc 93 c3 c5 3c
       0.021700138 0.12375476 -0.02990357 0.024141109
000230 42 1e ba 3d 9a c8 90 3d cc 13 92 3d 7f ed 71 3d
       0.090878025 0.07069512 0.07132682 0.059064385
000240 57 2b e6 bc 0b af 18 bc ec 15 ce bc 9c 2b 69 3d
       -0.028096838 -0.009319077 -0.025156938 0.056926355
000250 da 52 db 3d 36 e1 9c 3d 4e 1f 2e 3d cb be 49 3c
       0.10709162 0.07660143 0.042510323 0.012313555
000260 2f 61 c0 3d 14 98 6b 3d 04 be 8d bd e7 22 ac 3c
       0.09393536 0.05751808 -0.06921008 0.021012736
000270 dc c2 b5 3d 28 11 2c be bb 2c e4 bb 00 5a 6d bd
       0.08875057 -0.1680342 -0.00696334 -0.05794716
000280 43 fc ce bd ce 38 42 3d de 44 b4 bc d7 78 8b bc
       -0.10106709 0.047417454 -0.022005495 -0.017025394
000290 6e f2 47 bd c8 38 47 3d 9f 70 73 3c cd 15 bf 3b
       -0.048815183 0.048638135 0.014858394 0.0058314563
0002a0 9d 38 77 3c 2b ab 7b 3d 5d 47 b1 bd a2 70 4f bd
       0.015089181 0.061442535 -0.086561896 -0.050644524
0002b0 6c 73 68 3d 43 a3 6b bd 72 f7 95 3d 82 c0 85 3c
       0.0567507 -0.057528745 0.07322587 0.016327146
0002c0 0e 48 0a 3d a0 32 20 3c 7a f4 c5 3d 06 20 06 3a
       0.033760123 0.009777695 0.09665771 0.0005116466
0002d0 45 61 aa 3d bc 58 07 be 9f cf ac bc c9 f8 48 3d
       0.08319334 -0.13217443 -0.021095095 0.049065385
0002e0 d1 ab 0a be 3c e4 1d bd 3f 41 f6 bd 73 7e 02 bc
       -0.13542105 -0.03854774 -0.120241635 -0.007964718
0002f0 5b 39 56 bd b4 bb 80 3d 50 c4 22 3d e1 31 3e 3d
       -0.052300792 0.062858015 0.039738 0.046434287
000300 11 52 39 3d 22 5d 12 be 02 c6 f0 bc 04 b5 eb 3d
       0.04524428 -0.1429334 -0.029391292 0.11509135
000310 ac 68 18 3e 1b 7f 41 bd 86 2e 93 bd 1c ac 78 bd
       0.14883679 -0.047240358 -0.07186608 -0.06071101
000320 a1 ad 55 3c 5f 97 b4 3d 79 9f cc 3b 7d be ba bd
       0.013041885 0.08817934 0.0062445966 -0.09118364
000330 53 9d d4 bc 1d 54 c0 bc 12 f5 08 be e4 15 25 3b
       -0.025953924 -0.023477608 -0.13374737 0.002519005
000340 fe 71 b4 3c 29 83 8d bd ff 0e c7 bd 99 08 c6 bd
       0.022027012 -0.069097824 -0.09719657 -0.096696086
000350 48 d0 eb bc 68 e3 d6 bd 6f 8a 1f be 86 21 99 3d
       -0.02878584 -0.10492593 -0.15580152 0.07477097
000360 9b ea 3d 3b 0f 68 25 3c 6c 19 07 3b f9 b0 b4 3c
       0.0028978947 0.01009561 0.0020614518 0.022057043
000370 97 d0 84 3d 75 89 21 bc 4c bb fb bd 7f 2b b3 bd
       0.06485098 -0.0098594325 -0.122915834 -0.087485306
000380 07 e6 32 3d ff 3a 8a 3d 15 49 18 3d c3 9c b7 bd
       0.043676402 0.06749534 0.03717907 -0.08965447
000390 1d 0a a1 bd 13 02 1e 3d ef bc 1d bd 76 e5 a0 3d
       -0.07863257 0.038576197 -0.03851026 0.07856266
0003a0 ce ae 38 3e 04 08 9b 3c d7 07 1a be 54 b5 e6 3c
       0.18035433 0.01892472 -0.15042053 0.028162636
0003b0 ad e5 7d bb 1e 48 99 3c e5 80 56 bc 21 51 5e bc
       -0.0038741634 0.018711146 -0.013092254 -0.013569147
0003c0 ce 94 0d bd 2e f7 4d bd 27 e3 a5 bd ff d6 d2 3d
       -0.03456574 -0.050284557 -0.080999665 0.102949135
0003d0 ae 94 ca 3d 3d ff f2 3c 67 87 2c 3a ac 2c 98 bc
       0.0989164 0.029662723 0.0006581456 -0.018575989
0003e0 cd e3 9c 3d d2 15 67 bd 62 f3 bc 3c 52 44 f5 bc
       0.07660637 -0.056417294 0.023065273 -0.029939804
0003f0 79 d1 9a 3d c8 33 88 3d fe 71 10 bd c5 72 38 bc
       0.07559485 0.066505015 -0.03526496 -0.011257832

action_model._continuous_distribution.mu.bias f4 [12]
000000 85 e2 12 3e 88 eb ee bb a7 fa 5b bd 35 ff b1 bc
       0.14344223 -0.007291261 -0.053705838 -0.021728138
000010 76 6d 7c 3d b9 76 a1 bc 46 70 4c 3e b7 05 06 3d
       0.061627828 -0.019709932 0.19964704 0.032720294
000020 ab 52 a9 bd 99 b9 9d bc 18 95 a5 3d 0d b8 a0 bd
       -0.08267721 -0.019253539 0.08085078 -0.07847605

onnx::Div_51 f4 [75]
000000 a1 4f a4 41 75 40 df 44 c7 02 9f 43 b1 6c 98 40
       20.538881 1786.0143 318.0217 4.763268
000010 62 ad 72 40 1a 1d 9f 40 01 03 f3 3e e0 ef b7 44
       3.7918324 4.9723024 0.4746323 1471.4961
000020 f9 54 c8 47 f5 94 8f 46 3d f1 2b 3f ee f5 3f 3e
       102569.945 18378.479 0.67164975 0.18746158
000030 34 50 50 3d 90 20 27 3e e2 82 01 3e 38 af b8 3d
       0.050857738 0.16321015 0.12647584 0.09017795
000040 84 8e 30 3e e1 19 7f 3f 32 ea 39 3e a7 cb 69 3e
       0.17241865 0.99648863 0.18155745 0.22831593
000050 93 8f 2e 3e 4e d5 3b 3e 21 90 09 3e ce d2 a9 3d
       0.17046957 0.18343088 0.13433887 0.08292161
000060 50 ea 05 3e 33 98 2b 3f fc d6 9b 3e 3b 11 32 3e
       0.13077664 0.6702911 0.30437458 0.17389385
000070 fc 47 84 3d 68 4c 41 3e f2 0d 06 3e a9 53 cc 3d
       0.064590424 0.18876803 0.13091257 0.099768944
000080 ed b6 4f 3e 14 84 7c 3f 2b c3 81 3e a9 eb 24 3e
       0.20284624 0.98639035 0.25344214 0.16105522
000090 85 2d 5c 3e 6b 3b 59 3e 3c e4 00 3e 15 20 d7 3d
       0.2150174 0.21214072 0.12587065 0.10504166
0000a0 12 9e d0 3d 06 f8 62 3f c2 c5 a1 3e 15 5f 81 3e
       0.101863995 0.88659704 0.3159619 0.25267854
0000b0 b1 20 8b 3d 3b 38 48 3e e0 ad f5 3d 6a 1b af 3d
       0.06793345 0.195527 0.11996055 0.08550151
0000c0 eb db 9a 3e a4 8b 7b 3f 32 51 3b 3e d0 6c 15 3f
       0.3024591 0.9825995 0.18292692 0.5836916
0000d0 fe 4a 3d 3e 9a a3 01 3e 2d d9 39 3e be 51 e1 3d
       0.18485638 0.12660065 0.18149252 0.11001919
0000e0 1d 39 a7 3e dd 99 15 3f 49 0d eb 3e c7 5d 77 3e
       0.3266076 0.584379 0.45908573 0.24156867
0000f0 e0 f0 a5 3d f5 c5 16 3e 53 a8 fb 3d 28 ae a8 3d
       0.08102584 0.14723952 0.12287965 0.08236343
000100 39 48 8b 3e d9 45 77 3f 21 6e 80 3e 34 42 14 3f
       0.2720354 0.96590954 0.25084022 0.5791352
000110 ad 8f 14 3e 45 bf b4 3d bc 7d 39 3e 8e b6 9e 3d
       0.14507933 0.08825544 0.1811437 0.07749663
000120 22 73 ab 3e 58 17 3a 3f c7 6b 0d 3f
       0.33486277 0.7269187 0.5524258
