results/packaging_fix_test_23/RobotAgent/RobotAgent-9825276.onnx (onnx, 359274 bytes, 9 tensors)

network_body.observation_encoder.processors.0.normalizer.running_mean f4 [75]
0	0x41d21b63	26.263372
1	0xc516badb	-2411.6785
2	0x43cd1a09	410.2034
3	0xbc8fcc9a	-0.017553616
4	0xbcf2a60d	-0.029620195
5	0x3d606ce0	0.05479133
6	0x3f142ffa	0.57885706
7	0xc4a2970b	-1300.7201
8	0x47e9633c	119494.47
9	0xc6a02d02	-20502.504
10	0x3fab0f93	1.3364128
11	0xbda15790	-0.07878029
12	0xbc9a975f	-0.018871007
13	0xbddab4a8	-0.10678989
14	0x3f51eb79	0.8199993
15	0x3f769eca	0.9633604
16	0x3e57692d	0.21036215
17	0x3e0e639b	0.13905184
18	0x3baf0ef7	0.00534236
19	0xbe5e79f2	-0.21726206
20	0xbde5a550	-0.112131715
21	0xb9805e73	-0.00024484433
22	0x3f3ad4e2	0.72981083
23	0x3f65c8ee	0.8975972
24	0x3dedb4f4	0.1160678
25	0xbed37829	-0.41302612
26	0xbded199b	-0.115771495
27	0x3e2076f1	0.15670373
28	0x3d61b6ba	0.055105902
29	0xbe237495	-0.15962441
30	0x3f4de342	0.8042489
31	0x3f580758	0.84386206
32	0xbca3493e	-0.019932386
33	0xbe4e31fb	-0.20136254
34	0x3e814d27	0.25254175
35	0x3e0759b6	0.13217816
36	0xbe42a385	-0.1900769
37	0x3be0d53b	0.0068613566
38	0x3f4d1779	0.8011394
39	0x3f50857d	0.81453687
40	0xbdc8bbee	-0.0980147
41	0xbebe49c7	-0.37165663
42	0xbda2a3d5	-0.07941405
43	0x3df6f9e4	0.120593816
44	0x3d0edbeb	0.0348777
45	0xbe401b7a	-0.18760481
46	0x3f520cc7	0.82050747
47	0x3f5d0165	0.8633025
48	0x3d5679c9	0.052362237
49	0xbc72d323	-0.014820847
50	0x3e7eecdb	0.2489504
51	0x3d06d3d2	0.03291685
52	0xbe26287c	-0.16226381
53	0xbdaed126	-0.08535986
54	0x3f40536f	0.7512731
55	0x3f61096e	0.87905014
56	0x3b795ecc	0.0038050888
57	0xbf00ce0c	-0.503144
58	0xbd6267b2	-0.055274673
59	0x3e0ad346	0.13557157
60	0x3d2c54a9	0.042072926
61	0xbe05c5df	-0.13063763
62	0x3f4e8982	0.8067857
63	0x3f612aa1	0.8795567
64	0xbda645d7	-0.0811879
65	0x3cf0927f	0.02936673
66	0x3e5afb37	0.21384893
67	0x3e2f7784	0.17135435
68	0xbe057ee6	-0.13036689
69	0xbd381942	-0.044945963
70	0x3f40637f	0.7515182
71	0x3f58849a	0.84577334
72	0xbdcb09a3	-0.099139474
73	0xbe019150	-0.12653089
74	0x3d80bb31	0.06285704

network_body._body_endoder.seq_layers.0.weight f4 [256, 75]
0	0x3dac91a3	0.084262155
1	0xbc03023f	-0.007996141
2	0xbde6341a	-0.11240406
3	0xbda918d9	-0.082566924
4	0xbd4319a1	-0.047631864
5	0x3d2421b9	0.040071223
6	0x3c8def36	0.017325979
7	0xbcf9918b	-0.030464908
8	0x3d1a427e	0.03766107
9	0x3cdb697f	0.026783703
10	0x3e0de9ec	0.13858765
11	0xbe189d87	-0.14903842
12	0x3d4416c7	0.047873285
13	0x3d68604a	0.056732453
14	0xbcc4da0d	-0.024029756
15	0x3e07d588	0.1326505
16	0xbd19593d	-0.03743862
17	0x3e2d976b	0.16952293
18	0xbe207de9	-0.15673031
19	0xbded4c1a	-0.11586781
20	0xba488c4c	-0.00076503004
21	0xbe882bef	-0.2659602
22	0x3e2a957b	0.16658585
23	0x3c88a791	0.016681464
24	0x3ca71093	0.020393645
25	0xbdaae8ee	-0.08345209
26	0x3e21561e	0.15755507
27	0xbe9ca48c	-0.3059429
28	0x3cbe50dc	0.023231916
29	0x3d2bd9a6	0.041955613
30	0xbe579b6a	-0.2105538
31	0xbd57dc12	-0.05270011
32	0xbe5a82fb	-0.21339028
33	0x3e89f08d	0.26941338
34	0x3e0eb279	0.1393527
35	0xbe1f1a63	-0.1553741
36	0x3e477cd7	0.19481216
37	0xbdb4963a	-0.08817716
38	0x3d36b102	0.0446024
39	0xbbebb786	-0.0071935086
40	0x3d8f1fbe	0.06988476
41	0xbb980d76	-0.0046402765
42	0x3d18bcfe	0.037289612
43	0x3e42255e	0.18959567
44	0x3e457e56	0.19286475
45	0x3eb22e0c	0.34800756
46	0x3e7f72e8	0.24946177
47	0xbdb048ce	-0.086076364
48	0x3e28efbc	0.16497701
49	0x3cfe124a	0.03101458
50	0x39d83a58	0.000412422
51	0x3d3a3b41	0.045466665
52	0xbccfff6e	-0.025390353
53	0xbe6286c5	-0.22121723
54	0x3d08775e	0.033316962
55	0x3e2841b1	0.1643131
56	0x3e995950	0.29950953
57	0x3c3203f1	0.0108651975
58	0xbe38a4a5	-0.18031557
59	0x3c5886c2	0.0132157225
60	0x3d84c494	0.06482807
61	0xbdefc98c	-0.11708364
62	0x3b684c65	0.0035445925
63	0x3e27d849	0.163911
64	0xbd48c2f9	-0.049014065
65	0x3daf8b9e	0.08571552
66	0x3e6b8334	0.22999269
67	0xbcb4ab1d	-0.02205425
68	0xbe3d7178	-0.18500316
69	0xbd723f37	-0.059142318
70	0x3bebb1df	0.0071928347
71	0x3e4fbf58	0.20287836
72	0x3e49a7ff	0.19692992
73	0xbd256162	-0.040376075
74	0x3de4d4ed	0.11173425
75	0x3e245b70	0.16050506
76	0x3dec7709	0.11546142
77	0xbdb9b675	-0.09068004
78	0xbd9f454b	-0.077768885
79	0x3dfad98c	0.12248525
80	0x3d307898	0.043083757
81	0xbcba3a80	-0.022732973
82	0xbe3ef415	-0.18647797
83	0xbd07b05e	-0.03312718
84	0x3d9df881	0.07713414
85	0xbda751e2	-0.08169915
86	0xbe7e6f3b	-0.24847119
87	0xbe761bea	-0.24034086
88	0xbc0b2c8d	-0.008494508
89	0xbc72fac9	-0.0148303
90	0xbd48a92c	-0.04898946
91	0x3b69c538	0.003567053
92	0x3e35b44d	0.1774456
93	0x3dc57ed3	0.096433304
94	0xbc4d4dbe	-0.012530742
95	0xbcb92221	-0.022599282
96	0xbde8d5d8	-0.113689125
97	0xbcd073cc	-0.025445841
98	0xbd769765	-0.060202975
99	0xbd840d4f	-0.06447851
100	0x3da7c181	0.08191205
101	0xbd7f3b5f	-0.06231248
102	0xbe1d7b3c	-0.15379041
103	0x3d26b5f4	0.040700868
104	0xbcb3c712	-0.02194551
105	0xbc9a3bbf	-0.018827317
106	0x3e064d0d	0.1311533
107	0xbd3c8a91	-0.046030585
108	0x3e2ab8ce	0.1667206
109	0xbb7aa2b5	-0.0038243954
110	0xbd521f38	-0.051299304
111	0xbd6df79f	-0.058097478
112	0x3e84a645	0.25908104
113	0x3d2d9add	0.042384017
114	0xbe02bf76	-0.12768349
115	0xbd1cdc5b	-0.038296085
116	0xbe0aa86a	-0.13540807
117	0xbdc03382	-0.09384824
118	0x3db2f7bb	0.08738657
119	0x3e188ce4	0.14897496
120	0x3dceb356	0.10092799
121	0x3e3efb9c	0.18650669
122	0xbe179c9f	-0.1480584
123	0x3e432a54	0.19059116
124	0xbe133550	-0.14375806
125	0x3d8c7057	0.068573646
126	0xbe53f6bd	-0.20699592
127	0x3d9f9a12	0.077930585
128	0x3ded8df8	0.11599344
129	0x3daf1903	0.085496925
130	0xbdcc2cf8	-0.099695146
131	0xbe4f5454	-0.20247012
132	0x3d8206ae	0.0634893
133	0xbc0e68dd	-0.008691994
134	0x3d9c1f89	0.07623202
135	0x3d4f9fa2	0.050689347
136	0x3c81358a	0.0157726
137	0x3d5c9f45	0.05386283
138	0xbe1ef074	-0.15521413
139	0xbe504fce	-0.20342943
140	0x3de46f5a	0.11154051
141	0x3daebf8a	0.08532627
142	0xbd7b9e14	-0.061430052
143	0x3da198db	0.07890483
144	0xbe8206b2	-0.25395733
145	0xbe124225	-0.14283045
146	0x3e6a0283	0.2285252
147	0x3cbe0770	0.023196906
148	0x3dd466bd	0.10371158
149	0xbe0a294f	-0.1349232
150	0x3dfaef03	0.12252619
151	0x3e754b06	0.239544
152	0x3d9b649d	0.0758755
153	0xbe1111a3	-0.14166884
154	0xbda947aa	-0.08265622
155	0xbdf6b697	-0.12046545
156	0xbda1f472	-0.07907952
157	0x3daf7b5b	0.0856845
158	0xbe433ed8	-0.19066942
159	0xbd5ff9fc	-0.054681763
160	0x3e0b64c0	0.13612652
161	0x3e5acaaa	0.21366373
162	0x3c890b67	0.01672907
163	0xbe2a0c14	-0.1660617
164	0xbe0f7cdd	-0.14012475
165	0x3e9bdec0	0.30443382
166	0xbe50327e	-0.20331761
167	0xbc976ad4	-0.018483557
168	0xbde9fd91	-0.11425317
169	0xbc7c3b3c	-0.015394982
170	0xbcbcb35b	-0.023034742
171	0xbc527fdb	-0.012847866
172	0x3dc05a7c	0.093922585
173	0xbd244d3f	-0.04011273
174	0x3dd953cb	0.10611685
175	0xbd4cc6c6	-0.049994253
176	0xbe3ba048	-0.18322861
177	0xbd26af81	-0.040694717
178	0xbe07a62f	-0.13246988
179	0x3d0a56f1	0.03377432
180	0x3e034127	0.12817822
181	0xbca42e72	-0.020041678
182	0xbe34f999	-0.17673339
183	0xbd7b77ef	-0.061393674
184	0xbe93a82e	-0.28839248
185	0x3d834345	0.06409315
186	0x3d753650	0.05986625
187	0xbddc8748	-0.1076799
188	0xbd43aab8	-0.047770232
189	0x3dd1e61f	0.1024897
190	0x3cbf03f5	0.023317317
191	0xbc0b1f54	-0.008491356
192	0xbd0f3db7	-0.034970965
193	0x3bd6e206	0.006557706
194	0x3d1e40e9	0.038636122
195	0x3a85d4df	0.0010210535
196	0x3d6a67a0	0.05722773
197	0xbe04b1ec	-0.12958497
198	0xbe32256e	-0.17397091
199	0x3d5ff527	0.054677155
200	0xbd6dcd97	-0.058057394
201	0x3e1a37d8	0.15060365
202	0xbd49c70e	-0.0492621
203	0xbe2602d4	-0.16212016
204	0x3d5eba6b	0.054377
205	0x3d25d5b2	0.040487
206	0xbd11cef5	-0.03559776
207	0x3e0cae9f	0.13738488
208	0x3e3cddd9	0.18444003
209	0xbde2ed88	-0.11080462
210	0xbd5e3446	-0.05424907
211	0x3dad7126	0.08468847
212	0xbd3914bd	-0.045185793
213	0xbe1d04da	-0.15333882
214	0x3c956754	0.018237747
215	0x3e01e593	0.12685232
216	0xbe3b74fe	-0.18306348
217	0x3d0c793d	0.03429531
218	0xbda20abd	-0.079122044
219	0xbd8b4989	-0.06801135
220	0xbd878878	-0.06617826
221	0xbdf75bb8	-0.12078041
222	0xbd605893	-0.05477197
223	0xbd87c02c	-0.06628451
224	0x3dd0885e	0.1018226
225	0x3e5b71ad	0.21430083
226	0x3db3e622	0.08784129
227	0x3df12676	0.11774914
228	0x3d8f2d77	0.069910936
229	0x3c606c29	0.013697662
230	0xbc90fe37	-0.017699344
231	0x3e85a32b	0.2610105
232	0xbd970cb3	-0.07375469
233	0xbc17bd5e	-0.009261457
234	0x3e03b97c	0.12863725
235	0x3d4b137e	0.049579136
236	0xbe3bbe3f	-0.18334292
237	0xbe1572dc	-0.14594597
238	0x3e32e3e7	0.1746975
239	0x3dd93f9d	0.106078364
240	0xbe68dd65	-0.22740705
241	0xbe1ba1b0	-0.15198398
242	0xbddd989c	-0.108201236
243	0xbdad99d4	-0.08476606
244	0x3df52a3b	0.119709454
245	0x3de6c575	0.11268131
246	0x3d3f6638	0.046728343
247	0x3dedd2d1	0.11612476
248	0x3cfce6e4	0.030871816
249	0xbd45f59e	-0.048329942
250	0x3e7ef411	0.24897791
251	0xbdd6c386	-0.10486512
252	0xbd48b586	-0.04900124
253	0x3e7c2bfe	0.24626157
254	0x3d14309c	0.03617917
255	0xbd2f168a	-0.042746104

network_body._body_endoder.seq_layers.0.bias f4 [256]
0	0x3c967f68	0.018371299
1	0x3d74f1a3	0.059800755
2	0x3cb73eaf	0.022368757
3	0x3d63917d	0.05555867
4	0x3d11ac20	0.03556454
5	0x3c0c5dfe	0.008567331
6	0x3d4c233c	0.04983829
7	0x3cfc1aa1	0.030774416
8	0x3d84e617	0.06489199
9	0x3d842c09	0.064537115
10	0x3d303b10	0.043025076
11	0x3c913737	0.017726524
12	0x3da54ecb	0.08071669
13	0x3d3eb9c7	0.04656389
14	0x3d5759e2	0.052575953
15	0x3d5fabb1	0.054607097
16	0x3d4445b0	0.04791802
17	0x3d4bf5e6	0.049795054
18	0x3bdf1832	0.006808304
19	0x3d62907b	0.05531357
20	0xbc9150b8	-0.017738685
21	0x3db7cd72	0.089747325
22	0x3c384362	0.011246534
23	0x3d761cc8	0.06008604
24	0xbbaa974b	-0.005206024
25	0xbd217d7e	-0.03942632
26	0x3d9e21d4	0.07721296
27	0x3d884a1c	0.0665476
28	0x3be4cc2a	0.006982346
29	0x3cadf517	0.021235032
30	0x3d7f31ba	0.062303282
31	0xbbb05632	-0.005381369
32	0x3d555256	0.052080475
33	0x3d3cc638	0.046087474
34	0x3d414ae6	0.04719057
35	0x3cedcdce	0.0290288
36	0x3d0608b8	0.03272316
37	0x3c9d99c2	0.019238357
38	0x3bcd7d79	0.006271061
39	0xbc4d5888	-0.0125333145
40	0x3d084fc7	0.033279207
41	0x3d0ad332	0.033892818
42	0x3aeab193	0.0017905704
43	0x3c2a0545	0.010377233
44	0x3c5a35d2	0.013318496
45	0xb9a0b24f	-0.00030650428
46	0x3d0f4bff	0.034984585
47	0x3c94c7a8	0.01816161
48	0x3d4cafb2	0.049972244
49	0x3c13aa61	0.009012789
50	0x3c9d6dbc	0.019217364
51	0xbb541cbc	-0.003236576
52	0x3d60dae4	0.05489625
53	0x3d783dae	0.060605697
54	0x3d911c7f	0.07085513
55	0xbd3dd57e	-0.04634618
56	0x3c513798	0.012769602
57	0x3cee9b24	0.029126711
58	0x3d5c785a	0.053825714
59	0x3d57fea3	0.052733075
60	0x3d242a3f	0.04007935
61	0x3d70a4b0	0.05875081
62	0x3c3719a2	0.011175545
63	0x3d7ea238	0.062166423
64	0x3d43bfe5	0.047790427
65	0x3d3b38df	0.045708533
66	0x3db19819	0.086715885
67	0x3d0d9109	0.034562144
68	0xba31291b	-0.00067581394
69	0x3be05fdf	0.006847366
70	0x3c8f33c4	0.017480738
71	0x3cdfd404	0.027322777
72	0x3d374f17	0.04475316
73	0x3c0eb663	0.008710477
74	0x3d61ffa2	0.05517543
75	0x3dbaed0e	0.09127246
76	0x3cb1b0b5	0.021690706
77	0x3d8a5753	0.06754937
78	0x3d7050f3	0.05867095
79	0x3d90374d	0.07041798
80	0x3d7d5e52	0.06185753
81	0x3d639219	0.05555925
82	0xbb6e4dfc	-0.00363624
83	0x3da72e60	0.08163142
84	0x3d1d0a5d	0.03833996
85	0x3d93c0c1	0.07214499
86	0x3d6b3573	0.05742402
87	0x3dc05159	0.09390516
88	0x3d31b58e	0.043386035
89	0x3b984ed9	0.0046480712
90	0x3c568539	0.013093286
91	0x3c010fa4	0.007877264
92	0x3be4b8fd	0.00698006
93	0xbb906d22	-0.004407541
94	0x3caccd0f	0.021093873
95	0x3d7d5dc6	0.061857007
96	0x3ddbaa5d	0.107258536
97	0x3c4ffe08	0.012694843
98	0xbbc27100	-0.005933881
99	0xbd0b5abc	-0.034022078
100	0x3d3f5915	0.046715815
101	0xbcc663b7	-0.02421747
102	0xbd3290e8	-0.043595225
103	0x3d70efab	0.058822315
104	0xbc825ef1	-0.015914412
105	0x3d69bd6e	0.05706542
106	0x3d7c29e9	0.061563406
107	0x3ca7f630	0.020503134
108	0x3d414c9f	0.047192212
109	0x3bbe9402	0.0058159837
110	0x3d4a1f92	0.049346514
111	0xbd24e685	-0.040258903
112	0x3d10410d	0.035218287
113	0x3d30a002	0.043121345
114	0x3d8b2a85	0.06795219
115	0x3d3acda8	0.045606285
116	0xbb7cd251	-0.0038577507
117	0x3d7df40a	0.062000312
118	0x3d07cfa8	0.03315702
119	0xbc6d1ceb	-0.014472227
120	0x3d06a1fe	0.03286933
121	0x3bd5db3c	0.006526379
122	0x3d2709d6	0.040780865
123	0x3d40c591	0.047063414
124	0x3d20999f	0.039209004
125	0xba300cfe	-0.0006715803
126	0x3c6685d3	0.014069992
127	0x3bc13be9	0.0058970344
128	0xbcbc6a00	-0.022999763
129	0x3d5ab3dd	0.053394187
130	0x3d90efd3	0.07076993
131	0xbc47ecd5	-0.012202461
132	0xbb02fe46	-0.0019987985
133	0x3ca433e8	0.020044282
134	0x3d83103b	0.0639958
135	0x3d081e53	0.033232044
136	0x3cc68a20	0.024235785
137	0x3db2138c	0.086951345
138	0x3c84c65b	0.016207865
139	0xbbde0ea0	-0.006776646
140	0x3d940b0a	0.07228668
141	0x3c2b573b	0.010457809
142	0x3d2fb04f	0.04289275
143	0x3c9698e9	0.01838346
144	0xbc8c3b5a	-0.017118145
145	0x3c3b085b	0.011415566
146	0x3b1807f4	0.00231981
147	0xbd93d543	-0.07218411
148	0x3d339cb3	0.043850612
149	0xbbae67ed	-0.0053224475
150	0x3c999d89	0.018751876
151	0x3d502df3	0.05082507
152	0x3cb5a600	0.022173882
153	0x3cb7156e	0.022349086
154	0x3d4f4b85	0.05060913
155	0x3da2c740	0.0794816
156	0x3deaaa17	0.11458223
157	0x3bb9ec20	0.0056739002
158	0x3d4c6d9b	0.049909215
159	0x3b241002	0.0025033955
160	0x3cf1ac6b	0.02950116
161	0x3d1fcfea	0.03901664
162	0x3bf169bf	0.0073673422
163	0x3c8feb55	0.01756827
164	0xbcfd5056	-0.030922096
165	0x3d9ae0d2	0.07562412
166	0x3d26119d	0.04054414
167	0xbbc0620f	-0.0058710645
168	0x3dc77e3d	0.09740875
169	0x3c8c6a54	0.017140545
170	0x3b076053	0.002065678
171	0x3d984d4b	0.074366175
172	0x3d7d93dc	0.061908588
173	0x3d7d49df	0.061838027
174	0x3cdfd86e	0.027324881
175	0xbd35adf5	-0.04435535
176	0x3db14fcf	0.086578004
177	0x3d77bc87	0.060482528
178	0x3d9a7e13	0.07543578
179	0x3d13ea7c	0.036112294
180	0x3d968892	0.073502675
181	0x3c2922da	0.010323251
182	0x3d22b97b	0.03972767
183	0xbc8ff066	-0.017570686
184	0x3ce43e00	0.027861595
185	0x3cf031e4	0.029320665
186	0x3d7e9408	0.062152892
187	0x3add6411	0.0016890784
188	0x3ce3f422	0.027826373
189	0x3d670b48	0.056407243
190	0xbb016178	-0.0019741934
191	0x3b1f40db	0.0024300131
192	0x3cbc794a	0.023007054
193	0x3d5ad72a	0.053427853
194	0xbda05395	-0.07828442
195	0x3cbb2d4b	0.022848746
196	0x3d2f4998	0.042794794
197	0x3da04da1	0.078273065
198	0xbcfbd87b	-0.030742874
199	0x3c8cb3e3	0.01717562
200	0x3d0183c2	0.031619795
201	0x3c807d5c	0.015684776
202	0x3d0ae85c	0.033913
203	0x3d9aa2de	0.07550596
204	0x3d8bf417	0.06833666
205	0x3d06a94f	0.03287631
206	0x3d794a96	0.060862146
207	0x3ceba232	0.028763864
208	0x3d320117	0.04345807
209	0x3d10e744	0.035376802
210	0xbb0f0de6	-0.0021828352
211	0xbba5a4ea	-0.0050550597
212	0xbbc5ba81	-0.006034196
213	0xbc63f992	-0.013914483
214	0x3d428e07	0.04749873
215	0x3d340703	0.043952
216	0x3d44adf1	0.048017446
217	0x3ca860ab	0.020553907
218	0xbc02a87a	-0.007974738
219	0x3d93e294	0.07220951
220	0x3ce59bb4	0.028028347
221	0x3d38e901	0.045144085
222	0x3b03bd39	0.00201018
223	0x3d6845cb	0.056707185
224	0x3c9c5d68	0.019087508
225	0x3d10a046	0.0353091
226	0x3dac2cde	0.08406995
227	0xbd15ff87	-0.036620643
228	0x3d5b6fe4	0.053573504
229	0x3d1a4d8d	0.037671614
230	0x3d3760ef	0.044770177
231	0x3d9f6007	0.07781988
232	0x3d108136	0.035279475
233	0x3ca5f7e2	0.020259801
234	0xbbf0e337	-0.007351305
235	0x3bc8ae90	0.006124325
236	0x3c6a05fc	0.014283653
237	0x3d97907a	0.074006036
238	0xbcd90177	-0.026489956
239	0x3c9c0763	0.019046491
240	0x3c85bded	0.016325915
241	0x3d169701	0.036765102
242	0x3c81d03c	0.015846364
243	0x3a6ef766	0.0009115845
244	0x3da68462	0.08130719
245	0x3a1b4fb4	0.00059246575
246	0x3cfe12a7	0.031014754
247	0x3ce3f357	0.027825994
248	0x3dafabc0	0.085776806
249	0x3d876d75	0.06612674
250	0x3b81ebe9	0.0039648903
251	0x3d624307	0.055239704
252	0x3d907449	0.0705343
253	0x3db17ee7	0.08666783
254	0xbcdf7c7e	-0.027281042
255	0x3cf1e26e	0.029526915

network_body._body_endoder.seq_layers.2.weight f4 [256, 256]
0	0xbd135f9a	-0.035979845
1	0xbcd7f103	-0.02636004
2	0xbd928d51	-0.0715586
3	0x3c1aa5c0	0.009438932
4	0xbd46e4a9	-0.04855791
5	0x3d85e499	0.06537742
6	0x3e3cbd80	0.18431664
7	0x3e2080c7	0.15674125
8	0x3bf2e356	0.0074123545
9	0x3de8d26e	0.11368261
10	0x3deaeab2	0.11470546
11	0xbd216822	-0.03940595
12	0x3c2826f3	0.0102631925
13	0xbc00cc5e	-0.007861225
14	0x3d6bfa44	0.05761172
15	0x3e5eac4f	0.21745418
16	0xbd88cac0	-0.066792965
17	0xbca9041f	-0.020631848
18	0x3db0aabb	0.08626314
19	0xbd1b1a92	-0.037867136
20	0xbc92bcbd	-0.017912263
21	0xbcbd5986	-0.023113977
22	0xbcf5f1cb	-0.030022522
23	0x3a444439	0.00074869726
24	0xbcd7debf	-0.02635133
25	0x3d026716	0.03183659
26	0xbc99b2ae	-0.018761959
27	0x3cd6becd	0.026214028
28	0x3cd2b539	0.02572118
29	0x3c844816	0.016147655
30	0x3d13aa51	0.0360511
31	0x3c8f04f0	0.01745841
32	0x3d22f7d4	0.03978713
33	0xbdbc35c4	-0.091899425
34	0x3c2602f2	0.010132538
35	0x3d7d103d	0.061783064
36	0xbd07e613	-0.0331784
37	0xbdbfec58	-0.09371251
38	0x3d2bdb66	0.04195728
39	0x3ba194b4	0.004931057
40	0x3cfa907c	0.030586474
41	0xbe0a412b	-0.13501422
42	0x3e415315	0.1887935
43	0x3de4fc3a	0.11180921
44	0x3db4969f	0.08817791
45	0x3df1c848	0.11805779
46	0x3d60ba58	0.05486521
47	0xbd3942d3	-0.045229744
48	0x3e06edab	0.131766
49	0x3cded9df	0.027203498
50	0x3954d968	0.00020298886
51	0x3d5efa9b	0.054438215
52	0xbd262368	-0.04056111
53	0xbe40ec36	-0.18840107
54	0xbc26b329	-0.010174551
55	0xbdab8ca0	-0.083764315
56	0xbcd01a62	-0.025403205
57	0x3d171b54	0.036891297
58	0x3d7c7e88	0.061644107
59	0x3da875b0	0.08225572
60	0xbe0cd489	-0.1375295
61	0x3d81bea4	0.0633519
62	0x3da09302	0.078405395
63	0xbd568179	-0.05236957
64	0x3d81c44c	0.06336269
65	0xbd335c83	-0.043789398
66	0xbac32365	-0.0014887868
67	0xbd50adfa	-0.050947167
68	0xbd952c52	-0.07283844
69	0xbc96ff4f	-0.018432287
70	0xbc84cbd1	-0.016210468
71	0x3d747a09	0.059686694
72	0xbe040640	-0.12893009
73	0x3d24ae4d	0.04020529
74	0x3dfd7359	0.123755164
75	0x3d97d5cf	0.07413828
76	0xbc3c78ca	-0.011503408
77	0x3e1e890c	0.15481967
78	0xbd37db12	-0.044886656
79	0xbd94f5ba	-0.07273431
80	0xbd730f00	-0.059340477
81	0x3db3f82d	0.0878757
82	0x3d8b9e6c	0.06817326
83	0x3e25cfee	0.161926
84	0x3bd99b39	0.0066408184
85	0x3e005377	0.1253184
86	0xbafd31ed	-0.0019317247
87	0x3e0a9220	0.13532305
88	0xbdf7b876	-0.1209573
89	0xbd9aecd3	-0.07564702
90	0x3d0b7fbe	0.03405737
91	0xbdd16f1a	-0.10226269
92	0x3d96ac70	0.073571086
93	0xbdcf8e27	-0.10134535
94	0x3de0d4c4	0.10978082
95	0xbb00c6be	-0.001964971
96	0xbdae40a8	-0.08508426
97	0x3d924090	0.071412206
98	0x3daf58b5	0.085618414
99	0x3dd7b9b2	0.105334654
100	0xbdc92f15	-0.09823433
101	0x3d5e8228	0.054323345
102	0xbd0dc544	-0.034611955
103	0xbc969e6e	-0.018386092
104	0xbdfe0b1a	-0.12404461
105	0x3cf2ee2f	0.02965459
106	0xbbf74d10	-0.0075470284
107	0xbd942cbe	-0.072350964
108	0xbb4e1471	-0.003144529
109	0x3dde5b70	0.10857284
110	0x3c67b7e9	0.014142969
111	0xbcdc5171	-0.026894303
112	0x3de07d73	0.109614275
113	0x3e120974	0.14261419
114	0xbcb1d9a7	-0.02171023
115	0xbd5e5582	-0.054280765
116	0xbd75b624	-0.059988156
117	0xbda53d42	-0.080683246
118	0x3db14daa	0.08657391
119	0x3d1d0bd0	0.038341343
120	0x3e09df96	0.13464198
121	0xbd61b888	-0.055107623
122	0x3d0652d7	0.032793846
123	0xbc9c429c	-0.01907473
124	0x3cbb663d	0.0228759
125	0xbd894024	-0.06701687
126	0x3cea37a4	0.028590985
127	0x3df4da5a	0.1195571
128	0xbdd9bdc3	-0.10631897
129	0xbd231f69	-0.039824877
130	0xbd5238b7	-0.05132362
131	0xbbc08856	-0.0058756275
132	0xbc71e88f	-0.014764919
133	0xbdb37f4f	-0.087645166
134	0xbdab6985	-0.08369736
135	0x3c43ccd8	0.011950694
136	0x3dd27bab	0.10277494
137	0x3dad5231	0.084629424
138	0x3d8153ba	0.06314798
139	0x3db7e251	0.08978713
140	0xbbf9112c	-0.007600924
141	0x3d6491cd	0.05580311
142	0x3d7a6fe2	0.061141856
143	0x3d81a6b1	0.06330622
144	0xbdd04c5c	-0.101708144
145	0x3c9fed99	0.019522475
146	0x3cb58533	0.02215824
147	0xbd5dde17	-0.05416688
148	0x3db7ffe4	0.08984354
149	0xb9b662d9	-0.00034787392
150	0x3ba0fb98	0.004912805
151	0x3c8992e1	0.01679367
152	0xbcc0b9bb	-0.023526063
153	0x3d17c995	0.037057478
154	0x3cfcc8f4	0.03085754
155	0x3e0471f6	0.12934098
156	0x3d814254	0.06311479
157	0xbd4fd5d3	-0.050741028
158	0x3d6e43ed	0.058170248
159	0xbc8f671c	-0.017505221
160	0x3dfd3eb8	0.12365478
161	0x3d43c68c	0.04779677
162	0x3e3218df	0.173923
163	0xbe1d37d5	-0.1535333
164	0x3d3cb514	0.046071127
165	0xbc87a600	-0.016558647
166	0x3da4e4cf	0.08051454
167	0xbe2e891f	-0.17044495
168	0x3d669e47	0.05630329
169	0xbda888fb	-0.08229252
170	0x3d892767	0.066969685
171	0xbd9c8094	-0.07641712
172	0xbbebcc52	-0.0071959877
173	0x3c0639d0	0.0081924945
174	0x3d8ee6cb	0.06977614
175	0xbc7ea5a2	-0.01554242
176	0x3e14d7e6	0.14535484
177	0xbc749975	-0.014929165
178	0xbda88b6a	-0.08229716
179	0x3c3ec8df	0.011644571
180	0x3d9844a9	0.07434971
181	0x3bb67239	0.0055678156
182	0x3ce410fc	0.02784013
183	0x3d2c937a	0.042132832
184	0xbdb574aa	-0.088601425
185	0xbdbc5b45	-0.09197096
186	0x3de09b11	0.109670766
187	0xbe100904	-0.14065939
188	0x3cf1cf21	0.029517712
189	0x3d5453be	0.051837675
190	0x3d72b4fd	0.059254635
191	0xbdc1e333	-0.09467163
192	0xbc84578e	-0.01615503
193	0x3d3471a4	0.04405369
194	0x3d07fc57	0.033199634
195	0xbe0d30fd	-0.13788219
196	0x3d1b69d0	0.037942708
197	0xbd12c6d4	-0.03583415
198	0xbd40e770	-0.047095716
199	0xbb74603e	-0.003728881
200	0xbdf27180	-0.11838055
201	0xbda2bbbb	-0.07945963
202	0x3de63fb2	0.11242618
203	0xbd1cc388	-0.03827241
204	0x3dab2803	0.08357241
205	0xbb7c9d86	-0.003854604
206	0xb9950b9c	-0.00028428144
207	0xbd049a25	-0.032373566
208	0x3cb359e2	0.021893445
209	0xbc23ef36	-0.010005763
210	0x3e40f055	0.1884168
211	0xbdb9ab08	-0.09065825
212	0xbe044aac	-0.1291911
213	0xbbad403f	-0.0052871997
214	0xbd3ff627	-0.04686561
215	0x3d562996	0.052285753
216	0xbdcd518e	-0.10025321
217	0xbdbcc22b	-0.09216722
218	0x3bda113b	0.006654886
219	0x3e1c94ab	0.15291087
220	0x3d179a0b	0.03701214
221	0xbe8f8117	-0.28028175
222	0x3d593e06	0.053037666
223	0x3d38893a	0.045052744
224	0x3b8e02d4	0.004333833
225	0xbd57dd2c	-0.05270116
226	0xbd242be5	-0.040080924
227	0xbd0069a9	-0.031350765
228	0xbcc5c64f	-0.024142412
229	0x3d0accfc	0.033886895
230	0x3dfccd47	0.12343841
231	0xbb5eb016	-0.0033979467
232	0x3d6ba906	0.05753424
233	0x3dc11a58	0.09428853
234	0xbc805f64	-0.015670486
235	0x3d27a69a	0.040930368
236	0x3d053e42	0.032530077
237	0xbd165c8f	-0.036709365
238	0xbd42f957	-0.04760107
239	0x3bca74e2	0.0061784843
240	0xbcca3d0f	-0.024687318
241	0xbd8e2acf	-0.06941759
242	0x3ca452f1	0.02005908
243	0xbc7362dd	-0.014855114
244	0xbdce1e7a	-0.10064407
245	0xbd9a38d5	-0.07530371
246	0x3e0de310	0.13856149
247	0x3afb5cde	0.0019177457
248	0x3dc53397	0.096289806
249	0x3c46327c	0.012096997
250	0xbd6e7b4b	-0.05822305
251	0x3e42ab6b	0.19010703
252	0x3cc67225	0.02422435
253	0x3d269b85	0.04067566
254	0x3cc42a34	0.023945905
255	0x3d53e420	0.05173123

network_body._body_endoder.seq_layers.2.bias f4 [256]
0	0x3d1650c5	0.03669812
1	0x3d2ae58b	0.041722815
2	0x3c3e606d	0.011619669
3	0x3cfa9712	0.030589614
4	0x3c3facfa	0.011698956
5	0x3d1aa8e1	0.03775871
6	0x3b3187a3	0.0027088902
7	0x3d1e7f86	0.038695835
8	0x3d0c217f	0.034211632
9	0x3d879940	0.06621027
10	0xbb057fe3	-0.0020370416
11	0x3d6b525c	0.05745159
12	0x3d30de78	0.043180913
13	0x3d1258bd	0.03572916
14	0x3ce9f0ef	0.028557269
15	0x3d1f9655	0.038961727
16	0x3d26b8a7	0.040703442
17	0xbc8c6e96	-0.017142575
18	0x3a6b553b	0.0008977239
19	0x3c81dd2d	0.015852535
20	0xbca6eb2a	-0.020375807
21	0x3d587f07	0.052855518
22	0x3ac0fab7	0.0014723156
23	0x3d233e93	0.039854597
24	0x3ca4fad8	0.020139143
25	0x3c89976f	0.016795842
26	0xbc0b97c8	-0.008520074
27	0x399f04b4	0.00030330347
28	0x3d0d6127	0.03451648
29	0x3c18709d	0.009304193
30	0xb8cbfd80	-9.7270124e-05
31	0x3c1a3e51	0.009414271
32	0x3d52ba68	0.051447302
33	0x3dc1afc7	0.09457355
34	0x3d350c3d	0.044201124
35	0xbbf4ab88	-0.007466737
36	0x3cce5eb6	0.025191646
37	0x3cc8884e	0.024479058
38	0x3bccf3a8	0.006254632
39	0x3d229fa5	0.03970303
40	0x3d03c5a0	0.03217089
41	0x3d72a3b5	0.059238154
42	0x3c4801c4	0.012207452
43	0x3d32d0a9	0.043656025
44	0xbc095ae9	-0.008383491
45	0x3d30cf2b	0.04316632
46	0x3d21426e	0.039369993
47	0x3cd9dd7a	0.026594866
48	0x3c429a62	0.011877628
49	0x3cdcea99	0.026967334
50	0x3a86e0d6	0.0010290395
51	0x3bda25f7	0.006657358
52	0x397ca271	0.00024093107
53	0x3c1bdf8f	0.00951375
54	0x3d666a34	0.056253627
55	0xbd1f82ac	-0.038942978
56	0x3d3feb1a	0.04685507
57	0x3b8ac150	0.0042344704
58	0x3c8c05cb	0.017092606
59	0x3c179996	0.009252926
60	0x3d3f62e3	0.046725165
61	0x3d3dd683	0.046347152
62	0x3bc9ba87	0.006156269
63	0xbb7703df	-0.0037691516
64	0xbcd4529d	-0.0259183
65	0x3c8bff08	0.017089382
66	0x3c4815ab	0.012212197
67	0x3d36fb22	0.044673093
68	0x3d5ea3c6	0.054355405
69	0x3cbff201	0.023430826
70	0x3d041691	0.032248084
71	0x3d377f80	0.044799328
72	0x3ca8780a	0.020565052
73	0x3dad9bc8	0.084769785
74	0x3bf79298	0.007555317
75	0x3d394c44	0.04523875
76	0x3c1b7d35	0.009490301
77	0x3d6f9ee1	0.058501128
78	0x3d0b4dff	0.03400993
79	0x3c19ecfb	0.009394879
80	0x3d4e248e	0.05032783
81	0xbb248e43	-0.0025109209
82	0x3cc2a16d	0.023758614
83	0x3d156c3e	0.03648018
84	0x3bf55b21	0.00748767
85	0x3d6afab8	0.05736801
86	0x3cf5e3a3	0.030015772
87	0xbc710c3c	-0.01471239
88	0x3c9f82e8	0.0194716
89	0x3c217ade	0.009855954
90	0x3d5feb2c	0.054667637
91	0x3d6e3b4a	0.05816201
92	0x3d70e993	0.058816504
93	0xbc64cc04	-0.013964657
94	0x3cbd2fea	0.023094136
95	0x3d934432	0.071907416
96	0x3cb8b5c4	0.02254761
97	0x3ac41405	0.001495958
98	0xbb876d2e	-0.0041328883
99	0xbacf2a26	-0.0015805408
100	0x3db33854	0.08750978
101	0x3d2cb6ad	0.0421664
102	0x3d7f56dc	0.062338695
103	0xbb07e1cb	-0.0020733948
104	0x3cf05f72	0.029342387
105	0x3d95c6f5	0.07313339
106	0x3d5c5180	0.053788662
107	0x3c628eef	0.013828023
108	0x3d0c85b5	0.0343072
109	0x3d0ba071	0.034088556
110	0xbcccb9a8	-0.024990872
111	0x3c8905c2	0.016726378
112	0xbbd3994c	-0.0064574834
113	0x3d97305e	0.07382272
114	0x3c21f9e2	0.009886237
115	0x3cd935d9	0.026514934
116	0x3cac6394	0.021043576
117	0x3d4a6e27	0.049421456
118	0xba8891ad	-0.0010419391
119	0x3d3348fb	0.04377077
120	0x3c38fad6	0.011290273
121	0x3c434461	0.011918158
122	0x3ab38a38	0.0013697809
123	0x3c587b54	0.0132129975
124	0x3c65f039	0.014034324
125	0x3d00ea2e	0.03147333
126	0xbc32ac01	-0.010905267
127	0x3c78eb81	0.015192867
128	0xbcdf28fd	-0.027241224
129	0xbb48685c	-0.003057978
130	0x3c75e25c	0.015007582
131	0x3c5579d8	0.013029538
132	0x3cba164c	0.02271571
133	0xbc8d004b	-0.017212054
134	0x3d17543f	0.036945578
135	0x3c17dfd3	0.009269672
136	0x3cf06628	0.029345587
137	0x3c3696b7	0.011144332
138	0xbca70ab9	-0.020390855
139	0x3d2f4dc1	0.04279876
140	0x3d1420e8	0.036164194
141	0x3a92f18d	0.0011210904
142	0x3d42c8f3	0.04755492
143	0x3d5657b6	0.05232974
144	0x3cb63e5c	0.022246532
145	0x3c65b3d2	0.014019923
146	0x3cb7b39c	0.022424512
147	0x3d5585dc	0.05212961
148	0x3c0b321f	0.0084958365
149	0xbcae8cfd	-0.021307463
150	0x3d6f8505	0.058476467
151	0x3c9d9d86	0.019240152
152	0x3d314a2e	0.043283634
153	0xbb59e367	-0.0033247115
154	0x3ccb32b6	0.024804454
155	0x3c1df04f	0.009639814
156	0x3d94b650	0.07261336
157	0x3b01ad16	0.0019787005
158	0x3c8365af	0.016039697
159	0x3c21e82c	0.009882014
160	0x3c984bad	0.018590773
161	0x3d5ba382	0.05362273
162	0x3c963f9e	0.018340882
163	0x3cdf2949	0.027241366
164	0xbcd5d80b	-0.026103994
165	0x3d13bb63	0.036067378
166	0xbc4490ef	-0.0119974455
167	0x39a34547	0.00031141398
168	0x3d55f582	0.052236088
169	0x3d421c07	0.04739001
170	0x3b421215	0.0029612829
171	0x3d03044b	0.031986516
172	0x3d678384	0.056521907
173	0x3ca9f525	0.020746777
174	0x3d9a2892	0.075272694
175	0xba249ffc	-0.0006279943
176	0x3c93277a	0.01796316
177	0x3c38a9a9	0.011270919
178	0x3bde384b	0.006781613
179	0x3c56d485	0.013112192
180	0x3d986877	0.074418
181	0x3c48de00	0.01225996
182	0x3ca3c47b	0.01999115
183	0x3d0c043d	0.03418373
184	0x3cb05808	0.021526352
185	0x3bb0db61	0.0053972458
186	0x3cc043ff	0.023469923
187	0x3c3f7ab9	0.011686974
188	0x3b93702f	0.0044994573
189	0x3bea66e6	0.0071533797
190	0x3d965e7d	0.07342241
191	0x3c94168f	0.018077163
192	0x3cf82d7d	0.030295128
193	0xbc93860c	-0.018008254
194	0x3d0b397d	0.033990372
195	0x3db2c478	0.0872888
196	0x3d15a0af	0.036530193
197	0x3d1b0323	0.03784479
198	0x3ce56d4b	0.028006217
199	0xbb594a99	-0.0033156036
200	0xba9f86a8	-0.0012170868
201	0x3d35c9ac	0.044381782
202	0x3d50b75f	0.050956126
203	0xbc826823	-0.015918797
204	0xb9603a4d	-0.00021384023
205	0x3d0b33a3	0.03398479
206	0xbc84039a	-0.016114999
207	0x3d7bc717	0.061469164
208	0x3cb7062b	0.022341808
209	0x3d98e733	0.07465973
210	0xbc565e34	-0.013083983
211	0x3babc3cb	0.005241846
212	0x3cc83134	0.024437524
213	0x3d1a1303	0.037615787
214	0x3d8a0035	0.06738321
215	0xbb784d33	-0.0037887811
216	0x3d53c7fd	0.051704396
217	0x3da8b0c3	0.082368396
218	0x3c8cc749	0.01718487
219	0x3d6ae912	0.05735118
220	0x3d88659f	0.06660008
221	0x3d6277c7	0.05529001
222	0xbc6438ba	-0.01392954
223	0xbbf31d98	-0.0074192993
224	0x3d1a6deb	0.037702482
225	0x3bde8ba4	0.006791549
226	0x3d05b4ac	0.032643005
227	0xba08213b	-0.000519294
228	0xbc537049	-0.012905189
229	0xbb8560f9	-0.004070398
230	0x3cebd2c2	0.02878702
231	0x3d89da9c	0.067311496
232	0xbc07853c	-0.008271512
233	0x3d6783bc	0.056522116
234	0x3b611d70	0.0034349822
235	0x3c84c40f	0.01620677
236	0x3d7f127c	0.062273487
237	0x3d555148	0.05207947
238	0xbc0cb9aa	-0.008589188
239	0x3d179060	0.03700292
240	0x3d33ec4c	0.043926522
241	0x3c76d06b	0.015064339
242	0xbc32409c	-0.010879662
243	0x3c4d9604	0.012547974
244	0x3c24a4c7	0.010049052
245	0x3dad681b	0.08467122
246	0xba040cec	-0.0005037326
247	0xbc9ba94d	-0.019001627
248	0x3cf04bab	0.029332956
249	0x3ca90fdc	0.020637445
250	0x3b191c42	0.002336279
251	0x3bcc0744	0.006226452
252	0x3d8fc8e3	0.07020738
253	0x3d429d3f	0.047513243
254	0x3b6cf92d	0.0036159263
255	0x3d024aa8	0.03180948

action_model._continuous_distribution.log_sigma f4 [1, 12]
0	0xbec9aa60	-0.39387798
1	0xbe864736	-0.26226205
2	0xbec40ac8	-0.38289475
3	0xbe84fd57	-0.25974533
4	0xbead1acf	-0.33809516
5	0xbeb039da	-0.34419137
6	0xbea1f2e4	-0.31630623
7	0xbe71f531	-0.2362869
8	0xbea4b583	-0.32169732
9	0xbe7a6d94	-0.24455863
10	0xbe81c683	-0.25346765
11	0xbe955396	-0.29165334

action_model._continuous_distribution.mu.weight f4 [12, 256]
0	0x3b72c3fd	0.0037043088
1	0x3a0455e8	0.00050482014
2	0xbd8d9f47	-0.06915145
3	0xbda24246	-0.07922797
4	0x39b908ac	0.0003529241
5	0xbcda12fe	-0.026620384
6	0xbdfd4838	-0.1236729
7	0x3d0a23c1	0.033725504
8	0x3c0f13c9	0.0087327445
9	0x3d0b2127	0.033967163
10	0x3cd1a6f1	0.0255923
11	0x3d1646a7	0.036688473
12	0x3c8f97a5	0.017528364
13	0x3b24f4c8	0.0025170315
14	0xbb8c77bc	-0.0042867344
15	0x3d865f27	0.065611176
16	0x3d7a9c9c	0.06118451
17	0x3d14a167	0.036286738
18	0xbce3f90f	-0.027828721
19	0x3cedae39	0.02901374
20	0x3ce9322c	0.028466307
21	0x3ce30fdf	0.027717529
22	0xbceeacbf	-0.029135106
23	0x3c91c482	0.017793898
24	0xbd636f5b	-0.05552612
25	0xba501faf	-0.00079392915
26	0xbd563a7f	-0.05230188
27	0xbd3e65e9	-0.046483908
28	0xbc0a8a32	-0.0084558
29	0xbd93a6e0	-0.07209563
30	0x3b8eb508	0.0043550767
31	0xbd4ba6d1	-0.049719635
32	0x3c85535d	0.016275102
33	0x3d449d5d	0.048001636
34	0x3d029179	0.031877015
35	0x3c4d2a70	0.012522325
36	0x3d048ae1	0.032359008
37	0x3d5da075	0.054108102
38	0x3cfd6e93	0.030936515
39	0x3d60df78	0.054900616
40	0x3cafa15c	0.021439247
41	0x3d83274b	0.06403979
42	0x3cefa726	0.029254507
43	0x3d16716f	0.036729272
44	0xbcd62a54	-0.02614323
45	0x3c9823ba	0.018571723
46	0x3c5d7ebf	0.013518988
47	0xbc2a520e	-0.01039554
48	0x3dac1cb2	0.08403911
49	0xb9d48510	-0.0004053493
50	0xbacc5de3	-0.0015591945
51	0xbbe9f172	-0.007139378
52	0xbc0c59b6	-0.008566311
53	0x3ccc3636	0.024928194
54	0x3cc29fc5	0.023757825
55	0x3b5f5746	0.0034079119
56	0x3afa5b80	0.0019100755
57	0xbd6feb4a	-0.058574
58	0xbd0db263	-0.03459395
59	0xbc8b4a11	-0.017003091
60	0x3c936807	0.01799394
61	0xbd0ce1f4	-0.034395173
62	0x3bcc9476	0.006243284
63	0xba81b202	-0.0009894969
64	0x3bcf6c90	0.0063300803
65	0x3d63ac06	0.055583976
66	0x3d740e23	0.059583794
67	0x3dadeb68	0.08492166
68	0x3d2271fb	0.03965948
69	0xbbb6f195	-0.005582998
70	0xbc86f269	-0.016473012
71	0x3d00bd88	0.03143075
72	0xbcc92297	-0.024552627
73	0xbc4602a2	-0.012085589
74	0x3cf6ec08	0.030141845
75	0xbc294f41	-0.010333837
76	0xbcafaa7d	-0.0214436
77	0x3d1411a1	0.036149625
78	0xbd628695	-0.05530413
79	0xbd625ec0	-0.055266142
80	0x3b9f97b6	0.0048703803
81	0xbc27644c	-0.010216784
82	0xbd187d68	-0.03722897
83	0x3bbe6ec6	0.005811545
84	0x3d024c33	0.03181095
85	0x3d47cb31	0.048777763
86	0xbd487573	-0.048940133
87	0xbcb9044e	-0.02258506
88	0x3cc5258c	0.024065755
89	0xbcc7bf13	-0.024383103
90	0xbc8b2ff2	-0.016990636
91	0xbc89366d	-0.016749585
92	0x3d472951	0.048623387
93	0xbce905d7	-0.028445167
94	0x3d22c637	0.039739814
95	0x3d89c763	0.06727483
96	0x3d1a16f0	0.03761953
97	0x3d19934d	0.037493993
98	0xbd0ef19d	-0.03489839
99	0xbc486bc9	-0.012232729
100	0x3cd8de45	0.026473174
101	0x3af6b5cb	0.0018822489
102	0x3d241b9a	0.040065385
103	0xbc9f65fa	-0.019457806
104	0x3d825377	0.06363576
105	0x3d87c44c	0.066292375
106	0xbd0c60ad	-0.034271885
107	0x3c1b5947	0.009481735
108	0xbc8474c2	-0.016168956
109	0x3cc73987	0.024319423
110	0xbc9c38b2	-0.019070003
111	0x3cb8d0e8	0.022560552
112	0x3d2782bd	0.040896166
113	0x3d16c347	0.036807325
114	0x3c185bc7	0.009299225
115	0xbd15ed10	-0.036603034
116	0xbcc78b41	-0.024358394
117	0x3c73c768	0.014879085
118	0x3c4843ab	0.012223165
119	0x3bb95c2f	0.005656741
120	0xbd6488b3	-0.05579443
121	0x3d8331d8	0.06405991
122	0xbcfa57a3	-0.030559367
123	0x3c441a56	0.01196917
124	0xbbc1eacd	-0.005917883
125	0x3d717c8f	0.05895668
126	0xbd97e5ef	-0.07416903
127	0xbdf170df	-0.117891066
128	0x3d6b1b4b	0.057399075
129	0xbcf83d89	-0.03030278
130	0x3c2fff4e	0.010742022
131	0x3ca1dcc0	0.019758582
132	0xbd2b0415	-0.04175194
133	0xbc03ea03	-0.008051398
134	0xbbe4996d	-0.0069762976
135	0xbd91f524	-0.07126835
136	0x3cc0f13f	0.023552535
137	0x3d522933	0.051308822
138	0xbc664fc3	-0.014057103
139	0x3cea4a77	0.02859996
140	0x3cfc60a0	0.030807793
141	0x3d09dba7	0.033656742
142	0x3c5d7b3c	0.013518151
143	0xbd37df91	-0.044890944
144	0x3c2dd379	0.010609501
145	0xbc2560d5	-0.010093887
146	0xbc99f94e	-0.018795636
147	0x3c9dd786	0.019267809
148	0x3d600535	0.054692466
149	0x3cf409ba	0.029789794
150	0x3d25650d	0.040379573
151	0x3cc065fe	0.023486134
152	0x3d97e7c0	0.0741725
153	0x3bc4369d	0.0059879557
154	0xbd92a8a6	-0.071610734
155	0x3d2fcaa6	0.04291787
156	0x3da78438	0.081795156
157	0xbd1df320	-0.03856194
158	0x3ce36c24	0.027761526
159	0x3d041d30	0.032254398
160	0x3d007513	0.03136165
161	0xbc7d43d5	-0.015458067
162	0x3cbbd674	0.022929408
163	0x3cd4097f	0.025883434
164	0xbbfe5786	-0.0077618985
165	0x3a594772	0.0008288539
166	0x3d29b0ae	0.04142826
167	0xbc848394	-0.016176023
168	0x3d9240a4	0.071412355
169	0x3d4e7c0f	0.05041128
170	0xbd46e1f0	-0.048555315
171	0xbc29c196	-0.010361096
172	0x3d650c4b	0.055919927
173	0xbd1a83d4	-0.037723377
174	0x3d6964c0	0.05698085
175	0x3c1c9d32	0.009558963
176	0x3c4f45c2	0.012650909
177	0xbd2a2a77	-0.041544404
178	0x3d63e77b	0.05564068
179	0xbc2bac07	-0.010478026
180	0x3d0276f5	0.031851728
181	0x3a0bfb01	0.00053398317
182	0xbd33a408	-0.043857604
183	0x3d8c9f3f	0.06866311
184	0xbd340b8f	-0.043956336
185	0xbd7afe9e	-0.061277978
186	0xbd9d7326	-0.076879784
187	0x3d2dceb5	0.04243346
188	0x3ce42969	0.027851777
189	0x3ccda12d	0.025101269
190	0x3d7daaed	0.061930586
191	0x3d3b48a1	0.04572356
192	0x3bf58a76	0.0074933125
193	0xbc6b6892	-0.014368193
194	0x3d2df4ae	0.042469673
195	0x3d9db35d	0.077002265
196	0x3d26f08e	0.040756755
197	0xbd9d4f74	-0.0768117
198	0x3b1dbd3a	0.0024069087
199	0x3cce1de2	0.025160734
200	0x3d83638c	0.064154714
201	0x3d199399	0.037494276
202	0x3d57b015	0.05265816
203	0xbd62f23a	-0.055406787
204	0xbaef6f87	-0.0018267491
205	0xbdcac427	-0.09900694
206	0xbd56525c	-0.052324638
207	0x3d4c3041	0.049850706
208	0xbcc215b4	-0.02369199
209	0x3d6457af	0.055747684
210	0xbd402f9c	-0.046920404
211	0x3bb17387	0.0054153833
212	0xbcd8d258	-0.026467487
213	0xbdea5dc9	-0.11443669
214	0x3ca3e520	0.020006716
215	0xbc8c0020	-0.017089903
216	0x3bf3676c	0.0074281003
217	0x3d14fb04	0.0363722
218	0xbd2a0c83	-0.04151584
219	0x3c3f05c8	0.011659093
220	0x3c92d297	0.017922683
221	0x3cf9ceca	0.030494113
222	0xbdc564c4	-0.0963836
223	0xbd3831a2	-0.04496921
224	0x3da0f3c6	0.07858996
225	0xbcb98b9c	-0.022649579
226	0x3c9d442b	0.019197544
227	0xbd5b7858	-0.053581566
228	0xbdba62ea	-0.091008976
229	0x3cee6e70	0.029105395
230	0x3d237e59	0.039915416
231	0x3ce8c841	0.028415801
232	0x3cf8d882	0.030376676
233	0xb9af2096	-0.0003340288
234	0xbc48ff2b	-0.012267868
235	0x3d2060dc	0.039154872
236	0x3bb4a3f0	0.005512707
237	0xbb1e09ec	-0.00241148
238	0x3c964e70	0.018347949
239	0xbbce4d41	-0.0062958305
240	0x3d44ea9b	0.0480753
241	0xbd4c9613	-0.04994781
242	0xbd7193b7	-0.058978762
243	0xbc9e0985	-0.019291649
244	0x3c45b210	0.012066379
245	0x3cf00625	0.029299805
246	0x3d05bfc6	0.032653593
247	0xbd86538e	-0.065589055
248	0x3c0bd3c2	0.008534374
249	0xbbf3c815	-0.007439623
250	0x3cad7bb1	0.021177145
251	0x3d07b967	0.033135798
252	0x3d95446e	0.072884426
253	0x3d49db09	0.049281154
254	0x3ca2499b	0.019810488
255	0xbcd11568	-0.025522903

action_model._continuous_distribution.mu.bias f4 [12]
0	0x3d064879	0.03278396
1	0xbcc2d351	-0.023782404
2	0xbc3aa56a	-0.011391977
3	0x3a73fa1a	0.00093069824
4	0x3d451dc3	0.048124086
5	0xbc5e2c8e	-0.013560427
6	0x3d95e0cd	0.07318268
7	0x3cd6195b	0.026135137
8	0xbb72589f	-0.0036979092
9	0x3b659bed	0.0035035566
10	0x3cbb8f6d	0.02289554
11	0xbc4b06a9	-0.012391725

onnx::Div_51 f4 [75]
0	0x429590e0	74.78296
1	0x45ca25e1	6468.735
2	0x4490c95f	1158.2928
3	0x41711cd0	15.069534
4	0x413e7f4d	11.906079
5	0x4180550d	16.041529
6	0x3ee6abdc	0.45052993
7	0x4588734e	4366.413
8	0x48b84bd9	377438.78
9	0x47849dc0	67899.5
10	0x3f537452	0.82599366
11	0x3e88ce27	0.26719782
12	0x3d7c090c	0.061532065
13	0x3e29b4ad	0.16572829
14	0x3ee8f10b	0.454964
15	0x3d53b707	0.05168822
16	0x3e69b490	0.22822785
17	0x3f7b30b4	0.9812119
18	0x3e2ad033	0.16680984
19	0x3ed5c2db	0.41750225
20	0x3e207219	0.15668525
21	0x3da8277d	0.08210657
22	0x3ee61d72	0.4494434
23	0x3d91a69e	0.07111858
24	0x3e708231	0.23487164
25	0x3f2884cc	0.6582763
26	0x3ef8a4ca	0.48563224
27	0x3e5035fa	0.2033309
28	0x3da038e1	0.07823349
29	0x3e675a71	0.22593094
30	0x3ee5e328	0.4489987
31	0x3e0474f1	0.12935235
32	0x3e12e286	0.14344224
33	0x3f793559	0.9734703
34	0x3e80d64e	0.25163502
35	0x3e34f90d	0.1767313
36	0x3e765d8d	0.24059124
37	0x3e43c1cd	0.19116898
38	0x3ed889b5	0.42292562
39	0x3df60fc6	0.12014727
40	0x3db822dd	0.08991025
41	0x3f3ca78f	0.73693174
42	0x3e866f04	0.26256573
43	0x3e4f9d99	0.20274962
44	0x3d842a8a	0.06453426
45	0x3e495734	0.19662172
46	0x3ee0473f	0.43804356
47	0x3dd737a0	0.105086565
48	0x3e2677f7	0.162567
49	0x3f7f76db	0.99790734
50	0x3e51f1a5	0.20502336
51	0x3ec5b4f6	0.38614625
52	0x3e34d216	0.17658266
53	0x3e013863	0.12619166
54	0x3ee7a2b7	0.4524133
55	0x3d98fc60	0.07470012
56	0x3e6fc553	0.23415117
57	0x3f1bb86c	0.6082828
58	0x3ec377a0	0.38177204
59	0x3e51b079	0.20477475
60	0x3dac320f	0.084079854
61	0x3e8bea92	0.273274
62	0x3ede1e27	0.4338238
63	0x3dd7775b	0.10520812
64	0x3e4bacb8	0.19890106
65	0x3f7b5a86	0.98185
66	0x3e920c44	0.28524983
67	0x3eb76093	0.35815868
68	0x3e85a507	0.26102468
69	0x3decb9ab	0.11558851
70	0x3ed772b6	0.42079705
71	0x3dcb9acd	0.09941635
72	0x3e507d8a	0.2036039
73	0x3f3fb30a	0.74882567
74	0x3ed29aba	0.41133672
