results/packaging_fix_test_23/RobotAgent/RobotAgent-145555364.onnx (onnx, 359274 bytes, 9 tensors)

network_body.observation_encoder.processors.0.normalizer.running_mean f4 [75]
1.8085508 -162.70053 27.705502 -0.013788183 0.1395079 -0.0021245482 0.570476 605.31714
8065.5483 -1385.4222 1.4295701 0.15054482 0.022737782 -0.15428577 0.93417305 0.9033451
0.032612428 0.0277569 0.18267797 0.11267852 -0.16267803 0.08023847 0.90641403 0.8569421
-0.086851366 -0.531139 -0.10285067 0.1758255 0.024718555 -0.059710864 0.93680465 0.9049927
-0.108307 0.09279642 0.15921402 0.15502447 -0.06971349 0.044245638 0.91441566 0.86913806
-0.10172297 -0.046698347 -0.02745753 0.09041534 -0.012018084 -0.16863927 0.9175813 0.92275876
0.05020808 0.12157003 0.17051828 -0.006738401 -0.14827316 -0.05594629 0.74224687 0.8593782
0.027644198 -0.30213234 -0.24670495 0.12929063 0.015670823 -0.04625734 0.93766826 0.9059249
-0.083192796 0.025547028 0.10213801 0.036199417 -0.04947439 -0.00051161 0.77404815 0.8635402
0.0053983284 -0.0037120585 -0.12562928
00000000: 987e e73f 56b3 22c3 dea4 dd41 d5e7 61bc
00000010: 29db 0e3e 013c 0bbb b70a 123f 4c54 1744
00000020: 630c fc45 832d adc4 27fc b63f 6c28 1a3e
00000030: 9644 ba3c 17fd 1dbe f725 6f3f a041 673f
00000040: 9c94 053d 7062 e33c ef0f 3b3e ffc3 e63d
00000050: 1295 26be 1154 a43d c00a 683f 8f60 5b3f
00000060: 21df b1bd baf8 07bf 5fa3 d2bd 9a0b 343e
00000070: 917e ca3c 6193 74bd 6ed2 6f3f 9aad 673f
00000080: 0fd0 ddbd 0d0c be3d 0009 233e bcbe 1e3e
00000090: f2c5 8ebd ea3a 353d 2517 6a3f d57f 5e3f
000000a0: 2254 d0bd c446 3fbd 9dee e0bc ae2b b93d
000000b0: 7fe7 44bc c6af 2cbe 9ce6 6a3f eb39 6c3f
000000c0: fda6 4d3d b5f9 f83d 589c 2e3e cecd dcbb
000000d0: ebd4 17be f027 65bd e403 3e3f 3600 5c3f
000000e0: 1676 e23c 17b1 9abe 39a0 7cbe c364 043e
000000f0: 1960 803c 5678 3dbd 070b 703f b2ea 673f
00000100: fc60 aabd 0048 d13c bc2d d13d d745 143d
00000110: a8a5 4abd 911d 06ba 0528 463f f810 5d3f
00000120: 76e4 b03b 0246 73bb f6a4 00be

network_body._body_endoder.seq_layers.0.weight f4 [256, 75]
0.19284749 -0.06241715 -0.060945194 0.062451452 0.0030098003 0.06667437 0.053371117 -0.010728188
0.09166399 -0.025877975 0.14924164 -0.13857627 0.10134017 0.008857046 -0.06249649 0.095318444
-0.08201473 0.24759983 -0.09730055 -0.11184632 -0.06589544 -0.2395915 0.091481194 0.043980934
0.010550655 -0.20425312 0.12788916 -0.3178022 0.12142756 -0.03451891 -0.22011177 -0.16647802
-0.1416131 0.36229223 0.11066641 -0.13286678 0.08038744 -0.11851952 0.0733972 0.027636763
0.081828095 -0.090534285 0.057144847 0.33165762 0.31181437 0.3387157 0.1276548 -0.13248971
0.09383307 0.069600396 -0.004857174 0.14059319 -0.03932833 -0.19917421 0.13206883 0.15031868
0.199173 -0.11183423 -0.32777932 0.055247568 0.07666827 -0.23855862 -0.052651335 0.17987446
-0.035074923 0.17160673 0.27234808 -0.04311393 -0.3283643 -0.16559033 -0.0492515 0.27456787
0.223106 -0.044871047 0.23611493 0.3062796 -0.007852897 0.024479702 -0.22310555 0.23676036
0.04402748 0.046751224 -0.18757837 0.08992251 -0.04521055 0.0002601774 -0.29883716 -0.18500157
-0.034989934 -0.04656577 -0.08837934 -0.039114606 0.3410636 0.144049 -0.07783006 -0.08694883
-0.15220901 -0.035205774 -0.15685132 0.0052083046 0.013630599 -0.0728956 -0.18318063 0.0028344812
0.004379319 -0.047625612 0.15377244 -0.1078101 0.23121372 0.019083278 -0.06951056 -0.017083136
0.25643957 0.014462225 -0.14874132 -0.033929955 -0.18807313 -0.11684519 0.06352778 0.1311008
0.112398796 0.17161265 -0.18320484 0.25145888 -0.19844656 0.01663567 -0.26227763 0.07389758
0.11787021 0.03682956 -0.16221923 -0.14937633 -0.008110058 -0.083344385 0.004461794 0.027167644
0.061995536 -0.06416287 -0.057036866 -0.18851535 0.098025165 0.049329966 -0.104994245 0.13791835
-0.32033753 -0.19200985 0.1676971 0.04919192 0.17068638 -0.086132474 0.10111293 0.15974233
0.15741336 -0.46599 -0.02235119 -0.037007082 -0.16970737 0.12035557 -0.11064256 -0.1344802
0.054556563 0.20653659 -0.016583085 -0.14101401 -0.16187124 0.31343073 -0.14914666 -0.062040564
-0.13154824 -0.013408826 0.03116479 -0.070188515 0.091724716 0.031888697 0.120215654 -0.07521707
-0.1607902 -0.05582477 -0.1296174 0.058822107 0.12032578 -0.07635289 -0.18182035 -0.11492229
-0.35900605 0.05452141 0.0817871 -0.23242804 -0.038429692 0.05817908 0.050382353 -0.013813423
-0.12236364 -0.010006436 0.12606627 -0.012094538 0.09674608 -0.16047786 -0.14887105 0.0766761
-0.0554968 0.18150623 -0.04313804 -0.25870368 0.046556573 0.03296827 -0.050034158 0.19499102
0.3201529 -0.20381844 -0.064192966 0.050225552 0.029604742 -0.23994587 0.076713406 0.078783944
-0.18824938 0.002008931 -0.10493054 -0.053739533 -0.1029774 -0.22700806 -0.02905727 -0.0566961
0.1842653 0.31021938 0.06609607 0.1381484 0.13351956 -0.13388993 -0.032647997 0.24122626
-0.10229359 0.012484228 0.10674582 0.07301583 -0.23030412 -0.13611732 0.068763725 0.019046644
-0.26165 -0.14863291 -0.14578015 -0.069595695 0.060569547 0.003569402 0.087667875 0.038368687
-0.019412113 0.006279179 0.25621033 -0.12574326 -0.05798434 0.2979408 -0.05938074 -0.05757663
00000000: d079 453e 20a9 7fbd aba1 79bd 18cd 7f3d
00000010: 1240 453b 928c 883d ac9b 5a3d 48c5 2fbc
00000020: 54ba bb3d 0cfe d3bc cdd2 183e f0e6 0dbe
00000030: 6f8b cf3d 251d 113c 52fc 7fbd 5136 c33d
00000040: 57f7 a7bd cf8a 7d3e 8345 c7bd af0f e5bd
00000050: 30f4 86bd 7957 75be 7e5a bb3d 5a25 343d
00000060: a8dc 2c3c bb27 51be 60f5 023e f8b6 a2be
00000070: 03af f83d b363 0dbd fb64 61be 3779 2abe
00000080: 0603 11be 5e7e b93e 12a5 e23d 3b0e 08be
00000090: 2ca2 a43d 5dba f2bd 4551 963d 7e66 e23c
000000a0: 7d95 a73d 0a6a b9bd b710 6a3d 07cf a93e
000000b0: 22a6 9f3e 256c ad3e f1b7 023e 62ab 07be
000000c0: 8d2b c03d a78a 8e3d ee28 9fbb a9f7 0f3e
000000d0: be16 21bd 53f4 4bbe 0d3d 073e 24ed 193e
000000e0: 02f4 4b3e 5809 e5bd b1d2 a7be 464b 623d
000000f0: 4104 9d3d b648 74be eda8 57bd 0331 383e
00000100: b9aa 0fbd adb9 2f3e 3571 8b3e 3b98 30bd
00000110: 5e1f a8be 8390 29be f1bb 49bd 2994 8c3e
00000120: e675 643e b4ca 37bd 1dc8 713e aed0 9c3e
00000130: 70a9 00bc a889 c83c c875 64be 4f71 723e
00000140: 2956 343d 367e 3f3d 8b14 40be 4b29 b83d
00000150: b32e 39bd 6b68 8839 2f01 99be 0d71 3dbe
00000160: 9b51 0fbd c0bb 3ebd 3a00 b5bd a336 20bd
00000170: e39f ae3e 9581 133e 5e65 9fbd 3a12 b2bd
00000180: aedc 1bbe ee33 10bd a29d 20be 6daa aa3b
00000190: e052 5f3c 4a4a 95bd b493 3bbe b4c2 393b
000001a0: 6480 8f3b 1313 43bd 8676 1d3e 8bcb dcbd
000001b0: 4ac3 6c3e 8954 9c3c 8d5b 8ebd eff1 8bbc
000001c0: 0c4c 833e f8f2 6c3c a54f 18be 23fa 0abd
000001d0: 3e96 40be 884c efbd da1a 823d 4a3f 063e
000001e0: 5731 e63d 3abb 2f3e 0d9a 3bbe 38bf 803e
000001f0: 9335 4bbe 8747 883c 4149 86be 9d57 973d
00000200: f065 f13d 98da 163d cc1c 26be 1cf6 18be
00000210: 0ce0 04bc 76b0 aabd 3e34 923b ae8e de3c
00000220: 08ef 7d3d d367 83bd 7d9f 69bd 2b0a 41be
00000230: 6bc1 c83d 380e 4a3d 3907 d7bd 783a 0d3e
00000240: 4803 a4be 3b9e 44be cab8 2b3e 777d 493d
00000250: 69c8 2e3e 3966 b0bd 4c14 cf3d 7e93 233e
00000260: f830 213e 3e96 eebe d819 b7bc bd94 17bd
00000270: c5c7 2dbe fb7c f63d 9198 e2bd 2db5 09be
00000280: b476 5f3d 547e 533e 40d9 87bc fa65 10be
00000290: 93c1 25be fe79 a03e e7b9 18be 3f1e 7ebd
000002a0: 95b4 06be b1b0 5bbc 4d4d ff3c ffbe 8fbd
000002b0: 2bda bb3d b99d 023d a033 f63d 680b 9abd
000002c0: 30a6 24be 84a8 64bd 6cba 04be 73ef 703d
000002d0: 5d6d f63d e75e 9cbd 1d2f 3abe 615c ebbd
000002e0: a4cf b7be d851 5f3d ff7f a73d 9e01 6ebe
000002f0: 7468 1dbd 304d 6e3d ba5d 4e3d b251 62bc
00000300: ca99 fabd 09f2 23bc 8417 013e 2b28 46bc
00000310: cf22 c63d 4f54 24be a771 18be 5c08 9d3d
00000320: 9d50 63bd c5dc 393e 83b1 30bd cf74 84be
00000330: 1bb2 3e3d bd09 073d 9ef0 4cbd baab 473e
00000340: 15eb a33e c8b5 50be 9a77 83bd 4fb9 4d3d
00000350: a585 f23c 5fb4 75be eb1b 9d3d 7a59 a13d
00000360: 72c4 40be 45a8 033b d3e5 d6bd fc1d 5cbd
00000370: d1e5 d2bd cd74 68be 8309 eebc 2b3a 68bd
00000380: 0bb0 3c3e 13d5 9e3e 605d 873d c676 0d3e
00000390: 5ab9 083e 711a 09be e8b9 05bd 0404 773e
000003a0: 4d7f d1bd a68a 4c3c 8d9d da3d 5389 953d
000003b0: d8d4 6bbe 5762 0bbe ffd3 8c3d b507 9c3c
000003c0: fdf6 85be 3a33 18be 6447 15be 3088 8ebd
000003d0: c617 783d a1ec 693b 378b b33d 7c28 1d3d
000003e0: 2706 9fbc 92c1 cd3b 002e 833e d7c2 00be
000003f0: fd80 6dbd b28b 983e 3839 73bd 79d5 6bbd

network_body._body_endoder.seq_layers.0.bias f4 [256]
-0.035812415 -0.06388671 -0.05789307 0.033558328 -0.048634972 -0.066737875 0.030349944 0.047137145
0.049114447 -0.027879735 -0.008861379 -0.054892063 -0.008525419 -0.02263889 -0.081437506 0.017932784
0.015721869 0.054393943 -0.04925171 -0.007029246 -0.09989345 0.053540036 -0.070837855 0.040091615
-0.03693193 -0.09856621 0.123297095 -0.056839563 -0.009779293 -0.08676343 -0.03946392 -0.027095415
-0.002838529 -0.023117702 0.07160544 0.012588532 -0.1403496 -0.04603645 -0.0038475269 -0.1473673
-0.032138687 -0.023223264 -0.0049917405 -0.05499721 -0.07326826 -0.0105533935 -0.06443439 -0.04139138
-0.05494543 -0.060865525 -0.12834495 -0.044613212 0.04301476 0.021470387 0.08804396 -0.04711627
0.022908166 -0.08720161 -0.021140369 0.069394976 -0.01044528 -0.003277353 -0.058674682 0.057969466
-0.01632968 0.033356685 0.050041012 -0.051604014 -0.0973439 -0.10421805 -0.16101688 -0.012908702
0.02461962 -0.0665309 -0.0023423752 0.033558007 -0.06472494 0.012694897 0.0069923494 0.051164098
0.103720844 0.04601385 -0.08268031 0.013469833 -0.046920862 -0.093696244 -0.060347505 0.08659007
0.09342259 -0.09191177 -0.037838537 -0.029545393 -0.001515594 -0.052014768 -0.03666916 0.08011819
-0.0037460697 -0.020570148 -0.038738247 -0.04754233 -0.0008679137 -0.08960363 -0.1022054 0.030797835
-0.116007745 -0.017166039 0.04573677 0.03226328 0.023809522 -0.11571029 -0.045752022 -0.12368892
-0.047672298 -0.014961985 0.024228321 -0.07416806 -0.04155459 0.017651554 -0.0063466136 -0.117935255
0.0139136715 -0.15733571 -0.04189504 -0.022695834 0.020237649 -0.07835219 0.014941871 -0.048958983
-0.08060513 0.028592085 0.036899935 -0.021537727 -0.020742442 -0.06889626 0.07467485 -0.048445217
0.02338613 0.05182747 -0.023961619 -0.059440155 -0.019925835 -0.07664099 0.06226034 -0.058295358
-0.021615362 -0.10233186 -0.033282444 -0.11790093 -0.08235152 -0.16106907 -0.008854339 -0.0741305
-0.013228704 -0.052935228 -0.029053718 0.1389374 -0.053419244 -0.102995306 0.04392288 -0.040717844
0.0029978452 -0.058278646 -0.07557013 -0.036975432 -0.018767487 -0.022577973 -0.036410104 -0.047869567
-0.12128722 -0.08725056 -0.13557565 -0.053442802 0.049724557 0.037525166 0.025900993 -0.1245906
0.0651924 0.0028181714 0.02682118 0.008210564 0.06531285 -0.027584767 0.022174034 -0.05809494
-0.044720817 -0.025016706 0.019805016 -0.09148306 0.035055384 0.05066845 -0.039166316 -0.09288822
-0.03105104 0.0033626202 -0.1545161 -0.11592952 0.021838533 -0.010720473 -0.09571883 -0.08167129
-0.010214006 -0.033320133 -0.016716257 0.07934378 0.048784703 -0.03922185 0.068978816 -0.09593693
-0.028319119 0.0011896613 0.021636767 -0.11576005 -0.05789291 -0.05394996 -0.06872579 0.017986132
-0.01333535 -0.029299406 -0.028317159 0.022369869 -0.065103315 0.061221596 -0.071099445 0.0031765224
-0.030078724 -0.033565648 0.033177365 -0.1409589 0.021674592 0.008600779 -0.05233063 0.058228955
0.025557488 -0.080673784 -0.12799586 -0.04210517 -0.04356199 -0.06288954 -0.049853254 -0.05631561
-0.061099827 -0.002402797 -0.0032504092 -0.11710976 -6.483544e-05 -0.040810492 -0.01961401 -0.082627416
0.045665093 -0.004879368 0.0059291576 0.0010337367 0.010790063 -0.008123213 -0.071104325 -0.045244493
00000000: 0ab0 12bd 09d7 82bd 4921 6dbd 7574 093d
00000010: 7735 47bd dead 88bd 72a0 f83c e112 413d
00000020: 3b2c 493d 0b64 e4bc 512f 11bc 80d6 60bd
00000030: 33ae 0bbc 3275 b9bc b5c8 a6bd c6e7 923c
00000040: 26cb 803c 2fcc 5e3d 29bc 49bd 9755 e6bb
00000050: f094 ccbd cc4c 5b3d 7013 91bd 1b37 243d
00000060: ef45 17bd 15dd c9bd 3083 fc3d 9ad0 68bd
00000070: 5439 20bc 06b1 b1bd eba4 21bd 34f7 ddbc
00000080: 9d06 3abb 5661 bdbc dfa5 923d 2140 4e3c
00000090: ceb7 0fbe b790 3cbd ca26 7cbb 74e7 16be
000000a0: dba3 03bd b73e bebc c191 a3bb c144 61bd
000000b0: ab0d 96bd 24e8 2cbc 2df6 83bd 028a 29bd
000000c0: 760e 61bd 214e 79bd dc6c 03be 58bc 36bd
000000d0: 3f30 303d aae2 af3c 6450 b43d fdfc 40bd
000000e0: e8a9 bb3c c296 b2bd 912e adbc f41e 8e3d
000000f0: ae22 2bbc dcc8 56bb dd54 70bd 6471 6d3d
00000100: d2c5 85bc 05a1 083d cef7 4c3d bb5e 53bd
00000110: 3d5c c7bd 4670 d5bd 9ce1 24be 057f 53bc
00000120: 16af c93c 5a41 88bd 8982 19bb 1f74 093d
00000130: 828e 84bd 42fe 4f3c 1420 e53b 7291 513d
00000140: 986b d43d 0579 3c3d 4b54 a9bd 93b0 5c3c
00000150: 1730 40bd d1e3 bfbd f22e 77bd 2256 b13d
00000160: 5854 bf3d 3d3c bcbd 95fc 1abd 2e09 f2bc
00000170: e5a6 c6ba 700d 55bd 6732 16bd 0115 a43d
00000180: 9f80 75bb ba82 a8bc ffab 1ebd bfbb 42bd
00000190: b484 63ba 1c82 b7bd 1151 d1bd be4b fc3c
000001a0: 7895 edbd cb9f 8cbc 7b56 3b3d 8026 043d
000001b0: 300c c33c 84f9 ecbd 7966 3bbd 9e50 fdbd
000001c0: 0744 43bd 1d23 75bc 797a c63c 6de5 97bd
000001d0: 2535 2abd fe99 903c 41f7 cfbb 0a88 f1bd
000001e0: 2bf6 633c 9d1c 21be 229a 2bbd 9dec b9bc
000001f0: 6dc9 a53c 1d77 a0bd c0ce 743c 3789 48bd
00000200: 4d14 a5bd f339 ea3c 6324 173d e36f b0bc
00000210: 0eec a9bc 7b19 8dbd 21ef 983d 7e6e 46bd
00000220: 4594 bf3c 0b49 543d 284b c4bc 8577 73bd
00000230: 813b a3bc f4f5 9cbd b304 7f3d 1dc7 6ebd
00000240: b312 b1bc 5e93 d1bd 2c53 08bd 0b76 f1bd
00000250: eaa7 a8bd 4aef 24be ca11 11bc bbd1 97bd
00000260: 35bd 58bc 9cd2 58bd 1002 eebc 9b45 0e3e
00000270: 23ce 5abd 34ef d2bd 7ae8 333d c1c7 26bd
00000280: 7f77 443b 97b5 6ebd 83c4 9abd 8d73 17bd
00000290: 46be 99bc 71f5 b8bc c322 15bd e112 44bd
000002a0: 6f65 f8bd 6cb0 b2bd 58d4 0abe d7e6 5abd
000002b0: faab 4b3d fdb3 193d 522e d43c 5b29 ffbd
000002c0: 9883 853d 12b1 383b 17b8 db3c 9a85 063c
000002d0: bec2 853d 73f9 e1bc 52a6 b53c f6f4 6dbd
000002e0: 2d2d 37bd d6ef ccbc 213e a23c 785b bbbd
000002f0: 3c96 0f3d b889 4f3d dc6c 20bd 2e3c bebd
00000300: c05e febc 685f 5c3b 7839 1ebe 756c edbd
00000310: b9e6 b23c eca4 2fbc 3c08 c4bd 4743 a7bd
00000320: a558 27bc b17a 08bd 88f0 88bc fe7e a23d
00000330: 78d2 473d 17a7 20bd c444 8d3d 957a c4bd
00000340: 7ffd e7bc 69ee 9b3a 973f b13c 9b13 edbd
00000350: 1e21 6dbd a2fa 5cbd 1bc0 8cbd a757 933c
00000360: 837c 5abc 4f05 f0bc 63f9 e7bc 0441 b73c
00000370: e354 85bd 7fc3 7a3d 969c 91bd 342d 503b
00000380: a867 f6bc 227c 09bd fde4 073d 8857 10be
00000390: ea8e b13c 48ea 0c3c a558 56bd 7c81 6e3d
000003a0: f05d d13c 4c38 a5bd 5911 03be 7976 2cbd
000003b0: 0f6e 32bd 3bcc 80bd ed32 4cbd 32ab 66bd
000003c0: d043 7abd 3f78 1dbb d104 55bb 3ed7 efbd
000003d0: 43f8 87b8 e728 27bd 8fad a0bc 9038 a9bd
000003e0: 520b 3b3d 1be3 9fbb 6149 c23b 737e 873a
000003f0: cec8 303c 3a17 05bc 259f 91bd 4a52 39bd

network_body._body_endoder.seq_layers.2.weight f4 [256, 256]
-0.026717892 -0.15157625 -0.1595091 -0.050604828 -0.07909502 0.090910375 0.17683002 0.13813598
-0.06680269 0.08373358 0.13291323 -0.08261108 -0.06375303 0.034561608 0.15289964 0.15683392
-0.07846037 0.061702613 0.016151305 -0.14910533 -0.026685167 -0.031380396 -0.10621818 -0.04359726
-0.044606555 0.04593601 0.0020527733 0.10850359 0.04374017 0.06253047 0.042594597 0.05465176
0.058005717 -0.20413524 -0.046812586 0.07712427 -0.031163363 -0.15327683 0.028882343 -0.1564637
0.028639082 -0.15278384 0.12555844 0.064269364 0.16793303 0.12271949 0.0716413 -0.108083814
0.039537873 -0.10288341 -0.041944005 0.15996715 0.006039943 -0.315111 -0.102642484 0.019281704
-0.08734441 0.030149847 0.15187621 0.057190493 -0.14166889 0.05493191 -0.06976408 -0.20841993
0.04880551 -0.18395779 0.011598849 -0.08475924 -0.1593727 -0.07246603 -0.0070188753 -0.0043243296
-0.2745252 0.05288361 0.22558212 0.07827277 -0.11207362 0.0754171 -0.02949885 -0.08745932
-0.1250554 0.053426377 0.079485215 0.18439436 -0.04096028 0.13046563 0.029618727 0.0965526
-0.13169093 -0.13877714 -0.020226778 -0.3734147 -0.006332625 -0.17905198 0.1110321 0.048157744
-0.050063275 0.2364499 0.119152814 0.051742695 -0.09804613 -0.08405989 -0.038700614 -0.06775674
-0.19027667 -0.05702634 -0.00806979 -0.2769282 -0.029075906 0.18421715 0.058921974 0.019227495
0.07149402 0.22259682 -0.21915458 -0.049663864 -0.16428505 -0.088046215 0.03329607 0.01164175
0.2042548 -0.10529617 -0.0011862625 -0.0663982 0.04330371 -0.13798401 -0.072036125 0.15173163
-0.024403082 -0.027336722 -0.036897905 -0.079059176 -0.048457995 -0.119364865 -0.04198422 0.025804115
0.091320485 0.03144221 0.16802235 0.0019218589 -0.0685954 0.052134015 0.02385245 0.10990168
-0.07986115 -0.029910363 -0.014798799 -0.1164058 0.14068364 -0.08515537 -0.08701314 -0.05128796
0.023388758 0.029692795 -0.0053803297 0.105205595 -0.025870135 -0.06970054 0.07273176 -0.06532508
0.12831537 0.12264662 0.18919341 -0.15335359 -0.090495795 0.0653152 0.06125955 -0.19877899
0.03667341 -0.097919464 -0.01694711 -0.09987566 -0.031981852 -0.02762294 0.08271722 0.09077051
0.18276858 0.020177526 -0.010883285 -0.020031424 0.046383023 -0.033633757 -0.05174995 -0.005915616
-0.16819367 -0.09541478 0.08838923 -0.18109746 -0.08331604 -0.079161845 -0.03533585 -0.22749498
-0.1043847 0.053180173 0.0751565 -0.12029563 0.06620567 -0.072262816 -0.077127926 -0.082821794
-0.13694441 -0.11447346 0.120101824 -0.017450793 0.009126963 -0.02803435 -0.073246084 -0.027226653
-0.1139685 -0.09714168 0.17288567 0.0037874868 -0.087546274 -0.024964748 -0.09765794 0.05840543
-0.20694496 -0.13630891 -0.022313457 0.19206932 -0.14126128 -0.3228314 0.02920806 0.051465333
-0.026256183 -0.10348678 -0.056520708 0.0078039775 -0.035977673 -0.021353675 0.035689503 0.037358284
0.08651376 0.1030347 0.060934495 0.1315263 0.020292174 -0.048596155 0.02825696 0.048891123
-0.004601112 -0.105202906 0.07879476 0.011876117 -0.1911816 -0.0844251 0.18511848 -0.08800258
0.22978902 -0.01894525 -0.04231381 0.25465587 0.022003949 0.017405737 -0.021127146 0.013452841
00000000: 7bdf dabc ce36 1bbe 5a56 23be 0247 4fbd
00000010: 92fc a1bd 382f ba3d ee12 353e 8573 0d3e
00000020: d9cf 88bd 837c ab3d 681a 083e ff2f a9bd
00000030: f390 82bd 7990 0d3d b991 1c3e 1299 203e
00000040: d5af a0bd e1bb 7c3d be4f 843c 11af 18be
00000050: da9a dabc bb88 00bd eb88 d9bd 0a93 32bd
00000060: 5db5 36bd 6627 3c3d d287 063b 2137 de3d
00000070: e428 333d fa0f 803d ac77 2e3d 86da 5f3d
00000080: 6797 6d3d d408 51be 8ebe 3fbd 54f3 9d3d
00000090: 4f4a ffbc 9af4 1cbe aa9a ec3c 0538 20be
000000a0: 829c ea3c 5e73 1cbe 6492 003e a89f 833d
000000b0: a3f6 2b3e 5b54 fb3d adb8 923d 0c5b ddbd
000000c0: 77f2 213d 8ab4 d2bd 7acd 2bbd 6ece 233e
000000d0: b7ea c53b 3b56 a1be 3936 d2bd aaf4 9d3c
000000e0: a0e1 b2bd d0fc f63c 7085 1b3e 9440 6a3d
000000f0: a611 11be 4800 613d 78e0 8ebd 096c 55be
00000100: 49e8 473d 6e5f 3cbe 1909 3e3c 4196 adbd
00000110: 9932 23be 1269 94bd 98fe e5bb 1bb3 8dbb
00000120: 918e 8cbe 7c9c 583d 00ff 663e 794d a03d
00000130: db86 e5bd 4874 9a3d 93a7 f1bc df1d b3bd
00000140: 860e 00be 9ed5 5a3d 25c9 a23d e0d1 3c3e
00000150: f7c5 27bd c898 053e f9a2 f23c 5fbd c53d
00000160: fdd9 06be 981b 0ebe a1b2 a5bc 3630 bfbe
00000170: e981 cfbb 6759 37be cc64 e33d 0e41 453d
00000180: 260f 4dbd ec1f 723e 6406 f43d 26f0 533d
00000190: 69cc c8bd 9727 acbd 8984 1ebd 0cc4 8abd
000001a0: e3d7 42be 7494 69bd 2737 04bc 88c9 8dbe
000001b0: 9830 eebc 6ca3 3c3e 2b58 713d fb82 9d3c
000001c0: 756b 923d 6cf0 633e 0f6a 60be 566c 4bbd
000001d0: 573a 28be 9351 b4bd 7661 083d 0abd 3e3c
000001e0: 2c28 513e 85a5 d7bd 5d7c 9bba c8fb 87bd
000001f0: 3b5f 313d ae4b 0dbe ad87 93bd 895f 1b3e
00000200: f9e8 c7bc 43f1 dfbc 4222 17bd c7e9 a1bd
00000210: e47b 46bd 9175 f4bd a5f7 2bbd 2763 d33c
00000220: 3c06 bb3d 8cc9 003d 0d0e 2c3e e2e6 fb3a
00000230: bf7b 8cbd 7a8a 553d 3766 c33c 2214 e13d
00000240: 3e8e a3bd 9406 f5bc a976 72bc 2a66 eebd
00000250: 5f0f 103e f065 aebd f233 b2bd 5313 52bd
00000260: c899 bf3c 4e3e f33c 7a4d b0bb 0876 d73d
00000270: 9bed d3bc 28bf 8ebd 64f4 943d 28c9 85bd
00000280: 1b65 033e 272e fb3d ebbb 413e b908 1dbe
00000290: dc55 b9bd fac3 853d 4beb 7a3d b88c 4bbe
000002a0: dc36 163d 008a c8bd aad4 8abc 9c8b ccbd
000002b0: 67ff 02bd 8149 e2bc a567 a93d e4e5 b93d
000002c0: b027 3b3e 574b a53c ce4f 32bc f118 a4bc
000002d0: 20fc 3d3d 8dc3 09bd c1f7 53bd c9d7 c1bb
000002e0: f63a 2cbe d368 c3bd 6a05 b53d 9d71 39be
000002f0: 9aa1 aabd 9b1f a2bd 53bc 10bd 72f4 68be
00000300: a5c7 d5bd 74d3 593d a7eb 993d 8e5d f6bd
00000310: d796 873d 87fe 93bd 3ff5 9dbd 799e a9bd
00000320: 283b 0cbe 1071 eabd f2f7 f53d f7f4 8ebc
00000330: 4289 153c 4ba8 e5bc 0b02 96bd 6e0a dfbc
00000340: 5168 e9bd 38f2 c6bd f108 313e 7c37 783b
00000350: 764b b3bd df82 ccbc e300 c8bd 883a 6f3d
00000360: 61e9 53be 9094 0bbe b6ca b6bc d2ad 443e
00000370: cca6 10be 284a a5be be45 ef3c 50cd 523d
00000380: 3517 d7bc e0f0 d3bd 4282 67bd 82b8 ff3b
00000390: 535d 13bd e7ed aebc 282f 123d 0005 193d
000003a0: 202e b13d db03 d33d 7396 793d d5ae 063e
000003b0: c63b a63c c30c 47bd 247b e73c 0f42 483d
000003c0: edc4 96bb 9f74 d7bd 265f a13d 0c94 423c
000003d0: 1cc5 43be 11e7 acbd b38f 3d3e b23a b4bd
000003e0: d04d 6b3e 1233 9bbc 3f51 2dbd 4162 823e
000003f0: a041 b43c 7a96 8e3c d612 adbc 4e69 5c3c

network_body._body_endoder.seq_layers.2.bias f4 [256]
-0.00021739761 0.00677009 -0.07596368 -0.013454304 -0.009648169 0.0831911 -0.03236234 -0.03398462
-0.026582422 0.03490941 -0.09130273 -0.06666972 -0.034927927 -0.062053766 -0.0019232356 0.0794603
-0.019474689 -0.098782904 -0.07354168 -0.044284735 -0.083562315 0.03238596 -0.037306182 0.048373234
-0.07928609 -0.012414156 -0.07293224 -0.020759799 -0.006716325 -0.1276288 -0.07071041 -0.027795982
-0.0236167 0.055752955 -0.039970815 -0.01576128 -0.09172611 0.022659874 -0.059435774 0.030480633
0.031982303 -0.002537702 0.02692149 -0.11896118 -0.15098551 -0.0020143182 -0.06618046 -0.11025787
-0.038265325 -0.03198243 -0.07312113 0.0001211294 -0.036765814 -0.08223419 9.084332e-05 -0.10704394
-0.01975724 -0.08391466 -0.038905445 -0.067693084 -0.070693746 -0.044177216 -0.019811653 -0.17230926
-0.106880546 0.056636486 -0.006352127 -0.036809545 -0.05818531 0.020872759 -0.024121469 0.09800925
-0.12438183 -0.0012656576 0.011038245 -0.0604224 0.029535033 0.007398336 0.033500724 0.010827614
0.06494972 0.0016753309 -0.05529529 -0.07520694 0.04834647 0.06190477 -0.05129434 -0.13006017
-0.01579985 -0.04741808 -0.077913664 0.043510403 -0.08701613 -0.060491256 -0.017187783 0.047537148
0.033384606 -0.07127507 -0.040353138 -0.12758261 0.07803553 0.06525653 0.06237899 -0.082380675
-0.016550958 -0.015057931 -0.092680715 -0.115768984 -0.07615617 -0.047067974 -0.098840035 -0.08275497
-0.04254951 0.070826985 -0.08636181 -0.035898507 -0.053030975 -0.06504796 -0.059892118 0.06347194
-0.096577436 -0.007463779 -0.16165663 -0.013492942 -0.043118242 -0.047072705 -0.060459137 -0.022838812
-0.08237211 -0.10638647 -0.02390669 -0.04131251 0.041323107 -0.10259944 0.016781516 -0.064072564
-0.05526593 0.014168692 -0.086226724 -0.022005938 0.00045982783 -0.11303967 -0.00783279 -0.031648275
-0.073755555 -0.06814621 -0.02055079 0.04731816 -0.03160978 -0.09992656 0.0693603 -0.00577309
0.016136613 -0.11558841 -0.048814908 -0.08307341 0.044464625 -0.10506209 -0.050930873 -0.042043414
-0.18703043 0.08336876 -0.054324012 -0.038151268 -0.11806649 -0.013650907 -0.06552899 -0.11532776
-0.022747451 0.044917803 -0.031518232 0.004514526 -0.023326395 0.021614306 0.0814617 0.004640625
-0.07871918 0.061976712 0.03337936 -0.09307112 0.119771466 -0.06480782 0.027527029 -0.048227336
-0.03485568 -0.084406376 -0.03137965 -0.030515322 -0.053304687 0.05905133 0.05269631 0.00057177217
-0.06742758 -0.15492241 -0.040706195 0.12260621 0.02665479 -0.060677327 0.001031991 -0.037071954
-0.06388157 0.028762914 0.07105899 -0.14158848 -0.027130505 -0.069343194 -0.16405499 -0.06167895
-0.07240575 -0.02514638 -0.08986887 -0.042307574 -0.06900792 0.0031208186 -0.06319203 -0.061946623
-0.033619743 -0.04142629 -0.02923549 0.035692308 0.06952383 0.038258903 -0.07267617 -0.09264324
0.014389158 -0.047655605 -0.0783463 -0.050669096 -0.08510882 -0.05416392 -0.09965358 0.04625352
-0.06783489 0.016632987 -0.1673316 -0.038556427 0.005559955 0.005985434 0.033934303 -0.021026539
-0.07033241 -0.07951256 -0.14271027 0.012907231 0.0013849719 0.08485805 -0.06781726 -0.111956544
0.0113231465 -0.048979685 -0.041952208 -0.053803742 0.08324994 0.06793076 -0.040168755 0.00855756
00000000: 3af5 63b9 a2d7 dd3b d992 9bbd 716f 5cbc
00000010: 5b13 1ebc 1860 aa3d 5f8e 04bd 7533 0bbd
00000020: 61c3 d9bc 2bfd 0e3d edfc babd 228a 88bd
00000030: 9610 0fbd 172c 7ebd 1415 fcba 15bc a23d
00000040: 6289 9fbc b14e cabd 059d 96bd e963 35bd
00000050: b822 abbd 24a7 043d 5ece 18bd 0323 463d
00000060: bf60 a2bd bf64 4bbc 805d 95bd 7410 aabc
00000070: 9e14 dcbb 20b1 02be 9fd0 90bd 66b4 e3bc
00000080: cf77 c1bc 365d 643d 70b8 23bd cd1d 81bc
00000090: e6da bbbd 33a1 b93c ed72 73bd 85b2 f93c
000000a0: e0ff 023d 934f 26bb 758a dc3c eba1 f3bd
000000b0: f29b 1abe a702 04bb 9f89 87bd e1ce e1bd
000000c0: 1abc 1cbd 0200 03bd 88c0 95bd da06 fe38
000000d0: c097 16bd 666a a8bd 2383 be38 da39 dbbd
000000e0: efd9 a1bc 73db abbd 515b 1fbd aca2 8abd
000000f0: e2c7 90bd 2bf3 34bd 0c4c a2bc d771 30be
00000100: 30e4 dabd a9fb 673d 8125 d0bb 9bc5 16bd
00000110: b853 6ebd 59fd aa3c 639a c5bc 13b9 c83d
00000120: e7bb febd 6ce4 a5ba c1d9 343c 7a7d 77bd
00000130: 74f3 f13c be6d f23b 0e38 093d 4e66 313c
00000140: 5c04 853d c796 db3a 507d 62bd 1906 9abd
00000150: f306 463d db8f 7d3d 041a 52bd 7e2e 05be
00000160: b06e 81bc 7639 42bd 3391 9fbd f737 323d
00000170: 8335 b2bd aec5 77bd 65cd 8cbc 50b6 423d
00000180: 4cbe 083d aaf8 91bd 5549 25bd 04a5 02be
00000190: 18d1 9f3d 37a5 853d 1d81 7f3d 33b7 a8bd
000001a0: e095 87bc 8ab5 76bc 63cf bdbd 4a18 edbd
000001b0: c4f7 9bbd 59ca 40bd a56c cabd 707b a9bd
000001c0: 6548 2ebd bd0d 913d 76de b0bd 500a 13bd
000001d0: 0237 59bd dd37 85bd 7051 75bd 94fd 813d
000001e0: 64ca c5bd b792 f4bb 5189 25be 8011 5dbc
000001f0: c19c 30bd 4fcf 40bd 00a4 77bd 7618 bbbc
00000200: b5b2 a8bd 26e1 d9bd f6d7 c3bc 4e37 29bd
00000210: 6b42 293d a81f d2bd 6479 893c 7a38 83bd
00000220: 875e 62bd cd23 683c a397 b0bd cc45 b4bc
00000230: 0c15 f139 5881 e7bd 1a55 00bc 9fa1 01bd
00000240: 270d 97bd 3d90 8bbd 215a a8bc b0d0 413d
00000250: 4279 01bd 4ca6 ccbd c60c 8e3d 302c bdbb
00000260: ee30 843c 9eb9 ecbd 24f2 47bd 6422 aabd
00000270: 8a20 363d cb2a d7bd e49c 50bd b735 2cbd
00000280: e884 3fbe 3ebd aa3d db82 5ebd 8144 1cbd
00000290: d8cc f1bd 0ea8 5fbc 1034 86bd f630 ecbd
000002a0: dd58 babc bbfb 373d 4319 01bd 97ee 933b
000002b0: ff16 bfbc 7c10 b13c 64d5 a63d 6210 983b
000002c0: 8537 a1bd 4bdb 7d3d ccb8 083d 129c bebd
000002d0: be4a f53d f6b9 84bd 5d80 e13c 078a 45bd
000002e0: d4c4 0ebd 40dd acbd f387 00bd 45fb f9bc
000002f0: 0456 5abd cfdf 713d 16d8 573d fbe2 153a
00000300: 7917 8abd fba3 1ebe 8abb 26bd f718 fb3d
00000310: 255b da3c ca88 78bd df43 873a c3d8 17bd
00000320: 57d4 82bd 34a0 eb3c 6087 913d 92fc 10be
00000330: cb40 debc ce03 8ebd 08fe 27be 11a3 7cbd
00000340: 7749 94bd c8ff cdbc 2c0d b8bd b54a 2dbd
00000350: 0654 8dbd a686 4c3b d36a 81bd bebb 7dbd
00000360: dbb4 09bd 9dae 29bd 447f efbc 1932 123d
00000370: 8362 8e3d 5eb5 1c3d 3ed7 94bd bdbb bdbd
00000380: 81c0 6b3c 8632 43bd 0674 a0bd 668a 4fbd
00000390: 884d aebd fdda 5dbd 2d17 ccbd 5574 3d3d
000003a0: 05ed 8abd e741 883c fa58 2bbe 58ed 1dbd
000003b0: 4830 b63b 7621 c43b b2fe 0a3d d93f acbc
000003c0: 700a 90bd 7bd7 a2bd a422 12be da78 533c
000003d0: f287 b53a 0fca ad3d c7e3 8abd 7949 e5bd
000003e0: b884 393c ec9e 48bd 14d6 2bbd 5061 5cbd
000003f0: f27e aa3d 481f 8b3d fe87 24bd 0235 0c3c

action_model._continuous_distribution.log_sigma f4 [1, 12]
-2.2462306 -1.969344 -2.1205993 -2.1498392 -1.9543183 -2.0554702 -1.8851635 -1.9734336
-1.956326 -1.8288285 -2.0791354 -2.0279076
00000000: 3ec2 0fc0 7713 fcbf e6b7 07c0 f796 09c0
00000010: 1a27 fabf d38c 03c0 0a4d f1bf 7999 fcbf
00000020: e468 fabf 0d17 eabf 8e10 05c0 3dc9 01c0

action_model._continuous_distribution.mu.weight f4 [12, 256]
-0.028119678 0.03362546 -0.0288246 -0.069227494 -0.037599377 0.008178488 -0.09455796 -0.006958575
0.043127805 0.113462515 0.0014531243 -0.004313796 -0.081208274 0.045309044 -0.007108815 0.09806657
0.09010254 0.09351672 -0.02093 -0.0030785033 0.19519535 0.01131946 0.11895585 -0.0140038645
-0.20774995 0.0077744974 -0.14794503 -0.02523708 0.034766614 -0.032907113 -0.052629065 0.004472824
-0.034172323 0.041015316 -0.032054346 -0.040848434 -0.02058975 0.05483566 -0.04591512 0.038593955
0.028485022 0.034208726 0.078257285 0.033939574 0.027425893 0.048019376 -0.0153136095 0.056452766
-0.087546095 -0.050209388 -0.073761486 -0.00650177 0.08949162 -0.043141495 -0.043497078 0.0799238
-0.031021604 -0.070304446 0.0994494 -0.010712471 -0.07895658 -0.06520021 -0.085071616 -0.070071466
-0.120398276 0.14173935 0.0093133515 0.059922546 0.03536344 0.051761713 0.05230515 0.06857751
0.044443868 0.04342104 -0.01678169 -0.013298092 0.020421676 0.026288932 -0.05375114 -0.042886693
0.0141361775 -0.06724732 -0.06277259 -0.011646702 0.051829588 0.039944574 -0.08491495 -0.008989698
0.031161772 -0.009065919 -0.00015159619 -0.012808245 0.06174058 0.023355031 0.11132421 0.112481855
0.040224113 -0.016343277 -0.15543829 -0.01873432 0.0731917 -0.06664142 0.06788238 0.055390812
0.030728702 0.00044539763 -0.012590101 -0.03912703 -0.016659275 0.083142474 -0.11937938 -0.005633024
0.108309716 0.07614466 0.0076560494 -0.009749804 0.059169557 0.0672808 0.017481929 0.023551453
0.07078424 0.09800046 -0.06513034 0.055759612 -0.05071866 -0.06590122 -0.016395656 -0.07675438
0.12538046 -0.014567097 0.030937424 -0.009088047 0.04368021 0.032981638 0.015653202 0.0036839342
0.021233482 0.1242357 -0.029241646 0.023799192 0.090752766 0.07086187 0.071699455 0.044518907
-0.021884568 -0.009649823 -0.02497904 0.05650494 0.10674973 0.07664824 0.044059865 0.0072854073
0.09347728 0.05783939 -0.08438398 0.02144683 0.08909103 -0.16515292 -0.009718828 -0.05861748
-0.10090933 0.032622237 -0.022127064 -0.016838918 -0.048937082 0.04853922 0.0145812975 0.0070416126
0.015169734 0.04983598 -0.10161154 -0.051303476 0.056521747 -0.06532155 0.06499693 0.01572079
0.034047652 0.0094060935 0.09637523 0.00044654647 0.076357245 -0.13087305 -0.021039246 0.050247755
-0.13224755 -0.040168 -0.11622223 -0.008138889 -0.04877808 0.064193256 0.0337496 0.046415757
0.045146942 -0.14216168 -0.029448524 0.11532863 0.14933878 -0.06066809 -0.07156313 -0.060935326
0.014045608 0.088225156 0.0066446653 -0.09047068 -0.025666924 -0.019966874 -0.13354011 0.0050673517
0.010647481 -0.06849158 -0.09721641 -0.096504495 -0.029066471 -0.1043066 -0.15401758 0.0751245
0.002706143 0.010516341 0.0039650346 0.017496822 0.05782482 -0.009644069 -0.12329846 -0.08142376
0.043347064 0.06746525 0.038357873 -0.08429334 -0.09433472 0.038160443 -0.038334373 0.07326676
0.18035091 0.018664617 -0.14992134 0.028155554 0.0020735238 0.020989763 -0.0128804725 -0.01416337
-0.034220815 -0.06019938 -0.08182159 0.09609157 0.10188773 0.029602146 0.0018748554 -0.028488696
0.062686354 -0.06288296 0.025502983 -0.029740002 0.07276873 0.065944105 -0.035663217 -0.018052809
00000000: 3d5b e6bc daba 093d 9121 ecbc 25c7 8dbd
00000010: ce01 1abd 11ff 053c 9ba7 c1bd c204 e4bb
00000020: c8a6 303d 095f e83d c376 be3a be5a 8dbb
00000030: 8650 a6bd fa95 393d 10f1 e8bb 20d7 c83d
00000040: ae87 b83d b285 bf3d 6475 abbc b7c0 49bb
00000050: 4ae1 473e 4275 393c 209f f33d 7770 65bc
00000060: 67bc 54be 36c1 fe3b e77e 17be febd cebc
00000070: 7067 0e3d 9cc9 06bd 9391 57bd c490 923b
00000080: 47f8 0bbd adff 273d 6b4b 03bd b050 27bd
00000090: d6ab a8bc 5b9b 603d 7e11 3cbd b214 1e3d
000000a0: 6c59 e93c 731e 0c3d 5b45 a03d 3904 0b3d
000000b0: 44ac e03c f7af 443d efe5 7abc 043b 673d
000000c0: 5e4b b3bd 5ca8 4dbd 4310 97bd cd0c d5bb
000000d0: 6247 b73d 23b5 30bd fe29 32bd 17af a33d
000000e0: 0521 febc c7fb 8fbd 21ac cb3d 5c83 2fbc
000000f0: fdb3 a1bd b087 85bd 073a aebd a181 8fbd
00000100: 5f93 f6bd 1f24 113e 0797 183c 5871 753d
00000110: 41d9 103d 1704 543d ed3d 563d 5e72 8c3d
00000120: c60a 363d 43da 313d c179 89bc 3ee0 59bc
00000130: 5c4b a73c e35b d73c 282a 5cbd f5a9 2fbd
00000140: 6d9b 673c f7b8 89bd ea8e 80bd cfd1 3ebc
00000150: 434b 543d ec9c 233d e4e7 adbd 8749 13bc
00000160: f946 ff3c 3889 14bc cbf5 1eb9 acd9 51bc
00000170: b1e3 7c3d 0d53 bf3c f3fd e33d e35c e63d
00000180: 0ac2 243d 56e2 85bc 372b 1fbe b778 99bc
00000190: 88e5 953d 4c7b 88bd eb05 8b3d 7ae1 623d
000001a0: c2ba fb3c 4284 e939 b646 4ebc aa43 20bd
000001b0: 0879 88bc 9a46 aa3d 2d7d f4bd 3b95 b8bb
000001c0: 7cd1 dd3d bbf1 9b3d 99df fa3b a4bd 1fbc
000001d0: c75b 723d 84ca 893d 4336 8f3c faee c03c
000001e0: 54f7 903d 77b4 c83d 0e63 85bd 3164 643d
000001f0: 5fbe 4fbd 38f7 86bd 2f50 86bc 6631 9dbd
00000200: bc63 003e d5aa 6ebc 7b70 fd3c 08e6 14bc
00000210: 05ea 323d c117 073d 253b 803c 296e 713b
00000220: d7f1 ad3c 496f fe3d 2d8c efbc 86f6 c23c
00000230: 96dc b93d 0720 913d 2ad7 923d 7559 363d
00000240: 4447 b3bc 4b1a 1ebc d8a0 ccbc b971 673d
00000250: 9a9f da3d c1f9 9c3d 1e78 343d 6dba ee3b
00000260: 0471 bf3d ffe8 6c3d 82d1 acbd 43b1 af3c
00000270: 5c75 b63d d91d 29be b83b 1fbc e218 70bd
00000280: 8da9 cebd e59e 053d d143 b5bc c5f1 89bc
00000290: 4072 48bd 10d1 463d 65e6 6e3c 54bd e63b
000002a0: 7a8a 783c d020 4c3d b619 d0bd 9823 52bd
000002b0: 5983 673d 4ec7 85bd 1c1d 853d e3c8 803c
000002c0: 8d75 0b3d 041c 1a3c 6060 c53d 741e ea39
000002d0: 3061 9c3d 9603 06be 7f5a acbc 97d0 4d3d
000002e0: e76b 07be 3387 24bd ec05 eebd fa58 05bc
000002f0: 86cb 47bd c177 833d 053d 0a3d 731e 3e3d
00000300: 00ec 383d d592 11be 083e f1bc 6b31 ec3d
00000310: 44ec 183e 1a7f 78bd b18f 92bd 5297 79bd
00000320: 8d1f 663c 64af b43d 7ebb d93b b148 b9bd
00000330: 7143 d2bc 9291 a3bc bdbe 08be 070c a63b
00000340: c672 2e3c 5045 8cbd 6619 c7bd 26a4 c5bd
00000350: cf1c eebc b39e d5bd c9b6 1dbe e0da 993d
00000360: 8c59 313b bb4c 2c3c 1fed 813b 7f55 8f3c
00000370: b8d9 6c3d 2802 1ebc e783 fcbd 80c1 a6bd
00000380: b18c 313d 392b 8a3d 251d 1d3d fda1 acbd
00000390: 9032 c1bd 204e 1c3d 8104 1dbd e20c 963d
000003a0: e9ad 383e 8ae6 983c fb84 19be 7aa6 e63c
000003b0: f5e3 073b b9f2 ab3c 9e08 53bc 7b0d 68bc
000003c0: 202b 0cbd a093 76bd 1492 a7bd a8cb c43d
000003d0: 84aa d03d 3380 f23c b5bd f53a 2061 e9bc
000003e0: b461 803d c8c8 80bd a2eb d03c 4ea1 f3bc
000003f0: c607 953d b40d 873d 9813 12bd 7ce3 93bc

action_model._continuous_distribution.mu.bias f4 [12]
0.13642608 -0.008856773 -0.05161949 -0.015099747 0.062302187 -0.01954383 0.19979618 0.030868504
-0.07947742 -0.01840907 0.07580851 -0.07744129
00000000: 47b3 0b3e 001c 11bc f56e 53bd ee64 77bc
00000010: 9430 7f3d 621a a0bc 5f97 4c3e f2df fc3c
00000020: 0fc5 a2bd 9ece 96bc 7e41 9b3d 8a99 9ebd

onnx::Div_51 f4 [75]
20.541153 1786.2117 318.05685 4.7637987 3.7922552 4.9728546 0.4746683 1471.6375
102581.4 18380.531 0.67166924 0.18742546 0.05085321 0.16316658 0.12648895 0.0898452
0.17237358 0.9965999 0.18149322 0.22830544 0.17042726 0.18330172 0.13434994 0.082861386
0.130763 0.6703119 0.30422375 0.17390539 0.064582676 0.18874823 0.13092366 0.09946846
0.2028526 0.9864993 0.25344053 0.16106622 0.21499948 0.21209046 0.12587717 0.104989596
0.10187348 0.88668823 0.31588453 0.2526792 0.06792719 0.19552371 0.11997267 0.08518063
0.30245858 0.9827075 0.18292207 0.58374965 0.18486097 0.12659526 0.18148507 0.109627426
0.32663858 0.58442175 0.4591307 0.24156776 0.081026435 0.1471936 0.12289003 0.08200024
0.2720355 0.9660174 0.2508403 0.5791676 0.14505005 0.088221475 0.18115717 0.077208236
0.33487248 0.7269835 0.55244017
00000000: 4854 a441 c646 df44 4707 9f43 0a71 9840
00000010: 4fb4 7240 a021 9f40 b907 f33e 66f4 b744
00000020: b35a c847 1099 8f46 84f2 2b3f 76ec 3f3e
00000030: 754b 503d 2415 273e 5286 013e c300 b83d
00000040: b382 303e 2c21 7f3f 5cd9 393e e7c8 693e
00000050: 7c84 2e3e 72b3 3b3e 0893 093e 3bb3 a93d
00000060: bce6 053e 9099 2b3f 37c3 9b3e 4114 323e
00000070: ec43 843d 3747 413e da10 063e 1fb6 cb3d
00000080: 98b8 4f3e 388b 7c3f f5c2 813e 8bee 243e
00000090: d328 5c3e 3e2e 593e f2e5 003e c904 d73d
000000a0: 0ba3 d03d 00fe 623f 9ebb a13e 2b5f 813e
000000b0: 691d 8b3d 5e37 483e 3bb4 f53d 2f73 ae3d
000000c0: dadb 9a3e b892 7b3f ec4f 3b3e 9e70 153f
000000d0: 324c 3d3e 30a2 013e 39d7 393e 5884 e03d
000000e0: 2c3d a73e aa9c 153f 2e13 eb3e 8a5d 773e
000000f0: 30f1 a53d ebb9 163e c5ad fb3d beef a73d
00000100: 3d48 8b3e eb4c 773f 246e 803e 5444 143f
00000110: 0088 143e 76ad b43d 4481 393e 5a1f 9e3d
00000120: 6874 ab3e 971b 3a3f b86c 0d3f
