results/robot_run1/RobotAgent.onnx (onnx, 142199 bytes, 9 tensors)

network_body.observation_encoder.processors.0.normalizer.running_mean f4 [106]
0	0x00000000	0.0
1	0x00000000	0.0
2	0x00000000	0.0
3	0x00000000	0.0
4	0x00000000	0.0
5	0x00000000	0.0
6	0x00000000	0.0
7	0x00000000	0.0
8	0x00000000	0.0
9	0x00000000	0.0
10	0x00000000	0.0
11	0x00000000	0.0
12	0x00000000	0.0
13	0x00000000	0.0
14	0x00000000	0.0
15	0x00000000	0.0
16	0x00000000	0.0
17	0x00000000	0.0
18	0x00000000	0.0
19	0x00000000	0.0
20	0x00000000	0.0
21	0x00000000	0.0
22	0x00000000	0.0
23	0x00000000	0.0
24	0x00000000	0.0
25	0x00000000	0.0
26	0x00000000	0.0
27	0x00000000	0.0
28	0x00000000	0.0
29	0x00000000	0.0
30	0x00000000	0.0
31	0x00000000	0.0
32	0x00000000	0.0
33	0x00000000	0.0
34	0x00000000	0.0
35	0x00000000	0.0
36	0x00000000	0.0
37	0x00000000	0.0
38	0x00000000	0.0
39	0x00000000	0.0
40	0x00000000	0.0
41	0x00000000	0.0
42	0x00000000	0.0
43	0x00000000	0.0
44	0x00000000	0.0
45	0x00000000	0.0
46	0x00000000	0.0
47	0x00000000	0.0
48	0x00000000	0.0
49	0x00000000	0.0
50	0x00000000	0.0
51	0x00000000	0.0
52	0x00000000	0.0
53	0x00000000	0.0
54	0x00000000	0.0
55	0x00000000	0.0
56	0x00000000	0.0
57	0x00000000	0.0
58	0x00000000	0.0
59	0x00000000	0.0
60	0x00000000	0.0
61	0x00000000	0.0
62	0x00000000	0.0
63	0x00000000	0.0
64	0x00000000	0.0
65	0x00000000	0.0
66	0x00000000	0.0
67	0x00000000	0.0
68	0x00000000	0.0
69	0x00000000	0.0
70	0x00000000	0.0
71	0x00000000	0.0
72	0x00000000	0.0
73	0x00000000	0.0
74	0x00000000	0.0
75	0x00000000	0.0
76	0x00000000	0.0
77	0x00000000	0.0
78	0x00000000	0.0
79	0x00000000	0.0
80	0x00000000	0.0
81	0x00000000	0.0
82	0x00000000	0.0
83	0x00000000	0.0
84	0x00000000	0.0
85	0x00000000	0.0
86	0x00000000	0.0
87	0x00000000	0.0
88	0x00000000	0.0
89	0x00000000	0.0
90	0x00000000	0.0
91	0x00000000	0.0
92	0x00000000	0.0
93	0x00000000	0.0
94	0x00000000	0.0
95	0x00000000	0.0
96	0x00000000	0.0
97	0x00000000	0.0
98	0x00000000	0.0
99	0x00000000	0.0
100	0x00000000	0.0
101	0x00000000	0.0
102	0x00000000	0.0
103	0x00000000	0.0
104	0x00000000	0.0
105	0x00000000	0.0

network_body._body_endoder.seq_layers.0.weight f4 [128, 106]
0	0x3d121ed3	0.035673928
1	0x3e168283	0.14698224
2	0x3cb3961e	0.021922167
3	0xbd0d8569	-0.034551058
4	0x3dccb76c	0.099959224
5	0xbe15095b	-0.1455435
6	0xbd527d5e	-0.05138909
7	0x3d30694b	0.043069165
8	0x3e4a5176	0.19757637
9	0xbbe4b48a	-0.0069795297
10	0x3d302948	0.04300812
11	0x3dc8eb16	0.09810464
12	0xbd849613	-0.06473937
13	0xbd402207	-0.04690745
14	0xbe0e2cbe	-0.13884255
15	0xbc922efb	-0.017844668
16	0x3d7b7b44	0.061396852
17	0x3b40f25e	0.0029441337
18	0x3d03fc97	0.03222331
19	0x3cd43c4c	0.025907658
20	0x3d9f9ce1	0.07793594
21	0xbcbb8c9c	-0.022894196
22	0xbe5e1af2	-0.21689966
23	0x3cf2055f	0.029543577
24	0xbe4fa555	-0.20277913
25	0xbb3936e6	-0.0028261482
26	0x3d05f3e1	0.032703284
27	0x3e1ace3a	0.15117732
28	0x3d6fff20	0.058592916
29	0xbb650a76	-0.0034948862
30	0xbe148724	-0.14504677
31	0x3d007ded	0.031370092
32	0xbe66c9e9	-0.2253796
33	0x3e059ee9	0.130489
34	0x3dac7c71	0.08422173
35	0x3db8cead	0.09023795
36	0x3d04963d	0.03236984
37	0x3dbdb1e4	0.092624456
38	0xbcbc2a09	-0.022969263
39	0x3d829e89	0.063778944
40	0xbc7c0054	-0.015380938
41	0x3dfeff2e	0.124510154
42	0xbbb0a687	-0.0053909454
43	0x3e500101	0.20312883
44	0xbeb4caf8	-0.35311103
45	0x3c74231a	0.014900947
46	0x3dcd7c34	0.100334555
47	0xbdf24cc6	-0.118310496
48	0x3d9f80b1	0.07788218
49	0xbdda2a82	-0.10652639
50	0xbcd5af34	-0.02608452
51	0x3c516b75	0.012781967
52	0x3d594b47	0.053050306
53	0x3d4c984b	0.049949925
54	0x3d882f66	0.066496655
55	0x3cefdc97	0.02927999
56	0xbdf57e3e	-0.119869694
57	0xbcfc2246	-0.030778062
58	0xbe48e696	-0.19619212
59	0x3dabffa1	0.08398367
60	0x3d9817ac	0.0742639
61	0xbe5d9465	-0.2163864
62	0xbc7e0142	-0.01550323
63	0x3d966eea	0.07345374
64	0x3e3fe484	0.18739516
65	0xbe23be9e	-0.15990683
66	0x3e4bff4c	0.19921607
67	0xbe27188f	-0.16317962
68	0x3d2df8a9	0.04247347
69	0x3e4150c7	0.1887847
70	0x3dd3da41	0.10344363
71	0xbdb1764d	-0.08665142
72	0x3c56d37f	0.013111948
73	0x3e13b3da	0.14424077
74	0x3db4a0f3	0.08819761
75	0x3dd04e5b	0.10171195
76	0x3e03e3a0	0.12879801
77	0xbe0ca675	-0.13735373
78	0xbdd59117	-0.10428064
79	0xbd749043	-0.05970789
80	0x3d254b3d	0.040354956
81	0xbe1ccd77	-0.15312754
82	0x3d384a1e	0.04499256
83	0xbe1d8bcc	-0.1538536
84	0x3c710d62	0.014712663
85	0x3daff8c5	0.08592371
86	0xbd1d920f	-0.03846937
87	0xbe1a31db	-0.15058081
88	0x3e2cf25d	0.16889329
89	0x3d178444	0.036991373
90	0xbe55b7da	-0.20870915
91	0x3e244665	0.16042478
92	0xbe15d804	-0.14633185
93	0xbc82d17d	-0.015969032
94	0x3d7e4f7e	0.06208753
95	0xbb52af9e	-0.0032148133
96	0xbd7a7bb4	-0.06115313
97	0x3d93a01f	0.07208275
98	0xbe0c5bb4	-0.13706857
99	0xbb184889	-0.0023236594
100	0x3d395cd3	0.04525454
101	0x3ddca031	0.107727416
102	0x3d3611f9	0.044450734
103	0xbd44f32a	-0.04808346
104	0x3dcaf9ee	0.099109516
105	0x3cb5265a	0.022113014
106	0x3e6c726a	0.2309052
107	0xbc94c683	-0.018161064
108	0xbdfd4fab	-0.12368711
109	0x3dd4a7d6	0.10383575
110	0xbe7a5222	-0.24445394
111	0xbd473800	-0.04863739
112	0xbddc29bc	-0.10750148
113	0xbce94ff9	-0.028480517
114	0xbd94eedd	-0.07272122
115	0xbca2ab7c	-0.01985716
116	0x3e178070	0.14795089
117	0xbd91ec78	-0.07125181
118	0x3dd678a2	0.10472228
119	0x3caab681	0.020838978
120	0xbcff595a	-0.031170536
121	0x3de4de77	0.11175244
122	0xbd5d0726	-0.053961895
123	0xbd69069c	-0.05689107
124	0x3d8c3cc0	0.06847525
125	0xbe2b797b	-0.1674556
126	0xbd8a36d0	-0.06748736
127	0xbe3b2a42	-0.18277839
128	0x3e556a30	0.20841289
129	0x3c9499a3	0.018139666
130	0xbd35f3ac	-0.044421837
131	0xbe4f39c5	-0.20236881
132	0x3df87336	0.1213135
133	0x3b1d794b	0.0024028595
134	0xbe1e452f	-0.15456079
135	0x3e27ea5e	0.16397998
136	0xbd12ef8b	-0.035872977
137	0xbe5e51d3	-0.21710901
138	0xbe03e31d	-0.12879606
139	0x3dc73c84	0.09728339
140	0xbc901ba1	-0.0175913
141	0xbd004cb8	-0.031323165
142	0xbd9ed76e	-0.07755934
143	0xbc248686	-0.0100418385
144	0xbe0a5202	-0.13507846
145	0xbd30ae50	-0.043134987
146	0x3e0802d4	0.13282329
147	0x3dd88942	0.10573055
148	0x3c8b19cb	0.016980072
149	0x3d8689fa	0.06569286
150	0x3d907300	0.070531845
151	0x3de203d7	0.11035889
152	0xbe08685e	-0.13321063
153	0x3dfc2a1c	0.12312719
154	0xbe412dae	-0.18865082
155	0x3d14935a	0.036273338
156	0x3d2d55fc	0.04231833
157	0x3b767598	0.0037606712
158	0x3e47c5ae	0.19509003
159	0x3e2df2a1	0.16987087
160	0x3e59cbf7	0.21269213
161	0xbdf99584	-0.12186721
162	0xbd867bed	-0.06566606
163	0x3d11b196	0.03556975
164	0xbdafa020	-0.08575463
165	0xbd2bddcd	-0.041959573
166	0x3dc07978	0.09398168
167	0xbd4d0241	-0.050050978
168	0xbe335310	-0.17512155
169	0x3d77a719	0.06046209
170	0xbcf66f1b	-0.030082276
171	0xbc4ce0e5	-0.012504791
172	0x3e0d4bd2	0.13798454
173	0x3caca405	0.021074304
174	0xbd966013	-0.073425435
175	0x3d9bc754	0.07606378
176	0x3ddbb309	0.107275076
177	0x3da09f1f	0.0784285
178	0xbcdeca66	-0.02719612
179	0xbd856e6a	-0.065152004
180	0xbe224598	-0.1584686
181	0x3d09bfb7	0.0336301
182	0x3d426b2a	0.04746548
183	0xbe45408b	-0.19262902
184	0xbe01510f	-0.12628578
185	0x3de7244b	0.11286219
186	0xbd320b6c	-0.043467924
187	0xbc0ae871	-0.00847827
188	0x3d6208c3	0.055184137
189	0xbccbf9a5	-0.024899313
190	0x3d936d4e	0.071985826
191	0xbd8defd7	-0.069305114
192	0x3e1737e1	0.1476741
193	0xbdc1cef4	-0.09463301
194	0xbb836b08	-0.004010562
195	0x3e155023	0.14581351
196	0x3da8b6a1	0.08237959
197	0x3ca549b0	0.020176739
198	0x3db1b65d	0.08677361
199	0x3d9487b6	0.07252447
200	0xbd3907a5	-0.045173306
201	0xbd407d3a	-0.046994425
202	0x3c8e9b52	0.017408047
203	0x3dc95dbc	0.098323315
204	0x3d82b3ea	0.06381972
205	0xbd9c44ca	-0.07630308
206	0xbd86dd51	-0.065851815
207	0xbe3c3cf3	-0.18382625
208	0xbe256702	-0.16152576
209	0x3d72b710	0.059256613
210	0xbcc85e3b	-0.024458995
211	0xbda3963d	-0.0798764
212	0xbd80bb33	-0.062857054
213	0xbe1147dd	-0.1418757
214	0x3e1419c4	0.14462954
215	0x3daffafe	0.08592795
216	0xbc936103	-0.017990595
217	0xbd1a08a7	-0.037605908
218	0xbc37591e	-0.011190681
219	0x3dcb3747	0.09922653
220	0x3d5d976f	0.054099496
221	0xbdaf2694	-0.0855228
222	0xbe318848	-0.17337143
223	0x3afd4c6f	0.0019325147
224	0x3de302c8	0.11084515
225	0xbd1c8f67	-0.038222697
226	0x3ddaf9a3	0.10692146
227	0xbe1939a4	-0.14963394
228	0xbddad09f	-0.106843226
229	0xbcf8b641	-0.030360343
230	0xbc0a3856	-0.008436283
231	0xbd62ac9b	-0.05534039
232	0xbcad3126	-0.0211416
233	0x3c59a313	0.013283509
234	0x3dee3759	0.116316505
235	0x3df9a2ee	0.121892795
236	0xbda5b19a	-0.080905154
237	0x3daef7fb	0.08543392
238	0xbd18afd8	-0.037277073
239	0x3d96d1ac	0.073642105
240	0xbdc75302	-0.09732629
241	0x3dcf210d	0.10113726
242	0xbcc225e9	-0.023699718
243	0x3d3ba3a4	0.045810357
244	0x3c851112	0.016243491
245	0xba7c1ecd	-0.0009617627
246	0x3d11b0de	0.035569064
247	0x3d7e4f12	0.062087126
248	0x3d9585d0	0.07300913
249	0xbd0d94d6	-0.03456577
250	0xbdcb17ab	-0.09916624
251	0xbce7583f	-0.028240321
252	0x3c486f79	0.012233608
253	0x3d9260f0	0.071473956
254	0xbcebe45d	-0.028795416
255	0xbe39954a	-0.18123356

network_body._body_endoder.seq_layers.0.bias f4 [128]
0	0x00000000	0.0
1	0x00000000	0.0
2	0x00000000	0.0
3	0x00000000	0.0
4	0x00000000	0.0
5	0x00000000	0.0
6	0x00000000	0.0
7	0x00000000	0.0
8	0x00000000	0.0
9	0x00000000	0.0
10	0x00000000	0.0
11	0x00000000	0.0
12	0x00000000	0.0
13	0x00000000	0.0
14	0x00000000	0.0
15	0x00000000	0.0
16	0x00000000	0.0
17	0x00000000	0.0
18	0x00000000	0.0
19	0x00000000	0.0
20	0x00000000	0.0
21	0x00000000	0.0
22	0x00000000	0.0
23	0x00000000	0.0
24	0x00000000	0.0
25	0x00000000	0.0
26	0x00000000	0.0
27	0x00000000	0.0
28	0x00000000	0.0
29	0x00000000	0.0
30	0x00000000	0.0
31	0x00000000	0.0
32	0x00000000	0.0
33	0x00000000	0.0
34	0x00000000	0.0
35	0x00000000	0.0
36	0x00000000	0.0
37	0x00000000	0.0
38	0x00000000	0.0
39	0x00000000	0.0
40	0x00000000	0.0
41	0x00000000	0.0
42	0x00000000	0.0
43	0x00000000	0.0
44	0x00000000	0.0
45	0x00000000	0.0
46	0x00000000	0.0
47	0x00000000	0.0
48	0x00000000	0.0
49	0x00000000	0.0
50	0x00000000	0.0
51	0x00000000	0.0
52	0x00000000	0.0
53	0x00000000	0.0
54	0x00000000	0.0
55	0x00000000	0.0
56	0x00000000	0.0
57	0x00000000	0.0
58	0x00000000	0.0
59	0x00000000	0.0
60	0x00000000	0.0
61	0x00000000	0.0
62	0x00000000	0.0
63	0x00000000	0.0
64	0x00000000	0.0
65	0x00000000	0.0
66	0x00000000	0.0
67	0x00000000	0.0
68	0x00000000	0.0
69	0x00000000	0.0
70	0x00000000	0.0
71	0x00000000	0.0
72	0x00000000	0.0
73	0x00000000	0.0
74	0x00000000	0.0
75	0x00000000	0.0
76	0x00000000	0.0
77	0x00000000	0.0
78	0x00000000	0.0
79	0x00000000	0.0
80	0x00000000	0.0
81	0x00000000	0.0
82	0x00000000	0.0
83	0x00000000	0.0
84	0x00000000	0.0
85	0x00000000	0.0
86	0x00000000	0.0
87	0x00000000	0.0
88	0x00000000	0.0
89	0x00000000	0.0
90	0x00000000	0.0
91	0x00000000	0.0
92	0x00000000	0.0
93	0x00000000	0.0
94	0x00000000	0.0
95	0x00000000	0.0
96	0x00000000	0.0
97	0x00000000	0.0
98	0x00000000	0.0
99	0x00000000	0.0
100	0x00000000	0.0
101	0x00000000	0.0
102	0x00000000	0.0
103	0x00000000	0.0
104	0x00000000	0.0
105	0x00000000	0.0
106	0x00000000	0.0
107	0x00000000	0.0
108	0x00000000	0.0
109	0x00000000	0.0
110	0x00000000	0.0
111	0x00000000	0.0
112	0x00000000	0.0
113	0x00000000	0.0
114	0x00000000	0.0
115	0x00000000	0.0
116	0x00000000	0.0
117	0x00000000	0.0
118	0x00000000	0.0
119	0x00000000	0.0
120	0x00000000	0.0
121	0x00000000	0.0
122	0x00000000	0.0
123	0x00000000	0.0
124	0x00000000	0.0
125	0x00000000	0.0
126	0x00000000	0.0
127	0x00000000	0.0

network_body._body_endoder.seq_layers.2.weight f4 [128, 128]
0	0xbced15ff	-0.028941153
1	0x3a4289f9	0.0007421072
2	0x3d1d5367	0.038409617
3	0xbd885d7b	-0.06658455
4	0x3e4ed0e2	0.2019687
5	0x3c30ff46	0.010803049
6	0xbd7fb35b	-0.062426906
7	0x3c86eac9	0.016469376
8	0x3e03f601	0.12886812
9	0xbc85949d	-0.016306216
10	0x3cedc1c2	0.029023055
11	0xbd1f1fd0	-0.0388487
12	0x3e2e9246	0.17047986
13	0xbd685a2b	-0.056726616
14	0x3d9d4b34	0.076803595
15	0xbc2d0e11	-0.010562436
16	0xbd3be333	-0.04587097
17	0x3dd3eb45	0.103476085
18	0x3e0145fc	0.12624353
19	0x3d6b94f4	0.0575151
20	0xbd88f2b9	-0.06686921
21	0x3e1ff16e	0.15619442
22	0x3d29113b	0.041276198
23	0x3cd5eff2	0.026115391
24	0xb91badea	-0.0001484674
25	0x3c968906	0.018375885
26	0x3e1849a4	0.14871842
27	0xbdee65a8	-0.11640483
28	0xbe7f8db9	-0.24956407
29	0xbe268d75	-0.16264899
30	0xbd019c88	-0.03164342
31	0xbc782f99	-0.015148067
32	0xbd9482b3	-0.072514914
33	0xbd2a296f	-0.04154342
34	0xbd96a2a4	-0.0735524
35	0x3d0fb7fe	0.035087578
36	0xbdc017e1	-0.093795545
37	0xbaaa3b82	-0.0012987705
38	0x3d70eb2e	0.058818035
39	0xbd8cfadb	-0.068837844
40	0x3e4c3cde	0.19945094
41	0x3d13d684	0.03609325
42	0x3daa1949	0.08305604
43	0x3d4fe1d1	0.050752465
44	0x3e259df1	0.16173531
45	0xbd98891a	-0.07448025
46	0xbd1d91b3	-0.038469028
47	0x3dfe4b89	0.12416751
48	0x3e222d26	0.15837535
49	0xbd70341b	-0.05864344
50	0x3e3a405a	0.1818861
51	0x3d6d8d96	0.057996355
52	0xbca9341f	-0.020654736
53	0x3db796db	0.0896432
54	0x3da8452c	0.082163185
55	0xbdda4403	-0.106575035
56	0x3d4f98dd	0.05068289
57	0x3e0b1f48	0.13586152
58	0xbe0c37a7	-0.13693105
59	0xbcacfd73	-0.021116948
60	0xbdc0d81d	-0.0941622
61	0xbd3156d8	-0.04329571
62	0xbd1fa7de	-0.03897845
63	0x3c936ea9	0.017997103
64	0xbc0403df	-0.008057564
65	0x3d845d9c	0.06463167
66	0x3d99183e	0.07475327
67	0xbbd673ef	-0.006544582
68	0xbb071fe9	-0.0020618385
69	0xbddde3ad	-0.10834441
70	0x3e2171b5	0.15766032
71	0x3db75cc1	0.08953238
72	0xbdd46735	-0.10371248
73	0x3d7b52b2	0.06135816
74	0xbd9466ea	-0.07246192
75	0xbd401124	-0.046891347
76	0xbbfdbcd8	-0.007743459
77	0x3dafcfbd	0.08584545
78	0xbc0ba89c	-0.008524086
79	0xbe0b475d	-0.13601442
80	0xbd20e81e	-0.039283864
81	0x3c9dad2c	0.019247614
82	0x3e54fcc0	0.20799541
83	0x3e097335	0.13422854
84	0xbd9da5fa	-0.07697673
85	0xbd205d86	-0.03915169
86	0x3d5cf39f	0.053943273
87	0xbe42bf27	-0.19018231
88	0xbd48c397	-0.049014654
89	0x3da5f034	0.08102456
90	0x3de7959f	0.11307835
91	0xbc1aa925	-0.009439741
92	0xbc9d1f07	-0.019179834
93	0xbe11e582	-0.14247707
94	0x39316985	0.00016919344
95	0x3c8b339d	0.016992385
96	0x3da677f1	0.08128346
97	0x3ca739f4	0.020413376
98	0xbdb35467	-0.08756333
99	0xbd7f2a9a	-0.062296487
100	0xbd882db1	-0.0664934
101	0xbcb9021a	-0.02258401
102	0xbb36b4f2	-0.0027878848
103	0xbd942bda	-0.072349265
104	0x3e112c1a	0.1417698
105	0x3db3b0d1	0.087739594
106	0xbd36f2a3	-0.04466499
107	0x3dd9d967	0.10637169
108	0x3dc2b607	0.09507375
109	0xbdb08230	-0.08618581
110	0xbd3cbaac	-0.04607646
111	0xbe90e63d	-0.28300658
112	0xbda6cc74	-0.08144465
113	0xbda2fd51	-0.079584725
114	0x3c5adf5a	0.013358915
115	0xbcfd93d2	-0.030954275
116	0x3dfb40bf	0.12268209
117	0x3cf4c3b5	0.029878477
118	0xbd7e38e0	-0.06206596
119	0xbd8b6240	-0.06805849
120	0x3d5e6ae9	0.054301176
121	0x3e359fac	0.17736691
122	0x3e2fa280	0.17151833
123	0x3d8ba366	0.06818275
124	0xbd11f8ae	-0.03563755
125	0xbcde3d78	-0.02712892
126	0xbc10b4c0	-0.008832157
127	0x3ce46174	0.0278785
128	0x3d8425d3	0.06452527
129	0xbcc8e0f5	-0.02452133
130	0xbe0ee489	-0.13954367
131	0x3d46e432	0.048557468
132	0xbd404d78	-0.04694888
133	0x3c575f35	0.013145258
134	0x3d4cebcb	0.050029557
135	0xbd946202	-0.07245256
136	0xbe6e0791	-0.23245074
137	0x3e51ae2d	0.20476599
138	0x3ab5c5e9	0.0013868186
139	0x3e60bc96	0.2194694
140	0x3d50ce57	0.05097803
141	0xba01b2fa	-0.0004947629
142	0xbd694206	-0.05694773
143	0x3d92e7eb	0.07173141
144	0x3ccf16b8	0.025279388
145	0x3d10e9f0	0.03537935
146	0x3c0c3953	0.008558589
147	0x3d4b9a15	0.04970749
148	0x3cb6a06e	0.022293296
149	0xbdc9f522	-0.098612085
150	0x3be84148	0.0070878603
151	0xbc3b535e	-0.0114334505
152	0xbdb810fd	-0.08987615
153	0x3cdaee84	0.026725061
154	0x3e1d7765	0.15377577
155	0x3e2ada62	0.16684869
156	0x3cf95af5	0.03043888
157	0x3d383c34	0.04497929
158	0xbe08f677	-0.13375269
159	0x3d818779	0.063246675
160	0xbcf785ce	-0.03021517
161	0xbde5cbaa	-0.112204865
162	0x3e3fe259	0.18738689
163	0xbd0dc17c	-0.03460835
164	0xbe20fb5d	-0.15720887
165	0x3d86a385	0.065741576
166	0x3cac582e	0.021038141
167	0x3c7df86e	0.015501125
168	0x3d13f5d0	0.036123097
169	0x3e400a6d	0.18753977
170	0x3e1b28c0	0.15152264
171	0x3c68ec29	0.014216461
172	0xbe1856b3	-0.14876823
173	0xbd968d6f	-0.07351195
174	0xbc8a75f9	-0.016901957
175	0x3da58409	0.08081824
176	0xbde6546a	-0.112465695
177	0xbc81e408	-0.015855804
178	0x3e212d41	0.15739919
179	0x3daa11f3	0.08304205
180	0xbcbc3272	-0.022973273
181	0x3d9a8a52	0.07545914
182	0x3cec45b0	0.028841823
183	0xbe66bf65	-0.22533949
184	0xbe19ece9	-0.1503178
185	0x3d65accd	0.056073
186	0xbd050ea2	-0.032484658
187	0x3cd005db	0.025393417
188	0x3cb243a2	0.021760765
189	0x3ca6d53b	0.020365348
190	0x3c7f6d05	0.015589957
191	0xbe2b1966	-0.16708907
192	0x3da83eb9	0.082150884
193	0xbceb0703	-0.028689867
194	0x3c414499	0.01179614
195	0xbe4b7d9b	-0.19872133
196	0xbc550c1b	-0.013003374
197	0x3ce49ccd	0.0279068
198	0x3cd1f4b7	0.025629384
199	0xbd81a941	-0.06331111
200	0x3d2252f5	0.039629895
201	0xbd519032	-0.051162906
202	0x3c0244dd	0.007950989
203	0x3df5e5f3	0.1200675
204	0xbc273e5b	-0.010207738
205	0x3d30fb2b	0.043208282
206	0x3c043fd6	0.00807186
207	0xbcf27902	-0.029598717
208	0xbde6b0dc	-0.11264202
209	0xbd7d39f5	-0.06182285
210	0x3c58d190	0.013233557
211	0xbcaf7560	-0.021418273
212	0xbe541e0e	-0.2071459
213	0xbdc2de84	-0.09515098
214	0xbd62a181	-0.055329803
215	0xbe19ac49	-0.15007128
216	0xbe0003d4	-0.1250146
217	0x3dcae005	0.099060096
218	0x3dca3184	0.098727256
219	0x3ce39622	0.02778155
220	0x3c1545f5	0.009110917
221	0xbe461a16	-0.19345888
222	0x3e019349	0.12653841
223	0x3d8e5822	0.06950404
224	0x3d9ec84e	0.07753049
225	0xbcf9f7e6	-0.030513715
226	0x3ce1569b	0.027507117
227	0x3dbdb004	0.09262088
228	0x3d527611	0.05138213
229	0x3bda5e36	0.006664063
230	0x3bac401a	0.005256665
231	0xbd558c04	-0.052135482
232	0x3d3b06f6	0.045660935
233	0xbdf13927	-0.11778479
234	0xbde429f8	-0.111408174
235	0xbe0631a3	-0.13104872
236	0xbc7abccf	-0.015303805
237	0xbdaf12e1	-0.08548523
238	0x3d6ec21f	0.058290597
239	0xbdd8c950	-0.10585272
240	0x3b74dcca	0.0037363046
241	0xbc63928f	-0.013889923
242	0xbde67677	-0.11253064
243	0x3e4c66a4	0.1996103
244	0x3caff566	0.02147932
245	0xbd3e3d5e	-0.046445243
246	0xbe07a2bd	-0.13245673
247	0x3cbd6c58	0.023122951
248	0x3d6e521e	0.05818378
249	0xbc46c0aa	-0.012130896
250	0x3db1e650	0.08686507
251	0xbd7ebd75	-0.0621924
252	0x3e040f68	0.12896502
253	0x3d18fae1	0.03734863
254	0x3cd6ee45	0.026236663
255	0x3e193a1b	0.14963572

action_model._continuous_distribution.log_sigma f4 [1, 24]
0	0x00000000	0.0
1	0x00000000	0.0
2	0x00000000	0.0
3	0x00000000	0.0
4	0x00000000	0.0
5	0x00000000	0.0
6	0x00000000	0.0
7	0x00000000	0.0
8	0x00000000	0.0
9	0x00000000	0.0
10	0x00000000	0.0
11	0x00000000	0.0
12	0x00000000	0.0
13	0x00000000	0.0
14	0x00000000	0.0
15	0x00000000	0.0
16	0x00000000	0.0
17	0x00000000	0.0
18	0x00000000	0.0
19	0x00000000	0.0
20	0x00000000	0.0
21	0x00000000	0.0
22	0x00000000	0.0
23	0x00000000	0.0

action_model._continuous_distribution.mu.weight f4 [24, 128]
0	0x3c4bb62b	0.012433569
1	0xbc06aafb	-0.008219476
2	0xbc1002f3	-0.008789766
3	0xb9e4b0c7	-0.00043619258
4	0xbd105fa6	-0.035247467
5	0x3c8d87a8	0.0172766
6	0x3c575adf	0.013144224
7	0xbba934bd	-0.0051637576
8	0x3c334c16	0.010943433
9	0xbae8e3c0	-0.001776807
10	0x3c307dfd	0.010772225
11	0x3bea64d0	0.007153131
12	0x3c89e94c	0.016834877
13	0xbc0fee34	-0.008784819
14	0x3bc9d8f2	0.006159895
15	0xba248662	-0.0006276128
16	0xbbd8d6e0	-0.006617412
17	0xbc5af460	-0.013363928
18	0x3d1d1054	0.03834565
19	0xbc0e9cc8	-0.008704372
20	0xbd0d17ec	-0.03444664
21	0xbcc1ba0c	-0.023648284
22	0xbbc304df	-0.0059515084
23	0xbbd7fa0a	-0.0065910863
24	0x3bbd10e3	0.0057698353
25	0xbd1ea9ff	-0.03873634
26	0x3bf80233	0.0075686215
27	0xbc97b4fe	-0.018518921
28	0x3ce5ebf8	0.02806662
29	0x3b9e6f9b	0.0048350818
30	0x3c91b1e5	0.017785022
31	0xbc81bd01	-0.015837194
32	0x3c68cdbd	0.014209208
33	0x3c213ef3	0.009841668
34	0x3abacefd	0.0014252361
35	0xbc9f25c0	-0.01942718
36	0xbcdf96c2	-0.027293567
37	0x3ac2ce3f	0.0014862492
38	0xba771d25	-0.0009426645
39	0x3beb91bb	0.0071890033
40	0xba1badd1	-0.00059386814
41	0x3cdb57a0	0.026775181
42	0xbc998d71	-0.018744202
43	0x3c86877b	0.016422024
44	0x3d1371a6	0.035997055
45	0x3b9dee23	0.004819648
46	0xbca835c8	-0.020533457
47	0xbc004957	-0.007829986
48	0xbb8584ba	-0.00407466
49	0x3b858420	0.0040745884
50	0x3ba78d23	0.0051132604
51	0x3c923477	0.017847283
52	0x3c8f4d2b	0.017492851
53	0x3d092190	0.033479273
54	0xba0690fa	-0.00051332975
55	0x3b6077c8	0.0034251083
56	0x3b9c768d	0.0047748745
57	0x3b96fdcc	0.0046078917
58	0xbc6ea863	-0.014566514
59	0xbb9ef8ae	-0.0048514223
60	0xba7df50a	-0.0009687698
61	0xbc1f931b	-0.0097396625
62	0xbb95fe12	-0.0045774067
63	0xba2092c8	-0.0006125388
64	0x3ba72d16	0.00510181
65	0x3bbb352e	0.0057131266
66	0x3c234642	0.009965481
67	0xbcc6bb72	-0.024259303
68	0x3c80718b	0.015679142
69	0x3bf1a1a7	0.007374007
70	0xbd155f88	-0.03646806
71	0xbc9a5af3	-0.018842196
72	0xba93e849	-0.0011284436
73	0x3ba3973b	0.0049923933
74	0x3c32a3c3	0.010903302
75	0xbb752f67	-0.0037412287
76	0xba944364	-0.0011311588
77	0xbd3e8d1d	-0.046521295
78	0xbca44f1a	-0.02005725
79	0x3c6909f7	0.014223567
80	0x3d1073fc	0.03526686
81	0x3bee09dd	0.0072643594
82	0xbc9d62bb	-0.019212117
83	0xbd3037de	-0.04302203
84	0xbcc615a4	-0.02418024
85	0x3b1737c4	0.002307401
86	0x3c7adbab	0.015311162
87	0x381316c5	3.5068737e-05
88	0xbc1af284	-0.009457234
89	0xbc39229a	-0.011299754
90	0x3c0be32a	0.008538047
91	0xbc2e3765	-0.010633324
92	0x3bfd9eb3	0.0077398657
93	0x3c658580	0.01400888
94	0xbc6268cf	-0.013818934
95	0x3bfbd1c5	0.0076849186
96	0x3bd1db30	0.006404303
97	0xbc120c1d	-0.008914021
98	0x3c94e2c4	0.018174537
99	0x3b350c32	0.0027625677
100	0xbc17cbfb	-0.009264941
101	0xbc1d4f09	-0.009601363
102	0x3c02f71c	0.007993486
103	0x39609fc5	0.00021421823
104	0xbb86523f	-0.00409916
105	0x3cc4c30b	0.024018785
106	0x3c00ae91	0.00785412
107	0xbb079a46	-0.002069132
108	0x3bfbd88d	0.007685727
109	0xbc20ace7	-0.009806848
110	0xbd094cdd	-0.03352057
111	0xbc6ae0fd	-0.014335868
112	0xbbea4fc5	-0.0071506226
113	0x3c5a5123	0.013325009
114	0xbb74af35	-0.0037335877
115	0xbd00ed40	-0.03147626
116	0x3ca0bd6b	0.019621572
117	0x3c779828	0.0151119605
118	0x3c3fe23d	0.011711654
119	0x3be5ce90	0.0070131496
120	0x3d0d2951	0.03446323
121	0xbcf4c44a	-0.029878754
122	0xbbce2b38	-0.006291773
123	0x3c93d80f	0.01804736
124	0xbbdb0612	-0.0066840732
125	0xbbc65603	-0.006052734
126	0x3c490cc6	0.012271112
127	0xbc5b0283	-0.013367298
128	0x3d2d6997	0.042337026
129	0x3c98e1b2	0.018662307
130	0x3c84c473	0.016206956
131	0xbb1fec0d	-0.0024402172
132	0xbcde02dd	-0.027100975
133	0xbbbe38e0	-0.00580512
134	0xbc71993b	-0.014746006
135	0xbc19b006	-0.009380346
136	0x3d0a6e08	0.03379634
137	0x3afc4407	0.0019246348
138	0x3c078822	0.008272203
139	0x3cec53cf	0.028848557
140	0xbc710517	-0.014710686
141	0x3c258b13	0.010103959
142	0xbc336067	-0.010948277
143	0x3cc03064	0.023460574
144	0xbbb8ce4b	-0.0056398264
145	0x3bc4d917	0.0060073244
146	0x3c724d03	0.014788869
147	0xbd16f46d	-0.036854196
148	0x3b16c042	0.0023002778
149	0x3c610d1d	0.013736037
150	0x39ebcb08	0.00044973963
151	0xbc0e5f07	-0.0086896485
152	0x3cac42ab	0.021027884
153	0xbce9cd22	-0.028540198
154	0x3b8256bc	0.0039776247
155	0x3cf9fc9d	0.030515963
156	0x3c0a2797	0.0084322905
157	0x3a3e5508	0.00072605954
158	0xbc40d303	-0.011769059
159	0x3c677ded	0.014129144
160	0xbb01a245	-0.0019780558
161	0x3cbd3987	0.02309872
162	0x3ceecf60	0.029151618
163	0xbc268a73	-0.010164845
164	0x3bcbd0e9	0.0062199724
165	0x3b868361	0.004105017
166	0xbbfd6997	-0.0077335346
167	0xbc1998a6	-0.009374773
168	0x3c8d3c27	0.017240597
169	0xbc6e20c0	-0.014534175
170	0xbd23323b	-0.039842825
171	0xbb585177	-0.0033007541
172	0xbc8f0beb	-0.017461738
173	0x3c2422f4	0.010018099
174	0x3bef1828	0.007296581
175	0x3cfb9a15	0.03071312
176	0x39d43d9b	0.0004048169
177	0xbd0169bf	-0.031594988
178	0xbb09edef	-0.002104636
179	0xbc903f68	-0.01760836
180	0x3d11d4c4	0.0356033
181	0xbd2006ff	-0.039069172
182	0xbc8b17ed	-0.016979182
183	0xbbd7a87b	-0.0065813637
184	0xbbe14faa	-0.006875952
185	0xbcc66db3	-0.02422223
186	0x3b09c7a3	0.0021023534
187	0xbc95d0ad	-0.01828798
188	0xbaee9745	-0.0018203041
189	0xbc9bcfed	-0.019020045
190	0xb9f7de13	-0.0004727697
191	0x3caa9e6f	0.0208275
192	0xbaf22593	-0.0018474333
193	0x3d17bd66	0.03704586
194	0x3c129713	0.008947152
195	0x3c87d4f0	0.016581029
196	0x3cc6d918	0.02427344
197	0xbc031a76	-0.008001914
198	0x3cea28cf	0.028583912
199	0x3c040ce7	0.008059717
200	0xbca81052	-0.020515595
201	0x3c46be73	0.012130368
202	0xbc6bf748	-0.014402218
203	0x3d03062b	0.031988304
204	0xbc924309	-0.01785423
205	0x3c52b97f	0.0128616085
206	0xbb25d0fb	-0.0025301564
207	0xbbe1c31b	-0.0068897135
208	0xbb9061c9	-0.004406188
209	0xbc02d0a1	-0.007984311
210	0xba04ff9e	-0.00050734903
211	0xbcd0c8d2	-0.025486384
212	0x3cbf4200	0.023346901
213	0x3c4d378a	0.012525449
214	0x3d1aac2f	0.037761863
215	0xbc228d27	-0.009921349
216	0x3d19db4b	0.03756265
217	0x3c3bd103	0.0114634065
218	0x3ce95f07	0.028487695
219	0xbbf89208	-0.0075857677
220	0x3c6e6acd	0.0145518305
221	0x3cc9d24b	0.024636408
222	0xbca654e9	-0.02030416
223	0xbb1046cf	-0.0022014861
224	0xbc801aef	-0.015637843
225	0xbbbe3c97	-0.0058055627
226	0xbc66a723	-0.014077934
227	0x3a833524	0.0010010344
228	0x3c351b30	0.011053845
229	0xbb0128d4	-0.0019708173
230	0xbc04d765	-0.008107995
231	0x3c2c564d	0.010518623
232	0x3bc25aa4	0.0059312154
233	0x3ad7dc93	0.0016468934
234	0xbc50a808	-0.012735374
235	0xbc329d75	-0.0109017985
236	0x3d23b057	0.039963093
237	0xbbe81627	-0.007082719
238	0xbc5f5337	-0.01363068
239	0xbc1c4367	-0.009537554
240	0x3c81127a	0.01575588
241	0xbc1570aa	-0.0091210995
242	0x3cb98fe3	0.022651618
243	0xbcf2f132	-0.029656027
244	0xbc51ef63	-0.012813422
245	0x3bfc6d48	0.007703457
246	0xbbe97efa	-0.0071257325
247	0xbc2a9493	-0.010411399
248	0xbc4dd713	-0.012563485
249	0x38c2e546	9.2933464e-05
250	0x3b8fd4d0	0.004389383
251	0xbc54c05f	-0.012985318
252	0x3be27ad5	0.0069116154
253	0x3c92146f	0.01783201
254	0xbc311335	-0.010807802
255	0x3b605fa3	0.0034236691

action_model._continuous_distribution.mu.bias f4 [24]
0	0x00000000	0.0
1	0x00000000	0.0
2	0x00000000	0.0
3	0x00000000	0.0
4	0x00000000	0.0
5	0x00000000	0.0
6	0x00000000	0.0
7	0x00000000	0.0
8	0x00000000	0.0
9	0x00000000	0.0
10	0x00000000	0.0
11	0x00000000	0.0
12	0x00000000	0.0
13	0x00000000	0.0
14	0x00000000	0.0
15	0x00000000	0.0
16	0x00000000	0.0
17	0x00000000	0.0
18	0x00000000	0.0
19	0x00000000	0.0
20	0x00000000	0.0
21	0x00000000	0.0
22	0x00000000	0.0
23	0x00000000	0.0

action_model._discrete_distribution.branches.0.weight f4 [1, 128]
0	0xbb8638df	-0.004096135
1	0x3b5ac515	0.003338163
2	0xbc297db0	-0.010344908
3	0x3bf576ef	0.0074909846
4	0x3c47ae1f	0.01218751
5	0x3baa9838	0.005206134
6	0x3aee0812	0.0018160364
7	0xbc327d5c	-0.010894146
8	0x3b1dedc0	0.002409801
9	0xbba38cd7	-0.0049911547
10	0x3bb00530	0.005371712
11	0xbad48235	-0.0016213121
12	0x3bce8642	0.006302626
13	0x3c0cb7df	0.00858876
14	0xbaac98f1	-0.0013168139
15	0x3c7f3e25	0.015578781
16	0xbc5a6d5d	-0.013331738
17	0x3c1d1413	0.009587306
18	0x3cb70b04	0.02234412
19	0x3940b1cb	0.0001837678
20	0x3c079fb5	0.008277823
21	0x39503475	0.00019855968
22	0x3ab29aaf	0.0013626422
23	0x3b1ae8e1	0.0023637342
24	0xbc4f6478	-0.012658231
25	0xbd09d5a7	-0.03365102
26	0x3c3a0c17	0.0113554215
27	0xbb335ba7	-0.0027367861
28	0xbbaaf273	-0.0052168905
29	0xbc7ed4bf	-0.015553652
30	0x3b122723	0.002230116
31	0xbbbb37c7	-0.0057134363
32	0xbc298ca3	-0.010348472
33	0x3c6129c2	0.013742866
34	0x3c0062fb	0.007836099
35	0x3a85fd0c	0.0010222509
36	0x3c066b98	0.008204363
37	0xbb6a452f	-0.0035746803
38	0xbb61c4db	-0.003444961
39	0x3b30a6cf	0.0026954894
40	0xbb49c818	-0.0030789431
41	0x3b8db583	0.0043246164
42	0x3b893a70	0.0041878745
43	0xb984376b	-0.00025218292
44	0x3c1c046d	0.00952254
45	0xbba6bc26	-0.005088347
46	0xbc3cc4c5	-0.011521523
47	0xbbfcd3fa	-0.0077156993
48	0x3bcdbbad	0.006278476
49	0x3be874fa	0.007094023
50	0xbbcaa3b7	-0.006184067
51	0xbbd1ea68	-0.006406117
52	0x3c2393fc	0.009984013
53	0xbc9658d6	-0.018352907
54	0xbc997fb1	-0.018737646
55	0xbbcc1f5a	-0.0062293233
56	0xbc86c306	-0.016450416
57	0xbbed9085	-0.007249894
58	0xbc40959a	-0.011754418
59	0xbba1c643	-0.0049369647
60	0x3c90f6c2	0.017695788
61	0x3bba85ef	0.0056922357
62	0xbb75a4fb	-0.003748237
63	0xbb90baad	-0.0044167847
64	0x3b681185	0.0035410833
65	0xbba3c27e	-0.0049975505
66	0xbb8aad94	-0.004232118
67	0xbc6a661a	-0.0143065695
68	0x3b986511	0.00465072
69	0xba81a834	-0.0009892047
70	0x3b719040	0.0036859661
71	0xbc94e729	-0.018176632
72	0x3b314d4b	0.0027054127
73	0x3be6b0a0	0.0070400983
74	0x3baf6813	0.005352983
75	0x3c70781b	0.014677073
76	0x3c2467a3	0.010034475
77	0x3b3b7aff	0.0028607247
78	0xbb965166	-0.00458734
79	0x3c4ae70f	0.01238419
80	0xbbbe9440	-0.0058160126
81	0x3c32d11b	0.010914112
82	0x3bcc2166	0.0062295673
83	0x3c18d995	0.009329219
84	0xbc9f118d	-0.019417549
85	0x3c0ce67f	0.008599876
86	0x3c39e45b	0.011345948
87	0xbae646fb	-0.0017568761
88	0x3c2324c3	0.009957495
89	0x3c17b777	0.00926005
90	0xbc029ef7	-0.0079724705
91	0x3bba8d93	0.0056931465
92	0xbc001164	-0.007816646
93	0x397204b2	0.00023080668
94	0x3c0270a2	0.007961424
95	0x3b0c4d32	0.0021408317
96	0x3a70737b	0.00091724814
97	0x3c25de09	0.010123738
98	0xbcc7bf31	-0.02438316
99	0x3c492fcf	0.012279465
100	0xbbca9096	-0.006181787
101	0xbbd736c8	-0.0065678097
102	0x3a344140	0.0006876178
103	0x3c26c507	0.010178811
104	0x3b240fcd	0.0025033832
105	0xbb10197d	-0.0021987848
106	0x3c8f21b2	0.017472122
107	0xbcb364d6	-0.021898668
108	0x3c2d207c	0.010566827
109	0xbbde5152	-0.0067845965
110	0x3c22eaf6	0.009943714
111	0x3b823e70	0.0039747283
112	0xbc454ecf	-0.012042715
113	0xbc963841	-0.01833737
114	0x3c4225ac	0.011849802
115	0x3ae12e85	0.0017180002
116	0x3c7e22ab	0.015511195
117	0xbbedf7ef	-0.007262222
118	0x3be6033b	0.007019428
119	0x3c01f47f	0.007931828
120	0x3c3d9efb	0.011573548
121	0x3b0ea1db	0.0021763954
122	0xbbb1cd7b	-0.0054261065
123	0x3bfc14ea	0.007692923
124	0x3c4c0bfc	0.012454029
125	0xbc3f4984	-0.011675242
126	0x3b640875	0.003479508
127	0x3beaa02f	0.0071602087

onnx::Div_70 f4 [106]
0	0x3f800000	1.0
1	0x3f800000	1.0
2	0x3f800000	1.0
3	0x3f800000	1.0
4	0x3f800000	1.0
5	0x3f800000	1.0
6	0x3f800000	1.0
7	0x3f800000	1.0
8	0x3f800000	1.0
9	0x3f800000	1.0
10	0x3f800000	1.0
11	0x3f800000	1.0
12	0x3f800000	1.0
13	0x3f800000	1.0
14	0x3f800000	1.0
15	0x3f800000	1.0
16	0x3f800000	1.0
17	0x3f800000	1.0
18	0x3f800000	1.0
19	0x3f800000	1.0
20	0x3f800000	1.0
21	0x3f800000	1.0
22	0x3f800000	1.0
23	0x3f800000	1.0
24	0x3f800000	1.0
25	0x3f800000	1.0
26	0x3f800000	1.0
27	0x3f800000	1.0
28	0x3f800000	1.0
29	0x3f800000	1.0
30	0x3f800000	1.0
31	0x3f800000	1.0
32	0x3f800000	1.0
33	0x3f800000	1.0
34	0x3f800000	1.0
35	0x3f800000	1.0
36	0x3f800000	1.0
37	0x3f800000	1.0
38	0x3f800000	1.0
39	0x3f800000	1.0
40	0x3f800000	1.0
41	0x3f800000	1.0
42	0x3f800000	1.0
43	0x3f800000	1.0
44	0x3f800000	1.0
45	0x3f800000	1.0
46	0x3f800000	1.0
47	0x3f800000	1.0
48	0x3f800000	1.0
49	0x3f800000	1.0
50	0x3f800000	1.0
51	0x3f800000	1.0
52	0x3f800000	1.0
53	0x3f800000	1.0
54	0x3f800000	1.0
55	0x3f800000	1.0
56	0x3f800000	1.0
57	0x3f800000	1.0
58	0x3f800000	1.0
59	0x3f800000	1.0
60	0x3f800000	1.0
61	0x3f800000	1.0
62	0x3f800000	1.0
63	0x3f800000	1.0
64	0x3f800000	1.0
65	0x3f800000	1.0
66	0x3f800000	1.0
67	0x3f800000	1.0
68	0x3f800000	1.0
69	0x3f800000	1.0
70	0x3f800000	1.0
71	0x3f800000	1.0
72	0x3f800000	1.0
73	0x3f800000	1.0
74	0x3f800000	1.0
75	0x3f800000	1.0
76	0x3f800000	1.0
77	0x3f800000	1.0
78	0x3f800000	1.0
79	0x3f800000	1.0
80	0x3f800000	1.0
81	0x3f800000	1.0
82	0x3f800000	1.0
83	0x3f800000	1.0
84	0x3f800000	1.0
85	0x3f800000	1.0
86	0x3f800000	1.0
87	0x3f800000	1.0
88	0x3f800000	1.0
89	0x3f800000	1.0
90	0x3f800000	1.0
91	0x3f800000	1.0
92	0x3f800000	1.0
93	0x3f800000	1.0
94	0x3f800000	1.0
95	0x3f800000	1.0
96	0x3f800000	1.0
97	0x3f800000	1.0
98	0x3f800000	1.0
99	0x3f800000	1.0
100	0x3f800000	1.0
101	0x3f800000	1.0
102	0x3f800000	1.0
103	0x3f800000	1.0
104	0x3f800000	1.0
105	0x3f800000	1.0
