results/packaging_fix_test_17/RobotAgent/RobotAgent-0.onnx (onnx, 357277 bytes, 8 tensors)

network_body.observation_encoder.processors.0.normalizer.running_mean f4 [74]
000000 00 00 00 00 00 00 00 00 00 00 00 00 00 00 00 00
       0.0 0.0 0.0 0.0
000010 00 00 00 00 00 00 00 00 00 00 00 00 00 00 00 00
       0.0 0.0 0.0 0.0
000020 00 00 00 00 00 00 00 00 00 00 00 00 00 00 00 00
       0.0 0.0 0.0 0.0
000030 00 00 00 00 00 00 00 00 00 00 00 00 00 00 00 00
       0.0 0.0 0.0 0.0
000040 00 00 00 00 00 00 00 00 00 00 00 00 00 00 00 00
       0.0 0.0 0.0 0.0
000050 00 00 00 00 00 00 00 00 00 00 00 00 00 00 00 00
       0.0 0.0 0.0 0.0
000060 00 00 00 00 00 00 00 00 00 00 00 00 00 00 00 00
       0.0 0.0 0.0 0.0
000070 00 00 00 00 00 00 00 00 00 00 00 00 00 00 00 00
       0.0 0.0 0.0 0.0
000080 00 00 00 00 00 00 00 00 00 00 00 00 00 00 00 00
       0.0 0.0 0.0 0.0
000090 00 00 00 00 00 00 00 00 00 00 00 00 00 00 00 00
       0.0 0.0 0.0 0.0
0000a0 00 00 00 00 00 00 00 00 00 00 00 00 00 00 00 00
       0.0 0.0 0.0 0.0
0000b0 00 00 00 00 00 00 00 00 00 00 00 00 00 00 00 00
       0.0 0.0 0.0 0.0
0000c0 00 00 00 00 00 00 00 00 00 00 00 00 00 00 00 00
       0.0 0.0 0.0 0.0
0000d0 00 00 00 00 00 00 00 00 00 00 00 00 00 00 00 00
       0.0 0.0 0.0 0.0
0000e0 00 00 00 00 00 00 00 00 00 00 00 00 00 00 00 00
       0.0 0.0 0.0 0.0
0000f0 00 00 00 00 00 00 00 00 00 00 00 00 00 00 00 00
       0.0 0.0 0.0 0.0
000100 00 00 00 00 00 00 00 00 00 00 00 00 00 00 00 00
       0.0 0.0 0.0 0.0
000110 00 00 00 00 00 00 00 00 00 00 00 00 00 00 00 00
       0.0 0.0 0.0 0.0
000120 00 00 00 00 00 00 00 00
       0.0 0.0

network_body._body_endoder.seq_layers.0.weight f4 [256, 74]
000000 33 35 de bd c6 fe 26 3d 01 bc 0a be ef 18 3b 3e
       -0.10849991 0.040770315 -0.1354828 0.1827123
000010 a3 b1 4c 3d bb 35 42 3e 1f 0a 15 3e d1 6e 0f 3e
       0.049974095 0.18965809 0.14554642 0.14007117
000020 4c bd 2a 3d 04 fc 9b 3d 5e 57 f1 bd ac 66 60 3c
       0.041684434 0.076164275 -0.11784242 0.013696354
000030 ba 42 a6 bc c3 03 9b bc b9 86 9c 3c 6f 7d ee bd
       -0.02029549 -0.018922692 0.01910721 -0.11645018
000040 ad 8c 01 be a2 00 36 3c 8c 65 03 bc cd f4 13 be
       -0.1265132 0.011108549 -0.008019816 -0.14448853
000050 72 eb 7a bb 2f 30 d3 3c f5 88 1e 3e 54 b0 f7 3c
       -0.003828731 0.025779812 0.15481932 0.030235447
000060 fc c9 eb 3d 03 2f b1 be a6 d8 3a 3d 6c ed 0b be
       0.11513135 -0.3460618 0.04561677 -0.13664788
000070 bc f6 19 be 6c 0e 09 3d eb 3c 08 3d a4 9a ac bb
       -0.15035528 0.03346102 0.03326122 -0.005267458
000080 cc 5d f0 bc 49 76 dc bc 27 48 7c be 0e 2a 2e be
       -0.0293416 -0.026911872 -0.24636899 -0.1700823
000090 1e 55 ec 3d 21 d9 b0 3e 8c 21 49 3a 60 ed de bd
       0.11539672 0.34540656 0.00076725404 -0.108851194
0000a0 14 d4 8c 3d 7e f0 b5 3d e1 d4 cf bc 60 20 ab bd
       0.06876388 0.08883761 -0.025370063 -0.083557844
0000b0 db 56 43 3e f2 2a 44 3d 46 26 51 3d 5c b1 ff bd
       0.19076101 0.04789252 0.05106189 -0.124850005
0000c0 0a 85 29 bc ac c5 27 be d9 14 77 3c 45 92 2f 3d
       -0.01034666 -0.16384 0.015080654 0.042864103
0000d0 59 f0 b6 3d b6 a2 95 3c 65 ff 04 3e ee 84 ff bc
       0.089325614 0.018266063 0.1298805 -0.031191316
0000e0 c6 4c fa 3c d0 c7 32 bd 1d 48 17 3e c4 5c df 3c
       0.030554187 -0.043647587 0.14773603 0.027265914
0000f0 d6 b6 c5 bc 69 db a2 bc 70 3d 00 3e 11 c8 d9 3d
       -0.024135035 -0.019880014 0.12523437 0.10633863
000100 fe d9 12 ba 33 0b 5d 3e 95 43 6a bd 8a d0 54 bd
       -0.00056019414 0.21586303 -0.057193357 -0.05195669
000110 13 9a b9 3d e2 75 39 3d 50 06 5c 3d c6 a7 7b 3d
       0.090625905 0.045278437 0.053716958 0.061439298
000120 7d 26 b9 bd 4b 53 70 3c 32 53 68 3d 02 47 48 3d
       -0.09040544 0.014668296 0.056719966 0.048895843
000130 f4 f1 ed bd d7 6a b3 3d 24 26 fe 3d a6 ac 80 be
       -0.116184145 0.087606125 0.124096185 -0.2513172
000140 55 7d 0a 3c e4 ee 21 bd a7 c5 4b 3e 3f 86 2a be
       0.008452733 -0.039534464 0.19899617 -0.16652773
000150 1b f5 41 3d b4 bb 82 bd 01 8b 49 3d ec a1 13 3d
       0.04735289 -0.06383458 0.04920483 0.036043093
000160 35 58 64 bd 58 2c 64 be d0 f4 dd bb fa 36 07 be
       -0.055748183 -0.22282541 -0.0067735687 -0.13204566
000170 da b3 20 3e 17 47 35 3d 02 3b 5d be 57 92 b8 3d
       0.15693608 0.04425725 -0.21604541 0.09012287
000180 e9 ce 67 3d 35 9c 5d 3e 53 c6 36 be ff c6 91 3d
       0.05659381 0.2164162 -0.17849092 0.071180336
000190 13 8c 8e bd 59 1a 0b 3e e1 19 ab be ce c6 7b 3e
       -0.06960311 0.1358427 -0.33418182 0.24587557
0001a0 7d 9d bc bd ec 8f fa bc 0d 54 0f bc 53 eb 4f be
       -0.09209726 -0.030586205 -0.008748067 -0.20304613
0001b0 76 d5 f9 bd 90 57 00 bb d6 2f 26 be 14 4a 5e 3d
       -0.121989176 -0.0019583441 -0.16229185 0.054269865
0001c0 17 eb 31 be 9d ad be bc 4c 07 1d 3e 4f 3b 3c bd
       -0.17374836 -0.023276145 0.15334815 -0.045955
0001d0 ff f3 e0 bd 90 b5 61 bd de 06 a6 3c 5d c5 0e bd
       -0.109840386 -0.055104792 0.020266946 -0.03485619
0001e0 e4 8e a2 3e 93 a2 81 bd 4c f3 2a 3e 9c 50 ce 3d
       0.31749642 -0.06329837 0.16694373 0.10073969
0001f0 f8 ce 68 3d 65 1d 72 be 21 42 47 3d b6 8f eb bb
       0.056838006 -0.23644026 0.04864705 -0.0071887625
000200 8b 30 69 3d e3 fb 13 be ba a5 02 bd 10 19 05 be
       0.05693106 -0.14451556 -0.03189633 -0.12997842
000210 1f 16 8f 3c db 1c 0e 3c c2 88 8e 3a 33 58 a9 3d
       0.017466603 0.008673872 0.0010874497 0.08268776
000220 a2 86 61 bd 96 86 1e 3d dc f0 65 be 6a 96 fd 3d
       -0.055060036 0.03870257 -0.22455162 0.12382205
000230 09 ba 91 3e 3c 74 08 be 9a 1d 25 3c b7 35 f2 3d
       0.28462246 -0.1332559 0.010077858 0.118266515
000240 e8 50 c3 bc 0f 3d 68 bd 92 2d ec 3d 2f 9a 31 bd
       -0.02384229 -0.056698855 0.11532129 -0.04335993
000250 75 5f 93 bb b0 6e a8 bd 16 df a6 bd 7b 88 85 3c
       -0.0044974633 -0.08224237 -0.08148019 0.01630043
000260 2c 1d e5 3c 80 d7 9c 3d b8 d8 82 3c 23 b1 5d be
       0.027968012 0.07658291 0.01597248 -0.21649604
000270 8b 06 c9 3d 78 ab c8 3d 16 99 e9 bd 22 7d 23 be
       0.09815701 0.0979833 -0.11406152 -0.15965703
000280 e3 ed 33 be ff a9 fc 3c b4 1a 4c 3d fe 76 5a bd
       -0.17571215 0.03084278 0.049830154 -0.053336136
000290 38 1b 65 3d 63 f3 5a 3e 8f 6d e8 3d b8 0f 0e 3e
       0.05593416 0.21381907 0.11349022 0.13873184
0002a0 19 34 28 3a e3 75 76 bd a3 1c 26 3e ea 0f b5 3c
       0.00064164546 -0.06017102 0.16221862 0.022102315
0002b0 aa b1 81 3d 67 53 79 3d 61 91 0e bd 47 c9 c6 3d
       0.06332715 0.060870554 -0.034806613 0.09706359
0002c0 dc 65 b6 3d 6d 0a 78 3d 3a 73 f8 3c 6c 89 94 3c
       0.08906147 0.060556818 0.030328382 0.018131934
0002d0 32 d3 5a 3d 9c 5a 0e be 3e 2d 38 bc c8 5f d2 3b
       0.053424068 -0.13901752 -0.011241255 0.0064201094
0002e0 69 b6 7d 3e 4b 3c 7f 3d 86 47 ff bd 67 b7 67 be
       0.24776615 0.06231336 -0.12464814 -0.22628556
0002f0 61 b7 40 3e 3c cc 65 3e 67 f2 82 bd 73 e9 51 be
       0.18819954 0.2244119 -0.06393891 -0.2049921
000300 ef c5 05 3e 38 a2 68 bc 79 db 53 3d 60 5f 8d 3d
       0.13063787 -0.014198832 0.051722977 0.06902957
000310 d9 ef 40 3d ea 5c 86 3d 00 c1 f3 3d 29 06 b3 3c
       0.047103737 0.06560691 0.11902046 0.021853523
000320 25 90 c6 bc 55 9b 66 3e 6a 67 0a 3d 8a 3f 9d 3d
       -0.024238655 0.22520192 0.03379003 0.07678135
000330 d1 4a b1 bc 3e 19 69 be 30 30 12 3e 2b 26 0d 3e
       -0.02164212 -0.22763535 0.14276195 0.13784091
000340 17 4d dd 3d c0 1a ad bd 1b c3 cf bd 94 6b ca bd
       0.10805719 -0.08452368 -0.10144635 -0.098838
000350 54 76 03 3d d4 46 39 be e9 44 cc bd a4 20 1a 3d
       0.03209527 -0.18093425 -0.09974081 0.037628785
000360 50 cd fb bc 23 bf 06 3e 4f ac 01 be 53 a2 3c 3e
       -0.030737549 0.1315885 -0.12663387 0.18421297
000370 a0 bf 51 3c bd 45 f6 bd 57 a9 8c 3d f7 db a8 bd
       0.012802035 -0.1202502 0.068682365 -0.0824508
000380 ef 71 a2 bd 86 70 77 3d 4e 4d 96 bc 60 3e a5 bd
       -0.07931887 0.060410045 -0.018347409 -0.08068538
000390 18 47 58 3d 0a 46 de 3a 4d a7 7b 3e 7a d9 18 be
       0.052802175 0.0016958129 0.24575539 -0.1492671
0003a0 4f 79 86 3d 85 e5 54 bd f7 b8 70 3e cb da b2 bd
       0.065661065 -0.0519767 0.23508058 -0.08733138
0003b0 0f 23 8f 3c e8 c1 d8 bd ab 22 57 3d a6 51 47 3e
       0.017472772 -0.1058386 0.052523296 0.1946474
0003c0 43 6d 0c 3e a5 eb be bd 75 bb 0a bc 32 05 c8 3d
       0.13713555 -0.093222894 -0.008467545 0.09766616
0003d0 a7 ca 6e bc c3 f3 83 bd f5 eb 2f 3c 07 af 41 be
       -0.014574683 -0.06442978 0.010737409 -0.18914424
0003e0 94 84 4a be 29 0a 76 3d 2e 57 2c 3e e7 c5 87 be
       -0.19777137 0.060068283 0.16830131 -0.26518175
0003f0 70 74 29 3b f7 4c 2d bc 85 2c 04 3e 69 44 91 3d
       0.0025856756 -0.010577432 0.12907608 0.07093126

network_body._body_endoder.seq_layers.0.bias f4 [256]
000000 00 00 00 00 00 00 00 00 00 00 00 00 00 00 00 00
       0.0 0.0 0.0 0.0
000010 00 00 00 00 00 00 00 00 00 00 00 00 00 00 00 00
       0.0 0.0 0.0 0.0
000020 00 00 00 00 00 00 00 00 00 00 00 00 00 00 00 00
       0.0 0.0 0.0 0.0
000030 00 00 00 00 00 00 00 00 00 00 00 00 00 00 00 00
       0.0 0.0 0.0 0.0
000040 00 00 00 00 00 00 00 00 00 00 00 00 00 00 00 00
       0.0 0.0 0.0 0.0
000050 00 00 00 00 00 00 00 00 00 00 00 00 00 00 00 00
       0.0 0.0 0.0 0.0
000060 00 00 00 00 00 00 00 00 00 00 00 00 00 00 00 00
       0.0 0.0 0.0 0.0
000070 00 00 00 00 00 00 00 00 00 00 00 00 00 00 00 00
       0.0 0.0 0.0 0.0
000080 00 00 00 00 00 00 00 00 00 00 00 00 00 00 00 00
       0.0 0.0 0.0 0.0
000090 00 00 00 00 00 00 00 00 00 00 00 00 00 00 00 00
       0.0 0.0 0.0 0.0
0000a0 00 00 00 00 00 00 00 00 00 00 00 00 00 00 00 00
       0.0 0.0 0.0 0.0
0000b0 00 00 00 00 00 00 00 00 00 00 00 00 00 00 00 00
       0.0 0.0 0.0 0.0
0000c0 00 00 00 00 00 00 00 00 00 00 00 00 00 00 00 00
       0.0 0.0 0.0 0.0
0000d0 00 00 00 00 00 00 00 00 00 00 00 00 00 00 00 00
       0.0 0.0 0.0 0.0
0000e0 00 00 00 00 00 00 00 00 00 00 00 00 00 00 00 00
       0.0 0.0 0.0 0.0
0000f0 00 00 00 00 00 00 00 00 00 00 00 00 00 00 00 00
       0.0 0.0 0.0 0.0
000100 00 00 00 00 00 00 00 00 00 00 00 00 00 00 00 00
       0.0 0.0 0.0 0.0
000110 00 00 00 00 00 00 00 00 00 00 00 00 00 00 00 00
       0.0 0.0 0.0 0.0
000120 00 00 00 00 00 00 00 00 00 00 00 00 00 00 00 00
       0.0 0.0 0.0 0.0
000130 00 00 00 00 00 00 00 00 00 00 00 00 00 00 00 00
       0.0 0.0 0.0 0.0
000140 00 00 00 00 00 00 00 00 00 00 00 00 00 00 00 00
       0.0 0.0 0.0 0.0
000150 00 00 00 00 00 00 00 00 00 00 00 00 00 00 00 00
       0.0 0.0 0.0 0.0
000160 00 00 00 00 00 00 00 00 00 00 00 00 00 00 00 00
       0.0 0.0 0.0 0.0
000170 00 00 00 00 00 00 00 00 00 00 00 00 00 00 00 00
       0.0 0.0 0.0 0.0
000180 00 00 00 00 00 00 00 00 00 00 00 00 00 00 00 00
       0.0 0.0 0.0 0.0
000190 00 00 00 00 00 00 00 00 00 00 00 00 00 00 00 00
       0.0 0.0 0.0 0.0
0001a0 00 00 00 00 00 00 00 00 00 00 00 00 00 00 00 00
       0.0 0.0 0.0 0.0
0001b0 00 00 00 00 00 00 00 00 00 00 00 00 00 00 00 00
       0.0 0.0 0.0 0.0
0001c0 00 00 00 00 00 00 00 00 00 00 00 00 00 00 00 00
       0.0 0.0 0.0 0.0
0001d0 00 00 00 00 00 00 00 00 00 00 00 00 00 00 00 00
       0.0 0.0 0.0 0.0
0001e0 00 00 00 00 00 00 00 00 00 00 00 00 00 00 00 00
       0.0 0.0 0.0 0.0
0001f0 00 00 00 00 00 00 00 00 00 00 00 00 00 00 00 00
       0.0 0.0 0.0 0.0
000200 00 00 00 00 00 00 00 00 00 00 00 00 00 00 00 00
       0.0 0.0 0.0 0.0
000210 00 00 00 00 00 00 00 00 00 00 00 00 00 00 00 00
       0.0 0.0 0.0 0.0
000220 00 00 00 00 00 00 00 00 00 00 00 00 00 00 00 00
       0.0 0.0 0.0 0.0
000230 00 00 00 00 00 00 00 00 00 00 00 00 00 00 00 00
       0.0 0.0 0.0 0.0
000240 00 00 00 00 00 00 00 00 00 00 00 00 00 00 00 00
       0.0 0.0 0.0 0.0
000250 00 00 00 00 00 00 00 00 00 00 00 00 00 00 00 00
       0.0 0.0 0.0 0.0
000260 00 00 00 00 00 00 00 00 00 00 00 00 00 00 00 00
       0.0 0.0 0.0 0.0
000270 00 00 00 00 00 00 00 00 00 00 00 00 00 00 00 00
       0.0 0.0 0.0 0.0
000280 00 00 00 00 00 00 00 00 00 00 00 00 00 00 00 00
       0.0 0.0 0.0 0.0
000290 00 00 00 00 00 00 00 00 00 00 00 00 00 00 00 00
       0.0 0.0 0.0 0.0
0002a0 00 00 00 00 00 00 00 00 00 00 00 00 00 00 00 00
       0.0 0.0 0.0 0.0
0002b0 00 00 00 00 00 00 00 00 00 00 00 00 00 00 00 00
       0.0 0.0 0.0 0.0
0002c0 00 00 00 00 00 00 00 00 00 00 00 00 00 00 00 00
       0.0 0.0 0.0 0.0
0002d0 00 00 00 00 00 00 00 00 00 00 00 00 00 00 00 00
       0.0 0.0 0.0 0.0
0002e0 00 00 00 00 00 00 00 00 00 00 00 00 00 00 00 00
       0.0 0.0 0.0 0.0
0002f0 00 00 00 00 00 00 00 00 00 00 00 00 00 00 00 00
       0.0 0.0 0.0 0.0
000300 00 00 00 00 00 00 00 00 00 00 00 00 00 00 00 00
       0.0 0.0 0.0 0.0
000310 00 00 00 00 00 00 00 00 00 00 00 00 00 00 00 00
       0.0 0.0 0.0 0.0
000320 00 00 00 00 00 00 00 00 00 00 00 00 00 00 00 00
       0.0 0.0 0.0 0.0
000330 00 00 00 00 00 00 00 00 00 00 00 00 00 00 00 00
       0.0 0.0 0.0 0.0
000340 00 00 00 00 00 00 00 00 00 00 00 00 00 00 00 00
       0.0 0.0 0.0 0.0
000350 00 00 00 00 00 00 00 00 00 00 00 00 00 00 00 00
       0.0 0.0 0.0 0.0
000360 00 00 00 00 00 00 00 00 00 00 00 00 00 00 00 00
       0.0 0.0 0.0 0.0
000370 00 00 00 00 00 00 00 00 00 00 00 00 00 00 00 00
       0.0 0.0 0.0 0.0
000380 00 00 00 00 00 00 00 00 00 00 00 00 00 00 00 00
       0.0 0.0 0.0 0.0
000390 00 00 00 00 00 00 00 00 00 00 00 00 00 00 00 00
       0.0 0.0 0.0 0.0
0003a0 00 00 00 00 00 00 00 00 00 00 00 00 00 00 00 00
       0.0 0.0 0.0 0.0
0003b0 00 00 00 00 00 00 00 00 00 00 00 00 00 00 00 00
       0.0 0.0 0.0 0.0
0003c0 00 00 00 00 00 00 00 00 00 00 00 00 00 00 00 00
       0.0 0.0 0.0 0.0
0003d0 00 00 00 00 00 00 00 00 00 00 00 00 00 00 00 00
       0.0 0.0 0.0 0.0
0003e0 00 00 00 00 00 00 00 00 00 00 00 00 00 00 00 00
       0.0 0.0 0.0 0.0
0003f0 00 00 00 00 00 00 00 00 00 00 00 00 00 00 00 00
       0.0 0.0 0.0 0.0

network_body._body_endoder.seq_layers.2.weight f4 [256, 256]
000000 21 c6 91 bd ea 64 af bd 5c a2 09 bd 4b 95 39 3d
       -0.07117868 -0.0856417 -0.033602104 0.045308392
000010 61 51 27 3d 89 7c a5 3c ad ed 7e bc 3a 53 b0 bd
       0.040849093 0.020200985 -0.015559596 -0.08609624
000020 ea 32 a5 3c a4 ef 6e bb 61 64 10 3e 64 9d 84 3c
       0.02016588 -0.0036458755 0.14100792 0.016188331
000030 0f c8 ca bd 55 dd 81 3d f5 24 e4 bd e7 36 9f 3c
       -0.099014394 0.06341044 -0.111398615 0.01943536
000040 a7 97 dd bd 02 b6 60 bd a3 8d c3 3c 6c 1e 8d 3c
       -0.10819941 -0.054861076 0.023871249 0.01722642
000050 4d 79 cf 3c 84 09 bb 3c 9f 30 39 3d 85 44 72 3b
       0.025326395 0.022831686 0.045212384 0.003696711
000060 71 2c 19 bd 04 cf 0a be e3 e4 83 3c c3 ea 99 bd
       -0.0373959 -0.13555533 0.016100353 -0.0751548
000070 a3 4d 10 bd d9 c5 5f 3d d4 f0 7a 3d 20 38 36 3d
       -0.03523029 0.05463204 0.061264828 0.04448712
000080 62 b6 53 bd 71 64 f2 3c 77 40 0b bd a9 10 cf 3c
       -0.051687606 0.02958891 -0.033997025 0.025276499
000090 55 4b 92 3d 8a de 54 3d d7 8f 11 3c 19 2c 0f 3d
       0.07143275 0.051970042 0.008884392 0.034954164
0000a0 b3 c3 2c bd f0 24 3a 3d 7d 11 5f bd 3e 1f 93 bc
       -0.04217882 0.045445383 -0.054460037 -0.017959233
0000b0 05 fc c0 3d 81 c9 9c bd 96 1b 38 bc 85 c3 07 be
       0.09423069 -0.07655621 -0.011237046 -0.13258179
0000c0 0e f0 45 bd 41 18 14 3d 51 f4 99 3c 8a 22 f1 bb
       -0.048324637 0.036155943 0.018793257 -0.0073588537
0000d0 26 7e 97 bd eb 6e bd ba 2c 43 f8 3c 00 1b 7a bd
       -0.07397108 -0.0014452612 0.030305468 -0.061060905
0000e0 1a a9 40 3d 48 99 8f bd e6 55 1c 3d 7a 9e 04 bd
       0.047036268 -0.07011658 0.038167857 -0.032377698
0000f0 d3 75 fd 3c 03 e6 e3 3d e9 3c fa bd 15 6c 67 bd
       0.030939972 0.11127856 -0.12218649 -0.05649956
000100 9e dd 89 bb 6b f9 3f 3b f7 fe 15 bd 66 5b 88 bc
       -0.004207327 0.0029292952 -0.036620107 -0.016645145
000110 28 6b e8 bc 14 04 cf bc c6 69 fc bc 7f 13 8f 3d
       -0.028371409 -0.0252705 -0.030812155 0.069861405
000120 11 79 b2 3d 69 75 93 bd 39 96 b1 bd 44 69 63 bd
       0.08714498 -0.072001286 -0.08671231 -0.05552031
000130 3a 49 79 bd 46 3c 36 bd 09 bb a1 bb 58 74 2b 3d
       -0.06086085 -0.044491075 -0.0049356264 0.041859
000140 5e 67 42 3d c0 ab 20 3d fa 74 5c 3d 91 52 b2 3c
       0.04746186 0.039226294 0.053822495 0.021767886
000150 46 ab 69 bc d1 cc 33 3d b6 09 bc 3d 4b b4 b4 bb
       -0.014262026 0.0438965 0.0918154 -0.0055146567
000160 53 1b 90 3d 76 7f 82 3d a3 b6 0c be 13 6b 06 be
       0.07036462 0.063719675 -0.13741545 -0.13126783
000170 37 4b db 3d db fd 05 3e 67 5e 12 3e 77 c3 83 3c
       0.107077055 0.1308512 0.14293824 0.016084416
000180 d3 13 80 bd ef bd d0 bb e1 68 a2 3d 96 49 c1 bd
       -0.06253781 -0.006370298 0.0793016 -0.094378635
000190 dd 6d 49 3d 0d 8d 19 bc da 5b 1e 3d 8f 44 9a bc
       0.04917704 -0.009372008 0.038661815 -0.01883152
0001a0 93 c4 02 bd b6 5a ac bd e4 9c 29 bd a1 38 8f 3b
       -0.03192575 -0.08415739 -0.04140939 0.0043707644
0001b0 50 18 52 bd 0a ff 40 3d 90 8f b6 3c 88 ce b4 3d
       -0.051292717 0.047118224 0.022285253 0.08828455
0001c0 c3 81 90 3b bd 99 21 3d 1b 7e fa bc 6c 71 09 be
       0.00441 0.039453257 -0.03057771 -0.13422173
0001d0 8e e5 9f 3d 62 31 95 bb 73 07 b6 bd bf 33 21 3d
       0.07807456 -0.004553006 -0.088881396 0.03935599
0001e0 7d 26 b8 bc b2 95 15 be 52 22 cf bc cc fe 8f bc
       -0.02247929 -0.14607885 -0.02528492 -0.017577551
0001f0 c3 0d 29 bd 65 42 55 3d 52 f3 b6 bd e2 65 8d 3c
       -0.04127289 0.052065272 -0.089331284 0.017260496
000200 5a 2b 71 bd ee 91 04 3d 1b 33 a8 3b 1e 48 ce bd
       -0.058879234 0.032365732 0.0051330454 -0.10072349
000210 a7 9e 13 3e ea f1 89 3c 94 91 e2 3c d2 47 4b 3d
       0.1441599 0.016838986 0.027657308 0.04962904
000220 a1 73 c6 3c 6c 17 e9 3c e4 e7 a3 bc a5 2a ec bd
       0.024225058 0.028453551 -0.020008035 -0.11531571
000230 7e df 26 bd 95 43 94 bc cb fc be bd 06 b3 52 bd
       -0.040740483 -0.018098632 -0.0932556 -0.05144026
000240 a9 a4 ce 3d c7 17 c7 3c 9d 1c b8 bd 22 1f 32 3d
       0.1009 0.02430333 -0.089898326 0.04348672
000250 f8 ee 4e 3c cf eb 5c bd b6 f8 a5 3c c5 36 85 3d
       0.012630217 -0.053935822 0.020260196 0.06504587
000260 57 f4 cd bd 56 11 2b bc 66 01 19 bd bd 07 80 3c
       -0.1005637 -0.010441145 -0.03735485 0.01562869
000270 27 b2 7f 3d 62 8c 19 3e 9e d5 a2 bd 84 08 65 3d
       0.06242576 0.14994958 -0.079509005 0.055916324
000280 fb 0b 2c bc 52 61 83 3d 98 3d 3f 3d b5 2f 53 3d
       -0.010500903 0.06415047 0.0466896 0.05155917
000290 22 86 3c bd 87 f7 48 3d fe b1 9a 3c ab 15 dc bb
       -0.046026357 0.049064185 0.018883701 -0.00671645
0002a0 41 3b 30 bd e4 00 90 3d 96 54 65 bc aa 20 8e bd
       -0.04302526 0.0703142 -0.013997218 -0.06939824
0002b0 c5 1d 87 3a 6a 53 7b bd 89 4a 8d 3d 16 bb bd bc
       0.0010308555 -0.061358847 0.06898982 -0.023160499
0002c0 71 5c a2 3d 4f 37 0a bd 23 16 2d bd 61 f3 29 3d
       0.07927788 -0.033744153 -0.04225744 0.04149187
0002d0 ca 39 56 bc 26 4e eb 3c 6f 0f bc 3d 61 ec f0 bc
       -0.013075301 0.028723788 0.09182631 -0.02940959
0002e0 2c 4e 83 bd ad 06 be bc 6b ca fa 3b 39 ca 8d bc
       -0.064113945 -0.023196543 0.0076535246 -0.017308341
0002f0 20 43 20 bc 7f bb 48 bc ec ca 05 3e 43 9c cd 3c
       -0.009781629 -0.012251734 0.1306569 0.025098925
000300 e4 a4 04 be f3 9d d5 bc 00 14 a6 3b bc 80 a4 3c
       -0.12953526 -0.026076293 0.005068302 0.020080917
000310 af a3 00 3d e9 d3 5d bc 52 ae 00 bd 84 8e 1e 3d
       0.0314061 -0.013539293 -0.031416245 0.038710132
000320 6c 8b e8 bc e5 83 86 3b 43 1a 81 3b ae af 4c bc
       -0.028386794 0.0041050785 0.003939898 -0.012493057
000330 72 d1 23 bd 16 67 00 3c 72 4f 07 3c bc d3 56 3d
       -0.039994664 0.007837078 0.008258687 0.05244802
000340 ed 1a 28 bd 94 c8 15 bd cb 30 3c bc 9c 18 da bc
       -0.041041303 -0.03656824 -0.0114862425 -0.026623063
000350 64 3b a5 bd 85 fa 0f bb d9 68 7c 3c 17 f2 24 3d
       -0.080679685 -0.002196939 0.015405857 0.040269937
000360 24 22 28 3d 35 2c 07 be cc 7c 3c bd 16 de e7 3c
       0.041048184 -0.13200457 -0.046017453 0.028304141
000370 d2 c7 5f 3c 12 f7 8d bc ef d7 e0 3d 4d b2 5d bc
       0.013658481 -0.017329726 0.10978686 -0.01353128
000380 96 36 49 bd 09 63 ca bd 6c 42 39 bc da b0 58 bd
       -0.049124323 -0.09882171 -0.01130734 -0.052903034
000390 c6 5e 3a 3e 95 b3 e1 bd fe 6f bf 3d e5 27 97 bd
       0.18200216 -0.11020581 0.09347533 -0.07380656
0003a0 fa 32 a2 3b e7 0a 64 3e 94 61 2d bd 3b 1e ca 3c
       0.0049499245 0.22269784 -0.042329386 0.024672618
0003b0 9f 07 73 bd e6 69 c0 bb e2 77 24 3d 68 51 49 3d
       -0.05933344 -0.005871999 0.04015339 0.0491499
0003c0 1f fd aa 3d bf be 8c 3d 1e dc ec 3c 4d 78 e3 bd
       0.0834906 0.068723194 0.028913554 -0.1110693
0003d0 e1 4f a1 38 86 7d da 3d 80 f1 23 3d 51 ed 52 bd
       7.691957e-05 0.10668473 0.040025234 -0.051495854
0003e0 6f f0 cf 3c 8b 12 e6 bb 85 af 52 be 95 75 b8 3d
       0.025383202 -0.0070212535 -0.20574768 0.09006802
0003f0 e0 5a 85 3d 0d 17 bd bc 7c 31 2b bc 8e 48 00 3d
       0.06511474 -0.02308228 -0.01044881 0.031319194

action_model._continuous_distribution.log_sigma f4 [1, 12]
000000 00 00 00 00 00 00 00 00 00 00 00 00 00 00 00 00
       0.0 0.0 0.0 0.0
000010 00 00 00 00 00 00 00 00 00 00 00 00 00 00 00 00
       0.0 0.0 0.0 0.0
000020 00 00 00 00 00 00 00 00 00 00 00 00 00 00 00 00
       0.0 0.0 0.0 0.0

action_model._continuous_distribution.mu.weight f4 [12, 256]
000000 e7 42 e9 3b 4b 12 c5 bb 78 0e ed bb 0c 7d 30 bc
       0.007118571 -0.0060141436 -0.007234391 -0.010772001
000010 ef d8 de bb 98 b6 43 3b 13 22 08 3b fe b9 34 3c
       -0.006800763 0.0029863473 0.0020772263 0.011030672
000020 15 bc ae bb 65 8e af bb 0b af 7e 3b 08 1a a9 bc
       -0.0053324797 -0.005357551 0.0038861658 -0.020642295
000030 e9 d4 a3 bc 98 6b b6 bb f5 7c 16 bc e5 94 e3 bb
       -0.019998984 -0.0055670254 -0.0091850655 -0.00694524
000040 03 03 89 bc ff 3d 38 3a ba 7d 63 bb 13 22 76 bc
       -0.016725069 0.0007028281 -0.003471239 -0.015022772
000050 cf 47 7d bb c3 ca 81 3c db 05 7b bc 63 dc ac bc
       -0.0038647538 0.015843755 -0.01532122 -0.021101182
000060 43 17 d1 3a 88 75 d7 bb 1c 59 21 3b 0f 10 9b ba
       0.0015952367 -0.00657529 0.0024619764 -0.0011830347
000070 21 06 b4 3c 4a 99 ec bb 7e 3d 09 bb 3d dc 20 3c
       0.021975579 -0.007220422 -0.0020941193 0.009818134
000080 07 60 cd 3b 66 b6 49 3c 9f a8 ab bb 20 a3 b3 bc
       0.006267551 0.012311554 -0.005238607 -0.02192837
000090 1e 66 16 bc 9f 9b ec bb 97 29 17 bc f5 54 6f bc
       -0.00917962 -0.0072207 -0.009226224 -0.014607658
0000a0 b0 45 ed bb 67 8e ec bb bf c0 55 3a 0f f4 3b bc
       -0.0072409734 -0.007219124 0.00081540266 -0.011471762
0000b0 aa e8 5b bc 15 80 71 ba 2a ee 26 3c 89 25 8c 3c
       -0.013422171 -0.0009212506 0.010188619 0.017107742
0000c0 9b 26 4d 3c 3a 56 d3 bb 60 a5 e8 3a e9 25 bd 3b
       0.012521411 -0.006449488 0.0017749481 0.0057723415
0000d0 41 68 1a 3c bf 79 60 3c d3 56 51 3c 28 06 83 3a
       0.00942427 0.0137009015 0.012777048 0.0009996342
0000e0 f5 a5 91 3c 09 d1 81 3b 37 81 39 bc 94 d5 bc 3a
       0.01777933 0.0039616865 -0.011322311 0.0014406913
0000f0 2f 1f fe 3b 27 8b f1 3b 07 fb 87 bc b3 cb 31 bc
       0.007755182 0.0073713246 -0.016599191 -0.010851788
000100 12 c5 3e 3c bf 73 1a bb 3f f6 94 3c 2f 98 95 b9
       0.011643665 -0.0023567525 0.018183826 -0.0002853288
000110 91 e0 19 3c 45 70 00 3a e7 74 4e bb af 4c 21 3c
       0.00939192 0.0004899542 -0.0031502785 0.009844943
000120 da 08 29 3c f9 b9 a3 3c 3e c2 38 3c 99 95 91 bc
       0.010317052 0.01998614 0.01127678 -0.017771529
000130 27 21 a6 bb 30 61 15 bc f2 1a 0d 3c 83 36 10 3c
       -0.00506987 -0.00911741 0.008612381 0.008802059
000140 d0 d4 f5 3b 02 e4 4d bb 95 2e 5a 3c f3 8f 68 bc
       0.007502176 -0.003141642 0.01331677 -0.014194476
000150 20 70 d8 3c 81 b4 9b 3c b3 8f 06 bc 52 56 0e bb
       0.026420653 0.01900697 -0.0082129715 -0.0021718931
000160 ea ce d5 bb 13 ac 14 bc 58 af c5 3a 73 d5 ed 3c
       -0.00652491 -0.009074229 0.0015082164 0.029032445
000170 9a 69 9e bc 4d 28 ad 3c 08 2d 4b bc 3d a4 ff bb
       -0.019337464 0.021137381 -0.012400873 -0.007801561
000180 4f ef c7 ba df b8 cb 3b 68 49 ce 3b c1 01 02 3b
       -0.0015253815 0.0062171067 0.006295372 0.0019837471
000190 5e 18 c2 3b 04 75 44 3c cb 61 0f 3b 80 ac f9 bb
       0.005923315 0.011990789 0.0021878358 -0.0076194406
0001a0 23 4c 90 bc f7 2d 42 bb 8d cc c9 bb 46 b4 a3 3b
       -0.01761443 -0.0029629448 -0.0061584176 0.0049958555
0001b0 a2 fe ce bc 27 d4 fd b8 23 78 5e 3c ca 6b 93 bc
       -0.025267903 -0.000121034966 0.0135784475 -0.017995734
0001c0 90 11 b1 bc 95 72 53 3c 27 48 1b 3c 24 9e 44 3c
       -0.02161482 0.012905736 0.009477652 0.012000594
0001d0 d6 3e 8b bb c2 6c 49 bc 87 c3 6e bc 91 d3 2f bc
       -0.004249434 -0.012293996 -0.014572985 -0.010731594
0001e0 ab 95 ab ba 4f 0e 41 3b 0c 0c 9a bc 6e 6f 42 3b
       -0.0013090869 0.0029457991 -0.018804573 0.0029668468
0001f0 9c fc 36 bc ef 66 cb bb c2 79 9e bb 0b cf 35 39
       -0.011168625 -0.006207339 -0.004836292 0.00017338635
000200 88 d4 66 bc fb 86 54 bc 03 2a e7 bb 82 b6 41 bc
       -0.014088757 -0.012971635 -0.0070545687 -0.011823298
000210 93 0c 9b 3c 90 e2 3f 3c f7 9f 95 bc 76 7a 27 bc
       0.018926894 0.011711732 -0.018264754 -0.010222068
000220 90 ae 3e 3c aa 43 0a 3d 43 41 a1 3c 7b 25 a1 bc
       0.011638299 0.033755936 0.01968444 -0.019671192
000230 14 08 1c bb da 61 13 3b c8 d6 8d 3a ca 3b 14 3b
       -0.0023808526 0.0022488744 0.0010821456 0.0022618645
000240 75 9f e6 ba cf b1 8f bc 4a d1 6b 3b c4 95 3e 3c
       -0.0017595129 -0.01754084 0.00359829 0.011632387
000250 c7 37 91 bc 8e fc b9 3b 35 b4 57 bb 62 e5 4c bc
       -0.017726792 0.005675859 -0.0032913808 -0.012505861
000260 a4 96 43 bc e3 6f 12 3c a8 c0 7c bc bd 3d c5 3a
       -0.011937771 0.008937809 -0.015426792 0.0015048307
000270 87 a6 70 3a 36 61 05 bc 6b 77 3d bc c2 fe 55 3c
       0.0009180088 -0.008140853 -0.011564116 0.013061227
000280 4b 62 aa 3b b8 08 26 3c 8f c8 f8 ba 62 cc ba 3c
       0.0051997057 0.010133915 -0.001898067 0.022802535
000290 9c c5 36 3d c3 6e 4d 3b 83 82 a7 bb 0d a7 1d bc
       0.04462205 0.0031346537 -0.0051119938 -0.009622348
0002a0 4d 70 3e 3a c3 65 a8 bb 4b 82 8c 3c e6 bc ab 3b
       0.0007264659 -0.005139084 0.017151972 0.0052410243
0002b0 43 51 4e bc b8 cd d0 bc c5 40 2b 3c a1 18 b2 3c
       -0.0125926165 -0.02548872 0.010452454 0.02174026
0002c0 f5 ac 02 bc b2 b8 1f bc 24 ea a7 bc bf 21 82 bc
       -0.0079758065 -0.009748625 -0.02049739 -0.015885232
0002d0 ad 4a 38 3c 8f ac b7 bc 28 b3 7c bc c0 2c fd 3b
       0.011248273 -0.02242115 -0.015423574 0.007726282
0002e0 b1 59 b8 3c 73 87 dc 3b ef f2 41 bb 24 28 3a 3c
       0.022503706 0.006730014 -0.0029594263 0.011362109
0002f0 8f 77 6e bc 39 5f 43 ba 3b 0b 6a bb 3f e3 f7 3a
       -0.014554872 -0.0007452849 -0.003571226 0.0018912329
000300 85 ce d3 bb 7f e5 52 3c d0 1e cf bb 63 bc 3f bc
       -0.006463828 0.012872099 -0.006320812 -0.01170263
000310 0a af 16 3c ff fe 54 3b a3 14 bb 3b 59 16 9c bb
       0.009197006 0.0032500622 0.005709247 -0.0047634062
000320 7b 93 22 3d d8 52 02 3c 33 6d 09 3c d8 6a fa 3c
       0.03969143 0.007954322 0.0083878515 0.030568525
000330 0d 16 ed 3b f2 b9 75 bc 12 1e 49 bb 7b de fa bb
       0.0072352947 -0.014997946 -0.003068809 -0.0076559163
000340 6b 64 a3 3a b0 80 03 3c 98 f0 11 3c fa a1 09 3c
       0.001246584 0.008026287 0.00890746 0.008400435
000350 ea b8 37 3c 17 7c 98 3c 80 3f d8 39 9a 9c 66 3c
       0.011213521 0.018613858 0.00041246042 0.014075423
000360 c1 a8 c6 3b 0f 72 6b 3b e6 ad 87 bb 90 8f 9e bc
       0.0060625975 0.0035926139 -0.0041406034 -0.019355565
000370 df 08 d7 3a 16 dc bc bc fa c3 08 3c a4 cc b9 3b
       0.0016405842 -0.023054164 0.008347506 0.005670147
000380 27 ca bc bb 92 29 29 3b 6d 06 36 3c a3 b6 11 3c
       -0.005761403 0.0025812131 0.01110993 0.008893642
000390 28 98 e2 3c 23 df 61 bb 80 b9 88 3c f2 53 de bb
       0.027660444 -0.0034465275 0.016690016 -0.0067849094
0003a0 14 77 12 bd 4f 8a 07 3c e9 3b 9b bc b2 fd ca 3b
       -0.035758093 0.008272721 -0.018949466 0.0061947936
0003b0 07 7d 16 ba 4f 63 8a bc 26 b7 c6 3b 4b 81 bb 3c
       -0.00057406764 -0.016893057 0.0060643135 0.0228888
0003c0 47 40 03 3c bf 64 60 3b af bd bd 3a 35 7d 89 bb
       0.00801093 0.0034239737 0.0014476086 -0.004195834
0003d0 83 b1 21 3b 0f 4d 71 3b 1a 1e 92 3c 65 ff c7 ba
       0.0024672456 0.0036819612 0.01783662 -0.0015258609
0003e0 aa e4 2a bb c0 f1 3c 3c f4 c6 86 bc 25 12 81 bc
       -0.0026076236 0.011532247 -0.01645229 -0.015755722
0003f0 cb 63 2c bc 8b a1 9b 3c 25 f4 cf 3c d3 4e a3 3c
       -0.010521839 0.018997928 0.025384972 0.019935047

action_model._continuous_distribution.mu.bias f4 [12]
000000 00 00 00 00 00 00 00 00 00 00 00 00 00 00 00 00
       0.0 0.0 0.0 0.0
000010 00 00 00 00 00 00 00 00 00 00 00 00 00 00 00 00
       0.0 0.0 0.0 0.0
000020 00 00 00 00 00 00 00 00 00 00 00 00 00 00 00 00
       0.0 0.0 0.0 0.0

onnx::Div_51 f4 [74]
000000 00 00 80 3f 00 00 80 3f 00 00 80 3f 00 00 80 3f
       1.0 1.0 1.0 1.0
000010 00 00 80 3f 00 00 80 3f 00 00 80 3f 00 00 80 3f
       1.0 1.0 1.0 1.0
000020 00 00 80 3f 00 00 80 3f 00 00 80 3f 00 00 80 3f
       1.0 1.0 1.0 1.0
000030 00 00 80 3f 00 00 80 3f 00 00 80 3f 00 00 80 3f
       1.0 1.0 1.0 1.0
000040 00 00 80 3f 00 00 80 3f 00 00 80 3f 00 00 80 3f
       1.0 1.0 1.0 1.0
000050 00 00 80 3f 00 00 80 3f 00 00 80 3f 00 00 80 3f
       1.0 1.0 1.0 1.0
000060 00 00 80 3f 00 00 80 3f 00 00 80 3f 00 00 80 3f
       1.0 1.0 1.0 1.0
000070 00 00 80 3f 00 00 80 3f 00 00 80 3f 00 00 80 3f
       1.0 1.0 1.0 1.0
000080 00 00 80 3f 00 00 80 3f 00 00 80 3f 00 00 80 3f
       1.0 1.0 1.0 1.0
000090 00 00 80 3f 00 00 80 3f 00 00 80 3f 00 00 80 3f
       1.0 1.0 1.0 1.0
0000a0 00 00 80 3f 00 00 80 3f 00 00 80 3f 00 00 80 3f
       1.0 1.0 1.0 1.0
0000b0 00 00 80 3f 00 00 80 3f 00 00 80 3f 00 00 80 3f
       1.0 1.0 1.0 1.0
0000c0 00 00 80 3f 00 00 80 3f 00 00 80 3f 00 00 80 3f
       1.0 1.0 1.0 1.0
0000d0 00 00 80 3f 00 00 80 3f 00 00 80 3f 00 00 80 3f
       1.0 1.0 1.0 1.0
0000e0 00 00 80 3f 00 00 80 3f 00 00 80 3f 00 00 80 3f
       1.0 1.0 1.0 1.0
0000f0 00 00 80 3f 00 00 80 3f 00 00 80 3f 00 00 80 3f
       1.0 1.0 1.0 1.0
000100 00 00 80 3f 00 00 80 3f 00 00 80 3f 00 00 80 3f
       1.0 1.0 1.0 1.0
000110 00 00 80 3f 00 00 80 3f 00 00 80 3f 00 00 80 3f
       1.0 1.0 1.0 1.0
000120 00 00 80 3f 00 00 80 3f
       1.0 1.0
